models_demo/checkpoint105.pth.tar (torch_old, 502895 bytes, 10 tensors)

0.weight f4 [256, 26]
000000 ca a6 a5 3d 54 9f 71 bd 68 17 f7 bc 1f a6 3d 3e
       0.08088453 -0.058989838 -0.030162528 0.18520401
000010 14 40 06 bd 85 d7 b3 3d 04 8f 63 bd af 1b 00 3e
       -0.032775953 0.087813415 -0.055556312 0.1251056
000020 c8 f8 20 3d 2b 75 1c 3e 29 f2 25 3e 20 69 e8 bc
       0.039299756 0.15279071 0.16205658 -0.02837044
000030 c9 88 c9 bd 3b 58 ec bd 86 53 2b 3d 2d 26 32 bd
       -0.09840543 -0.11540266 0.0418277 -0.04349344
000040 dc 32 8e bd 07 cc 9d bd f0 2b 1b be 3f 90 94 3d
       -0.069432944 -0.07704931 -0.1515348 0.07254075
000050 b1 f0 28 3e 42 65 8d 3d 1b 47 41 bd a0 56 0e 3d
       0.16498066 0.06904079 -0.047186952 0.03475058
000060 30 a0 c5 3c 52 59 d8 bd c4 ba 77 3d 10 89 c8 bc
       0.024124235 -0.105639115 0.060480848 -0.024479419
000070 02 8b 80 3d 46 93 9b 3d ae 10 ba 3d 14 fb 42 be
       0.06276514 0.075964496 0.09085213 -0.19041091
000080 c0 d3 f5 bc 50 ab 7f bc e4 7f 0b bd 01 0d 31 3e
       -0.030008197 -0.015604809 -0.034057513 0.17290117
000090 79 21 a1 3d f9 2e 07 be 4d a0 c0 bd 90 c1 29 3c
       0.078677125 -0.13201512 -0.09405575 0.01036109
0000a0 98 d3 ff 3d b6 e8 f4 bd f8 de 18 bd 70 17 30 3c
       0.1249153 -0.119584486 -0.037322015 0.010747775
0000b0 0c cb 0f 3d 5c 2b 17 3d 0f 76 08 be d0 3b d7 3c
       0.03510575 0.036906585 -0.13326286 0.026273638
0000c0 e0 36 44 3e 5e 81 f8 3d 68 06 6c bd eb 03 00 bd
       0.19161558 0.1213405 -0.057623297 -0.031253736
0000d0 15 b3 93 bd d6 30 be 3d 16 32 86 3d 44 bf 1e be
       -0.072118916 0.092866585 0.06552522 -0.1550265
0000e0 81 d3 18 3e 71 a5 07 3e a9 f9 30 be e8 2e f5 bd
       0.14924432 0.13246705 -0.17282738 -0.11971837
0000f0 0e 74 f2 3d de a6 c2 bd 60 53 2d be 6f 60 3e 3e
       0.11838542 -0.09504484 -0.16926336 0.18591474
000100 4c fa 6d 3d bc 88 14 bd 65 24 d2 bd 5b 47 bf bd
       0.05810003 -0.036263213 -0.10260848 -0.09339782
000110 32 a5 84 3d 0f 79 36 3e 50 47 13 3c 98 3f a4 3c
       0.06476821 0.17819618 0.00898917 0.020049855
000120 7a 83 3a be 07 cb 08 3e be 39 b7 3d da e1 94 3d
       -0.18214217 0.13358699 0.0894656 0.0726964
000130 aa 6a c6 3d f4 20 33 3d e8 0a 0c 3d 01 da c7 bd
       0.09688313 0.0437326 0.03419009 -0.09758378
000140 ba e6 d4 3d ac e3 79 3d 25 3c d3 bd 12 67 46 be
       0.1039557 0.06100814 -0.10314206 -0.19375256
000150 98 84 88 bc 08 cb 06 bd 78 66 da bc c0 80 3c 3d
       -0.016664788 -0.03290847 -0.026660189 0.046021223
000160 fe 16 8b bd 00 67 da 3a 90 03 31 3c 2a f2 ce 3d
       -0.06791495 0.0016662776 0.010804072 0.10104783
000170 e5 b5 c7 bd b9 3e 10 bd 80 63 32 be c4 04 fc bd
       -0.097514905 -0.035216067 -0.17420769 -0.123055965
000180 a0 88 3e bd 7b 26 11 be bb 73 09 3e 74 90 19 be
       -0.046517015 -0.14174835 0.13423054 -0.1499651
000190 c1 c7 41 be 60 86 23 bc aa 90 83 3d 86 e8 29 3e
       -0.18923856 -0.009980768 0.06424077 0.16592607
0001a0 25 67 ad bd 1c 9a 4c 3d a0 ca 72 bd cf 7e c9 bd
       -0.08466939 0.049951658 -0.05927527 -0.0983864
0001b0 e0 21 a2 bb 97 94 d8 3d 25 62 ad bd 0d ba e6 bd
       -0.004947886 0.10575216 -0.08465985 -0.11265955
0001c0 af b8 ae bd 91 2a 39 3e e9 ff 11 be 94 b7 77 3d
       -0.08531319 0.18082644 -0.14257778 0.060477808
0001d0 46 72 8d 3d 1e 30 85 bd 68 89 13 be dc b9 a3 bd
       0.069065616 -0.06503318 -0.14407885 -0.07994434
0001e0 ee 8e cc 3d 32 9b a8 3d 62 ab 15 be 3a ce 31 3a
       0.09988199 0.08232726 -0.14616159 0.00067827443
0001f0 84 af d6 bc 58 f4 d0 3c a9 d6 fb 3d f6 4e cc bd
       -0.02620674 0.025507137 0.122968026 -0.09975998
000200 d7 a1 3d be 5e dc 21 3e c0 64 35 bb bb e6 2f 3e
       -0.18518768 0.1580672 -0.002767846 0.1717786
000210 b0 f2 1b bc c0 fe 4a bc 7e ca e8 3d 1f 7b 09 3e
       -0.00951831 -0.012389839 0.11366747 0.13425873
000220 08 9a b9 bc 9e 42 f9 3d 93 56 2a be 26 41 95 bd
       -0.022656456 0.12170909 -0.16634588 -0.07287817
000230 52 6b c3 bc f0 37 c2 3c ec 72 1e 3d 8a ee d0 3d
       -0.023854885 0.023708314 0.038683817 0.10201748
000240 01 4a 2d be 7e 45 96 bb 8d dd 1a be 36 93 12 be
       -0.16922761 -0.004585921 -0.15123577 -0.14313969
000250 00 98 a1 3d c6 45 40 3e 04 8b b1 bd c0 ee 0c 3b
       0.0789032 0.18776616 -0.08669093 0.002150461
000260 83 e5 32 3c 00 70 30 bb 3d 74 02 3e cb 3b 3b be
       0.010918978 -0.0026922226 0.12739654 -0.18284528
000270 36 80 87 3d c8 7e 39 be 40 bd 74 3b a0 b5 fb bc
       0.06616251 -0.1811477 0.0037344247 -0.030726254
000280 68 d8 4c 3d 6e 84 c2 bd 5b 22 08 3e e8 ec 2c 3d
       0.05001107 -0.09497915 0.13294356 0.04221812
000290 55 39 02 3e 7c 78 58 3d 1f 72 da bc 88 2d d8 bc
       0.12717183 0.052849278 -0.026665745 -0.026388898
0002a0 90 e3 0f bd 00 fd 3a bd ba 1b e3 3c e2 9d a3 3d
       -0.03512913 -0.045651436 0.027723182 0.07989098
0002b0 c9 3c 40 3e 78 fb f7 3c 3a 31 3e be a9 15 23 3e
       0.18773188 0.030271277 -0.18573466 0.15926231
0002c0 75 7d 42 3e c6 ec e3 3d be b4 92 bc ac 59 57 3d
       0.1899317 0.11129145 -0.01790845 0.052575752
0002d0 c0 53 fe bd c2 7c 2e 3e 50 66 9a bc 80 eb 90 3c
       -0.12418318 0.17039779 -0.018847615 0.01769042
0002e0 f0 01 4a 3c 54 48 90 bd 88 da 37 bd f0 e2 11 3e
       0.0123295635 -0.070450455 -0.044886142 0.14246726
0002f0 1e ec d7 bd 3a 38 de bd c8 b3 cb bd 2a 55 24 be
       -0.10543083 -0.10850568 -0.099464 -0.16048113
000300 ff 7e 11 be fa 5d fb 3d d2 a0 8b 3d 80 59 61 3b
       -0.14208601 0.12273784 0.068177834 0.0034385622
000310 53 7e 1b 3d f7 b2 20 be b0 98 a6 bc fa 6b 8f bd
       0.03796227 -0.1569327 -0.020336479 -0.07003017
000320 65 30 e4 3d 56 e7 f7 3d ac 22 11 3e 7b 86 ae bd
       0.11142043 0.12104671 0.14173383 -0.08521744
000330 74 9c b3 bc 15 52 d5 bd 0b 61 35 be aa 13 df bd
       -0.021925189 -0.104160465 -0.177128 -0.108924225
000340 58 d3 e4 3c ba 67 86 bd 64 20 50 bd a6 02 bb 3d
       0.027932808 -0.06562753 -0.05081214 0.091313645
000350 55 57 33 3e 0c 66 b3 3d 2f 3f 28 3e ce 14 ae 3d
       0.17513783 0.08759698 0.16430353 0.08500062
000360 a2 20 af 3d b1 c0 12 3e 4b cc 0c be 20 ab 09 3d
       0.08551146 0.14331318 -0.13749807 0.033610463
000370 01 53 35 3e e7 e4 18 3e d8 4e 9d 3d 02 85 29 3e
       0.17707445 0.1493107 0.07681054 0.16554645
000380 37 d5 9f bd 26 90 d7 3d 68 f8 2e be ea 75 18 3e
       -0.078043394 0.10525541 -0.17086947 0.1488873
000390 c4 b6 5c 3d 3a db c8 3d 15 91 cf bc 01 eb 38 3e
       0.053885236 0.09807439 -0.025337735 0.18058397
0003a0 a0 be fa bc e7 b1 c9 3d 62 b4 0f be 06 29 e7 3d
       -0.030608475 0.09848385 -0.14033654 0.112871215
0003b0 59 dc 1d be 47 8a 09 3e f8 aa 64 bd e8 a5 0b be
       -0.15416087 0.13431655 -0.05582711 -0.13637507
0003c0 24 2e 71 3d c0 66 f4 bb 84 b8 7d 3d 24 bb 23 bd
       0.058881894 -0.007458538 0.061943546 -0.039973393
0003d0 3c 2c 08 3d 07 ca 25 3e 50 e6 97 3c 26 eb dd 3d
       0.03324531 0.16190349 0.018542439 0.10835867
0003e0 02 7a 02 be e1 8b 10 be 70 2e 32 3c d2 a2 e1 3d
       -0.12741855 -0.1411586 0.010875329 0.11017384
0003f0 89 53 a9 bd b4 a8 25 be 55 f6 aa bd 59 1e a1 bd
       -0.08267886 -0.16177636 -0.08347765 -0.078671165

0.bias f4 [256]
000000 19 ac 44 be 23 02 d7 bd 3d 30 94 bd 63 e7 15 be
       -0.19206275 -0.104984544 -0.07235763 -0.14639048
000010 0f f4 13 3c b6 5a f4 3d 9f 15 99 3d 87 a0 29 3e
       0.009030356 0.11931364 0.07474827 0.16565143
000020 6c 97 3e bd 64 e5 6b 3d 9f 7b 30 3e c0 59 ad 3c
       -0.046531126 0.05759181 0.17234658 0.02116096
000030 77 08 91 bd e3 55 cc bd a2 e0 62 3c 47 85 8c 3d
       -0.07081693 -0.09977319 0.013847502 0.06861358
000040 92 bb 53 bd 47 26 3c 3e 96 47 b5 bd 84 c9 1d be
       -0.051692553 0.18373977 -0.088515446 -0.15408903
000050 13 ac 09 be 45 9f 19 3d ac b8 21 be 8e 3f 07 3c
       -0.13444547 0.037505407 -0.15793103 0.008254899
000060 04 1d 2f bd 45 57 91 3d 1d 25 3c be ad e2 5e 3c
       -0.04275228 0.070967235 -0.18373533 0.013603848
000070 19 a6 fa bd 42 ba ce bc 06 3c 34 3d bc 37 36 be
       -0.12238712 -0.025235299 0.044002555 -0.17794698
000080 2c d1 aa bd 81 3d 0e bc 7a 68 b4 3d 40 12 c0 3c
       -0.083406776 -0.008681656 0.0880899 0.023446202
000090 69 a4 24 be be 8b 04 3e 81 c6 ac 3b 52 30 a6 bd
       -0.16078342 0.12943932 0.005272687 -0.08114685
0000a0 23 f9 1a 3d 73 3f 09 3e a9 74 96 3d 2b e5 e8 3c
       0.03783525 0.1340311 0.0734647 0.028429588
0000b0 6b c0 b0 bc dd 56 92 bd f0 63 de 3c e6 7d 87 bd
       -0.021576127 -0.07145474 0.027147263 -0.0661581
0000c0 c9 be 98 bd 2c c3 65 3d 58 22 02 3e d3 f1 ae bc
       -0.074582644 0.056094334 0.12708414 -0.021355545
0000d0 dd 16 a7 bd c0 07 22 bd 22 fc cc 3d a0 f8 0a bc
       -0.08158658 -0.039558172 0.10009028 -0.008482128
0000e0 0f f4 43 3e 99 b6 d6 bd d7 48 a0 bd 37 c6 2b 3e
       0.1913607 -0.104840465 -0.07826393 0.16774832
0000f0 ad bf 2c be b7 60 29 be 89 70 46 3e 24 30 68 3d
       -0.16869994 -0.165408 0.19378866 0.056686535
000100 92 9b 12 bc 81 34 2f 3e e7 77 28 be 35 9c c5 bd
       -0.008948224 0.17109872 -0.16451989 -0.09648935
000110 7a ef db bd 3f 8d fe bd b3 c4 0e be b1 43 cf 3d
       -0.10739036 -0.12429284 -0.13942222 0.10120333
000120 18 f3 27 be 26 06 8f 3d d1 c6 cf 3d c9 45 5c 3c
       -0.16401327 0.069835946 0.10145343 0.013444372
000130 08 aa 06 3e cb e5 44 be ec b6 25 be d8 1d bf 3d
       0.131508 -0.19228284 -0.1618306 0.09331864
000140 8a 93 3d 3e 6a f8 6c bd 89 20 83 3d 16 bc bb bd
       0.18513313 -0.057854094 0.0640269 -0.09166734
000150 90 ea fe 3d 2a 6f 65 3d 09 72 1c be 91 75 15 3e
       0.12447083 0.056014217 -0.15277876 0.1459563
000160 63 cd 21 be 81 be 37 bd 86 e8 25 3e ca 62 e0 3c
       -0.15801005 -0.044859413 0.16201982 0.027390856
000170 eb 9f 47 bd 67 60 4b 3d 45 12 c7 3d b5 2b 2f be
       -0.048736494 0.049652483 0.097202815 -0.17106517
000180 73 89 14 be 4e a2 d1 3d 61 b0 99 bd df 1f 34 3d
       -0.14505558 0.10236035 -0.07504345 0.043975707
000190 36 46 1e be 94 d5 09 be 46 7b b9 3d 97 f8 bc 3d
       -0.15456471 -0.1346038 0.09056716 0.09227102
0001a0 5e 1b b7 3d 4c f7 a2 3c 1c ab 61 bd 1d f9 04 3e
       0.08940767 0.019893311 -0.055094823 0.12985654
0001b0 29 53 3f bd ce 61 43 3e d9 64 dd bd 8c 80 80 bd
       -0.046710167 0.19080278 -0.10810251 -0.06274518
0001c0 f5 ba 3d be e5 0d db 3d 85 7a 35 be 1a 20 c0 bd
       -0.1852835 0.106960095 -0.17722519 -0.09381123
0001d0 3f 44 b4 bd 5e 2c 47 3e 6a ae 1f be 50 07 40 be
       -0.088020794 0.19450518 -0.15593877 -0.1875279
0001e0 9c ff 7c 3d 87 01 fb 3d 19 ba df bd 0c 9d dc 3d
       0.061767206 0.12256151 -0.10924167 0.10772142
0001f0 08 c5 ec bc 17 e4 50 3c 3c cd 27 3e 2d 37 2c be
       -0.028902546 0.012749693 0.16386884 -0.16817923
000200 d8 97 2e be 06 3f 20 be d9 67 ba 3d f8 57 2f 3d
       -0.17050111 -0.15649042 0.091018386 0.042808503
000210 6b cd 6e 3d c3 fc d9 bd 17 47 2b 3e 24 8e 36 3e
       0.05830137 -0.106439136 0.16726337 0.1782766
000220 a2 a6 1a 3c 24 9e 1b bd 12 31 e8 bd bf e8 09 bc
       0.009439142 -0.03799261 -0.113374844 -0.008417307
000230 14 79 03 be 6a 32 fa bd fa da 83 3d 63 0d 20 be
       -0.12839156 -0.12216647 0.06438251 -0.15630107
000240 6a 3a 22 3d e4 9e 16 3d fc 17 c3 3d 55 0d eb bd
       0.03960649 0.036772624 0.09526059 -0.11477152
000250 4a d9 1c bb bf 93 b2 3d 10 84 cb 3d 66 3a 45 be
       -0.0023933225 0.087195866 0.09937298 -0.19260558
000260 37 5e 72 3d 5c 40 5b 3d 9e f4 45 be 6a de ee bd
       0.05917188 0.053528175 -0.19331595 -0.11663516
000270 e0 87 43 3e 82 24 09 be 71 b4 28 bd e9 01 5c 3d
       0.19094801 -0.13392833 -0.041187707 0.05371276
000280 c6 bc 98 3d 92 a2 2c 3e fc 01 8e bd 36 67 96 3d
       0.07457881 0.1685889 -0.06933972 0.07343905
000290 6a 08 b3 bc a2 95 ba 3d b9 9b 21 3e 80 ab 29 3b
       -0.021854598 0.091105714 0.1578206 0.0025889575
0002a0 b6 f4 48 be bc 13 2f be 34 cb 13 3e ab 50 47 3e
       -0.196246 -0.17097372 0.14432985 0.19464366
0002b0 8d a7 a5 bd eb e4 e3 3d 9e 89 65 3d 53 13 41 3e
       -0.080885984 0.11127647 0.056039445 0.18855028
0002c0 7b 47 e3 bc 8e ea 1a 3d 62 db db 3d ba fd 01 be
       -0.027744045 0.037821345 0.10735203 -0.12694445
0002d0 a8 12 e4 bd 4d 5c 15 3d 17 da 2d be 78 f7 41 3e
       -0.11136371 0.036464978 -0.16977726 0.18942058
0002e0 8d 97 73 3b e4 ab 0a be f0 6d 4b 3c 3b 3a 87 bc
       0.0037169189 -0.13542134 0.012416348 -0.016507259
0002f0 a0 cb d7 3c 06 3b 30 3e dc 9e 6b 3d 85 32 c8 bd
       0.026342213 0.17210016 0.057524547 -0.09775261
000300 50 e2 03 be e4 a6 ae 3b e5 a3 0e 3e 18 c9 8e bc
       -0.128793 0.0053299535 0.13929708 -0.017429873
000310 6b 53 b0 bc a6 6a 2f 3d b6 ab 2e be f5 29 55 bd
       -0.021524152 0.042826317 -0.1705769 -0.052041966
000320 ae 20 ca 3c 7e 06 1e 3e bc bd 07 be b0 73 e7 bc
       0.024673786 0.15432164 -0.13255972 -0.028253406
000330 d6 4e bb 3d 9a a0 e3 bd 26 25 d2 bc 22 80 31 be
       0.09145896 -0.11114617 -0.02565248 -0.17334035
000340 bc fd df 3d 9e c1 98 3d d0 4a dd 3c 48 eb be bd
       0.10937068 0.074588045 0.027013212 -0.0932222
000350 e0 47 30 3e b3 c0 27 3e 34 81 b7 3d 86 b2 b4 3b
       0.17214918 0.16382103 0.089601904 0.0055144457
000360 a0 7a a7 bd 7a bc 04 3e b5 23 0c be fd 56 35 3d
       -0.08177686 0.12962523 -0.13685496 0.04427241
000370 83 91 9a bd a8 8d 39 3d 8d 8e c9 bc 05 2b 05 3d
       -0.075472854 0.04530111 -0.024604106 0.03251173
000380 4c 28 7d bd ca 89 d5 bd 3f d2 06 3e 7b 3a 10 3e
       -0.06180601 -0.10426672 0.1316614 0.14084809
000390 e4 2e ee 3c e5 56 42 bc 33 26 01 3e b5 2a 16 be
       0.029075094 -0.011861538 0.12612228 -0.14664729
0003a0 d3 e0 b9 3d 58 5e 43 3e eb 6a 17 bd 34 d7 5e 3d
       0.09076085 0.19078958 -0.0369672 0.054404452
0003b0 34 eb cd 3d 7d 30 ea 3d fe e3 3a be f8 59 2d bd
       0.10054627 0.1143503 -0.18251035 -0.04232213
0003c0 56 f0 43 3e 5b 31 c4 bd 9b ad 2e be a6 d6 c2 bd
       0.1913465 -0.09579726 -0.17058413 -0.09513597
0003d0 5a d4 0f 3e c0 8a 10 3e da 92 0b 3e ee a2 90 3d
       0.1404585 0.14115429 0.13630238 0.07062326
0003e0 b0 69 b8 bc b8 6e a8 3d 0f 10 ca bd d0 20 ff 3c
       -0.022511333 0.08224243 -0.09866344 0.031143576
0003f0 5a 0f a2 3d fb 59 3b 3e 46 32 95 bd 3e aa 1f be
       0.07913084 0.18296044 -0.072849795 -0.15592286

2.weight f4 [256, 256]
000000 9e 6b 2c 3d 30 b9 65 3c 3e b9 45 bd 1c b7 b7 3c
       0.04209482 0.014021203 -0.048272364 0.02242618
000010 70 4a 48 3c b4 72 9a bc b0 1e 89 bc 04 e8 33 3d
       0.0122247785 -0.018853523 -0.016738266 0.04392244
000020 30 8c a0 3b 00 a6 11 bc 00 6e 3b b9 c8 51 2f bd
       0.004899524 -0.008889675 -0.00017874688 -0.042802602
000030 7a 90 06 bd a8 40 51 bd ac c7 b3 3c e8 80 e1 3c
       -0.032852627 -0.05108705 0.021945797 0.027527288
000040 dc af fb bc 52 15 22 bd 60 cf f8 bc b0 c8 a1 bb
       -0.030723505 -0.039571114 -0.030372322 -0.004937254
000050 ac d3 7d bd 96 4e 2c bd 00 68 dd b9 fc 62 28 3d
       -0.061969444 -0.042067133 -0.0004222989 0.041110024
000060 fe 24 06 3d 40 65 b5 3a 2c 7c ef bc 4e b0 2c bd
       0.032750122 0.0013839379 -0.029234014 -0.042160325
000070 06 69 37 bd 20 44 40 bc a8 75 fa bc e0 25 f1 3c
       -0.044777893 -0.011734992 -0.030573681 0.029437006
000080 98 3c 42 3d 82 8b 1c bd 80 f3 61 3d 00 06 84 39
       0.047421068 -0.038218983 0.05516386 0.00025181472
000090 ae ba 5d bd 00 e7 1f 3d a0 43 c8 3b b4 ce 10 bd
       -0.05413311 0.03903866 0.006111577 -0.035353377
0000a0 08 24 49 3d 00 88 ee b9 0e 8d 0d 3d 68 0e f6 bc
       0.049106628 -0.00045496225 0.03455835 -0.030036166
0000b0 c8 94 47 bd 80 fc 4e 3d 68 b2 1d bc a8 95 7e bd
       -0.048725873 0.05053377 -0.009625055 -0.062154442
0000c0 7e d4 57 3d de 09 30 bd 22 1a 41 bd d0 70 e7 bc
       0.052692883 -0.04297816 -0.047144063 -0.028252035
0000d0 2a b5 41 3d 00 22 ef ba 18 82 88 3c 04 50 32 3d
       0.047291912 -0.0018244386 0.016663596 0.04353334
0000e0 6e 71 21 3d 38 e4 10 3d 12 03 0f 3d 3a 2e 6c 3d
       0.039414816 0.035373896 0.034915037 0.057661273
0000f0 40 98 e3 3b c8 f3 c9 bc a0 fb bb 3c 20 33 52 3c
       0.00694564 -0.024652377 0.022947133 0.012829572
000100 70 dd d0 bb 7c ff 84 bc 10 22 28 bd 80 54 3e bb
       -0.0063740537 -0.016235106 -0.04104811 -0.0029042065
000110 60 9f 49 3b b0 37 6e bd 9a 3e 4f 3d a0 de 4d 3c
       0.003076516 -0.058158576 0.05059681 0.012565285
000120 c0 fe 2d bd b0 fd 72 bc 48 91 0a 3d e8 4c b0 bc
       -0.042479277 -0.014830992 0.033829957 -0.021521047
000130 d0 c5 6d bc 64 3e b2 bc 10 11 22 3d d0 87 aa bb
       -0.014512494 -0.021758266 0.039567053 -0.0052041784
000140 68 e2 48 bc 50 20 8e 3b 40 b8 81 3b 10 17 91 3b
       -0.012261011 0.004337348 0.003958732 0.004427798
000150 48 fd 43 bd 58 b2 80 3c 50 5b 29 bd 34 8f 00 bd
       -0.04784897 0.01571004 -0.041346848 -0.03138657
000160 70 99 15 bc 92 03 64 3d bc d0 d9 3c 08 cd 88 bc
       -0.009130821 0.055667467 0.02658879 -0.016699329
000170 be 37 06 3d bc f0 fa 3c 60 b3 eb 3b 40 0d d5 3a
       0.032768004 0.03063237 0.007193014 0.0016254559
000180 20 7a 17 3c 82 d1 76 3d 00 80 47 3a 4e 4a 2b 3d
       0.009245425 0.060258396 0.0007610321 0.04181891
000190 08 93 b4 bc 40 4a f0 bc 4a 71 24 3d f4 5a b1 3c
       -0.022042766 -0.02933228 0.040147103 0.021649815
0001a0 d8 e7 7a 3c b4 01 51 3d 10 cc b9 3b 24 65 8d bc
       0.015314065 0.051027015 0.005670078 -0.017260142
0001b0 98 5d 1a 3c 9e f5 61 bd 08 59 6a 3c 60 f8 e5 bb
       0.009421729 -0.05516588 0.014303453 -0.007018134
0001c0 58 45 3b 3d 3a 7b 41 bd 6c 4b ef 3c 44 ff cf 3c
       0.04572043 -0.04723666 0.029210769 0.025390275
0001d0 80 15 32 bc 1e 0f 71 3d 6a bc 4f 3d 64 55 4a bd
       -0.010869384 0.058852307 0.050716795 -0.04939784
0001e0 3c d6 ff bc 3e 86 4a bd 9a 9c 35 bd ee a0 05 3d
       -0.031230085 -0.04944443 -0.0443388 0.032624178
0001f0 78 ff 2d bd 0c 2d 90 3c 60 11 54 bc e8 70 01 bd
       -0.042479962 0.017599605 -0.012943596 -0.031601816
000200 ea 2e 0a 3d c4 5b 0a 3d 98 b2 0d bc ec b1 95 3c
       0.033736147 0.03377892 -0.008648537 0.018273316
000210 a4 8d 21 bd c0 92 a9 ba ec 23 ed bc 5c 31 36 3d
       -0.03944172 -0.0012937412 -0.028947793 0.044480667
000220 2c 9c 8b 3c 98 a8 39 bc be cd 6c bd 88 c8 60 3d
       0.017042242 -0.0113317 -0.0578134 0.05487874
000230 24 64 e6 3c ac de 27 bd 74 3c 28 bd 0e c2 39 bd
       0.028123923 -0.04098384 -0.041073278 -0.04535108
000240 80 90 f3 3c 42 86 34 bd 70 45 c0 3b 7a 08 2c 3d
       0.029731989 -0.04407335 0.0058676526 0.04200027
000250 2a b1 18 bd 30 90 e8 bc 48 eb e2 3c 9a 75 4f 3d
       -0.03727833 -0.028389066 0.027700081 0.050649263
000260 78 37 a9 3c 34 d0 ca bc 96 c8 1f 3d 38 47 8f 3c
       0.020656332 -0.024757482 0.039009653 0.017490014
000270 f0 7c 9a 3b 62 30 1d bd f8 7b 31 3c f0 40 4f bd
       0.0047146007 -0.03837622 0.010832779 -0.05059904
000280 80 e3 04 bb 04 00 d8 3c 9e 39 6f 3d 74 af 7f 3d
       -0.0020277202 0.026367195 0.058404557 0.062423185
000290 10 89 ce bb 68 ca 04 bd d8 3e 54 bd 00 46 73 bc
       -0.00630296 -0.032419592 -0.051817745 -0.014848232
0002a0 0a b6 59 bd 92 aa 7c bd aa d5 64 bd 7c 87 26 bd
       -0.05315212 -0.061686106 -0.05586783 -0.04065655
0002b0 9a 5c 60 bd 48 4e 6a 3c 60 81 6d 3c 50 21 dc 3c
       -0.05477581 0.01430089 0.014496177 0.026871353
0002c0 0e 5b 58 bd 46 e3 1f bd 00 5d 24 3d f8 ff 56 bc
       -0.05282121 -0.039035104 0.040127754 -0.013122551
0002d0 90 db fc bc da ce 6e bd 56 21 1a bd 6c b6 ed bc
       -0.030866414 -0.058302738 -0.037629448 -0.02901765
0002e0 3c 0c 5f 3d 18 79 4a bd a2 bf 04 bd d0 10 f1 3c
       0.054455027 -0.04943189 -0.032409318 0.029426962
0002f0 18 6a f0 bc 3c c6 e3 bc 84 a2 f9 bc 64 2f aa bc
       -0.029347464 -0.027804486 -0.030473001 -0.02077455
000300 42 d6 1c bd 40 50 7c bc c0 39 e1 3b 9a 32 2f bd
       -0.03829027 -0.0153999925 0.0068733394 -0.042772867
000310 f6 9f 1c bd 80 db e7 bc 92 2a 68 3d 3e a3 36 bd
       -0.03823849 -0.028302908 0.056681223 -0.044589274
000320 9a 94 4e bd bc 1b 83 bc 60 b6 c5 3c 9e 67 54 bd
       -0.050434686 -0.016004436 0.024134815 -0.05185663
000330 56 17 04 3d c0 96 e6 3a 78 05 23 3c e0 0d d7 bb
       0.032248817 0.0017592534 0.009950034 -0.0065629333
000340 32 b7 5f 3d 44 f0 70 bd 26 b0 68 3d 48 94 63 3c
       0.054618068 -0.058822885 0.056808613 0.0138903335
000350 bc ca 81 3c 3a 2e 64 3d 38 c3 f6 3c 60 7c 5c bd
       0.015843742 0.055708148 0.030122384 -0.05382955
000360 f4 c3 c6 3c 60 c4 34 bd 22 e0 7f bd e4 7c 46 bd
       0.02426336 -0.04413259 -0.06246961 -0.04845895
000370 24 b0 a7 bc 1e ab 23 3d 38 c5 78 bd 2e 6e 6e 3d
       -0.020469733 0.039958112 -0.060734957 0.058210544
000380 00 a0 34 b9 3c 6d f9 3c ec 79 37 bd 28 1e 65 bc
       -0.00017225742 0.030447595 -0.044794008 -0.013984241
000390 c0 7d 59 bb 70 4c e2 3c 4a b4 4a 3d 8e e1 0a bd
       -0.0033186525 0.027624339 0.049488343 -0.033906512
0003a0 6a 1b 3b 3d 64 2a 38 bd 6c d6 bd 3c 5c 1a d3 bc
       0.04568044 -0.0449623 0.023173533 -0.025769405
0003b0 10 3a a2 3b 60 55 6a bb 1c 25 96 3c f0 79 60 3c
       0.0049507692 -0.0035756454 0.018328242 0.013700947
0003c0 f0 79 94 bc f4 fe a1 3c 50 df a6 3c cc 0f c0 bc
       -0.01812455 0.019774891 0.020370156 -0.023445033
0003d0 00 aa 8b 3c ea b7 63 bd 00 c1 b6 bb 62 00 27 bd
       0.017048836 -0.055595316 -0.0055772066 -0.04077185
0003e0 d8 64 b5 bc 46 44 15 bd 1c 0b 96 3c ec 2c 99 3c
       -0.022142813 -0.036442064 0.018315844 0.018698178
0003f0 2c 87 e0 bc f4 bc fa 3c 74 cc 60 3d c6 ac 78 3d
       -0.027408205 0.030607678 0.05488248 0.060711645

2.bias f4 [256]
000000 72 c8 44 bd b2 35 95 bb a8 f7 62 3d 46 44 48 bd
       -0.048042722 -0.00455352 0.055411965 -0.048893236
000010 30 9c 46 3d b2 d4 e9 bb f6 9a 6d bd 6a 07 0b 3c
       0.048488796 -0.007135951 -0.05800911 0.008485654
000020 8f a7 f6 3c d6 3b 36 3d 9f 33 97 bc 78 26 36 3d
       0.030109195 0.044490658 -0.018457232 0.04447028
000030 4e f0 2d 3d 6c bf 05 bc 03 61 df bb 5c 69 ea 3c
       0.0424655 -0.008163314 -0.0068169846 0.028614692
000040 7b 58 88 3c 18 89 37 bc c0 8b ee b8 c6 6f 34 bd
       0.016643753 -0.011202119 -0.00011374755 -0.044051908
000050 30 4c 77 3b 42 82 0f bd d9 8d 57 bd d8 6b 7a 3d
       0.003773462 -0.035036333 -0.05262551 0.061138004
000060 28 29 f8 3c 8a 1c 36 3d 64 54 95 3c ab 0a f1 bc
       0.030293062 0.04446081 0.018228717 -0.029424032
000070 02 5b 12 bd e3 fe 31 bd e1 0f 48 3d 90 55 38 3d
       -0.035731323 -0.04345597 0.04884327 0.045003474
000080 ba ea de bc 8e 7d 22 3d 35 8f f2 bc e8 b0 62 bd
       -0.027211536 0.03967052 -0.029609302 -0.055344492
000090 00 d1 fc b9 04 82 b0 bc 56 02 38 bd 9d ec 5c bd
       -0.00048220903 -0.021546371 -0.044924103 -0.05393659
0000a0 88 d4 0c 3d 20 3e 83 3c 48 c5 65 3d 66 6b 26 bd
       0.034382373 0.016020834 0.056096345 -0.040629767
0000b0 f0 3e 0f 3c bd 90 90 bc 66 59 15 3d 14 a9 01 3d
       0.008743033 -0.017647142 0.03646221 0.031655386
0000c0 f6 a2 6e bc e1 25 d3 3c 2f 93 3a 3d 40 68 0d bd
       -0.01456522 0.025774898 0.04555052 -0.03452325
0000d0 c0 02 0b bb 02 19 03 3d bc 5f ed 3c 16 05 5b bd
       -0.0021211356 0.03200627 0.028976314 -0.053471647
0000e0 bf 3d 24 bd 58 e9 3a bd ec 3f a4 3c b7 71 ee 3c
       -0.04009795 -0.04563269 0.020050012 0.029106958
0000f0 d0 cc 77 bc 90 07 65 b9 60 9e ce 3b 7f 10 fd bb
       -0.015124515 -0.00021841959 0.006305501 -0.0077229138
000100 ef 88 02 3d 03 b8 80 3d 1a de 4f bd 26 25 0f bd
       0.03186887 0.062850975 -0.050748922 -0.034947537
000110 45 77 4f 3b 8f 7b 9c bc 1e ff 1b 3d e8 9b 30 3c
       0.0031656784 -0.019101886 0.038085096 0.010779358
000120 ef af 05 3d dc cd fc bc 50 c3 e2 bb 22 66 0a bd
       0.032638486 -0.03085988 -0.0069202557 -0.033788808
000130 66 1d 57 3d 76 49 a4 3c 00 fb ca b9 ee ec 79 bd
       0.05251827 0.02005456 -0.00038715452 -0.06101697
000140 c3 2b 82 bc c5 f6 e5 bc 6d ec 0c 3c 10 ea 71 3d
       -0.015890008 -0.02807177 0.00860129 0.05906111
000150 8b c5 a4 bc 18 98 58 bd 91 ae a8 bb f0 31 9f 3c
       -0.020113727 -0.052879423 -0.005147763 0.019432992
000160 80 a8 59 3b ba bb 30 3d 81 21 05 3d d8 59 20 bc
       0.0033212006 0.04314778 0.032502655 -0.009787045
000170 92 bd 08 bb c4 5b f4 3b 7c 55 83 3c 0e c5 6c 3d
       -0.0020864946 0.0074572284 0.016031973 0.057805113
000180 c7 44 d7 3c a6 f0 18 bd c1 1b fa 3c d8 56 68 bd
       0.026277913 -0.037338875 0.030530812 -0.056723446
000190 ef 04 14 3d 03 6e 97 ba f4 ff 0f 3d 4b 72 28 bd
       0.036137518 -0.0011553172 0.035156205 -0.041124623
0001a0 24 f3 78 bd f0 34 5f 3d 45 c0 1b 3d 3f 0b 73 3d
       -0.060778752 0.054493845 0.03802516 0.059336897
0001b0 42 83 fd 3c 86 ef aa 3b c8 38 88 3b 0c b7 dc bc
       0.030946378 0.0052165417 0.0041571595 -0.026942752
0001c0 d9 46 bd 3c 20 b6 21 bc 1a 77 ca bc 50 78 7c bd
       0.023105072 -0.009870082 -0.024714995 -0.061638176
0001d0 be de 6f 3d 02 2b 4f 3d 41 00 41 bd db 57 de 3c
       0.058562033 0.050578125 -0.047119383 0.027141502
0001e0 8a c1 a8 bb cd 55 93 bc b0 f4 ab bc 35 f4 a0 3c
       -0.005150025 -0.017985249 -0.0209907 0.019647697
0001f0 b8 25 2b bd 2e 9d a7 bc a8 f6 e3 bc 5b 76 73 3d
       -0.04178402 -0.020460691 -0.027827576 0.059439044
000200 a4 a3 df bc da 0b fe bb 4e 2e cb 3c c1 e9 54 bd
       -0.02729971 -0.0077528777 0.024802353 -0.051980738
000210 3c c8 72 3d fb 93 bd 3c 40 96 4c bd 31 6f 32 bd
       0.05927299 0.023141852 -0.049947977 -0.04356307
000220 04 60 b9 bc 6e c6 35 bd a3 fd e1 bc 43 95 49 3d
       -0.022628792 -0.04437869 -0.027586764 0.049214613
000230 c6 fb 49 3b e8 dd 28 bd 0d 93 bc bc bf 9e 7b bc
       0.0030820235 -0.04122725 -0.023019338 -0.015357672
000240 43 54 e5 3a a8 cf 03 bc 5c 37 0c 3d 4d de 06 bd
       0.0017496425 -0.008045115 0.034232482 -0.032926846
000250 46 ed 3f bd f0 93 e3 38 50 d5 83 3c 1a 50 67 3c
       -0.04685714 0.00010851759 0.016092926 0.014118219
000260 12 eb 09 bd 29 0e 18 bd e7 92 27 bd 28 76 33 3d
       -0.033671446 -0.03712288 -0.04091158 0.043813854
000270 75 21 25 3d 0b c5 df 3c b8 82 d8 3c 30 55 93 bc
       0.04031511 0.027315637 0.026429519 -0.017984957
000280 71 f3 7d 3d eb 39 91 3b b9 cc 2b bd 98 38 17 bd
       0.061999742 0.004431953 -0.041943286 -0.036919206
000290 c9 6f db bc dc e7 43 bd c6 21 6a bd 5d 83 6f bd
       -0.026786702 -0.04782854 -0.057161115 -0.058474887
0002a0 62 77 27 3d 10 37 bc 3c ce 02 b7 bc c0 6c b6 3c
       0.040885337 0.022975475 -0.022340205 0.022268653
0002b0 cb b7 3e bd ed 9e f1 3c 7c 00 99 3c 61 9a 42 3d
       -0.046561997 0.029494727 0.018676989 0.04751051
0002c0 12 53 11 3d 9f 30 2f bd 1e df 2b bd b1 cf 54 bc
       0.035479613 -0.042770978 -0.041960828 -0.012988971
0002d0 94 9c e1 bc 2d 44 1a bd 60 72 70 3d 1d e6 41 bd
       -0.027540483 -0.037662674 0.058702826 -0.047338594
0002e0 54 51 42 3d fd bc 01 bd 80 c9 62 3a af 71 0d bd
       0.04744084 -0.031674374 0.00086512417 -0.034532245
0002f0 51 ce 3d bd 6a a2 d8 bc 21 3f b7 bc 6c 2f 56 3d
       -0.046339337 -0.026444633 -0.02236897 0.05229132
000300 ae 51 7a bc 75 1b d7 3c a4 05 c0 3c f0 d4 86 3b
       -0.015278263 0.02625821 0.02344019 0.0041147396
000310 62 79 30 3d 00 70 76 b8 76 7c 41 bd 2f 81 5f 3d
       0.04308451 -5.875528e-05 -0.047237836 0.05456656
000320 56 92 9b 3c d4 df 31 bd cb 27 3a 3d 5f 7e 71 bc
       0.018990677 -0.04342635 0.045448106 -0.014739602
000330 3e 2b 49 3d 17 6f 6a 3d ab 3d 79 3d 39 39 e9 3c
       0.049113505 0.05723485 0.060849827 0.028469669
000340 c2 71 5d bd f5 99 f5 bb c4 ba b0 3c c0 19 cf 3b
       -0.054063566 -0.0074951597 0.021573432 0.0063202083
000350 18 08 25 3d 7c ef 38 3d 62 27 36 3d 55 fe f8 bc
       0.040290922 0.045150265 0.044471152 -0.030394712
000360 16 96 0c 3d be 6c a3 bc 6b f8 22 3d 96 27 1a 3d
       0.03432282 -0.019949313 0.03978769 0.03763541
000370 ed 0f 5b bc 11 77 9b bc 90 6a df bb f0 dc 7b 3c
       -0.013370496 -0.018977674 -0.006818123 0.0153725
000380 59 f1 1c bc 67 a8 c5 3c 75 93 f4 bc f8 b6 db 3c
       -0.009579026 0.024128152 -0.02985547 0.026820645
000390 2e 44 5d 3d c8 da 2c 3d 0e b4 5c 3d b6 e3 69 3d
       0.0540201 0.042200834 0.05388265 0.057101928
0003a0 ab b2 ec 3c 21 b5 11 3d 9f 8f 5c bd f8 54 27 bd
       0.02889379 0.03557313 -0.053847905 -0.040852517
0003b0 8c 9b 36 3d e0 71 30 bc 34 5f 25 bd a1 b3 a5 3c
       0.044581935 -0.010769337 -0.040373996 0.020227255
0003c0 68 64 6f bc 08 b5 15 bd 8b c0 17 bd 89 5d 5f bd
       -0.014611341 -0.036549598 -0.037048858 -0.05453256
0003d0 25 c2 34 bd 23 0f 1f bc 3a 5a 13 bd fb 23 c7 3c
       -0.044130463 -0.009708199 -0.03597472 0.024309149
0003e0 98 c9 1c 3d 78 32 16 3c 4d b2 7a 3c 57 2a a2 bc
       0.038278192 0.009167306 0.015301299 -0.01979558
0003f0 10 e1 ad 3c b4 d8 64 3d 98 59 72 bd 71 bb 30 3d
       0.021225482 0.055870727 -0.059167475 0.043147508

4.weight f4 [128, 256]
000000 ce 7d 0f 3d 30 1e 56 bc b8 5f 52 3c 00 02 66 3d
       0.035032086 -0.013068721 0.012840204 0.05615425
000010 ce 14 62 bc 7e f2 be 3c 68 6a 43 3d 8c c7 e3 bc
       -0.013798906 0.023308989 0.0477089 -0.027805112
000020 40 79 b8 3a 26 58 82 bc ba 12 f9 3a 94 5b 6f bd
       0.0014074221 -0.015911173 0.0019002773 -0.058436945
000030 14 9b 1f bd ad 78 48 bd 63 b2 30 3d d0 44 94 bc
       -0.038966253 -0.04894321 0.043138873 -0.018099219
000040 a6 82 30 bc 08 9c b3 3c 00 22 f2 3b 34 86 64 3d
       -0.0107733365 0.021924987 0.007389307 0.05579205
000050 6c 7a 53 3d 57 c3 24 bc 49 2c 93 bc 15 1b 3b bd
       0.051630422 -0.010056338 -0.017965453 -0.045680124
000060 c8 d4 74 bc 04 4c 2a 3c 97 46 ae bc b9 84 15 bd
       -0.014943309 0.0103941 -0.021273894 -0.036503527
000070 84 04 09 3d 49 4f 57 ba a6 f3 7e bc e2 96 29 3d
       0.033451572 -0.00082134135 -0.01556102 0.04140366
000080 36 f3 76 3d da 5e 8c 3c c7 6d 1c 3d a9 9d d7 3c
       0.060290538 0.017135072 0.03819063 0.026320295
000090 c6 26 2a 3d 20 cc bb bb 6d 21 9b bc d8 73 74 bc
       0.041540883 -0.0057311207 -0.018936837 -0.014920197
0000a0 af 62 ea 3c e3 71 86 bc c2 fd 5b bd 60 7e d0 3c
       0.02861151 -0.016411727 -0.0537088 0.025450885
0000b0 84 c1 cb 3c 31 bc 75 bb d8 9c 4b bd 43 c5 93 bc
       0.024872549 -0.0037496204 -0.049710125 -0.018038398
0000c0 2d e2 e8 3c 8e 04 db 3c eb d3 bc 3c 4d 22 16 bd
       0.028428162 0.02673557 0.02305027 -0.036653806
0000d0 04 5f 20 bd 6a 7f 65 bd 90 c2 29 3d 00 b7 17 ba
       -0.039153114 -0.056029715 0.041445315 -0.0005787462
0000e0 00 30 5c 3c 00 39 7c bb d0 42 d1 3b 33 a9 e5 bb
       0.0134391785 -0.0038486123 0.0063861385 -0.0070086955
0000f0 4c 20 41 3d 0e 18 9e bc e0 24 4c bc 80 bf 74 3b
       0.04714994 -0.01929858 -0.012459964 0.0037345588
000100 81 d2 4f bd 82 1b ec bb a8 91 17 bd 0e 6c 27 3d
       -0.05073786 -0.0072054276 -0.037004143 0.040874533
000110 80 59 25 3a de b3 11 3d 4a 23 66 bd e0 8a 5b 3c
       0.0006307587 0.035571925 -0.056185998 0.01339981
000120 d1 66 72 bd f0 d5 0b 3c 74 bd 28 3d 60 85 01 3c
       -0.059180085 0.008534893 0.0411963 0.007905334
000130 0d c9 55 bd 3a 36 5b bd b0 c9 63 bd 20 66 c6 bb
       -0.05219369 -0.05351851 -0.055612266 -0.0060546547
000140 6c 78 c2 3c e2 7e 59 bd 4c f1 6c 3d 0a 3a dd 3c
       0.023739062 -0.05309952 0.057847306 0.027005214
000150 75 1e cf 3c 0a 78 1e 3d cc 46 90 bc 52 d0 2c bd
       0.025283078 0.038688697 -0.017611884 -0.042190857
000160 52 0b 6a bd b2 8d 45 3d 89 5c 98 3c 60 ba a9 bb
       -0.057139702 0.048230834 0.018598812 -0.0051796883
000170 82 6d c1 3b a3 73 6f 3d 90 31 8b bb 16 d1 d3 bc
       0.005902947 0.05845989 -0.0042478517 -0.025856536
000180 cb 6b 76 bd f2 91 44 bd 61 06 d7 3c b6 fd 76 bd
       -0.060161393 -0.047990747 0.026248159 -0.06030055
000190 4f f7 11 bc d0 da ed bb e8 37 23 bd d6 a8 c7 bb
       -0.008909061 -0.0072587505 -0.03984824 -0.006093125
0001a0 8c aa be 3c ee a6 ef bc 33 f4 69 bd fb 25 2c 3d
       0.023274682 -0.029254403 -0.057117652 0.04202841
0001b0 84 ea 4a bd 09 a4 fa 3c be 90 4f 3c 08 b4 90 bc
       -0.049540058 0.030595796 0.012668787 -0.01766397
0001c0 11 57 63 bb a0 1b 66 bc a7 f8 59 bd fa 61 38 bd
       -0.0034689347 -0.014044672 -0.05321565 -0.045015313
0001d0 e5 9d 42 3c b2 67 0f 3d ac 10 61 bd 5e 9d 1a bd
       0.011878465 0.035011 -0.05494754 -0.037747733
0001e0 9e db ae 3b 80 1a b0 3b d0 58 bc 3b a4 ab 68 bb
       0.005336239 0.005374253 0.005747892 -0.0035502696
0001f0 00 44 65 b9 e3 0f 07 bd fa 2d be 3c c4 50 e9 bb
       -0.00021864474 -0.032974135 0.023215283 -0.0071202237
000200 f8 d8 66 bc 7c 42 3e bd 03 3d 4d bd 10 db df 3c
       -0.014089815 -0.046450123 -0.050107013 0.027326137
000210 ad 35 06 3d 48 2c 9b 3b c4 2c 77 3d 3a 05 49 3d
       0.032766033 0.0047355033 0.060345426 0.04907725
000220 38 32 14 bd 41 e2 cc 3c 88 86 12 bd 25 4c 3c bc
       -0.036180705 0.02501023 -0.03577283 -0.011492764
000230 96 ac 14 bc f2 c8 19 bd f2 4b 42 bd 61 82 89 bc
       -0.009074351 -0.037545152 -0.04743571 -0.016785802
000240 b3 d8 c3 bc e5 cd 9c bc 7a 69 b2 bc 16 27 55 3d
       -0.023907041 -0.019141147 -0.02177881 0.05203923
000250 74 d6 26 bd 00 5e cb bb 33 4e 8c 3c 30 0b 41 3d
       -0.040731862 -0.006206274 0.017127132 0.04712981
000260 2c b4 37 bd 8b 6b 35 3d 15 7d 49 bd e0 57 c8 bc
       -0.04484956 0.044292014 -0.049191553 -0.024455965
000270 f1 b8 0c 3c de 10 a3 bc a0 fa 78 3d 28 2c 18 bd
       0.008589015 -0.019905504 0.06078589 -0.037151486
000280 05 e7 4c bd c0 42 ce 3c 3e 2b 34 3d 21 24 71 3d
       -0.050025005 0.025178313 0.04398655 0.058872346
000290 5e 25 d1 bc d2 4f 31 bd 84 f5 5c 3d 55 b4 2b 3d
       -0.025530513 -0.043289013 0.05394508 0.041920025
0002a0 05 3d 4a 3d 16 f3 2e bd 9a fe 5a bd 38 7e 16 bc
       0.0493746 -0.042712294 -0.053465463 -0.009185366
0002b0 c4 21 09 bd ef c9 ef 3b ba 54 9a 3b ed a4 12 bb
       -0.033479467 0.0073177735 0.004709807 -0.0022376135
0002c0 45 5f 20 bb ed 98 5e 3d 1b 67 28 bd 42 87 d7 3b
       -0.0024470848 0.05434506 -0.041113954 0.0065774033
0002d0 0a ce 7d bd 28 5a 6d bc 75 24 be 3c 07 59 13 bd
       -0.061964072 -0.014486827 0.023210743 -0.035973575
0002e0 83 7f 73 bd 94 00 12 bd b8 45 64 bc a7 92 4d 3a
       -0.059447777 -0.035645083 -0.013932638 0.00078419823
0002f0 66 7a 45 3d 30 15 4d 3d 48 e2 0e bc 77 76 1c 3d
       0.04821243 0.050069034 -0.008720942 0.038198914
000300 e3 e7 5a bd fc 05 67 bd 80 cb 93 3b 88 66 2a bd
       -0.0534438 -0.05640219 0.004510343 -0.041601688
000310 cc 01 42 3d b6 6c 17 bd f8 4a e2 bc b8 82 1d bc
       0.047364995 -0.03696891 -0.027623639 -0.009613685
000320 e6 ab d1 3c bc 1d b2 bc 4d 73 58 bd f4 9a 7b 3d
       0.025594663 -0.021742694 -0.052844334 0.06142707
000330 c4 1d a0 3c da 4b 0c bc 5c 7a 17 bb fa 5e 89 bc
       0.019545443 -0.008563006 -0.0023113703 -0.016768921
000340 9a 44 2b bd b7 d9 47 bc d4 77 17 bd 2e 83 56 bd
       -0.04181347 -0.012197903 -0.03697951 -0.052371196
000350 40 36 75 bd 50 7f da 3b e6 70 8a bb 90 bf 5c bd
       -0.05986619 0.006668009 -0.0042248843 -0.053893626
000360 7e db 60 bd 63 bd c7 bc 37 49 10 bd de 14 e9 bc
       -0.054896824 -0.024382299 -0.035226073 -0.028452333
000370 23 d9 e0 3c 10 40 77 bc bc 35 22 3d 54 9a cc bc
       0.027447289 -0.015090957 0.039602026 -0.024975933
000380 8d 63 07 3d d5 2b 4a 3d 78 e0 6e 3d b6 ce 09 3d
       0.033053923 0.049358208 0.05831954 0.0336444
000390 64 23 3e bd 1d 88 b4 bc a7 1d 74 bc 03 98 d0 bb
       -0.04642047 -0.02203756 -0.014899648 -0.0063657775
0003a0 ac e1 16 ba 12 57 69 3c e5 cc 15 3a 20 7f 48 3c
       -0.00057556736 0.014241951 0.00057144306 0.01223734
0003b0 c8 10 72 3c 98 1c 45 3d 78 7e 04 bd f8 51 69 bc
       0.014774509 0.048122972 -0.032347172 -0.014240734
0003c0 9d ee 54 3d 5c 61 13 bd da db 37 3d 98 5d 91 bb
       0.05198537 -0.03598152 0.0448874 -0.004436206
0003d0 72 24 1a bd a8 cc 20 3d f5 be 25 3d 88 7f fa bc
       -0.037632413 0.039257675 0.040465314 -0.03057839
0003e0 66 98 61 bd 48 ca 89 3c 4f c1 60 3d e2 9d f3 bc
       -0.05507698 0.016820088 0.054871853 -0.02973837
0003f0 02 71 09 3d c6 0e d8 3a b6 69 67 bd fe 25 ea bc
       0.03355504 0.0016483895 -0.0564973 -0.02858257

4.bias f4 [128]
000000 ca 31 9f 3c 94 61 2b bd 2c bb 99 bc 08 1c 33 bd
       0.019432921 -0.041841105 -0.018766008 -0.043727905
000010 27 18 3b 3d 60 a1 ac bc 08 fa 0c 3c 0a c5 5e 3d
       0.04567733 -0.021073043 0.008604534 0.05438713
000020 34 4b 06 3d e8 9c 40 bc a4 f1 c4 bc 87 fe 63 3d
       0.032786563 -0.011756159 -0.024041004 0.055662658
000030 cf f3 15 3d 28 31 f1 bc fc 13 d0 bb 62 07 11 bd
       0.036609467 -0.029442385 -0.0063500386 -0.03540743
000040 28 18 a7 3c 3e 4f 11 bd f8 42 60 bd e3 69 12 3d
       0.02039726 -0.035475962 -0.054751366 0.035745513
000050 82 73 4d 3d a0 b1 79 3c 19 79 14 bd 34 7f 69 3d
       0.050158985 0.015240103 -0.0362483 0.057006076
000060 31 f6 1b 3d 8c 36 d0 bc 6e c4 6d 3d 74 52 f6 bc
       0.038076583 -0.025416635 0.058048658 -0.030068614
000070 62 a7 0c 3d 02 76 0d 3d 92 f8 ad 3c f2 1c 80 3d
       0.034339316 0.03453637 0.021236692 0.06255521
000080 d8 eb 5b bd ce 63 5c bd 1f 4e 43 3d 3a 83 15 3d
       -0.053691715 -0.05380612 0.047681924 0.0365021
000090 2c f1 64 bd a5 88 49 3d d7 55 8c bc 50 91 4a bd
       -0.055894062 0.04920258 -0.017130775 -0.049454987
0000a0 4a c5 d6 3b 3a 1a 18 3d 25 94 3c 3c 23 4a ba 3c
       0.0065542804 0.037134387 0.01150993 0.02274043
0000b0 4a 4f 13 3c b0 3e 55 bd dd 6b 1a bd d6 a0 24 3d
       0.008991072 -0.052061737 -0.037700523 0.040192448
0000c0 a5 fc 1a bd 04 30 06 bc f7 38 ce 3c 6e 7e 45 3d
       -0.037838597 -0.008190159 0.025173647 0.048216276
0000d0 cc f2 36 3d a7 c3 f7 3c 3c f7 85 3c 82 55 4e bd
       0.044665143 0.030244661 0.016353242 -0.050374515
0000e0 de 25 b3 3c f3 60 c0 3c 80 dd ce 3a a7 2b 85 bc
       0.021868642 0.023483729 0.0015782565 -0.016256167
0000f0 50 23 6a 3d 3e 16 40 bd 44 f7 a4 bc d9 d6 ce 3c
       0.057162583 -0.04689621 -0.020137437 0.025248932
000100 08 9a 40 bd c6 9f 58 bd 2b c7 51 3d 10 77 9c 3c
       -0.047021896 -0.052886747 0.051215332 0.019099742
000110 b8 8b ac bc 20 48 67 3c 59 b6 f4 3c 8a 19 48 3d
       -0.021062717 0.014116317 0.029872106 0.04885248
000120 be 23 2d bd 28 1a 00 bc e6 75 8a bc be 5f 0f 3d
       -0.042270415 -0.007818736 -0.016901921 0.035003416
000130 a7 a1 40 3c 39 55 20 3d e2 b6 4c bd c3 ba 46 3d
       0.011757291 0.039143775 -0.0499791 0.048517954
000140 10 a1 16 3d 73 c5 88 3c 6b f9 a8 bc 64 2b 70 3d
       0.036774695 0.016695714 -0.020626744 0.05863513
000150 01 f2 8b bc 0a 8d 73 3d f9 72 19 3d 9e 57 85 bb
       -0.01708317 0.059460677 0.037463162 -0.0040692827
000160 22 10 20 bd 27 46 b6 bc b0 0e cb 3c 83 13 c3 bb
       -0.039077885 -0.022250248 0.024787277 -0.0059532537
000170 11 69 e4 3c 50 81 c6 bc 32 a7 24 bd 3f 3d 2d 3d
       0.02788213 -0.024231583 -0.040198512 0.042294737
000180 0c a4 08 bd 06 56 72 bd 39 54 5e 3c be 46 72 3b
       -0.033359572 -0.05916407 0.013569885 0.0036968435
000190 1e d2 41 bd 2c 39 e9 3c 5e 9b 67 bd 50 3a 3f bc
       -0.047319524 0.028469644 -0.056544654 -0.011671618
0001a0 8b ee a8 bc 6a aa 5d 3d c4 24 ac ba 90 71 bf bc
       -0.020621559 0.054117598 -0.0013133516 -0.02336958
0001b0 56 02 1f bd 1a 12 9f bb 40 c2 03 bd 8f 9b 56 3d
       -0.038820587 -0.004854453 -0.032167673 0.052394446
0001c0 6d 51 50 3d fd 23 b4 3c f1 79 f2 3b 22 c3 7c 3d
       0.050858904 0.021989817 0.0073997905 0.06170953
0001d0 46 6c 4c 3b 72 7b 15 3d f4 15 77 bd 0a 48 4e 3d
       0.0031192466 0.03649468 -0.06032367 0.05036167
0001e0 93 fc 07 3b 63 c2 e3 3c ca aa 03 bd 50 19 3f bd
       0.0020749911 0.027802652 -0.0321453 -0.046655
0001f0 1a 76 a0 bc 50 c7 a7 bb 3e f2 79 bd 37 6e 11 bd
       -0.019587565 -0.0051201954 -0.061022036 -0.0355055

6.weight f4 [128, 128]
000000 22 52 0b bd 71 48 38 3d e2 04 31 3d b1 21 88 3d
       -0.034013875 0.04499096 0.043217547 0.06647051
000010 7e 54 34 bd 44 9c 2b bd 81 01 39 bd 34 22 f2 bc
       -0.04402589 -0.041897073 -0.04516745 -0.029557325
000020 0b 24 44 bd b0 fe 38 3c 8c fd ad bc 74 2f b0 bd
       -0.047885936 0.011291191 -0.021239065 -0.08602801
000030 04 e5 53 bd 38 0c 33 3c 8a 2f dc 3c 3b 75 9b 3d
       -0.05173208 0.010928206 0.026878137 0.07590719
000040 9c 5b 0a 3c c6 46 78 3d b6 97 29 3d 99 38 b0 3d
       0.008444693 0.06061437 0.04140445 0.08604545
000050 69 3a 0e bd 9d 06 4d bd 62 07 8e bd fc 57 85 3d
       -0.034723673 -0.050055135 -0.06935002 0.06510922
000060 85 ec 8f bd 78 aa 60 bc e3 5f 2c 3b 90 e7 e6 bb
       -0.070275344 -0.013712518 0.002630227 -0.0070466474
000070 3f 78 61 3c 16 42 ca bc b0 85 5f 3c 3d 30 92 3d
       0.013761579 -0.024689715 0.013642713 0.07138107
000080 ac 6b cc bc e0 7c 03 3c 60 85 4f bc 77 70 54 bd
       -0.024953686 0.008025378 -0.012666076 -0.051865067
000090 b5 e1 b0 3d 2d 67 10 3d 56 59 9d bd 4c 18 a3 3c
       0.086368 0.035254646 -0.07683055 0.019909047
0000a0 0c e6 91 3c 56 99 a2 3d 84 ee 81 3c 0e 70 03 bd
       0.01780989 0.07939403 0.015860803 -0.032089286
0000b0 5a 94 5d 3d ac 17 e6 bc fa d4 0f 3d 28 72 a7 bd
       0.054096557 -0.02808746 0.03511522 -0.081760705
0000c0 78 ee 57 bc 65 e3 e8 bb 77 fd 86 bd 34 c5 bc bc
       -0.013179414 -0.0071071857 -0.06591313 -0.023043253
0000d0 12 6a 2f 3d e7 ef a9 3d 60 6f bd 3c 70 7f 98 bc
       0.042825766 0.08297711 0.023124397 -0.018615454
0000e0 a1 5d 8b bd 8f 76 b2 3d cb 7b 97 3d f6 ee 6d bd
       -0.06804968 0.087140195 0.073966585 -0.05808922
0000f0 0f 8b 36 3c f8 e0 c3 3c 00 11 99 3b 84 db f6 b9
       0.011141553 0.023910984 0.004671216 -0.00047084328
000100 98 45 76 bc f6 90 1b bd 94 ce 1e 3d 57 df 2d 3d
       -0.015031241 -0.037980042 0.038771227 0.04244932
000110 b0 f9 56 bc e0 8a 36 3c 52 90 77 3d ea 9d 41 3d
       -0.013121054 0.011141509 0.06044037 0.04726974
000120 0b e3 5c bd be 05 3f 3d be b5 1f bc a2 a6 54 bd
       -0.053927463 0.046636336 -0.009747921 -0.051916726
000130 dd 75 af 3d 08 f9 e1 bb ab e0 6c bd a8 82 a2 bd
       0.085674025 -0.006896142 -0.057831448 -0.07935077
000140 69 8a b4 bd c2 37 ea 3c 64 3b 7e bd 22 37 09 bb
       -0.08815462 0.02859104 -0.062068358 -0.0020937403
000150 e4 55 a9 3c cb c3 74 3c 38 40 97 3d 5c ad 3d 3d
       0.020670839 0.014939259 0.07385296 0.046307907
000160 72 39 e8 bc d8 90 63 3d 7f 4d b4 3c e7 43 a6 bd
       -0.028347705 0.055558056 0.02200961 -0.0811842
000170 a4 be d5 3b 20 2e f4 3b 5e ff 18 3d a5 89 a1 3d
       0.0065229703 0.0074517876 0.037352912 0.07887582
000180 78 ee 7b bd c4 35 a0 bc d0 d4 39 bd d1 e3 04 bd
       -0.06150672 -0.019556887 -0.04536897 -0.032443825
000190 cd 06 86 3d 36 7c 53 3d 00 44 ed bb 4e 16 44 3d
       0.06544266 0.05163213 -0.0072407722 0.047872834
0001a0 e0 96 58 bd 14 5f a6 bd 5c d9 6c 3c 64 dc 93 bd
       -0.05287826 -0.081236035 0.014456119 -0.072197706
0001b0 00 b2 21 bb 39 a9 95 3d 38 8e 2d 3c d0 e3 6a 3d
       -0.0024672747 0.07307667 0.01059299 0.057346165
0001c0 48 ce 0e 3d 4c 9d 5f bd 08 c9 9d 3c 54 c4 56 3d
       0.034864694 -0.05459337 0.019260898 0.052433327
0001d0 e8 6d 83 bd 3f 32 35 3d 9d 70 a8 3d 6d a3 29 bc
       -0.06417447 0.04423737 0.08224604 -0.010353905
0001e0 ea df 56 bd 42 bc ad bd 8e 72 3f 3d 43 02 aa 3d
       -0.052459635 -0.08483173 0.046740107 0.08301213
0001f0 cd c1 de 3c 6f f7 9c 3d 40 cb db ba b5 eb 3f 3d
       0.02719202 0.07664382 -0.0016768947 0.046855647
000200 3a 5d 93 bd d0 d6 35 bc 7a ed 1b 3d 60 24 18 bb
       -0.07195516 -0.011098579 0.038068272 -0.002321504
000210 2c 87 98 3d e0 ff 47 bb 47 45 81 3d 14 a2 d6 3a
       0.07447657 -0.0030517504 0.06312042 0.0016375207
000220 e7 c9 a1 3d 15 82 af 3d f5 b7 af bd 4c c2 e7 3a
       0.07899838 0.08569733 -0.08580009 0.0017681806
000230 5c de dc bc 7a 5c 74 bd e8 ea af 3d eb 1f 86 bd
       -0.026961498 -0.059658505 0.08589727 -0.065490566
000240 cf c0 a5 bd 12 16 4b 3d 3b 87 ac bd de ae a4 3b
       -0.08093416 0.049581595 -0.08424231 0.0050257286
000250 26 89 15 bd ab f7 88 3d 0b 76 96 3d 85 12 09 bd
       -0.036507748 0.06687864 0.07346734 -0.033464927
000260 86 08 86 3d 9c 48 b1 3c e6 7c b4 3a 7c d4 9f bc
       0.065445945 0.021641068 0.0013770133 -0.0195105
000270 9f e5 d7 bc 00 0c 19 3c 01 c8 c6 3c 0d 87 60 3d
       -0.026354609 0.00934124 0.024265291 0.054816294
000280 80 d7 f0 3a ee 7e 63 3d 98 f8 f4 3c a6 0c 79 bd
       0.0018374771 0.05554097 0.029903695 -0.060803078
000290 b8 29 9a bd 06 8c c2 bc 37 0b 9b bd e0 66 ea 3c
       -0.075274885 -0.023748409 -0.075704984 0.028613508
0002a0 4b 7c 8b bd c3 5c 24 bd f2 71 31 3d 9f af 9c bd
       -0.068108164 -0.040127527 0.043321557 -0.076506846
0002b0 b7 d2 83 3d 66 59 e0 bc 9e 76 0b 3d 05 e6 b5 bd
       0.06436675 -0.027386378 0.03404867 -0.08881763
0002c0 2d 0f 8f 3d 55 32 09 bb f8 77 75 bd 5a 4e 8d 3d
       0.069853164 -0.0020934541 -0.059928864 0.0689971
0002d0 46 e0 0a 3d c2 ad ea 3b 00 d4 92 38 46 c6 65 3d
       0.03390529 0.007161827 7.0013106e-05 0.05609729
0002e0 e4 77 81 bd 37 55 44 bd b1 70 77 bd 36 d5 93 bd
       -0.063216954 -0.04793283 -0.060410205 -0.07218401
0002f0 36 6f 40 3d f4 e0 b8 3c bd 6c 57 bd b8 22 b1 3d
       0.04698106 0.022568204 -0.052593935 0.086492
000300 49 7a 63 bd e8 e7 86 3c b6 26 8f bd 04 e7 d4 bc
       -0.055536542 0.016468003 -0.069898054 -0.025989063
000310 96 54 53 bd b4 14 d4 3c 91 1c 99 bd d8 3c a8 3b
       -0.05159434 0.025888778 -0.07476152 0.0051342063
000320 0b ce ae bd 39 8f 90 bd 55 b2 c8 bc 22 3c 63 3c
       -0.08535393 -0.070585676 -0.024499098 0.013869317
000330 94 7a 58 bd 37 ec a6 bd fa 9c 9c 3d 77 0b 32 bd
       -0.052851275 -0.08150523 0.076471284 -0.043467965
000340 c3 ac db bc 2f 20 21 bd ca da 53 bd bd 01 9d bd
       -0.026815778 -0.039337333 -0.051722325 -0.07666347
000350 b6 ee 25 bd a0 6a 3c bd 1b 37 d5 bc 5c 6a 91 bd
       -0.040510856 -0.046000123 -0.026027253 -0.071003646
000360 c6 3a 2f 3d 3f 50 0d bc 3c 7b d3 3c b1 41 9e 3d
       0.04278066 -0.008625089 0.025815599 0.077273734
000370 38 6c c9 bc 4e 2c 35 3d 85 3c 62 bd c4 58 d1 bc
       -0.024587736 0.044231705 -0.055233497 -0.025555022
000380 d2 e2 e5 bc 02 0f 31 3d 54 15 16 bd 70 26 72 3d
       -0.028062258 0.043227203 -0.036641434 0.059118688
000390 8a cd 95 bd 12 c2 16 3d f3 f7 84 3d aa 32 5c 3d
       -0.07314594 0.036806174 0.06492605 0.053759255
0003a0 32 e5 0b bb 60 b7 42 bd bc 84 a3 bd b8 3f fa 3c
       -0.0021346328 -0.04753816 -0.079843014 0.030547962
0003b0 c3 ea 85 3d 1d c1 30 bc 15 80 42 bd 0a 73 40 bd
       0.06538918 -0.010788229 -0.04748543 -0.04698471
0003c0 6e 89 80 3d b9 0f 39 3c 65 8e bc bc 20 64 dd bc
       0.06276213 0.0112952525 -0.023017118 -0.027025282
0003d0 95 a1 2c 3d f9 38 ec 3c 5f 9c ac 3d 34 cd 9b bd
       0.042146284 0.02883576 0.08428263 -0.07607499
0003e0 ea b1 57 bd d9 87 76 bd b2 4d 56 bd 55 a9 a7 3d
       -0.052659906 -0.06018815 -0.05232019 0.081865944
0003f0 b0 26 82 3c 1c 90 80 3d 9c 7f e9 3c 95 99 d1 bc
       0.015887588 0.06277487 0.028503232 -0.025585929

6.bias f4 [128]
000000 28 84 24 bd 38 2d 82 3d 5e 7a 89 3b c4 e2 d0 bb
       -0.040165097 0.06356281 0.0041954955 -0.006374689
000010 91 29 65 bd b7 0b 86 bd 7b ae f4 bc 0f cf 55 3d
       -0.055947844 -0.06545203 -0.029868355 0.05219942
000020 80 2a cc bb eb d5 34 bd e9 f2 2b bd 3c 65 27 bd
       -0.0062306523 -0.04414932 -0.041979704 -0.04086803
000030 0f 72 e0 ba 72 b9 98 3d 8d 3d b3 3d 49 20 28 bc
       -0.0017123836 0.07457246 0.08751974 -0.010261604
000040 00 68 b8 b8 90 af f4 bc 90 fc 9f 3d f8 64 ae bc
       -8.793175e-05 -0.029868871 0.07811844 -0.02128838
000050 ce e4 88 bd 42 4f a8 3d bb d9 47 bd 20 62 fe bc
       -0.06684266 0.08218242 -0.04879163 -0.031052649
000060 82 d1 3a 3d 7c 13 4b bd 1e 15 b8 bc 17 23 67 3d
       0.04560996 -0.04957913 -0.022471007 0.05642995
000070 d8 da 6b bc 10 65 99 3d 12 70 3c ba 1c 66 52 3c
       -0.014395438 0.07489979 -0.00071883306 0.012841728
000080 73 18 a1 bd 40 87 93 ba 28 d2 56 3c 56 d5 70 bd
       -0.078659914 -0.0011255518 0.013111629 -0.058797203
000090 68 31 5e bd 5c ab 02 3d 79 2b 03 3c 22 4d 1a 3a
       -0.054246336 0.031901702 0.00800597 0.00058861275
0000a0 b2 fc 59 3d 64 41 b6 3d b2 90 c2 bc f3 d0 7b bc
       0.053219505 0.08899191 -0.023750637 -0.015369642
0000b0 cd 4a 45 bc e4 f5 14 bd 99 a5 ab bd 6f 05 b7 bc
       -0.01204176 -0.036367312 -0.083811946 -0.022341458
0000c0 18 3d 3c bd d2 5f 62 3d 95 f9 62 bd 0c aa a2 3d
       -0.0459567 0.055267163 -0.0554138 0.0794259
0000d0 0a de 29 bd 75 b5 0a 3d d4 68 b0 3d ef be 56 bd
       -0.04147152 0.033864457 0.086137444 -0.052428182
0000e0 6a 69 8f 3d 48 aa 50 bd c3 c7 86 3d d8 77 92 bd
       0.07002528 -0.050943643 0.0658107 -0.07151765
0000f0 f8 e6 e2 bb 2f 0a 95 3d f0 64 f2 bb f3 20 d5 3b
       -0.0069245063 0.07277333 -0.0073972866 0.006504172
000100 3f 29 81 3b 28 00 10 bc 88 ea be bc 32 d2 10 3d
       0.0039416845 -0.0087891 -0.023305193 0.035356708
000110 bd b4 0e bd 06 d7 51 bd 52 f1 bf 3c 74 8c 86 bd
       -0.034840334 -0.051230453 0.0234305 -0.06569758
000120 8d f8 45 bd 5f 39 05 bd 80 c5 5b 3d 4d a2 7a bc
       -0.04833274 -0.032525416 0.053655148 -0.015297485
000130 50 80 a1 bd a0 68 a5 bd 21 67 58 bd 99 6b 7a 3d
       -0.07885802 -0.08076596 -0.052832726 0.06113777
000140 6e 81 24 3d 05 73 b3 bd 85 7a 24 3d 80 0c 79 bc
       0.040162496 -0.087621726 0.040155906 -0.015200734
000150 fb f3 29 bd 6a da 78 3d e7 22 b8 bb 07 4a 18 3c
       -0.041492444 0.06075517 -0.005619395 0.009294993
000160 4c 30 83 bb 00 34 5f bb 6c 83 d8 ba 0e 1f a3 3d
       -0.00400356 -0.0034058094 -0.0016518659 0.079649076
000170 75 67 b3 bd 28 8a 78 bd e0 a8 97 bd 3f 2b a6 bd
       -0.08759967 -0.06067863 -0.07405257 -0.08113717
000180 97 f7 8a bd ef 6a 16 bd 4c 85 8f 3c 88 24 3a bd
       -0.06785505 -0.036723074 0.017519616 -0.045444995
000190 32 26 a4 3d 70 38 50 3c 63 24 8f 3d 30 0c d5 bb
       0.08015098 0.012708768 0.06989362 -0.006501697
0001a0 29 99 b5 3c 3d 08 83 3d fc ca 53 3c ae 6c ca bc
       0.022167759 0.06398056 0.012926813 -0.024710026
0001b0 99 16 62 3d 30 22 92 3c ac 4f b2 bc 8c b8 5a 3d
       0.055197332 0.017838567 -0.021766506 0.053398654
0001c0 8f 9c f4 3c 5a 7b a3 3d e3 6a 59 3d 46 95 29 3b
       0.02985981 0.07982512 0.05308045 0.0025876327
0001d0 00 f1 65 3c e5 ad 68 3d 5e 8e 96 bd 7e 42 88 bb
       0.01403451 0.056806464 -0.07351373 -0.004158317
0001e0 5a ca 33 bd ce 64 81 3d 0e 49 3d bd 74 56 ac bd
       -0.04389415 0.06318055 -0.04621225 -0.08414927
0001f0 50 73 9b bd 0c ab a1 bd 0f f9 aa 3d 7d 02 74 3c
       -0.075903535 -0.07893953 0.083482854 0.014893171
