models_demo/checkpoint210.pth.tar (torch_old, 502895 bytes, 10 tensors)

0.weight f4 [256, 26]
00000000: 3f3b d93d 71a1 79bd b62f c4b9 2ced 4a3e
00000010: 38c4 04bd 5e22 b93d b210 9e3b 63bd 433e
00000020: 0cfe c33c 7efc 1f3e d18c 433e a0c8 42bd
00000030: 869c ffbd 2165 0ebe a3a5 8f3d 323b debd
00000040: 966c c7bd 0671 2ebe 829b 1dbe b5d1 bf3d
00000050: 253d 4f3e e722 9a3d 5576 16bd cf17 f73c
00000060: ead5 923c 1238 54bd 32a3 823d bbb9 083d
00000070: 680f 9c3d acb8 7e3d aa98 f03d cf1b 35be
00000080: a747 88bc 4110 563d b0eb 77bc 3c52 3d3e
00000090: efb3 b03d af1e afbd 058a 95bd e73d 8b3c
000000a0: 96a6 d93d bc9c 3dbe 9caa d7bc e405 26bd
000000b0: c8f7 143d 60ca 8dbc 58ad 55be 2a0f 853d
000000c0: 30bf 4a3e 0457 2e3e 3946 43bc 6e50 68bc
000000d0: caee e1bc 6864 bf3d 7246 963d 2fee 0dbe
000000e0: 58a4 573e a1bf 193e f45a 04be 961d 33be
000000f0: 3eb1 1b3e 7ead c4bd 9248 d3bd ec24 6b3e
00000100: 9df3 453d 1a87 f43c 0b69 11be 11fc 3ebd
00000110: faa3 a13d 4bc7 663e 9ba8 dd3b d042 2b3d
00000120: c078 70be b75b 0c3e bae4 fb3d ada5 963d
00000130: 1f5e d43d d6dc 8f3d e8ff ba3a ac1a dcbd
00000140: ef86 883d edca e53d af97 83bd 284d 80be
00000150: 2a74 f7bc 51bd d9bd 172d f03c afac 813d
00000160: d70d 8cbd e273 763d 9000 e83c b8db c63d
00000170: 3b7f 38bd 4f0d afbd 4a83 5abe 487e fabd
00000180: 6a05 b6bd 1808 f8bd 951e 053e 9d05 10be
00000190: 7b33 4fbe 6de3 92bc 4269 c33d b126 383e
000001a0: 4838 6bbd d36f 013e 12b8 22bc 605a 2bbc
000001b0: 2f9c 563c a45f a13d 4752 c2bd 1643 b9bd
000001c0: f300 e0bd 50ba 833e 8fbf 12be 11cc 843d
000001d0: 5f77 103d 1516 9cbd b62b 54be b9b1 aebd
000001e0: 99e7 d03d 66b1 e93d ba71 4cbe 2d6f a03c
000001f0: 5978 9fbc 1a73 f53c 42f7 023e fca1 a1bd
00000200: 5254 3dbe 93f7 313e 07d6 83bc ed01 6b3e
00000210: 960d 25bd 2eea 57bc ff0d 3a3e b790 f93d
00000220: de29 bbb9 aa2c 213e 81d3 27be 0af5 4ebd
00000230: 7c22 463d f258 4c3d 24ae f13d ebcb 113e
00000240: a4de 3dbe f4fd d43b f9e1 15be 73e4 42be
00000250: f340 2b3e 3931 733e 7bfb a5bd dd06 833d
00000260: 15b7 2d3d f639 bf3c bf47 113e 48a4 08be
00000270: 435f 8f3d 9b17 6dbe 6545 513a f671 74bd
00000280: ab46 c43d 3ddc c0bd a46e 0e3e aa33 353d
00000290: 3a59 113e c3c6 8e3d 457b 50bc d2dd c8bd
000002a0: 3e1b a8bd 8049 77bd 9923 013d 4179 863d
000002b0: 20ab 2c3e 561a 00bd 4ea8 85be cd72 4f3e
000002c0: 511a 2b3e 08f0 bb3d caa3 08bd 27f4 fa3c
000002d0: 3bc8 ffbd 97a7 1e3e f123 adbc 9e92 75bc
000002e0: af3c 313d c325 98bd 5284 10bd d425 fd3d
000002f0: 6914 1ebe f4a3 bfbd 51ad 13be 1884 05be
00000300: b7ae 4cbe 7a6e a53d 6b5d a63d 53c2 19bd
00000310: d9a0 f53c 540d 33be c42c ab3c 5cad ddbd
00000320: eb9d 7a3d 2c23 403e 13ce f53d 08ca f0bd
00000330: 6a8b 07bd 2333 d9bd c6a7 1dbe 1ede bdbd
00000340: 88fb ee3c 0098 69bd 5903 86bd 0910 ae3d
00000350: db03 373e c842 cf3d 3362 033e eaee 543d
00000360: 83e3 133e bdd0 273e d910 08be 4321 8cbc
00000370: da07 8f3e fe7c 513e 0f02 ed3d ab26 313e
00000380: 5400 11bd 0430 de3d d62e 39be 3c1d 413e
00000390: f087 b33d 7903 a23d 63b2 34bc 81fb 6f3e
000003a0: e030 b4bb 6188 d23d e88b 40be 7d4d 553e
000003b0: 787c 5bbe fc84 543e 6a4c e3bd b333 38be
000003c0: 38bb b33d 2c2b 103b 2279 603d bbb3 a33c
000003d0: 1ca3 983c ee70 253e 5ddf 593d a442 863d
000003e0: 4e5e 06be e4dc 72bd 1bc1 9e3c 8059 1b3e
000003f0: 9e6d 6ebc 2fbc 05be dc69 b43a ba48 b9bb
0.106070034 -0.06094498 -0.0003741958 0.19817036 -0.03241369 0.09039758 0.0048237676 0.19115214
0.02392485 0.15623662 0.19096686 -0.047554612 -0.12481026 -0.13905765 0.070140146 -0.10851134
-0.09737508 -0.17035303 -0.15391353 0.0936617 0.20238169 0.07526188 -0.036733944 0.03016272
0.017924268 -0.051811285 0.06378783 0.03338025 0.07620126 0.062187836 0.11747868 -0.1768639
-0.016635729 0.052261595 -0.015131876 0.18488401 0.086280696 -0.08550774 -0.07301716 0.01699729
0.10627477 -0.1851682 -0.02632647 -0.04053296 0.036369115 -0.017308414 -0.20866907 0.06497033
0.19799495 0.17025381 -0.011918598 -0.014179332 -0.027579684 0.09345323 0.07337655 -0.13860391
0.21058786 0.15014507 -0.12925321 -0.17491755 0.15204331 -0.096034035 -0.10316576 0.22963303
0.04832803 0.029849578 -0.14200227 -0.046627108 0.07892604 0.22536962 0.006764484 0.041811764
-0.23483562 0.13706861 0.122994855 0.07355819 0.10369515 0.07024543 0.001426694 -0.10747275
0.066663615 0.11220346 -0.06425416 -0.25058866 -0.030206759 -0.10631812 0.029318376 0.06331765
-0.06838577 0.06016911 0.02832058 0.09709877 -0.04504321 -0.0854746 -0.21339145 -0.122311175
-0.088877514 -0.12110919 0.12999947 -0.14064641 -0.20234482 -0.01793071 0.09541561 0.1798351
-0.05742672 0.12640314 -0.009931581 -0.010458559 0.0130987605 0.0787957 -0.094883494 -0.09045999
-0.10937681 0.25728083 -0.14330886 0.06484235 0.03527009 -0.07621399 -0.207198 -0.08529992
0.10200424 0.11410789 -0.19965258 0.019584263 -0.019466566 0.029962111 0.12789634 -0.07892224
-0.18489197 0.17379598 -0.016093267 0.22949953 -0.04029616 -0.013178391 0.18169402 0.12185805
-0.00035698613 0.15739694 -0.16389276 -0.050526656 0.04837273 0.049889512 0.11800793 0.14237945
-0.18541962 0.0065 -0.14636983 -0.19032459 0.16723995 0.23749246 -0.08104607 0.063977934
0.04241093 0.023343068 0.14187525 -0.13343918 0.070005916 -0.23153536 0.0007983058 -0.059678994
0.09583791 -0.09417007 0.13909394 0.044238724 0.14194193 0.069715045 -0.012724702 -0.09807934
-0.08208321 -0.06037283 0.03152809 0.06566096 0.16862154 -0.031275116 -0.2610497 0.20258637
0.16709258 0.09176642 -0.033359326 0.030633999 -0.12489363 0.15493618 -0.021135302 -0.01498857
0.043270763 -0.074290775 -0.03528244 0.12360731 -0.15437473 -0.093574435 -0.14421584 -0.13038671
-0.19988523 0.08077712 0.08123287 -0.037538838 0.029983925 -0.17485553 0.02089537 -0.10824081
0.06118576 0.18763417 0.12002196 -0.117572844 -0.03309194 -0.10605457 -0.15396032 -0.09270881
0.029172674 -0.057029724 -0.06543607 0.08499152 0.17872564 0.101201594 0.12830429 0.05198566
0.14442258 0.16388221 -0.13287677 -0.017105704 0.27935678 0.20457837 0.11572658 0.17299907
-0.035400704 0.10849002 -0.18084273 0.18858808 0.087661624 0.079108186 -0.011028859 0.23435785
-0.0054989904 0.102799185 -0.1880337 0.2083034 -0.214342 0.20753855 -0.11098559 -0.17988472
0.087759435 0.0021998389 0.05480302 0.019983163 0.018632464 0.1615636 0.05319153 0.065556794
-0.13121912 -0.05929269 0.01937919 0.1517086 -0.014552502 -0.13060068 0.0013764459 -0.0056544216

0.bias f4 [256]
00000000: e5ba 27be 4b55 cfbd 03d3 11bd 9a7f dfbd
00000010: 0b6b 283d 928f 2b3e 3632 8c3d f47e 423e
00000020: e1e8 4bbd 89fe b33d 7a61 413e 52d8 cd3c
00000030: 49c6 febc 4c57 9cbd d2e8 e4bb 0b33 533d
00000040: 640e 69bd 47ed 553e 2052 5fbd 3def 28be
00000050: 4024 25be e0f5 153d d9aa 34be e971 103d
00000060: 0e36 26bc 5d6d c63d 5182 23be 2902 603b
00000070: cb55 e3bd 4a32 d03c 4282 453d 3eaf 1bbe
00000080: 2c20 abbd a2c7 b33c 0a73 fe3d 50f5 7d3d
00000090: d056 2dbe b58f 193e 77c0 043d d928 bebd
000000a0: e03e 803d 0132 3f3e bf0e d43d 5ac6 c93c
000000b0: d426 93bc bc4e 89bd 696a fb3c 1b1e 80bd
000000c0: 7f32 8abc 7603 243d 5fc7 213e 9d4b 98bc
000000d0: 64a5 30bd c638 673b bb58 bd3d 2f1e 883c
000000e0: 7cd8 663e e833 dcbd 9175 88bd 57b1 483e
000000f0: bc45 27be 787b 13be 4775 4e3e 3095 963d
00000100: 3f6f f63c af73 823e 11d8 19be 9cab b4bd
00000110: 70b1 aabd 96ce ecbd f451 05be 13a8 f43d
00000120: e386 09be 7477 ee3d e565 d13d 52aa 383d
00000130: 64a5 dc3d 1825 57be c9c1 f2bd 6075 cd3d
00000140: 02e6 4c3e 12ab 40bd 3682 ac3d e2fe 3ebd
00000150: c00f 283e 54df a03d 3a12 45be 1ddd 143e
00000160: db29 12be 84e0 47bd df82 423e 7086 493d
00000170: 5776 dbbc 376a 7f3d c43a d23d c08f 1fbe
00000180: 0bb3 fdbd b448 f23d 9461 82bd cfe8 5f3d
00000190: 8988 0fbe 6eb2 ddbd bd97 f53d a349 103e
000001a0: a0e7 093e 3edb 933c 080d fdbc 3168 0c3e
000001b0: e16a ebbc 75f4 643e 7be0 99bd 6d4f 08bd
000001c0: 4cd1 1abe ca29 1d3e f2b8 26be 8aa6 bfbd
000001d0: ad2d bbbd ac2c 493e 1039 dabd 2ee7 32be
000001e0: 9df1 ba3d 29f2 323e 840c abbd d90b 083e
000001f0: 252c c4bb b3de bb3c 4b71 283e 159d 31be
00000200: 3db7 37be 6e1b 09be eb07 cf3d 85a7 bb3d
00000210: 299e bd3d 4884 c5bd caa1 153e 9377 663e
00000220: b04c df3c 962a e9bc 0a73 88bd 5e74 133c
00000230: db56 0bbe ca0c 14be 93d3 b83d d90e 0dbe
00000240: 423f 323c 30a9 a23d b467 c03d fba0 acbd
00000250: d0af 0c3d 0659 d33d ae9d d03d 97b2 44be
00000260: 9f27 863d 8288 7c3d 855c 53be c786 d9bd
00000270: 1e8f 513e c61f 00be 8efe 8bbc 0bce af3d
00000280: 5053 eb3d 689d 4f3e 268f bdbc 00cd b33d
00000290: 2d2b 00bc ce3b fa3d 96aa 4d3e fec7 893c
000002a0: a178 35be f871 28be c873 233e 572a 473e
000002b0: d8c3 33bd 004a 123e e38d 953d 53f0 5f3e
000002c0: 9ac2 bbbb a84f 4b3d 72a3 013e eb7b dbbd
000002d0: 8e06 ccbd 630e ae3d 0c98 35be 2d07 423e
000002e0: 7ad2 393d e5d5 babd 6321 60bc 1ab7 34bc
000002f0: 8cee 5e3d 3561 363e e428 db3d 839a a5bd
00000300: 4f90 b3bd a4f7 913c 5b0f 2c3e 796a b0bc
00000310: 4de1 d1ba cf65 403d 6ab6 11be fd00 00bd
00000320: 6b8d 423d 1297 433e a77b cfbd 56a1 debb
00000330: 3660 073e 6c6b 94bd 3bdc 81bc 0d58 09be
00000340: 12e6 d53d 2fc4 b13d e26a 7b3c f05d 12bd
00000350: 4f4d 353e bb8e 543e bc97 ed3d e177 073d
00000360: 7b91 a2bd 4402 0f3e a1f8 07be a384 933d
00000370: 5bca 3bbd ad60 683d 09b6 afbc a618 4b3d
00000380: b23c d5bc 9951 c1bd 3267 233e ae03 213e
00000390: 1bbd 4d3d 763b 913c 57f8 0f3e 7d22 14be
000003a0: fa24 d13d 4774 663e 28ea 76bc 80cf c13d
000003b0: 2840 0b3e 94aa 1d3e df34 3abe fad8 babc
000003c0: 705a 6b3e f4fe 34bd 7e6f 15be cb96 d1bd
000003d0: b790 083e d21b 0b3e ca5b 0d3e c08a 9e3d
000003e0: 078c edbc 2b45 f63d 385a 41bd 0580 893d
000003f0: 9439 a73d 3769 6d3e 6f33 80bd 57f4 f9bd
-0.16379888 -0.1012369 -0.035601627 -0.1091301 0.04111771 0.16753986 0.068455145 0.18993741
-0.049782638 0.08788783 0.1888484 0.025127564 -0.03110041 -0.07633838 -0.006985762 0.05156235
-0.05689849 0.20891295 -0.05452168 -0.16497512 -0.1612711 0.036611438 -0.17643298 0.035264883
-0.010144724 0.09688828 -0.1596768 0.0034180975 -0.11100348 0.025414605 0.048219927 -0.15203568
-0.08355746 0.021945778 0.12424286 0.062001526 -0.16927648 0.14996226 0.03241011 -0.09285135
0.062619925 0.18671419 0.10354375 0.024630714 -0.01796285 -0.067044705 0.030690389 -0.06255742
-0.016869782 0.040042363 0.1579871 -0.018590743 -0.04312648 0.0035281642 0.092454396 0.016615955
0.2254352 -0.10752088 -0.06663049 0.195989 -0.16335195 -0.14402568 0.20161925 0.07352674
0.030082343 0.25478885 -0.15023829 -0.088217944 -0.08334625 -0.11562841 -0.13019544 0.1194612
-0.13430361 0.116438776 0.10224513 0.045084305 0.10773733 -0.21010244 -0.11853368 0.10032153
0.20009616 -0.047038145 0.08423273 -0.046629794 0.16412258 0.078550965 -0.19245234 0.14537473
-0.14273779 -0.0487981 0.18995236 0.049200475 -0.026789827 0.062357154 0.10265115 -0.1558218
-0.12387665 0.11830273 -0.06366268 0.054665383 -0.14016928 -0.108250484 0.119918324 0.1409059
0.13467264 0.018048879 -0.030890003 0.13711621 -0.028737487 0.22358878 -0.075135194 -0.03327887
-0.15118903 0.15347973 -0.16281489 -0.09357937 -0.09139571 0.19645947 -0.10655415 -0.17471
0.09128115 0.1747519 -0.083519965 0.1328577 -0.0059867078 0.02293334 0.16449468 -0.17345078
-0.17940994 -0.1338937 0.10108932 0.09162811 0.09258682 -0.09644371 0.14612499 0.22506551
0.027258247 -0.02846269 -0.06662567 0.008999912 -0.13607351 -0.14458004 0.090247296 -0.13775195
0.01087934 0.07942426 0.0939478 -0.08429142 0.034347355 0.10319714 0.10186325 -0.19208752
0.06550526 0.06165362 -0.20640762 -0.1062141 0.20464751 -0.1251212 -0.017089155 0.085842215
0.114905 0.2027489 -0.023139548 0.08779335 -0.007822794 0.12218438 0.20084605 0.016818997
-0.17721798 -0.16449726 0.15962136 0.19449745 -0.043887943 0.14286041 0.07302453 0.2186902
-0.0057299854 0.049636513 0.12660006 -0.10716995 -0.09962188 0.08498838 -0.17733783 0.1894805
0.04536674 -0.091228284 -0.013679835 -0.011029983 0.054426715 0.17810519 0.10701159 -0.080861114
-0.08767759 0.01781828 0.16802733 -0.021535145 -0.001601258 0.046972092 -0.14229742 -0.031250942
0.047498148 0.19100598 -0.10131007 -0.006794135 0.13220295 -0.072470516 -0.015852084 -0.13412495
0.10444273 0.08679997 0.015345307 -0.035734117 0.17705272 0.20757572 0.11601207 0.03307331
-0.079379044 0.13965708 -0.13278438 0.07203033 -0.045847278 0.056732822 -0.021449106 0.049584053
-0.026029918 -0.09439392 0.15957335 0.1572406 0.050229173 0.017728548 0.14059578 -0.14466281
0.10212131 0.22505294 -0.015070476 0.094634056 0.13598692 0.15397102 -0.18184231 -0.02280854
0.22983718 -0.044188455 -0.14593312 -0.102338396 0.13336454 0.13584831 0.13804546 0.07741308
-0.028997434 0.120249115 -0.04720518 0.06713871 0.08165279 0.23184668 -0.0625981 -0.12204807

2.weight f4 [256, 256]
00000000: 7236 f73d 8815 e3bc a075 61bd 1913 203d
00000010: 25c3 023d 7f59 9cbb c6f5 b8bc fd4e c53d
00000020: af3c bc3c b58c 4c3d 71fd d53c b437 f9bb
00000030: 1dc6 d1bc ba23 973c 0f41 983d 58d3 1e3d
00000040: b56b b4bc 59d4 bbbd 0c7f 6bbd 1d47 debc
00000050: 266c a3bd fa11 02bd 361f 0dbb afa8 1b3d
00000060: 7a65 a53d 6d1d f7bb 90a9 9bbc 88f3 13bd
00000070: 51dc 43bd 526c 9dbc 3737 31bc 2d16 cc3d
00000080: 9136 b63d d6dd 863c 32c0 de3d 0859 57bd
00000090: 65fd 80bd e237 a13d e41f 443d 9852 8ebc
000000a0: 2363 0e3d df7a dabc 78a4 743d 160e a4bc
000000b0: 7e75 9bbd a605 a63d f109 c53b acc5 febc
000000c0: e2c0 df3d 6c91 c038 b101 99bb 369d 8abc
000000d0: fbb1 9c3d 578e 2d3d 35e3 a43c 24b3 043e
000000e0: 571b d03c 5404 683c a019 5c3d 6f5f c53c
000000f0: 75d1 7c3c 0936 07bd 4c05 193d 329e e0b9
00000100: bd21 b93b 6361 863a 3275 1bbd a896 103d
00000110: 0047 ef3b 9bc3 d8bc c17c a93d 5c20 163d
00000120: eebe bc3a 90aa 823c 1232 013d 089a fd3b
00000130: 5ad5 d0ba 7f36 4e3b a601 df3d 7b39 1ebd
00000140: 41ee 49bc d414 e33c db0c 223c fd76 92bc
00000150: 0107 8bbd c188 783c 791a 3bbd 6461 aabc
00000160: 9b15 47bd ed41 e53d a31e 8dbc 19b8 93bc
00000170: 0d62 9b3d c0a1 463d 1b62 433d 7dd8 88bc
00000180: d88c fc3c 79f3 cf3d 6076 e23c 28e7 fb3c
00000190: d53c 173d 42c2 84bc 51b0 8e3d 3391 813d
000001a0: 13a7 523d c7a8 ad3d 56ab 243c 08de fd3c
000001b0: cca9 ab3b 0130 73bd 909e 3d3d edea ae3c
000001c0: b07f b13c e759 85bd 7321 b33d 2226 8d3d
000001d0: 25d0 5d3d d825 ac3d f322 dd3d 79f0 c0bc
000001e0: e320 33bc 3b6e f3bc 70c5 a63b 089d b13c
000001f0: dca9 26bd ba47 5d3d e522 003c 8b27 6c3c
00000200: b695 f339 7ba5 f1bc e370 963b 6070 443d
00000210: ac0e bdbc dd7b c83c a37d 28bd 79f4 b93d
00000220: 2896 103d 6f89 d23c a652 92bd 115c 5d3d
00000230: 82e2 ae3c 5e62 c3bc 7a63 c23b d46b 2ebd
00000240: 2577 933d 235b b5bc 4132 fd3c 4b6e 4c3d
00000250: ab7f 60bd 370a 1cbd 1fd6 a43c 96bf a33d
00000260: 6b0d e03c 46fc 32bb bccd 9a3d 86e4 b53d
00000270: aa09 063d 291b 1fbb a9d0 263d 92ae 3fbd
00000280: 79c8 f0bc 8021 f13a 767d 463c 81b2 5a3d
00000290: 1831 16bd a2f1 8abd 1b85 4abd fcfd f6bc
000002a0: 85c8 cbbd 6499 70bd 4408 3abd eb82 5bbd
000002b0: 48a6 80bd 5196 133d 5d1c 093d f6d6 063d
000002c0: cd80 1fbd 0cad 63bd 58df 663d b467 d13c
000002d0: 9829 a7bb 93a2 99bd a5f4 293c 1e00 ba3c
000002e0: 817d 713d 60c0 65bd 6568 15bd 5b61 7c3c
000002f0: 43c9 99bb 4012 e2bc 0e40 4dbd ac99 72bc
00000300: 0e69 13bd 8594 87bc bc1f 4abc 7b75 b8bb
00000310: de06 85bd 3714 cc3b ff2f 4e3d e827 20bd
00000320: 893d c1bc 6bca 60bc 7c31 a53c c45f 83bd
00000330: 8ab2 1c3d 2787 50bc 472e 6b3d 6ccd 603c
00000340: 9d13 833d 65be bcbc d4d8 f03d b314 4fbc
00000350: d5f1 c33c 6f89 343d fe25 1a3d 4a36 dfbc
00000360: 4dbf f53c 0c64 18bd e60c 0abd ab92 6fbc
00000370: 1305 cebc 4cc1 323d 444d 47bd 96eb e03d
00000380: 2d8a 073d 7402 893d 2713 e2bb 71a3 933c
00000390: 09ed 0f3d d721 d73c 3565 be3d f132 8fbd
000003a0: a2cf 853d dcce 52bd 245a 173d 964d e2bd
000003b0: c2f5 033d 9998 883c 6582 683c 7d8b 473d
000003c0: e34d 023d 7779 a43d 89bf ab3d bdc8 293c
000003d0: 33bc 963d ae52 99bd 55f9 933b 9451 98bc
000003e0: 1afe 15bd 597f a0bb 8c90 7f3c 4265 993d
000003f0: 8ad1 5fbd 9364 e53c 515c 0d3e c672 e83b
0.120709315 -0.027720228 -0.055043817 0.039080713 0.031924386 -0.004771411 -0.022578131 0.096342064
0.022978155 0.049938876 0.026121827 -0.0076055173 -0.025607163 0.018449653 0.07434284 0.03877577
-0.022024015 -0.091713615 -0.05749421 -0.027133519 -0.07979612 -0.031755425 -0.0021533496 0.038002666
0.08075996 -0.0075413496 -0.019001752 -0.03612092 -0.047817532 -0.01921669 -0.010816387 0.09965167
0.088971265 0.016463201 0.10876502 -0.05257514 -0.06298331 0.07871987 0.047881976 -0.017373368
0.034762513 -0.026669918 0.059727162 -0.020026248 -0.07590769 0.08106546 0.006013148 -0.031100117
0.10925461 9.1823604e-05 -0.004669391 -0.016920667 0.076511346 0.042372074 0.020127872 0.12958962
0.025403662 0.014161188 0.053735375 0.024093358 0.015430798 -0.033010516 0.037358567 -0.00042842474
0.005649774 0.0010252412 -0.037953563 0.035299927 0.007302165 -0.02646046 0.08275748 0.036651954
0.0014400163 0.015950471 0.03154189 0.007739309 -0.0015932724 0.0031465588 0.10888986 -0.038629036
-0.012324871 0.027719893 0.00989076 -0.017879004 -0.06788445 0.015169323 -0.045679543 -0.020798393
-0.04860459 0.11194215 -0.017226523 -0.01803212 0.07587061 0.0484941 0.047700983 -0.016704792
0.030828878 0.101538606 0.027644336 0.030749872 0.03692325 -0.01620591 0.069672234 0.06326523
0.051428866 0.08479457 0.010050615 0.030989662 0.005238747 -0.059371952 0.046293795 0.021352256
0.021667331 -0.06511288 0.08746614 0.06892039 0.05415358 0.084056556 0.10797682 -0.023552166
-0.010933134 -0.029715648 0.0050894544 0.021681324 -0.040689334 0.054023482 0.0078208195 0.014413725
0.00046460115 -0.029497853 0.004591094 0.04795873 -0.023078285 0.024473125 -0.04113544 0.090798326
0.03529945 0.0257003 -0.0714467 0.05404288 0.021348242 -0.023850616 0.0059322687 -0.0425833
0.072004594 -0.022138184 0.030907752 0.04990987 -0.054809254 -0.03809568 0.020121632 0.079955265
0.027350148 -0.0027311011 0.07558772 0.08881478 0.03272406 -0.0024277663 0.040726338 -0.046797343
-0.029392468 0.0018396825 0.012114873 0.05339289 -0.036667913 -0.06784369 -0.049443346 -0.030150406
-0.099503554 -0.058740035 -0.04541804 -0.05359165 -0.06281716 0.036032025 0.033474315 0.032919846
-0.038941193 -0.055584952 0.05636534 0.025562145 -0.005101394 -0.07501712 0.010373269 0.022705134
0.05895758 -0.056091666 -0.03647651 0.015404071 -0.0046931817 -0.027596593 -0.050109915 -0.014807146
-0.03598886 -0.016550312 -0.012336668 -0.005629239 -0.064954504 0.0062279957 0.05033874 -0.039100558
-0.023588913 -0.013720135 0.020165198 -0.0641475 0.038256206 -0.012727535 0.05741718 0.013720851
0.06400225 -0.023040006 0.11760107 -0.012639212 0.023919025 0.04407638 0.03763389 -0.027247567
0.029998446 -0.037204787 -0.033703707 -0.014622371 -0.025148904 0.043641374 -0.04865767 0.109824345
0.03309076 0.06689921 -0.006899256 0.01802227 0.035138164 0.026261253 0.092966475 -0.06992138
0.065337434 -0.051466808 0.0369512 -0.110499546 0.032216795 0.016674327 0.014191245 0.04871701
0.03181256 0.0803098 0.08386142 0.010362801 0.07360115 -0.07486473 0.0045158067 -0.018593587
-0.036619283 -0.0048979935 0.0155984275 0.074900165 -0.05464319 0.02800206 0.13804747 0.00709376

2.bias f4 [256]
00000000: 4132 fabc 5e62 cabc 6fd7 4c3d fdf1 c7bc
00000010: b54a 7b3d 644e 053d 770b 03bd 603f 7f3c
00000020: f74e 933c 074f 5a3d 7410 f4bc 7826 363d
00000030: 89fa 573d 036c 07bc 12ea cdbb 77de 453d
00000040: 353d 873c c6de 04bc 4354 e1bc 1c79 40bd
00000050: ff05 d33c 6a1d 12bd 9dab 13bd c041 863d
00000060: 5733 043d d5fc 403d 05c7 fe3c 5222 c0bc
00000070: 2c47 39bd f0c1 0dbd 2d26 2b3d dd8e 3f3d
00000080: 376b 00bc 88b9 403d 819c 28bd 9610 5bbd
00000090: 6a87 aa3c 7687 a6bc 5f82 0fbd 4104 57bd
000000a0: 7903 543c 13b8 813c 812d 9b3d 9ef6 26bd
000000b0: 0b0a b53c 6f1d abbc b7d8 8d3d 36a5 033d
000000c0: e331 97bc 8896 fc3c 1491 7c3d 300e 18bd
000000d0: c002 0bbb 090f 343d 5563 1c3d 00e3 60bd
000000e0: 8e0f 3ebd 82c9 54bd 9247 303d a809 293c
000000f0: 7dd7 223c e65a a43c feab de3c 13e7 6ebc
00000100: eac1 473d 826c 973d 8c1c 12bd ec51 0abd
00000110: 9e22 903c fb4b eb3a 1581 c03c c707 063d
00000120: 1e0f d83c 9d53 4abd a23a d4bb 1928 15bd
00000130: d776 8d3d 996b 023d 02df 293c eacb 78bd
00000140: 8193 83bc 4501 75bc e15c 14bb cc85 9c3d
00000150: cfd9 e2bc 52a8 6bbd 5051 193c acf5 183d
00000160: 1c21 763b ad3c 263d 0d42 5e3d e67f 97bb
00000170: 8c46 fdbb 7717 2c3b 1110 633c cedc 883d
00000180: 454a 723d bade 2fbd 078e 9c3c 592b ffbc
00000190: 0401 2a3d ed86 c23c 7ece 603d b4d7 0abd
000001a0: 71e0 8cbd 3367 7b3d a6b8 353d f00c 8b3d
000001b0: 0de6 2c3d cadb 143d 8d64 a73c 24d1 d1bc
000001c0: c7b5 f43c 4a0b 653b f024 71bc 04d7 9bbd
000001d0: 9554 a23d ba27 583d fabc 23bd e89e 943c
000001e0: 761c 363c 94b6 c0bc 6f52 9dbc 69bc 543d
000001f0: 4949 d8bc 9ee6 6bbc 5da2 f2bc 6279 9a3d
00000200: 6c79 e3bc f0cf 1f3c c247 213d 556c 5bbd
00000210: 9af1 9b3d c8c8 4c3d ca89 0ebd b8ff 60bd
00000220: 593f 02bd 6a45 2abd ecd9 97bc 5469 ad3d
00000230: f3ea 1bbc f5a4 32bd 907b 05bd fb9f 2dbc
00000240: e3ca 8b3c 5510 54bc d65b 183d 9bf7 bfbc
00000250: d11f 59bd 9a5b c1bb 5304 dc3c 0a7c be3c
00000260: 3435 a7bc ebc7 f6bc c121 60bd ea98 833d
00000270: 640c 503d 71d8 bd3c 274a ec3c b6fa c2bc
00000280: 0ac9 ac3d dbe3 b7bb 2a5e 02bd a768 16bd
00000290: 99bb 75bc 4141 59bd 3d8c 0ebd bb11 96bd
000002a0: 4e6e f83c b6c5 543c fe34 a0bc 4300 f63c
000002b0: b272 43bd 897a 3d3d 796b e93c 08c5 993d
000002c0: 05d3 433d 270e 33bd b476 1abd fd47 7cbc
000002d0: 43f5 c3bc d7c5 3fbd a520 3b3d 2370 50bd
000002e0: f9d8 5b3d 90bd 03bd 621c ffbb 7ad6 8cbd
000002f0: 59f1 0ebd f76b e3bb acda f9bc 38e4 7e3d
00000300: bc8d dbba 1d79 3d3d 4abf 373d 4206 db3b
00000310: 14dd 4b3d b491 b13c 0e38 2cbd 719d a13d
00000320: 18f6 a63c 8c97 2dbd e9a1 2e3d dc25 3db9
00000330: 0431 1d3d 3b1a 513d 603a 8f3d db41 353d
00000340: 83e8 cebc 4699 ec3b acf8 603c 369d fbb8
00000350: f8c6 453d 8151 253d ecf8 0b3d 70aa 18bd
00000360: b53f 453d baf2 24bd 532d 843d 0cf9 913c
00000370: 0ec9 a2ba 9267 62ba c80c 71bc 9160 d43b
00000380: 0013 18bb d2f7 043d d4ea bcbc 4e37 b43c
00000390: 2cbf 973d ee26 3b3d f792 823d e1eb aa3d
000003a0: f6c8 a63c 9f96 693d 1e47 82bd aa58 02bd
000003b0: 56be 423d a9bb 8f3b ffd3 0fbd 9856 423d
000003c0: a074 14bb 6d46 a7bb 82a0 1fbd 2a7c 4dbd
000003d0: 65cc 8bbd 7601 4c3c 8b61 06bd efb9 2f3c
000003e0: 98c9 1c3d 7832 163c 9055 a93c ef32 f4bb
000003f0: 641c 4e3c 3e0d 8a3d ca5d 58bd c520 303d
-0.030541541 -0.024705108 0.05001014 -0.024407381 0.061350543 0.032545462 -0.031993356 0.015579075
0.01798199 0.053298023 -0.029793002 0.04447028 0.052729163 -0.008265498 -0.006284007 0.048307862
0.016508678 -0.008109754 -0.027506 -0.0469905 0.025759695 -0.035672583 -0.036052335 0.065555096
0.032275524 0.04711612 0.03110076 -0.023453865 -0.04523389 -0.03460878 0.041784454 0.046767104
-0.007838062 0.047051936 -0.04116488 -0.053482614 0.020816524 -0.020328265 -0.03503644 -0.05249429
0.012940281 0.015834844 0.075770386 -0.040762536 0.022099515 -0.020888058 0.06926101 0.03213998
-0.018456405 0.030833498 0.061661795 -0.037122905 -0.0021211356 0.04395965 0.038180668 -0.054903984
-0.046401553 -0.051949985 0.043037005 0.010317244 0.009939072 0.020062875 0.027181622 -0.01458146
0.048768915 0.07393743 -0.035671756 -0.033769533 0.017594632 0.0017951721 0.023499051 0.03272226
0.026374396 -0.049396146 -0.006476716 -0.036415193 0.069074325 0.031840894 0.010368111 -0.060741343
-0.016061546 -0.014953916 -0.0022638368 0.07642707 -0.02769175 -0.05753357 0.009357765 0.037343666
0.0037556356 0.04058521 0.05426221 -0.004623401 -0.007729357 0.0026259103 0.013858811 0.0668274
0.05915286 -0.042937018 0.019110693 -0.0311486 0.041504875 0.023745978 0.054884426 -0.033897117
-0.06878746 0.061377715 0.044365548 0.06789577 0.04221158 0.03634242 0.020433689 -0.025612421
0.029871834 0.0034949356 -0.014718279 -0.0760937 0.07926289 0.05277226 -0.039975144 0.018142179
0.011115184 -0.02352456 -0.019204346 0.051937494 -0.026402133 -0.014398245 -0.029618436 0.07542683
-0.02776786 0.009754166 0.039375074 -0.05357011 0.07614441 0.049996167 -0.034799375 -0.054931372
-0.031798694 -0.041570105 -0.01853653 0.08467355 -0.0095164655 -0.043614347 -0.03258854 -0.010597224
0.017064517 -0.012943347 0.037196957 -0.023433497 -0.053008858 -0.0059008123 0.02685753 0.023252506
-0.020411111 -0.030124625 -0.05471969 0.064256504 0.050793067 0.023174496 0.028843952 -0.023801189
0.08436783 -0.0056118793 -0.031828083 -0.036720898 -0.01499834 -0.053040747 -0.03480171 -0.073276006
0.030326035 0.012986591 -0.019556519 0.030029422 -0.047716804 0.046259437 0.02849363 0.07508284
0.047808666 -0.04371467 -0.03771086 -0.015398023 -0.02392066 -0.046819534 0.04568543 -0.050888192
0.053673718 -0.032163203 -0.007785366 -0.06876846 -0.034898136 -0.0069403606 -0.030499779 0.062229365
-0.0016750614 0.04625808 0.04486016 0.0066840956 0.049771383 0.021675922 -0.042045645 0.07891358
0.020381019 -0.042380854 0.04263488 -0.00018038548 0.038376823 0.051050406 0.06993556 0.044252258
-0.025257355 0.00722042 0.013731163 -0.000119978955 0.048285455 0.04036093 0.034172937 -0.037271917
0.04815646 -0.040270545 0.064539574 0.01781895 -0.0012419538 -0.0008636649 -0.01471252 0.006481238
-0.0023204684 0.032462902 -0.023061194 0.021999028 0.0740951 0.045691423 0.063756876 0.083457716
0.020359498 0.05702841 -0.06361221 -0.031822838 0.0475448 0.0043863845 -0.035114285 0.047445863
-0.0022652522 -0.005104831 -0.03897143 -0.05016724 -0.068260945 0.01245152 -0.032807868 0.010725482
0.038278192 0.009167306 0.020670682 -0.007452361 0.012580011 0.06740807 -0.05282382 0.043

4.weight f4 [128, 256]
00000000: ce7d 0f3d bcd3 4abc b85f 523c 0002 663d
00000010: a50c 88bc 6c74 b03c 8db9 263d b1a0 0cbd
00000020: db9c 4ebb a5e3 a0bc 5521 0b3b 945b 6fbd
00000030: 8eba 2fbd e201 3abd 1ab1 1b3d db27 cebc
00000040: fdd2 18bc 32da cc3c 9f3a f53a 9f5b 4e3d
00000050: 41cd 5b3d 355a 84bc 2bb6 bdbc b6fb 54bd
00000060: a3c1 62bc 1621 443c 2baa eebc bda1 0dbd
00000070: 8404 093d 6172 d9bb 1b48 28bc cb40 383d
00000080: 4609 833d 87b8 3c3c be84 053d c4eb ab3c
00000090: c626 2a3d 20cc bbbb ac11 cbbc d873 74bc
000000a0: 5a13 be3c f02c b4bc a979 7bbd defc f33c
000000b0: a7bc 923c dfe3 12bc d89c 4bbd 2512 7abc
000000c0: 994e c83c 0067 b93c 6b95 e73c 7fd5 2cbd
000000d0: 045f 20bd 926b 59bd b5fb 313d 00b7 17ba
000000e0: 6015 8d3c 8a4b 19bc f36e 063c c12b 4dbc
000000f0: 3dad 263d ca05 c2bc e95d 2abc a0e6 683b
00000100: ca16 66bd 6428 35bc a891 17bd aea2 3f3d
00000110: af81 acba cfb9 f13c 8349 7cbd 098e 533c
00000120: 7208 7dbd f876 c43a 4f04 183d 6480 543c
00000130: a71a 6fbd 0d00 53bd f7db 69bd ced5 37bc
00000140: cccf 983c 867d 46bd 613f 5b3d f9cc bc3c
00000150: b149 003d 0a78 1e3d 4f9b 82bc 563c 49bd
00000160: 520b 6abd 116b 453d 658d 693c 649b 08bb
00000170: f307 a8ba 1521 573d d79f 2ebc 3e75 e6bc
00000180: f4ee 70bd f291 44bd 616a cc3c b6fd 76bd
00000190: fe4e 6ebc d0da edbb b53c 37bd 862c f9bb
000001a0: 8caa be3c b26a eabc 7653 7dbd 99cb 123d
000001b0: 586d 4bbd d89e 0b3d 028d 173c b43c adbc
000001c0: b01d fdbb 3849 33bc 23b1 60bd 9340 3fbd
000001d0: c115 783c c85e 183d 9ee1 70bd 9825 09bd
000001e0: c814 0f3c 3e2c 1b3c 7e26 123c bd2f 09ba
000001f0: c3dd 843b e33e 1abd 3cf5 953c c1d2 a7bb
00000200: f8d8 66bc 5c90 54bd c4a9 65bd c2e1 b33c
00000210: 1916 1c3d 90cb baba 3b0f 6f3d 3a05 493d
00000220: 256c 0ebd 14a3 a23c 8886 12bd 94ce 0dbc
00000230: 55fd 60bc f2c8 19bd c17e 57bd 40db b3bc
00000240: b192 f4bc 51cf cfbc 09fa 92bc c106 413d
00000250: 74d6 26bd a72c 4dbc 84eb 453c 1c5a 2e3d
00000260: 80e4 2cbd 1a97 1d3d 1df5 61bd 1321 fabc
00000270: 064a 5d3b 7ea9 d3bc 3496 783d 282c 18bd
00000280: a1f7 5dbd 5de5 ae3c fef2 363d d059 5b3d
00000290: f82a f8bc 2f39 4ebd 84f5 5c3d 2ff3 133d
000002a0: 69d0 3c3d f42f 2dbd ec6e 4cbd 5307 65bc
000002b0: a61f 1dbd b43d 373c 7089 483b 86cc 1a3b
000002c0: 6a4a d0bb 49ec 4d3d cdb7 41bd c960 bd3b
000002d0: 0e3c 8bbd dcc3 42bc f5b0 bd3c f4c6 26bd
000002e0: 517b 85bd c8c6 fbbc b845 64bc f081 9fbb
000002f0: aa75 4f3d 0003 393d 48e2 0ebc 7f95 023d
00000300: d844 62bd 868e 80bd 68e2 7b3b ec94 21bd
00000310: 6434 523d 58e3 29bd 8ec4 07bd b882 1dbc
00000320: cab9 b03c 310a debc 9b27 6ebd c238 643d
00000330: b3bb 703c 4023 23bc 9e29 02bc 87d3 c0bc
00000340: 9a44 2bbd 1d5f 97bc 5ca4 25bd 2e83 56bd
00000350: 2233 84bd ad1a 80b8 c498 05bc 7e49 4bbd
00000360: 8048 78bd 1670 dabc e19e 18bd 2d72 e5bc
00000370: 9ccd 083d 10e3 47bc bc35 223d 20dc b9bc
00000380: aa47 e53c fda4 323d 4050 633d b6ce 093d
00000390: 03c0 53bd b9bb e6bc 8913 93bc 97da beba
000003a0: 32c4 b6bb 444e 0f3c f67b 9bbb 207f 483c
000003b0: c810 723c 2555 2c3d 34a4 20bd d0c1 9fbc
000003c0: 73d1 623d ff0b 2abd d38b 243d 5793 95bb
000003d0: dd60 1ebd a39f 043d 5b37 113d e4ae e6bc
000003e0: 6698 61bd 48ca 893c 8970 483d 3014 10bd
000003f0: 0271 093d 1180 87ba 6c66 7fbd 6572 04bd
0.035032086 -0.012379583 0.012840204 0.05615425 -0.016607592 0.02153989 0.0407043 -0.034332935
-0.0031526599 -0.0196398 0.0021229584 -0.058436945 -0.04290252 -0.04541195 0.038010694 -0.025165489
-0.009327647 0.025006387 0.0018709487 0.050380345 0.053662542 -0.016156295 -0.023158154 -0.051997863
-0.013840112 0.011970779 -0.029133877 -0.034578074 0.033451572 -0.0066359495 -0.0102710975 0.044983666
0.06398253 0.011518604 0.032597296 0.020986445 0.041540883 -0.0057311207 -0.0247887 -0.014920197
0.023202587 -0.021994084 -0.06139532 0.029783662 0.017912222 -0.0089654615 -0.049710125 -0.015263115
0.02445154 0.022632122 0.02826949 -0.042195793 -0.039153114 -0.053081103 0.043452937 -0.0005787462
0.017222106 -0.009356389 0.008205163 -0.012522639 0.040692557 -0.023684401 -0.0103983665 0.0035537854
-0.056174077 -0.011056993 -0.037004143 0.046786003 -0.0013161207 0.029507546 -0.061593544 0.012912282
-0.061775632 0.0014989069 0.037113484 0.012970064 -0.058375027 -0.05151372 -0.05709454 -0.011220409
0.018653773 -0.048459552 0.05352724 0.023046957 0.031320278 0.038688697 -0.015943198 -0.049129806
-0.057139702 0.04819781 0.0142549025 -0.0020844573 -0.0012819752 0.052521784 -0.010658226 -0.028132077
-0.058821633 -0.047990747 0.02495307 -0.06030055 -0.0145452 -0.0072587505 -0.04473563 -0.0076041846
0.023274682 -0.02861533 -0.061847173 0.035838697 -0.049664825 0.034087032 0.0092499275 -0.02114711
-0.0077244863 -0.01094275 -0.05485643 -0.046692442 0.015141905 0.037199765 -0.058808915 -0.033483118
0.008732982 0.009470997 0.00892031 -0.0005233249 0.0040547564 -0.03765763 0.018305413 -0.0051215594
-0.014089815 -0.051895484 -0.056070104 0.021958236 0.03810701 -0.001425134 0.058364134 0.04907725
-0.034771103 0.019853152 -0.03577283 -0.008655209 -0.013732274 -0.037545152 -0.052611116 -0.021955132
-0.029855104 -0.02536741 -0.017941492 0.04712558 -0.040731862 -0.012522853 0.012080077 0.042566404
-0.042210102 0.03847418 -0.0551654 -0.03053335 0.0033766045 -0.025837656 0.06069012 -0.037151486
-0.054191235 0.021349603 0.04466533 0.05355245 -0.030293927 -0.050347503 0.05394508 0.03612059
0.046097193 -0.04228206 -0.04991047 -0.013978797 -0.03836026 0.011184145 0.0030599497 0.002362044
-0.006356527 0.050274167 -0.047294427 0.00577936 -0.06798564 -0.011887517 0.023155669 -0.04071708
-0.06517661 -0.030734435 -0.013932638 -0.0048677847 0.050649323 0.045168877 -0.008720942 0.03188085
-0.055241436 -0.06277184 0.003843451 -0.039448664 0.051319495 -0.041476578 -0.033146434 -0.009613685
0.021572966 -0.027104469 -0.05814324 0.05571819 0.0146931885 -0.009957135 -0.007944493 -0.023538364
-0.04181347 -0.01847797 -0.04043995 -0.052371196 -0.06455065 -6.1084844e-05 -0.008154098 -0.049630634
-0.060616016 -0.026664775 -0.037260894 -0.028008545 0.03339921 -0.012200132 0.039602026 -0.022687972
0.027988274 0.043614376 0.055496454 0.0336444 -0.05169679 -0.028165685 -0.017953651 -0.0014560994
-0.0055775875 0.008746687 -0.004745002 0.01223734 0.014774509 0.042073388 -0.039219096 -0.019501597
0.055375528 -0.041515347 0.04017241 -0.0045646834 -0.038666595 0.032378804 0.03545318 -0.028159566
-0.05507698 0.016820088 0.048935447 -0.035175502 0.03355504 -0.0010337849 -0.062353536 -0.032335658

4.bias f4 [128]
00000000: 8eb2 663c 1dd7 2abd ff71 f7ba 6769 49bd
00000010: dbb2 803d 0efc d9bc d28b 813b ba79 323d
00000020: 54a5 fe3c e89c 40bc bee7 93bb e1a5 8b3d
00000030: b793 8e3d 2579 09bd 3654 80bc 0b32 2ebc
00000040: fd2c 9a3c 3e4f 11bd a339 72bd a08a 593d
00000050: 8638 6f3d 1288 053d 65a6 2fbd 584b 343d
00000060: 09d0 553d 1d8c a8bb ccdd 6c3d 5829 82bb
00000070: 1b62 f03c 9e22 363d 0487 543c dbb9 573d
00000080: 629e 47bd ce63 5cbd b88a 253d 5e10 653d
00000090: be9c 84bd 0431 5a3d 4e32 c7bc 0365 fdbc
000000a0: 8953 843c 32b2 4a3d 07a6 a33c db6d 9b3c
000000b0: 66d8 b43b f8f5 38bd aff5 33bd 2f51 2c3d
000000c0: 1222 31bd b10a 44bc 7359 123d da68 8e3d
000000d0: 9c61 2b3d eeed 173d 4036 1f3d cf37 56bd
000000e0: 66ce cd3c 9fb2 b53c e7d0 24bc 734c 15bd
000000f0: a5f9 603d 22f8 ecbc fab4 7cbb 360b a13c
00000100: 089a 40bd d09f 5fbd 1dad 893d a939 243d
00000110: b88b acbc dd39 153d 6bc0 463d f091 143d
00000120: 0875 d6bc 281a 00bc dff0 25bc db91 243d
00000130: 2a93 0e3b c533 373d 7d6e 43bd 62b0 253d
00000140: e00e 013d 6027 0b3d 1028 b5bc 4f71 643d
00000150: e1e4 aabc 8169 7c3d 7908 1d3d df43 603b
00000160: 21fd dfbc 2f71 a7bc 66a2 cc3c 9aa2 b1bb
00000170: 219d 3b3d d92d 97bc 55c2 1cbd db32 6e3d
00000180: 9878 1cbd dc77 3bbd d9e9 fc3c c063 4d3c
00000190: 6ae2 7ebd d444 b53c fa07 e4bc 31bf 3dbb
000001a0: a4f6 13bd 832f 743d 866d 523b 6ad9 0abd
000001b0: 085f 25bd 356a ce3a da4a 18bd f59e 783d
000001c0: 45ab 7c3d b0dd 9e3c a1b8 c93c f355 163d
000001d0: 96c7 6b3c fc9e 4d3d 66a3 61bd 532c 303d
000001e0: 5f4e 8c3c b149 4d3d 8051 97bc 6e87 16bd
000001f0: a792 e3bc 609f 9dbc 2cc4 70bd d73d b3bc
0.014080657 -0.041709054 -0.0018878578 -0.049172785 0.06284114 -0.026609447 0.0039534355 0.04357312
0.031084694 -0.011756159 -0.00451371 0.06818748 0.06961768 -0.033562798 -0.015665155 -0.010632048
0.01882028 -0.035475962 -0.059136998 0.05311072 0.058403514 0.03260047 -0.042883296 0.044017166
0.05220035 -0.005143656 0.05782871 -0.0039722137 0.029343655 0.044466607 0.012971643 0.05266748
-0.04873503 -0.05380612 0.040415496 0.055923812 -0.06475209 0.0532694 -0.02431598 -0.030931955
0.016153114 0.049486347 0.019976629 0.018973282 0.0055189608 -0.04515645 -0.043935474 0.04206961
-0.043245383 -0.01196544 0.035729837 0.069535926 0.041841134 0.03709214 0.038870096 -0.052299317
0.025122833 0.0221799 -0.010059572 -0.03644986 0.05492558 -0.028926913 -0.003856002 0.019658666
-0.047021896 -0.05459577 0.06722472 0.04009405 -0.021062717 0.036432136 0.048523348 0.03627199
-0.026178852 -0.007818736 -0.010128229 0.04017816 0.0021755197 0.044727106 -0.04771279 0.040451415
0.031508327 0.033973098 -0.02211383 0.055772122 -0.020861091 0.061624054 0.03833816 0.0034220142
-0.027342381 -0.020439712 0.024979781 -0.005420995 0.045804147 -0.018454479 -0.038271267 0.05815397
-0.038200945 -0.045768604 0.030873226 0.012535989 -0.062227644 0.022127546 -0.027835835 -0.002895307
-0.036123887 0.059615623 0.0032108738 -0.03389875 -0.040373832 0.0015748205 -0.03718076 0.06069847
0.061686773 0.019392818 0.02462417 0.03670306 0.014390847 0.050200447 -0.05508747 0.04301102
0.017127214 0.050119106 -0.01847148 -0.03675025 -0.02777989 -0.019241035 -0.058780834 -0.021880073

6.weight f4 [128, 128]
00000000: 2252 0bbd 8b61 1e3d e204 313d b121 883d
00000010: 9a26 21bd 449c 2bbd 8101 39bd 3d9c c3bc
00000020: dba5 7abd b0fe 383c 8cfd adbc 6234 c1bd
00000030: e587 70bd 380c 333c 18e0 bb3c 2258 8e3d
00000040: 096c b23b c646 783d b697 293d da34 973d
00000050: fcf4 47bd 0ef1 6ebd 25bd 85bd a3e4 673d
00000060: dceb 9abd 78aa 60bc d9ff d6bb 9112 82bc
00000070: 1c4c 163c a862 98bc b085 5f3c 9e65 9d3d
00000080: eabd 09bd e07c 033c d3d3 91bc 7770 54bd
00000090: b5e1 b03d e7f1 ec3c 10b9 a9bd 4c18 a33c
000000a0: e408 133c cb94 883d e66c 9d3b e7e0 3ebd
000000b0: 3a69 413d 6e44 16bd 5cad fb3c 605d bebd
000000c0: 9362 94bc bac1 3fbc f689 a2bd 6bb4 0dbd
000000d0: 4dd2 153d c537 973d 606f bd3c 707f 98bc
000000e0: 2c94 99bd 42f7 a73d cb7b 973d 7b14 90bd
000000f0: 3ae4 023c 6f4b b13c 0011 993b 5ea8 a6bb
00000100: 9845 76bc f690 1bbd fc14 f53c a9d7 fd3c
00000110: b0f9 56bc e08a 363c 2e84 4f3d 5c29 2a3d
00000120: 24bd 5ebd be05 3f3d b112 a3bc 6d47 83bd
00000130: a0d0 a13d aef0 82bc 3d4c 8cbd d984 b3bd
00000140: 0475 c1bd ad14 6e3c 643b 7ebd c566 123a
00000150: b22f bc3c 2378 673b 2f2c 8c3d dde9 233d
00000160: 7239 e8bc 6d5c 443d 7acd e13c e6d1 b6bd
00000170: 499f afbb a46d 32bb 5eff 183d 7e7e 833d
00000180: 78ee 7bbd 34d8 c0bc 4db7 5dbd aa06 27bd
00000190: 207c 613d 367c 533d 0044 edbb d888 1b3d
000001a0: 1d97 7bbd d4c7 c2bd a559 923b 64dc 93bd
000001b0: f0d7 4abc 2ac9 7b3d 388e 2d3c 3668 3a3d
000001c0: d790 b23c d537 65bd bc8b 103c f636 313d
000001d0: bfc0 91bd 8bea f83c 3153 963d bfd3 84bc
000001e0: 52c1 83bd 42bc adbd 8e72 3f3d 12f2 8f3d
000001f0: 7a0d af3c 17b7 843d 33c6 9fbb a428 053d
00000200: 1913 a2bd 09ff 37bc 2df5 013d 6024 18bb
00000210: b983 883d 93b1 9e3a 4745 813d 03e6 f4bb
00000220: d90f 8c3d 1582 af3d f5b7 afbd b941 04bc
00000230: 2b7b 17bd 7a5c 74bd f85b a13d ed88 95bd
00000240: 8729 b8bd 1216 4b3d 3b87 acbd 393d c4bb
00000250: f515 42bd 5bad 793d b6aa 8c3d 7a60 30bd
00000260: c6e3 6a3d eede 863c 3422 f0bb 186b c4bc
00000270: 96f2 ffbc 4576 45ba c37f 923c c87d 353d
00000280: 0981 8bbb ee7e 633d 4e42 ac3c cd08 81bd
00000290: b829 9abd 51ce 07bd 2bc0 a8bd e066 ea3c
000002a0: 3f9c 9dbd 4d66 54bd 9702 063d 3762 b0bd
000002b0: c3d0 683d 5cc5 ffbc 3a1a ee3c e5d4 c9bd
000002c0: d24b 803d 08d6 e6bb ff65 90bd 2011 6d3d
000002d0: 0b70 da3c 463b 4dbb 9c92 77bb 46c6 653d
000002e0: 245c 96bd c408 64bd b170 77bd 7b4e a9bd
000002f0: 064f 243d 205d 9a3c 3bde 53bd cd63 a43d
00000300: 497a 63bd e8e7 863c 60c3 a1bd a0c1 0cbd
00000310: 9654 53bd a935 fa3c c80e aebd 8a3e 48bb
00000320: 0bce aebd 398f 90bd a6b6 0ebd addd 843b
00000330: 274f 75bd cba9 b8bd 1392 873d 3ec7 56bd
00000340: eda3 07bd 53cf 4ebd 5e55 76bd f54d b2bd
00000350: 20af 2dbd f7ec 66bd d5ed 09bd b714 a4bd
00000360: c63a 2f3d f008 7ebc 93b4 a53c 5bbe 8a3d
00000370: 27b8 10bd e38d 243d 853c 62bd 6c72 19bd
00000380: d2e2 e5bc bb9b 1c3d 678d 26bd a737 4d3d
00000390: 4605 a0bd c98f fe3c 3284 723d 97b1 453d
000003a0: 7ae1 55bc bad8 6ebd a144 b2bd eda4 0a3d
000003b0: 178b 6e3d 0d8c 8fbc 1580 42bd 97fb 6cbd
000003c0: 30dd 543d 6b81 e23a a56b 09bd 26a5 1abd
000003d0: cfa1 053d fa25 8d3c d3c4 b73d e4c8 aebd
000003e0: 4b4e 81bd 6114 8fbd b24d 56bd a13f 913d
000003f0: 5d2b 193c ad75 553d 665c f03c 1c86 14bd
-0.034013875 0.038667243 0.043217547 0.06647051 -0.039343454 -0.041897073 -0.04516745 -0.023878211
-0.06119333 0.011291191 -0.021239065 -0.09433819 -0.05872335 0.010928206 0.022934005 0.06950404
0.0054450077 0.06061437 0.04140445 0.073831275 -0.04881762 -0.058335356 -0.06530217 0.05661453
-0.07564518 -0.013712518 -0.006561261 -0.015877994 0.009173419 -0.01860173 0.013642713 0.076853976
-0.03362838 0.008025378 -0.017801201 -0.051865067 0.086368 0.028923942 -0.08287251 0.019909047
0.008974288 0.06669005 0.0048042415 -0.046601202 0.047219492 -0.036686353 0.030722313 -0.092951536
-0.01811341 -0.011703903 -0.0793647 -0.034595888 0.03657751 0.07383684 0.023124397 -0.018615454
-0.07498965 0.082014576 0.073966585 -0.07035156 0.007988984 0.021642415 0.004671216 -0.005085989
-0.015031241 -0.037980042 0.029917233 0.030986624 -0.013121054 0.011141509 0.050663166 0.04154335
-0.054379597 0.046636336 -0.019906374 -0.06410108 0.0790112 -0.015983906 -0.06850479 -0.08765573
-0.09446147 0.014531297 -0.062068358 0.0005584772 0.022971962 0.003531941 0.06844365 0.04001795
-0.028347705 0.047939707 0.0275638 -0.08926754 -0.0053595644 -0.0027225995 0.037352912 0.06420611
-0.06150672 -0.023540594 -0.054129887 -0.04077784 0.055050015 0.05163213 -0.0072407722 0.0379723
-0.06142341 -0.095107704 0.004466253 -0.072197706 -0.012380585 0.061471142 0.01059299 0.04550954
0.02179758 -0.05596145 0.008822378 0.043265305 -0.071168415 0.030385276 0.07340086 -0.01621425
-0.06433357 -0.08483173 0.046740107 0.07028593 0.02136873 0.06480234 -0.004875922 0.03250946
-0.07913799 -0.011230239 0.03172796 -0.002321504 0.06665749 0.0012107365 0.06312042 -0.0074737086
0.0683896 0.08569733 -0.08580009 -0.00807231 -0.036982697 -0.059658505 0.0787887 -0.07301507
-0.08992296 0.049581595 -0.08424231 -0.0059887436 -0.04738422 0.06095634 0.06868498 -0.043060757
0.057346128 0.016463723 -0.007328296 -0.023976848 -0.031243604 -0.0007532577 0.017883187 0.044309407
-0.0042573255 0.05554097 0.02102771 -0.06300507 -0.075274885 -0.033155743 -0.08239778 0.028613508
-0.07695817 -0.051855374 0.032717314 -0.08612483 0.056839716 -0.031222038 0.02906524 -0.098550595
0.062644616 -0.0070445575 -0.07050704 0.05787766 0.026664754 -0.0031315847 -0.0037776595 0.05609729
-0.07341793 -0.055672422 -0.060410205 -0.08266922 0.040114425 0.018843234 -0.051725607 0.08026848
-0.055536542 0.016468003 -0.07898593 -0.034364343 -0.05159434 0.030543165 -0.08498913 -0.0030554854
-0.08535393 -0.070585676 -0.034842156 0.004054746 -0.05988994 -0.090167604 0.06619658 -0.052436106
-0.033115316 -0.05049069 -0.060140006 -0.087062754 -0.04240334 -0.05637833 -0.03367408 -0.080117635
0.04278066 -0.015505061 0.020227706 0.06774589 -0.03533187 0.040174376 -0.055233497 -0.037462637
-0.028062258 0.038234454 -0.040662196 0.050101902 -0.07813506 0.031074421 0.059208103 0.048265066
-0.013054246 -0.058312155 -0.08704496 0.03384869 0.058238115 -0.017522836 -0.04748543 -0.057857122
0.051968753 0.0017281001 -0.033549923 -0.037755154 0.032625016 0.017230023 0.08973088 -0.085344106
-0.06313761 -0.06986309 -0.05232019 0.070922144 0.0093487175 0.052114177 0.029340934 -0.03626071

6.bias f4 [128]
00000000: 4874 4dbd b515 5a3d a8f6 3ebc eac9 75bc
00000010: 7873 8dbd 7775 9cbd d5d4 d0bc c404 503d
00000020: cd74 d23b 135a 10bd bfbb 52bd 1aab 2bbd
00000030: 05a2 273c 87c5 aa3d 74c6 af3d c6d5 80bc
00000040: 0068 b8b8 3826 09bd 4c3c a33d 1dae 3ebc
00000050: 0c0e 9cbd c9d6 af3d 335c 76bd 680d 34bd
00000060: 5934 3a3d 86be 87bd 2517 b7ba 6b53 6b3d
00000070: 4d6d c8bc e468 ac3d f72a 943c 3480 b23b
00000080: dc5d 98bd f0f9 f53c 7a79 fa3c 3d7b 87bd
00000090: f998 16bd 1779 bc3c 287f acbb 2f65 fe3b
000000a0: 00a1 653d 271f bc3d fd85 15bd 6cd1 85bc
000000b0: 8006 a73c 051c 3dbd ffe1 a7bd 53b9 8dbc
000000c0: fb40 01bd a546 283d b487 94bd 47c7 c53d
000000d0: 0c01 13bd fece bd3c 6e1e bc3d feb5 3ebd
000000e0: ac89 743d f141 91bd 87d8 a53d 75e4 82bd
000000f0: 218b 24bc 682d 863d dc44 a6bc 05ef d0ba
00000100: 6641 2d3c ef50 dbbb f985 f9bc 4ffc 2f3d
00000110: aa21 36bd e7c1 83bd 4f34 b43c 027b 90bd
00000120: 7c83 63bd 91f3 1bbd 28d4 483d 888f a1bc
00000130: 21c6 a8bd 1ca5 a9bd a7a9 5abd 9cd7 aa3d
00000140: 4052 893d 0573 b3bd 070a 103d 760b cfbc
00000150: 3b3c 49bd 96a1 9f3d 000f cc3b 12a2 d13c
00000160: c02d 1a3c bf8c 0b3d 4ca0 3b3c 290d c33d
00000170: 82ec cabd f7d9 8dbd 710a 8fbd 3f2e 57bd
00000180: 4f6c afbd 4640 fabc 9a63 853b 2f7c 70bd
00000190: 313e ad3d 781e fb3b db69 9f3d 63c5 74bc
000001a0: 67b4 743c 8068 923d 2f4b eb3c 5c56 b3bc
000001b0: a42f 563d 2932 403c 06e5 2d3b 5bd3 293d
000001c0: 6a83 283d 5cfb bf3d 7b18 883d f31e ec3a
000001d0: d394 c13c 5696 893d efc0 b8bd 6e99 07bc
000001e0: 12fd 5ebd 758c 603d 12a9 46bd 323f afbd
000001f0: 5073 9bbd 2710 93bd 5ef3 b73d 04c4 593c
-0.050159723 0.053243358 -0.011655487 -0.015001753 -0.069067895 -0.07639592 -0.025492111 0.050785795
0.006422615 -0.03524215 -0.05144858 -0.041911222 0.0102315 0.083384566 0.08582774 -0.015726935
-8.793175e-05 -0.033483714 0.07970485 -0.0116381915 -0.07619867 0.08585889 -0.06014652 -0.043958098
0.04546008 -0.06628136 -0.001396869 0.0574526 -0.024466181 0.08418444 0.018086893 0.005447412
-0.07439777 0.030026406 0.030575503 -0.06615303 -0.03676698 0.023006959 -0.0052641816 0.007763527
0.056061745 0.09185629 -0.036504734 -0.016335212 0.020388842 -0.0461693 -0.08197402 -0.017300284
-0.03155611 0.041082997 -0.07252446 0.0965715 -0.03588967 0.02316999 0.091854915 -0.04656028
0.059701607 -0.070926555 0.0809794 -0.06391231 -0.010042937 0.06551629 -0.020296507 -0.0015940374
0.010574674 -0.0066929976 -0.030459391 0.04296523 -0.0444657 -0.06433468 0.021997599 -0.07054712
-0.055545315 -0.03807408 0.049030453 -0.019721761 -0.08240915 -0.08283445 -0.05338445 0.083419055
0.06705141 -0.087621726 0.035165813 -0.02527402 -0.049129706 0.07794492 0.006227374 0.025589976
0.009410322 0.034069773 0.011451792 0.095239945 -0.099083915 -0.06926339 -0.069844134 -0.052534338
-0.0856558 -0.030548226 0.0040707113 -0.05871218 0.08459128 0.0076635443 0.07783862 -0.014939639
0.014935589 0.07148838 0.028722374 -0.021891765 0.052291527 0.011730709 0.0026534214 0.04146133
0.04114095 0.09374115 0.06645294 0.0018014595 0.023630535 0.067181274 -0.09021174 -0.008276327
-0.054440565 0.05482145 -0.04850108 -0.085569754 -0.075903535 -0.07180815 0.089819655 0.013291363
