models_5_250/checkpoint0.pth.tar (torch_old, 502895 bytes, 10 tensors)

0.weight f4 [256, 26]
00000000: 5c0d edbc 6c44 13be 6d5c 313c e8b6 d13c
00000010: f1fd 8dbd 61d5 893d 0641 683d 57d2 513d
00000020: 0a2f 3d3e 55ae 99bd 15a6 23bd 0124 973d
00000030: b46e febd e1ac 303e 81ff 2f3e da49 b6bd
00000040: 74f8 2ebc af3b 613d 4be1 d23d 5964 963d
00000050: 9d1e 6a3d ca34 98bd 0311 c53d 9592 9dbd
00000060: 8722 d1bd 677b 323e 3bf4 423e dfa7 54bd
00000070: e559 3a3e 3bb2 253e d3e3 06be 50a9 573d
00000080: 0d6a debd 40d9 bfbd 8362 f73d bf1b 3f3e
00000090: 000d 3bbc 0126 003e 4081 da3d 746c 173c
000000a0: 5ea9 3abe ef67 013e a0bf 443c 0d27 25bd
000000b0: e2e7 84bc 7898 e238 584f f4bd 4533 f53d
000000c0: fbf8 b5bd 277e 8dbd 5517 27be 8f13 d73d
000000d0: 2bf9 3dbe c892 2ebe 0f01 533d fbe9 10be
000000e0: 1d70 c9ba ecda edbd 6518 1fbd 73c3 8a3d
000000f0: 41e5 64bd cf42 2a3e bf1b d63d 3990 e13b
00000100: 5da4 18bd 2861 293b 1787 373e 9169 363e
00000110: 6153 ec3d 1485 1f3e 3657 0d3e eaa8 be3d
00000120: 0557 093e 6665 043e 0fce 023e e0dd 9b3d
00000130: 3a65 96bd 22c1 19be e49b 97bb 20dc 51bd
00000140: c823 3cbe 1eff 283e c882 243e 30cf fbbc
00000150: e439 0d3e 7422 fdbd a904 fdbd 2814 593d
00000160: ba34 1a3e 9016 043e 7769 f0bd e427 debd
00000170: 4efd 2b3d 6d7e b33d 851e d4bc a2f2 ee3d
00000180: 0708 35be a5bb 353e c81e d4bd 362f a8bd
00000190: c518 a93d 9d13 0cbe 44a1 c93c 4585 3d3e
000001a0: c42e 003d be74 3abe 00cc 57bd 8880 7fbd
000001b0: 2738 e0bd cfb3 053e 4aeb 903d 10ef 49bd
000001c0: 2075 fb3c 604b c9bc 0c1f 3ebe e849 d33c
000001d0: 3c8c 63bd d6bd d63d f66e e6bd f45a 91bd
000001e0: e532 163e a099 593c a79a 13be a964 0e3e
000001f0: 7ff2 073e c00b 9d3b ba3a da3d f038 9a3c
00000200: 4031 dabc 4402 21bd 1586 b0bd 813e 26be
00000210: c6d6 8e3d 0120 f53a e3b2 123e 94d0 82bc
00000220: b118 e13d dbe2 1b3e acc5 1cbe eab4 f33d
00000230: 4ae3 0c3d 70d0 103e 4cce 1d3e ec30 9e3d
00000240: 2be6 afbd 173e 45be fba3 0d3e 871f ba3c
00000250: d7a6 0dbe bf3f 263e 6785 e0bd a02d ddbd
00000260: 9670 073d 43d4 37be 7542 063e 5134 00be
00000270: 5400 b9bc 3f5c 25bc d1f5 983d feaa 0b3e
00000280: 6c1d fabd f877 4ebd 9c93 a13c 66b1 143e
00000290: 4559 063e 8407 2bbe 5443 ea3d 5c2e 2e3e
000002a0: 7cfc d6bc 55f5 8c3d eb9d 9ebd 1d33 fa3d
000002b0: fc53 47be 8895 383e 20e9 16bd 7134 683d
000002c0: 0bb5 d03c 4318 26bc 573d 2c3e 82c5 973d
000002d0: c581 933d 017d 053e f3a4 4f3a 88b7 cbbd
000002e0: 8964 ef3d f522 c53d 575b c6bd 5b95 363e
000002f0: 5f04 6d3d dd03 c4bd f3c7 1e3e 1ade 873d
00000300: 627d d63d 1670 403e 1871 cabb 6702 253e
00000310: 853f fbbd 85cc 463a d019 dbbd fe33 37be
00000320: 0e9d 47be 421d 3b3e f90d 183e 3bfd c63d
00000330: d20c 253e 3990 1dbd a5b0 5abd 4c3b a23d
00000340: cedd 3d3e 78eb b2bb 26a9 93bd 1633 3bbd
00000350: 2c99 463e a7f7 15be 815d dfbd 5353 90bd
00000360: e0ea d9bd 187b ea3c 245b 8cbd e6cd ea3d
00000370: 9a3b c7bd 55c7 ecbc fba2 343e a4f5 fdbc
00000380: dcb3 423e abf6 75bd 515c 0e3e fb90 5e3d
00000390: f4b2 e93d 2382 ac3d 49d8 92bd ddc9 0e3e
000003a0: fbe3 f7bb f68a 38be a9cf 043e 689f 413e
000003b0: e0b3 35bd 34c7 5e3d 740f 92bd bbcf e5bc
000003c0: 61cd 893d d0b0 02bd b498 17be 18e1 0fbe
000003d0: 8515 a43d 5347 3e3d e766 3ebe e875 963d
000003e0: 115b 86bd 258b 343e 55a2 f63d 5d12 0abe
000003f0: 042d 013d f28b ecbb 6f62 f3bd cf70 223e
-0.028937034 -0.1438157 0.010825259 0.025599912 -0.06933201 0.06730152 0.056702636 0.051225986
0.18474975 -0.07503954 -0.03995331 0.07379914 -0.12423459 0.17253448 0.17187311 -0.08900805
-0.010679353 0.05498856 0.102968775 0.073433585 0.0571581 -0.07431944 0.09622385 -0.07693974
-0.10211664 0.17429887 0.19038479 -0.051917907 0.18198355 0.16181271 -0.13172846 0.052651703
-0.10860071 -0.09367609 0.120793365 0.18662928 -0.011416674 0.12514497 0.10669184 0.009242166
-0.18228671 0.12637304 0.012008578 -0.040320445 -0.016223852 0.00010804919 -0.11929196 0.119726695
-0.0888538 -0.06908827 -0.16317494 0.105017774 -0.18552081 -0.1704818 0.05151468 -0.14151756
-0.0015368495 -0.11614022 -0.038841624 0.0677556 -0.055882696 0.16627048 0.10454511 0.0068836478
-0.037266124 0.0025845263 0.17922626 0.17813708 0.11539341 0.15578109 0.138028 0.093095616
0.13412102 0.12929305 0.12773918 0.07610679 -0.07343526 -0.1501508 -0.004626738 -0.05123532
-0.18373024 0.1650357 0.16065514 -0.030738443 0.13791615 -0.12360087 -0.123544045 0.052997738
0.15059176 0.12899232 -0.11738866 -0.10847452 0.041989617 0.08764348 -0.02589346 0.11667372
-0.17678843 0.17747362 -0.103574336 -0.0821213 0.082566775 -0.13679357 0.02461303 0.1850787
0.0312946 -0.18208596 -0.052684784 -0.062378436 -0.1094821 0.13056873 0.07076128 -0.049300253
0.030695498 -0.024572074 -0.18566531 0.025792077 -0.05555366 0.10485427 -0.11251633 -0.07097426
0.14667852 0.013281256 -0.14414464 0.13905586 0.13276099 0.0047926605 0.106557325 0.018825978
-0.026634812 -0.0393088 -0.08619324 -0.16234781 0.069745585 0.0018701555 0.14326052 -0.015968598
0.10991038 0.15223257 -0.15309781 0.11899741 0.034396447 0.14142013 0.15410727 0.07724175
-0.08588823 -0.19261967 0.13832085 0.022720112 -0.13833176 0.16235255 -0.109629445 -0.10799718
0.033066355 -0.17952065 0.13111289 -0.12519957 -0.022583164 -0.010092794 0.07468761 0.13639447
-0.12212643 -0.05040738 0.019723706 0.14520797 0.13119991 -0.16702086 0.11438623 0.17009872
-0.02624344 0.06882731 -0.07744964 0.1221678 -0.19465631 0.18025792 -0.03684342 0.056690637
0.025476953 -0.01013762 0.16820274 0.074107185 0.07202486 0.13035966 0.00079210027 -0.09947115
0.116890974 0.09625808 -0.096853904 0.17830412 0.057865497 -0.09571049 0.15505962 0.066341594
0.104731336 0.18792757 -0.0061780326 0.16114198 -0.12267975 0.00075835764 -0.10698283 -0.17890927
-0.19493505 0.1827288 0.1484908 0.09716269 0.16118172 -0.03846762 -0.053391118 0.07921466
0.18541643 -0.005460199 -0.07209997 -0.045703016 0.19394368 -0.14645253 -0.10906506 -0.07047143
-0.10640502 0.028623149 -0.06853321 0.11465053 -0.09728165 -0.028903643 0.17640297 -0.03100092
0.19013923 -0.060049694 0.13902403 0.054337483 0.11411086 0.08423259 -0.07170159 0.13944192
-0.007565019 -0.1802176 0.12969841 0.18908465 -0.044360995 0.054389194 -0.07131854 -0.028053155
0.06728626 -0.031906903 -0.14804345 -0.1405071 0.08011917 0.04645474 -0.18593942 0.073467076
-0.06560338 0.17631204 0.12042681 -0.13483568 0.03153707 -0.007218831 -0.11884009 0.15863346

0.bias f4 [256]
00000000: bf6f 023e 7369 993d fcb8 16be 3d68 91bd
00000010: 10f7 7b3c d327 463d 8f4d 7d3c c23d 723c
00000020: a865 c13d 3d0e 573d 7840 c13d 340f 3bbe
00000030: 9687 993d 1872 0dbe 2e67 ec3b e76a 673c
00000040: 4787 9dbd 760b c03b 4437 993b 55f7 24be
00000050: 2f0a 063e 93d4 3dbe 3d0f f93d 1bcb 473e
00000060: f623 9eba cf8c b43d c683 c5bc 92b7 203e
00000070: 29ff bebc 4520 e4bd 5379 d23d c661 093e
00000080: 3bd8 b13c a617 183e 5729 bd3d 7310 b4bd
00000090: 40d1 3c3e 49de df3d 744a f53d 24bf fc3d
000000a0: 5633 7a3d dc29 073e e4d9 1dbd 94e3 3dbe
000000b0: 088a 02bd 101b dc3d 4642 193e e1b2 873d
000000c0: 4a09 8cbd 9a31 39bc af72 13bc 5bf1 023e
000000d0: bc21 423e aabe 26be 87ac 773d f14b 293e
000000e0: af26 07bd f41b 1bbd cabc db3d c051 ae3d
000000f0: e813 023e bea5 b53c efd1 db3d 15e4 103e
00000100: aad3 ccbc d6d7 b5bd 31f1 103d 40ed dfbd
00000110: 3c94 a93d e6e8 843d e864 233d d9fb 43be
00000120: 4186 ee3d 1b92 ac3d cbf6 573d 3338 fc3d
00000130: e231 243e e8a6 70bd a990 223e 394c 2c3c
00000140: ad4d 36be a660 1ebd 1fda 9dbd 04be c13d
00000150: bba4 043d deac 32be f466 c53c d893 a03d
00000160: a1a0 e7bd 5cee 0abe fbf4 c13d b3eb 3f3d
00000170: 8c46 1abd 5506 1fbe 00a8 b63d 5abc 223e
00000180: c0a7 423e a788 f53d 181a 303e cb14 fd3d
00000190: c72d 40be a142 4a3d 0ad0 94bd 7081 023e
000001a0: 302d 3cbe 7e19 d13d 136d 3f3e 05c5 3b3e
000001b0: a686 103e 0b49 3bbe 7096 2fbd 832d 3cbe
000001c0: 3c58 72bd 7c70 ed3d fa4f 64bc 494d 2abe
000001d0: 07f9 d2bd cb97 2bbe 04ef 76bc ad15 04be
000001e0: 84db f6bd 1a1e 8d3d 6105 89bd 106f 3ebc
000001f0: 0471 003e 5619 c0bd 6b4c bc3d 8624 e03d
00000200: bc9e 033e 1f60 1bbd b05e 16be 50b8 f9bc
00000210: 79e4 d23d c8f6 cbbd 64ed 1a3e 95d7 1f3e
00000220: 424c 3dbe 67d3 283e 57cf e13b 0044 563d
00000230: 3f86 cfbd bfc6 c03b 6885 6dbd 40c4 9b3b
00000240: 115c 8abd 80a4 babd c87b 303e 18d8 26be
00000250: 4b75 533d 92be c53d 3864 0abe f280 713d
00000260: f85a 2d3c 35f8 5e3d d21b a0bd ee48 2e3e
00000270: 3074 13be 263e a2bd b8bf 02be 2ded 043e
00000280: 343a bdbd badd f4bd 0541 d4bd 0f3b 11be
00000290: 32f8 163e a021 9abd 76e1 e13d e81d d43c
000002a0: 988d 2dbe e59b 4a3d b7fe 27be 2f9e 44bd
000002b0: 0648 48bd 990c 13be 3afe 9a3d 57b8 eabd
000002c0: 4239 bdbb d37a 043e 6278 353e ebbc 8dbc
000002d0: 1f01 50bd f745 743d 191c 143d c8ab acbc
000002e0: 470f 81bd cd4e a4bb 6b4f 1e3d 2b44 11be
000002f0: 1cba 153e fe50 8fbc afad 07bc 12cc 84bd
00000300: 73cb 8dbc e3e5 d83d df84 053e 0305 fabd
00000310: d4ad 0fbe db92 0d3e 327f 363d 8a40 353e
00000320: 7cbb 093e b26a 0cbe f5e1 8b3d 25f9 d83d
00000330: 28a1 c73b 4ed3 77bd 5fef 9bbc 5a69 1cbe
00000340: 80c3 b53d ab97 75bd 84fc 26bd ccbe 77bc
00000350: 9337 42be 7bfb c9bd eb0d 3dbe 8887 1cbe
00000360: 07ae 1e3e d5d6 28be bff3 9e3d e629 3fbe
00000370: aaaa 913d b321 fabd 3fd9 23be 5992 273c
00000380: d9a8 b23b 8243 75bd 4a51 08be f326 c2bd
00000390: ac7b 013e 6b84 5c3d a56c d1bd ba96 f8bc
000003a0: 3f52 f2bd 2a59 913b 6259 18be e185 f03c
000003b0: be91 3f3e 09e0 ec3d b153 3abe 1e34 25bd
000003c0: e215 cfbd 5c40 8f3d cde5 e53c 27a4 08be
000003d0: fcc7 2a3e 42c8 5e3d db98 ddbc d5f0 073e
000003e0: ec6c 413d 1a0d cf3d 0fa5 3f3e 0078 c13b
000003f0: 0f00 2ebd b35b b73d 3ec0 05be 2f2b cabc
0.1273794 0.07490816 -0.14719003 -0.0709996 0.0153787285 0.048377823 0.015460386 0.014785232
0.094432175 0.052503813 0.094361246 -0.18267518 0.07496564 -0.13813055 0.0072144484 0.014124609
-0.07691818 0.0058607413 0.0046757776 -0.16109975 0.13089822 -0.18538122 0.121611096 0.19511072
-0.001206516 0.088159196 -0.024110686 0.15695027 -0.02331503 -0.111389674 0.10277047 0.13416204
0.021709552 0.14852771 0.092364006 -0.087922 0.18439198 0.109310694 0.119770914 0.12341145
0.061084114 0.13199562 -0.038537875 -0.18543845 -0.031869918 0.10747349 0.14966688 0.06625915
-0.06837709 -0.01130333 -0.008999511 0.12787382 0.18958181 -0.1628367 0.06046727 0.16532876
-0.032995876 -0.037868455 0.10729368 0.08511686 0.12702906 0.022173759 0.10733401 0.14149506
-0.025003273 -0.08879058 0.035386268 -0.10933924 0.082802266 0.06489734 0.039891154 -0.19139041
0.11646701 0.08426305 0.052725594 0.12315407 0.16034654 -0.058752924 0.15875496 0.01051622
-0.17803068 -0.03866639 -0.07707619 0.09460071 0.03238366 -0.17448756 0.024096943 0.07840699
-0.113099344 -0.1356749 0.094705544 0.04685564 -0.037664935 -0.15529759 0.08918762 0.15892163
0.19009304 0.11988955 0.17197454 0.123574816 -0.18767463 0.04937995 -0.07266243 0.12744689
-0.18376613 0.102099404 0.18693952 0.18336876 0.14113864 -0.18289582 -0.042868078 -0.18376736
-0.059166178 0.1159372 -0.0139350835 -0.16631044 -0.103014044 -0.16757123 -0.015071634 -0.12898894
-0.12053588 0.06890507 -0.06690479 -0.011623159 0.12543112 -0.093798324 0.09194263 0.10944466
0.12853521 -0.037933465 -0.14684558 -0.030483395 0.10297484 -0.09959179 0.1512962 0.15609582
-0.18486121 0.16486894 0.006891172 0.052310944 -0.10133027 0.0058830674 -0.057988554 0.0047536194
-0.067558415 -0.09113407 0.17234719 -0.1629337 0.05162553 0.09655489 -0.13514793 0.058960862
0.010580771 0.054435927 -0.07817806 0.17020008 -0.14399791 -0.0792201 -0.12768447 0.129811
-0.09239617 -0.119563535 -0.10363964 -0.14182685 0.14743116 -0.07525945 0.110293314 0.025893167
-0.16948545 0.04946508 -0.1640576 -0.048002418 -0.048896812 -0.14360274 0.07568021 -0.11460941
-0.005774648 0.12937479 0.17721704 -0.017301997 -0.05078232 0.059637036 0.03615961 -0.021078005
-0.06301742 -0.0050142766 0.038649958 -0.1418616 0.14621776 -0.017494675 -0.0082811555 -0.06484236
-0.017308926 0.105907224 0.13038968 -0.12207987 -0.14031154 0.13825552 0.044554897 0.17700401
0.13450426 -0.13712576 0.06830207 0.105943955 0.0060922094 -0.06050425 -0.01903504 -0.15274563
0.08875179 -0.059959095 -0.04076816 -0.015121173 -0.18966512 -0.09862419 -0.1846234 -0.15286076
0.15496074 -0.16488202 0.07761335 -0.18668327 0.0711263 -0.12213459 -0.16000842 0.010227763
0.005452257 -0.059878834 -0.1331226 -0.09480085 0.12644833 0.05383722 -0.102258004 -0.03034531
-0.118320934 0.004435678 -0.14877847 0.029360713 0.1870794 0.11566169 -0.18195988 -0.040332906
-0.10111596 0.069946975 0.02806368 -0.13343869 0.1667785 0.0543902 -0.027050426 0.13275464
0.047223017 0.10109921 0.18715309 0.0059041977 -0.042480525 0.08953037 -0.13061616 -0.024678795

2.weight f4 [256, 256]
00000000: 2640 ebbc 4020 f8bc f0a7 ccbb aeaa 5dbd
00000010: 3672 423d 208f fc3c 26b2 60bc a636 4c3d
00000020: 78e9 22bc c8c1 f53c d869 10bd 766f 30bd
00000030: ba8b 56bd 60cc 163b 86d9 2bbd 8e85 7b3d
00000040: 48b8 2ebd 6179 163d 322f 35bd b3cf 10bd
00000050: e38e f4bc 707c 41bc 8d0b 623c 1449 f6bc
00000060: 5a73 353d b888 293d 3669 5fbd 69a7 9e3c
00000070: 0e4c 67bd 94fd f03c 3857 ce3c 9196 4a3c
00000080: 64fa 5c3d 968b 76bd 4769 69bd f8f4 adbc
00000090: 54a4 c73b 786f 393d e697 22bd 5231 3cbd
000000a0: 3632 e63a 6e69 6cbc 2822 7bbc d289 54bd
000000b0: 181f 59bd ec80 293c 9d67 4bbd b05a f7bb
000000c0: d8a3 86bc b493 b63c a8ef 37bd 6e97 793d
000000d0: 5e51 16bd 8884 7d3c e8ab 853c 582f 293d
000000e0: 1004 103d 4ce2 703d 9d64 7f3c 594b e5bc
000000f0: 0854 17bd 6853 a43c bf8a 4b3d 06e7 483d
00000100: 78f7 263d 5908 113d 7871 f53c f4ec 01bd
00000110: 85a2 363d 0017 433b 00bd 8ab9 68a7 d93c
00000120: 8abc 52bd d8fe 37bc a82b d03c a4d9 253d
00000130: fbfc 8ebc 1c45 ebbc 5760 a23c e26b 12bd
00000140: 88fa 3d3d 90f5 6dbd a141 9d3c d8f1 70bc
00000150: ee39 2e3d a208 193d 6944 183d 2262 84bc
00000160: 406b 733c b419 9dbc 34c5 64bd a4ee fbbc
00000170: cc58 f1bc 8c39 7abd 8053 09ba f780 3d3c
00000180: 0014 2cbc 40a2 ac3b 85c7 133c f8ed 343c
00000190: 8893 9d3c 5f25 eb3c 9683 a63a 21da 103d
000001a0: c014 18bd 2c04 053d da56 713d 62b6 6bbd
000001b0: 4cd7 183c b0f3 173c 543c 3a3d 5ed4 7c3d
000001c0: 7096 93bc 39a8 83bb 8737 753d e0ff 35bd
000001d0: 50bf 4b3d 2043 e83c 1279 1c3d b84f 7c3c
000001e0: 38ae 9fbc 8f45 2f3d 0003 2aba a026 1abc
000001f0: b6ae 413d c040 f8bb 78f9 5d3c f5b2 33bc
00000200: 8ab3 3c3d d133 693d 4066 b93b 2037 9dbc
00000210: 9c48 7d3b 0864 6e3d f20e 103d a033 2f3b
00000220: 3e05 5bbd 5c61 f0bc 07d6 58bd 6842 2abd
00000230: 405e 7e3a fd38 33bd 8875 2ebc 4c81 e73c
00000240: b26b 7f3d e9db c63c 7cc3 d9bc 5350 ccbc
00000250: 590a 95bc 0bf8 61bd 0087 6a3d 28d8 613c
00000260: 8c6b d93c 3813 d63c 18f1 123c 6443 babc
00000270: 95e1 90bc 78c3 533d 504c 4f3c 509f d13c
00000280: dec4 55bd e0b7 683d 6f5c 223c 4b33 78bd
00000290: bc5a 74bd 6028 65bc d04b 353c 5cca 4a3d
000002a0: d001 683c 1dfc b2bc 8cdc 4fbd 72a4 203d
000002b0: 5308 05bb 182a 04bc 80b1 0e3a 804c 74ba
000002c0: 2b86 e8bc a039 793d a211 203c f369 00bd
000002d0: 6d78 5ebc 26c8 28bd 9b53 0d3d 6de9 0f3d
000002e0: 60c8 7f3b 1453 0dbd 625d 0f3d 0070 44bc
000002f0: 3650 af3c 56e0 313d a082 3bbd 7eec f8bb
00000300: d8f3 d13a 08a4 043c 3424 99bc b82e 40bd
00000310: 70ce 593d 94fc 2cbc 9863 e43c 4022 5abc
00000320: 6802 a0bb 344f 3ebd 50a3 a2bc 5633 f3bc
00000330: e9b3 573d 7807 27bd d06f e8bb 94b9 bd3c
00000340: 2b41 7d3c 0425 3dbd 88e0 943c 5f42 7dbd
00000350: 2856 2a3c 809f 833a 6eb5 55bd 8559 9cbc
00000360: 30ae 38bd 1480 0e3d fda0 113b e075 08bd
00000370: a03f b83c 4a78 26bd 800b 1b3b 0852 b33c
00000380: d62a 483d 2478 06bd ae4e d83c cc7a 4e3c
00000390: 72d4 eebb 2431 3bbd a0bf 673c 3050 59bc
000003a0: b8ab 0abc 0164 0ebd 3685 12bd 1f00 173d
000003b0: c0f6 75bc 0035 3c3d 5029 45bd f053 ffbc
000003c0: ea61 16bd 0e1b 523d 0971 703d 1069 60bd
000003d0: fd00 53bd 88ea 78bc 7878 0e3c 60fd 553b
000003e0: d828 02bc f02c b3bc f835 6c3c 80d5 cb3a
000003f0: 84fb bd3c 1884 483c 3a0e 223d 7012 df3b
-0.028717112 -0.030288815 -0.0062456056 -0.05411785 0.0474722 0.030829966 -0.013714349 0.049856804
-0.009943359 0.029999629 -0.03525719 -0.043075047 -0.052379347 0.002301 -0.041955493 0.061406665
-0.042656213 0.03673685 -0.044234462 -0.035354327 -0.02985329 -0.011809453 0.013796699 -0.030064143
0.04429946 0.04139015 -0.054543696 0.019366937 -0.056469016 0.02941779 0.025188074 0.012364999
0.05394973 -0.060191713 -0.056985166 -0.021234974 0.0060925875 0.04527232 -0.039695643 -0.045945473
0.0017562571 -0.014429433 -0.015327968 -0.05188925 -0.05300817 0.010345679 -0.04965936 -0.0075486526
-0.016435549 0.022287227 -0.04490629 0.06093543 -0.03669869 0.015473492 0.016317323 0.041304916
0.035160124 0.058809564 0.015587953 -0.02799003 -0.036945373 0.020059302 0.049692865 0.049048446
0.04076335 0.03540835 0.029961333 -0.031720117 0.044588584 0.0029768348 -0.00026462227 0.026569083
-0.051449336 -0.011230193 0.025411442 0.04049076 -0.017454615 -0.028719477 0.019821329 -0.035747416
0.046381503 -0.058095515 0.019196333 -0.014706098 0.042535715 0.03736175 0.037174616 -0.016160075
0.014857113 -0.019177295 -0.05585213 -0.030753441 -0.029461287 -0.061090037 -0.0005238578 0.011566392
-0.010502815 0.005268365 0.009019737 0.011043064 0.019235387 0.028704343 0.0012704011 0.035364274
-0.037129164 0.03247468 0.05892072 -0.05754698 0.0093286745 0.009274408 0.04546769 0.061725967
-0.01801607 -0.0040178564 0.059867408 -0.044433475 0.049742997 0.02835232 0.0382014 0.015399866
-0.019492254 0.042790946 -0.00064854324 -0.009408623 0.047285758 -0.007576078 0.0135482475 -0.01096796
0.04606966 0.05693418 0.005657941 -0.019191325 0.0038648015 0.058200866 0.035170503 0.0026733652
-0.053471796 -0.0293433 -0.052938487 -0.041567236 0.00097033754 -0.04375552 -0.010648139 0.028259896
0.062358566 0.024274783 -0.026582472 -0.024940645 -0.01819341 -0.055168193 0.057257652 0.013784446
0.02654054 0.026132211 0.008968614 -0.022737212 -0.01768569 0.051700085 0.012652472 0.025588661
-0.0521897 0.056815982 0.009909733 -0.06059579 -0.059656844 -0.013986677 0.011065438 0.04950939
0.014160588 -0.021848733 -0.05074744 0.039219327 -0.002029915 -0.008066677 0.00054433197 -0.0009319261
-0.028384289 0.06084597 0.009769829 -0.03135104 -0.013578516 -0.0412065 0.03450356 0.03513472
0.0039029345 -0.034503058 0.035001166 -0.0119895935 0.021400552 0.043426834 -0.04577887 -0.0075965514
0.0016018106 0.008095749 -0.01869402 -0.046919554 0.05317539 -0.010558266 0.027879521 -0.01331383
-0.0048830993 -0.046462253 -0.019853264 -0.029687565 0.05266181 -0.040778607 -0.007093407 0.02315978
0.015457432 -0.04617788 0.018173471 -0.061830875 0.010396518 0.0010042042 -0.052174978 -0.019085655
-0.045087993 0.034790114 0.00222212 -0.03331554 0.022491276 -0.04064206 0.0023657978 0.021889701
0.048868977 -0.03282942 0.026404705 0.012602519 -0.007288509 -0.04570116 0.014144808 -0.013263747
-0.0084637925 -0.03476334 -0.03577157 0.03686535 -0.015012443 0.045948982 -0.0481351 -0.031167954
-0.036714472 0.051295333 0.05870155 -0.054787695 -0.051514614 -0.015192635 0.008695714 0.0032652244
-0.007944308 -0.021872014 0.014417164 0.0015551299 0.023191221 0.012238525 0.03956435 0.006807618

2.bias f4 [256]
00000000: 5f9d 56ba b73b 11bb af7d 11bd e2b7 343d
00000010: 9a90 453d ff05 bb3c e0ba 34bc 7203 393c
00000020: 70a0 603d 3a35 6a3d bdbc 97bc e649 3ebc
00000030: 8bd1 883c 641f 4c3d 2622 603d 3d1d 0b3d
00000040: c1fe f5bb b71e e73c b5d8 1cbb 491c 303d
00000050: 1e02 e63c 2255 873c ed38 7f3c 9770 25bd
00000060: 5e93 38bd 2bf0 123d c817 f13c 2842 64bd
00000070: 00a3 113a 94ce 41bb 0226 053d b02d 63bc
00000080: c65d 3f3d e41b 003d 080c c93b 17df 453c
00000090: 5005 783d 8740 51bd d545 913c 33b0 76bd
000000a0: 94eb 613d 36c1 80ba dc32 3abc f1e9 393d
000000b0: a08d 3bbd e14b 42bb 1bfb 52bd 5b9d 463d
000000c0: 598b 073d a919 723d 4e52 553d eb3e 25bc
000000d0: 083b 39bd b527 a43c b4ed ce3c a1f3 83bc
000000e0: ad73 65bc 9745 80bc df23 3c3c 8896 113d
000000f0: ca88 e33c 0eef 293d 69fa ff3c a8b2 21bd
00000100: 733a 593d 5e04 c63b 6c6e 243d 60f6 7dbc
00000110: 9112 6abd c8a9 1a3d 888c e4bc d86a cc3c
00000120: 05e2 203d 7414 00bd 43c5 263d 5094 223c
00000130: 782c 22bd 6d14 2abd f257 e23c b2b0 c0bc
00000140: 205f 29bb e5d2 7d3d dbf3 2d3d 5150 30bb
00000150: 7758 b1bc 5975 3c3d a63c 3d3d 9cf3 d6bc
00000160: 247d 053b 84ad 373d 9936 0bbd c3cd 89bb
00000170: 521f fc3c d91a 3bbd 4cba 8eba 54d6 42bd
00000180: d307 0bba fc56 0fbd b636 66bd d099 a33c
00000190: f073 3cbc 58ba bbbc 358f 0c3c 1fd6 1b3c
000001a0: 6427 ef3c 1804 d23c 0646 a4bc 006a f2bc
000001b0: 7888 7b3d fddd 0fbd 00a5 5e3d c287 e1bc
000001c0: 172c eebc 0710 54bd 80cb 203d d0d4 7dbd
000001d0: 4ab7 1b3d 5307 67bd 8c99 bb3c c3e8 7b3d
000001e0: c2aa 423d d68b 193d 203e 6a3d 397c 243d
000001f0: 1dc4 d43c 8837 6e3d 8e04 f43b 45b3 f7bb
00000200: 76d1 b3bb c49f 57bd e480 52bd aac5 75bc
00000210: 74f9 133d d28a 32bd b7af 53bd f818 5a3c
00000220: 26e1 9b3b 8c16 dfbc 78f0 233c c6f7 57bc
00000230: 2a25 5f3d 1230 6bbd 73c9 3c3d 726d 463d
00000240: ca2e 1abd c085 153d 1104 6b3d 28fe 6ebd
00000250: fa65 213d 2dbe 5c3d 3f9f 43ba 1130 7abc
00000260: 48ff 3fbd 9c23 82bc 88c4 cfbc 0032 c63a
00000270: 6e07 08bd d2f9 49bd a079 ba3c 148f 34bd
00000280: 3c13 6f3b 16f3 95ba f493 5d3c 3e3e 59bc
00000290: b607 113d b71e 033c 861f 34bd 4cc4 fb3c
000002a0: de75 063c 40c5 773c 9efd c9bb b0b2 253d
000002b0: a058 01bd 12df 10bd bc7c c9bc 0873 dcbb
000002c0: 0aee 093d 8cfa d7bb 7f9f 4c3d 3acf 53bd
000002d0: 5ca6 9dbc 1202 203c f852 0b3c 4bda 2fbd
000002e0: e959 093d 4a43 e33c 7228 6bbd 52ce 1fbd
000002f0: b3b8 37bd d525 663d 6cf8 c23c 0c40 e53c
00000300: 083d 4d3d d318 39bc 4b43 a63c 7e5d 403d
00000310: fe56 44bc 711d efbc c57f 6f3d 206d b23c
00000320: 1920 39bd eda6 1a3c dfcc 25bd 6704 06bd
00000330: 1acc 3abd afb6 653d 22dd feb9 4390 433d
00000340: 2bca 55bc 2da0 503d 1664 73bc 20a5 773b
00000350: f419 a1bc eaf7 70bd e6d8 00bd baef a3bc
00000360: 4abd 583d a587 b1bc 9b34 faba 78b3 383b
00000370: 196d 1bbd 5c83 6fbc 8767 0dbc 8be5 9bbc
00000380: acee 253d 5eed 27bd 049b 3f3d ed99 60bd
00000390: e7e9 adbc 64fb 09bd e0fa 4bbc 39da 553c
000003a0: 5c4d 7f3d 9efc 613d b96e 53bd 29f1 213d
000003b0: 7b12 c73c 1b43 273d 3237 fb3b 5f3c 503c
000003c0: f1a6 0cbd 72a4 51bd 4dac b5bb 6da6 e53c
000003d0: adde 52bd 28f8 27bd d5d2 d13c 69ae 25bd
000003e0: 166a 73bd e95e 13bb 0d7a 0b3d 8b4c 1abd
000003f0: c4ca 253d 76e5 2ebd 57f8 843c 0ebd 323d
-0.0008186902 -0.0022160837 -0.03552025 0.044120677 0.048233606 0.022830008 -0.011030883 0.011292325
0.054840505 0.057179667 -0.018522615 -0.011614298 0.01670148 0.049834624 0.054720066 0.03396343
-0.0075071757 0.028212888 -0.0023932878 0.042995725 0.028077181 0.016520087 0.015577537 -0.040390577
-0.045062415 0.035873573 0.029430285 -0.055727154 0.00055556 -0.0029572593 0.03250695 -0.013865873
0.04672029 0.0312766 0.0061354674 0.012077115 0.06055194 -0.05108693 0.017733494 -0.06022663
0.055156305 -0.0009823206 -0.011364665 0.04538912 -0.04578936 -0.0029647278 -0.051509004 0.04848991
0.033091877 0.059106503 0.052080445 -0.010085802 -0.045222312 0.020038465 0.02525983 -0.016107382
-0.01400463 -0.015658183 0.011483162 0.03554395 0.027775187 0.041487746 0.031247335 -0.03947702
0.053034257 0.006043001 0.04014437 -0.015500635 -0.057146613 0.037759572 -0.027899042 0.02495329
0.03927805 -0.031269506 0.040715467 0.009923056 -0.03959319 -0.041523386 0.027629826 -0.023521755
-0.0025844052 0.061968703 0.042468887 -0.002690334 -0.021648629 0.04601035 0.046200417 -0.026239209
0.002036878 0.04484321 -0.033987615 -0.004205437 0.030776653 -0.0456799 -0.0010889261 -0.04756768
-0.0005303595 -0.034995064 -0.05620452 0.019970804 -0.011502251 -0.022916004 0.008579065 0.0095115
0.029193588 0.025636718 -0.020052921 -0.02959156 0.061409444 -0.035123814 0.054356575 -0.027530555
-0.029073758 -0.051773097 0.039256573 -0.061970532 0.038016595 -0.05640347 0.022900365 0.061501276
0.04752613 0.037486874 0.057188153 0.04015753 0.02597242 0.058158427 0.007446832 -0.0075592124
-0.005487616 -0.0526426 -0.05139245 -0.01500074 0.03612657 -0.04358942 -0.051681247 0.013311617
0.0047570644 -0.02723243 0.010006063 -0.013181632 0.0544788 -0.05741889 0.046090554 0.04844422
-0.037642278 0.036504507 0.057376925 -0.05834785 0.039403893 0.053892303 -0.0007462389 -0.015270249
-0.046874315 -0.01588612 -0.025362268 0.0015121102 -0.03321021 -0.049310513 0.022763073 -0.044081762
0.003647997 -0.0011440243 0.013524044 -0.013259469 0.035407744 0.008002928 -0.043975376 0.03073325
0.008206813 0.015122712 -0.0061642667 0.040453613 -0.03157866 -0.035368986 -0.02459561 -0.00672758
0.033674277 -0.006591147 0.049956795 -0.0517113 -0.019244365 0.009766119 0.008503668 -0.04293279
0.03353301 0.027742047 -0.05741162 -0.03901512 -0.044853877 0.056188423 0.023800097 0.027984641
0.050107032 -0.011297422 0.02029576 0.04696416 -0.011983631 -0.029188843 0.05847146 0.02178055
-0.045196626 0.009439212 -0.040478583 -0.032719042 -0.045604803 0.056082424 -0.00048611412 0.047745
-0.013048689 0.050934006 -0.014855405 0.003778763 -0.019665696 -0.05883018 -0.03145685 -0.020011771
0.052914895 -0.021671126 -0.0019089164 0.0028183144 -0.03794584 -0.014618721 -0.00863064 -0.019030353
0.04051082 -0.040997855 0.046778694 -0.054834295 -0.021229697 -0.03368701 -0.01244995 0.013052517
0.062329635 0.055172555 -0.051619265 0.03953663 0.024300804 0.04083548 0.007666492 0.012709706
-0.034338895 -0.051182218 -0.0055442215 0.02803346 -0.05148189 -0.041008145 0.025613228 -0.040449534
-0.059427343 -0.002248699 0.034051944 -0.037670653 0.040476575 -0.0426993 0.016231699 0.043637328

4.weight f4 [128, 256]
00000000: 5025 c4bc d2c8 12bb 6b25 54bd 899e 9b3c
00000010: 085d 723d 8d8f 7fbc 884a 4dbd 8838 723d
00000020: 1833 643a eede fcbc 8260 543d 0e49 7f3b
00000030: cb83 a0bc f8aa 39bc 7397 dcbc d795 74bd
00000040: 766c 2dbd c8a7 7d3d 526d 86b9 1535 dcbc
00000050: 6139 be3c 66be 733c 5643 5dbc b3ec 733d
00000060: 3522 2d3d 0790 683d 48f0 85bc 4386 6fbc
00000070: 10fd 363d ab81 9fbb 5d7f 58bd 91b6 79bd
00000080: 5238 363d 2565 a23b 3429 683d 325b 423d
00000090: e418 4b3d 58dd 1ebd cbda 113c a6c6 4c3d
000000a0: 2f82 653d 71ee 1c3d c421 eebc af40 c1bc
000000b0: 5cc6 da3c 4590 79bd eb85 fc3c fed7 e43c
000000c0: 093e 2b3d 8f14 933c 280a 683d 44a8 76bc
000000d0: 5129 45bd 088d 033d 7d51 0a3d 9d4e 363c
000000e0: 1a36 323c 715f b8bc 47fd 573d 249c 16bd
000000f0: a480 01bd 0dd1 80bb 7f87 63bd 74a4 42bd
00000100: d0cb 0d3b 9182 7b3d b6f1 3f3d 4c47 3c3d
00000110: 508e 3ebd 3864 99bc 6a30 423d 40bd 8f3a
00000120: 4bdc cd3b 2a86 693d ff33 42bd d271 58bd
00000130: 73ac 5e3d 5e0c 7b3d ec13 40bd 6261 a4bc
00000140: 40d0 babb c838 ae3c dbec 7b3d 23fd 75bd
00000150: e633 9b3c a925 01ba 5357 323d 8a24 753d
00000160: 9fe1 e7bc 4c9a 183d 8e0c 4f3c b47d 433d
00000170: de08 61bb 469a 51bd 3df7 1a3d 82b9 003d
00000180: ec91 6abc 3a4a c33c 8688 5cbd 2e5e fd3c
00000190: 9b05 51bd 800b 563a 8432 2e3d 4bfc 7c3d
000001a0: 4a95 c43c 404d 7bbc 82a8 993c 4ee2 773d
000001b0: 5b42 1bbd 9487 c1bc b3ef d13c 5cab 403d
000001c0: 138b 453d 2cfe 37bc 28af 63bc 4245 1fbd
000001d0: 21bf c93c 6118 0f3d 4af1 47bd ee38 5b3d
000001e0: bc66 b2bb 8e1d c03c 0e55 9c3c 68aa 9ebc
000001f0: c989 243d 12aa a73b b415 8abb 2d58 14bc
00000200: 5d8f 183d 94ab 57bd 7491 5abd 3075 4f3d
00000210: 7008 48bd 5cf6 07bd 9af7 6bbd d02b 763c
00000220: f58d 803c 3786 193a f29d 4f3d 22aa 793d
00000230: cac8 c5bc daf3 1bbd 5612 1dbd 555b f13c
00000240: b432 08bd 7934 343c d19c 38bd be9d 0dbd
00000250: 0a14 ed3c bb0d 003d aeab 62bd 63ee 8e3c
00000260: 8cbe a93c b74c 373c aae3 603d 1016 533d
00000270: 4e44 f03c 13a1 9b3c 144e 153d a011 f83c
00000280: ac5e c53b 2d66 0dbc a99e 09bd 5133 2bbd
00000290: 27bd b43c f19e 40bd d042 273c 0e33 bb3c
000002a0: 3daa 283d ef04 26bd e4d6 38bc e2ba b6bc
000002b0: b880 12bd ac9a 173d aa1f 0b3d b0b2 7c3c
000002c0: 8ecb 983c 0714 01bc a860 6bbc d01a 40bd
000002d0: b029 8a3c d841 9cbc c23b 1bbd 560b e33c
000002e0: 8850 493d 41a9 68bd 01ac 6abd aecb d4bb
000002f0: fa61 6a3d 8f34 123b 40b4 6fbc e0b6 003c
00000300: 5c92 1abb 8d46 65bd c73c 3cbd c418 d4bc
00000310: b484 6cbd 30ab 3ebc c93c 40bc 78fb 3b3d
00000320: 722f 7abd 8205 9cbc 0e9c b83c f77c 1bbd
00000330: f197 1abd 5c73 babc 87c9 f33c 7eb8 77bd
00000340: 1e89 53bd 983c 773d 5a31 6abd 64d8 5fbd
00000350: ca16 f0bc 4172 40bd 48c8 70bd 4f7f 373d
00000360: a600 1a3d 8238 9abc d837 7abd 6122 09bd
00000370: bcf6 fa3b 9ce7 823c 3989 643c d7ec 5cbb
00000380: 72b8 563d 0bf7 18bd 105b e23c 5a50 76bd
00000390: 262e 4dbd 8ca7 77bd b8b2 5fbc b07a 08bd
000003a0: 0fe3 7b3d 44aa 323d c082 1e3d 2955 fabc
000003b0: 6a00 1d3d 698e bd3b 8d7c 023d 8226 6c3d
000003c0: 6166 003d 6274 7bbd 6472 efbc 9ca0 553d
000003d0: ca87 9dbb 0e5c 283d 2202 42bd 1955 b13c
000003e0: 9c62 0dbd a159 ee3c a4d6 cbbc 0d4b 963c
000003f0: 0096 fbbb 346a a23c bde4 3d3d ffc1 97bc
-0.023943573 -0.002239753 -0.051793497 0.018996494 0.059170753 -0.01559819 -0.050119907 0.059135944
0.00087051233 -0.03086802 0.05184985 0.0038953456 -0.019594094 -0.011332266 -0.026927685 -0.05971321
-0.042339765 0.061927587 -0.00025639922 -0.02688078 0.02322072 0.0148769375 -0.013504824 0.059551906
0.04226895 0.05677798 -0.016349927 -0.014619413 0.044674933 -0.0048677525 -0.052855838 -0.060965125
0.044487305 0.004955905 0.05667992 0.047450252 0.049584284 -0.03878531 0.008902262 0.049994133
0.056032356 0.038313333 -0.029068835 -0.023590414 0.026705913 -0.0609286 0.030825576 0.027935024
0.04180721 0.017954139 0.05665031 -0.015054766 -0.048135106 0.03211692 0.03376912 0.011127141
0.010877157 -0.022506448 0.05273178 -0.03677 -0.031616822 -0.003931171 -0.05554914 -0.047520116
0.0021636374 0.061403815 0.046861373 0.04596643 -0.04652244 -0.018724546 0.047409452 0.0010966435
0.0062823645 0.057012714 -0.04741287 -0.052842923 0.05436368 0.06129109 -0.046894 -0.020065967
-0.005701095 0.02126731 0.06150518 -0.060055863 0.018945646 -0.0004926571 0.04354031 0.0598493
-0.028305827 0.037256524 0.012637271 0.0477273 -0.003433756 -0.051172517 0.03783344 0.031426914
-0.014317017 0.023839105 -0.053841136 0.030928697 -0.051030736 0.0008165166 0.042528644 0.061764043
0.023996968 -0.015338242 0.018757109 0.060518555 -0.03790508 -0.023624219 0.025626993 0.04703842
0.048228335 -0.011230033 -0.013896741 -0.03888441 0.02462727 0.03493536 -0.048814096 0.05352109
-0.005444376 0.023451593 0.019083526 -0.019368365 0.040170465 0.0051167095 -0.004214013 -0.009054226
0.037246097 -0.052653864 -0.05336137 0.050648868 -0.04883617 -0.03319393 -0.057609178 0.015025094
0.01569269 0.00058564864 0.050687738 0.060953267 -0.024143595 -0.03807435 -0.038347565 0.029462496
-0.03325148 0.010998839 -0.045071427 -0.034574263 0.02894022 0.031263094 -0.055339508 0.017447656
0.020720743 0.011187724 0.054904617 0.051534712 0.029329445 0.018997705 0.036451414 0.030281842
0.0060232487 -0.008630318 -0.033598576 -0.041796986 0.022062851 -0.04702658 0.0102088 0.022851493
0.041177977 -0.04053205 -0.011281703 -0.02230591 -0.035767287 0.03701274 0.033965744 0.015423462
0.01865175 -0.00787831 -0.014366306 -0.04690057 0.016865581 -0.019074365 -0.037898786 0.027715366
0.049149066 -0.056802038 -0.057292942 -0.006494007 0.057222344 0.002230916 -0.014630377 0.007856101
-0.0023585772 -0.055975486 -0.0459564 -0.025890715 -0.057743743 -0.011637494 -0.011733242 0.045894116
-0.061080404 -0.019045595 0.02253535 -0.037960973 -0.03774256 -0.022760086 0.029759182 -0.06047868
-0.051644437 0.06036052 -0.05717597 -0.054649726 -0.029307742 -0.04698396 -0.058784753 0.044799145
0.037598275 -0.018825773 -0.061088413 -0.033480052 0.0076588076 0.01597958 0.013948732 -0.0033710503
0.052421995 -0.037344974 0.027631313 -0.060135223 -0.05009284 -0.06046252 -0.01365345 -0.03332013
0.061495837 0.04361941 0.03869891 -0.030558186 0.038330473 0.005784799 0.031857062 0.05765391
0.031347636 -0.06139029 -0.02922935 0.052155122 -0.004807447 0.041103415 -0.047365315 0.021647023
-0.03451787 0.029095473 -0.024882622 0.018346334 -0.0076777935 0.019826032 0.04636072 -0.018525122

4.bias f4 [128]
00000000: 0ae4 26bd 1105 2abd e0b4 fdbc 8132 9e3c
00000010: 9ae4 7e3c 20db f7bb 6634 703d c00b 2c3c
00000020: ff65 1d3d e42d 45bd 933c 7cbd e6a3 7cba
00000030: 983d 9bbc 7036 d0bc 9385 b73c 19d8 563d
00000040: 80b9 153b 8cf5 31bd 52a1 6ebd d859 05bd
00000050: d206 8fbc 8872 e23c dd3a 213d ad76 b13b
00000060: 186d 87bc a88b 293c 55b5 643c 6849 62ba
00000070: ca8c 6bbd 98c7 e93c 00d6 b6bc 127e 263d
00000080: 3a7a bdbc b067 1e3d bd99 24bd 0d6e 4d3d
00000090: 1490 68bd a083 723b 01b3 a43b 089e 8fbb
000000a0: 2c52 9d3a 66ed 403d a19b 783c 35a1 233d
000000b0: 5d58 04bc f2e7 0c3d 9afa 79bd 729f 5dbd
000000c0: 137b 6b3d da6e 64bd d996 7c3d 346e c93c
000000d0: 6cec 2f3c c1c4 1a3d 14b7 d2bc 58ee 293d
000000e0: b217 e23b e68e 54bd 6c07 3cbd 1af9 25bd
000000f0: 3eb0 5a3c b03e 32bd e490 783d 1cb6 9dbc
00000100: 3f3d 393d 61ed 043d 157e 493d fc83 c8bc
00000110: c0c7 553b bf53 bebc 98da 47bd 8101 30bd
00000120: ee7e 60bd e6a1 293d 4a3b 5abd 217b 323d
00000130: 3d30 53bd c208 e03c 4edd 233c 4ed6 283d
00000140: 96bf af3c 32ef 67bd 6a06 f9bc bf14 f0bc
00000150: c43a 6bbd 46ab 4bbd e05d 803d dd84 763d
00000160: e5ee 053d 47f0 623d e227 adbc 500e c03b
00000170: d6b3 c83c dfd1 de3c bcdb 7eb9 ae12 b83c
00000180: af03 b8bb 74d1 a3bc 0cea 763d c730 733d
00000190: 74f9 febc 4048 00bb b891 2b3d c7a0 a13c
000001a0: a614 b6bc ed39 6ebc 1b0e 853c 1742 3c3d
000001b0: 2ec8 943c fc59 60bd 9db9 fc3c c4e6 413d
000001c0: e5ae 203d e48a 4c3c ee4c 763d e50d adbc
000001d0: 2608 7dbd 5163 9c3c 2e1b 63bd 8bac db3c
000001e0: 2c7c 73bd 643e 36bd b4f6 2b3d 7871 05bc
000001f0: a5fa ae3c 5c04 1539 9cf0 c0bc 7633 2b3d
-0.04074482 -0.041508738 -0.030970037 0.019311192 0.015557433 -0.0075639635 0.05864372 0.010500848
0.03842735 -0.048139468 -0.061581206 -0.000963746 -0.018950269 -0.025416583 0.02240256 0.05245218
0.0022846162 -0.043447062 -0.058259316 -0.032556385 -0.017459307 0.027642503 0.039362777 0.0054157586
-0.016531512 0.010348238 0.013959249 -0.0008632154 -0.057507314 0.028537557 -0.02231884 0.040647574
-0.023129571 0.038673103 -0.04018568 0.05015378 -0.05677803 0.0037004724 0.0050262217 -0.0043828525
0.0012002639 0.0471014 0.015173824 0.03994866 -0.008077708 0.034400888 -0.061030008 -0.054107137
0.05749042 -0.05576978 0.061667297 0.024588682 0.01073752 0.037785295 -0.025722064 0.041487068
0.0068997974 -0.05189409 -0.045905516 -0.040520765 0.0133476835 -0.043516815 0.060685053 -0.019251876
0.045224424 0.032452945 0.049192507 -0.024476998 0.003262028 -0.023233293 -0.04879245 -0.042970184
-0.05480855 0.041414164 -0.0532792 0.043574456 -0.051559675 0.027347926 0.010001494 0.041220002
0.02145366 -0.0566246 -0.030398566 -0.029306768 -0.05742909 -0.049723886 0.06267905 0.060185302
0.03269853 0.055404928 -0.021137182 0.005861081 0.024499815 0.027199684 -0.00024305185 0.022469845
-0.0056156735 -0.019997336 0.0602818 0.05937269 -0.031124808 -0.0019574314 0.041887015 0.019729985
-0.022226643 -0.014540178 0.016242078 0.045961466 0.01816186 -0.054773316 0.030850226 0.047339216
0.039229292 0.012484286 0.06013196 -0.02112479 -0.06177535 0.019090327 -0.055445842 0.026815673
-0.05944459 -0.044493094 0.04198332 -0.008144729 0.021359751 0.00014211371 -0.023552231 0.041797124

6.weight f4 [128, 128]
00000000: 40b6 103d 8b51 af3d f69d 31bd 534a b3bd
00000010: 3244 acbd 1a34 72bd 80e5 043c 9038 85bb
00000020: c070 ddbc 2a8f 223d 1220 16bd c421 02bd
00000030: d481 8abd 39a9 2ebd 9a00 613d 807c 9aba
00000040: 52b1 f6bc acf4 c83c 4a6f a7bd a0a8 543c
00000050: 5c18 94bd fc9f fd3c 7af3 3f3d 442a 803c
00000060: 6bac b0bd fbf4 95bd a24e 663d e05f 053c
00000070: ef88 b4bd 30f6 653c f6ae 29bd f58a a43d
00000080: f230 473d 36f4 3c3d 98d5 6dbd 20fe f2bc
00000090: 6831 4dbc 31de b33d a076 bebb f2e1 6e3d
000000a0: 234d 60bd d710 963d 9e06 70bd b2bc 633d
000000b0: a4e8 ea3c 6ad5 8ebd 3d81 9b3d cdda 7bbd
000000c0: 8f44 aa3d 3dff 94bd f8f8 b63c 4113 25bd
000000d0: 15b5 68bd 530e a3bd 897b 13bd 1166 8e3d
000000e0: a8cd 14bc 9240 71bd 8848 9fbc 6fec b4bd
000000f0: ab6d 933d 98c5 903c 9d80 a33d 9024 1bbc
00000100: 86e6 86bd e875 25bd 8831 b3bd dca3 c83c
00000110: c624 683d 19a5 a53d 8e0a 47bd c8da 01bd
00000120: a09d da3b 50b5 9fbd 1031 1bbc 58c2 44bc
00000130: 6948 a9bd fe27 a6bd a338 3bbd ebfc a2bd
00000140: 20a6 2e3c b0b2 f13b 3542 b33d 29c2 2cbd
00000150: 0020 5dbc 6eef fbbc 01fe 68bd 45f6 aebd
00000160: 0051 483b bdd7 9c3d b73d 84bd 8534 16bd
00000170: 4f57 903d 72c5 e6bc ec30 c2bc da33 093d
00000180: a866 a5bd 21d6 8c3d 0e9b 4f3d 6825 803c
00000190: f6f8 173d e771 43bd a087 033d 966d 95bd
000001a0: b89c d03c dcc5 923c 044e e03c 6028 813c
000001b0: 11e6 8c3d 5eca 81bd 6e21 79bd 285d 9dbc
000001c0: 4f76 abbd f6f8 96bd 6224 273d 4021 b6bc
000001d0: 2285 0dbd 68f6 133d 990e a8bd a044 293b
000001e0: 7390 9f3d 5e39 aabd 1019 bc3b 3a59 4c3d
000001f0: 1448 77bd 6840 4d3c e157 0dbd e3dd 993d
00000200: 11fe 7abd 3cdd 8d3d c379 25bd 3056 ad3d
00000210: 3e26 37bd a64e 3f3d d5bc 23bd 17cb ab3d
00000220: 33d1 b1bd f480 a2bc aa9c 8a3d 8015 123d
00000230: 60c8 bebc 13cc 0a3d c8c3 80bd 232a 04bd
00000240: 6aae 3f3d b6bc a4bd abfd a83d b947 8a3c
00000250: c8db 41bd 8aee a73d a2ac 25bd f6ed 733c
00000260: 129d 433d 3557 69bd f51b 943c 719c debc
00000270: fe05 163d 994a 843d bb56 56bd 3214 803d
00000280: baf3 363c 9ccc 093d 38f1 033b 8209 d0bb
00000290: 7ef5 dbbc e321 92bd 55ac 503d 49b8 26bd
000002a0: 7848 42bd ee02 8b3d 140b 423d e2a8 373d
000002b0: 500e d83c aad5 71bd 7e50 483d c54f 973d
000002c0: 9ae9 153c f040 0e3c c7bc 85bd 5f22 ae3d
000002d0: 533e 0b3d 727a 6bbc 6f1f 7e3c a393 30bc
000002e0: 19b6 7dbd 27e8 a0bd 9697 81bd 8db6 593c
000002f0: 5a5f 85bd eae1 afbc 7419 413d 48d9 fdbc
00000300: a7f2 85bd d165 58bd d30c a93d e1bd 1e3d
00000310: 1055 c63b c1c5 83bd f69c 4a3d 73f1 b4bd
00000320: 5361 993d a4cc acbd 1544 a9bd 5253 e23c
00000330: ca71 4f3d 851b a43b 4512 82bc b836 95bd
00000340: e3e1 c8bc 87bb 4c3d 6489 9e3d 54eb a4bd
00000350: c468 a93d bcbc 5ebd d22b 183d f5da 7d3d
00000360: 741b 04bd 8b96 b73c d1b2 b4bd a011 54bc
00000370: aa59 b0ba d422 5cbc e164 9bbd 8b65 03bd
00000380: 8fb2 983d e2b5 7e3d f528 93bd 99d5 3ebc
00000390: b4f1 0d3d 0a42 e9bc a35a b43d 4a84 46bd
000003a0: 6976 823d 4be7 6bbb c5c7 1c3d 8889 e13c
000003b0: 5c66 72bc 4910 11bd 4473 ef3c 0f9c a03d
000003c0: c5a2 aabc 2b1b b1bd da06 85bd fdbe 493d
000003d0: f433 f73c 2dd1 063d 9e18 85bd 73dd 2fbd
000003e0: ca19 8fbd 6992 a53d 570e afbd c1e3 02bd
000003f0: 48e6 29bd 7603 9e3d 22cb b0bd 97fd d8bc
0.035330057 0.08560475 -0.043363534 -0.087544106 -0.08411445 -0.05913172 0.008111358 -0.0040655807
-0.027031302 0.039687313 -0.03665168 -0.031770483 -0.06763044 -0.042641852 0.054932214 -0.0011786371
-0.03011385 0.024530731 -0.081755236 0.012979656 -0.07231209 0.030960076 0.046863057 0.015645154
-0.08626636 -0.07322117 0.056227334 0.008140534 -0.088151805 0.014035746 -0.04142662 0.080343165
0.048630662 0.046131335 -0.058065027 -0.029662192 -0.012523986 0.08782614 -0.005812481 0.058320947
-0.054761063 0.07327431 -0.05860006 0.055599876 0.028675385 -0.06974299 0.075930096 -0.06148796
0.08313858 -0.07275245 0.022335514 -0.040301565 -0.05681332 -0.079617165 -0.036006484 0.06953061
-0.009082235 -0.05889947 -0.019443765 -0.08834159 0.07198652 0.017672345 0.079835154 -0.009469166
-0.065869376 -0.040395647 -0.08749682 0.024492197 0.056675695 0.080881305 -0.04859405 -0.031702787
0.0066716224 -0.077982545 -0.009472147 -0.012009226 -0.08265764 -0.08113097 -0.04570831 -0.079583965
0.0106597245 0.0073760375 0.08752862 -0.042177353 -0.013496399 -0.030753817 -0.056882862 -0.08543066
0.0030565858 0.07658336 -0.06457084 -0.03667118 0.07047903 -0.028170321 -0.023704968 0.033496715
-0.08076221 0.06876779 0.05068498 0.015642837 0.037102662 -0.047716048 0.032111764 -0.072962925
0.025465354 0.017916612 0.02738095 0.015766323 0.06879819 -0.063374266 -0.060822897 -0.01920946
-0.08372175 -0.07371704 0.04080618 -0.022232652 -0.034550793 0.036123663 -0.08205909 0.0025828257
0.077912234 -0.08311723 0.0057402924 0.04988978 -0.060371473 0.012527563 -0.034507636 0.07513025
-0.061277453 0.06926963 -0.040399324 0.084637046 -0.044714205 0.046705864 -0.039975006 0.08388346
-0.0868248 -0.01983688 0.067681625 0.035665035 -0.023288906 0.033886027 -0.06287342 -0.032266747
0.046797194 -0.08043806 0.08251508 0.016879903 -0.04732874 0.081997946 -0.04044784 0.014888277
0.047757216 -0.056967933 0.018079737 -0.027174206 0.03662681 0.06459541 -0.052328806 0.06253852
0.011166507 0.033642396 0.0020132791 -0.0063487897 -0.026850458 -0.0713537 0.0509456 -0.04070309
-0.047432393 0.06787668 0.047373846 0.044838794 0.026374012 -0.059041657 0.04890489 0.07388262
0.009149933 0.0086824745 -0.06530147 0.085026495 0.033994984 -0.014372455 0.015510424 -0.010777387
-0.06194124 -0.078567795 -0.06327741 0.013288152 -0.065123275 -0.021470029 0.047143415 -0.030987397
-0.06540423 -0.052831475 0.08254399 0.0387553 0.0060526207 -0.06434203 0.049466096 -0.08835115
0.07489266 -0.084374696 -0.08264939 0.02762762 0.050645627 0.0050081634 -0.015877852 -0.072858274
-0.024521774 0.049983528 0.07741049 -0.08052698 0.082719356 -0.05437921 0.037151165 0.06197639
-0.032252744 0.022410652 -0.08823169 -0.012943655 -0.0013454456 -0.013436038 -0.075876005 -0.03207926
0.07455932 0.062185176 -0.07185546 -0.011647605 0.034654334 -0.028473873 0.0880635 -0.048466004
0.06370241 -0.0035996016 0.038276453 0.0275314 -0.014794912 -0.03541592 0.029229768 0.07842266
-0.020829568 -0.0864776 -0.064954475 0.049254406 0.03017614 0.03291433 -0.06498836 -0.0429358
-0.06987341 0.08084566 -0.08547657 -0.031955484 -0.04147938 0.07715504 -0.086324945 -0.026488109

6.bias f4 [128]
00000000: 5af6 f2bc bfcc e93c 7d94 9d3d 6daf 333d
00000010: 8785 88bd 496c a0bd feb1 d9bc 3b8d f0bb
00000020: ab2e ae3d 9254 a33d bb00 45bd a6c5 de3c
00000030: bc7d 843d 5825 823c f851 0d3d aece 6c3d
00000040: 6a4a 983d e632 003d ce3f f2bc b2b1 2cbd
00000050: c83e 5c3c 3e1e 603d d165 123d 5bdf 1fbd
00000060: 9b25 0dbd e609 ad3d ccca 4ebd 2196 2dbd
00000070: ea44 b2bd f126 123d 60a1 45bb 47c3 1dbd
00000080: 0d27 32bd 7e2c 343d 7296 b23c 3a2f 943d
00000090: 5807 af3d a21e 8fbd 07a1 67bc 40a3 1cbd
000000a0: d025 14bc adb2 42bd a00e 3cbc 18fc d4bc
000000b0: 7087 b4bd 6794 563d 6896 56bc 88fa 793c
000000c0: 1621 403c 2b9f bb3c c812 c4bc 706e 76bc
000000d0: b8ff 9c3d 98d0 013c 7de2 88bd 64ea 12bd
000000e0: 14f3 953d fa47 efbb 7a4c 9fbc 7743 50bd
000000f0: 9104 953b cdb3 ab3c 4b1b a7bd 68ae b93b
00000100: 8905 9ebd 5e7f a8bd f6c6 7f3c 2293 913c
00000110: 1f81 12bd a0ef 7cbd b1d8 863d 3cf6 6ebd
00000120: 2b99 04bd 5d3c 9b3d b56b a1bc d73f 86bd
00000130: fa63 883d 37d9 aabd bd57 50bd 6a78 bbbc
00000140: f4c6 7b3b 8428 8c3d 06b2 803d efdf a5bd
00000150: def0 b1bd c7d9 37bd 842b d73c b104 373d
00000160: 88cd a73d 0392 d23b adef ff3c bf09 853d
00000170: a591 cf3c 003a 6dbb a00d 843d 5fcd cbbc
00000180: ade6 213d 009c 36bd f08e 7abd 19fb 98bd
00000190: 3101 85bd 44de 9abc 24e4 883d 09ea aa3d
000001a0: b6a4 aa3d ef50 a03d 2b2b a6bd 3358 99bd
000001b0: 834c 5dbd a3ff ab3d 7390 823c 1e09 fd3c
000001c0: 17a1 8a3d 3e9c 50bb dbaa 863d 4f13 b73c
000001d0: 7172 753c ffc5 883d 0031 b7bb bf86 0f3d
000001e0: 3118 51bd f609 0b3d da2a a1bd 60ca 87bc
000001f0: e82a ee3c 84b1 b03d 7830 163d 9c0f 16bc
-0.029658485 0.028540013 0.076943375 0.04386847 -0.06666093 -0.07833154 -0.026574131 -0.0073410547
0.08504995 0.07975115 -0.0480964 0.027193855 0.064692944 0.015886948 0.034502 0.057814293
0.07436068 0.03129854 -0.02957144 -0.04216165 0.013442703 0.05471634 0.03574163 -0.039031368
-0.03445969 0.084491536 -0.05048637 -0.042379502 -0.087045506 0.03568167 -0.0030156001 -0.03851631
-0.043494273 0.043987744 0.021800254 0.0723557 0.085463226 -0.069882646 -0.014137513 -0.038241625
-0.009042218 -0.04753368 -0.011478096 -0.025999114 -0.08814895 0.05238762 -0.013097383 0.015257485
0.011726638 0.022903046 -0.023934737 -0.015040979 0.07665962 0.007923268 -0.06683824 -0.035868064
0.07321754 -0.0073022814 -0.019445647 -0.05084559 0.0045476635 0.02095976 -0.081595026 0.005666543
-0.077158995 -0.08227418 0.015611401 0.017770354 -0.03576767 -0.06175196 0.06584299 -0.058340296
-0.032372635 0.07579873 -0.019704679 -0.06555145 0.06659694 -0.08342212 -0.050864924 -0.022884566
0.0038418146 0.06843665 0.06283955 -0.080993526 -0.0868852 -0.044885423 0.026265867 0.04468221
0.08193499 0.0064260974 0.031242216 0.064959995 0.025338003 -0.00361979 0.06447911 -0.024878202
0.03952663 -0.044582367 -0.061171472 -0.07469768 -0.06494368 -0.018904813 0.06684139 0.0834542
0.08332197 0.07827937 -0.081137024 -0.07487526 -0.054028045 0.08398368 0.01593802 0.030888136
0.06769007 -0.003183141 0.06575557 0.022348074 0.014980898 0.0667839 -0.005590558 0.035040613
-0.05104846 0.033945046 -0.078695014 -0.016575992 0.029073194 0.086276084 0.036667317 -0.009158995
