models_5_250/checkpoint166.pth.tar (torch_old, 502895 bytes, 10 tensors)

0.weight f4 [256, 26]
-0.008915407 -0.16244681 0.02519617 0.04574929 -0.084441364 0.108686894 0.060495477 0.080682054
0.21134992 -0.092241585 -0.06126095 0.073991284 -0.11050093 0.21788736 0.18791373 -0.09395723
0.004182149 0.038066346 0.12774342 0.09890508 0.059555184 -0.050722267 0.107411996 -0.075121425
-0.08272978 0.16244304 0.23142694 -0.07182422 0.17683654 0.19133626 -0.11831409 0.07066246
-0.11320576 -0.06938469 0.14397123 0.22117163 -0.024783364 0.12306814 0.15229344 -0.0012902375
-0.19175261 0.14767651 0.03836669 -0.04409249 -0.026622545 0.02335611 -0.1388437 0.14102615
-0.09035253 -0.052799318 -0.1608111 0.09821183 -0.1955965 -0.19514012 0.089906946 -0.15372397
-0.007235204 -0.100757785 -0.029223105 0.062062215 -0.041133016 0.16244519 0.12575015 0.009035462
-0.0694146 -0.0108440695 0.1949558 0.22483948 0.14019512 0.19447404 0.13906123 0.09644693
0.17512448 0.14425948 0.1450439 0.09093178 -0.04564261 -0.14601806 0.007409461 -0.0380043
-0.2135793 0.1607767 0.19209445 -0.007588177 0.17196402 -0.12309153 -0.11379448 0.087496765
0.15850036 0.16767174 -0.15144195 -0.10219988 0.05643381 0.119259134 -0.011058168 0.1293447
-0.1803963 0.19296823 -0.07347266 -0.08259035 0.08526909 -0.11570665 0.04112084 0.18183728
0.053957026 -0.18823266 -0.03882619 -0.044561014 -0.08685811 0.17349958 0.10990324 -0.032751355
0.078931406 0.01193813 -0.17649408 0.06360496 -0.048618883 0.13896546 -0.09224055 -0.029144082
0.1927536 -0.029210038 -0.11625712 0.180991 0.15047117 0.034973904 0.1291524 0.061673183
0.01017645 -0.02201316 -0.077633895 -0.13387166 0.048359152 0.0002367213 0.19310278 0.0029399295
0.15520792 0.15870716 -0.1560737 0.17009121 0.0586163 0.18666768 0.17009637 0.08772139
-0.058480196 -0.18318136 0.17943928 0.060596567 -0.15682141 0.2006992 -0.086089246 -0.10084044
0.028092857 -0.14322767 0.16623507 -0.10095311 -0.020620445 0.008031975 0.089092925 0.18824466
-0.10158203 -0.037799325 0.046189554 0.16705985 0.13371345 -0.17459734 0.14201762 0.18225372
-0.013716761 0.068621 -0.07572511 0.109593235 -0.23260455 0.22448544 -0.021891125 0.052242916
0.03786582 -0.01380275 0.18241733 0.10432944 0.066635534 0.10145734 0.014606918 -0.06906554
0.14853203 0.11064873 -0.08249916 0.18322614 0.079048365 -0.09913772 0.17791355 0.09882797
0.12342416 0.20781213 -0.008443844 0.16132805 -0.13795185 0.02969288 -0.08772398 -0.21676716
-0.20727536 0.2026871 0.2108825 0.09888669 0.18040347 -0.042156335 -0.047730274 0.055163678
0.19205375 0.03186912 -0.07019163 -0.030941611 0.22091362 -0.1293843 -0.08964395 -0.06069248
-0.07718196 0.06657915 -0.052823 0.13295846 -0.08878777 0.029686507 0.24367547 -0.0055177696
0.22655652 -0.023978768 0.17825942 0.098864 0.15007947 0.15143202 -0.07075882 0.1940207
0.03362739 -0.15926161 0.17729403 0.22678748 -0.025837854 0.093857974 -0.0425733 0.0062475572
0.11473683 0.0032788794 -0.12943535 -0.14579943 0.12234062 0.065187216 -0.16732219 0.103242084
-0.04455185 0.22877261 0.15604362 -0.108019836 0.05779077 -0.01721774 -0.10592683 0.17670195
00000000: ed11 12bc 7558 26be 3368 ce3c 9c63 3b3d
00000010: 98ef acbd 3c97 de3d 1bca 773d a23c a53d
00000020: 1d6c 583e 28e9 bcbd c3ec 7abd be88 973d
00000030: 504e e2bd dd1d 5f3e 756c 403e a66c c0bd
00000040: 690a 893b 75eb 1b3d 2ccf 023e bf8e ca3d
00000050: 23f0 733d 27c2 4fbd d2fa db3d 43d9 99bd
00000060: 3b6e a9bd 7857 263e 2ffb 6c3e 9418 93bd
00000070: a314 353e a7ed 433e a84e f2bd 7bb7 903d
00000080: 6cd8 e7bd 8f19 8ebd 326d 133e d17a 623e
00000090: 7b06 cbbc 260b fc3d d0f2 1b3e 301d a9ba
000000a0: cc5a 44be 8338 173e 6426 1d3d 549a 34bd
000000b0: 8617 dabc 5055 bf3c 0b2d 0ebe 2969 103e
000000c0: bf0a b9bd 1944 58bd aaab 24be 4923 c93d
000000d0: 734a 48be d0d2 47be 2221 b83d d169 1dbe
000000e0: 4a15 edbb 195a cebd 4b65 efbc f334 7e3d
000000f0: 187b 28bd 0858 263e a6c4 003e 7909 143c
00000100: 3e29 8ebd 53ab 31bc 7ea2 473e 523c 663e
00000110: 4f8f 0f3e 3424 473e 1166 0e3e f885 c53d
00000120: d553 333e c2b8 133e 6386 143e 713a ba3d
00000130: bff3 3abd c285 15be 10cb f23b 66aa 1bbd
00000140: 88b4 5abe a6a2 243e 68b4 443e 3ea6 f8bb
00000150: 5617 303e 6917 fcbd 150d e9bd 8131 b33d
00000160: eb4d 223e 24b2 2b3e 9913 1bbe 2c4e d1bd
00000170: 2427 673d 223e f43d 512d 35bc f072 043e
00000180: cfb9 38be 7799 453e d578 96bd 2125 a9bd
00000190: 90a1 ae3d 9cf7 ecbd 536e 283d 8d33 3a3e
000001a0: 0b02 5d3d 10c0 40be 3608 1fbd 9c85 36bd
000001b0: aae2 b1bd e0a9 313e f314 e13d 4926 06bd
000001c0: caa6 a13d 2598 433c ddba 34be 5143 823d
000001d0: 9824 47bd f64c 0e3e 9de8 bcbd 92bf eebc
000001e0: 3361 453e e449 efbc 3718 eebd b455 393e
000001f0: 1d15 1a3e cc40 0f3d 8740 043e 059d 7c3d
00000200: 20bb 263c f154 b4bc 85fe 9ebd a715 09be
00000210: 3f14 463d 6438 7839 bcbc 453e d5ab 403b
00000220: d3ee 1e3e 2184 223e c9d1 1fbe 642c 2e3e
00000230: a517 703d d025 3f3e be2d 2e3e 46a7 b33d
00000240: ee88 6fbd e593 3bbe eebe 373e 1b34 783d
00000250: cb95 20be 1784 4d3e 8f4f b0bd 6f85 cebd
00000260: fe22 e63c 46aa 12be 8739 2a3e 81c0 cebd
00000270: 35ec a8bc 8b98 033c 5a76 b63d 35c3 403e
00000280: 3d0a d0bd 77d3 1abd 4231 3d3d bd11 2b3e
00000290: 2eec 083e a5c9 32be 116d 113e b8a0 3a3e
000002a0: 44bc 60bc 2b89 8c3d c415 9bbd 6b72 e03d
000002b0: e32f 6ebe 83df 653e 0455 b3bc abfc 553d
000002c0: 3119 1b3d ee24 62bc 9ccb 3a3e acaa d53d
000002d0: 3678 883d dec8 cf3d db51 6f3c 3c72 8dbd
000002e0: c818 183e cd9b e23d 52f5 a8bd a29f 3b3e
000002f0: 1ce4 a13d b808 cbbd f82e 363e 5266 ca3d
00000300: cec5 fc3d b4cc 543e 0c58 0abc 2e33 253e
00000310: 4043 0dbe 7c3e f33c a1a8 b3bd 36f8 5dbe
00000320: fe3f 54be 358d 4f3e 95f1 573e 1b85 ca3d
00000330: b0bb 383e 1fac 2cbd d280 43bd 4ff3 613d
00000340: bda9 443e 3289 023d a1c0 8fbd 4379 fdbc
00000350: 2e37 623e 517d 04be 3f97 b7bd ae98 78bd
00000360: 9311 9ebd a65a 883d ee5c 58bd 4326 083e
00000370: 5dd6 b5bd 1e31 f33c 1086 793e 68ce b4bb
00000380: 6ffe 673e 1f6f c4bc a389 363e 3579 ca3d
00000390: 6fae 193e ff10 1b3e 00ea 90bd 5dad 463e
000003a0: e0bc 093d 7a15 23be 918c 353e fa3a 683e
000003b0: e8a9 d3bc 9c38 c03d 5761 2ebd 4fb8 cc3b
000003c0: 25fb ea3d 78e2 563b b38a 04be 724c 15be
000003d0: b88d fa3d e080 853d 8256 2bbe 9670 d33d
000003e0: 007c 36bd 5e43 6a3e e6c9 1f3e 8139 ddbd
000003f0: 04b6 6c3d 380c 8dbc 2af0 d8bd 5bf1 343e

0.bias f4 [256]
0.117308766 0.092977874 -0.15706173 -0.07376676 0.042545903 0.05708166 -0.021182677 -0.005201216
0.07041255 0.050186727 0.099519506 -0.14549053 0.13697632 -0.13448465 -0.017160181 0.057964575
-0.059476197 0.04327667 -0.020984182 -0.17484452 0.11100236 -0.12350927 0.083390504 0.19030134
-0.019769587 0.0667271 -0.0085995 0.14339386 -0.030632518 -0.110509686 0.1218961 0.14606588
0.07267391 0.12620322 0.04669921 -0.024346238 0.24655046 0.17923965 0.110102706 0.1104125
0.09996748 0.09503308 -0.024219213 -0.14819098 -0.04610957 0.11849957 0.21749698 0.050609276
-0.058074746 -0.028296554 -0.0037616375 0.14853121 0.18720466 -0.12839058 0.066688724 0.20946138
-0.001473453 0.061326124 0.1634847 0.057715002 0.13689311 0.06422416 0.18770106 0.20505498
-0.03106504 -0.08911135 0.010474973 -0.015377567 0.053615224 0.116605565 0.03808832 -0.13518189
0.0861045 0.105677016 0.04097283 0.1295495 0.18094489 -0.061157983 0.18959963 0.019907095
-0.110479936 0.024217885 -0.017317727 0.12211569 0.09243877 -0.18799996 0.038159966 0.16338837
-0.052495185 -0.1416987 0.13460937 0.03151626 0.03006201 -0.17588966 0.089757554 0.13113217
0.20836297 0.15949385 0.18630813 0.10993401 -0.17204398 0.024989607 -0.10861794 0.17284904
-0.17330389 0.06824383 0.20108248 0.1563425 0.1802979 -0.16221261 -0.03721597 -0.17200306
-0.068588614 0.19534598 0.025621705 -0.10973624 -0.10472701 -0.17076658 0.01596324 -0.1037829
-0.061529245 0.08667333 -0.10157883 0.07873715 0.20713447 -0.07711272 0.10416924 0.19258001
0.0960008 -0.07502977 -0.137748 0.031674657 0.07135151 -0.12181939 0.1282144 0.15207927
-0.2116549 0.14285749 0.051790327 0.03851197 -0.09687289 -0.011753923 -0.015744 0.06295926
-0.066829756 -0.14035182 0.15590078 -0.17660496 0.044481345 0.101618916 -0.12132751 0.071792535
0.015839353 0.03034956 0.042496245 0.15160058 -0.11985699 -0.07669267 -0.14989948 0.09391236
-0.113703094 -0.054052707 -0.11624071 -0.07878964 0.18889225 -0.052085053 0.16478133 0.07315868
-0.18620946 0.12585418 -0.14846377 -0.0596249 -0.05260477 -0.09650262 0.056751676 -0.023601707
-0.03742999 0.19748548 0.23680615 0.01670126 -0.07832167 0.10202432 0.015007609 -0.019154318
-0.0851166 -0.038488604 0.0172402 -0.10713583 0.15754534 0.0007782349 -0.012823844 -0.06877727
0.092855886 0.16393735 0.1870692 -0.07605425 -0.12730601 0.12441051 0.06565126 0.20644994
0.13960353 -0.04739779 0.093852505 0.06541263 0.005083978 -0.07227401 -0.020315873 -0.1364248
0.08309798 -0.013126542 0.015425803 -0.0060646944 -0.16211829 -0.07172713 -0.12992916 -0.12345597
0.14329727 -0.12587616 0.07471269 -0.2133741 0.08120497 -0.08388216 -0.13333523 0.08470687
0.018718492 -0.04487194 -0.13119608 -0.068808556 0.11521222 0.06021919 -0.09060448 0.031531595
-0.12514438 -0.0005896314 -0.10073683 -0.0058344766 0.2765906 0.114859566 -0.149189 -0.066589065
-0.11484379 0.092397474 0.013131776 -0.06321984 0.15658586 0.0856546 0.007641349 0.16540618
0.058896568 0.1637463 0.21558587 0.07073759 -0.03535899 0.07846139 -0.15046279 -0.06073397
00000000: 943f f03d 2f6b be3d cad4 20be 0713 97bd
00000010: 9d44 2e3d 75ce 693d 4b87 adbc f66e aabb
00000020: 7434 903d 9990 4d3d e2d0 cb3d 78fb 14be
00000030: 8543 0c3e 58b6 09be 8293 8cbc 436c 6d3d
00000040: 509d 73bd e142 313d 05e7 abbc 710a 33be
00000050: 3555 e33d 6ef2 fcbd a4c8 aa3d 5bde 423e
00000060: d4f3 a1bc 38a8 883d ebe4 0cbc d7d5 123e
00000070: 0cf1 fabc e752 e2bd aaa4 f93d 4b92 153e
00000080: 0fd6 943d 6b3b 013e ac47 3f3d c371 c7bc
00000090: b977 7c3e 998a 373e 877d e13d f31f e23d
000000a0: c0bb cc3d b4a0 c23d 5f67 c6bc 60bf 17be
000000b0: 63dd 3cbd e7af f23d 87b7 5e3e ac4b 4f3d
000000c0: c9df 6dbd 2dce e7bc ce85 76bb 9118 183e
000000d0: 94b2 3f3e d278 03be 1994 883d 0b7d 563e
000000e0: e120 c1ba 1a31 7b3d 8868 273e 9166 6c3d
000000f0: b52d 0c3e f587 833d b534 403e eff9 513e
00000100: 1c7c febc 0380 b6bd 399f 2b3c 31f2 7bbc
00000110: a39b 5b3d e6ce ee3d 8002 1c3d 1f6d 0abe
00000120: 8e57 b03d 316d d83d 20d3 273d a0a8 043e
00000130: 9e49 393e cb80 7abd 6826 423e 3414 a33c
00000140: 4e43 e2bd 9664 c63c e8dd 8dbc ca17 fa3d
00000150: 8a50 bd3d 1083 40be a04d 1c3d 484f 273e
00000160: 3105 57bd 7719 11be 0ad7 093e 3217 013d
00000170: 9b44 f63c 6b1c 34be cfd2 b73d 8347 063e
00000180: 1a5d 553e 5b52 233e 8fc7 3e3e 1525 e13d
00000190: 4c2c 30be 01b7 cc3c 1573 debd 57ff 303e
000001a0: 9376 31be 6cc3 8b3d 91e8 4d3e 4018 203e
000001b0: 03a0 383e 101b 26be c66f 18bd 9221 30be
000001c0: 3078 8cbd c708 483e 9ce4 d13c 65bd e0bd
000001d0: 1d7b d6bd 6fdd 2ebe 57c5 823c 218c d4bd
000001e0: 1706 7cbd c981 b13d 9008 d0bd f140 a13d
000001f0: 0f1b 543e 46ed 9dbd af56 d53d b233 453e
00000200: 119c c43d 35a9 99bd d00d 0dbe 49bd 013d
00000210: be20 923d 727c f9bd a34a 033e abba 1b3e
00000220: 10bc 58be 3c49 123e 1822 543d babe 1d3d
00000230: 4b65 c6bd 8793 40bc 90f9 80bc c9f0 803d
00000240: 0ade 88bd 63b8 0fbe 74a4 1f3e eed7 34be
00000250: 1232 363d 941d d03d 8f7a f8bd f707 933d
00000260: 88c1 813c a49f f83c 8b10 2e3d 2f3d 1b3e
00000270: 9577 f5bd 0c11 9dbd 407f 19be 2055 c03d
00000280: 2bdd e8bd 5f66 5dbd 9c0f eebd 765c a1bd
00000290: f86c 413e 2357 55bd 70bc 283e 38d4 953d
000002a0: b1ad 3ebe ebdf 003e e306 18be 3d39 74bd
000002b0: 1978 57bd 2aa3 c5bd 7274 683d 5e58 c1bc
000002c0: 3050 19bd a239 4a3e 507d 723e 15d1 883c
000002d0: 1d67 a0bd 20f2 d03d 79e2 753c 84e9 9cbc
000002e0: 9d51 aebd 3aa6 1dbd 523b 8d3c 086a dbbd
000002f0: 9153 213e 7602 4c3a 1a1b 52bc 19db 8cbd
00000300: 3a2b be3d 31df 273e 128f 3f3e 55c2 9bbd
00000310: 825c 02be f0ca fe3d 2b74 863d 9d67 533e
00000320: 3af4 0e3e 2f24 42bd be35 c03d 0ff7 853d
00000330: 8097 a63b 6504 94bd 796d a6bc f1b2 0bbe
00000340: 462f aa3d b510 57bc 82bc 7c3c 58ba c6bb
00000350: 5602 26be ace5 92bd 260c 05be 7cd6 fcbd
00000360: 85bc 123e aee5 00be f802 993d bd7e 5abe
00000370: cb4e a63d 69ca abbd 0889 08be cc7a ad3d
00000380: 8657 993c a4cb 37bd 4458 06be 80eb 8cbd
00000390: 62f4 eb3d 66a8 763d d78e b9bd 4627 013d
000003a0: d925 00be 7e91 1aba 1c4f cebd 232f bfbb
000003b0: 489d 8d3e 7e3b eb3d 00c5 18be d95f 88bd
000003c0: 3933 ebbd e33a bd3d a926 573c 6779 81bd
000003d0: 0b58 203e ae6b af3d 4864 fa3b 3d60 293e
000003e0: 873d 713d 1cad 273e 8bc2 5c3e dfde 903d
000003f0: 97d4 10bd 5eb0 a03d eb12 1abe 2fc4 78bd

2.weight f4 [256, 256]
-0.027046612 -0.05884627 0.052234422 -0.043954853 0.012953651 0.005394271 0.004583516 0.027533432
0.022891385 0.047883466 -0.07238889 -0.05801162 -0.04362198 0.028712954 -0.049715307 0.051970523
-0.01066972 0.0077675623 -0.015373211 -0.0473005 -0.04616332 -0.032370407 0.04906742 -0.0034470973
0.117266074 0.035769954 -0.07491872 0.028342338 -0.0739751 0.01597498 0.028912798 0.033173766
0.11097231 -0.047804687 -0.06324771 0.028667577 -0.011717899 0.025899258 -0.025675913 -0.04043398
0.031592328 -0.005831681 -0.0043047406 -0.0639759 -0.031059878 0.03748528 -0.08625432 0.016366247
-0.021949505 0.026212864 -0.038683236 0.045659587 -0.020652428 0.0003713771 0.03668702 0.025969135
0.06774466 0.01117253 0.0009649817 -0.010823146 -0.01868765 0.04812024 0.006899297 0.026022812
0.015784057 0.037946727 0.05141829 -0.04625418 0.06534734 -0.029679239 0.019414105 0.054112125
-0.06726968 -0.01986108 0.060729608 0.06623413 -0.020290157 -0.024822684 0.030623948 -0.025142977
0.07120375 -0.09741838 0.06602853 0.0070115444 0.06499996 0.06607472 0.016243892 -0.042686697
-0.03065484 0.009499548 -0.046261013 -0.027186072 -0.015999457 -0.056780085 0.035219043 0.021090114
-0.018541997 0.016246988 0.011273237 0.002485562 -0.002509395 0.05339717 0.018672535 0.026356269
0.02182916 0.092533074 0.074136175 -0.042740893 -0.0075902482 -0.010703482 0.086491495 0.037341464
-0.0063830693 0.000105982734 0.062887825 -0.063653745 0.0853833 0.022848785 -0.014068014 0.0032069643
0.020623995 0.037233528 0.01950512 -0.06033524 0.048547138 0.007045203 -0.00896576 -0.069265164
0.04274287 0.10116049 -0.018598856 0.036077134 -0.019156707 0.09008221 0.027546708 0.0316685
-0.07297068 -0.014020063 -0.056752563 -0.03497426 0.005819524 0.018333346 -0.041189093 0.00941338
0.056281682 0.059837796 -0.016961817 -0.008148202 0.024769213 -0.038331896 0.06878593 0.021388302
0.07360457 0.038270112 0.0031995848 -0.020787723 0.031685866 0.108794585 0.015613694 0.06423557
-0.03384936 0.019105215 0.03432312 -0.07941338 -0.06985645 -0.027216047 0.00072329445 0.06858475
0.019118099 0.019139403 -0.03100571 0.044592932 -0.010074073 0.036477886 0.029017845 -0.04400465
-0.0335079 0.026661491 -0.012526532 -0.04189206 0.0029278705 -0.076237254 0.031990726 0.079122335
0.01143428 -0.021796517 0.063481 0.020656496 0.027277159 0.053241502 -0.024207268 -0.0036039979
-0.058102023 0.019941462 -0.053325817 -0.081610456 0.022109428 0.01113798 0.08457718 0.023902616
0.0078781955 -0.09867155 -0.008160307 -0.029106412 0.053755544 -0.061053924 -0.03190158 0.055096343
0.021307012 -0.10193356 0.004004079 -0.0507044 -0.045626856 -0.008527086 -0.0800333 -0.034081645
-0.034234054 -0.0015435669 0.011433444 -0.03516327 -0.014111001 -0.08855858 0.037471663 -0.025327962
0.0807387 -0.06828982 0.03005805 -0.014658561 0.00889218 -0.047530152 -0.033277567 -0.049709715
0.017196735 -0.017616801 -0.060665116 0.06219478 -0.05533814 0.030990038 -0.07338853 -0.031165292
-0.008328965 0.020472733 0.05319127 -0.10820611 -0.07863126 -0.051354866 0.012320402 0.048505757
0.023378225 -0.03484469 0.0030543793 -0.03532454 0.066121005 0.026087375 0.064592466 0.031548243
00000000: db90 ddbc c908 71bd c3f3 553d 010a 34bd
00000010: 8d3b 543c 6dc2 b03b 5231 963b cb8d e13c
00000020: b786 bb3c 7421 443d a040 94bd 989d 6dbd
00000030: f6ac 32bd 6e37 eb3c 47a2 4bbd 0bdf 543d
00000040: 0dd0 2ebc 0987 fe3b ecdf 7bbc 2bbe 41bd
00000050: c015 3dbd d596 04bd ebfa 483d b2e8 61bb
00000060: 3229 f03d 8483 123d fc6e 99bd 312e e83c
00000070: 4280 97bd f6dd 823c 88da ec3c 37e1 073d
00000080: 7345 e33d d9ce 43bd 0488 81bd 44d8 ea3c
00000090: 6efc 3fbc ae2a d43c 4b56 d2bc 1a9e 25bd
000000a0: f566 013d b017 bfbb c80e 8dbb cc05 83bd
000000b0: 4971 febc 2a8a 193d 1ba6 b0bd 8212 863c
000000c0: 73cf b3bc 5cbc d63c 5072 1ebd 8c05 3b3d
000000d0: 482f a9bc 64b5 c239 2145 163d 39bd d43c
000000e0: b6bd 8a3d fd0c 373c d3f6 7c3a 9153 31bc
000000f0: d816 99bc bb19 453d 7f13 e23b cb2d d53c
00000100: 914d 813c 076e 1b3d fc9b 523d 0675 3dbd
00000110: d4d4 853d e021 f3bc 540a 9f3c ada4 5d3d
00000120: b0c4 89bd b4b3 a2bc 9cbf 783d c2a5 873d
00000130: 8b37 a6bc f158 cbbc 13df fa3c a5f8 cdbc
00000140: 46d3 913d 4a83 c7bd f739 873d 19c1 e53b
00000150: b31e 853d 2f52 873d e911 853c 3fd8 2ebd
00000160: dc1f fbbc fea3 1b3c 307c 3dbd 53b5 debc
00000170: 4b11 83bc 3c92 68bd d841 103d 2dc5 ac3c
00000180: 63e5 97bc 6718 853c 62b3 383c d0e4 223b
00000190: a974 24bb feb6 5a3d 25f7 983c 1ae9 d73c
000001a0: 11d3 b23c fb81 bd3d b5d4 973d 1311 2fbd
000001b0: 9eb7 f8bb a85d 2fbc 7422 b13d 5df3 183d
000001c0: 1129 d1bb 0c43 de38 55cb 803d e55c 82bd
000001d0: 71dd ae3d 602d bb3c 877d 66bc ef2b 523b
000001e0: a7f3 a83c 2f82 183d 34c9 9f3c 1622 77bd
000001f0: 5dd9 463d 72db e63b 1fe5 12bc e5da 8dbd
00000200: 2613 2f3d 3b2d cf3d a15c 98bc 9ec5 133d
00000210: 87ee 9cbc 067d b83d a2a9 e13c d4b6 013d
00000220: a771 95bd 68b4 65bc 6075 68bd 2b41 0fbd
00000230: b5b1 be3b d02f 963c e5b5 28bd 943a 1a3c
00000240: 9f87 663d 7a18 753d 82f3 8abc 0980 05bc
00000250: cee8 ca3c e801 1dbd a3df 8c3d 8536 af3c
00000260: febd 963d 1fc1 1c3d 20b0 513b 044b aabc
00000270: 0ac9 013d b2cf de3d 94d0 7f3c f08d 833d
00000280: a0a5 0abd 8a82 9c3c 6696 0c3d 7ba3 a2bd
00000290: e610 8fbd 30f4 debc 789b 3d3a 2976 8c3d
000002a0: 8f9d 9c3c 3dca 9c3c b0ff fdbc 14a7 363d
000002b0: ba0d 25bc d669 153d d5b6 ed3c 383e 34bd
000002c0: 943f 09bd 3369 da3c 153c 4dbc 0297 2bbd
000002d0: 84e1 3f3b 4722 9cbd b508 033d e40a a23d
000002e0: d956 3b3c 9c8e b2bc 5402 823d d037 a93c
000002f0: 5974 df3c c313 5a3d 524e c6bc 0d31 6cbb
00000300: 63fc 6dbd 475c a33c 2c6c 5abd 6223 a7bd
00000310: d51e b53c 137c 363c cd36 ad3d 6bcf c33c
00000320: 8c13 013c 4f14 cabd cfb2 05bc 9270 eebc
00000330: c62e 5c3d ae13 7abd 3bab 02bd b4ac 613d
00000340: 0b8c ae3c 8bc2 d0bd a634 833b 6baf 4fbd
00000350: 3ae3 3abd 31b5 0bbc 80e8 a3bd 3299 0bbd
00000360: 0239 0cbd 8351 caba 5753 3b3c 5c07 10bd
00000370: d431 67bc 335e b5bd e37b 193d 967c cfbc
00000380: 555a a53d 88db 8bbd 4d3c f63c 762a 70bc
00000390: 82b0 113c faae 42bd 0f4e 08bd 6a9c 4bbd
000003a0: 2be0 8c3c 1c51 90bc fc7b 78bd f4bf 7e3d
000003b0: 3faa 62bd d2de fd3c ba4c 96bd 5b4e ffbc
000003c0: 3676 08bc 6fb6 a73c 17df 593d 2a9b ddbd
000003d0: 6d09 a1bd 7b59 52bd 83db 493c f9ad 463d
000003e0: b183 bf3c 4eb9 0ebd fb2b 483b 77b0 10bd
000003f0: 736a 873d 31b5 d53c 0e49 843d bb38 013d

2.bias f4 [256]
-0.011117778 -0.01625979 -0.035358228 0.021596735 0.028377866 0.016453108 -0.009673524 0.004681034
0.052263703 0.045158423 -0.015286101 -0.02430607 0.04219813 0.066875465 0.06713503 0.04224439
-0.0031057128 0.048802372 -0.00019887651 0.024246505 0.01762381 0.01241617 0.000585095 -0.022815324
-0.047944922 0.029619062 0.020871388 -0.050048843 -0.003352513 -0.028194992 0.03271042 -0.007158706
0.035908706 0.010182693 0.0060732127 0.006808859 0.08400445 -0.06285436 0.019258887 -0.07066918
0.0413103 0.0012235624 -0.0028939385 0.028485341 -0.02285114 0.0048541585 -0.05324263 0.047924843
0.015382522 0.06695841 0.06431681 -0.0112494705 -0.059374176 0.010578764 0.049704734 -0.018516008
-0.0114955995 -0.020869281 -0.011972244 0.029843004 0.011908817 0.030427052 0.018926654 -0.051844396
0.057681132 0.0006181664 0.039602667 -0.023510415 -0.05722032 0.055507537 -0.035382245 0.027242493
0.040655486 -0.052022975 0.05254679 0.009917774 -0.0417965 -0.05683401 0.023237566 -0.03751043
0.0076996987 0.057539795 0.032050908 -0.008987398 -0.0150497565 0.03717586 0.05396113 -0.032369677
-0.008352595 0.025871351 -0.05410006 -0.009393528 0.017465781 -0.044006564 -0.007834497 -0.036480192
-0.020025965 -0.05318935 -0.048579987 0.012713522 0.008985714 -0.015274351 0.0115485415 -0.004364371
0.04268283 0.025650956 -0.037986025 -0.031540364 0.055740066 -0.03293457 0.0599216 -0.04724008
-0.04175818 -0.058806382 0.028066592 -0.03585182 0.033444796 -0.06320334 0.017362414 0.062494375
0.040338404 0.039648168 0.052897356 0.061908096 0.006852336 0.05259684 0.0012222537 -0.020255616
-0.015584407 -0.055447906 -0.061445974 -0.014939449 0.020419605 -0.0481994 -0.06208292 0.0118876975
0.022786709 -0.054505758 0.06102183 -0.037392825 0.03229652 -0.06325161 0.042592894 0.05283723
-0.039796393 0.033633687 0.0655706 -0.056061007 0.009904192 0.05482831 0.032190952 -0.039527304
-0.058986906 0.004076323 -0.033229828 -0.011806401 -0.039251175 -0.05366578 0.034521516 -0.04813376
-0.010800004 -0.01211181 -0.009420493 -0.029419115 0.017701779 0.0013065763 -0.025512835 0.018446947
-0.0018029943 0.009915583 -0.028482845 0.026211655 -0.035969216 -0.048699986 -0.011013294 -0.02432355
0.024790091 -0.020605711 0.042903654 -0.054346576 -0.025686843 0.00044646056 0.011014965 -0.047826905
0.02655559 0.057337236 -0.07038304 -0.040320598 -0.052978482 0.046772473 0.045799255 0.050182976
0.047160693 -0.02811211 0.018068695 0.032931764 -0.006209484 -0.014338329 0.02948912 0.030099284
-0.04352847 0.031638563 -0.060797703 -0.031609364 -0.049738213 0.07638867 0.05248502 0.039982144
-0.017581725 0.056253996 -0.030408181 -0.0041746283 -0.017562391 -0.06561241 -0.03374026 -0.028507711
0.05565381 -0.012724138 -0.011671653 -0.013261324 -0.052724514 -0.011762209 0.0147298975 -0.022600206
0.033181068 -0.049490053 0.038673382 -0.049718264 -0.014692387 -0.03948889 -0.03060577 0.0023331789
0.043453142 0.045043796 -0.06710728 0.034249548 0.017372532 0.03794066 -0.010702852 0.003495078
-0.050173514 -0.053819258 -0.00065284147 0.019382581 -0.054130293 -0.0620982 0.012444683 -0.050876427
-0.06336946 -0.01661384 0.049133815 -0.051130094 0.043444008 -0.052119624 0.010115834 0.028238006
00000000: 5727 36bc 4033 85bc cad3 10bd a3eb b03c
00000010: b378 e83c abc8 863c b37d 1ebc 5c63 993b
00000020: 7712 563d 0af8 383d 8e72 7abc 861d c7bc
00000030: f2d7 2c3d 01f6 883d 177e 893d 7408 2d3d
00000040: 3789 4bbb ffe4 473d 8289 50b9 9ba0 c63c
00000050: cf5f 903c 316d 4b3c 1061 193a 34e7 babc
00000060: e561 44bd ada3 f23c 79fa aa3c 0400 4dbd
00000070: d6b5 5bbb 2ff9 e6bc 5dfb 053d 9493 eabb
00000080: 0215 133d 4fd5 263c cd01 c73b d91c df3b
00000090: 860a ac3d c9b9 80bd d0c4 9d3c 01bb 90bd
000000a0: fd34 293d f15f a03a 3ba8 3dbb 175a e93c
000000b0: 5032 bbbc a20f 9f3b f214 5abd d74c 443d
000000c0: f906 7c3c 7e21 893d 88b8 833d b34f 38bc
000000d0: 5632 73bd 8d52 2d3c 3197 4b3d e2ae 97bc
000000e0: 0a58 3cbc 0ef6 aabc 3b27 44bc 5179 f43c
000000f0: 331d 433c 2742 f93c 120c 9b3c ca5a 54bd
00000100: 0d43 6c3d 720c 223a 6836 223d ea98 c0bc
00000110: db5f 6abd df5b 633d f9ec 10bd a62b df3c
00000120: 5e86 263d 0b16 55bd 4e3b 573d 297e 223c
00000130: cf32 2bbd c7ca 68bd b55c be3c 89a4 19bd
00000140: c14d fc3b d9ae 6b3d d047 033d e13f 13bc
00000150: 4193 76bc b745 183d 5906 5d3d 1196 04bd
00000160: 53d9 08bc 28f0 d33c 0698 5dbd 50e7 19bc
00000170: 6614 8f3c 3a40 34bd 435c 00bc 416c 15bd
00000180: 7e0d a4bc 13dd 59bd cffb 46bd 604c 503c
00000190: d138 133c 4641 7abc 1836 3d3c ff02 8fbb
000001a0: 31d4 2e3d f421 d23c 3c97 1bbd 7830 01bd
000001b0: b24f 643d 66e6 06bd 5a70 753d d07e 41bd
000001c0: a00a 2bbd f6de 70bd e9eb e53c 5cd9 12bd
000001d0: 69fd 083d c170 81bd 9f3b 8e3c 1afa 7f3d
000001e0: e239 253d 1e66 223d e6aa 583d 5893 7d3d
000001f0: 9089 e03b c96f 573d 0734 a03a 1bef a5bc
00000200: be55 7fbc 581d 63bd c6ae 7bbd 97c4 74bc
00000210: 0447 a73c bc6c 45bd a94a 7ebd 9ec4 423c
00000220: 31ab ba3c 6e41 5fbd 07f2 793d 3829 19bd
00000230: 5b49 043d 0f8a 81bd e375 2e3d da6b 583d
00000240: 8b01 23bd 7ac3 093d e149 863d 3aa0 65bd
00000250: 3145 223c a693 603d a9da 033d 62e7 21bd
00000260: 419c 71bd ad92 853b 001c 08bd a36f 41bc
00000270: d7c5 20bd a6d0 5bbd 6f66 0d3d e827 45bd
00000280: 80f2 30bc 9d70 46bc 6958 1abc 5b00 f1bc
00000290: 5203 913c 6d41 ab3a 4b00 d1bc 0d1e 973c
000002a0: 7352 ecba f874 223c db54 e9bc d3b9 d63c
000002b0: 7554 13bd a379 47bd 1a71 34bc 2e42 c7bc
000002c0: 9714 cb3c 4fcd a8bc bebb 2f3d 849a 5ebd
000002d0: 376d d2bc ec12 ea39 1d78 343c 25e6 43bd
000002e0: 1c8b d93c 73da 6a3d fc24 90bd 3627 25bd
000002f0: f7ff 58bd 7e94 3f3d 0098 3b3d aa8c 4d3d
00000300: 922b 413d 5e4b e6bc cd04 943c 75e3 063d
00000310: ed78 cbbb 50eb 6abc 2b93 f13c c692 f63c
00000320: e94a 32bd 7097 013d 0307 79bd d278 01bd
00000330: 4cba 4bbd aa71 9c3d 88fa 563d 51c4 233d
00000340: 8d07 90bc 976a 663d 941a f9bc 52cb 88bb
00000350: 01df 8fbc cd5f 86bd 3a33 0abd 0189 e9bc
00000360: 40f5 633d e778 50bc 763a 3fbc 0646 59bc
00000370: a9f5 57bd 48b6 40bc ab55 713c 1124 b9bc
00000380: dfe8 073d 15b6 4abd fb67 1e3d 61a5 4bbd
00000390: 56b8 70bc 1abf 21bd f4b8 fabc 3fe8 183b
000003a0: ecfb 313d d87f 383d 8b6f 89bd 4149 0c3d
000003b0: d750 8e3c aa67 1b3d 045b 2fbc ae0d 653b
000003c0: be82 4dbd 9571 5cbd 7323 2bba 38c8 9e3c
000003d0: bab7 5dbd af5a 7ebd c9e4 4b3c cd63 50bd
000003e0: d9c7 81bd bf19 88bc 8a40 493d ca6d 51bd
000003f0: 58f2 313d 637b 55bd e2bc 253c 6453 e73c

4.weight f4 [128, 256]
-0.040137522 0.015033821 -0.0424641 0.042482052 0.05882924 0.007136013 -0.07579365 0.05199561
0.0059779305 -0.025966244 0.060340624 0.021217596 -0.0086883195 -0.023864929 -0.05854427 -0.093218
-0.0690513 0.017333424 -0.0039468957 -0.0019230602 0.046610124 0.039625656 -0.016168902 0.05053797
0.028155245 0.08830725 -0.017596772 -0.012038948 0.045506958 -0.014765615 -0.07686021 -0.042064097
0.066282906 -0.0037215115 0.0765831 0.04530703 0.029299762 -0.04663604 -0.0017745912 0.07394812
0.053609595 0.061323326 -0.029882163 -0.010542453 0.019244742 -0.07290121 0.052778315 0.022768365
0.05861421 0.023541575 0.059551403 0.0004846271 -0.056938797 0.060757913 0.0038733261 0.024811214
0.03332907 -0.026729094 0.06883984 -0.034718055 -0.025488276 0.0020574061 -0.05170674 -0.029027602
-0.012322018 0.08446937 0.032921024 0.047206838 -0.035764713 -0.04588067 0.04639444 -0.010587891
0.005518997 0.07176392 -0.05588449 -0.053473685 0.041886207 0.10623366 -0.046408705 0.0071127466
-0.014793384 0.019399872 0.042547923 -0.05291108 0.02439627 0.0027825348 0.0445075 0.06879018
-0.055481862 0.022749638 -0.00976554 0.04211 0.016559828 -0.0433396 0.038811747 0.03604927
-0.015729446 0.03845878 -0.07801691 0.03206629 -0.022741104 -0.007016421 0.04151557 0.094780296
0.020228162 -0.039054226 0.046560895 0.08624255 -0.020081809 -0.021600923 0.03746085 0.06381471
0.07403745 0.0038133499 0.009304733 -0.1051499 0.046425287 0.042868078 -0.05844917 0.06423165
-0.009916072 0.015403614 0.021189649 -0.029369196 0.05317555 0.008331358 -0.00056753674 0.0045639975
0.041768707 -0.049855586 -0.04590887 0.055966467 -0.039602514 -0.030843137 -0.047025908 0.051541578
0.037081007 0.010536738 0.047795247 0.07028821 -0.06420324 -0.044587463 -0.06192836 0.051264133
-0.03679657 -0.027654326 -0.041990515 -0.0064548333 0.053926863 0.016276374 -0.097473115 0.038379062
0.011034032 -0.032650914 0.050951265 0.056632787 0.03013514 0.020304643 0.013721 0.032871343
0.023253074 0.018458724 -0.02781539 -0.030568695 0.032657277 -0.06843669 -0.01620466 0.035236962
0.066128105 -0.046815056 0.0181774 -0.030931007 -0.0012675031 0.061891027 0.04384393 0.0118751
0.037417695 -0.02850778 -0.029117383 -0.060873706 0.010473441 -0.030443992 -0.041829176 0.023518521
0.05217529 -0.048803113 -0.111784846 -0.032984503 0.09537962 0.034323182 -0.047580387 -0.032922562
-0.005671191 -0.05220268 -0.03721472 -0.03940794 -0.053368654 -0.02565498 0.019189915 0.040681913
-0.066975914 -0.027404714 0.05850717 -0.06428731 -0.030909507 -0.018923715 -0.0035224063 -0.08708028
-0.09361238 0.07192509 -0.08293447 -0.078488916 -0.020890366 -0.013042914 -0.058783744 0.07001244
0.04282175 -0.046981145 -0.05989899 -0.045569643 0.038153306 0.0069823936 0.035948675 -0.0008942572
0.04685572 -0.01660706 0.021983515 -0.0772105 -0.040799018 -0.06046252 0.025943529 0.0049672727
0.082753755 0.031635124 0.058673993 -0.03013264 0.042644896 0.009298626 0.034981318 0.078762814
0.03215264 -0.065058574 -0.007534209 0.07152054 -0.042280007 0.048308004 -0.036604427 -9.571464e-05
-0.029848134 0.021616407 -0.07102341 0.05368401 0.0036288763 0.06135409 0.048809707 0.012441685
00000000: 3e67 24bd 6a50 763c d6ee 2dbd a901 2e3d
00000010: eef6 703d 37d5 e93b b339 9bbd 59f9 543d
00000020: 84e2 c33b 29b7 d4bc bb27 773d 86d0 ad3c
00000030: 7459 0ebc 6280 c3bc 1ecc 6fbd 14e9 bebd
00000040: c56a 8dbd d3fe 8d3c f654 81bb 310f fcba
00000050: 42ea 3e3d 834e 223d a574 84bc e700 4f3d
00000060: d4a5 e63c 6eda b43d 1b27 90bc 023f 45bc
00000070: 8165 3a3d 7aeb 71bc e368 9dbd 674b 2cbd
00000080: 55bf 873d 9ae4 73bb 9ad7 9c3d dd93 393d
00000090: 0e06 f03c 6f05 3fbd 6699 e8ba 1d72 973d
000000a0: bc95 5b3d 2b2e 7b3d 70cb f4bc 41ba 2cbc
000000b0: 26a7 9d3c 3b4d 95bd 132e 583d b984 ba3c
000000c0: 7415 703d 43da c03c 2cec 733d 8c15 fe39
000000d0: a838 69bd 4add 783d a1d7 7d3b e340 cb3c
000000e0: 1084 083d f9f6 dabc e7fb 8c3d 8534 0ebd
000000f0: cacc d0bc 8cd5 063b 72ca 53bd 4bcb edbc
00000100: 4ae2 49bc 47fe ac3d 32d8 063d f55b 413d
00000110: 057e 12bd 5fed 3bbd 1908 3e3d d578 2dbc
00000120: b4d8 b43b f6f8 923d 23e7 64bd 3907 5bbd
00000130: df90 2b3d 0891 d93d 0e17 3ebd 0b12 e93b
00000140: f35f 72bc 7bec 9e3c bb46 2e3d 4ab9 58bd
00000150: b0da c73c 305b 363b 7f4d 363d dee1 8c3d
00000160: f340 63bd 735d ba3c a5ff 1fbc 897b 2c3d
00000170: 7aa8 873c dd84 31bd 11f9 1e3d 66a8 133d
00000180: 0adb 80bc f486 1d3d 54c7 9fbd f157 033d
00000190: 8d4b babc 01ea e5bb 3b0c 2a3d 2c1c c23d
000001a0: 88b5 a53c 53f7 1fbd a3b6 3e3d ef9f b03d
000001b0: 9b82 a4bc 6bf4 b0bc 8c70 193d 49b1 823d
000001c0: f2a0 973d 65e9 793b e172 183c d558 d7bd
000001d0: 7128 3e3d 7096 2f3d 6668 6fbd e28b 833d
000001e0: 0577 22bc 715f 7c3c ea95 ad3c ab97 f0bc
000001f0: 9bce 593d 4080 083c bfc6 14ba 968d 953b
00000200: aa15 2b3d 5f35 4cbd f00a 3cbd 183d 653d
00000210: 3f36 22bd bfaa fcbc 3d9e 40bd 431d 533d
00000220: 41e2 173d 48a2 2c3c f3c4 433d 44f3 8f3d
00000230: fd7c 83bd 58a1 36bd 98a8 7dbd 57fa 513d
00000240: 00b8 16bd 538b e2bc 3ffe 2bbd 1183 d3bb
00000250: 6ae2 5c3d 0856 853c fc9f c7bd 5d33 1d3d
00000260: 16c8 343c f7bc 05bd 46b2 503d c8f7 673d
00000270: f8dd f63c ec55 a63c 0cce 603c 1aa4 063d
00000280: 3b7d be3c c036 973c 1add e3bc 336b fabc
00000290: a3c3 053d 8928 8cbd a3bf 84bc a254 103d
000002a0: 2c6e 873d 25c1 3fbd c5e8 943c 0663 fdbc
000002b0: 5922 a6ba 7281 7d3d b195 333d c88f 423c
000002c0: 4c43 193d 2689 e9bc 9487 eebc b556 79bd
000002d0: cc98 2b3c ae65 f9bc 1255 2bbd eaa9 c03c
000002e0: c2b5 553d c6e5 47bd 74ef e4bd c21a 07bd
000002f0: 6456 c33d 7796 0c3d a7e3 42bd cfd9 06bd
00000300: 66d5 b9bb 7ad2 55bd 766e 18bd 386a 21bd
00000310: 1799 5abd 652a d2bc 2b34 9d3c 14a2 263d
00000320: ab2a 89bd da7f e0bc 37a5 6f3d 11a9 83bd
00000330: ef35 fdbc e805 9bbc 2cd8 66bb 2557 b2bd
00000340: d9b7 bfbd 764d 933d 8cd9 a9bd ccbe a0bd
00000350: 4622 abbc f2b1 55bc 39c7 70bd af62 8f3d
00000360: dc65 2f3d 4d6f 40bd a558 75bd 3ca7 3abd
00000370: a446 1c3d 90cc e43b eb3e 133d 966c 6aba
00000380: c9eb 3f3d 870b 88bc c616 b43c 8a20 9ebd
00000390: df1c 27bd 8ca7 77bd 8687 d43c 81c4 a23b
000003a0: cd7a a93d d593 013d 2454 703d bad8 f6bc
000003b0: 6aac 2e3d 4459 183c 9248 0f3d 664e a13d
000003c0: 7db2 033d 6e3d 85bd 87e1 f6bb 5c79 923d
000003d0: cd2d 2dbd 9dde 453d 86ee 15bd 68ba c8b8
000003e0: 1384 f4bc e414 b13c b974 91bd c4e3 5b3d
000003f0: 71d2 6d3b 6d4e 7b3d b0ec 473d 36d8 4b3c

4.bias f4 [128]
-0.043414764 -0.04573945 -0.03550246 0.012777834 0.0138169695 -0.013477494 0.055824928 0.0037480623
0.03511952 -0.049956646 -0.061100338 -0.012133773 -0.024131538 -0.027185796 0.02632186 0.043510504
-0.0008538517 -0.051307783 -0.05910656 -0.03638389 -0.022267262 0.030047193 0.046389833 -0.0011493879
-0.031889565 0.02020367 0.012562028 -0.0062974757 -0.055863347 0.024901027 -0.022805994 0.06834602
-0.024879728 0.03331947 -0.05721032 0.04371494 -0.06858404 0.0073183845 0.008368768 0.0061807027
-0.0021292216 0.04417065 0.01716461 0.0372364 -0.005269148 0.023893042 -0.06611811 -0.063562326
0.056986183 -0.053219013 0.0677585 0.018324513 0.011429963 0.03882357 -0.025383417 0.035607535
0.002325117 -0.05729812 -0.030643338 -0.03672287 0.006985745 -0.04337187 0.04945125 -0.026402865
0.026302699 0.034846764 0.04280547 -0.039150536 -0.0029760017 -0.02456326 -0.050462984 -0.05529625
-0.058305107 0.033061076 -0.048539463 0.03089674 -0.056822047 0.025189815 0.004599679 0.0458746
0.0012398236 -0.056184437 -0.03334085 -0.036523484 -0.06151744 -0.039084107 0.060760185 0.052887734
0.03632197 0.044396397 -0.03624299 0.0055448133 0.01979044 0.0321832 -0.00041033304 0.016542692
-0.015080582 -0.026470989 0.05933102 0.053794686 -0.03317816 0.0040680915 0.054174528 0.017229501
-0.025721852 -0.019023279 0.00041649403 0.04811757 0.010600972 -0.061754573 0.028042119 0.042112168
0.03169718 0.008200199 0.07227963 -0.022293797 -0.06644616 0.008554278 -0.06303525 0.022388063
-0.05911448 -0.041054737 0.046043307 -0.008004864 0.03170648 -0.0095057925 -0.02291904 0.04359827
00000000: aed3 31bd 4a59 3bbd 076b 11bd 1f5a 513c
00000010: 9260 623c b5d0 5cbc aea8 643d 0da2 753b
00000020: 7cd9 0f3d 579f 4cbd 5944 7abd bccc 46bc
00000030: 81af c5bc bfb4 debc f1a0 d73c 1238 323d
00000040: 05d5 5fba 1c28 52bd b819 72bd 4607 15bd
00000050: d569 b6bc 8825 f63c 4403 3e3d 0fa7 96ba
00000060: a29e 02bd 2b82 a53c f7d0 4d3c 0e5b cebb
00000070: f7d0 64bd 3dfd cb3c a3d3 babc 00f9 8b3d
00000080: 92d0 cbbc ff79 083d 5e55 6abd 700e 333d
00000090: ca75 8cbd 0fcf ef3b 281d 093c 7e87 ca3b
000000a0: 698a 0bbb 49ec 343d cc9c 8c3c 3285 183d
000000b0: d1a8 acbb 57bb c33c ef68 87bd f72c 82bd
000000c0: 586a 693d 2efc 59bd f8c4 8a3d 4a1d 963c
000000d0: bd44 3b3c 7705 1f3d e2f0 cfbc 35d9 113d
000000e0: fd60 183b 6fb1 6abd bd07 fbbc b86a 16bd
000000f0: ade8 e43b b4a6 31bd 658d 4a3d d24a d8bc
00000100: c278 d73c 7bbb 0e3d ca54 2f3d 505c 20bd
00000110: 0609 43bb e438 c9bc 46b2 4ebd 527e 62bd
00000120: 56d1 6ebd 0d6b 073d 51d1 46bd 291b fd3c
00000130: 3cbe 68bd df5a ce3c e7b8 963b 01e7 3b3d
00000140: 9481 a23a a721 66bd 6a90 08bd a699 15bd
00000150: b6f9 7bbd a816 20bd acdf 783d cfa0 583d
00000160: 59c6 143d ffd8 353d 8873 14bd 44b1 b53b
00000170: 901f a23c 88d2 033d f821 d7b9 8a84 873c
00000180: 8c14 77bc b0d9 d8bc 1505 733d d157 5c3d
00000190: d3e5 07bd a04d 853b 1ce6 5d3d e224 8d3c
000001a0: a2b6 d2bc b5d6 9bbc e25c da39 ee16 453d
000001b0: b3af 2d3c 5df2 7cbd 96b8 e53c cf7d 2c3d
000001c0: e7d4 013d 215a 063c 5807 943d 7ba1 b6bc
000001d0: ed14 88bd 3e27 0c3c a018 81bd 2c67 b73c
000001e0: 0622 72bd 0329 28bd e897 3c3d d526 03bc
000001f0: a7de 013d 2fbe 1bbc b6c0 bbbc 1994 323d

6.weight f4 [128, 128]
0.07194216 0.083579965 -0.043363534 -0.10598151 -0.09456685 -0.034111872 0.038347024 -0.012212557
0.0009714326 0.039287914 -0.025579605 -0.011774975 -0.060978614 -0.032329455 0.08933454 -0.017056992
-0.03011385 0.028899604 -0.09265285 0.031317353 -0.09580051 0.044856872 0.06774842 0.019809332
-0.053493958 -0.07956731 0.09036958 0.01314099 -0.060356498 0.020503571 -0.0076502073 0.09460074
0.023708541 0.067147344 -0.036299083 -0.024947764 0.0052012736 0.10421974 -0.009438179 0.056951433
-0.07075853 0.035283267 -0.0482457 0.087901026 0.030060956 -0.08480702 0.095707946 -0.047922265
0.07550168 -0.082599424 0.023961985 -0.044398937 -0.066599555 -0.06530346 -0.052123684 0.08247294
-0.047818717 -0.033365615 -0.0034669822 -0.0834625 0.087438084 0.017647685 0.09141464 -0.009469166
-0.06383493 -0.018295182 -0.08575029 0.06208344 0.079174384 0.044224292 -0.024743358 -0.0074050445
0.0050092507 -0.08225661 0.010312215 -0.01512729 -0.115297504 -0.042390004 -0.013984554 -0.079443425
0.059330367 -0.011060371 0.10260753 -0.055895053 -0.015229215 -0.02919333 -0.0869695 -0.10898285
0.008195495 0.10831993 -0.03050164 -0.008062707 0.09033421 -0.042190414 -0.032777097 -0.0012302836
-0.06657921 0.09726709 0.080413684 0.030920688 0.037943218 -0.015010818 0.05214511 -0.088663444
0.024589395 0.03965195 0.05506255 0.022463951 0.05851105 -0.054936443 -0.03325761 0.0020038248
-0.06888934 -0.073535405 0.020821426 0.013271428 -0.034951173 0.069232725 -0.100604765 0.017337678
0.05204366 -0.07309919 0.007103708 0.056856383 -0.0339706 0.026247606 -0.025065638 0.08225983
-0.070197396 0.06988604 -0.040399324 0.07372159 -0.046593983 0.03429061 -0.054524533 0.07825449
-0.11145464 -0.034579176 0.06284677 0.02746226 -0.040922366 0.025003271 -0.080270454 -0.0437731
0.046797194 -0.084259845 0.075023964 -0.0038192023 -0.04979941 0.0797982 -0.045932706 -0.0013354572
0.0320459 -0.06388004 0.017263116 -0.03326344 0.027959485 0.04727673 -0.046561908 0.06794724
-0.007908319 0.026782947 -0.0037403088 -0.009660609 -0.03418706 -0.08890666 0.04823798 -0.04681018
-0.04232376 0.07100756 0.05020631 0.03364298 0.015119494 -0.06849802 0.04951341 0.069182575
-0.00698332 0.0042337505 -0.07589843 0.078088626 0.029916419 -0.03343221 0.006882727 -0.013014895
-0.06657342 -0.07789697 -0.07573763 0.003947032 -0.06355683 -0.03887006 0.03384898 -0.030987397
-0.07202735 -0.066609494 0.0744573 0.02839841 0.0037029341 -0.07714411 0.047876652 -0.092877604
0.0778324 -0.09294316 -0.08593229 0.013536643 0.04332069 0.000623616 -0.028367735 -0.08313198
-0.027874496 0.048486035 0.07617949 -0.0853974 0.08589365 -0.07477175 0.024339553 0.054609004
-0.032481626 0.008544763 -0.08972109 -0.02132998 -0.011657381 -0.037203986 -0.07377827 -0.039666314
0.057844833 0.054492958 -0.08132288 -0.0138029875 0.019686723 -0.028034367 0.0855371 -0.055849165
0.06888926 -0.006373732 0.045059826 0.019645447 -0.03233285 -0.043186784 0.014394464 0.07901394
-0.032702398 -0.08454561 -0.06903108 0.03918032 0.03017614 0.022310888 -0.080627024 -0.05600097
-0.07638851 0.08130593 -0.08321289 -0.04120918 -0.041038424 0.06872175 -0.09384044 -0.03871632
00000000: 6956 933d f92b ab3d f69d 31bd d50c d9bd
00000010: 44ac c1bd e4b8 0bbd c511 1d3d 2d17 48bc
00000020: bda7 7e3a 5dec 203d 528c d1bc d3eb 40bc
00000030: b6c4 79bd e46b 04bd 07f5 b63d 1bbb 8bbc
00000040: 52b1 f6bc ddbe ec3c c7c0 bdbd a046 003d
00000050: 0f33 c4bd d7bb 373d afbf 8a3d 2e47 a23c
00000060: 7b1c 5bbd 30f4 a2bd b013 b93d 4f4d 573c
00000070: 6038 77bd 1bf7 a73c 97ae fabb 08be c13d
00000080: 6a38 c23c 8c84 893d 59ae 14bd 415f ccbc
00000090: 726f aa3b 2971 d53d 98a2 1abc e845 693d
000000a0: d9e9 90bd 3085 103d 489d 45bd 7405 b43d
000000b0: 6542 f63c 4eaf adbd 8702 c43d 234a 44bd
000000c0: a0a0 9a3d e329 a9bd ed4b c43c a9db 35bd
000000d0: 5965 88bd d2bd 85bd a57f 55bd 93e7 a83d
000000e0: 8fdd 43bd 62aa 08bd 4f36 63bb 63ee aabd
000000f0: bd12 b33d e191 903c 9937 bb3d 9024 1bbc
00000100: e3bb 82bd c7df 95bc d99d afbd 354b 7e3d
00000110: 2e26 a23d 8824 353d 95b2 cabc 04a6 f2bb
00000120: a424 a43b 2776 a8bd 91f4 283c 74d8 77bc
00000130: 1921 ecbd 24a1 2dbd 791f 65bc 3cb3 a2bd
00000140: 6604 733d 8f36 35bc e623 d23d 36f2 64bd
00000150: f583 79bc da26 efbc 111d b2bd 6732 dfbd
00000160: 6646 063c d7d6 dd3d 93de f9bc 7219 04bc
00000170: 2401 b93d dbcf 2cbd 4741 06bd 7841 a1ba
00000180: ae5a 88bd f833 c73d eeaf a43d 624d fd3c
00000190: 596a 1b3d efef 75bc 1c96 553d 2e95 b5bd
000001a0: b36f c93c 156a 223d 4589 613d 5206 b83c
000001b0: 48a9 6f3d 0905 61bd 2239 08bd 9a52 033b
000001c0: db15 8dbd bb99 96bd b291 aa3c 6770 593c
000001d0: f628 0fbd e3c9 8d3d df09 cebd bf07 8e3c
000001e0: bc2b 553d 07b5 95bd 39c6 e83b 3de2 683d
000001f0: c224 0bbd 3805 d73c 7456 cdbc d777 a83d
00000200: a7c3 8fbd 6a20 8f3d c379 25bd 58fb 963d
00000210: 55d9 3ebd 5074 0c3d 1e55 5fbd e443 a03d
00000220: 5542 e4bd e5a2 0dbd cfb5 803d 89f8 e03c
00000230: 369e 27bd a9d3 cc3c d664 a4bd 6c4b 33bd
00000240: 6aae 3f3d 6d90 acbd 2aa6 993d 954b 7abb
00000250: 77fa 4bbd 3d6d a33d ef23 3cbd 820a afba
00000260: 9042 033d 8ad3 82bd 616b 8d3c 3f3f 08bd
00000270: 4a0b e53c 3fa5 413d b3b7 3ebd ec27 8b3d
00000280: e591 01bc e967 db3c f81f 75bb 8847 1ebc
00000290: bb07 0cbd b214 b6bd 3095 453d 08bc 3fbd
000002a0: ae5b 2dbd 696c 913d 22a5 4d3d 39cd 093d
000002b0: c1b7 773c b148 8cbd 93ce 4a3d 98af 8d3d
000002c0: 56d4 e4bb 46bb 8a3b a370 9bbd eeec 9f3d
000002d0: 4713 f53c 37f0 08bd 8088 e13b 6d3c 55bc
000002e0: a557 88bd 7288 9fbd 551c 9bbd 1b56 813b
000002f0: 152a 82bd 3636 1fbd 3aa5 0a3d 48d9 fdbc
00000300: 1383 93bd 8f6a 88bd 127d 983d c8a3 e83c
00000310: edac 723b bbfd 9dbd 4f1a 443d 9d36 bebd
00000320: 9866 9f3d fc58 bebd 45fd afbd ccc8 5d3c
00000330: 0971 313d 297a 233a 7463 e8bc 1941 aabd
00000340: 0e59 e4bc 4b99 463d fe03 9c3d d5e4 aebd
00000350: 03e9 af3d ee21 99bd be63 c73c b1ad 5f3d
00000360: 740b 05bd 55ff 0b3c b1bf b7bd 36bc aebc
00000370: 9afe 3ebc 3563 18bd 1019 97bd 2579 22bd
00000380: b4ee 6c3d 0234 5f3d 9c8c a6bd ed25 62bc
00000390: 0d46 a13c 54a8 e5bc 132e af3d 18c2 64bd
000003a0: d015 8d3d bdda d0bb a790 383d 7def a03c
000003b0: 736f 04bd a0e4 30bd c2d6 6b3c 10d2 a13d
000003c0: f3f2 05bd 4026 adbd 2b60 8dbd 8b7b 203d
000003d0: f433 f73c 53c5 b63c c81f a5bd 4661 65bd
000003e0: 9471 9cbd b983 a63d 856b aabd f5ca 28bd
000003f0: e817 28bd fdbd 8c3d 6b2f c0bd 0195 1ebd

6.bias f4 [128]
-0.01933099 0.014053634 0.06972663 0.044817317 -0.07464841 -0.07960798 -0.030199988 -0.005851039
0.08240664 0.079133265 -0.05298846 0.028931849 0.06106978 0.014679415 0.043203305 0.06032858
0.08117869 0.035349168 -0.028954623 -0.042067923 0.015653362 0.051542524 0.04150491 -0.048701957
-0.03672188 0.07548898 -0.05844095 -0.045133192 -0.06509652 0.03729054 0.006478249 -0.0601883
-0.029312672 0.036931586 0.02041385 0.075333975 0.077437565 -0.07769882 -0.022895355 -0.03561648
-0.013412077 -0.055366073 -0.028835941 -0.020308709 -0.0977913 0.054053683 0.026609521 0.022254715
0.02183228 0.014874907 0.009751977 -0.0065984363 0.07937633 0.016826821 -0.06466334 -0.042852994
0.06186856 -0.016876794 -0.012958619 -0.06034052 0.011289739 0.020189682 -0.08686018 0.013338381
-0.081869975 -0.0879364 0.0067483224 0.020993857 -0.043575913 -0.05157651 0.07532557 -0.06577571
-0.027880786 0.082647346 -0.018384857 -0.07465044 0.058574036 -0.09094244 -0.045330256 -0.02411026
-0.004394932 0.066260576 0.065903746 -0.08938687 -0.086526655 -0.054057922 0.035353374 0.04591252
0.070235245 0.0136515265 0.036846988 0.059904713 0.034791842 -0.004243379 0.06002014 -0.01736133
0.039802276 -0.057663366 -0.062179834 -0.086692534 -0.05465047 -0.015199192 0.07198948 0.09388537
0.0853853 0.07570031 -0.084082484 -0.08164813 -0.04854133 0.083958946 0.009640772 0.024695164
0.07251773 0.009051156 0.059478495 0.01673254 0.018002596 0.07318851 -0.0011568513 0.0298795
-0.05360648 0.033146944 -0.08357259 -0.014299684 0.025237339 0.098006696 0.03644788 -0.0123440055
00000000: 065c 9ebc 3741 663c d6cc 8e3d 5d92 373d
00000010: 44e1 98bd 8209 a3bd f765 f7bc 13ba bfbb
00000020: d0c4 a83d 9f10 a23d 6d0a 59bd 7c02 ed3c
00000030: 4e24 7a3d ee81 703c f3f5 303d 1a1b 773d
00000040: 0341 a63d 4aca 103d 3f32 edbc 6a4f 2cbd
00000050: 7b3b 803c 411e 533d 0d01 2a3d b47b 47bd
00000060: af69 16bd f799 9a3d c75f 6fbd 95dd 38bd
00000070: 5351 85bd f7bd 183d 7e47 d43b 0288 76bd
00000080: 2121 f0bc 9345 173d f23a a73c b348 9a3d
00000090: 9697 9e3d 8f20 9fbd 0a8f bbbc 96e2 11bd
000000a0: 54be 5bbc 89c7 62bd 5a39 ecbc 735e a6bc
000000b0: ce46 c8bd 6567 5d3d 36fc d93c 854f b63c
000000c0: 9cd9 b23c e2b5 733c c2c6 1f3c b237 d8bb
000000d0: 0f90 a23d 67d8 893c 376e 84bd 9f86 2fbd
000000e0: e369 7d3d 3441 8abc 6350 54bc 9f27 77bd
000000f0: 99f8 383c d564 a53c c0e3 b1bd 3a89 5a3c
00000100: 72ab a7bd 0018 b4bd 0821 dd3b 4ffb ab3c
00000110: a87c 32bd e441 53bd 4b44 9a3d 6ab5 86bd
00000120: 3f66 e4bc 0343 a93d d79b 96bc 54e2 98bd
00000130: 54eb 6f3d 0840 babd 38ac 39bd e182 c5bc
00000140: 5d03 90bb a0b3 873d 8bf8 863d 7710 b7bd
00000150: e334 b1bd d76b 5dbd b3ce 103d c40e 3c3d
00000160: 7fd7 8f3d a7aa 5f3c deec 163d a55e 753d
00000170: e481 0e3d 0b0c 8bbb aed7 753d 5939 8ebc
00000180: b607 233d 6c30 6cbd 48b0 7ebd db8b b1bd
00000190: 2cd9 5fbd 0806 79bc 386f 933d f946 c03d
000001a0: 7dde ae3d c408 9b3d 7033 acbd 2337 a7bd
000001b0: 46d3 46bd abf2 ab3d 54f4 1d3c 834d ca3c
000001c0: 2d84 943d 4d4b 143c b99f 733d ae12 893c
000001d0: 2e7a 933c dce3 953d 7da1 97ba dac5 f43c
000001e0: 7892 5bbd 17c5 073d 1b28 abbd 3949 6abc
000001f0: 89be ce3c bcb7 c83d 5f4a 153d 833e 4abc
