models_5_250/checkpoint83.pth.tar (torch_old, 502895 bytes, 10 tensors)

0.weight f4 [256, 26]
00000000: 7b14 32bb 493f 1bbe 6aed 893c b4c9 0d3d
00000010: 1f0e 9bbd 4222 c13d b412 533d 8e4c a53d
00000020: 0adb 513e 7bfe a9bd 1e52 46bd e6e8 b13d
00000030: 84b1 eebd 3fef 503e 1d7f 443e 5856 c8bd
00000040: 9f9c bf3b 227d 5d3d 7863 013e 6143 b03d
00000050: cedf 5b3d 3a31 6cbd 449f c03d 187f 94bd
00000060: 996e acbd c75b 343e 58f7 563e 9b51 95bd
00000070: 84ef 363e 27b6 313e 150a 00be 6a42 7d3d
00000080: b02e 00be d107 a2bd 7dba 063e 70b8 493e
00000090: 75c8 afbc 5e58 023e f802 f53d 9729 923c
000000a0: dc67 3cbe 2d16 fb3d ce73 cf3c 52d1 32bd
000000b0: 7699 45bc 0d2d 903b 16a3 07be d647 0a3e
000000c0: 8403 babd 9ef9 68bd 8e92 21be 5ac7 c33d
000000d0: bd09 49be 8913 42be 048c 953d 525e 1ebe
000000e0: 0076 b6b5 68aa f0bd 65f2 3cbd f408 8c3d
000000f0: de49 55bd 1f2b 2d3e 7eab fb3d 4613 a8bb
00000100: e5fa 40bd af41 d0bc 34ab 3e3e 8da0 533e
00000110: 7eb9 0c3e 8d8f 2e3e 6708 ed3d 3227 c13d
00000120: 5f41 193e 07c4 fc3d 8598 143e a998 a53d
00000130: 8985 72bd eaa1 17be f398 9aba f258 04bd
00000140: fa3d 43be d929 253e d91d 363e 21fa 62bc
00000150: 48d1 1e3e cead f0bd 2337 e7bd 5b00 aa3d
00000160: 910e 283e 98cf 223e 6788 04be 69a6 b8bd
00000170: 2ea8 6c3d 3caa fa3d 3a9f 74bc 2b47 f93d
00000180: b4cb 43be 7cee 433e b7f5 aabd 26d3 a6bd
00000190: c906 ca3d b4a8 fbbd 73fe 353d ad2d 413e
000001a0: 6313 6f3d a6bb 2abe 47e5 10bd 1103 1bbd
000001b0: 6022 babd 3335 203e df38 c03d 2951 5dbc
000001c0: c5fb 863d c953 603b 9100 20be 754c 833d
000001d0: 5714 5dbd 3180 0e3e d579 b2bd ba44 21bd
000001e0: e93a 383e 14f7 4fbc 24e3 01be 8c16 253e
000001f0: ba61 103e 44a9 d73c f4bc 043e 1358 403d
00000200: 6a19 113c 2853 a2bc 1b9c a3bd 24b0 04be
00000210: 8f95 7d3d 0e96 0e3b 9931 323e 7e55 02ba
00000220: 273e 173e d91d 2f3e e171 25be 2643 193e
00000230: ca38 6d3d 8856 333e aa79 2a3e c574 cb3d
00000240: dc5b 70bd 46be 2ebe c022 253e 73ae 533d
00000250: fa8e 16be a692 3e3e b90a b6bd 5b67 c0bd
00000260: 1e4e 453d bc06 1ebe f239 273e 2664 d7bd
00000270: 1de6 dfbc 01cb 50ba 6b34 a23d 6d92 233e
00000280: c361 bdbd ff84 5bbd e0fa 053d 62e3 133e
00000290: ad2d fd3d 5d69 29be be63 003e 53f5 323e
000002a0: 4bab 83bc ba11 803d a223 bbbd 62e7 d03d
000002b0: fd4c 6dbe fbd5 533e d6f1 edbc 88cd 313d
000002c0: 439b f03c e890 25bc 3d25 3c3e 4d5b ae3d
000002d0: b7d4 7e3d e0f3 ed3d 2e9a 613c ea68 a0bd
000002e0: b444 0c3e 8069 dc3d e49b aabd cee0 343e
000002f0: e6aa 873d 6cc5 adbd 7143 213e d4d6 9a3d
00000300: ec05 f73d cf4b 593e 5eaf 3ebc f1ac 2a3e
00000310: bc9c 07be 1440 c33c 3c8d ccbd 6f81 3ebe
00000320: 7742 56be e72d 3d3e 9466 393e 8a77 c23d
00000330: 4fde 3a3e 1f36 07bd 0bd2 0abd 1c32 8d3d
00000340: 757c 403e 6612 e73c 4168 a2bd 1e6a 23bd
00000350: 5a01 4e3e 09c1 0ebe f85f c9bd 631b 67bd
00000360: e631 d9bd 2f74 723d 520c 39bd b904 e93d
00000370: 082f a3bd 4bce e1bb 5ae3 563e 663e 8fbc
00000380: 5baf 483e 17b1 debc 5fc6 1d3e 374a 8f3d
00000390: 4d06 083e 399f e33d 6f99 93bd 1b94 273e
000003a0: 7207 ba3b 7e78 2cbe b14d 1c3e 899b 5d3e
000003b0: e259 d3bc 761a 9f3d 48fb 20bd 6ab3 aa3a
000003c0: b342 be3d 5b8c 13bc c268 0dbe 97ba 10be
000003d0: a6e7 d93d 1fd3 993d 401f 2fbe e7f2 c13d
000003e0: 83f1 56bd 8940 523e 5b3a 0f3e 6f5d eabd
000003f0: 86ca 2d3d b143 83bc 5ae8 cdbd 6b6c 313e
-0.0027172852 -0.1516086 0.01683684 0.034616187 -0.07571053 0.09430362 0.05153151 0.08071242
0.20493713 -0.083004914 -0.048418157 0.08687 -0.11654952 0.20403765 0.19189115 -0.09782094
0.005847528 0.054074414 0.126356 0.086066015 0.053680234 -0.057664134 0.094053775 -0.07250804
-0.08419532 0.17613135 0.20992792 -0.07290956 0.17864805 0.17354642 -0.12503846 0.061830916
-0.1251781 -0.07911647 0.13157077 0.19699264 -0.02145789 0.12729022 0.11963457 0.017842097
-0.18398994 0.12260089 0.025323775 -0.043656655 -0.012060514 0.0043999017 -0.13245806 0.13503966
-0.09082702 -0.05687868 -0.15778562 0.09559508 -0.19632621 -0.18952765 0.073020965 -0.15465668
-1.3594399e-06 -0.117512524 -0.046129603 0.06837645 -0.0520724 0.1691098 0.12288569 -0.0051292507
-0.04711427 -0.025421945 0.18619996 0.20666714 0.13742635 0.17046948 0.11573868 0.09431304
0.14966343 0.12342077 0.14511307 0.08085758 -0.05920938 -0.14807859 -0.001179485 -0.032311387
-0.19066611 0.16129245 0.17784823 -0.013853581 0.15509522 -0.117519006 -0.11289813 0.08300849
0.16411807 0.15899503 -0.12942658 -0.09016115 0.057777576 0.12239501 -0.014930541 0.12171777
-0.19120675 0.19133943 -0.08347648 -0.08145742 0.098645754 -0.12288037 0.044432115 0.1886508
0.058368098 -0.16673145 -0.035374906 -0.03784472 -0.09088588 0.15645294 0.09385847 -0.01350812
0.0659099 0.0034229627 -0.15625216 0.064110674 -0.053974476 0.13916089 -0.08714644 -0.039372183
0.17991222 -0.012693185 -0.12684304 0.16121882 0.1409978 0.02632583 0.12962705 0.046958994
0.008856157 -0.019815043 -0.07988759 -0.12957817 0.06191021 0.002175692 0.17401733 -0.0004971846
0.14769803 0.1710123 -0.16156723 0.14967021 0.057915486 0.17513478 0.16647974 0.099343814
-0.058681354 -0.17064771 0.16126537 0.05168004 -0.14702979 0.1861063 -0.08888764 -0.093947135
0.0481702 -0.15432256 0.16330698 -0.10517149 -0.027331406 -0.000796482 0.07920154 0.15973826
-0.09247162 -0.05359363 0.032709956 0.14442208 0.123622276 -0.16544099 0.12538049 0.17476396
-0.01607289 0.06253381 -0.09137656 0.10200383 -0.231739 0.20687096 -0.02904598 0.0434089
0.02937091 -0.010105349 0.1837358 0.08513508 0.06221458 0.11618781 0.013769669 -0.07832511
0.13698083 0.1076231 -0.08330515 0.17663881 0.06624393 -0.08484921 0.15748383 0.075605065
0.120616764 0.21220325 -0.0116384905 0.16667534 -0.13243383 0.023834266 -0.09987876 -0.18604062
-0.20923792 0.18474542 0.18105537 0.094954565 0.18248866 -0.0330106 -0.03389172 0.06894323
0.18797477 0.028207015 -0.07930041 -0.039896123 0.20117703 -0.13940825 -0.09832758 -0.056422602
-0.106052205 0.059192833 -0.045177765 0.11377854 -0.07967955 -0.006891047 0.20985165 -0.017485809
0.19598143 -0.027184052 0.15407704 0.06996577 0.13283654 0.11114354 -0.072069995 0.16365092
0.005677157 -0.16842839 0.15264012 0.21641363 -0.025799695 0.07768719 -0.03930214 0.001302344
0.092900656 -0.009005631 -0.13809493 -0.14133678 0.106398866 0.07510971 -0.17101765 0.09470158
-0.052476417 0.2053243 0.13987105 -0.11443602 0.04242947 -0.016023489 -0.10054083 0.17326514

0.bias f4 [256]
00000000: 3abd 063e da39 9b3d 3d33 13be aa01 80bd
00000010: 9cd4 293d 494e 733d 6e2a 29bb 4509 143c
00000020: be4c ba3d 1166 723d 4890 be3d 0ce8 22be
00000030: 87a5 fd3d 39c4 00be d842 a63a b655 383d
00000040: aff4 8ebd 45ca 0c3d 2b4e 0e3c ffce 21be
00000050: bd88 f63d 3ced 1dbe 6bf9 d83d 9bf2 453e
00000060: 1419 513a 921a bc3d 0671 d3bb 2245 263e
00000070: 03e7 b4bc 0923 d5bd 942f f93d 0876 203e
00000080: 3c91 713d 91a7 123e 4e63 9b3d 9af6 5abd
00000090: 24c7 5b3e a715 183e e679 003e 7ffd f03d
000000a0: 52d0 a73d acf3 ee3d d324 8abc 9f2d 21be
000000b0: 60c8 21bd 2020 ef3d 9c1e 2f3e 7dbd 883d
000000c0: 437f 50bd 28d7 43bc 2a89 0dbc fa1a 1a3e
000000d0: 1797 453e 8e63 09be 5863 8e3d 0756 1b3e
000000e0: 4199 3ebc c9de 8a3b 80e6 0e3e a21f 9b3d
000000f0: def1 063e d685 4f3d c4eb 0c3e 46d3 253e
00000100: 0526 dcbc 2011 9cbd ebf3 fb3c 1482 a2bd
00000110: 6545 873d 5614 c63d 2636 653d e2c5 2abe
00000120: ed41 df3d ddb2 dd3d 6bed 5e3d a363 103e
00000130: a3dd 393e 7b9b 43bd dd65 343e 09ea 073d
00000140: 0790 0ebe 34ef 3bb9 a82c 7abd df77 f23d
00000150: b9ad 9a3d 3c00 32be 58ce d13c 5cce ae3d
00000160: 1a49 94bd d3ad 05be 20ed e53d 7663 243d
00000170: 83f3 c5bc 3816 23be 08c9 d53d 2ed0 1a3e
00000180: 9615 5b3e dd19 183e ac8e 383e 6ad9 f73d
00000190: 7722 26be 56c0 0f3d dd83 acbd fc7e 1e3e
000001a0: af01 24be 65d9 ad3d 402c 433e dcbb 373e
000001b0: b577 193e bd15 22be 3d2b 2ebc 9ddc 1bbe
000001c0: c594 54bd aef8 1c3e 88a9 343c 54dc 25be
000001d0: c402 c1bd 8555 25be bf15 f4bc 6c0e f8bd
000001e0: 52aa 93bd f701 a73d b290 a5bd 75a2 e73c
000001f0: 04f0 0e3e 47ac 84bd 8bac b73d db64 123e
00000200: 7b6e f43d 8ab0 4dbd 4af5 f9bd 60c6 863c
00000210: 9df2 ca3d 044b debd 9da5 1e3e ac14 2a3e
00000220: 882e 47be 963f 253e 6aed fa3c 87e6 4b3d
00000230: 148e bcbd 8a42 8c3b 8052 d0bc 7cc3 283d
00000240: 0155 61bd c19a f7bd ea9c 2e3e 0a27 23be
00000250: a483 5f3d 77a8 d33d 5014 f9bd 5da9 873d
00000260: 7cfd 8e3c 628a 513d 7fbd 2bbd abbf 283e
00000270: ca47 08be ccd2 99bd cb8b 00be 0d80 ec3d
00000280: efbe cdbd 711b b5bd 8d0d c6bd fffe bebd
00000290: ff4d 333e f4de 71bd 5323 093e 9e6a 5b3d
000002a0: 9fda 2dbe 1c49 8b3d d88c 25be 3e7e 35bd
000002b0: 5b46 3dbd 32c4 e4bd 339a 983d c639 bdbd
000002c0: 5871 05bc 8ee0 023e e36b 453e bf2a 153c
000002d0: 78aa 71bd df83 b23d 36f9 eb3c 5d0e c2bb
000002e0: 9c11 81bd 1f26 7fbc 2933 1b3d 7948 f0bd
000002f0: 28d5 233e 7ecb b9ba 62d5 89ba d6f4 5abd
00000300: 0aa4 b03c e69d 083e d905 2f3e dc66 08be
00000310: 1fdb f2bd f025 0a3e 1a22 8b3d 070a 583e
00000320: 79de 143e 486a bebd 32c6 a43d d194 c13d
00000330: c298 ca3b 10b8 88bd 0ad7 4fbc 6efa 04be
00000340: 2deb a53d 3e22 82bc 7b8a ac3b cf38 9cba
00000350: 54f3 3abe 03a1 87bd a1b1 12be e5aa fdbd
00000360: 75e7 253e 982f 07be 0c86 ab3d 8483 42be
00000370: 2212 9f3d 50d6 b9bd 8a33 02be 5e57 3b3d
00000380: 3af5 b13c 61c7 06bd ae33 01be d5cf b6bd
00000390: a7ef f93d 5abe 9d3d aa4d 9cbd 8ec3 92bb
000003a0: 7a55 f6bd c2e0 083c 0e9e 10be 7f86 873c
000003b0: fcbb 6f3e fe1d f53d f219 23be 7498 47bd
000003c0: a0af cebd 46f0 b03d d89e e23c cf84 bdbd
000003d0: cc35 273e 1856 863d 9375 883c 6fd4 223e
000003e0: 3f51 763d aa4c d43d f316 513e f93b d03c
000003f0: 1df5 e9bc 314c b83d 9004 06be f53c 24bd
0.13158122 0.07579394 -0.14375015 -0.062503174 0.041462526 0.05940083 -0.0025812644 0.009035413
0.09096669 0.05917937 0.09304863 -0.15908831 0.123850875 -0.12574853 0.0012684716 0.045003615
-0.069802634 0.034372587 0.008685629 -0.15801619 0.120377995 -0.15422529 0.10594448 0.19330828
0.0007976454 0.091847554 -0.0064526824 0.1623731 -0.022082811 -0.10407073 0.12167278 0.15670025
0.058976397 0.14321734 0.075873 -0.053457834 0.21462685 0.1485201 0.125465 0.117671005
0.08194031 0.116675705 -0.016863262 -0.1574006 -0.039497733 0.11676049 0.1710152 0.06676767
-0.050902616 -0.011953153 -0.0086386595 0.15049353 0.19295917 -0.13416883 0.06952542 0.15169536
-0.011633218 0.004237984 0.13955116 0.07574393 0.13178203 0.050664745 0.13761812 0.16193876
-0.026873598 -0.07620454 0.030755958 -0.07934967 0.06605033 0.096718475 0.055959843 -0.16677049
0.10901246 0.10825131 0.05442564 0.14100508 0.18150954 -0.0477557 0.17616983 0.033182178
-0.1392213 -0.0001792282 -0.061077744 0.1183927 0.07552666 -0.17382902 0.025611088 0.08535454
-0.072405055 -0.1305459 0.11226869 0.040133916 -0.024163967 -0.15926445 0.10438734 0.15118477
0.21394953 0.14853616 0.18023175 0.12102015 -0.16224085 0.035095535 -0.084235884 0.15478128
-0.16016267 0.0848873 0.19059849 0.17942756 0.14987071 -0.15828605 -0.010630426 -0.15220876
-0.05189969 0.15329239 0.0110267475 -0.1619733 -0.094243556 -0.16145904 -0.029795526 -0.12112126
-0.072102204 0.08154672 -0.08084239 0.028275708 0.13958746 -0.06478172 0.08968457 0.14296286
0.11935135 -0.05021719 -0.12204988 0.016452014 0.09909556 -0.10854152 0.15492864 0.16609448
-0.19451344 0.16137537 0.030630786 0.049780395 -0.09206787 0.004280393 -0.025429964 0.041202053
-0.055012707 -0.12090064 0.17052045 -0.15932861 0.0545689 0.103348665 -0.121620774 0.066241
0.017454855 0.051157363 -0.041928764 0.16479366 -0.13308635 -0.075109094 -0.12553327 0.11547861
-0.10046183 -0.08843125 -0.09670553 -0.093259804 0.17510222 -0.059050515 0.13392381 0.053568475
-0.16977929 0.06801054 -0.16167009 -0.044309847 -0.046209674 -0.11170234 0.07451286 -0.09239535
-0.008144699 0.12780973 0.19279437 0.00910443 -0.059000462 0.08716559 0.028805356 -0.0059221224
-0.06302187 -0.015573054 0.037890587 -0.11732573 0.15999281 -0.0014175025 -0.0010515864 -0.05345615
0.021562595 0.13341483 0.17092074 -0.13320488 -0.118582 0.13491035 0.06793614 0.21097575
0.14537992 -0.09297615 0.08045615 0.094522126 0.006182761 -0.06675732 -0.012685547 -0.12986156
0.08101497 -0.015885469 0.0052655316 -0.0011918786 -0.18256885 -0.066225074 -0.14325573 -0.12386111
0.16201575 -0.1320175 0.08375177 -0.18995482 0.077671304 -0.0907408 -0.12714973 0.045737617
0.021723378 -0.032904986 -0.1261737 -0.089263596 0.12203913 0.07702322 -0.07632001 -0.0044788783
-0.12028022 0.008354368 -0.14122793 0.016543625 0.23411554 0.11968611 -0.15927866 -0.048729375
-0.100920916 0.086395785 0.027663633 -0.09253847 0.16329116 0.0655939 0.016657626 0.1590135
0.060136076 0.10366185 0.2041891 0.025419222 -0.028559262 0.08998907 -0.13087678 -0.040097196

2.weight f4 [256, 256]
00000000: c89d 1ebd 1977 56bd 1f6f f53c 1905 34bd
00000010: 8ce7 873c bcb7 f13b d6ac 7bbb a0dc 143d
00000020: 0c5f 4c3c fa7b f13c 39ed 5cbd 364e 9ebd
00000030: a1d9 11bd 3042 983b cc60 49bd e1a6 553d
00000040: df2d 44bc 4cd6 913c 416b a0bc 5a4a 4fbd
00000050: 4ffa 48bd fdcd c7bc 5baa 2b3d 59c5 dabc
00000060: 7115 ad3d de39 ca3c f28d 64bd 783e e33c
00000070: 3bfc 69bd ce10 053c 1eed 293d 93cc f43c
00000080: 57a4 983d b6e3 80bd ed19 6ebd 141e e5bb
00000090: c688 203a 7b34 4d3d c0cc f1bc 6103 14bd
000000a0: f73e 1e3b 633a 75bb f2d6 40bc 857b 45bd
000000b0: 2441 febc 5d85 173d d6af a0bd e326 a33c
000000c0: e867 01bd 5e03 163d 6ef6 14bd 12f7 753d
000000d0: a059 afbb 44a9 b43b e906 ef3c 6642 c23c
000000e0: 36d7 573d 5826 173d d946 353c 49b3 bebc
000000f0: c810 dcbc 91a3 e93c 3484 6d3c 6cb8 023d
00000100: ae72 c63c bbc7 db3c 514e 503d 020c 56bd
00000110: 1f8a 603d 5014 0bbd 53c6 063c c856 5d3c
00000120: 43ae 4bbd 17d6 edbc 25de 323d 0229 3e3d
00000130: 429d edbb 4fb6 c5bc 5e48 e63c 2d63 ccbc
00000140: 05ef 6f3d f472 aebd 31dc 163d b5a2 69ba
00000150: c677 673d 24d9 823d 2969 1e3d baec 28bd
00000160: e4da 9cbb 47e1 3e3c bff1 00bd de8b 2cbd
00000170: 996b f9bc 97f2 97bd 16de 4a3c 4f63 aa3c
00000180: 694a d93b 6a0d 60ba 9e2d 903c 90c1 cd3b
00000190: da83 ffba 071b 2f3d 7b6a 2e3c ee55 1b3d
000001a0: f8dc ad3b 9275 933d a263 813d 6304 2cbd
000001b0: 93e5 3b3c fbe5 52bc 3b50 903d 3042 403d
000001c0: 906d 33bb 5d2e 0abc c4aa 5d3d d951 09bd
000001d0: 6604 8f3d 790a b03c b2af fc3c 7603 703c
000001e0: 9d09 52bb 84ee bd3c a64a f83b 57ae e3bc
000001f0: 270f 253d 6748 943c 36d4 38bc 559e 30bd
00000200: cd20 353d df8a ae3d 838d 7a3c 576e 1ebb
00000210: 4740 4abc fc0f a43d 8d18 fc3c 7d80 ff3c
00000220: 0b58 75bd a116 d0bc 0d0c 20bd b55a 45bd
00000230: 400e 0d3c f9b3 dcba 935b 35bd 605d 1e3c
00000240: a196 773d 87f5 3f3d cb4a a6bc 668f 1cbc
00000250: 4831 9b3a ddeb 84bd e106 973d a58a 193d
00000260: d04a 673d 484c b83c d4dc 643c c841 26bc
00000270: 09a1 463c f1bd ac3d f27d 823c 17f6 473d
00000280: a908 1fbd a81e 0e3d 2a36 ca3c 812c 9abd
00000290: 40c5 a5bd 40da 91bc c361 db3b 0d7b 943d
000002a0: e673 493c 7958 aebc 5ab6 40bd 90ce 383d
000002b0: b69f 5ebb 5a4b 05bb 0aea 043c 6d08 dfbc
000002c0: 1940 09bd cf73 5a3d 0334 5b3a f18e cfbc
000002d0: 7f1e 29bb dc34 66bd f4a3 c13c e498 8b3d
000002e0: d4b5 193b e6f0 09bd 5da1 343d 6025 ff3b
000002f0: 87a9 2d3d 9aa5 3a3d db4e 2cbd 948b bbbb
00000300: 1491 94bc 7e4e c43c b418 2ebd 7235 63bd
00000310: e71c fe3c bb3b a03c 9baf 553d 6945 6a3c
00000320: b3b2 3c3c 9637 aabd 83be d9ba 8031 ecbc
00000330: 9fca 953d 7e65 54bd 4689 b6bc fac8 843d
00000340: 33ca 083d fe9c adbd 4de0 ae3b fbc6 7dbd
00000350: 867f cdbc cef2 08bd b702 93bd db66 f4bc
00000360: 67c3 03bd cc63 a43b 3eaa 963b 2214 f6bc
00000370: 354e 923b ff78 98bd c66d 7c3c f0d3 57bb
00000380: 0678 193d b613 81bd 83d8 0f3d 0a60 f6bb
00000390: c8ff 3e39 fe8d 08bd 2d8d 80bc 7eb0 1bbd
000003a0: 0c1a 343c 7361 95bc 51c9 1bbd 9aa2 563d
000003b0: 05c4 24bd 803a cf3c b3c3 76bd d95d 0dbd
000003c0: cf6e b5bc b396 dd3c 244b 2f3d ad9a aabd
000003d0: 5b65 8cbd aa74 14bd 127e 0f3d 7465 aa3c
000003e0: 66bc 643c 55f8 d6bc 3f70 dc3c d13e 81bb
000003f0: 58b2 423d 5d25 7c3c 0c84 613d 6315 ae3c
-0.03872469 -0.052359674 0.029960213 -0.043950174 0.016589902 0.007376639 -0.0038402579 0.036343217
0.012473833 0.029478062 -0.05393717 -0.07729761 -0.035607938 0.004646562 -0.04916458 0.0521611
-0.011973827 0.01780238 -0.019582393 -0.050608017 -0.049066838 -0.024390215 0.04191051 -0.02670543
0.08451355 0.024685796 -0.055799432 0.027739748 -0.05712531 0.008121682 0.0414859 0.029882705
0.0745322 -0.062934324 -0.058130194 -0.006992111 0.00061238965 0.050098877 -0.029516578 -0.036136035
0.0024146417 -0.0037418834 -0.011769997 -0.0482135 -0.03103692 0.03699242 -0.07846038 0.019916004
-0.031593233 0.036624305 -0.036367826 0.060050078 -0.0053512603 0.005513342 0.0291781 0.023713302
0.052695476 0.0369018 0.011064255 -0.02327885 -0.02686347 0.028520377 0.014496852 0.03191416
0.024224605 0.026828637 0.05085594 -0.052257545 0.054819223 -0.03395492 0.008225995 0.01350946
-0.049726736 -0.02903275 0.043668885 0.046425827 -0.0072514126 -0.024134783 0.02811068 -0.024949634
0.058577556 -0.08518019 0.036831085 -0.000891249 0.05651071 0.063890725 0.038674507 -0.041241385
-0.004786836 0.01165039 -0.031480547 -0.042125575 -0.030446814 -0.07419317 0.012382051 0.020799307
0.006631185 -0.0008546921 0.017599877 0.006279178 -0.0019494251 0.042750385 0.010645504 0.037923746
0.0053058825 0.07200159 0.063178316 -0.04199637 0.011468309 -0.012872214 0.07046553 0.04693812
-0.0027378537 -0.008433905 0.054117933 -0.03352532 0.06983261 0.021489369 0.030845497 0.014649263
-0.0032049187 0.023185022 0.007577258 -0.027793093 0.040297654 0.01810093 -0.011281064 -0.043119747
0.044220734 0.08522581 0.015292528 -0.0024174654 -0.0123444265 0.08010861 0.030773425 0.031189198
-0.059898417 -0.025401415 -0.039073993 -0.048182208 0.0086093545 -0.0016838304 -0.044276785 0.009665817
0.060446385 0.046865012 -0.020299336 -0.009555673 0.0011840248 -0.064903 0.07374359 0.037485737
0.05646783 0.022497311 0.013968665 -0.010147519 0.012123355 0.08434666 0.015929196 0.048818674
-0.03882662 0.034697205 0.02468403 -0.0752802 -0.08094263 -0.017804265 0.0066950037 0.072500326
0.012295699 -0.021282421 -0.047048904 0.04511887 -0.0033969707 -0.0020339102 0.00811244 -0.027225697
-0.033508394 0.0533331 0.00083619374 -0.025336714 -0.002580553 -0.056202754 0.02363775 0.06816271
0.0023454325 -0.033677004 0.0440992 0.007786438 0.042398002 0.045568086 -0.04206739 -0.005723426
-0.018135585 0.02396321 -0.042504027 -0.05547089 0.031019641 0.019559732 0.052169424 0.014298775
0.011517215 -0.083113834 -0.0016612563 -0.028832197 0.073140375 -0.051854603 -0.022282254 0.06483646
0.033395957 -0.084772095 0.0053367973 -0.06195734 -0.025085222 -0.03343468 -0.07178252 -0.029834202
-0.032168772 0.0050167795 0.004597931 -0.030038897 0.0044648894 -0.07444953 0.015407031 -0.003293272
0.03746798 -0.06302588 0.03511859 -0.007518773 0.00018215098 -0.03333854 -0.015692318 -0.038010113
0.010992538 -0.018234944 -0.038033787 0.052401163 -0.040226 0.02529645 -0.060245227 -0.03451333
-0.022147564 0.027049398 0.04279627 -0.08330283 -0.068552695 -0.036244072 0.03503234 0.02080033
0.013960933 -0.02624146 0.026908992 -0.003944256 0.047533363 0.0153897675 0.05505757 0.021250432

2.bias f4 [256]
00000000: dc3b b6ba ec34 ffba fce7 d6bc 092c 143d
00000010: e62a 303d fea6 a83c 73e5 aabb 3bbb a23b
00000020: 6273 773d 6765 5a3d 615f 59bc dbe3 61bc
00000030: 9e96 313c 3f02 633d 1e26 873d 78c9 5e3d
00000040: ae57 4c3a 8a08 5d3d 0aaa c63b 7a50 153d
00000050: f728 f13c 1e71 e23c ea95 713c 74f3 b3bc
00000060: dfcf 1abd 7ad8 013d a510 0e3d 721b 27bd
00000070: 5584 5bbb f754 58bc cd7b 123d e42e 8fbc
00000080: 1344 463d c950 b73c 7721 f93b da29 df3b
00000090: f50b 723d 1250 3fbd 4942 0a3d 21ff 6cbd
000000a0: c9b8 573d 92c0 183c 648f 2cbc 59c5 2b3d
000000b0: b855 45bd 29d7 3dbc 714f 41bd 88a3 563d
000000c0: e2ba 063d a6a5 883d adab 8a3d 4c42 90bb
000000d0: 82da 59bd eae2 b83c 82da 353d 63ab 34bc
000000e0: 9880 4fbc 1df2 aabc c219 983a 9f2c f53c
000000f0: 0d39 fd3c f6d2 213d 9ef0 d03c f28a 1ebd
00000100: dbbc 893d e80a b43b 26b6 263d d18d c0bc
00000110: 61b1 47bd 72ea 7a3d fdd3 b3bc e8a2 243d
00000120: a00d 303d d7ec 09bd 5ec2 1a3d 8f21 9b3c
00000130: 0276 1bbd 6a6f 33bd 04bc 203d 620e ddbc
00000140: e3b1 283c 49b0 6b3d 524e 213d 2e9c 423b
00000150: 7e86 55bc 3094 403d 87ca 623d 5f98 e6bc
00000160: 8e85 f93a 0241 3c3d 6893 22bd 43ff 12bc
00000170: 4b4f d33c 1ac4 19bd c5a4 81bb 2137 54bd
00000180: b404 13bb 42b2 2abd 9bfd 1bbd b936 5b3c
00000190: 44c6 833b dcc5 29bc 95a1 6a3c 4164 013c
000001a0: c3b8 3f3d 0350 e13c f3f8 bebc f5ea b6bc
000001b0: 1cbd 793d 6c6d 1fbd 704a 733d 2778 14bd
000001c0: 9e8d c1bc 8563 60bd ca55 313d 7cf9 2ebd
000001d0: 93cc 173d 3d10 60bd 7056 8e3c be63 993d
000001e0: 0dc2 233d 749e 3e3d 049e 713d 15c6 6d3d
000001f0: a9de c13c 24de 6a3d ea3f f63a 89e8 2fbc
00000200: adf4 7bbc 8c1c 63bd 78a0 77bd 16f0 fcbb
00000210: bd60 fa3c f068 45bd 016a 50bd f7d8 ac3c
00000220: 315c 153c dea1 19bd 3eba 2e3d 829e a5bc
00000230: b71b 413d c1b9 80bd a992 4a3d ab3e 563d
00000240: f682 05bd f090 063d 2590 583d ce1a 62bd
00000250: 3373 043d 7ad0 6b3d 5bbc cd3c 06b4 97bc
00000260: 0454 44bd 1e14 b13b d313 08bd 409b 2cba
00000270: 5ec1 20bd 10cf 5bbd d518 1e3d 62ca 19bd
00000280: b492 933b 7091 3cb8 6fed ad3b b7d6 71bc
00000290: 1cfe f63c e7bf c93b 7f14 04bd c0f5 d93c
000002a0: 9ad9 823b ceec b43c cec4 0abc 2d66 133d
000002b0: 2ce1 e5bc adb1 f2bc db21 39bc efe6 55bc
000002c0: 6569 003d bccb 55bb 1e2b 323d 8b24 3fbd
000002d0: 3466 d2bc 76cb f33b 218a 053b 88e4 43bd
000002e0: e21a db3c 33c5 cc3c 2729 66bd 2a3f 15bd
000002f0: 329b 29bd 2ea0 4b3d dcb5 313d 99dd 443d
00000300: 98bd 323d 23c8 96bc c94a 973c 8395 313d
00000310: c661 83bc 7fd3 60bc 79d1 513d 23a5 fe3c
00000320: e390 2dbd 2ede 953c ddb9 46bd c64c a8bc
00000330: 9d06 21bd 8006 6c3d 2092 013d 9d5d 403d
00000340: 02d1 b4bb 3120 5d3d ba55 0bbc 8c0e ad3b
00000350: ac0c e8bc e0da 50bd 2528 0abd 61d4 4cbc
00000360: fcc2 8a3d f661 e2bb 4b2a a2bb 409d 82b7
00000370: 7217 23bd 1f61 d1bb 904d 0bbc b38a 8dbc
00000380: ceeb 073d 271c 00bd 80ad 203d 8779 54bd
00000390: 2afa c2bc 890b 1ebd 13f7 4ebc 7ec8 453c
000003a0: fde7 623d 6744 6c3d 0730 59bd c489 073d
000003b0: 707d 8e3c 5c79 1f3d c2c8 b13b 533b 8f3c
000003c0: 021e 1bbd e3b0 50bd 4ad5 813b d72a b93c
000003d0: be20 39bd a829 2ebd 46a9 c43c 478b 39bd
000003e0: 7baa 57bd f8cf 09bc c375 623d d652 1fbd
000003f0: d5f3 4e3d 091a 24bd efc7 253c 835f 2b3d
-0.0013903338 -0.0019470728 -0.026233666 0.036174808 0.04300966 0.02058744 -0.0052153408 0.0049661673
0.060412772 0.05331936 -0.013267369 -0.013787235 0.010839133 0.055422064 0.06599067 0.054391354
0.0007795048 0.05396322 0.0060627507 0.0364537 0.029438479 0.02764183 0.014745215 -0.021966673
-0.037795898 0.03170059 0.034683842 -0.04079766 -0.0033495624 -0.013203851 0.035762597 -0.017478414
0.048404764 0.022377389 0.0076028663 0.006810409 0.059093434 -0.04670722 0.03375462 -0.057860497
0.05266646 0.009323256 -0.010532234 0.041936252 -0.04817745 -0.011586943 -0.0471949 0.05240205
0.03289307 0.0667222 0.06771026 -0.0044024345 -0.0531869 0.022569139 0.04439784 -0.01102719
-0.0126649365 -0.020867402 0.0011604356 0.029928504 0.030910993 0.03950783 0.02550536 -0.038706727
0.067254744 0.005494464 0.040701054 -0.023505123 -0.048753146 0.06125874 -0.02195167 0.040194422
0.042981744 -0.033673134 0.03778302 0.0189369 -0.037954338 -0.043807425 0.039241806 -0.026984397
0.010296318 0.057541166 0.039381333 0.002969514 -0.013032554 0.047016323 0.055368926 -0.028148828
0.0019036995 0.045960434 -0.03969136 -0.008971992 0.025794646 -0.037540533 -0.0039564096 -0.051810388
-0.0022433223 -0.041673906 -0.038083654 0.013379746 0.004021438 -0.010362115 0.014320751 0.007897438
0.046807062 0.027503973 -0.023312068 -0.022328833 0.060971364 -0.038922712 0.05939716 -0.0362474
-0.023627099 -0.05478241 0.043294705 -0.042718396 0.03706033 -0.054702986 0.017375201 0.074897274
0.039979983 0.04653783 0.058988586 0.058050234 0.023665743 0.057340756 0.0018787358 -0.010736593
-0.0153781595 -0.055447146 -0.06045577 -0.00771905 0.030563707 -0.04819578 -0.050882343 0.02109955
0.009116218 -0.037507884 0.042658083 -0.020217184 0.04714557 -0.0628543 0.049456272 0.05230586
-0.032595597 0.032853067 0.052871842 -0.055201344 0.032336425 0.057571866 0.025114229 -0.018518459
-0.047931686 0.0054040095 -0.03322203 -0.00065844133 -0.03924691 -0.053664267 0.0385979 -0.037546523
0.0045035724 -4.4958142e-05 0.0053078453 -0.014760665 0.030150466 0.0061569097 -0.03224611 0.02660644
0.0039932253 0.022085574 -0.008469773 0.035986114 -0.028061472 -0.029625738 -0.011299576 -0.013055547
0.031350512 -0.0032622656 0.04349815 -0.04666571 -0.0256835 0.007440026 0.002037652 -0.047825366
0.026746217 0.024996376 -0.05619159 -0.03643719 -0.04140777 0.049713306 0.043386325 0.048062894
0.043637842 -0.01840598 0.018468278 0.043355476 -0.016037833 -0.0137223 0.05122516 0.031084603
-0.042374503 0.01829442 -0.048517097 -0.02054442 -0.039312948 0.057623386 0.031633496 0.046964277
-0.0055180797 0.05398578 -0.0085043255 0.005281275 -0.028326355 -0.050989985 -0.03372969 -0.012501807
0.067754716 -0.0069086505 -0.0049488894 -1.5570433e-05 -0.03981728 -0.0063897516 -0.008502379 -0.017278051
0.033183865 -0.03127685 0.039227962 -0.05187371 -0.023800928 -0.03858522 -0.012632149 0.012071727
0.055397023 0.05768242 -0.053024318 0.033090368 0.017393798 0.038934097 0.0054255435 0.017484343
-0.037870415 -0.050949942 0.0039621936 0.022603435 -0.04519724 -0.042520195 0.024006497 -0.04529884
-0.052652817 -0.0084114 0.055288088 -0.038897358 0.050525505 -0.04006389 0.010118469 0.041839134

4.weight f4 [128, 256]
00000000: 89b0 3ebd 560e 063c 93de 25bd eb6f e83c
00000010: 6557 883d e4d6 ed39 4b1f 62bd 690b 553d
00000020: e209 433b 70ca c2bc d01e 6b3d fedc 793c
00000030: 4bc4 adbc 3c13 45bc 8212 4bbd d22b adbd
00000040: f8c7 7abd 47d3 033d df0f bdbb a04b 79bc
00000050: b765 d93c 878e 153d 2e22 1cbc 5fe1 353d
00000060: 77bd d03c 9089 a33d 1fc3 40bc 07b7 90bc
00000070: 1865 3a3d 3be0 e1bb 9bf5 98bd b2a3 6ebd
00000080: 623c 5d3d 2136 87bb b71a a13d 3d94 393d
00000090: 718c 1e3d 62a6 13bd 2b93 213b f271 883d
000000a0: d543 7f3d 9458 473d 8447 eabc 40ae 32bc
000000b0: 278a bf3c 81d9 92bd 572c 3d3d 21a7 ba3c
000000c0: f102 4b3d 253e 103c 3618 2f3d b89a 0fbc
000000d0: 66ce 40bd 9151 483d a0ef 523c e996 b13c
000000e0: 5faa 9b3c 49f4 dabc 7faa 7c3d 1045 0ebd
000000f0: 6070 1dbd b76a eb3b b90d 5fbd f8db 14bd
00000100: dc59 2a3a e6a5 a23d 5cba a73c d45c 413d
00000110: ef4b 31bd 541c 0cbd bdcf 163d 8363 45bc
00000120: 5d6b b9b9 94c2 853d 4305 39bd 049e 6ebd
00000130: 067f 613d 775e 9f3d 760b 31bd 6d53 02bc
00000140: 2d8c e4bc cfed 9e3c 6d64 5c3d 249b 6fbd
00000150: bcd5 9b3c 266b 8f3b 83a7 603d 586a 8c3d
00000160: 2413 2dbd 0afc be3c 9a0f 08b9 9b7d 2c3d
00000170: 4182 0a3c 79ea 4dbd f39b d63c f985 f73c
00000180: d8a2 aabc 60a9 093d cefc 81bd 3b5b 033d
00000190: 6b78 1cbd dfc7 1fbc 48d3 0d3d 0dfb 9e3d
000001a0: c3ee 023d 1d3f 13bd 8a6b fd3c 181a 9f3d
000001b0: 4b45 cdbc 7634 0cbd ab16 d03c 6d67 693d
000001c0: 869c 7e3d 0752 d8bb a91a 5f3b 95ef 99bd
000001d0: 4e62 213d 402d 203d 675f 6fbd 2e47 693d
000001e0: fdf3 03bc 0462 683c a830 f03c 859c 28bd
000001f0: 480c 473d b744 403c 29fc 14ba 0027 78ba
00000200: 1114 2b3d 3136 4cbd c944 3dbd fb82 533d
00000210: 399e 46bd 7ea9 fcbc 15e5 40bd aaef dc3c
00000220: ac7a 0c3d a075 bd3b 20cb 063d e30a 8a3d
00000230: 589a 4abd f39e 36bd af42 5cbd eba7 103d
00000240: 8d70 1bbd 431d d0bb 89af 43bd fcca 26bd
00000250: 8c12 103d 0358 e23c dc43 a2bd e5ce 073d
00000260: a152 293b 1407 5ebc 10b6 503d ebad 1d3d
00000270: f8dd f63c ce56 a63c 31f5 e03c 3caf 0f3d
00000280: 2800 bd3c ad41 9d3b 7977 c2bc 5d0a 13bd
00000290: 2087 8b3c f4c0 5bbd 8f72 37bc cb19 dc3c
000002a0: d027 573d 7b43 2bbd 8a68 9a3b b10c dfbc
000002b0: c94c f1bc 06e1 723d 1c2a 173d d67e 883c
000002c0: 16f9 913c f30e ddbc 0418 eebc fcd6 45bd
000002d0: 3ea6 2b3c a5cc c8bc e51a 15bd 94ac c03c
000002e0: f4b4 553d 517a 83bd 0580 c2bd 8e77 08bd
000002f0: 9384 b23d 7b4f 7f3c 1c26 19bd d2e6 b1bc
00000300: 185b debb d310 37bd 8790 39bd 1011 06bd
00000310: c17a 6abd 87ca a9bc f86d 8639 6e27 393d
00000320: 59f1 68bd 4350 a8bc d3cc 203d 3f80 7bbd
00000330: 5f9d 13bd 33fc 63bc 9bde 123b 2f2a a6bd
00000340: d96e 9ebd 85d1 853d 0783 95bd c798 a3bd
00000350: 151b c8bc f7ae a5bc 39c7 70bd 52ab 673d
00000360: 62c1 183d e3f7 50bd ee03 78bd c80e 12bd
00000370: 10b5 d43c abb9 943b c721 603c 674e 90b8
00000380: aaed 3f3d fe95 8bbc 4c1a b43c e5d8 81bd
00000390: 037a 40bd 8ca7 77bd b8ea f93b 3db8 cfbb
000003a0: abc0 953d 6239 bf3c 54b1 453d dbdb f5bc
000003b0: 98af 2e3d 0c3a 2a3c 1ba4 083d 08e9 813d
000003c0: e365 cf3c bc7b 8cbd 9326 86bc b62c 543d
000003d0: 728c c1bc ffd3 383d ac72 24bd 2348 503c
000003e0: cfde 06bd 420f b83c 90b0 5cbd 75f2 123d
000003f0: 9c1a 393b f633 043d 62ec 473d 0ac5 49bb
-0.046555076 0.008182129 -0.040495466 0.02837368 0.06657294 0.0004536427 -0.055205625 0.052012835
0.002976053 -0.02377817 0.057402432 0.015250443 -0.021211764 -0.012028512 -0.049578197 -0.08455624
-0.06122586 0.03218391 -0.0057697142 -0.015215784 0.02653776 0.036512878 -0.009529633 0.044404384
0.025480969 0.07985222 -0.0117652705 -0.0176654 0.045506567 -0.0068931854 -0.074687205 -0.05826158
0.054012664 -0.0041263257 0.078664236 0.045307387 0.038708154 -0.036047347 0.002465437 0.06662358
0.06232055 0.04866846 -0.028598554 -0.010905802 0.023381306 -0.07170392 0.046184864 0.022784771
0.049563352 0.008803879 0.0427477 -0.008764915 -0.047071837 0.048905913 0.012874514 0.021678405
0.019002138 -0.026727812 0.061686035 -0.034733832 -0.038437247 0.0071843523 -0.054456446 -0.03634259
0.00064983754 0.07941799 0.020474605 0.04720767 -0.043285307 -0.034206703 0.03681921 -0.012047651
-0.00035365942 0.065312535 -0.045171034 -0.058256164 0.05505278 0.077816896 -0.04322382 -0.007954461
-0.027898872 0.019400505 0.05380671 -0.058497563 0.019022815 0.0043767868 0.05484725 0.06856221
-0.042254582 0.023313541 -0.00012975783 0.042111974 0.0084539065 -0.05027244 0.02619741 0.03021525
-0.020829603 0.033608794 -0.06347047 0.032069426 -0.038200777 -0.009752243 0.03462532 0.07762728
0.031965982 -0.03594886 0.030935068 0.07768649 -0.025057456 -0.03422972 0.025401434 0.0569834
0.06216099 -0.0066015753 0.003404299 -0.075164 0.03940039 0.039105654 -0.058440592 0.056952648
-0.008053777 0.014183525 0.029320076 -0.041164894 0.048595697 0.011735133 -0.0005683327 -0.00094662607
0.041767184 -0.04985637 -0.046208177 0.051638585 -0.048490737 -0.030842539 -0.04709347 0.02696975
0.034296677 0.0057818443 0.03290856 0.06740358 -0.0494636 -0.04458518 -0.053774532 0.03531639
-0.037949134 -0.0063511445 -0.047774825 -0.040720925 0.035173938 0.027629858 -0.079230994 0.033156294
0.0025836604 -0.013551492 0.05095488 0.03849594 0.03013514 0.020305064 0.027460666 0.035079226
0.023071364 0.004799089 -0.02373861 -0.035898555 0.017032206 -0.05365081 -0.0111967465 0.026867768
0.052528203 -0.0418124 0.004712169 -0.027227731 -0.02945556 0.05929663 0.036905393 0.016662043
0.017818969 -0.026984667 -0.029064186 -0.04830073 0.010476647 -0.024511645 -0.0364026 0.023519792
0.052174523 -0.064198144 -0.09497074 -0.03331714 0.08716693 0.015582914 -0.03738986 -0.021716509
-0.0067857616 -0.04469378 -0.045303848 -0.032731116 -0.057245973 -0.020726455 0.00025640405 0.04520362
-0.056870792 -0.020546084 0.039257836 -0.061401602 -0.036038753 -0.013915109 0.0022410515 -0.08113515
-0.07735986 0.06534103 -0.07300382 -0.07988124 -0.024426976 -0.020225031 -0.058783744 0.05655987
0.0372938 -0.051017653 -0.060550623 -0.035658628 0.025965244 0.004538735 0.013679928 -6.881059e-05
0.046857513 -0.017039295 0.021985196 -0.063401975 -0.04699136 -0.06046252 0.0076268576 -0.0063391016
0.07312139 0.023342792 0.048264816 -0.030012062 0.042647928 0.010389816 0.03335963 0.06343275
0.025317138 -0.06859538 -0.016375815 0.051800452 -0.02362654 0.04512405 -0.040148422 0.012712511
-0.03292733 0.022468213 -0.05387932 0.035875756 0.002824462 0.032276116 0.048809417 -0.003078761

4.bias f4 [128]
00000000: 4d1c 29bd f66d 3abd 645f 11bd 35c5 b13c
00000010: f6c8 6c3c 8578 38bc 9100 733d 3198 403c
00000020: 96b7 173d 69b0 4bbd 260a 7abd dbe0 b1ba
00000030: b111 84bc 224b a1bc 52e5 b63c ba85 443d
00000040: 5e3c 16ba 0901 37bd 0526 5ebd 2f4a e6bc
00000050: 7919 83bc ad04 043d 05f3 433d 853d da3b
00000060: 9b30 8ebc 3cc7 ee3c 6d33 703c 268e baba
00000070: 2393 3fbd 47a1 033d b754 7abc f6b5 7f3d
00000080: 6f1a 9abc 5a25 3d3d 4511 12bd ca9b 4e3d
00000090: e454 55bd 8fdb 2c3c 09f0 953a 3a15 113c
000000a0: e076 cb3a c331 323d 8cb3 863c de89 153d
000000b0: c19c 88bb 2503 f33c 51f2 6fbd bd8c 6abd
000000c0: 5f1d 7d3d 63b0 5fbd 74bf 873d da73 a53c
000000d0: 6189 363c 9e12 2e3d 9fbb bebc d63a 243d
000000e0: 3510 6e3b 17dd 29bd a694 fbbc f5a2 f2bc
000000f0: 8d96 2f3c a9b5 24bd 9427 853d a6c0 d6bc
00000100: a51f 2c3d 95da 133d 65b0 3c3d fa78 eabc
00000110: b1fd 33bb 48d8 d0bc 3844 18bd 2666 30bd
00000120: 9e20 3cbd 3754 253d 2c44 3cbd cd10 173d
00000130: 7724 65bd 3398 023d 2a35 993b 9e4f 4c3d
00000140: db8c 693c 71c9 54bd 5419 86bc 54ba 03bd
00000150: 5e12 7cbd 3208 62bd 4961 7d3d fd1e 5c3d
00000160: 75a7 2c3d b03e 693d 3d9c cebc e2a8 323c
00000170: 9d4c f73c 25e4 053d 6733 b33a 0fad ba3c
00000180: 7992 1ebc 3538 3fbc 6a21 863d bfab 713d
00000190: 88c0 02bd 3580 203c 46d7 703d f6ea c33c
000001a0: 2b90 aebc 64fc 81bc c67f 2f3c 3076 393d
000001b0: 2597 aa3c 80e1 45bd 1b46 f33c 475e 3f3d
000001c0: 35d7 303d eb70 073c 74f8 963d 6cc7 6dbc
000001d0: f0df 85bd 994a a73c 4a74 61bd 8093 103d
000001e0: 6769 4abd 8070 25bd 0343 353d 4b15 bcbb
000001f0: 9512 b63c 5dcb 433b adb4 7ebc aa55 203d
-0.041286755 -0.045515023 -0.035491362 0.021700481 0.01445221 -0.011259203 0.059326712 0.011755035
0.037040316 -0.049728785 -0.061044835 -0.001357104 -0.016121717 -0.019689146 0.022326145 0.047979094
-0.00057310413 -0.04467872 -0.054235477 -0.028111545 -0.016003357 0.03223102 0.047839183 0.0066601657
-0.017357161 0.029147737 0.014660698 -0.0014233037 -0.04677118 0.032136228 -0.015278987 0.06242939
-0.018811433 0.0461782 -0.035661 0.05044154 -0.05208291 0.010550394 0.0011439334 0.008855158
0.0015523098 0.043504488 0.016443036 0.036508434 -0.004169077 0.029664585 -0.0585807 -0.057263125
0.06179559 -0.054611575 0.06628314 0.020196844 0.011141152 0.042498223 -0.023282824 0.040095173
0.0036325578 -0.041470613 -0.03071053 -0.02961872 0.010717046 -0.040212307 0.065016896 -0.026214909
0.042022366 0.036097128 0.04606666 -0.02862214 -0.0027464444 -0.025493756 -0.037174433 -0.043066166
-0.045929544 0.040363517 -0.04596345 0.036881257 -0.05594298 0.03188343 0.004675527 0.049880616
0.014254774 -0.051949922 -0.0163695 -0.03216012 -0.061540954 -0.055183597 0.061860356 0.05374049
0.042151887 0.05694455 -0.025220985 0.010904523 0.0301879 0.03268828 0.0013671935 0.022787599
-0.0096784765 -0.011671116 0.06549342 0.05900168 -0.031921893 0.009796192 0.05879905 0.023915749
-0.021308979 -0.01586742 0.010711616 0.045278728 0.020824024 -0.048310757 0.029696515 0.04672077
0.043173987 0.008266668 0.073716074 -0.014512878 -0.06536853 0.020421313 -0.055042543 0.035296917
-0.049416926 -0.04039049 0.04425336 -0.005739843 0.022225657 0.0029875853 -0.015546006 0.039144196

6.weight f4 [128, 128]
00000000: 40b6 103d 8b51 af3d f69d 31bd 534a b3bd
00000010: 3244 acbd 1a34 72bd 80e5 043c 9038 85bb
00000020: c070 ddbc 2a8f 223d 1220 16bd c421 02bd
00000030: d481 8abd 39a9 2ebd 9a00 613d 807c 9aba
00000040: 52b1 f6bc acf4 c83c 4a6f a7bd a0a8 543c
00000050: 5c18 94bd fc9f fd3c 7af3 3f3d 442a 803c
00000060: 6bac b0bd fbf4 95bd a24e 663d e05f 053c
00000070: ef88 b4bd 30f6 653c f6ae 29bd f58a a43d
00000080: f230 473d 36f4 3c3d 98d5 6dbd 20fe f2bc
00000090: 6831 4dbc 31de b33d a076 bebb f2e1 6e3d
000000a0: 234d 60bd d710 963d 9e06 70bd b2bc 633d
000000b0: a4e8 ea3c 6ad5 8ebd 3d81 9b3d cdda 7bbd
000000c0: 8f44 aa3d 3dff 94bd f8f8 b63c 4113 25bd
000000d0: 15b5 68bd 530e a3bd 897b 13bd 1166 8e3d
000000e0: a8cd 14bc 9240 71bd 8848 9fbc 6fec b4bd
000000f0: ab6d 933d 98c5 903c 9d80 a33d 9024 1bbc
00000100: 86e6 86bd e875 25bd 8831 b3bd dca3 c83c
00000110: c624 683d 19a5 a53d 8e0a 47bd c8da 01bd
00000120: a09d da3b 50b5 9fbd 1031 1bbc 58c2 44bc
00000130: 6948 a9bd fe27 a6bd a338 3bbd ebfc a2bd
00000140: 20a6 2e3c b0b2 f13b 3542 b33d 29c2 2cbd
00000150: 0020 5dbc 6eef fbbc 01fe 68bd 45f6 aebd
00000160: 0051 483b bdd7 9c3d b73d 84bd 8534 16bd
00000170: 4f57 903d 72c5 e6bc ec30 c2bc da33 093d
00000180: a866 a5bd 21d6 8c3d 0e9b 4f3d 6825 803c
00000190: f6f8 173d e771 43bd a087 033d 966d 95bd
000001a0: b89c d03c dcc5 923c 044e e03c 6028 813c
000001b0: 11e6 8c3d 5eca 81bd 6e21 79bd 285d 9dbc
000001c0: 4f76 abbd f6f8 96bd 6224 273d 4021 b6bc
000001d0: 2285 0dbd 68f6 133d 990e a8bd a044 293b
000001e0: 7390 9f3d 5e39 aabd 1019 bc3b 3a59 4c3d
000001f0: 1448 77bd 6840 4d3c e157 0dbd e3dd 993d
00000200: af0f 89bd 5720 8f3d c379 25bd ef38 a83d
00000210: c921 3cbd abd3 1f3d 4f9a 30bd 0573 aa3d
00000220: 71cc aebd 4dd9 d2bc b08f 863d 33b5 ed3c
00000230: 0e60 f0bc 6a5d 113d 3e23 95bd 5511 18bd
00000240: 6aae 3f3d 8ed8 acbd a917 a03d 4133 b93b
00000250: de26 49bd f73b a73d bade 35bd f051 3a38
00000260: b5e8 313d d7e0 66bd 5305 a73c 5871 0abd
00000270: 8ea3 283d 665e 673d b541 4fbd 9680 aa3d
00000280: e250 2d3a 5396 103d f7bb cf3b 3389 3dbc
00000290: 4ccb d8bc 4585 9ebd 2e48 533d 819c 3ebd
000002a0: 4c95 4dbd 3c69 913d 03f7 473d 2382 473d
000002b0: 7bed c83c fb36 77bd 0cc9 6a3d c54f 973d
000002c0: 54dd ad3a fa36 ab3b 63fd 98bd 44f6 9c3d
000002d0: d0a9 113d a9e3 d0bc 56d6 dc3b 3366 59bc
000002e0: 6c0e 72bd 4cf8 9ebd 5449 87bd 6634 733c
000002f0: 43c8 86bd 4397 e0bc 60fb 1c3d 48d9 fdbc
00000300: 1b9c 8cbd 816b 82bd 5117 a43d a9f3 0b3d
00000310: d8b6 723b 663a 93bd 99a3 863d 9953 babd
00000320: 9419 a13d 8053 adbd b07b aabd c291 b93c
00000330: ebad 313d 4ef4 963b a0b7 c9bc 524a 93bd
00000340: d99e eebc 594d 6f3d 44a0 a73d e78d b0bd
00000350: 8fe8 af3d bcbc 5ebd 12e9 103d b7f7 703d
00000360: 6fd3 babc d70e 7d3c fdce b6bd f16a 61bc
00000370: 0f1a 08bc 757b e0bc 129c 96bd 998c e9bc
00000380: 18c9 8b3d f8d3 773d f2f2 84bd a933 40bc
00000390: fbe3 a33c 770d 91bc 16a7 b63d 832c 4dbd
000003a0: 5fdd 863d 52ae 5cbb 40ad 4a3d 114c d43c
000003b0: eabc a7bc ba97 0ebd cd64 fc3c bf1d a23d
000003c0: 1f30 cabc 8126 adbd 7482 78bd e954 433d
000003d0: f433 f73c ea01 003d 18ad 94bd 4973 57bd
000003e0: a767 89bd 3a81 b43d 6fd1 9abd e124 01bd
000003f0: 5776 22bd d333 9d3d b6a3 b2bd 83af 10bd
0.035330057 0.08560475 -0.043363534 -0.087544106 -0.08411445 -0.05913172 0.008111358 -0.0040655807
-0.027031302 0.039687313 -0.03665168 -0.031770483 -0.06763044 -0.042641852 0.054932214 -0.0011786371
-0.03011385 0.024530731 -0.081755236 0.012979656 -0.07231209 0.030960076 0.046863057 0.015645154
-0.08626636 -0.07322117 0.056227334 0.008140534 -0.088151805 0.014035746 -0.04142662 0.080343165
0.048630662 0.046131335 -0.058065027 -0.029662192 -0.012523986 0.08782614 -0.005812481 0.058320947
-0.054761063 0.07327431 -0.05860006 0.055599876 0.028675385 -0.06974299 0.075930096 -0.06148796
0.08313858 -0.07275245 0.022335514 -0.040301565 -0.05681332 -0.079617165 -0.036006484 0.06953061
-0.009082235 -0.05889947 -0.019443765 -0.08834159 0.07198652 0.017672345 0.079835154 -0.009469166
-0.065869376 -0.040395647 -0.08749682 0.024492197 0.056675695 0.080881305 -0.04859405 -0.031702787
0.0066716224 -0.077982545 -0.009472147 -0.012009226 -0.08265764 -0.08113097 -0.04570831 -0.079583965
0.0106597245 0.0073760375 0.08752862 -0.042177353 -0.013496399 -0.030753817 -0.056882862 -0.08543066
0.0030565858 0.07658336 -0.06457084 -0.03667118 0.07047903 -0.028170321 -0.023704968 0.033496715
-0.08076221 0.06876779 0.05068498 0.015642837 0.037102662 -0.047716048 0.032111764 -0.072962925
0.025465354 0.017916612 0.02738095 0.015766323 0.06879819 -0.063374266 -0.060822897 -0.01920946
-0.08372175 -0.07371704 0.04080618 -0.022232652 -0.034550793 0.036123663 -0.08205909 0.0025828257
0.077912234 -0.08311723 0.0057402924 0.04988978 -0.060371473 0.012527563 -0.034507636 0.07513025
-0.066924445 0.0698859 -0.040399324 0.08213984 -0.045930658 0.03902022 -0.04311591 0.083227195
-0.08535088 -0.025738383 0.06570375 0.029017067 -0.029342677 0.035489477 -0.072821125 -0.037125904
0.046797194 -0.08439742 0.07817013 0.005651862 -0.049109332 0.08165734 -0.04440186 4.4422166e-05
0.043434817 -0.056366768 0.020388281 -0.0337995 0.041171603 0.05648651 -0.050599772 0.08325307
0.0006611479 0.03529961 0.006339546 -0.011568355 -0.026464127 -0.07740263 0.051582508 -0.046535973
-0.05019121 0.0710015 0.048819553 0.048708092 0.024527302 -0.060355168 0.05732064 0.07388262
0.0013264813 0.0052250596 -0.07470205 0.07664159 0.035562336 -0.025499182 0.006739418 -0.013268995
-0.059095785 -0.077622026 -0.06605783 0.014844036 -0.06581166 -0.027415877 0.038325667 -0.030987397
-0.06865712 -0.06368161 0.0801226 0.03416792 0.0037035253 -0.07188873 0.065741725 -0.09097976
0.07866207 -0.08463192 -0.08324373 0.02265251 0.04337875 0.00460676 -0.024623692 -0.0719191
-0.029128479 0.058423374 0.08184865 -0.08620816 0.08589279 -0.05437921 0.035378523 0.05882999
-0.022805898 0.015445433 -0.08926199 -0.013758407 -0.008306994 -0.027402619 -0.07353987 -0.028509425
0.06825465 0.060504884 -0.06491651 -0.011731067 0.02000617 -0.017706616 0.08918588 -0.050091278
0.06585192 -0.003367324 0.04948163 0.025915178 -0.020475823 -0.034812666 0.030809784 0.0791583
-0.024681149 -0.0845461 -0.060671285 0.0476884 0.03017614 0.031251825 -0.072595775 -0.05260018
-0.06709223 0.088137105 -0.075594775 -0.03152931 -0.03966364 0.076759 -0.08722632 -0.03532363

6.bias f4 [128]
00000000: 5af6 f2bc cbbe cf3c 1538 903d a59b 2f3d
00000010: ec57 86bd 5e36 a1bd bd63 f7bc 3e89 00bc
00000020: 57ff ac3d 683a a73d 2fed 40bd 31bd fd3c
00000030: 3220 733d 6721 d93c 0da7 293d ab8c 823d
00000040: 4270 9a3d 2987 263d 2c9b 89bc 796f 17bd
00000050: bc62 c83c 3c5b 533d 8c0d 233d 6a4e 43bd
00000060: 9abb 1cbd 9f82 ae3d 4301 75bd 39c4 01bd
00000070: cfd8 99bd 2d7f 0f3d 2ca3 793a 9899 1ebd
00000080: 468e 08bd d732 163d 9608 923c 5943 8e3d
00000090: ca0a a23d 64ba 98bd 1d6a b0bc 757f 6ebc
000000a0: 6b2b 27bc cbd3 1dbd 3f5b ebbc cf99 fbbc
000000b0: 9eb1 bbbd 134a 513d f6ac acb9 a212 0f3d
000000c0: db80 a33c e067 c33c a82e c3bc b5b4 70bb
000000d0: fbdb 9f3d a1e8 ef3a bef3 8abd e6fc 07bd
000000e0: 8b22 853d b540 1abc d4a0 4ebc 123d 25bd
000000f0: d2eb 283c 7535 c53c 16a7 adbd 5bdd 563c
00000100: 7176 a7bd b3f6 bdbd 3b0f 523c 431a bf3c
00000110: 2ee5 02bd aa23 7abd 59e4 933d 88d9 85bd
00000120: 408c f3bc d319 a93d ed7e 54bc c840 8dbd
00000130: 039b 8a3d 37d9 aabd 4e83 36bd 0b7f 8bbc
00000140: 6cb0 0bb9 2a74 8a3d b728 853d 800e b7bd
00000150: 96fb a2bd e04d 5dbd 06bc b63c 59f6 343d
00000160: a535 963d 219f 193c aaa6 143d 765a 7d3d
00000170: dc92 c83c 33f6 2abb 135a 7e3d c039 fcbb
00000180: 612c 293d d136 52bd 34e3 6fbd d3f1 a6bd
00000190: 5f21 66bd 1186 6abc 7258 853d 10dc c13d
000001a0: 4328 aa3d 8bcf 993d 16d7 97bd a17c aabd
000001b0: c2b4 3cbd f8d3 b03d 8628 223c dfa7 fd3c
000001c0: 55ed 8d3d b9e2 a93b c251 7e3d d96b 9b3c
000001d0: a84b 7a3c 86d6 903d 0031 b7bb 39f4 f53c
000001e0: 10e1 7cbd 5fa3 093d 37eb c0bd 6e74 80bc
000001f0: 7c97 fd3c d521 bf3d 2ec2 0a3d 11cb 5dbc
-0.029658485 0.025359532 0.07041947 0.042873044 -0.065597385 -0.07871698 -0.030198926 -0.007845221
0.0844714 0.08165437 -0.047101196 0.030974003 0.059356876 0.026505185 0.041419078 0.063744865
0.07540943 0.040656243 -0.016797625 -0.036971543 0.024461143 0.05160068 0.03980784 -0.047682203
-0.03826485 0.08521008 -0.059815656 -0.031681273 -0.07512056 0.035033394 0.00095229107 -0.038720697
-0.033338808 0.03666958 0.01782636 0.06946439 0.07912214 -0.07457426 -0.021534974 -0.014556755
-0.010203223 -0.03853206 -0.028730033 -0.03071299 -0.09164737 0.051096033 -0.00032935262 0.03492988
0.019958904 0.023853242 -0.023825958 -0.0036728804 0.0780563 0.0018303582 -0.067847714 -0.033200167
0.06500729 -0.009414841 -0.012611587 -0.040341444 0.01031013 0.024073342 -0.08479135 0.013114299
-0.08176888 -0.0927557 0.012821014 0.023327952 -0.031956844 -0.06106917 0.07221288 -0.065356314
-0.029729962 0.08256879 -0.012969715 -0.06897122 0.067678474 -0.08342212 -0.044558816 -0.017028352
-0.00013321795 0.06760438 0.06501906 -0.089383125 -0.079581425 -0.054029346 0.022306453 0.044180248
0.07334451 0.009376318 0.036291756 0.06185385 0.02448409 -0.0026086688 0.06209762 -0.007697314
0.04130209 -0.05132181 -0.058566287 -0.08151593 -0.05618417 -0.0143141905 0.0651101 0.09465802
0.083084606 0.07510289 -0.07414071 -0.08324552 -0.04607082 0.0863418 0.009897357 0.030963836
0.06930033 0.005184498 0.06208969 0.018972324 0.015276827 0.07072167 -0.005590558 0.030023681
-0.061738074 0.03360307 -0.09419864 -0.015680518 0.030956022 0.09332625 0.03387659 -0.013537184
