models_3_500/checkpoint332.pth.tar (torch_old, 478255 bytes, 10 tensors)

0.weight f4 [256, 10]
000000 aa eb 57 bd 80 76 b2 bd 64 79 58 3e 6b c6 24 be
       -0.05271498 -0.08714008 0.21140057 -0.16091315
000010 6c 17 e5 3c c1 9a 3f be 65 cc 80 3e c0 a1 65 3c
       0.02796527 -0.18711378 0.2515594 0.014015615
000020 09 61 20 bd d8 9f 8c 3e 36 3a 1d 3e cb a1 8e be
       -0.03915504 0.274657 0.15354237 -0.27857813
000030 f1 01 5b be b4 83 32 3e 71 1d 0f 3e 5b e3 d1 be
       -0.2138746 0.17433053 0.13976075 -0.4099377
000040 18 41 96 bd 62 bc 65 be a2 f1 e7 bd 0a 1a 18 3c
       -0.073366344 -0.22435144 -0.11325385 0.009283552
000050 6d a6 a1 be 33 8d ae 3e 3b b0 66 3d 81 32 27 be
       -0.31572285 0.340921 0.05632041 -0.1632786
000060 d0 47 df 3d 4e 54 33 3d f0 a4 a8 3e 81 10 f3 bd
       0.10902369 0.04378157 0.32938337 -0.11868382
000070 21 3b 63 3d 49 53 61 3e d4 39 ce 3c 80 34 cd 3d
       0.05547631 0.22004427 0.025174059 0.10019779
000080 18 89 98 bc c6 db a2 bd 06 8d a0 be b1 c9 17 3e
       -0.018620059 -0.07952075 -0.31357592 0.14823033
000090 0f 39 87 3e 4d 09 3d 3e 80 c4 3d bd cc c3 fa bc
       0.2641072 0.18460579 -0.046329975 -0.030610941
0000a0 52 e0 dc bc 23 41 85 bb c2 08 9b bd de a3 c0 3c
       -0.026962433 -0.004066603 -0.0757003 0.023515638
0000b0 b0 02 92 be 3b 7f b1 3c bd 79 66 3d c3 54 85 3e
       -0.28517675 0.021667114 0.056268442 0.2604123
0000c0 f7 dd 2f 3e 0a c9 03 3b 2b b0 9e 3e 60 bf 88 3e
       0.17174517 0.0020108842 0.3099378 0.26708508
0000d0 18 b4 70 3d c4 ea de bd 2a 36 04 3e 71 a6 91 bd
       0.0587655 -0.10884622 0.12911287 -0.07111824
0000e0 97 4d 7b be 93 e6 f7 3d a1 ed 8b 3e ba bc 12 3e
       -0.24541317 0.121045254 0.27329734 0.14329806
0000f0 16 b5 53 3e 61 33 2e 3e b9 fa 94 be 17 ab 38 be
       0.20674548 0.17011787 -0.29097536 -0.18034016
000100 e4 e0 63 bd dc 14 d6 bd 11 2f a0 be 31 d9 98 3e
       -0.055634394 -0.10453197 -0.3128591 0.29853204
000110 f3 66 46 bd 91 98 99 be 05 94 85 bc 7e 2c 21 3e
       -0.048438024 -0.2999921 -0.016305933 0.15739629
000120 08 35 8b be 1c 70 ad 3e e7 eb dd 3d d1 68 8e 3e
       -0.27188897 0.33874595 0.108360104 0.27814344
000130 2c 22 52 3e eb 32 71 3e 06 4c 39 3e 39 60 a2 3e
       0.20520848 0.2355458 0.18095407 0.31714037
000140 43 af 28 be 68 91 a1 be f0 5f 83 be 93 e4 06 be
       -0.16473107 -0.3155625 -0.25659132 -0.13173132
000150 54 f5 96 be c1 81 64 3e f6 2f 10 be 4e 90 14 3e
       -0.29484046 0.22315122 -0.14080796 0.14508173
000160 62 0b f6 bd 7b d9 fd 3c 94 cc 3d bd 97 53 38 3d
       -0.1201389 0.030987492 -0.04633768 0.045001592
000170 17 50 a1 bd 18 4b 6a be c5 50 0f 3d 2f 91 ab be
       -0.07876604 -0.22880208 0.034989137 -0.33509204
000180 9f 89 e7 3c 27 fc 0e be 48 70 48 be cb b9 c7 3d
       0.028263865 -0.13963376 -0.19574082 0.09752234
000190 47 7c 38 be ac 3c 9c be db 7a 16 be 84 e3 b2 be
       -0.18016158 -0.3051504 -0.14695303 -0.34939206
0001a0 2e 7d 83 be 44 24 44 be ee 89 b3 3d 33 9a 69 3d
       -0.25681442 -0.19154459 0.087665424 0.05703182
0001b0 f8 46 01 3e e5 db 1d 3e 49 6f 69 3e df f6 ce bd
       0.12624729 0.15415914 0.22796358 -0.10105681
0001c0 e3 3d 91 3e cf 84 54 be a5 5f 36 be be 1d a1 3d
       0.28367528 -0.20753787 -0.17809923 0.07867001
0001d0 19 ba 95 3e 58 7a 38 bd a5 8c 5c bd be 87 f1 bd
       0.29243544 -0.04503855 -0.053845067 -0.11793469
0001e0 98 ee b4 3e 2a a2 21 bd ed dd 70 be e7 6a a4 3e
       0.35338283 -0.039461292 -0.23522158 0.3211281
0001f0 40 1a a6 3e ed 1e 5c be 10 f3 67 be e2 bd 49 bc
       0.32441902 -0.21496172 -0.22651315 -0.012313338
000200 c0 52 a4 3e f4 1a 7e be 00 b2 fb bc 98 96 5e bd
       0.32094383 -0.2481497 -0.030724525 -0.054342836
000210 af c9 02 be fd 79 1b be 45 05 85 be 40 a1 dd 3c
       -0.12772249 -0.15183254 -0.25980583 0.027054429
000220 2e 50 82 be 78 8b 11 bd a4 94 62 be 80 da 9e 3b
       -0.25451797 -0.0355334 -0.22127014 0.0048478246
000230 19 c2 9a 3e 11 44 6e 3e 8e d3 90 3e 26 82 8e 3e
       0.3022621 0.23268153 0.28286403 0.2783367
000240 5b 95 66 3e 4f ed ce 3d 5d b6 e6 bd 71 3a 81 be
       0.22517912 0.10103857 -0.11265252 -0.252399
000250 31 8f 48 be b4 c6 38 3e 48 48 8b 3d db 9a 78 3d
       -0.19585873 0.18044549 0.06800896 0.060694557
000260 bd d1 90 3e b8 55 3e 3c 6a 64 84 3e 6b 3a 0b bc
       0.28285018 0.011617117 0.2585786 -0.008497815
000270 1a a2 9b be 71 8e f7 bb c0 84 53 be 79 99 61 3d
       -0.3039711 -0.007554822 -0.20656109 0.055078004
000280 24 ea 91 3e 4a df 4a 3e 04 39 3c be eb ce 27 bd
       0.28498948 0.1981174 -0.18381125 -0.040968817
000290 9d 69 49 be e1 26 88 bd d0 17 93 3e 3d bf 2d be
       -0.19669195 -0.066480406 0.28729105 -0.16967483
0002a0 29 33 83 3d 91 48 ab 3c bb 83 3f be 74 3a 9a 3e
       0.064062424 0.020908626 -0.18702595 0.3012272
0002b0 1a 46 d5 3b 58 a7 3c be 77 fa ad 3e 84 f6 93 be
       0.006508601 -0.18423212 0.33980152 -0.28899014
0002c0 29 bc a8 bd 53 41 b6 bd c7 8b b0 3e 9c a8 51 3e
       -0.08239014 -0.08899178 0.34481642 0.20474476
0002d0 64 b7 8c 3d fa 1a bd 3d 18 26 b4 bd f8 e6 c0 3d
       0.068709165 0.09233661 -0.08796328 0.09419054
0002e0 aa 19 8f bd c1 34 e5 3d 64 3f 7a 3e 95 2b 39 3e
       -0.06987317 0.11191703 0.24438244 0.18083031
0002f0 eb 9d fc bd 59 e8 86 bd c8 80 9a 3e c5 b3 32 3e
       -0.12334808 -0.065872855 0.30176377 0.17451389
000300 4e cd 85 3e 4b ff 0c 3e a6 27 78 be 35 81 4d be
       0.26133198 0.13769262 -0.24233875 -0.2006882
000310 50 40 95 be 6f 1b 97 3e c4 b1 00 be 93 7f 4c 3e
       -0.2915063 0.29513118 -0.12567812 0.1997054
000320 6e 04 a6 3c e2 fa ed bd 42 97 55 bc 1a 42 17 3e
       0.020265784 -0.11620118 -0.013036551 0.1477131
000330 0b 60 a4 bd c8 b2 a8 3e dd 29 1b be 38 bc 35 3e
       -0.08026131 0.329489 -0.15152688 0.17747581
000340 12 33 bb 3c 0b 43 73 3c 58 eb 5e be b0 b9 bc bd
       0.0228515 0.014847527 -0.21769464 -0.092151046
000350 03 1c a0 3e 7e b7 41 be 4d 6e 3e 3e 5a 73 a2 3d
       0.3127137 -0.18917653 0.18596764 0.07932158
000360 55 b9 75 3e 5c ea d4 3d e3 9e 3d 3e 86 33 83 3d
       0.2399648 0.10396263 0.18517642 0.06406312
000370 52 50 89 3e 20 6a 07 be 57 28 15 bd aa d0 83 bd
       0.26819092 -0.13224077 -0.036415424 -0.06436284
000380 38 eb 7a 3e d4 3b b6 3d dd be a9 3e 3b 23 5c be
       0.24503791 0.0889813 0.3315343 -0.21497814
000390 59 04 21 be 60 1c 7c 3e b3 34 fc bc 56 b6 59 3e
       -0.15724315 0.24620199 -0.030786848 0.21260962
0003a0 40 49 cd bd ac 90 b0 bd 28 f4 38 3e 28 1c d4 bd
       -0.10023737 -0.08621344 0.18061888 -0.10356933
0003b0 29 8d a7 bc 5a 00 90 bd 20 2a 52 be 9a 66 73 be
       -0.020453053 -0.07031317 -0.20523882 -0.23769608
0003c0 69 84 5d 3e 3f b0 7b bb f3 13 83 be 2d 3b 78 be
       0.21632542 -0.0038404611 -0.25601158 -0.24241324
0003d0 ab f4 d2 bd b9 0e d7 bd 0a 7a 07 3e 80 d3 15 3e
       -0.10300573 -0.10500855 0.13230148 0.14631462
0003e0 6e 41 52 bd 18 76 40 3e 28 60 98 3d 4e d0 9a bd
       -0.05133193 0.18795049 0.07440215 -0.07559262
0003f0 0a 44 be 3a 87 2e 8a 3e 2a 48 b2 bc 45 c8 0c be
       0.0014516127 0.26988623 -0.021762926 -0.13748272

0.bias f4 [256]
000000 20 75 ce 3d ba ed 97 bd 69 cb 44 3e 36 e2 36 be
       0.100809336 -0.074183896 0.1921822 -0.1785973
000010 58 19 87 bd 26 fd 3e be 68 7d a8 be 7a cf 42 3d
       -0.06596631 -0.18651256 -0.32908177 0.047561146
000020 75 87 3a bd 49 cd 3e 3e 8d d8 37 be 63 2b 37 3e
       -0.04553934 0.18632998 -0.17953701 0.17887644
000030 ee 6f 59 3e e2 39 c0 bd 79 03 03 be 65 7b bb 3d
       0.21234104 -0.0938604 -0.12794293 0.09154395
000040 3a 08 8c bc 00 bc 8b 3e 82 6d 49 be 1b 9f 1d be
       -0.017093766 0.2729187 -0.1967068 -0.15392725
000050 66 57 b8 bd c6 93 fd 3c c3 ef 98 3d de 7a 40 3e
       -0.09001045 0.030954253 0.07467606 0.1879687
000060 12 ff ea bc 10 11 23 3d 40 ba 4c be 7d 6c 53 3e
       -0.02868608 0.039811194 -0.19992924 0.20646854
000070 57 03 31 bb 23 86 88 be 8a 18 b9 bd 8c f5 89 bd
       -0.0027010047 -0.26664838 -0.090378836 -0.067362875
000080 46 d9 42 3e da ac ba bc 51 13 79 bd 4b ce 3e be
       0.19028196 -0.0227875 -0.060809437 -0.18633382
000090 a7 04 6c 3e fd 14 e1 3d e2 1a 4a be a9 13 33 3e
       0.2304865 0.10990331 -0.19736817 0.17487969
0000a0 e8 cb 2f 3c bc 48 ab 3e a2 05 4a be 14 59 cb bd
       0.010729767 0.3345393 -0.19728711 -0.099291
0000b0 1c e1 97 3e 2f 3e 24 be de 37 1d 3e ae 3d 7e bd
       0.29663932 -0.16039346 0.15353343 -0.06207054
0000c0 2a 99 84 be 08 d8 0c be 55 aa 91 bc 57 d8 7a be
       -0.25898105 -0.13754284 -0.017781416 -0.2449659
0000d0 fe 17 fa bc 2c 80 33 3e 06 f0 d8 3c fa 38 a6 3e
       -0.030529018 0.17529362 0.02648164 0.32465345
0000e0 f9 01 9f bc 63 37 f8 3d fc 40 91 3e 85 bb 52 be
       -0.01941012 0.12119939 0.28369892 -0.20579346
0000f0 f5 49 46 3e af 74 71 be 48 99 cc bd d2 a8 10 3d
       0.1936415 -0.23579668 -0.099901736 0.03531725
000100 dc b2 96 be 42 fc ea bd 42 c6 4b bc 54 40 67 be
       -0.29433334 -0.114738956 -0.012437405 -0.22583133
000110 64 f0 33 3e 1f a5 2c be a9 09 90 3e 50 be 41 be
       0.1757217 -0.16859864 0.2813237 -0.18920255
000120 f1 97 07 3e 2a f6 8c 3e c1 d6 ea bd a9 92 e9 3c
       0.13241555 0.27531558 -0.11466742 0.028512316
000130 23 a7 e7 bd 44 1b d7 3c 0e 9b 69 be c0 e4 56 3e
       -0.11311176 0.026258118 -0.22813055 0.20985699
000140 eb c8 7d 3d c9 fa 80 bd 5a d6 b8 bd 43 d2 12 bd
       0.06195919 -0.062978335 -0.09025259 -0.035845052
000150 bd 05 32 be d9 17 8c 3e ef ec 82 be 3a a2 39 bd
       -0.17385001 0.27361944 -0.2557139 -0.045320727
000160 9f f2 89 3e 79 aa b0 bd 09 a9 04 be 1a c8 22 be
       0.26942918 -0.08626265 -0.12955107 -0.15896645
000170 b5 7c 53 3e 06 a2 9b be 8b 5d 8f bc 14 c1 80 3e
       0.2065304 -0.30397052 -0.01750066 0.25147307
000180 e1 40 5f be a1 03 70 3e d8 23 21 3b 39 3b e3 3d
       -0.21802093 0.23438884 0.0024588015 0.1109528
000190 da 48 35 be d2 a4 32 3d 76 5e 07 bb c9 47 2d 3e
       -0.17703572 0.043614216 -0.0020655668 0.16921915
0001a0 08 a3 ac 3d 41 3e 48 be e4 9a 9e 3e 6c 9f aa 3d
       0.08429533 -0.19554998 0.30977547 0.083311886
0001b0 ac 2c dc 3d 41 19 20 be 4a 13 dc 3d e6 3b 7d 3e
       0.10750708 -0.15634634 0.107458666 0.2472988
0001c0 f6 5e 1c be 7a 4c c6 3d 85 30 2d 3d 51 71 41 be
       -0.152706 0.096825555 0.0422826 -0.18890883
0001d0 34 ad 3d 3d 2d 03 62 3e e2 ec 28 3e ba 4a eb 3d
       0.046307757 0.22071524 0.16496614 0.11488862
0001e0 2a 1f fb bd 58 53 81 3d d1 80 53 be 72 b1 95 3e
       -0.122618034 0.06314725 -0.20654608 0.29236943
0001f0 43 0b f4 bd 15 de 08 bd 10 31 9e 3e d4 28 42 bd
       -0.119162105 -0.03341492 0.30896807 -0.047402218
000200 88 00 16 be 67 92 8c bd bf 22 a7 bd 51 34 a5 3c
       -0.1464864 -0.068638615 -0.08160924 0.020166548
000210 54 7b a5 3e 14 41 f2 3d 61 18 0c 3e 86 bb 9f 3e
       0.32320654 0.11828819 0.13681175 0.31197757
000220 18 45 19 be 0c 60 29 be d9 b9 32 3e 58 7b 64 3e
       -0.14967763 -0.16540545 0.17453708 0.22312677
000230 17 7a 39 bb 74 3a 8c 3e 22 33 08 be 5e 73 95 bd
       -0.002830153 0.27388346 -0.13300756 -0.07297395
000240 6d d2 7a bd da 67 8a bd 11 cb a9 3c 1e 76 06 3e
       -0.061235834 -0.06758089 0.020726712 0.13130996
000250 74 77 82 3e b2 ed ab bd 12 8b 01 bc 78 78 30 bd
       0.2548176 -0.08394946 -0.007906692 -0.043083638
000260 c0 b4 4f 3e cd 49 6a be 16 c7 cc 3d 30 94 8d 3e
       0.20283794 -0.22879715 0.0999891 0.2765212
000270 97 22 a2 3d 1f 58 72 3d 0c 8e 25 bd fb b7 ad 3d
       0.07916754 0.05916607 -0.04041867 0.08482357
000280 ae a5 ac bd 02 7c 9e 3e 07 b2 55 be 96 2e 5a 3d
       -0.084300384 0.30953985 -0.20868693 0.053267084
000290 62 60 e2 bc c8 e4 19 be c3 30 94 3d 6f c4 97 3e
       -0.02763385 -0.1502868 0.07235863 0.29642054
0002a0 ff f4 93 be c1 d3 1e be 20 74 7f 3e 04 77 aa 3e
       -0.28897855 -0.15510465 0.24946642 0.33293927
0002b0 59 d0 22 be ae 3b 66 be d8 93 46 bc ce fc 15 be
       -0.15899791 -0.22483703 -0.01212021 -0.14647219
0002c0 4e 82 83 be 56 a7 5d 3e 35 f4 5d 3b 93 61 ac 3e
       -0.25685352 0.21645865 0.0033867483 0.33668193
0002d0 13 97 cc 3c 11 3e 93 bd b0 0e 93 3d f7 97 1f 3e
       0.024974382 -0.071895726 0.07180536 0.15585314
0002e0 d1 cc 5e be 2f 03 d3 bc 7d 70 e7 bd f3 e8 ef 3d
       -0.21757819 -0.025758354 -0.11300752 0.117143534
0002f0 c2 b3 83 3d 2f a6 ac bd 9c b1 5a 3e 2b 93 af 3c
       0.064307705 -0.084301345 0.21356815 0.02143248
000300 a0 56 01 3d 7e 7e 1f be 26 60 a2 bd 60 f9 16 be
       0.031576753 -0.15575597 -0.07928495 -0.14743567
000310 c5 30 b8 3d b4 75 74 3e 43 1b 48 be 43 94 e3 bd
       0.08993677 0.23873025 -0.1954165 -0.11112263
000320 17 d1 87 3e 8d 21 34 3e fa a0 ad 3e 4b b0 74 bc
       0.2652671 0.17590924 0.33911878 -0.01493461
000330 62 8a 45 3d bb b3 14 3e 39 f2 4f 3e 4d ee 8c 3d
       0.048227675 0.14521687 0.20307244 0.0688139
000340 e7 12 5b be c9 84 3a be f2 ac 32 3e ed 1c df 3d
       -0.2139393 -0.18214716 0.17448786 0.10894189
000350 3d ef 39 be e0 53 c3 3d a6 cf 4a be 84 8f a0 3e
       -0.18157668 0.09537482 -0.19805774 0.31359494
000360 b4 cb c8 3d 9e 3d 4c 3d 0e cf b6 3e 4c d0 21 3d
       0.09804478 0.04986345 0.35704845 0.039505288
000370 b5 f6 89 bd 1a 74 06 3e de 97 6a bd 29 15 93 3e
       -0.06736509 0.13130227 -0.057273738 0.2872708
000380 20 90 11 3e e5 23 41 3e cb 0f 31 3e 33 27 ef 3d
       0.14215136 0.18861349 0.17291181 0.116773985
000390 ca 21 a3 3d da b3 23 be 1e 36 6c be 8b ab df 3d
       0.07965429 -0.15986577 -0.23067519 0.10921391
0003a0 18 02 76 3d 91 a6 0e 3e d8 99 97 3d 99 da 2f be
       0.06006059 0.13930728 0.0740239 -0.17173232
0003b0 92 39 dd bd cd 38 fc bd 08 53 ea bd 50 78 09 3e
       -0.10801996 -0.123155214 -0.11441618 0.13424802
0003c0 be 25 64 3e b9 a6 38 3e 5a fb 52 be f6 c1 94 3e
       0.22280023 0.1803235 -0.20603696 0.2905423
0003d0 3d 7b 16 3e 18 dd c1 3d f0 e7 c9 3d 48 70 b3 3e
       0.14695449 0.094659984 0.09858692 0.350466
0003e0 91 91 81 be 51 5e 64 3e f1 ff af 3d f2 10 f4 3d
       -0.2530637 0.22301604 0.08593739 0.119172946
0003f0 85 7c 07 3d 84 c8 28 bd 99 94 64 3c 0b 41 66 bd
       0.033077735 -0.04120685 0.013951444 -0.056214374

2.weight f4 [256, 256]
000000 67 dd 13 3c 3c a5 40 3d 62 44 30 3d 4f 31 71 bc
       0.009024954 0.04703258 0.043033965 -0.014721229
000010 53 11 a2 bb 53 cc 4f 3d b2 c2 2e 3d f5 d7 60 3d
       -0.004945913 0.050731968 0.042666145 0.054893453
000020 02 3b 3d bd 0e 54 fb bc ba ad 28 3d af 54 8e bc
       -0.046198852 -0.030679729 0.041181304 -0.017374365
000030 72 ce a1 3b 4c ce f8 3c 00 1d 77 3c 75 ed 1f 3d
       0.0049379403 0.030371808 0.015082598 0.039044816
000040 f9 bc a9 3c a6 ce b6 bb 47 1f f7 bc 8d df 88 bb
       0.020719992 -0.0055788336 -0.030166281 -0.00417704
000050 f5 13 b8 bb b4 51 ce 3d d0 81 0d bd f2 26 16 bc
       -0.0056176134 0.100741774 -0.034547627 -0.009164559
000060 48 c8 86 bd 3a be f1 bc 5f ed 46 3c c7 77 83 3d
       -0.06581169 -0.029509652 0.012141555 0.0641933
000070 24 2f 8a bb cc fc 9b bc 48 2c 38 3c c4 ad 7e 3d
       -0.0042170454 -0.019041441 0.011241026 0.062177435
000080 74 1b 4b 3d 11 4d d5 3c c2 3a 95 bc 35 d6 c1 bd
       0.04958673 0.026037725 -0.018216494 -0.09464685
000090 59 77 2b 3d 91 d6 fe 3b ca 60 9d 3c 7f 34 68 bd
       0.041861866 0.007777043 0.019211192 -0.05669069
0000a0 31 64 d7 3c 1d d9 c9 3c 9a b7 e8 bb b1 ea 38 bd
       0.026292892 0.02463966 -0.007101965 -0.045145694
0000b0 3f 82 93 bc d9 4c 49 3d bf 96 7b bd cb ba 3e bd
       -0.018006442 0.049145553 -0.06142306 -0.04656486
0000c0 da 75 0b 3d 3c e5 81 3d 71 c9 b9 38 bb 5a 8c bc
       0.03404794 0.06342551 8.859009e-05 -0.017133107
0000d0 9c e3 46 bc 12 e0 17 3d 84 69 82 3b 19 f2 6a bd
       -0.012139227 0.037078924 0.0039798636 -0.05735979
0000e0 21 5a 1f 3d 2e e0 0a 3d 6f 17 01 3d cb c5 0f bd
       0.038904313 0.0339052 0.03151649 -0.03510074
0000f0 1e e3 52 3b 87 c2 68 3d a1 3c bf bc 67 1d a0 3c
       0.003217883 0.05682614 -0.02334434 0.01954527
000100 dc f9 99 bd 6c 7a 3b bd 74 12 9f 3c 23 22 90 bd
       -0.0751836 -0.045771047 0.019417979 -0.07037761
000110 7c 0e 0d 3d 07 1e 73 3d 6e df 2b 3d d4 05 32 ba
       0.03443764 0.05935481 0.041961126 -0.00067910296
000120 ce 9f 35 bd ab 6d 0e bd b8 d0 75 bc 5a 27 38 3d
       -0.044341855 -0.034772556 -0.015003376 0.044959404
000130 db 9e 12 bd f8 fb 85 3a 82 33 96 bc a3 d0 89 bd
       -0.035796028 0.0010222187 -0.018335108 -0.067292474
000140 f0 de 73 bd d0 ea 42 3d 12 62 0b 3c 0c cb 39 bd
       -0.05953878 0.047587216 0.0085072685 -0.045359656
000150 34 30 d4 bc ed 0e 3b 3c 29 ee 09 3d 3c bc 3d 3c
       -0.025901891 0.011417133 0.033674393 0.011580523
000160 f2 e5 d0 bc f7 11 da 3c 11 0b 2d bd e6 eb b5 bb
       -0.025500271 0.026619894 -0.042246882 -0.005551803
000170 6e 79 10 3d 88 a9 53 bd 1c 41 29 3d 11 24 35 bd
       0.035272054 -0.05167535 0.04132186 -0.04422385
000180 34 50 f9 3c 83 4d 21 b9 cf 82 27 3d e7 32 a3 bc
       0.030433752 -0.00015383032 0.040896233 -0.019921733
000190 fa 2a 42 bd ae 46 9a bc e2 79 16 bd 73 37 20 bd
       -0.047404267 -0.01883253 -0.03673733 -0.03911538
0001a0 90 73 52 3a f8 92 ab 3d 89 a8 00 3d 06 27 c1 3b
       0.00080280844 0.083776414 0.031410728 0.0058945445
0001b0 54 f6 70 3c 66 73 d2 3b 00 84 43 3c a4 25 9d 3c
       0.014707167 0.006422448 0.011933327 0.019182988
0001c0 87 db a8 bd 48 3c f7 3c 98 aa 6a bd 91 2a 7f 3c
       -0.082449965 0.030180112 -0.057291597 0.0155741135
0001d0 81 bd 4f 3d 85 ff 39 3b be f4 aa 3d f9 f4 22 bd
       0.050717834 0.0028381061 0.08347462 -0.039784405
0001e0 4a ce 10 3d 67 3d 99 3c e1 bf 67 bd ed 53 66 3d
       0.035352983 0.018706037 -0.056579474 0.05623238
0001f0 ee 96 5d 3d 5e f7 ae bd d0 8f 6b bd 02 cb c6 bc
       0.054099016 -0.08543275 -0.057510197 -0.024266724
000200 bf 2b 16 3d 61 2f 3b 3d 55 2d be 3c 22 09 cc 3b
       0.036662813 0.04569948 0.023214975 0.0062266747
000210 81 6b 92 bd 61 6e fc bc d3 eb 10 bc 19 ac e3 bc
       -0.07149411 -0.030814352 -0.008845287 -0.027792023
000220 54 d4 03 3b bb 1a 21 3d 56 76 ed ba b5 92 b7 bc
       0.002011557 0.039332133 -0.0018116932 -0.022408823
000230 76 41 87 3d e8 84 06 3b c7 00 32 bd b8 ef 68 3d
       0.066042826 0.0020525996 -0.043457773 0.05686924
000240 4e b4 1e 3d 87 13 ad 3b 8a 1e 5e bd 2b aa ac 3c
       0.03874617 0.005281869 -0.054228343 0.021077236
000250 88 ca 86 3c c6 0a 13 bc 0f 6f 80 3d de e2 38 3d
       0.016453996 -0.008974737 0.06271183 0.045138232
000260 22 18 c4 bc 26 7f f5 3c 85 ca 80 bd 8f 1f ad 3c
       -0.023937289 0.029967856 -0.062886275 0.021133212
000270 44 c2 af 3d ea 35 19 bc d5 97 d7 3c 20 89 61 bd
       0.08581975 -0.009351233 0.026317516 -0.055062413
000280 2a b3 cd bc e8 e7 ab bd 8e 95 82 bc 40 2b 02 3c
       -0.025109846 -0.08393842 -0.015940454 0.007944882
000290 33 bf d9 bb 13 02 20 3d d1 f6 32 3c e4 8d e2 bb
       -0.006645107 0.039064478 0.010923103 -0.0069138873
0002a0 cb 39 89 3c 76 44 8c bc 21 54 9a 3a c4 d5 5e 3d
       0.01675119 -0.017122488 0.001177434 0.05440308
0002b0 84 e8 18 3d eb d6 99 ba fc 42 d0 3b e3 4f ad bc
       0.03733112 -0.0011737024 0.0063556414 -0.021156257
0002c0 28 0f 1c 3d cb d9 8b bd a9 1c 6a bd db 9a df bc
       0.03810039 -0.0682865 -0.05715624 -0.02729552
0002d0 2d e2 bc 3d aa 6f 30 3d 29 f3 51 3d f6 fd 47 bd
       0.09222827 0.04307524 0.051257286 -0.04882618
0002e0 13 cf 3d 3b 97 50 8c bd 95 45 ed bc cb 00 05 3d
       0.0028962537 -0.06851309 -0.028963843 0.03247146
0002f0 9d 01 6e 3b ba 28 e0 bb 91 49 4c 3d 34 88 5c 3d
       0.003631688 -0.0068407925 0.049874846 0.05384083
000300 70 c9 f9 bc b2 1a a6 bd 5b 0d 90 3d 25 6f f7 bc
       -0.03049156 -0.081105605 0.07033797 -0.030204365
000310 0b 73 83 3d 60 8e 81 3d 12 e5 e5 3c 8c 81 58 3d
       0.06418427 0.06325984 0.02806333 0.05285792
000320 3b 2d 05 bc 82 e7 bd bc db cc f9 3c 62 a3 a4 3d
       -0.00812846 -0.02318168 0.03049319 0.08038975
000330 4f a0 d9 bb 7f b5 86 3c 0c 62 f3 3b f7 63 94 bd
       -0.0066414247 0.016443966 0.0074274596 -0.07245629
000340 45 36 89 bd 6b 79 72 bc e9 20 47 3d 7c ee 85 3c
       -0.06699804 -0.014799456 0.04861537 0.01634907
000350 5f 6e 27 bd 6c 8f 45 3d 72 16 67 3d 0e 53 5e 3b
       -0.040876742 0.04823248 0.05641789 0.0033924016
000360 d3 40 ab 3c 44 02 48 3d 85 23 33 3d 5a 8e 9f 3c
       0.020904934 0.048830286 0.043735046 0.019477058
000370 a3 f2 6b 3d 2f 4f 94 3d ec 14 f3 bb ef e8 b2 3c
       0.057604443 0.072416656 -0.0074182656 0.021839587
000380 59 2e ae 3c 68 c3 94 bd e4 40 66 bd 14 13 8e ba
       0.021262335 -0.07263833 -0.05621423 -0.0010839426
000390 ae f2 20 3d 00 57 3c 3d 96 25 b3 3c 60 15 be 3d
       0.039293937 0.045981407 0.021868508 0.09281421
0003a0 f4 0f b8 3a 29 24 9a 3d 83 2d 87 bc 36 70 2a 3c
       0.001404284 0.07526428 -0.016501194 0.01040273
0003b0 38 d1 ec bc 87 c5 77 3d 1d 91 d7 39 6f 25 91 3d
       -0.028908357 0.06049111 0.00041116113 0.07087218
0003c0 7b 40 7e bd 29 24 88 bd 9d 77 8e bd c3 f9 51 3d
       -0.062073212 -0.06647522 -0.06956408 0.051263582
0003d0 1d e6 91 bd 3b f6 b0 bd d4 6c 29 bd 79 85 49 bc
       -0.07123969 -0.08640715 -0.041363552 -0.012299889
0003e0 2d 30 a8 3c fe b2 63 bd 70 4c 84 bd 8f ef 64 bd
       0.020530785 -0.055590622 -0.06459892 -0.055892523
0003f0 f5 59 44 bd e4 09 1c 3c 45 65 a2 3d 62 95 86 3b
       -0.047937352 0.0095238425 0.07929472 0.0041071633

2.bias f4 [256]
000000 c7 45 f4 bc 3a e9 7f 3d 00 6b b6 bc 71 79 4b bc
       -0.029818429 0.06247828 -0.022267818 -0.012419091
000010 b0 9c 52 bc 82 86 04 bd a1 52 1f bd f6 b6 23 bd
       -0.01285474 -0.03235484 -0.03889716 -0.039969407
000020 20 ee 3d bd 39 b1 2b 3d c9 d4 44 bb aa b0 c0 bc
       -0.04636967 0.04191706 -0.0030034056 -0.02352174
000030 a6 5d 49 3c a2 5c 41 bd 36 aa 12 bd 54 e9 d1 bc
       0.012290394 -0.047207482 -0.035806857 -0.025623955
000040 13 76 d4 3c 21 d2 0e 3b 75 d0 2d bd 2e 1f 2e bc
       0.025935208 0.0021792727 -0.04243513 -0.010627551
000050 f0 19 5e bd 24 51 ec bc fc 4d f4 bc 3d db df 3c
       -0.054223955 -0.028847285 -0.029822342 0.02732622
000060 82 89 8c 3d 7e e2 26 3d e2 bc 9f bc 41 ee 8f 3d
       0.06862165 0.040743344 -0.019499246 0.07027865
000070 cf 3d 31 bd 5c 98 e8 3c 5b 5b 81 bc 85 26 14 3c
       -0.043271836 0.028392963 -0.015790632 0.009042387
000080 4a df cb bc 71 ae 3d 3d 43 a7 f8 bc af 8e 80 bd
       -0.024886746 0.04630894 -0.030353194 -0.06277215
000090 15 2b 57 bc 5a f3 47 bd 54 78 dd 3c 99 13 72 bd
       -0.01313283 -0.048816063 0.027034916 -0.05910072
0000a0 3f 23 98 3c 27 0c 3a bd 60 03 45 3d 84 5d 82 bd
       0.018571494 -0.045421746 0.04809892 -0.06365493
0000b0 39 f0 16 bb 93 55 40 3b cd 02 81 3d 3f 7b 36 3d
       -0.0023031367 0.0029347881 0.06299362 0.04455113
0000c0 2f 39 21 3d 2b 59 c9 bb 74 e3 70 bc d4 60 ae 3b
       0.039361175 -0.006144663 -0.014702667 0.0053216014
0000d0 02 51 81 bd e4 7d 59 bd a7 c7 70 bc e7 84 1a 3a
       -0.06314279 -0.053098574 -0.014696038 0.0005894438
0000e0 cf 25 60 3d 82 ea 85 3d 51 ed a5 3c 88 8e de bc
       0.054723557 0.065388694 0.020254763 -0.027167574
0000f0 cb ca d2 bc 9f 6c 21 3c 81 5b a5 3c 46 78 7c 3d
       -0.025731465 0.009852557 0.020185234 0.06163814
000100 60 cd 3c 3d a6 73 4b 3c 0a 46 e6 3c 58 79 73 bc
       0.0460943 0.012417709 0.02810957 -0.014860474
000110 c6 ec 58 bc 70 eb 21 bc 29 dd 33 bd fe c9 ab bc
       -0.013240045 -0.009882793 -0.043912087 -0.02097034
000120 a9 3d 0d 3d 58 6b 06 bd dc cf 99 bc fa 55 27 3d
       0.03448263 -0.032817215 -0.018775873 0.040853478
000130 1b 03 7d 3d 9c 64 77 3d fd be a0 3b ab 8b 1b bd
       0.06177054 0.060398683 0.00490558 -0.037974995
000140 be ff 87 3d 8d 4c bc 3b 85 a2 99 3d 0c b9 a1 bc
       0.06640576 0.0057464303 0.07501701 -0.019741558
000150 ac 2f bf bc 7b 43 67 3c 87 ab 47 bd f7 08 db bc
       -0.023338161 0.01411521 -0.048747566 -0.026737673
000160 fe fa 3c bd 33 df 2b 3d 87 93 62 bd 64 60 1b bd
       -0.046137802 0.041960906 -0.055316474 -0.037933722
000170 65 62 80 bd 95 16 25 bd 3e e2 24 3d 3f fc 03 3d
       -0.06268767 -0.04030474 0.040254824 0.032222982
000180 2d 10 20 3c d0 c9 6e 3d 44 41 68 bd 70 a7 92 3d
       0.009769482 0.058297932 -0.056702867 0.071608424
000190 77 c0 a7 bc 7e 94 94 3c 2e 79 d4 bc c5 64 2a bc
       -0.020477517 0.018137213 -0.02593669 -0.010400002
0001a0 b9 bc 8a 3d 45 66 5f bd aa c0 72 3d 60 de f8 bc
       0.06774277 -0.05454089 0.05926577 -0.030379474
0001b0 40 e6 14 3d 64 4e 2d bd a2 bb 0e bd 2b 91 d4 bb
       0.036352396 -0.042311087 -0.03484691 -0.006487032
0001c0 a8 80 8d 3c 74 d8 b4 bc a1 2a ea 3c a7 96 2c bc
       0.017273262 -0.02207587 0.02858478 -0.010533965
0001d0 a2 52 1f 3d 8c d6 9a 3d 31 59 5a 3d 13 d0 89 3d
       0.038897164 0.07560453 0.053307716 0.0672914
0001e0 3b 7c 6e 3c e0 67 2c bd c5 af a8 39 b8 32 30 bc
       0.014555986 -0.04209125 0.00032174416 -0.01075428
0001f0 59 39 42 3c fe 7f d7 3c b5 71 2f bd 46 32 05 3d
       0.011854493 0.026306149 -0.04283305 0.032518648
000200 3c 52 be bc 80 8c 01 3d fa 6d 9a 3c 56 cf ff bc
       -0.023232572 0.031628132 0.018851269 -0.031226795
000210 88 88 d2 3c c7 5a 61 bd 51 da 3d bc 75 15 8a 3d
       0.025699869 -0.055018213 -0.011587695 0.06742374
000220 a5 8a f2 bc 7f bb 8e 3d 34 da 76 3d 35 ef 7e 3d
       -0.029607126 0.06969356 0.06026669 0.062239844
000230 2b dc c5 b9 d6 48 55 bd ec 3e 22 3d f1 05 03 bc
       -0.00037738806 -0.052071415 0.03961079 -0.007997022
000240 08 8d 30 bc 3c a2 15 3d 55 34 9a 3c d5 cc d1 3c
       -0.010775812 0.036531672 0.018823782 0.025610367
000250 b0 a6 3a 3c 31 fa 61 bd 84 c1 08 3d 71 c5 9a bc
       0.01139228 -0.05517024 0.033387676 -0.018892976
000260 b0 1f 0f 3d 60 23 17 bd 03 f8 69 3d 19 1d 8c 3d
       0.03494233 -0.03689897 0.057121288 0.068414874
000270 c4 9c ac 3c a9 89 ba 3c 88 8f 7e 3d e1 03 39 3d
       0.021070845 0.02277072 0.0621486 0.045169715
000280 6b 3d 3c 3d 87 8b 8f 3d 71 9f 40 bd 44 fc 3f 3c
       0.04595701 0.070090346 -0.047027055 0.01171786
000290 17 84 18 bd 57 25 88 3d 29 36 70 3d c3 0d 22 bc
       -0.037235346 0.06647747 0.0586454 -0.009890976
0002a0 f3 ee 24 bd 23 43 86 3d c1 93 02 3d da b4 a8 3d
       -0.040266942 0.06555774 0.03187919 0.0823762
0002b0 db 80 02 3d a6 2d 92 3c 3e 9f 99 3d 59 c9 26 bd
       0.031861167 0.017844032 0.07501076 -0.040719364
0002c0 83 f3 c4 bc 20 aa 31 3d 07 03 ad 3b 31 6d ec 3c
       -0.024041897 0.043375134 0.005279902 0.02886066
0002d0 03 5b 5d 3d 31 79 d7 3c ad 8b ee 3c c6 22 e1 bc
       0.054041874 0.026302906 0.029119337 -0.027482402
0002e0 11 86 30 3c 97 84 97 3d 91 70 34 3b af 01 3a 3d
       0.010774151 0.073983364 0.0027532915 0.04541176
0002f0 71 29 b2 bc 1a 9b a7 3b 2e 6b 21 bd 38 f3 8b bc
       -0.021748276 0.005114925 -0.039408855 -0.01708375
000300 f2 e5 e4 3c 2e c1 5f bd 2b df 55 bd 94 03 73 3c
       0.027941678 -0.05462759 -0.052214783 0.014832396
000310 da 3e 29 3c 24 c0 b3 bc bd 85 2f bc db de 83 3d
       0.010329926 -0.021942206 -0.010713038 0.06438991
000320 93 cc 69 bd 8d ad b8 bb 26 ef 89 3d 82 3a 5d 3d
       -0.057079863 -0.0056359232 0.06735067 0.054010876
000330 e4 9a c3 bc 01 e1 d8 3c ba 48 23 bc 73 3c 49 3d
       -0.023877569 0.026474478 -0.00996607 0.049129914
000340 9c d2 d6 bc 67 ef ba 3c 6e 0b 1c bd c1 14 a8 bb
       -0.026223473 0.022819234 -0.038096838 -0.005129427
000350 1f 3d 51 bd b8 dd 80 3d f7 58 9c bb 9d 54 5b 3d
       -0.05108368 0.062922895 -0.0047713476 0.05354749
000360 ec 04 f7 bc 02 cd 01 bd 78 4f 13 3d c7 04 b6 bc
       -0.030153714 -0.03168965 0.03596446 -0.022219075
000370 0a 83 8b 3c eb bf 11 3b 94 3e 31 3d 98 52 10 3d
       0.017030258 0.0022239636 0.04327257 0.035235018
000380 0a 72 db bb 9b 5d 05 3d bf 85 64 3d e1 b0 ff 3b
       -0.006696944 0.032559972 0.055791613 0.007803068
000390 1d 68 c8 bc cb 23 2f 3d 66 b6 03 3d 69 91 9f 3d
       -0.024463708 0.042758744 0.03215637 0.07791407
0003a0 f4 e7 80 3d 60 b0 3b 3b ae a1 4c bd 6d 31 4d bc
       0.062942415 0.0028639063 -0.049958877 -0.012523991
0003b0 60 27 68 bd cc d8 1d bd 4f bd 98 3c 15 94 38 bc
       -0.056678176 -0.03853683 0.018644957 -0.011265774
0003c0 d5 d6 38 3c 6b 66 32 bd 91 35 90 bc aa ae 99 bb
       0.011281689 -0.043554705 -0.017603667 -0.004690011
0003d0 14 c7 ff 3c 09 a6 a3 bc bc 9e 87 3d 65 a2 15 3d
       0.031222858 -0.019976633 0.06622073 0.036531825
0003e0 9a 50 70 3d c2 53 03 bd 07 2f 50 3c 70 4a 64 bd
       0.058670618 -0.0320623 0.012706525 -0.05573505
0003f0 d0 1d 03 3d ca 2b c1 3c ce 54 2a bd b5 de bf bc
       0.032010853 0.02358045 -0.041584782 -0.023421625

4.weight f4 [128, 256]
000000 b5 43 2b bd 13 31 80 bc 9a 82 43 bd f5 aa 7d bc
       -0.041812617 -0.0156484 -0.047731973 -0.015482654
000010 a0 6c 6b 3d 67 ab 9b 3d d8 25 9f bc fc 5a f2 3c
       0.05747664 0.07601052 -0.019427225 0.0295844
000020 72 dc 47 3d 0f 10 63 bd da a1 72 bc d7 82 48 bd
       0.048794217 -0.055435237 -0.014809096 -0.048952904
000030 92 1f 5f 3d 3f 1d 56 bd 41 de 5d bc bb 91 9c bc
       0.054473467 -0.052273985 -0.013541759 -0.019112458
000040 95 5e aa 3a 96 be 51 3d 3c eb 23 3d 70 c7 cf bc
       0.0012998158 0.051207148 0.04001926 -0.025363654
000050 d8 59 17 3c 5d 1b 2f ba 91 f0 23 3c 7a 45 ae 3d
       0.009237729 -0.00066797977 0.010006086 0.08509345
000060 da 33 cb 3c f4 dc 22 3d 4f 91 cd bc 45 d7 56 3d
       0.024804998 0.0397615 -0.025093703 0.05245139
000070 e8 f1 a5 bc 60 52 ed bb e3 0e e6 3c 00 f0 93 bb
       -0.020256951 -0.007242486 0.02808327 -0.004514694
000080 71 63 87 3d 9e 13 51 bd a9 4d 03 bd cd 28 8c bc
       0.06610764 -0.0510441 -0.032056484 -0.0171093
000090 1e f1 0d 3d 7e f1 21 3c 23 80 66 3c 0c 1f 10 3d
       0.034653775 0.009884236 0.014068636 0.03518586
0000a0 7e 8d 89 bc a0 54 6d bd fa a9 e4 bc bc 04 7a 3d
       -0.016791102 -0.057942033 -0.027913082 0.06103967
0000b0 f3 02 e3 bc 48 14 65 bd 63 eb de bc 84 14 97 3c
       -0.027711367 -0.055927545 -0.02721185 0.0184424
0000c0 1f ce be bc 79 e2 bb 3c a3 41 b5 3d d1 fa b6 bb
       -0.023291646 0.022935139 0.0885041 -0.005584099
0000d0 1d 30 45 bd fa 42 ea 3c 84 c1 a1 bc 11 2b f9 bc
       -0.048141588 0.02859639 -0.019745596 -0.030416043
0000e0 a4 49 63 3c 49 66 8e 3d 6a c5 68 3d 90 ef 4e 3d
       0.013872538 0.06953103 0.056828894 0.050521433
0000f0 1a 15 98 bc 09 f2 51 3d bc 3f c2 3a c4 d5 45 3d
       -0.01856475 0.051256213 0.001482002 0.048299566
000100 de bc f4 3c 2d 56 dc b9 b0 0c 45 3d 3f 45 5c 3d
       0.029875215 -0.00042025876 0.048107803 0.053776976
000110 9b b4 42 bc 88 fe 5a bc 64 e2 50 3c d6 02 18 bd
       -0.01188388 -0.013366349 0.012749288 -0.03711208
000120 4f bc af 3d fb 9e 70 3d a9 a1 8f 3d ec d8 0f bd
       0.08580839 0.058745366 0.07013256 -0.035118982
000130 39 63 81 bd 0c 50 82 bb bb 22 89 bc 74 d3 b2 3c
       -0.06317753 -0.0039768275 -0.016740194 0.021829344
000140 b0 fa 1d bc 92 25 06 3d 2a be 71 3d 26 06 01 bd
       -0.009642288 0.032750674 0.059019245 -0.031500004
000150 84 27 7c bd 98 45 4f 3c e5 9c 8f 3d 38 cc 59 bd
       -0.061561123 0.01265087 0.07012347 -0.053173274
000160 f5 b9 23 3d 2c 8d 12 bd b5 8b 97 3d af 0e e9 bc
       0.039972264 -0.035779163 0.07399694 -0.028449384
000170 0f b2 88 3d 8e 69 01 3d 3a e4 bf bd 46 33 10 bd
       0.06674587 0.031594805 -0.09369703 -0.03520515
000180 d4 b3 70 bd 14 0c 7a 3d 1c 0d e1 bc 01 44 8e 3d
       -0.058765247 0.061046675 -0.027472071 0.069465645
000190 25 18 12 bd f9 7c e8 3c 19 b5 0a 3d 15 36 fc bc
       -0.035667557 0.028379904 0.033864114 -0.030787507
0001a0 fb 81 99 3d 57 13 4c 3c 6b 28 ac 3c 42 81 eb 3c
       0.07495495 0.012455783 0.021015367 0.028748158
0001b0 2c 05 eb bc a3 7a 98 bd 3b 11 8c 3d 76 b3 4d bd
       -0.02868899 -0.07445266 0.06839224 -0.050219975
0001c0 24 0f 50 3b 98 9a 8c 3c 3c 40 1d ba b1 28 57 bd
       0.0031747306 0.01716356 -0.00059986464 -0.05252904
0001d0 2a 31 0d 3d 0d b6 ad bc 05 6b 6c bc e2 68 97 3d
       0.034470715 -0.021204973 -0.014429812 0.07393052
0001e0 4c 07 20 bd 01 38 56 bc a4 52 e5 3c 92 9d 3b bd
       -0.03906946 -0.013074876 0.027993508 -0.045804568
0001f0 57 42 a5 3d 23 62 70 bd 0f 74 53 bd 5f 78 b1 bd
       0.08069294 -0.05868734 -0.051624354 -0.08665537
000200 8f d1 29 bd 79 ce 67 bd 24 38 3d bd 2e 7c 39 bd
       -0.041459616 -0.056593392 -0.046196118 -0.045284443
000210 2c db 9f 3d 46 fc 95 bc c5 37 b1 3c f8 8d e1 bc
       0.078054756 -0.01830877 0.021633038 -0.027533516
000220 c3 bc c1 3d 58 f1 cc bc 46 93 a0 bc c2 13 d9 38
       0.094598316 -0.025017425 -0.019601475 0.000103510465
000230 25 7e 7a 3b ab 10 34 3d 1f 53 e5 bc d4 be 7e 3d
       0.003822216 0.04396121 -0.027993737 0.062193707
000240 26 fb ef bc 73 ba 9b bd db 8a 18 bd 36 f6 d0 ba
       -0.029294562 -0.07603922 -0.037241798 -0.0015942517
000250 34 99 01 bd 16 61 53 3d d7 3d c3 3d f1 2d 2e ba
       -0.031640247 0.05160626 0.095332794 -0.0006644419
000260 a1 d1 7f 3d d7 b2 34 3d 36 75 cd bb 44 e6 f3 3c
       0.062455777 0.044115867 -0.006270076 0.029772885
000270 12 44 6b bc f4 00 a9 3d 97 98 57 bd c7 e9 2c 3d
       -0.014359491 0.08252135 -0.052635755 0.042215135
000280 8c 22 b9 3c 2b 0f 71 3c 09 9e 11 3d 2a 75 e1 bc
       0.022599481 0.014713089 0.035551105 -0.027521688
000290 43 62 04 3d 3b aa 2f 3d 38 39 02 3c fe 2c 24 3c
       0.032320272 0.042886954 0.007948212 0.010020493
0002a0 dd 8c 41 3d 43 44 36 bc 40 59 42 bd 82 73 fe 3c
       0.04725348 -0.011124673 -0.047448397 0.031060938
0002b0 b3 64 c2 3d 0a 47 a1 3d 29 b5 fd 3c 27 dc 87 3c
       0.09491863 0.07874878 0.030970173 0.016584469
0002c0 5f eb d4 3a de ae e0 3a 91 17 6e 3d 5b a3 23 bc
       0.0016244462 0.0017141958 0.058127943 -0.009987677
0002d0 7b 2b b8 3c c5 f1 92 bc 5a 8d 30 bd 68 e1 6e 3d
       0.02248167 -0.01793755 -0.043103553 0.058320433
0002e0 f1 99 92 bb d8 58 98 3c cc a8 21 3d f6 cf cc bc
       -0.0044739177 0.018597052 0.039467618 -0.025001507
0002f0 3d ee 89 bd b8 c0 95 bd c8 1d 46 3a f9 af 05 bd
       -0.067348935 -0.07312149 0.00075575383 -0.032638524
000300 95 0e fc 3c 4c 59 b0 bc ea 61 48 bc 0f f2 89 bc
       0.030768672 -0.021526955 -0.012230376 -0.016839055
000310 bd 13 89 bd af 71 f9 ba a8 21 4f 3d ef 7b 3d bd
       -0.06693218 -0.0019031073 0.050569206 -0.04626077
000320 5a 7f 22 bd bd 7e 82 3d fd fe 64 3b a1 5b 43 3c
       -0.039672233 0.0637183 0.0034942024 0.0119237015
000330 13 4f 81 bb 02 d6 d8 bc 1d 6c 67 bc e8 b7 07 bd
       -0.003946194 -0.026469234 -0.014124897 -0.03313437
000340 94 d8 48 3d 2c f8 d8 3c cf 71 10 3d 90 ed 37 bd
       0.04903467 0.026485525 0.035264786 -0.04490429
000350 f2 69 ab 3d 62 be dd bc ff da 5d bd 01 2f b6 3d
       0.08369817 -0.02706832 -0.05416393 0.08895684
000360 80 cb 34 3d fc 43 19 bd 16 2d 68 3d db 91 14 bd
       0.044139385 -0.03741835 0.056683622 -0.03627191
000370 19 71 a4 bc 75 2a bf bc 75 29 bf 3c 85 d0 3a 3d
       -0.02007346 -0.023335675 0.023335198 0.045609016
000380 38 ee b4 bc a5 1b cc 3c 14 cd f3 3c b4 f6 e9 bc
       -0.022086248 0.024915526 0.029760875 -0.02856002
000390 61 81 f1 bc 87 54 a2 3d f9 22 6a 3d 1d ab 92 3d
       -0.029480638 0.079262786 0.05716226 0.071615435
0003a0 c0 27 07 3d ba 3d e3 bb 20 59 0d 3c 4e ba 14 3b
       0.032996893 -0.0069348486 0.008627206 0.0022694054
0003b0 d4 20 2c 3d 97 c4 65 bd 42 dc 3f bd 82 ff 63 3d
       0.042023495 -0.056095686 -0.046840914 0.055663593
0003c0 be a6 42 3d ab 21 5f 3d 76 ff f9 bc 88 96 80 bc
       0.0475223 0.054475468 -0.030517321 -0.015696779
0003d0 36 b9 32 bd c0 a7 7b 3d 32 78 06 3d 17 25 55 bd
       -0.043633662 0.061439276 0.03282947 -0.052037325
0003e0 fd d2 a2 3d 94 e2 9e bc b7 2c 16 3d d8 74 0e 3c
       0.07950399 -0.01939515 0.036663737 0.00869485
0003f0 a1 ee ed 3c 18 61 02 bc 52 7e 6f 3d f7 91 33 3d
       0.029044451 -0.007957719 0.058470078 0.043840375

4.bias f4 [128]
000000 ba 87 a1 3c c0 ba 10 bd 9d 63 40 3c c5 f3 42 3d
       0.01971804 -0.03533435 0.0117425 0.047595758
000010 9a 93 9b 3b f3 05 21 3d 37 3e f4 bc ca 94 12 bd
       0.00474782 0.039312314 -0.029814823 -0.035786428
000020 91 69 14 3d 66 d1 bc 3c 1e 1b db bb ef 54 f5 3b
       0.03623349 0.023049068 -0.006686582 0.0074869315
000030 57 15 66 bd ed 67 80 3c fd d0 a1 3c 32 1b d9 bb
       -0.056172695 0.015674556 0.019752974 -0.0066255564
000040 d7 4e e4 3c e0 99 b9 3b bf 36 73 3d b6 0c 0c bd
       0.027869625 0.0056640953 0.05937838 -0.03419181
000050 01 68 6d bd 5b a4 30 bd 9e d0 80 bc 3a 1d 00 3d
       -0.057960514 -0.04312549 -0.015724476 0.031277873
000060 41 02 0d 3d 24 af 6a 3d 81 4a 03 bd 80 28 11 3d
       0.034425978 0.057295933 -0.032053474 0.035439014
000070 cf 98 da bc ff eb 02 3c 80 c2 35 3c bd a0 e0 bc
       -0.026684193 0.007990836 0.011093736 -0.027420396
000080 fb 21 2c bd 6a ad 19 bd 3c ec 95 3c 67 46 8e 3c
       -0.042024594 -0.037518896 0.018301122 0.017367555
000090 5c 88 9b 3c 86 b9 5b bd 4a c5 77 bd 9c 8e b5 3c
       0.01898592 -0.053643726 -0.060490884 0.022162728
0000a0 5f e0 2a bd 56 3e 0c bd 56 bb a9 bc ea f6 cd bc
       -0.041717883 -0.034239136 -0.020719212 -0.025142152
0000b0 02 79 34 bd cc b5 a4 bc 76 56 ef 3b bb cc 60 bd
       -0.044060715 -0.020106219 0.007304008 -0.054882746
0000c0 73 dc 8c 3d 48 6e 39 bd 66 76 32 bd 5a 4b 6d 3b
       0.06877985 -0.045271188 -0.043569945 0.0036208243
0000d0 3b 98 46 3d 6b 2f 1a bd 0b 1e 29 3d a1 f6 86 ba
       0.048485022 -0.037642878 0.041288417 -0.001029689
0000e0 51 03 f9 3c 0a db 72 bc 7f a9 80 3c d5 a2 ff 3c
       0.03039709 -0.014822731 0.015705822 0.031205574
0000f0 8e a9 11 3d 23 92 0c bd 13 c2 fa 3c ae b4 3f bc
       0.03556209 -0.034319054 0.03061012 -0.011700792
000100 33 3c 8b bb b4 b6 71 bd bd 7e eb 3b 91 54 43 3d
       -0.0042491197 -0.05901213 0.0071867392 0.04768807
000110 1b 01 3d bd 7f e9 76 3d 3d 7c b5 bb 8b 1e b9 3a
       -0.046143632 0.060281273 -0.005538492 0.0014123482
000120 8a 6c 1e 3c 2a bf f2 bb 2d 33 f5 3c 0e 25 8a bb
       0.009669432 -0.0074080424 0.02993163 -0.004215843
000130 dc 9f 53 bc 88 06 04 bd 46 d5 0f ba 9b 69 c0 3b
       -0.012916531 -0.03223279 -0.00054867973 0.005871964
000140 40 8d 45 bb c6 df 30 bd 9a fe e8 bb dc 61 1a bd
       -0.0030144006 -0.043182157 -0.007110429 -0.037690982
000150 88 b1 e7 bb 0c ab 62 3d 9f bc 27 3d ac 0c 42 bd
       -0.007070724 0.055338904 0.040951367 -0.047375366
000160 51 aa 56 3d fe 7d 2a 3d 54 02 7d bd 9e 3a f8 bb
       0.05240852 0.04162406 -0.0617698 -0.007575347
000170 1e bf 25 3c fc 1b e2 39 e7 50 dd bc a0 08 ad 3c
       0.010116367 0.0004312693 -0.027016116 0.021122277
000180 98 6a 76 bd 9c 28 68 bd d8 4a 25 3d ea aa b1 bc
       -0.06016025 -0.056679353 0.04035458 -0.021687943
000190 d0 39 03 3b 55 03 f7 bc 92 a1 07 bd 35 1b bc bc
       0.0020023473 -0.030152956 -0.03311307 -0.022962192
0001a0 13 07 52 3d b7 00 39 bd c4 94 db bc 55 ba df 3c
       0.051276278 -0.045166697 -0.026804335 0.02731053
0001b0 79 5b de 3c cd 6e bc bc f9 6e 01 3c 97 0f 7f bc
       0.027143227 -0.023002053 0.007899993 -0.015567682
0001c0 f7 f8 88 bd fe 41 84 3c 04 d5 17 3c 6b b0 5e 3d
       -0.06688111 0.016144749 0.0092670955 0.054367464
0001d0 f9 94 13 3d 5b 35 cd bc 31 0b dd 3c 6b d5 1d bd
       0.036030743 -0.025049856 0.026982876 -0.03853361
0001e0 b1 4b b4 3c 9b 53 7a 3c f5 07 3c 3c be 14 f9 3c
       0.022008749 0.015278722 0.0114765065 0.030405398
0001f0 82 0a 3b bc 37 c4 8c bc 66 ef 13 bd 89 14 87 3d
       -0.0114160795 -0.017183406 -0.03611698 0.06595714

6.weight f4 [128, 128]
000000 b6 98 d1 bd 9a f3 e6 bc 0c b2 71 bd 14 06 8d 3d
       -0.102342054 -0.02819233 -0.05900769 0.06885925
000010 8d 16 04 bd 74 f4 18 3c 51 18 06 be 6e b3 00 3d
       -0.03224807 0.009335626 -0.13095213 0.031421117
000020 bb 92 f9 3c d4 4f 19 3d 76 48 d0 3d 8d 49 88 bd
       0.030465474 0.037429646 0.10170071 -0.06654654
000030 69 3e 92 3d b7 a8 11 3d 76 80 76 bd 23 65 8c bb
       0.0714081 0.03556129 -0.060181104 -0.0042845174
000040 12 97 30 3c fd 2b 03 3b 76 e2 41 3d e8 33 0b 3d
       0.0107782055 0.0020015233 0.04733511 0.03398505
000050 ae 05 90 bd 06 47 3a 3d 8e ee ba 3d f0 f0 58 bd
       -0.07032333 0.04547789 0.09127532 -0.05296415
000060 c7 f7 70 bd 60 26 43 bd 48 02 6d bd 7d 03 e5 3d
       -0.05883005 -0.04764402 -0.057863504 0.11182306
000070 fe 09 9d 3d 7f 01 0b bd 2b 41 9d 3d c7 c3 1f 3b
       0.076679215 -0.033936974 0.076784454 0.0024378167
000080 8c 57 05 be 53 df 55 bd 34 48 53 3d fa ce a6 bd
       -0.13021678 -0.05221493 0.05158253 -0.081449464
000090 48 66 8f bd d3 c3 34 3d f2 9c ab bd 3c fb b7 3c
       -0.070019305 0.044132065 -0.08379544 0.022458665
0000a0 e7 b1 93 bd c6 3c 5e bd 59 59 f7 bb 16 13 11 bd
       -0.072116666 -0.054257177 -0.007548493 -0.035418592
0000b0 96 46 3d bd 88 62 9b 3d 3a 11 61 bd 8a 7f 21 bd
       -0.046209894 0.07587153 -0.05494807 -0.03942827
0000c0 3b cf 7b bc d7 20 09 bc 6b 3a 1d bd 2d 31 28 bd
       -0.015369232 -0.008369646 -0.03838579 -0.041062523
0000d0 e5 f7 2c 3d 75 ce 7c 3c 93 43 5e 3d 3a 5d be bd
       0.0422286 0.015430083 0.054263663 -0.09295125
0000e0 7e a6 ef 3c c9 ed 8d 3d 9e 8c 7d 3d 0e 4f df bc
       0.029254194 0.069301195 0.06190168 -0.027259376
0000f0 b9 70 bd bd 85 59 b4 3c d4 9d 47 bd 5f ec f9 3c
       -0.09250016 0.022015342 -0.0487345 0.030508218
000100 87 92 e3 bc cc fc fb bc 89 b7 30 bd ec 5f a0 ba
       -0.02777983 -0.030760191 -0.043143783 -0.0012235618
000110 0e 51 fd 3c ac a0 88 3d 8f 21 95 3d 9c 5a ef 3c
       0.030922439 0.06671271 0.072817914 0.02921801
000120 40 0e b5 3d 22 cc b0 bc 6a 2f fc 3c 80 ca 26 bd
       0.088406086 -0.021581713 0.030784328 -0.040720463
000130 7a 82 cf bc bd 2c 5f bc 2e b1 4a bd 1f 39 ec bc
       -0.02533077 -0.013621506 -0.049485378 -0.028835831
000140 62 ff b9 3d 7b 88 00 bd 27 a0 bc bc 63 32 07 bd
       0.090819135 -0.031380158 -0.023025585 -0.033007037
000150 bf b4 7e bb 67 6f 31 3d c7 f1 90 3c 88 2f 49 bc
       -0.0038865057 0.043319132 0.017693413 -0.012279399
000160 78 ca 4c 3d 75 3e 89 39 42 d1 10 bc d4 73 ad bd
       0.049997777 0.0002617721 -0.008838953 -0.08469358
000170 d3 a5 95 3d 6f 62 84 bd f7 f7 a1 3d c7 21 58 3d
       0.07307019 -0.06464087 0.07908624 0.052766588
000180 c4 4a 89 bc b7 f6 44 3c 98 e6 7a b8 84 42 4d bb
       -0.016759284 0.012021712 -5.9819402e-05 -0.0031320164
000190 72 48 c7 3c f0 bb 8b 3d 8f f4 aa 3d 05 f7 75 bd
       0.024326537 0.068229556 0.08347427 -0.06005003
0001a0 df c9 b7 bc 31 44 b7 3b 21 6a d2 bc 0e 27 d6 bc
       -0.022435127 0.005592846 -0.025685372 -0.02614167
0001b0 5c 23 80 bd 30 51 b2 3d c1 13 22 bd d7 ef 4a bd
       -0.06256744 0.087068915 -0.03956962 -0.049545135
0001c0 2e 1e 03 bd a2 f3 92 3c 16 67 88 3d 9e d1 a4 bd
       -0.032011203 0.017938439 0.06660287 -0.08047794
0001d0 98 99 a6 bd 39 40 e7 bc ef a6 57 3d 9c 63 b3 3d
       -0.081347644 -0.028228866 0.052649435 0.08759233
0001e0 58 ac 06 3d f8 6b cb 3c 91 20 c1 bc 0a 2c 1f bd
       0.032879204 0.024831757 -0.0235751 -0.03886036
0001f0 42 40 9e 3d 40 0a ab bc 4a bf b4 3d 34 02 51 3d
       0.077271 -0.020878911 0.08825548 0.05102749
000200 0c e6 c0 3d 79 6f 6f bd 39 7b 3f bd 34 df 97 3d
       0.09418878 -0.058455918 -0.046748374 0.074156195
000210 f5 1b c0 3d 87 3f 82 bd 14 ba 92 3b ff 2b 92 bd
       0.093803324 -0.06359773 0.0044777486 -0.07137298
000220 76 ac 61 bd 57 0f 91 bd bc da 3a 3c 90 9a af 3d
       -0.055096112 -0.07083004 0.011404689 0.08574402
000230 42 41 2f 3d 4d a0 93 3d dd 96 4c 3d 5c 56 e3 3d
       0.042786844 0.07208309 0.049948562 0.11100456
000240 3c 56 5f bd 56 2b bb bc fa 7f f2 bd 1a 02 7d 3d
       -0.0545256 -0.022847813 -0.11840816 0.061769582
000250 3e 00 88 bd 87 ea bc 3d f0 e8 75 3d 18 62 64 3c
       -0.06640671 0.0922442 0.0600366 0.013939403
000260 76 e1 c8 3c 95 71 9b bd 7d a1 21 bd 13 40 d5 3d
       0.02452157 -0.075900234 -0.039460648 0.10412612
000270 cd 80 d2 bd 6a 67 99 bc 8a f5 b5 3d d9 36 ee bc
       -0.10278473 -0.01872607 0.088847235 -0.029078888
000280 91 8a b1 3d 91 6e 7a bd 86 55 35 bc 57 ef 95 3d
       0.086690076 -0.0611406 -0.011067754 0.07321041
000290 79 17 d9 bb d4 2d a4 3d c6 b1 44 3d 80 6b 82 bd
       -0.0066251126 0.080165535 0.0480211 -0.0636816
0002a0 bc 37 1b bd 80 9f 50 bc 04 61 32 bd b8 a9 6e 3d
       -0.03789495 -0.01273334 -0.043549553 0.058267325
0002b0 d7 21 83 3c 3c 82 ba 3d 33 21 b1 bd 08 bd 3e 3d
       0.016007347 0.091068715 -0.086489104 0.046566993
0002c0 31 85 1a 3c 89 cc 81 3d 40 8b 23 3b fa c1 1e 3d
       0.009431169 0.0633784 0.0024954826 0.03875921
0002d0 f2 59 1b bb 68 97 73 bb f2 41 9d 3d 99 c4 8b 3d
       -0.0023704735 -0.0037169103 0.07678594 0.068246074
0002e0 89 b3 fd 3d 29 c2 7d 3d c5 aa 89 3d f8 14 c6 3d
       0.12387759 0.061952744 0.06722025 0.09671968
0002f0 cd a9 93 3d f9 b8 a7 3d 7b b2 7f bb 6a 0d 8e 3d
       0.07210121 0.081895776 -0.0039016295 0.06936152
000300 fe 06 ad 3d d9 01 b2 3d d5 9c ae bc 61 41 ec 3c
       0.08448599 0.08691759 -0.021315018 0.028839769
000310 90 ee 98 3d 99 4f 8c bd 53 d4 f0 bc 1d 3c 57 bd
       0.07467377 -0.068511195 -0.02939812 -0.052547563
000320 1c 15 8e bd b4 2c c1 3c 1d de b8 bd dc c5 6a bc
       -0.0693762 0.023580886 -0.0902674 -0.0143294
000330 10 9a bb 3c 34 40 2b 3c 89 64 bc 3d 7f ce 92 bd
       0.022900611 0.010452319 0.09198863 -0.07168292
000340 1b 9f 13 bd b3 08 aa 3d ae f8 97 3d bb 04 1f bc
       -0.036040407 0.083024405 0.07420479 -0.009705718
000350 4d 32 5c bd 4e 06 0d bc b6 01 12 bd 91 8c ac bd
       -0.053758908 -0.00860746 -0.035646163 -0.084252484
000360 c3 25 b0 3d b0 ea 41 3d 19 a8 f6 3d 12 fc a1 bd
       0.086009525 0.047342956 0.12043781 -0.07909407
000370 81 ea 77 bd f6 b7 4d 3d 7a 17 2a 3d 82 89 c0 3d
       -0.060526375 0.050224267 0.041526295 0.094012275
000380 62 5a 23 bd 73 d1 68 bc ce 17 f7 3c 05 4f 75 3d
       -0.039881118 -0.014210093 0.030162718 0.059889812
000390 a0 ce 23 3c 2f 72 82 bd ff f4 35 3d 49 61 d5 3d
       0.009997994 -0.06369435 0.0444231 0.10418946
0003a0 c0 27 15 bb 9f a2 21 3b c2 da 92 bc ea de 5e bd
       -0.0022759289 0.002466358 -0.017926577 -0.054411806
0003b0 91 c0 98 3d 7e 61 89 3d 38 9e 2b 3c d0 10 62 3d
       0.07458604 0.06708048 0.010474734 0.055191815
0003c0 c8 b3 8a bc 2f 86 82 bd a0 e4 ca bd 68 df 91 bc
       -0.01693143 -0.0637325 -0.09906888 -0.017806724
0003d0 36 53 25 3d 86 2a e9 3c 12 e5 2a 3c ec ec 3f bd
       0.04036256 0.02846266 0.010430591 -0.046856806
0003e0 a8 72 9f 3c a2 4d d5 bc a5 7a 81 bd 9a 2f 80 bc
       0.019463852 -0.026037995 -0.06322221 -0.015647698
0003f0 53 16 b1 3d b7 52 e0 3d f0 ce c4 3d 65 07 f2 bc
       0.08646836 0.109532766 0.09609783 -0.029544542

6.bias f4 [128]
000000 aa 1b 64 3d f8 25 b2 3d 6d b4 4e 3d b0 7f b5 3c
       0.055690445 0.08698648 0.050465036 0.022155613
000010 ef 87 b5 3d 77 7d 7d bd f2 0a 96 bc 9b 82 8a 3c
       0.08863818 -0.06188723 -0.018315766 0.01690798
000020 84 90 50 bc de 08 89 bd 85 58 70 3d 78 65 15 bc
       -0.012729768 -0.066911444 0.05867817 -0.00911843
000030 35 2a 43 bc ba b4 0c bd 75 51 4a 3c 95 99 99 bd
       -0.011911918 -0.03435204 0.012348522 -0.074999966
000040 4c 5f 79 bd 6e 7b 7b 3d 37 4b 82 bd 52 5f 09 3d
       -0.060881898 0.06139701 -0.06362002 0.03353817
000050 f6 42 60 3c 37 d2 c0 3d a1 09 3a bd db 4d 81 bd
       0.01368784 0.09415095 -0.04541934 -0.06313678
000060 c4 e4 bb 3c b4 a2 25 bd 53 e1 94 bc 4b b7 8b 3d
       0.022936232 -0.04043837 -0.01817385 0.0682207
000070 cd e4 4f bd 91 e1 ba 3d 3d 41 9e bc ca 6a 11 3c
       -0.05075531 0.09125055 -0.019318217 0.008875558
000080 59 c3 47 bc 5b 98 7c bd 7c 21 a0 bb 11 18 c0 bd
       -0.012192571 -0.061668735 -0.004886804 -0.0937959
000090 97 85 f5 bc 6a 7b 37 3d ab 8a 84 3d 15 96 24 bd
       -0.029970927 0.04479543 0.06471761 -0.040182192
0000a0 f5 84 54 3d d2 94 07 3c 28 95 4c bc 98 2f 4b bd
       0.05188461 0.008275228 -0.0124867335 -0.049605936
0000b0 67 b0 f9 3c 9a a2 31 bd 9f 8f 24 3d 3e 82 c4 3d
       0.030479623 -0.04336796 0.04017603 0.09595154
0000c0 3c 21 97 bc ff 1b a3 3d c9 4d 8e bd b8 1f 17 bd
       -0.018448465 0.07964324 -0.0694843 -0.036895484
0000d0 af a2 8d 3d ce d2 95 bd bf 04 b0 3c 2e 23 58 3c
       0.06915795 -0.073155984 0.021486638 0.013191981
0000e0 ee 83 ba 3d 3e 75 b7 3d 66 3f 8d 3d 56 35 66 bd
       0.09107195 0.08957909 0.06896858 -0.05620321
0000f0 09 74 9f bc 62 ec 84 bc cc 57 98 3d 64 9b 89 3a
       -0.01946451 -0.016225997 0.07438621 0.001049858
000100 73 d0 e7 bc c4 24 8a 3c c0 00 26 bc 7b 1c 0e bd
       -0.028297639 0.016863234 -0.010132015 -0.03469513
000110 1d a6 b5 bc 4f e8 32 3d 30 97 0d 3c 14 95 84 bd
       -0.022173936 0.043678578 0.008642003 -0.06473747
000120 00 fd 5c ba 81 84 a4 3c c9 97 a5 bc 11 77 9a 3d
       -0.0008430034 0.020082714 -0.020213978 0.07542241
000130 b0 ad 17 3d ab ee 3a 3d 1c d1 43 3d 7f 95 1e bd
       0.037030876 0.045637768 0.047806844 -0.03871679
000140 f2 22 ec bc 0e 9b 4b bd 61 73 da bb 8a 05 ca 3d
       -0.028825257 -0.04970842 -0.0066665863 0.09864338
000150 73 b9 d1 3c 49 21 ae 3d f0 ad c2 3c 8d 51 ad 3d
       0.025601124 0.085024424 0.02376458 0.0846282
000160 3b db 58 3d da c4 1b 3d b4 8b 01 bd c4 12 45 bd
       0.05294345 0.03802953 -0.031627372 -0.0481136
000170 53 27 d4 bc b9 8d 0d bd de 6c 3b 3d c8 6a 1b 3d
       -0.025897657 -0.034558985 0.04575812 0.03794363
000180 59 54 87 bd 42 fd 87 3d 01 a2 96 3d 54 38 57 3d
       -0.06607885 0.06640102 0.073551185 0.052543953
000190 e7 c4 a6 3d 30 4b 6f 3d 22 37 2a 3d 6d f6 37 bd
       0.08143025 0.058421314 0.041556485 -0.044912744
0001a0 80 ba 55 ba aa e4 9d 3c c7 ab e7 3a ea f5 99 3c
       -0.0008153096 0.019274075 0.0017675095 0.018794019
0001b0 0f 7f b8 3d bc c2 48 3d ed 39 66 3d 3b 0c ab bd
       0.090086095 0.04901384 0.056207586 -0.08351942
0001c0 ca f0 48 3d 31 40 d2 bc 37 de a2 bd 5e 8f 8e 3c
       0.04905776 -0.025665374 -0.0795254 0.017402347
0001d0 69 d8 39 3d a6 5d a4 3d 30 b1 c8 bc 3a cf 9a 3d
       0.0453724 0.080256745 -0.024498552 0.075590566
0001e0 b1 a3 6c bb 2a fd 36 bd 0e c7 bc 3c ce 96 ed bb
       -0.003610831 -0.04467503 0.023044135 -0.0072506433
0001f0 04 22 83 bd 46 2c 01 bc bd cf a3 bd 3e d5 6c bd
       -0.06402972 -0.007884091 -0.07998607 -0.05782055
