models_3_500/checkpoint166.pth.tar (torch_old, 478255 bytes, 10 tensors)

0.weight f4 [256, 10]
0	0xbd756a55	-0.05991586
1	0xbdba4bd2	-0.09096493
2	0x3e5521b2	0.20813635
3	0xbe1f11eb	-0.15534179
4	0x3ccea2be	0.025224086
5	0xbe3a364c	-0.18184775
6	0x3e7d264a	0.24721637
7	0x3c262328	0.010140218
8	0xbd1d49c7	-0.038400438
9	0x3e8d7b70	0.27633238
10	0x3e3cf86d	0.18454142
11	0xbe84b74b	-0.2592109
12	0xbe51a0bd	-0.20471473
13	0x3e30d0c2	0.17267135
14	0x3e0b414a	0.13599125
15	0xbea9423b	-0.33058342
16	0xbd9b1f47	-0.07574325
17	0xbe9b771d	-0.30364314
18	0xbde40967	-0.11134606
19	0x3d1dacb0	0.038494766
20	0xbe9d1cc9	-0.30686024
21	0x3ead5ca7	0.3385975
22	0x3d7b6b4c	0.061381623
23	0xbe1fe577	-0.15614878
24	0x3dd9b41b	0.106300555
25	0x3d35b282	0.04435969
26	0x3ea85d34	0.32883608
27	0xbdeded44	-0.116175205
28	0x3d6dcb96	0.058055483
29	0x3e654ef2	0.22393396
30	0x3cb5a333	0.022172546
31	0x3db28e7d	0.08718584
32	0xbd39bca9	-0.045345936
33	0xbdb17e7b	-0.08666702
34	0xbe87e9e8	-0.26545644
35	0x3e0df491	0.13862826
36	0x3e7eb7d4	0.24874812
37	0x3e438c29	0.19096436
38	0xbd9448c5	-0.07240442
39	0xbd051fba	-0.03250096
40	0xbcb518b3	-0.022106504
41	0xbc61fccd	-0.013793183
42	0xbd919e76	-0.07110302
43	0x3ca82d68	0.020529464
44	0xbe947e65	-0.2900268
45	0x3c6ec4ef	0.01457332
46	0x3d70a266	0.058748625
47	0x3e859ade	0.26094717
48	0x3e24b04b	0.16082875
49	0x3c09a78a	0.008401761
50	0x3e9e7539	0.3094881
51	0x3e8953c0	0.2682171
52	0x3da28c22	0.079368845
53	0xbdc8db9b	-0.098075114
54	0x3dfa22fb	0.12213703
55	0xbd913e1f	-0.07091927
56	0xbe7352cf	-0.23762058
57	0x3df42ed0	0.11922991
58	0x3e909003	0.28234872
59	0x3e1928e9	0.14957012
60	0x3e70e4ff	0.23524855
61	0x3e4b2e5d	0.19841905
62	0xbe8a45b4	-0.27006304
63	0xbe49064d	-0.1963131
64	0xbd19371c	-0.037406072
65	0xbdb6ed88	-0.08932024
66	0xbe8b8164	-0.27247155
67	0x3ea77258	0.32704425
68	0xbd405660	-0.046957374
69	0xbe87ed64	-0.26548302
70	0xbc7b04b8	-0.015320949
71	0x3e22aedc	0.15887016
72	0xbe877a56	-0.26460522
73	0x3eaad826	0.33368033
74	0x3dd5bf49	0.104368754
75	0x3e8da2fb	0.27663407
76	0x3e4fb245	0.20282848
77	0x3e6d1bb9	0.23155107
78	0x3e3a18dd	0.18173547
79	0x3ea2896c	0.3174547
80	0xbe768345	-0.24073513
81	0xbe5c6fbb	-0.21526997
82	0xbe642f34	-0.22283632
83	0xbd7d63ae	-0.06186264
84	0xbead1e43	-0.3381215
85	0x3e65fcbc	0.22459692
86	0xbe3e4e9b	-0.18584673
87	0x3dcdaf67	0.10043221
88	0xbe0f0768	-0.13967669
89	0x3c3c5eef	0.011497243
90	0xbd92d8a9	-0.07170231
91	0x3d64a877	0.055824723
92	0xbd595aa4	-0.053064957
93	0xbe542ac7	-0.20719443
94	0x3d27d0a6	0.040970467
95	0xbe8cb87b	-0.27484497
96	0x3cf0fe4c	0.029418133
97	0xbe2c3d08	-0.16820157
98	0xbe3e60de	-0.1859164
99	0x3dc3a0ba	0.095521405
100	0xbe2d9aef	-0.16953634
101	0xbe948a11	-0.29011586
102	0xbded1450	-0.1157614
103	0xbe711e71	-0.23546769
104	0xbe809372	-0.25112492
105	0xbe31d8c3	-0.17367844
106	0x3da78c6b	0.081810795
107	0x3d490dd4	0.049085453
108	0x3df43e36	0.11925928
109	0x3e152a12	0.1456683
110	0x3e54cdca	0.20781627
111	0xbdfd1f84	-0.12359527
112	0x3e88684c	0.26642072
113	0xbe610172	-0.21973208
114	0xbe3e516a	-0.18585745
115	0x3d87e071	0.06634606
116	0x3e9368f9	0.28791025
117	0xbd5ed50b	-0.054402392
118	0xbd939c6e	-0.07207571
119	0xbdfb952f	-0.12284314
120	0x3eb43e57	0.35203812
121	0xbd35afbd	-0.04435705
122	0xbe79bd87	-0.24388705
123	0x3e9cd4aa	0.30631
124	0x3ea576e6	0.32317275
125	0xbe5ced5f	-0.21574925
126	0xbe756413	-0.23963957
127	0xbb5d30b2	-0.0033750948
128	0x3e9f48aa	0.31110126
129	0xbe7d84bf	-0.2475767
130	0xbcfbb200	-0.030724525
131	0xbd5e9698	-0.054342836
132	0xbe02c9af	-0.12772249
133	0xbe1b79fd	-0.15183254
134	0xbe850545	-0.25980583
135	0x3cdda140	0.027054429
136	0xbe82502e	-0.25451797
137	0xbd118b78	-0.0355334
138	0xbe6294a4	-0.22127014
139	0x3b9eda80	0.0048478246
140	0x3e9a4837	0.3013322
141	0x3e6c57f8	0.23080432
142	0x3e8ccdca	0.27500755
143	0x3e908f99	0.28234556
144	0x3e5e6333	0.21717529
145	0x3dd546c0	0.10413885
146	0xbddd3aaf	-0.10802209
147	0xbe826235	-0.2546555
148	0xbe583301	-0.21113206
149	0x3e31a381	0.17347528
150	0x3d72e92e	0.05930441
151	0x3d45623f	0.048189398
152	0x3e8e7006	0.27819842
153	0x3b0e5d89	0.0021723232
154	0x3e7ca326	0.24671611
155	0xbc504118	-0.012710832
156	0xbe9a2dfd	-0.3011321
157	0xbcbd60a0	-0.023117363
158	0xbe6f2a78	-0.23356044
159	0x3d4349ca	0.047677793
160	0x3e8e2885	0.2776529
161	0x3e41790c	0.18893832
162	0xbe567f33	-0.2094696
163	0xbd417e82	-0.047239788
164	0xbe54332f	-0.2072265
165	0xbd9a1e77	-0.07525342
166	0x3e8fc1cd	0.28077546
167	0xbe3036eb	-0.1720845
168	0x3d3b7d5b	0.045773845
169	0x3c975994	0.018475331
170	0xbe418549	-0.188985
171	0x3e9ace93	0.3023573
172	0xbac29f38	-0.0014848476
173	0xbe3fcb1d	-0.18729825
174	0x3eab81a4	0.33497345
175	0xbe949889	-0.29022625
176	0xbdc32e12	-0.095302716
177	0xbdd4b813	-0.10386672
178	0x3eadcbab	0.3394445
179	0x3e4f6f23	0.20257239
180	0x3d8327fd	0.064041115
181	0x3dbfaa4b	0.09358653
182	0xbdac8dda	-0.084254935
183	0x3ddd5089	0.108063765
184	0xbd8a048c	-0.067391485
185	0x3da70157	0.081545524
186	0x3e78b251	0.24286772
187	0x3e3d36fb	0.18478005
188	0xbdf77aa1	-0.120839365
189	0xbd6f4fbf	-0.05842566
190	0x3e96d79c	0.29461372
191	0x3e3c4701	0.18386461
192	0x3e865ee5	0.26244274
193	0x3e0ee511	0.1395457
194	0xbe7bcf26	-0.2459074
195	0xbe474c5a	-0.1946272
196	0xbe91309e	-0.28357404
197	0x3e985532	0.297525
198	0xbdfe1cae	-0.12407814
199	0x3e4ad153	0.19806413
200	0x3c591244	0.013248984
201	0xbdea9c56	-0.114556
202	0xbcb1e163	-0.021713918
203	0x3e0e804d	0.1391613
204	0xbdc4f4eb	-0.09617027
205	0x3ea52440	0.3225422
206	0xbe1f0a5d	-0.15531297
207	0x3e29ce21	0.16582538
208	0x3b5b868f	0.0033496951
209	0x3c321752	0.010869818
210	0xbe5fa9e6	-0.21842155
211	0xbdcb5898	-0.09929007
212	0x3e9fff84	0.3124963
213	0xbe3391c0	-0.17536068
214	0x3e32de7b	0.17467682
215	0x3dacfc12	0.08446516
216	0x3e6ceb5a	0.23136654
217	0x3dd13cca	0.10216673
218	0x3e411c7b	0.1885852
219	0x3d8fbe83	0.07018759
220	0x3e89abbe	0.2688884
221	0xbe076e3b	-0.13225643
222	0xbd1e7c03	-0.038692486
223	0xbd8afb14	-0.067861706
224	0x3e783774	0.24239904
225	0x3db45d60	0.08806872
226	0x3ea7df97	0.32787773
227	0xbe630754	-0.22170764
228	0xbe235e08	-0.15953839
229	0x3e78b2e9	0.24286999
230	0xbc537a4a	-0.012907574
231	0x3e5c1a53	0.21494417
232	0xbd8e2906	-0.06941418
233	0xbd9c8805	-0.07643131
234	0x3e36d498	0.17854536
235	0xbdfa2e9f	-0.122159235
236	0xbd579df2	-0.052640863
237	0xbdbfb8e1	-0.09361435
238	0xbe4601d6	-0.19336638
239	0xbe68b840	-0.22726536
240	0x3e5b2729	0.21401657
241	0xbc3658d0	-0.011129573
242	0xbe6b3f86	-0.22973451
243	0xbe78df4e	-0.24303934
244	0xbdb417c5	-0.08793596
245	0xbdd76ae1	-0.105184324
246	0x3dfb2080	0.12262058
247	0x3e1b2ece	0.15154573
248	0xbd4a5eaa	-0.049406685
249	0x3e42be00	0.19017792
250	0x3d8fb73f	0.07017373
251	0xbdb7fff3	-0.08984365
252	0xbbcc6fa6	-0.0062388955
253	0x3e8a0830	0.26959372
254	0xbce8f3d4	-0.028436579
255	0xbe129e66	-0.14318237

0.bias f4 [256]
0	0x3dd3fe6a	0.1035126
1	0xbd323851	-0.04351074
2	0x3e468a22	0.19388631
3	0xbe3f1723	-0.1866117
4	0xbd8918d8	-0.06694192
5	0xbe391d5c	-0.18077606
6	0xbe97f6ad	-0.29680386
7	0x3d4707ca	0.048591413
8	0xbd3ac9b0	-0.0456025
9	0x3e403a56	0.18772253
10	0xbe543d2b	-0.20726459
11	0x3e31db40	0.17368793
12	0x3e61ca97	0.22049938
13	0xbdc039e2	-0.0938604
14	0xbe0c7051	-0.1371472
15	0x3d9f1efc	0.07769582
16	0xbca57906	-0.02019931
17	0x3e876013	0.26440486
18	0xbe4b4084	-0.1984883
19	0xbe2d6372	-0.16932467
20	0xbdc4900c	-0.09597787
21	0x3d1b1966	0.03786602
22	0x3d9b6455	0.07587496
23	0x3e439bfa	0.19102469
24	0xbcc1e5a2	-0.023669068
25	0x3d153ec9	0.03643683
26	0xbe56d7f0	-0.20980811
27	0x3e50aca8	0.20378363
28	0xbc1afe92	-0.009460108
29	0xbe891a99	-0.26778105
30	0xbdb9188a	-0.090378836
31	0xbd5da445	-0.054111738
32	0x3e44b78d	0.19210644
33	0xbcdf32ce	-0.027245905
34	0xbd7085c3	-0.058721315
35	0xbe3aabf9	-0.18229665
36	0x3e6dadeb	0.23210876
37	0x3de2d7bd	0.11076305
38	0xbe4354a6	-0.1907526
39	0x3e44d95e	0.19223544
40	0x3ca6633c	0.02031099
41	0x3eac155f	0.33610055
42	0xbe37ffac	-0.17968625
43	0xbdb63934	-0.088976294
44	0x3e920d5b	0.28525814
45	0xbe1fe90d	-0.15616246
46	0x3e1d78c0	0.15378094
47	0xbd6f4d9d	-0.058423627
48	0xbe80c590	-0.25150728
49	0xbe00ad74	-0.12566167
50	0xbc4417fd	-0.01196861
51	0xbe7074a0	-0.23481989
52	0xbd235738	-0.0398781
53	0x3e355981	0.17709924
54	0x3d028868	0.03186837
55	0x3ea4977b	0.3214682
56	0xbcb0dd74	-0.021589972
57	0x3dfc6038	0.1232304
58	0x3e918b12	0.28426415
59	0xbe64e0ea	-0.22351423
60	0x3e391d4a	0.18077579
61	0xbe6a908f	-0.22906707
62	0xbdd2c2e5	-0.102910794
63	0x3cf5a1c5	0.029984364
64	0xbe95889e	-0.29205793
65	0xbdf65e0e	-0.12029658
66	0xbbbe2d72	-0.0058037573
67	0xbe553801	-0.20822145
68	0x3e343859	0.1759962
69	0xbe39b717	-0.1813625
70	0x3e8ed805	0.27899185
71	0xbe49fc14	-0.19725066
72	0x3e0a9b27	0.13535748
73	0x3e8cbb3b	0.27486596
74	0xbdef0692	-0.11671175
75	0x3cf41f13	0.029799974
76	0xbde3313b	-0.11093374
77	0x3c5c4dad	0.013446254
78	0xbe642e4c	-0.22283286
79	0x3e63b942	0.22238639
80	0x3d7826d2	0.060583897
81	0xbd5fc20c	-0.054628417
82	0xbdaf8854	-0.085709244
83	0xbd28bc32	-0.041195102
84	0xbe3346ab	-0.17507426
85	0x3e8b4b02	0.27205664
86	0xbe84a15e	-0.25904363
87	0xbd528db7	-0.05140468
88	0x3e82446c	0.25442827
89	0xbdba6a83	-0.09102347
90	0xbe07e145	-0.13269527
91	0xbe1d1e74	-0.15343648
92	0x3e517cdd	0.20457788
93	0xbe9ad7fe	-0.30242914
94	0xbd0d1986	-0.03444817
95	0x3e638221	0.22217609
96	0xbe668a47	-0.22513686
97	0x3e740738	0.23830879
98	0x3cbbec4f	0.02293983
99	0x3de68a19	0.11256809
100	0xbe3ffdc1	-0.18749143
101	0x3d3de7ed	0.04636376
102	0x3aa6f0ae	0.0012736523
103	0x3e397fe6	0.18115196
104	0x3d9ab6d2	0.075544015
105	0xbe46a5a8	-0.1939913
106	0x3e9cbefd	0.30614462
107	0x3dade323	0.084905885
108	0x3dc572a4	0.096410066
109	0xbe2d66ce	-0.16933748
110	0x3dd7e95a	0.10542555
111	0x3e77c246	0.24195203
112	0xbe2edd7e	-0.1707668
113	0x3dd3e714	0.10346809
114	0x3d4c90ca	0.04994277
115	0xbe4564f1	-0.19276787
116	0x3d3b6799	0.045753095
117	0x3e5cadc5	0.21550663
118	0x3e220035	0.15820391
119	0x3de0c5d2	0.10975231
120	0xbdfb1f2a	-0.122618034
121	0x3d860d31	0.06545485
122	0xbe708b7e	-0.23490712
123	0x3e9747b4	0.29546893
124	0xbdf2c5a7	-0.118541054
125	0xbd0c4e7e	-0.034254543
126	0x3e975a8a	0.29561263
127	0xbd56e16e	-0.05246108
128	0xbe14a69c	-0.14516681
129	0xbd96a270	-0.07355201
130	0xbda26059	-0.07928533
131	0x3cab5562	0.020914737
132	0x3ea53853	0.32269534
133	0x3df7855b	0.120859824
134	0x3e035b84	0.12827879
135	0x3e9947cc	0.2993759
136	0xbe17d154	-0.14825946
137	0xbe2d9424	-0.16951042
138	0x3e4127c7	0.1886283
139	0x3e570234	0.20996934
140	0xbb836c11	-0.0040106853
141	0x3e8c7996	0.27436513
142	0xbe048307	-0.12940608
143	0xbda9fc45	-0.0830007
144	0xbd5332c0	-0.05156207
145	0xbd7de998	-0.06199035
146	0x3caacc3e	0.020849343
147	0x3e04671e	0.12929961
148	0x3e82cb8b	0.25545916
149	0xbdae0ee0	-0.08498931
150	0xbcbb145f	-0.022836862
151	0xbd2b82e8	-0.04187289
152	0x3e5126cf	0.2042496
153	0xbe6db4c9	-0.23213495
154	0x3dc2a094	0.09503284
155	0x3e89667e	0.26836008
156	0x3d70496f	0.05866378
157	0x3d751558	0.059834808
158	0xbd2710ce	-0.04078751
159	0x3da0e211	0.07855619
160	0xbdb2d95b	-0.087328635
161	0x3e9ef24b	0.3104423
162	0xbe4eacbe	-0.20183083
163	0x3d52a2f6	0.051424943
164	0xbd45a764	-0.04825534
165	0xbe0f86ac	-0.14016217
166	0x3d34d634	0.044149593
167	0x3e959783	0.29217157
168	0xbe8f680a	-0.28009063
169	0xbe2fa262	-0.17151788
170	0x3e805844	0.2506734
171	0x3eab8649	0.3350089
172	0xbe1d8d19	-0.15385856
173	0xbe62dc6f	-0.22154401
174	0xbc5be465	-0.013421153
175	0xbe1ad3b5	-0.15119822
176	0xbe88696d	-0.26642933
177	0x3e550971	0.20804383
178	0xbc0fe508	-0.008782633
179	0x3eace26c	0.33766496
180	0x3c99f36a	0.018792827
181	0xbd9a1a6f	-0.07524573
182	0x3d87e281	0.06634999
183	0x3e0c0924	0.13675362
184	0xbe55e512	-0.20888165
185	0xbcf46016	-0.029830974
186	0xbdf72031	-0.12066687
187	0x3dd76c8d	0.10518751
188	0x3d5120a5	0.051056523
189	0xbdb157c4	-0.08659318
190	0x3e595e06	0.21227273
191	0xbab21ce1	-0.0013588929
192	0x3d0ca066	0.034332655
193	0xbe20a622	-0.15688375
194	0xbda57825	-0.080795564
195	0xbe156814	-0.14590484
196	0x3dba1c7b	0.090874635
197	0x3e7600dd	0.24023767
198	0xbe509eb9	-0.20373048
199	0xbdea0fa2	-0.11428763
200	0x3e82be0f	0.25535628
201	0x3e336caa	0.17521921
202	0x3eaa690d	0.33283272
203	0xbc97e284	-0.018540628
204	0x3d452c2f	0.04813784
205	0x3e1384fa	0.14406195
206	0x3e4c4ecc	0.19951934
207	0x3d82d53f	0.0638833
208	0xbe5893f6	-0.21150193
209	0xbe399d04	-0.18126303
210	0x3e34e926	0.17667064
211	0x3daaa9d5	0.08333174
212	0xbe42a358	-0.19007623
213	0x3daeab58	0.08528775
214	0xbe4bc469	-0.19899143
215	0x3ea2fea8	0.31834912
216	0x3dcedb1f	0.10100388
217	0x3d4aff02	0.0495596
218	0x3eb5051b	0.35355458
219	0x3d3939b2	0.04522104
220	0xbd90d09c	-0.07071039
221	0x3e0c97cf	0.13729785
222	0xbd560be1	-0.052257422
223	0x3e92b39a	0.2865265
224	0x3e138aa9	0.14408363
225	0x3e3b6cf6	0.18303284
226	0x3e346822	0.17617849
227	0x3df41258	0.11917561
228	0x3d97384d	0.073837854
229	0xbe2b0b7d	-0.16703601
230	0xbe6ef969	-0.2333733
231	0x3de67ef5	0.11254684
232	0x3d566d7c	0.052350506
233	0x3e0a5d71	0.13512208
234	0x3d924d95	0.07143704
235	0xbe3b773a	-0.183072
236	0xbe0e5762	-0.13900521
237	0xbde739e1	-0.112903364
238	0xbdf2c1aa	-0.11853345
239	0x3e0c50b5	0.13702662
240	0x3e69b47b	0.22822754
241	0x3e4061e9	0.1878735
242	0xbe5d9373	-0.21638279
243	0x3e96f33c	0.29482448
244	0x3e18e6a5	0.14931734
245	0x3dc09641	0.09403659
246	0x3dc8ef6c	0.09811291
247	0x3eb8d44b	0.36099467
248	0xbe749415	-0.23884614
249	0x3e610388	0.21974003
250	0x3d9b8394	0.07593456
251	0x3dd539f1	0.10411442
252	0x3d00808e	0.0313726
253	0xbd3264b3	-0.043553066
254	0x3c2fb59b	0.01072445
255	0xbd507091	-0.0508886

2.weight f4 [256, 256]
0	0x3c80ac5e	0.015707191
1	0x3d1dd549	0.038533483
2	0x3d2de6a9	0.042456303
3	0xbceb6df1	-0.028738948
4	0xbbcc6a4b	-0.006238257
5	0x3d554154	0.052064255
6	0x3caa0871	0.020755978
7	0x3d682971	0.056680147
8	0x3cf6fa48	0.03014864
9	0xbd12595a	-0.035729744
10	0x3cefe672	0.02928469
11	0xbc71f18e	-0.014767064
12	0x3c27e4d8	0.010247432
13	0x3cf8ce4c	0.030371808
14	0x3cac494d	0.021031046
15	0x3d27261f	0.04080784
16	0x3ca479a0	0.020077527
17	0xbc1062c5	-0.008812611
18	0xbd221537	-0.039571013
19	0x3a97dd62	0.0011586363
20	0xbba30afe	-0.0049756756
21	0x3dce2a5f	0.100666754
22	0xbcf627d5	-0.03004829
23	0xbcafe6fc	-0.021472447
24	0xbd8620ee	-0.065492496
25	0xbc91a32f	-0.017778007
26	0x3ccdc973	0.025120473
27	0x3d80e57f	0.06293773
28	0xbc7a39df	-0.015272587
29	0xbc78fbac	-0.015196722
30	0x3c382c48	0.011241026
31	0x3d977166	0.07394676
32	0x3d4aa156	0.04947027
33	0x3cce3a5a	0.025174309
34	0xbb9dc39d	-0.0048145787
35	0xbdb14a4b	-0.086567484
36	0x3d378509	0.044804607
37	0x3c490989	0.01227034
38	0x3cd95c26	0.026533198
39	0xbd47c191	-0.048768584
40	0x3ced67cc	0.028980158
41	0x3cf36108	0.029709354
42	0xbc349e6e	-0.011024101
43	0xbd3f0336	-0.04663392
44	0xbc8d84c6	-0.017275225
45	0x3d45f326	0.048327588
46	0xbd7094cf	-0.058735665
47	0xbd3f4574	-0.046697095
48	0x3d257591	0.040395323
49	0x3d79b402	0.060962684
50	0x3b609ce3	0.00342732
51	0xbc2fe48d	-0.010735643
52	0xbc4a10b7	-0.012333087
53	0x3d1c7cf8	0.038205117
54	0x3c60eef6	0.013728848
55	0xbd6191c7	-0.055070665
56	0x3d34d931	0.044152442
57	0x3d19842e	0.037479572
58	0x3cf8c0eb	0.030365428
59	0xbd4be6c8	-0.049780637
60	0xbd6b6a20	-0.057474256
61	0x3d509212	0.050920554
62	0xbcb5b451	-0.022180708
63	0x3cf7ea33	0.030263042
64	0xbd94e53d	-0.07270286
65	0xbd349f88	-0.044097453
66	0x3cb5f849	0.022213118
67	0xbd893c72	-0.06700982
68	0x3d13cf3d	0.03608631
69	0x3d4b88b5	0.04969092
70	0x3d3558f8	0.0442743
71	0x39a99fca	0.00032353244
72	0xbd10e871	-0.035377923
73	0xbcfaeb34	-0.030629732
74	0xbba17b5f	-0.004928037
75	0x3d59f815	0.053215105
76	0xbd00ba7e	-0.031427853
77	0x3be2efb9	0.00692555
78	0xbc8cae7f	-0.01717305
79	0xbd87bc87	-0.066277556
80	0xbd7a891f	-0.061165925
81	0x3d34737d	0.04405545
82	0x3c4547d2	0.012041049
83	0xbd6d93c8	-0.058002263
84	0xbcc52951	-0.024067553
85	0x3bef6cbb	0.007306663
86	0x3d0d6d07	0.034527805
87	0x3c77d405	0.015126233
88	0xbd000357	-0.031253185
89	0x3d0c4be0	0.034252048
90	0xbd33f6af	-0.043936428
91	0xbaa12105	-0.0012293166
92	0x3d1ef118	0.038804144
93	0xbd4bce1e	-0.049757116
94	0x3d668b13	0.056284975
95	0xbd551426	-0.05202117
96	0x3d0b959f	0.034078237
97	0x3c18e0d1	0.009330944
98	0x3ccca906	0.02498294
99	0xbc594de1	-0.013263197
100	0xbd6cb189	-0.0577865
101	0xbc9aa82d	-0.01887902
102	0xbd08981e	-0.033348195
103	0xbcb1d183	-0.021706348
104	0xbb46bfa5	-0.0030326631
105	0x3da6b444	0.08139852
106	0x3cff4880	0.0311625
107	0x3b920b2f	0.0044568996
108	0x3cade38a	0.021226663
109	0x3c1c75e1	0.009549589
110	0x3cad5da2	0.021162812
111	0x3c952e35	0.01821051
112	0xbd96f1f2	-0.07370366
113	0x3cdb4c10	0.026769668
114	0xbd36eb0e	-0.04465776
115	0x3ccfc8b8	0.025364265
116	0x3d510029	0.051025543
117	0xbaf2bd5e	-0.0018519571
118	0x3dabe4e6	0.08393268
119	0xbd344b2b	-0.044017
120	0x3d10ce4a	0.035352983
121	0x3ca584fc	0.020205013
122	0xbd60017f	-0.054688927
123	0x3d6b4762	0.057441123
124	0x3d5d6590	0.054051936
125	0xbd8c621a	-0.06854649
126	0xbd207064	-0.039169684
127	0xbcdce6d4	-0.026965536
128	0x3cc12ee2	0.023581926
129	0x3d37a69b	0.04483662
130	0x3cd593b2	0.026071403
131	0x3c65f257	0.014034829
132	0xbd75a8b0	-0.059975326
133	0xbce4c85e	-0.027927574
134	0xbd25392d	-0.04033773
135	0xbcc2bffe	-0.02377319
136	0x3b429219	0.0029689132
137	0x3d1a6a81	0.037699226
138	0x3c82c83b	0.015964618
139	0xbc07183b	-0.008245523
140	0x3d85bc5f	0.065300696
141	0x3b81d727	0.0039624157
142	0xbd1f5bf0	-0.038906038
143	0x3d74bf57	0.05975279
144	0x3d1ef95f	0.038812038
145	0x3b4bdd78	0.0031107347
146	0xbd4618a2	-0.048363335
147	0x3ca260d5	0.019821564
148	0x3c96328c	0.01833465
149	0xbb503044	-0.003176705
150	0x3d71acaa	0.059002556
151	0x3d4bc15a	0.04974494
152	0xbc915dfb	-0.017745009
153	0x3d42e76b	0.04758398
154	0xbd700913	-0.058602404
155	0x3cb809d9	0.022465633
156	0x3da7bc4c	0.08190212
157	0xbc1672ea	-0.009182671
158	0x3cc36c2b	0.02385529
159	0xbd03d70e	-0.032187514
160	0xbcce2a84	-0.025166757
161	0xbda7cb70	-0.081930995
162	0xbbe5cadd	-0.0070127086
163	0x3c0793ba	0.008274967
164	0xbd139e12	-0.03603942
165	0x3d2190d0	0.039444745
166	0x3d2a8069	0.041626368
167	0xbc1dd7c2	-0.00963396
168	0x3d07d46a	0.03316156
169	0xbce9f236	-0.028557878
170	0xba9b2d2b	-0.0011839023
171	0x3d87a67e	0.06623553
172	0x3d27985e	0.040916793
173	0x3b4001d1	0.0029297958
174	0x3c507111	0.01272227
175	0xbc7c3200	-0.01539278
176	0x3d30b23d	0.04313873
177	0xbd8c5324	-0.06851795
178	0xbd50633e	-0.050875895
179	0xbcbf1e9e	-0.02333003
180	0x3dbcd3b8	0.0922007
181	0x3d400671	0.046881143
182	0x3d5655b1	0.052327815
183	0xbd1826ce	-0.037146382
184	0xbcd56b5a	-0.026052166
185	0xbd843c07	-0.06456762
186	0xbd02806c	-0.031860754
187	0x3d01ebf1	0.031719152
188	0x3cce183e	0.025158044
189	0x3c0304f8	0.00799679
190	0x3d56317b	0.052293282
191	0x3d917b5e	0.071036085
192	0xbcdffa6c	-0.02734109
193	0xbd93079a	-0.07179184
194	0x3d914f3f	0.07095193
195	0xbcea5fdf	-0.028610168
196	0x3d958be3	0.07302072
197	0x3d87f240	0.066380024
198	0x3cd198de	0.025585588
199	0x3d511454	0.051044777
200	0xbb913f24	-0.004432576
201	0xbcb5159f	-0.022105036
202	0x3d02b13c	0.031907305
203	0x3db16b1a	0.08663006
204	0xbbec55b7	-0.0072123664
205	0x3c8b9ed1	0.017043503
206	0x3b1d870a	0.0024036788
207	0xbd8e0daa	-0.069362
208	0xbd83fe67	-0.06445008
209	0xbc760e83	-0.015018108
210	0x3d44ad28	0.048016697
211	0x3be8d5f4	0.0071055833
212	0xbd0664cb	-0.032810967
213	0x3d459689	0.048239265
214	0x3d6d135e	0.057879798
215	0x3bc1da1a	0.0059158923
216	0x3caa129b	0.020760825
217	0x3d46a7c5	0.04849984
218	0x3d4a22b3	0.049349498
219	0x3cd94c9d	0.02652579
220	0x3d59e1bc	0.053193793
221	0x3d99980e	0.07499705
222	0xbbc3110e	-0.005952961
223	0x3cb70c55	0.022344748
224	0x3cb9084d	0.022586966
225	0xbd821e55	-0.063534416
226	0xbd358076	-0.044311963
227	0x3cfb0506	0.030642044
228	0x3d1bb2ad	0.038012195
229	0x3d1ffb92	0.039058276
230	0x3cad2207	0.02113439
231	0x3db8ee9b	0.090298854
232	0x3c258b62	0.010104032
233	0x3d9b2578	0.07575506
234	0xbc808467	-0.015688134
235	0x3c2b3a9f	0.010450988
236	0xbd1ddeaa	-0.038542427
237	0x3d764405	0.060123462
238	0x3d039b1f	0.032130357
239	0x3d884b9d	0.06655047
240	0xbd5e069f	-0.054205533
241	0xbd811643	-0.06303074
242	0xbcbb0e3c	-0.022833936
243	0x3d7631bd	0.060106028
244	0xbd921e52	-0.071346894
245	0xbd9f6702	-0.07783319
246	0xbd08f404	-0.033435836
247	0xbcf7ea58	-0.030263111
248	0x3c90aa04	0.017659195
249	0xbd5c5dfb	-0.053800564
250	0xbd469308	-0.048480064
251	0xbd3ab412	-0.045581885
252	0xbd3d5c41	-0.04623056
253	0x3bae3d24	0.005317347
254	0x3d9eedb5	0.07760183
255	0x3c0b7463	0.0085116355

2.bias f4 [256]
0	0xbce3bfba	-0.027801383
1	0x3d80783b	0.06272932
2	0xbcb66b00	-0.022267818
3	0xbc231e71	-0.009955988
4	0xbc534ffc	-0.012897488
5	0xbd01fca9	-0.031735096
6	0xbd17bea2	-0.037047036
7	0xbd1d7559	-0.03844199
8	0xbd334832	-0.043770023
9	0x3d295790	0.04134327
10	0xbb6ecb53	-0.0036437109
11	0xbcac6134	-0.021042444
12	0x3c633771	0.013868199
13	0xbd3ef2d7	-0.04661831
14	0xbd0c0874	-0.03418775
15	0xbcb05c4c	-0.021528386
16	0x3cc71142	0.024300221
17	0x3bc7090d	0.006074077
18	0xbd2dd075	-0.04243513
19	0xbc2e1f2e	-0.010627551
20	0xbd5e19f0	-0.054223955
21	0xbce18a08	-0.027531639
22	0xbced7cfd	-0.028990263
23	0x3cdc4653	0.026889002
24	0x3d826e5f	0.06368708
25	0x3d204bae	0.039134674
26	0xbcaee856	-0.02135102
27	0x3d918c72	0.07106866
28	0xbd2a32ae	-0.04155224
29	0x3ce0860e	0.027407672
30	0xbc5586e9	-0.013032653
31	0x3c142685	0.009042387
32	0xbcd96c00	-0.026540756
33	0x3d3dae71	0.04630894
34	0xbd03c4e4	-0.03217019
35	0xbd808eaf	-0.06277215
36	0xbc4ac077	-0.012374989
37	0xbd30fd2f	-0.043210205
38	0x3ceaaab3	0.028645849
39	0xbd721399	-0.05910072
40	0x3c982344	0.018571503
41	0xbd4036c4	-0.04692723
42	0x3d3cb84f	0.046074208
43	0xbd825d84	-0.06365493
44	0x3a41b346	0.00073890795
45	0x3bb41414	0.0054955576
46	0x3d81a229	0.06329758
47	0x3d39688a	0.04526571
48	0x3d221942	0.03957487
49	0xbbcd4b81	-0.0062651043
50	0xbc589888	-0.01321996
51	0x3bad451a	0.0052877786
52	0xbd83380b	-0.06407174
53	0xbd63e4b2	-0.055638023
54	0xbc760f15	-0.015018244
55	0x365ed860	3.3206525e-06
56	0x3d632bdb	0.055461746
57	0x3d842213	0.06451812
58	0x3cb60019	0.022216843
59	0xbceda8cd	-0.029011155
60	0xbca4601a	-0.020065356
61	0x3c3e9c95	0.011634012
62	0x3c9ea78e	0.019367006
63	0x3d7c86ad	0.061651874
64	0x3d2f1f0a	0.04275421
65	0x3c7b6fab	0.015346448
66	0x3ce6460a	0.02810957
67	0xbc5aedeb	-0.013362388
68	0xbc17aafc	-0.009257074
69	0xbc21eb70	-0.009882793
70	0xbd3ad33a	-0.045611598
71	0xbcaf7a46	-0.02142061
72	0x3d123ff7	0.035705533
73	0xbd07fbbf	-0.03319907
74	0xbc9fc48b	-0.019502899
75	0x3d2c1607	0.042013194
76	0x3d804a2a	0.06264146
77	0x3d75164a	0.05983571
78	0x3c1a473c	0.009416398
79	0xbd1b8bab	-0.037974995
80	0x3d7d1ab0	0.06179303
81	0x3bde751c	0.006788863
82	0x3d9ce750	0.07661307
83	0xbcb0dc6d	-0.021589482
84	0xbcafdd0d	-0.02146771
85	0x3c13aa86	0.009012824
86	0xbd528156	-0.051392876
87	0xbccfb720	-0.025355875
88	0xbd3aa3b7	-0.045566287
89	0x3d1b2c92	0.037884302
90	0xbd5bff48	-0.053710252
91	0xbd1841de	-0.03717219
92	0xbd73b52b	-0.059498947
93	0xbd117bda	-0.035518505
94	0x3d17f024	0.03709425
95	0x3d132610	0.03592497
96	0x3c49302e	0.012279553
97	0x3d6a6de5	0.05723371
98	0xbd684144	-0.056702867
99	0x3d99f2d7	0.07517021
100	0xbcaecea2	-0.021338765
101	0x3ca50619	0.02014451
102	0xbce12255	-0.027482191
103	0xbc44e5eb	-0.012017707
104	0x3d8a45d3	0.06751599
105	0xbd64ce4d	-0.055860806
106	0x3d5a9171	0.05336136
107	0xbd00b95e	-0.03142678
108	0x3d24b811	0.040214602
109	0xbd42be07	-0.047544505
110	0xbd1304db	-0.035893302
111	0xbbe88614	-0.0070960615
112	0x3c870e7a	0.016486395
113	0xbcb4d874	-0.02207587
114	0x3ce337e9	0.027736621
115	0xbc2c96a7	-0.010533965
116	0x3d1ac551	0.03778583
117	0x3d9c1a53	0.076222084
118	0x3d5de39c	0.054172143
119	0x3d87d00b	0.06631478
120	0x3c7ee618	0.015557788
121	0xbd310ef3	-0.043227147
122	0x39a8aff0	0.0003217454
123	0xbc3032b8	-0.01075428
124	0x3c7425ab	0.014901559
125	0x3cbcdd70	0.023054808
126	0xbd2aa860	-0.04166448
127	0x3d01d6f0	0.03169912
128	0xbcf0137f	-0.029306171
129	0x3d018c50	0.031627953
130	0x3c86510e	0.016396072
131	0xbd0dd0b9	-0.03462288
132	0x3cd638b1	0.02615008
133	0xbd6a7b03	-0.05724622
134	0xbc2a12ae	-0.01038043
135	0x3d840385	0.06445984
136	0xbcefce00	-0.029273033
137	0x3d8b515e	0.06802629
138	0x3d7d08a5	0.061775822
139	0x3d792cf8	0.0608339
140	0xbad0ccab	-0.0015930136
141	0xbd411958	-0.04714331
142	0x3d2a304a	0.04154996
143	0xbb5f08ad	-0.003403227
144	0xbc490e83	-0.012271526
145	0x3d1167ae	0.035499267
146	0x3c961140	0.018318772
147	0x3cc572ef	0.024102656
148	0x3c48fbab	0.012267034
149	0xbd61fa31	-0.05517024
150	0x3d17c509	0.03705314
151	0xbcb6b710	-0.022304088
152	0x3d15d75f	0.036582347
153	0xbd197552	-0.0374654
154	0x3d595410	0.053058684
155	0x3d85e8d3	0.06538548
156	0x3cadddd9	0.02122395
157	0x3cc66d0d	0.024221921
158	0x3d6f02d8	0.05835232
159	0x3d261a15	0.040552218
160	0x3d3535bb	0.044240694
161	0x3d96f228	0.073704064
162	0xbd34e3c4	-0.044162527
163	0x3c1e4643	0.009660306
164	0xbd0bbbae	-0.034114532
165	0x3d895a8d	0.06706724
166	0x3d619874	0.05507703
167	0xbbf68391	-0.007523008
168	0xbd24991d	-0.040185083
169	0x3d8c3cf9	0.06847567
170	0x3d0b81b8	0.034059256
171	0x3da1b81d	0.07896445
172	0x3d0fec88	0.035137683
173	0x3c9d1338	0.019174203
174	0x3da0a0c1	0.078431614
175	0xbd33fe81	-0.043943886
176	0xbcc28460	-0.023744762
177	0x3d2b16c3	0.041769754
178	0x3bad0307	0.005279902
179	0x3cf5828f	0.029969482
180	0x3d55550e	0.052083068
181	0x3c8c4170	0.017121047
182	0x3cee8bad	0.029119337
183	0xbce9aaf1	-0.028523894
184	0x3c24dfaf	0.010063096
185	0x3d944376	0.0723943
186	0xba8bfd67	-0.0010680378
187	0x3d318b03	0.043345463
188	0xbcb7521a	-0.022378016
189	0x3c1ee44c	0.009697985
190	0xbd295e4c	-0.041349694
191	0xbca3d68a	-0.019999761
192	0x3cf88992	0.030339036
193	0xbd5fc12e	-0.05462759
194	0xbd5b9363	-0.053607356
195	0x3c8cb5a7	0.017176462
196	0x3c64448e	0.01393236
197	0xbcb3c024	-0.021942206
198	0xbc636af6	-0.013880482
199	0x3d837200	0.06418228
200	0xbd69cc93	-0.057079863
201	0xbc0c3b3c	-0.008559044
202	0x3d8dbd72	0.069208995
203	0x3d5c8714	0.053839758
204	0xbce2ae8a	-0.027671117
205	0x3cdca47b	0.0269339
206	0xbc825faf	-0.015914766
207	0x3d1c4642	0.03815294
208	0xbcaac762	-0.020847026
209	0x3cb4a1e2	0.022049848
210	0xbd1227ef	-0.035682615
211	0xbba44273	-0.005012804
212	0xbd4b1ba9	-0.049586926
213	0x3d802739	0.06257481
214	0xbbd568e2	-0.006512747
215	0x3d517ae4	0.05114259
216	0xbce8061b	-0.028323224
217	0xbd01cd02	-0.03168965
218	0x3d0d1aa1	0.034449223
219	0xbc9d0af0	-0.019170254
220	0x3c874ff0	0.01651761
221	0x3babf13d	0.0052472637
222	0x3d336627	0.043798592
223	0x3d115b91	0.035487715
224	0xbc1f3087	-0.00971616
225	0x3d055d9b	0.032559972
226	0x3d70591f	0.058678742
227	0x3b010f7c	0.0019693067
228	0xbce84f7c	-0.028358214
229	0x3d322837	0.043495383
230	0x3d0ddb0f	0.03463274
231	0x3da1ffe0	0.079101324
232	0x3d8577ad	0.06516967
233	0x3b419276	0.002953676
234	0xbd4ca1ae	-0.049958877
235	0xbc6244a7	-0.013810313
236	0xbd5fc197	-0.05462798
237	0xbd1859d3	-0.037195038
238	0x3c648eae	0.013950033
239	0xbc389415	-0.011265774
240	0x3c4a0e1e	0.012332467
241	0xbd324d52	-0.04353077
242	0xbc75e153	-0.015007335
243	0xbb99aeaa	-0.004690011
244	0x3d0f0160	0.03491342
245	0xbca3a609	-0.019976633
246	0x3d80fbad	0.06298003
247	0x3d1b456a	0.037907995
248	0x3d7a5792	0.06111867
249	0xbd04ef52	-0.032454796
250	0x3c25f6d2	0.010129647
251	0xbd644a70	-0.05573505
252	0x3d115e26	0.035490178
253	0x3cc12bca	0.02358045
254	0xbd2b931e	-0.04188835
255	0xbcfb20f4	-0.030655362

4.weight f4 [128, 256]
0	0xbd334d07	-0.04377463
1	0xbc82de81	-0.015975239
2	0xbd43829a	-0.047731973
3	0xbc97f485	-0.018549213
4	0x3d6a37b4	0.05718203
5	0x3d989a0b	0.07451256
6	0xbce2ca50	-0.02768436
7	0x3ce66012	0.028121982
8	0x3d2fc1ae	0.042909317
9	0xbd613a95	-0.05498751
10	0xbc346b85	-0.011011963
11	0xbd4806c3	-0.048834573
12	0x3d5a1ada	0.053248264
13	0xbd568d66	-0.05238094
14	0xbc62ebee	-0.013850195
15	0xbca39040	-0.019966245
16	0xbc2c58b6	-0.010519197
17	0x3d4a8366	0.049441718
18	0x3d23eb3c	0.04001926
19	0xbccfc770	-0.025363654
20	0x3c1759d8	0.009237729
21	0xbb16d03b	-0.0023012299
22	0x3bf2a2e6	0.007404673
23	0x3dae8ac8	0.08522564
24	0x3cdedf34	0.02720604
25	0x3d243ae8	0.04009524
26	0xbcc3a292	-0.02388123
27	0x3d4f6301	0.050631527
28	0xbca007e5	-0.019535014
29	0xbc1bc3df	-0.0095071485
30	0x3ce6239c	0.028093152
31	0xbb93f000	-0.004514694
32	0x3d7f4719	0.062323663
33	0xbd51139e	-0.0510441
34	0xbd033817	-0.032035913
35	0xbc8c28cd	-0.0171093
36	0x3d0c7dc4	0.034299627
37	0x3bb059ad	0.005381784
38	0x3c4b85ef	0.012422069
39	0x3d101f0c	0.03518586
40	0xbc898d58	-0.01679103
41	0xbd67ad96	-0.05656203
42	0xbcebf744	-0.028804429
43	0x3d7a04bc	0.06103967
44	0xbcf25072	-0.029579375
45	0xbd61f1c7	-0.055162217
46	0xbcdf5680	-0.027262926
47	0x3c9160a5	0.017746279
48	0xbcb6b65c	-0.022303753
49	0x3c9ea7b9	0.019367086
50	0x3db193ec	0.08670792
51	0xbbfa87a3	-0.0076455637
52	0xbd81ee75	-0.0634431
53	0x3cdf8ff6	0.027290326
54	0xbc8ee572	-0.017443392
55	0xbcf69095	-0.030098239
56	0x3bfb6da2	0.0076729814
57	0x3d85799f	0.06517338
58	0x3d591b0d	0.053004313
59	0x3d5587e7	0.05213156
60	0xbc97814e	-0.018494274
61	0x3d4a680e	0.04941564
62	0xbc8143f8	-0.01577948
63	0x3d4ca4f5	0.049962003
64	0x3cf037a8	0.029323414
65	0xbbf335ca	-0.0074221836
66	0x3d450cb0	0.048107803
67	0x3d68484c	0.056709573
68	0xbc065e8b	-0.008201252
69	0xbc5afe88	-0.013366349
70	0x3c0de980	0.008661628
71	0xbd0d8920	-0.0345546
72	0x3dac6f4c	0.08419666
73	0x3d6efd75	0.058347184
74	0x3d8f21cf	0.0698887
75	0xbd16b823	-0.0367967
76	0xbd810b2e	-0.063009605
77	0xbbbb9b41	-0.005725295
78	0xbc86b2da	-0.016442705
79	0x3cb2d374	0.021829344
80	0xbc2d1624	-0.010564361
81	0x3d063d71	0.03277344
82	0x3d773093	0.06034906
83	0xbd101624	-0.035177365
84	0xbd80d4d2	-0.06290592
85	0x3bc0c80c	0.0058832224
86	0x3d87a4c6	0.06623225
87	0xbd632eaa	-0.055464424
88	0x3d2a7841	0.04161859
89	0xbd2132d8	-0.03935513
90	0x3d918a71	0.07106484
91	0xbcd785f7	-0.026308997
92	0x3d85c42b	0.06531557
93	0x3d029745	0.031882543
94	0xbdc00ff8	-0.09378046
95	0xbd13a36e	-0.03604453
96	0xbd723373	-0.059131097
97	0x3d77daac	0.060511276
98	0xbce10d1c	-0.027472071
99	0x3d8a7a0e	0.06761561
100	0xbd1896ff	-0.037253376
101	0x3cf2e606	0.0296507
102	0x3d08c387	0.033389594
103	0xbcfb487e	-0.030674215
104	0x3d94329f	0.07236218
105	0x3cae7ea1	0.021300616
106	0x3ca68732	0.020328138
107	0x3d12b0a1	0.035812978
108	0xbcf87f1c	-0.030334048
109	0xbd7d6944	-0.061867967
110	0x3d887c55	0.066643395
111	0xbd4dc5f7	-0.050237622
112	0x39ddb276	0.0004228537
113	0x3c8c9a98	0.01716356
114	0xbace32c1	-0.0015731679
115	0xbd5728b1	-0.05252904
116	0x3cd3832d	0.025819385
117	0xbcbdf1c0	-0.023186564
118	0xbc7576db	-0.014981951
119	0x3d8bbed3	0.06823506
120	0xbd12d4d5	-0.035847504
121	0xbc944a58	-0.018101856
122	0x3ce552a4	0.027993508
123	0xbd3b9d92	-0.045804568
124	0x3da418c2	0.08012535
125	0xbd65ea85	-0.05613186
126	0xbd54c42a	-0.05194489
127	0xbd36b3c5	-0.044605035
128	0xbd0b40af	-0.033997234
129	0xbd68ab3d	-0.05680393
130	0xbd3c0e26	-0.04591193
131	0xbd32f500	-0.04369068
132	0x3d9c37bb	0.07627817
133	0xbc9a0220	-0.018799841
134	0x3ca6dccd	0.020368958
135	0xbcdb38d4	-0.026760496
136	0x3dba7016	0.0910341
137	0xbcc4be5f	-0.024016557
138	0xbcbd809a	-0.023132611
139	0xba94a69a	-0.0011341155
140	0x3ae37750	0.0017354283
141	0x3d2f846f	0.042850908
142	0xbcee668e	-0.029101636
143	0x3d79aa5b	0.06095348
144	0xbcfe0733	-0.031009292
145	0xbd9c0310	-0.076177716
146	0xbd3bae8e	-0.045820765
147	0xbb4a790b	-0.00308949
148	0xbcfdba91	-0.03097275
149	0x3d536116	0.05160626
150	0x3dbec8d7	0.09315651
151	0xb905c2e5	-0.00012756472
152	0x3d75045d	0.059818614
153	0x3d20e28f	0.039278563
154	0xbb92976c	-0.0044736173
155	0x3cf7b008	0.030235305
156	0xbcb63c48	-0.022245541
157	0x3da38d05	0.07985882
158	0xbd56ecca	-0.052471913
159	0x3d2f87c5	0.04285409
160	0x3cc021a0	0.023453534
161	0x3c358455	0.011078914
162	0x3d10a0dc	0.035309657
163	0xbcfe7617	-0.031062169
164	0x3ce8beeb	0.02841135
165	0x3d32b7bc	0.043632254
166	0x3c029499	0.007969999
167	0x3be0fe7f	0.006866276
168	0x3d160c13	0.03663261
169	0xbc2549d7	-0.010088406
170	0xbd3e7f72	-0.04650826
171	0x3cfe8dc4	0.031073458
172	0x3dbab428	0.09116393
173	0x3d9c887b	0.07643219
174	0x3cf3f78b	0.029781124
175	0x3c781781	0.0151423225
176	0x3af3d6d9	0.0018603458
177	0x3b0218fb	0.0019851315
178	0x3d6e1791	0.058127943
179	0xbc32c7b0	-0.010911867
180	0x3cc8d0be	0.024513599
181	0xbc90bd1d	-0.017668301
182	0xbd308d5a	-0.043103553
183	0x3d6607ef	0.05615991
184	0xbb42a1bd	-0.0029698454
185	0x3c7d9155	0.015476544
186	0x3d176bfa	0.03696821
187	0xbc876892	-0.016529355
188	0xbd8fb9e7	-0.0701788
189	0xbd96cdcc	-0.073634714
190	0x3ae5f908	0.001754553
191	0xbd02b540	-0.031911135
192	0x3d03f7a8	0.032218605
193	0xbcb0594c	-0.021526955
194	0xbc724038	-0.014785819
195	0xbc91382b	-0.017726978
196	0xbd7f69e1	-0.062356833
197	0xbaf971af	-0.0019031073
198	0x3d4ccd32	0.050000377
199	0xbd45511b	-0.04817305
200	0xbd227f5a	-0.039672233
201	0x3d8131d1	0.0630833
202	0x39a52a75	0.00031502885
203	0x3c4a091b	0.0123312725
204	0xbb4c211c	-0.0031147664
205	0xbcf4a4a1	-0.029863657
206	0xbc4bc5b7	-0.012437276
207	0xbc9361c9	-0.017990964
208	0x3d48aa7f	0.048990723
209	0x3cf2e510	0.029650241
210	0x3d07772a	0.033072628
211	0xbd38c37c	-0.045108303
212	0x3d9ff21b	0.0780985
213	0xbce571da	-0.02800839
214	0xbd626560	-0.05527246
215	0x3daff99b	0.0859253
216	0x3d26ddee	0.040738992
217	0xbd1943fc	-0.03741835
218	0x3d6f1202	0.058366783
219	0xbd18e7cb	-0.03733043
220	0xbca7b93d	-0.02047407
221	0xbccd207c	-0.025039904
222	0x3cbb6e79	0.022879826
223	0x3d3b1f67	0.045684244
224	0xbc9e60df	-0.019333301
225	0x3ccc1ba5	0.024915526
226	0x3cff9eb3	0.031203603
227	0xbcda9ce4	-0.02668614
228	0xbcf2bf73	-0.029632306
229	0x3d9dd5f2	0.077068225
230	0x3d5fc888	0.0546346
231	0x3d8c6ac7	0.06856304
232	0x3d037aa5	0.032099385
233	0xbc0af579	-0.008481377
234	0x3c0d5920	0.008627206
235	0x3b3345fb	0.0027354944
236	0x3d1efad2	0.03881342
237	0xbd6cf829	-0.05785385
238	0xbd3f19bb	-0.046655398
239	0x3d63ff82	0.055663593
240	0x3d3fea9d	0.046854604
241	0x3d64b3d0	0.055835545
242	0xbce5252d	-0.027971828
243	0xbc809688	-0.015696779
244	0xbd2b39f9	-0.041803334
245	0x3d7ba7c0	0.061439276
246	0x3d0a2af5	0.033732373
247	0xbd5f95ef	-0.054586347
248	0x3d9dbd72	0.077021495
249	0xbca83ead	-0.020537699
250	0x3d11ae44	0.035566583
251	0x3c0e74d8	0.00869485
252	0x3cf98263	0.030457681
253	0xbc026118	-0.007957719
254	0x3d6af0ca	0.05735854
255	0x3d54a8b2	0.051918693

4.bias f4 [128]
0	0x3cb03441	0.021509292
1	0xbd10bac0	-0.03533435
2	0x3c1d349d	0.0095950635
3	0x3d401807	0.046897914
4	0x3b8a1b73	0.004214698
5	0x3d1f7af9	0.038935635
6	0xbcda8b53	-0.026677763
7	0xbd11d66b	-0.035604876
8	0x3d146991	0.03623349
9	0x3caa3408	0.020776764
10	0xbc0dc2a7	-0.008652366
11	0x3c0c97c7	0.008581108
12	0xbd6bc498	-0.057560533
13	0x3c8d51e9	0.017250972
14	0x3c9856c4	0.01859606
15	0xbc1d8691	-0.009614603
16	0x3cda99c0	0.026684642
17	0x3bd89acf	0.0066102515
18	0x3d62d9fa	0.05538366
19	0xbd112ba8	-0.035442024
20	0xbd6a2e3a	-0.05717299
21	0xbd2f3e5d	-0.042784084
22	0xbc7c5a79	-0.01540243
23	0x3d001d3a	0.031277873
24	0x3d0a898a	0.033822574
25	0x3d6aaf24	0.057295933
26	0xbce2a77a	-0.02766775
27	0x3d078f1d	0.033095468
28	0xbce3c3d8	-0.027803347
29	0x3bdc186a	0.0067167776
30	0x3c23a608	0.009988315
31	0xbce0a0bd	-0.027420396
32	0xbd3e0bd1	-0.046397988
33	0xbd200221	-0.03906453
34	0x3c74a420	0.014931709
35	0x3c8e4667	0.017367555
36	0x3c248f9f	0.010044008
37	0xbd4e13a5	-0.050311703
38	0xbd77c54a	-0.060490884
39	0x3cce2899	0.025165843
40	0xbd322393	-0.043490957
41	0xbd0c3e56	-0.034239136
42	0xbcad18ad	-0.02112993
43	0xbcda50d5	-0.026649872
44	0xbd2a466c	-0.041571066
45	0xbca4b5cc	-0.020106219
46	0x3b8b1d39	0.004245427
47	0xbd51fa40	-0.051264048
48	0x3d8a5006	0.067535445
49	0xbd29d267	-0.04146042
50	0xbd327666	-0.043569945
51	0x3b6d4b5a	0.0036208243
52	0x3d40e459	0.04709277
53	0xbd1cbc22	-0.038265355
54	0x3d2bbe6e	0.041929655
55	0x3aea988b	0.0017898245
56	0x3cf93cf4	0.030424573
57	0xbc5e4897	-0.013567111
58	0x3c7d7f32	0.01547222
59	0x3d016724	0.031592503
60	0x3d0e0822	0.034675725
61	0xbd0ff6ac	-0.035147354
62	0x3d0dde60	0.0346359
63	0xbc457703	-0.0120523
64	0xbb1c265e	-0.002382658
65	0xbd71b6b4	-0.05901213
66	0x3c067902	0.008207561
67	0x3d4a00d1	0.049317185
68	0xbd50b6a6	-0.050955437
69	0x3d7c18f8	0.06154725
70	0xbbd0dbf9	-0.006373879
71	0xba7a5dd2	-0.00095507235
72	0x3c08499c	0.008318331
73	0xbb7ded56	-0.00387462
74	0x3cf8e6e4	0.030383535
75	0xbb25b525	-0.0025284973
76	0xbc539fdc	-0.012916531
77	0xbd057307	-0.0325804
78	0xbb5ba2eb	-0.0033513855
79	0x3bc06b28	0.005872149
80	0xbbbb0f5f	-0.0057086195
81	0xbd2bcc02	-0.041942604
82	0xbc15f8ff	-0.009153604
83	0xbd1a67f3	-0.03769679
84	0xbc333cca	-0.010939786
85	0x3d5c4709	0.053778682
86	0x3d2a0a57	0.041513767
87	0xbd420cac	-0.047375366
88	0x3d57f6ce	0.052725606
89	0x3d2d89f2	0.042367883
90	0xbd87ff72	-0.06640519
91	0xbbf83a9e	-0.007575347
92	0x3bdfa246	0.0068247644
93	0xba0e4ca5	-0.0005428291
94	0xbce62278	-0.028092608
95	0x3ca32932	0.019917104
96	0xbd766a98	-0.06016025
97	0xbd68289c	-0.056679353
98	0x3d20f39f	0.039294835
99	0xbca46ecb	-0.020072361
100	0x3b0339db	0.0020023498
101	0xbd077f05	-0.03308012
102	0xbd1917ca	-0.037376203
103	0xbcc34876	-0.023838263
104	0x3d44f2c6	0.04808309
105	0xbd3900b7	-0.045166697
106	0xbcbb2daf	-0.022848932
107	0x3ca75338	0.020425424
108	0x3cdf310e	0.02724507
109	0xbcd037ab	-0.02541717
110	0x3c2c9e33	0.0105357645
111	0xbc2cfd86	-0.010558492
112	0xbd88f8f7	-0.06688111
113	0x3c9e114b	0.019295355
114	0x3c07c69e	0.0082871
115	0x3d64c11e	0.055848233
116	0x3d14ee3f	0.03636002
117	0xbcc6b112	-0.024254356
118	0x3cdf366c	0.02724763
119	0xbd1102a6	-0.035402916
120	0x3cc299be	0.02375495
121	0x3c7a539b	0.015278722
122	0x3c09091c	0.008363988
123	0x3cf986a6	0.030459713
124	0xbc8f91fc	-0.017525665
125	0xbc682ecd	-0.014171314
126	0xbd18267e	-0.037146084
127	0x3d856fd4	0.0651547

6.weight f4 [128, 128]
0	0xbdd10395	-0.10205761
1	0xbce6f39a	-0.02819233
2	0xbd791125	-0.060807366
3	0x3d857bb0	0.06517732
4	0xbd081ccf	-0.0332306
5	0x3bde12be	0.0067771366
6	0xbe03107b	-0.12799256
7	0x3d0b335a	0.03398452
8	0x3cf992bb	0.030465474
9	0x3d131866	0.03591194
10	0x3dcbf345	0.09958509
11	0xbd87f8a7	-0.066392235
12	0x3d8c6721	0.06855608
13	0x3d1207c9	0.035651956
14	0xbd7cee11	-0.061750475
15	0xbc38202f	-0.011238142
16	0x3be43050	0.006963767
17	0x3b05b4c8	0.0020401943
18	0x3d2bc163	0.041932475
19	0x3d2e9726	0.042624615
20	0xbd8b3e24	-0.06798962
21	0x3d3839b6	0.044976912
22	0x3db55120	0.08853364
23	0xbd58f0f0	-0.05296415
24	0xbd738792	-0.05945546
25	0xbd432660	-0.04764402
26	0xbd81d984	-0.06340316
27	0x3dd9eb25	0.106405534
28	0x3d9b17aa	0.07572873
29	0xbd15cd1f	-0.03657257
30	0x3d9b2477	0.075753145
31	0x3b1fc3c7	0.0024378167
32	0xbdb2a342	-0.08722545
33	0xbd5a4599	-0.05328903
34	0x3d4e1aba	0.050318457
35	0xbda6cefa	-0.081449464
36	0xbdad126d	-0.0845078
37	0x3d376ff3	0.044784497
38	0xbdab9cf2	-0.08379544
39	0x3cb1da91	0.021710666
40	0xbd989c5f	-0.074517004
41	0xbd5e3cc6	-0.054257177
42	0xbbeeea87	-0.0072911414
43	0xbcf92327	-0.03041227
44	0xbd4b8781	-0.049689773
45	0x3d9b6288	0.07587153
46	0xbd5f4c4e	-0.05451613
47	0xbd2e5b98	-0.04256782
48	0xbc8ff4ad	-0.017572725
49	0xbc3816e7	-0.011235929
50	0xbd1d3a6b	-0.03838579
51	0xbd28312d	-0.041062523
52	0x3d29103a	0.04127524
53	0x3c3d987e	0.0115720015
54	0x3d5cf03e	0.05394005
55	0xbdbda9e7	-0.09260922
56	0x3cf3b362	0.029748622
57	0x3d8abd90	0.067744374
58	0x3d74df98	0.059783548
59	0xbcec73dd	-0.028863842
60	0xbdb89110	-0.090120435
61	0x3ca349db	0.019932678
62	0xbd4294d2	-0.047505207
63	0x3cef3fe2	0.029205266
64	0xbce50d15	-0.02796034
65	0xbcfbfccc	-0.030760191
66	0xbd2f3ec3	-0.042784464
67	0xbb093c92	-0.0020940644
68	0x3ced2030	0.028946012
69	0x3d86840f	0.06568157
70	0x3d97f832	0.074203864
71	0x3cd64a8a	0.02615859
72	0x3db225bd	0.08698604
73	0xbcb39511	-0.021921666
74	0x3cf6106d	0.03003713
75	0xbd1c7704	-0.03819944
76	0xbccf827a	-0.02533077
77	0xbc5e93e9	-0.013585069
78	0xbd530302	-0.05151654
79	0xbcec391f	-0.028835831
80	0x3db76a95	0.08955876
81	0xbcc9f1b6	-0.02465139
82	0xbcc2d47b	-0.02378296
83	0xbd14edd0	-0.03635961
84	0xbbce4d8a	-0.0062958645
85	0x3d2ab0f0	0.041672647
86	0x3c769f1a	0.015052581
87	0xbc492f88	-0.012279399
88	0x3d596095	0.053070623
89	0x3a9d3fb9	0.001199714
90	0xbbf47a4e	-0.007460869
91	0xbdad73d4	-0.08469358
92	0x3d8f24d7	0.069894485
93	0xbd890c09	-0.06691749
94	0x3da552db	0.08072444
95	0x3d5a701a	0.053329565
96	0xbc894ac4	-0.016759284
97	0x3c44f6b7	0.012021712
98	0xbb8e69dc	-0.0043461155
99	0xbbe0058b	-0.0068365983
100	0x3cc74872	0.024326537
101	0x3d8bc808	0.06825262
102	0x3da44f32	0.08022918
103	0xbd6f52e9	-0.05842868
104	0xbce4e204	-0.027939804
105	0x3bb74431	0.005592846
106	0xbcaaa668	-0.020831302
107	0xbcb86b57	-0.022512121
108	0xbd81b6e7	-0.06333714
109	0x3db217b3	0.086959265
110	0xbd1b8042	-0.037964113
111	0xbd4dd0e0	-0.050248027
112	0xbd031e2e	-0.032011203
113	0x3c9e8332	0.019349668
114	0x3d8589dc	0.06520435
115	0xbda9d429	-0.082924195
116	0xbdaf1f9f	-0.08550953
117	0xbcff4c2d	-0.031164253
118	0x3d5eb406	0.054370902
119	0x3dae3625	0.08506421
120	0x3d092dd0	0.033490956
121	0x3ccb6bf8	0.024831757
122	0xbcd3909a	-0.025825787
123	0xbd1ada07	-0.037805583
124	0x3d90a3dd	0.070625044
125	0xbcb905d7	-0.022585792
126	0x3db0b029	0.0862735
127	0x3d42fe8b	0.047606032
128	0x3dbccb5c	0.09218475
129	0xbd6f6f79	-0.058455918
130	0xbd461ec3	-0.04836918
131	0x3d98804d	0.074463464
132	0x3dbbe867	0.091751866
133	0xbd83b50d	-0.06431017
134	0x3bb4e6f0	0.005520694
135	0xbd9533e4	-0.07285288
136	0xbd61ac76	-0.055096112
137	0xbd944a3f	-0.07240724
138	0x3c28556c	0.010274272
139	0x3dacfbff	0.08446502
140	0x3d2e3546	0.042531274
141	0x3dad1963	0.08452108
142	0x3d465ec6	0.048430227
143	0x3ddd9b6a	0.108206585
144	0xbd6092e4	-0.054827586
145	0xbcc58141	-0.024109485
146	0xbdef4a39	-0.11684079
147	0x3d80a6b7	0.06281798
148	0xbd8c2896	-0.06843679
149	0x3db8c0e6	0.090211675
150	0x3d6fd3dd	0.058551658
151	0x3c646218	0.013939403
152	0x3cbdd1fe	0.023171421
153	0xbd9b7195	-0.075900234
154	0xbd192e57	-0.03739771
155	0x3dd4141c	0.10355398
156	0xbdd2c360	-0.10291171
157	0xbc97cf10	-0.018531352
158	0x3db424fd	0.087961175
159	0xbcee36d9	-0.029078888
160	0x3d80f53f	0.06296777
161	0xbd7a2eab	-0.061079662
162	0xbc4dec2f	-0.012568518
163	0x3d95ef57	0.07321041
164	0xbbe70d34	-0.0070511345
165	0x3d9e1db5	0.0772051
166	0x3d44b1c6	0.0480211
167	0xbd845dbc	-0.06463191
168	0xbd1de5c5	-0.038549203
169	0xbc509f80	-0.01273334
170	0xbd3ab0ff	-0.045578953
171	0x3d656ac8	0.056010038
172	0x3c8d51e8	0.01725097
173	0x3dba823c	0.091068715
174	0xbdb26f14	-0.08712593
175	0x3d3a2d4f	0.045453366
176	0x3c06cd83	0.008227709
177	0x3d95ff11	0.07324041
178	0x3b238b40	0.0024954826
179	0x3d1ec1fa	0.03875921
180	0xbb699a44	-0.0035644928
181	0xbb7f3f1f	-0.0038947535
182	0x3d9cbd88	0.07653338
183	0x3d8d3736	0.06895296
184	0x3df9e8ff	0.122026436
185	0x3d78fb03	0.06078626
186	0x3d83843a	0.064217046
187	0x3dc1f90f	0.09471332
188	0x3d8fe6c3	0.07026436
189	0x3da40629	0.080089875
190	0xbbc1f15d	-0.0059186653
191	0x3d8a7b9f	0.0676186
192	0x3dabd938	0.083910406
193	0x3db201d9	0.08691759
194	0xbcbd68d7	-0.02312128
195	0x3ce545b7	0.027987344
196	0x3d93db2c	0.07219538
197	0xbd90e8f2	-0.07075681
198	0xbcfd212e	-0.03089961
199	0xbd5f6af9	-0.054545376
200	0xbd8f4d48	-0.06997162
201	0x3cb7be83	0.02242971
202	0xbdba85ff	-0.09107589
203	0xbc82bdc9	-0.015959637
204	0x3cbb9a10	0.022900611
205	0x3c036829	0.008020439
206	0x3db9f836	0.090805456
207	0xbd92ce7f	-0.07168292
208	0xbd172399	-0.036899183
209	0x3da941cd	0.08264504
210	0x3d94d3a1	0.072669275
211	0xbc3cf8c3	-0.011533919
212	0xbd67cd47	-0.056592252
213	0xbc18a612	-0.009316938
214	0xbd17f0d6	-0.037094913
215	0xbdac8c91	-0.084252484
216	0x3daa5b0f	0.08318149
217	0x3d3acfd9	0.045608375
218	0x3df40267	0.11914521
219	0xbda1fc12	-0.07909407
220	0xbd8014fb	-0.06254002
221	0x3d4128a0	0.047157884
222	0x3d291c5e	0.04128682
223	0x3dbe1565	0.092814244
224	0xbd235a62	-0.039881118
225	0xbc68d173	-0.014210093
226	0x3cec463a	0.02884208
227	0x3d6cb267	0.057787325
228	0x3c23ce82	0.009997966
229	0xbd8522a2	-0.06500746
230	0x3d2fa00c	0.042877242
231	0x3dd123f3	0.10211935
232	0xbb5fc73b	-0.003414585
233	0x3b21a29f	0.002466358
234	0xbca415d0	-0.020029932
235	0xbd608cf1	-0.054821912
236	0x3d94edd3	0.07271924
237	0x3d85910a	0.06521805
238	0x3c1e6478	0.009667508
239	0x3d5310be	0.05152964
240	0xbc8ab3c8	-0.01693143
241	0xbd844c72	-0.06459893
242	0xbdcba893	-0.09944262
243	0xbc978c6c	-0.018499576
244	0x3d1d6c2b	0.038433235
245	0x3cde3482	0.027124647
246	0x3c1b8ff8	0.009494774
247	0xbd45c9d7	-0.048288193
248	0x3c9645e7	0.018343879
249	0xbcd54da2	-0.026037995
250	0xbd82f95a	-0.06395216
251	0xbc8cd1cf	-0.017189888
252	0x3db375f7	0.087627344
253	0x3ddb8842	0.107193485
254	0x3dc0c077	0.0941171
255	0xbcfbdb50	-0.030744225

6.bias f4 [128]
0	0x3d5bb8d3	0.05364306
1	0x3db308b9	0.08741898
2	0x3d4d988a	0.0501943
3	0x3cad7ff6	0.02117918
4	0x3db6db0a	0.08928497
5	0xbd827a0d	-0.063709356
6	0xbc848a93	-0.016179359
7	0x3c8ffc28	0.017576292
8	0xbbb6088d	-0.0055552186
9	0xbd8b8408	-0.06812292
10	0x3d705885	0.05867817
11	0xbc2cdb74	-0.010550369
12	0xbc40710d	-0.011745703
13	0xbd0a43f8	-0.033756226
14	0x3bece373	0.0072292625
15	0xbd999995	-0.074999966
16	0xbd7916d9	-0.060812805
17	0x3d7d00c5	0.061768312
18	0xbd742cfa	-0.059613205
19	0x3cfb0545	0.030642161
20	0x3c7fad78	0.015605323
21	0x3dc21924	0.094774514
22	0xbd3e0fcf	-0.046401795
23	0xbd7ca6b6	-0.061682425
24	0x3cbcf2cc	0.023064993
25	0xbd2a63e3	-0.041599166
26	0xbca3c90a	-0.019993324
27	0x3d87285f	0.06599497
28	0xbd4fe4cd	-0.05075531
29	0x3dbbfb24	0.09178761
30	0xbc925318	-0.017861888
31	0x3c1698e9	0.00919173
32	0xbc47c359	-0.012192571
33	0xbd79107b	-0.060806733
34	0xbbc6ee15	-0.006070862
35	0xbdc01811	-0.0937959
36	0xbcf58539	-0.029970752
37	0x3d2f751b	0.04283629
38	0x3d8258f8	0.06364626
39	0xbd20f2a9	-0.03929392
40	0x3d4d67da	0.05014787
41	0x3c03e4ce	0.008050157
42	0xbc3f5ec5	-0.01168031
43	0xbd3ce819	-0.046119783
44	0x3ce3b0e2	0.027794305
45	0xbd35fa6d	-0.044428278
46	0x3d28e54d	0.041234303
47	0x3dc4179c	0.09574816
48	0xbc972108	-0.018448368
49	0x3da46715	0.08027474
50	0xbd9b3bfb	-0.075798
51	0xbd131b81	-0.0359149
52	0x3d93e557	0.072214775
53	0xbd95403b	-0.072876416
54	0x3ca84750	0.020541817
55	0x3c58232e	0.013191981
56	0x3db76839	0.08955426
57	0x3db7bad8	0.089711845
58	0x3d8e64cd	0.0695282
59	0xbd5ae444	-0.053440347
60	0xbca81ce1	-0.020521583
61	0xbc6e8636	-0.014558366
62	0x3d9b8a8a	0.075947836
63	0xba85e750	-0.0010216031
64	0xbcdd96ef	-0.02704951
65	0x3c52b9bd	0.012861666
66	0xbc25c9b5	-0.0101188915
67	0xbd0e1c7b	-0.03469513
68	0xbcd6f08f	-0.026237754
69	0x3d2a152c	0.041524097
70	0x3c0d9730	0.008642003
71	0xbd84fabd	-0.06493137
72	0xba5cfd00	-0.0008430034
73	0x3ca48481	0.020082714
74	0xbca83945	-0.02053512
75	0x3d9a7dba	0.07543512
76	0x3d14d294	0.036333635
77	0x3d47a136	0.048737727
78	0x3d481647	0.04884937
79	0xbd289745	-0.041159887
80	0xbcec22d5	-0.028825203
81	0xbd4f00b5	-0.050537784
82	0xbbee3f8a	-0.007270758
83	0x3dc770f2	0.097383395
84	0x3cdd17ff	0.026988981
85	0x3dad205a	0.08453436
86	0x3c9b4216	0.01895241
87	0x3dae7d18	0.085199535
88	0x3d54aa83	0.051920425
89	0x3d1bc5fd	0.038030613
90	0xbd023262	-0.03178633
91	0xbd3a1f3a	-0.045439936
92	0xbcdfa1b5	-0.027298788
93	0xbd122186	-0.0356765
94	0x3d355163	0.04426707
95	0x3d1882cd	0.037234116
96	0xbd8469d8	-0.064655006
97	0x3d88e541	0.06684352
98	0x3d96a201	0.073551185
99	0x3d54fce1	0.051998977
100	0x3da47a0c	0.08031091
101	0x3d6f4b30	0.058421314
102	0x3d2a8a15	0.04163559
103	0xbd34f9be	-0.044183485
104	0xbaa366ce	-0.0012466551
105	0x3c9de4b3	0.019274091
106	0x3b219ae8	0.0024658982
107	0x3c9b6bd3	0.018972313
108	0x3db78fcd	0.08962975
109	0x3d4b4cdd	0.04963385
110	0x3d613ca8	0.054989487
111	0xbdb2119b	-0.08694764
112	0x3d45c6be	0.04828524
113	0xbcd77548	-0.026301041
114	0xbda1a63c	-0.07893035
115	0x3c65fdeb	0.01403759
116	0x3d373ac2	0.04473377
117	0x3da4c994	0.080462605
118	0xbc8817e0	-0.016612947
119	0x3d9afbee	0.07567583
120	0xbbd61982	-0.0065338025
121	0xbd388658	-0.045049995
122	0x3cc213c3	0.023691064
123	0xbbee7367	-0.0072769406
124	0xbd81a43b	-0.063301526
125	0xbc012c44	-0.007884089
126	0xbda7133b	-0.08157965
127	0xbd6e8328	-0.05823055
