models_3_500/checkpoint0.pth.tar (torch_old, 478255 bytes, 10 tensors)

0.weight f4 [256, 10]
000000 52 00 df bd 3b 4b fc bd df 6e 34 3e 8d 6f 3a be
       -0.10888733 -0.123190366 0.17620419 -0.18206616
000010 88 d2 d7 bc 2a 95 62 be e8 5a 51 3e f8 7b 5d bd
       -0.026345506 -0.22127214 0.20444834 -0.054073304
000020 14 dc ab bd d9 85 74 3e e2 38 03 3e 00 74 9b be
       -0.08391586 0.23879184 0.12814668 -0.30361938
000030 e5 7d 91 be ac a0 f5 3d 4a 49 f2 3d 5d cd 8c be
       -0.28416362 0.11993536 0.11830385 -0.2750043
000040 58 81 6d bd f1 5c 98 be 1f 1e 3c be 4f 09 40 3d
       -0.05798468 -0.2975841 -0.18370865 0.046883877
000050 5a b7 95 be f5 1f 97 3e 58 aa 3c 3d c3 86 1d be
       -0.2924145 0.2951657 0.04606089 -0.15383439
000060 56 7c 98 3d 38 d1 2c 3d f9 39 9c 3e 4f 94 0f be
       0.0744559 0.042191714 0.3051298 -0.14021419
000070 70 8b 75 3c 95 da 58 3e 40 ce 12 bc 18 0b 38 3d
       0.014986858 0.21177132 -0.008960307 0.044932455
000080 80 3b 62 bd 74 2d ee bd a0 ac 86 be d0 89 e6 3d
       -0.055232525 -0.11629763 -0.26303577 0.112567544
000090 02 7e 61 3e d2 89 37 3e a0 a0 e8 bd 20 09 65 bd
       0.22020724 0.17923668 -0.11358762 -0.055916905
0000a0 90 b4 4e bd 48 ca 5b bd 8c 6d f0 bd f0 ee a6 bc
       -0.050465167 -0.053659707 -0.117396444 -0.020377606
0000b0 52 9a 8c be b0 a4 e2 bc 00 3a 9a 3b 6e 43 6b 3e
       -0.27461487 -0.02766642 0.004706621 0.22974941
0000c0 92 51 05 3e 10 fc fc bc 63 20 8a 3e 8f 54 69 3e
       0.13019398 -0.030881912 0.26977834 0.22786163
0000d0 30 ec a4 3d b8 e7 b8 bd 09 15 a9 3d 2a 9d b7 bd
       0.08052862 -0.09028572 0.08255965 -0.089655235
0000e0 d1 99 56 be 40 40 e5 3d 10 0f 89 3e e0 a3 28 3e
       -0.20957114 0.11193895 0.26769304 0.16468763
0000f0 de 30 75 3e fe aa 5a 3e e5 c7 98 be 4a 4e 63 be
       0.23944423 0.21354291 -0.29840007 -0.22197834
000100 88 e8 13 bd 96 90 b3 bd a1 b3 6d be 9f e7 9c 3e
       -0.03611043 -0.08767812 -0.23213054 0.30645463
000110 c8 f1 49 bd 13 66 85 be 50 52 cb bc 90 91 0b 3e
       -0.049302846 -0.2605444 -0.024819523 0.13629746
000120 a2 e2 73 be 58 4a 94 3e 49 d3 88 3d 2a 09 7c 3e
       -0.23816922 0.2896297 0.066809244 0.24612871
000130 e2 26 39 3e be 28 45 3e 0a 84 20 3e 2f 88 9a 3e
       0.18081239 0.19253823 0.15675369 0.30182025
000140 2c e8 68 be 5e 75 4a be 0e 09 6a be ae c5 d4 bd
       -0.22744817 -0.19771335 -0.22855017 -0.10389267
000150 01 aa 9e be e2 0f 33 3e ec cf 6f be a8 bf aa 3d
       -0.30989078 0.17486528 -0.2341916 0.08337337
000160 1f 52 46 be 80 d4 6d bc 5a 4b e9 bd 10 45 bb 3c
       -0.19367264 -0.014515996 -0.11391325 0.02286008
000170 e2 22 b1 bd a8 5b 63 be 30 f9 16 3d 68 21 94 be
       -0.086492315 -0.22202933 0.036858737 -0.28931737
000180 e0 d4 29 3d 0b 50 27 be 4d 43 6d be cb b4 bf 3d
       0.04146278 -0.16339128 -0.23170204 0.093606554
000190 02 89 ff bd 39 c2 87 be c2 bf c2 bd 5c e2 87 be
       -0.12477304 -0.26515368 -0.09509231 -0.26539886
0001a0 f9 9c 80 be be 19 76 be 70 3b 1b 3d 60 d4 b1 bc
       -0.2511976 -0.24033257 0.03789848 -0.021707714
0001b0 43 63 92 3d a6 d1 08 3e 28 08 29 3e e4 ce 1a be
       0.07147839 0.13361225 0.16507018 -0.15117985
0001c0 8a 74 60 3e 50 33 74 be cc 2e 69 be a0 60 0d 3c
       0.21919456 -0.23847699 -0.22771758 0.008628994
0001d0 11 18 81 3e 28 19 c7 bd c4 41 dc bd 97 8c 25 be
       0.25213674 -0.09721595 -0.10754731 -0.16166912
0001e0 63 b0 9a 3e 3e 22 af bd 04 e4 96 be dc 0b 83 3e
       0.30212697 -0.08551453 -0.29470837 0.25594985
0001f0 ab 98 8c 3e e1 d0 80 be c6 b5 8b be 50 c8 66 bd
       0.27460226 -0.25159362 -0.2728712 -0.056343377
000200 d7 e0 88 3e 11 67 95 be 00 b2 fb bc 98 96 5e bd
       0.2673404 -0.29180196 -0.030724525 -0.054342836
000210 af c9 02 be fd 79 1b be 45 05 85 be 40 a1 dd 3c
       -0.12772249 -0.15183254 -0.25980583 0.027054429
000220 2e 50 82 be 78 8b 11 bd a4 94 62 be 80 da 9e 3b
       -0.25451797 -0.0355334 -0.22127014 0.0048478246
000230 03 62 86 3e ff 3a 43 3e 52 96 82 3e ed 29 79 3e
       0.26246652 0.19065474 0.2550531 0.243324
000240 9d d3 3e 3e 68 ed 93 3d 6e c9 fd bd bc 5c 7d be
       0.18635412 0.07223016 -0.12391935 -0.24742407
000250 6d 97 62 be ea 0c 1f 3e 98 65 17 3d 59 34 99 3b
       -0.22128077 0.1553227 0.03696212 0.00467543
000260 d6 75 7e 3e f5 ca 1c bd b2 c2 5a 3e d0 38 1a bd
       0.24849638 -0.038279492 0.21363333 -0.037651837
000270 c1 8e 8f be c0 a1 2b bd 7e b8 8f be 5b c2 80 3c
       -0.280386 -0.041902304 -0.28070444 0.015717676
000280 f7 59 83 3e 01 83 25 3e 51 66 67 be df aa c6 bd
       0.25654575 0.16163255 -0.22597624 -0.0970056
000290 19 51 77 be bc b1 ed bd cb 2e 72 3e 04 df 35 be
       -0.2415203 -0.11606166 0.23650663 -0.17760855
0002a0 21 7b 2b 3c 58 04 63 3c 31 94 3c be 5f 8e 86 3e
       0.010466368 0.013856016 -0.18415906 0.26280496
0002b0 94 79 38 bd 32 6e 41 be 12 e7 98 3e b2 f3 8e be
       -0.04503782 -0.18889692 0.29863793 -0.279203
0002c0 37 59 f8 bd be 41 ff bd 39 2e 95 3e 82 63 41 3e
       -0.121263914 -0.12463711 0.29136828 0.18885615
0002d0 f8 83 0f 3d 45 b2 98 3d 95 ba 57 bd 91 d5 8b 3d
       0.035037965 0.07455877 -0.052668173 0.06827844
0002e0 ce 77 c5 bd a8 c8 89 3d ec a2 4a 3e 40 f6 27 3e
       -0.096419916 0.06727725 0.19788712 0.1640253
0002f0 ac 1e f3 bd 80 cf b8 bd 82 98 77 3e 7c ae 0a 3e
       -0.118710846 -0.090239525 0.24179271 0.13543123
000300 2d 9e 5f 3e b1 60 c6 3d 84 51 8c be 64 35 5c be
       0.21837683 0.09686411 -0.2740594 -0.21504742
000310 81 90 8b be 97 8e 8c 3e 20 40 29 be 6a d1 2e 3e
       -0.27258685 0.27452537 -0.16528368 0.17072073
000320 d0 f1 12 bd 8a b3 1e be d6 1f 8d bd b3 a5 cf 3d
       -0.03587514 -0.15498176 -0.06890838 0.101390265
000330 62 e1 09 be 41 9f 8e 3e bb 50 3b be 08 a8 e7 3d
       -0.13464883 0.27855876 -0.18292515 0.11311346
000340 6d 72 36 bd 6a 9f ec bb 4e 1f 7b be c4 ec e8 bd
       -0.04454272 -0.007221152 -0.2452366 -0.113732845
000350 0f a2 87 3e 12 a1 23 be dc a5 fb 3d 1c 20 9a 3d
       0.26490828 -0.15979412 0.122874945 0.075256556
000360 b5 85 3c 3e 00 d5 85 3d 1d e8 1f 3e 0f 56 2b 3d
       0.1841038 0.06534767 0.15615888 0.04183012
000370 0e b0 69 3e 97 9a 33 be 67 9e c4 bd 0c 4c b3 bd
       0.22821066 -0.1753944 -0.09600525 -0.08754739
000380 15 37 4f 3e 90 93 2c 3d 77 03 8d 3e d5 ef 81 be
       0.20235856 0.042132914 0.27541706 -0.2537829
000390 c2 99 24 be e4 aa 59 3e f8 a1 1b bd 04 7b 3b 3e
       -0.16074279 0.21256596 -0.037996262 0.18308645
0003a0 80 b4 b6 bd 2c ed f1 bd bc f5 ff 3d f7 71 2d be
       -0.089211464 -0.11812815 0.12498042 -0.16938005
0003b0 84 78 00 be 45 0d 05 be 97 88 66 be f3 9e 87 be
       -0.12545973 -0.12993343 -0.22513042 -0.26488456
0003c0 44 38 35 3e 28 96 68 bd 55 2b 8f be b4 c2 84 be
       0.17697245 -0.056783825 -0.27962747 -0.25929797
0003d0 78 1d 0f be 80 57 f5 bd 68 75 99 3d 94 43 fe 3d
       -0.13976085 -0.1197958 0.074930966 0.12415233
0003e0 88 b0 c9 bd ce 72 15 3e a0 ed e3 3c 6f fa aa bd
       -0.09848124 0.14594576 0.02782327 -0.08348548
0003f0 e6 95 43 bd e5 fa 6e 3e 27 54 89 bd de f5 11 be
       -0.047750376 0.23337896 -0.06705504 -0.14253947

0.bias f4 [256]
000000 4f 3a 81 3d 49 e4 3d bd e2 1a 2f 3e 7a f3 4d be
       0.063099496 -0.046360288 0.17100099 -0.2011241
000010 60 e2 c7 bd 98 4f 36 be 22 f2 96 be 83 56 e2 3c
       -0.097599745 -0.178038 -0.29481608 0.027629143
000020 86 2d a9 bd 0d c4 3b 3e 9e de 64 be 88 ad 0b 3e
       -0.08260636 0.18336506 -0.22350547 0.13640416
000030 dd e1 35 3e e2 39 c0 bd 22 b6 19 be 28 60 39 3d
       0.17761941 -0.0938604 -0.15010884 0.045257717
000040 20 7d e4 bc a5 78 7a 3e ae f0 6c be cf 6d 51 be
       -0.027891695 0.24460085 -0.23138687 -0.20452045
000050 27 b4 f8 bd da db 57 3c 2e 1e 31 3d f2 e9 28 3e
       -0.12143736 0.013174975 0.043241672 0.16495493
000060 7f 8c 73 bd db 6b 3f 3c 9e 13 78 be 7d 5d 41 3e
       -0.05946016 0.01168343 -0.24226233 0.18883319
000070 98 3b 2d bd 9a 78 a1 be 8a 18 b9 bd 0d ff 6d bd
       -0.04229316 -0.31537324 -0.090378836 -0.058104564
000080 a5 88 3c 3e 78 c6 a9 bd dd 92 d5 bd 96 d6 5d be
       0.18411501 -0.08289808 -0.104284026 -0.2166389
000090 49 b1 5f 3e a7 e2 ce 3d 61 8b 51 be c0 ac 37 3e
       0.21844973 0.10101824 -0.20463325 0.17936993
0000a0 80 af 15 bc 3a fb 9b 3e b0 f3 7c be c0 9d c9 bd
       -0.009136081 0.30465108 -0.24702334 -0.098445415
0000b0 bb b6 83 3e f0 e8 32 be 4c d4 f1 3d 1b 60 c4 bd
       0.2572535 -0.17471671 0.118080705 -0.09588643
0000c0 37 6d 8e be 0e 14 20 be 27 d5 37 bd e8 7d 82 be
       -0.278177 -0.1563265 -0.044881012 -0.25486684
0000d0 c8 5e 3d bd e0 7c 12 3e 6c d0 f3 3c 3b 99 99 3e
       -0.04623297 0.14305449 0.02976247 0.29999718
0000e0 31 7f ed bc 98 dd c3 3d 60 db 8d 3e f2 92 8a be
       -0.028991314 0.0956375 0.27706432 -0.27065235
0000f0 9e 45 27 3e 9c 2b 7b be 69 d7 0b be 80 88 da bb
       0.1633515 -0.24528354 -0.13656391 -0.006669104
000100 d1 87 9e be ef 44 14 be 85 3a d2 bc 0a a9 85 be
       -0.30962995 -0.14479421 -0.02566267 -0.2610553
000110 a0 77 20 3e 8e 30 62 be 7a d5 88 3e b3 33 64 be
       0.15670633 -0.22088835 0.2672537 -0.22285347
000120 c6 c3 ce 3d b1 0e 88 3e 9d 67 0a be 80 a5 b2 bb
       0.100959346 0.2657371 -0.13516088 -0.005451858
000130 61 b9 e9 bd f0 ab 45 bd 32 29 86 be c1 7b 5b 3e
       -0.11412311 -0.048259676 -0.26203305 0.21433927
000140 60 7f d5 3c d3 7b 9e bd ac 1a e6 bd f0 ce a5 bd
       0.026061714 -0.07738461 -0.11235556 -0.08096111
000150 3c 60 6a be 51 6f 6d 3e a5 48 97 be 70 11 4a bd
       -0.22888273 0.23186995 -0.2954761 -0.049333036
000160 59 df 5f 3e 5c ea 15 be ee 2b 22 be d2 64 20 be
       0.21862544 -0.14640182 -0.1583707 -0.1566346
000170 15 67 45 3e 99 44 9b be 5e 9c 8c bd 48 c0 0f 3e
       0.19277604 -0.30325773 -0.06865762 0.14038193
000180 e2 76 76 be cf 4f 6d 3e 20 a3 05 3c 9d fc cf 3d
       -0.24068788 0.23174976 0.008156568 0.10155604
000190 7c 8c 61 be bb a4 e7 3c ea d2 81 39 4d f2 27 3e
       -0.22026247 0.028276792 0.0002476194 0.16401024
0001a0 72 16 62 3d 3e 3e 62 be 71 4c 96 3e e4 32 7f 3d
       0.055197187 -0.22094056 0.29355195 0.062304392
0001b0 bc 8e b8 3d 4c 7f 68 be e9 47 be 3d 54 97 6d 3e
       0.090115994 -0.2270481 0.092910595 0.23202258
0001c0 53 e5 42 be 58 c9 a4 3d 6a b1 0b 3d 04 70 39 be
       -0.19032793 0.08046216 0.034104742 -0.18109137
0001d0 78 5e 0b 3d 1a 17 3e 3e 31 a1 0e 3e 46 d7 a2 3d
       0.03402564 0.185635 0.13928677 0.079512164
0001e0 2a 1f fb bd a1 f1 4d 3d 94 43 86 be ea b6 94 3e
       -0.122618034 0.050279263 -0.26223433 0.29045802
0001f0 cd 50 08 be b5 02 64 bd 3a 32 9f 3e a9 63 97 bd
       -0.13312073 -0.055666644 0.31093007 -0.073920555
000200 81 71 3f be 02 27 f0 bd 1d a3 d4 bd 20 39 b1 bc
       -0.18695642 -0.1172619 -0.10382674 -0.021633685
000210 fa 85 94 3e 0e f1 91 3d 1c e0 bb 3d f5 80 8a 3e
       0.29008466 0.07126056 0.09173605 0.2705151
000220 30 88 2d be 17 5b 64 be fd 05 44 3e 53 59 4e 3e
       -0.16946483 -0.22300373 0.1914291 0.20151262
000230 e0 6b d8 bc f6 55 81 3e 0c 49 26 be 7f 2d c0 bd
       -0.026418626 0.25260895 -0.16238803 -0.09383678
000240 6c ea 9b bd a8 5a ba bd 12 f5 ee bc 05 3a e3 3d
       -0.07613072 -0.090993226 -0.029169593 0.11095051
000250 3d 8b 72 3e c7 64 0b be 72 28 88 bd ad ed 8e bd
       0.23685928 -0.13612662 -0.06648339 -0.06978927
000260 26 49 4c 3e 0a 23 85 be 09 8a 86 3d ce 8a 69 3e
       0.19949779 -0.26003295 0.06569297 0.22806856
000270 9a 38 fd 3c d8 93 0d 3d c0 84 85 bd ac 12 bf 3d
       0.030910779 0.034564823 -0.06519461 0.09329733
000280 92 b8 8c bd fc 4c 97 3e 76 df 68 be d5 e5 6d 3c
       -0.068711415 0.29550922 -0.22741494 0.014520128
000290 c8 8b cf bd ac d3 2c be c0 21 9a 3b 7e 35 82 3e
       -0.10134083 -0.16877621 0.0047037303 0.25431436
0002a0 65 f1 9a be d0 fb 4f be 0e 3e 83 3e 25 d4 a0 3e
       -0.30262294 -0.20310903 0.2563328 0.31411853
0002b0 92 f5 2c be 3b 20 85 be f6 6e 4a 3a 40 11 32 be
       -0.16890553 -0.26001152 0.0007722223 -0.17389393
0002c0 06 76 97 be eb 0a 34 3e 16 44 eb bb 16 e4 9a 3e
       -0.29582232 0.1758229 -0.0071797473 0.3025214
0002d0 06 1a bf 3b f0 03 a2 bd 7d c6 da 3c c4 ec d5 3d
       0.0058319597 -0.07910907 0.026705975 0.1044555
0002e0 aa a2 65 be b2 49 a8 bd 19 ef 11 be ed 56 bf 3d
       -0.22425333 -0.08217181 -0.14251365 0.09342752
0002f0 a8 20 2d 3d b3 33 85 bd 42 f0 43 3e 8b 4c 7d ba
       0.04226747 -0.065040015 0.1913462 -0.000966259
000300 6a 9d b2 bb 9a 79 2e be b3 90 e7 bd 6f 82 28 be
       -0.005450894 -0.17038575 -0.11306896 -0.16456006
000310 79 9a 89 3d 72 b5 6b 3e 1e 13 77 be 4b e7 01 be
       0.067189164 0.23018435 -0.24128386 -0.12685888
000320 62 51 80 3e 8e 9e 1f 3e 2e c0 9f 3e e0 1f 6d bd
       0.2506209 0.15587828 0.3120131 -0.057891726
000330 1a 20 47 3c 5b cd 0a 3e 3b d2 19 3e 4d 89 80 3d
       0.01215365 0.135549 0.15021603 0.06276188
000340 81 b8 85 be 12 03 45 be b2 df 0c 3e 81 ae b1 3d
       -0.26117328 -0.19239452 0.13757208 0.08675862
000350 df 79 40 be eb fb 8d 3d 44 50 52 be 69 15 9c 3e
       -0.1879649 0.06932815 -0.20538431 0.30485085
000360 c0 ff a8 3d e1 df f9 3c 5a 9c 9d 3e 0e 43 16 3d
       0.082519054 0.030502262 0.3078335 0.036685042
000370 24 1b 8a bd f8 29 fb 3d 05 60 c0 bd 25 65 8b 3e
       -0.06743458 0.12263864 -0.09393314 0.27225605
000380 d2 93 14 3e 8d f6 1b 3e 30 91 2f 3e 4a e1 e6 3d
       0.14509514 0.1523077 0.17145228 0.11273439
000390 1f 0c 23 3d 26 4e 5e be 62 47 7b be 53 37 9a 3d
       0.03980648 -0.21709499 -0.24538949 0.075300835
0003a0 f3 20 c1 3b ae 11 da 3d 3b 5c 14 3d 17 2f 4e be
       0.0058938204 0.106479034 0.03622077 -0.20135151
0003b0 3c 9b 30 be 7d 7c 23 be e5 a3 be bd 94 27 db 3d
       -0.17246717 -0.15965457 -0.09308604 0.10700908
0003c0 99 fe 52 3e 94 b7 29 3e ed ae 38 be 6a 33 85 3e
       0.20604934 0.16573936 -0.18035479 0.26015788
0003d0 4a 31 06 3e 26 46 9b 3d eb 7d db 3d c4 17 9c 3e
       0.1310474 0.07581739 0.10717376 0.30486882
0003e0 89 b9 85 be c7 58 3e 3e 00 ee 39 3d ea 65 5e 3d
       -0.26118115 0.18588553 0.04539299 0.05429641
0003f0 0d a5 2c bc a0 16 42 bd 2c 3d 34 bc 42 56 9c bd
       -0.010537398 -0.047384858 -0.011000913 -0.0763364

2.weight f4 [256, 256]
000000 22 d4 64 3c ea aa 34 3d e2 8d a2 3c a8 19 3b bd
       0.013966592 0.04410831 0.019843046 -0.045678765
000010 50 cd a4 bc c5 38 51 3d ea 0b 5b 3d 58 c9 72 3d
       -0.020117432 0.05107953 0.05347816 0.059274048
000020 80 3f af 3c fa 99 f0 bc 49 21 f3 3c 48 48 35 bd
       0.021392584 -0.029370297 0.029678958 -0.044258386
000030 ea 1a 2d 3d 4c ce f8 3c 7c f9 c9 3c ae 16 3b 3d
       0.042261995 0.030371808 0.024655096 0.045675926
000040 86 09 22 3d 8d 9e d3 bc 59 98 bd bc 58 52 90 3c
       0.039559864 -0.025832439 -0.023143934 0.01761739
000050 2d 5a 27 bd 13 b1 80 3d 97 84 a4 bc ac 86 99 3c
       -0.040857483 0.06283774 -0.020082755 0.018740974
000060 67 48 6e bd cc 1b 62 bc 9e 1b 06 3d b7 ba 7a 3d
       -0.058174517 -0.013800573 0.03274118 0.06121322
000070 e4 7d aa bc 31 06 97 3c 48 2c 38 3c 9b b9 6e 3d
       -0.020811982 0.01843557 0.011241026 0.058282476
000080 8d 12 44 3d 5a 5e b6 ba 84 38 44 3c c2 d8 53 bd
       0.047869254 -0.0013913617 0.011976365 -0.05172039
000090 eb 6d 11 3d ac c9 5b 3c 35 a6 72 3d e8 c7 af bc
       0.035505217 0.013414782 0.05924054 -0.021457627
0000a0 e0 00 27 bb 7e e0 28 3d f8 17 fe 3c 28 53 bd bc
       -0.00254827 0.041229717 0.031017289 -0.023110941
0000b0 b3 e9 0b bc e1 84 56 3c fe 03 3a bd c5 2c 66 bd
       -0.008539605 0.013093204 -0.045413963 -0.05619504
0000c0 4c a2 4f bc f0 fe b2 3c cc 08 e2 3c f8 19 28 bc
       -0.012672972 0.02185008 0.027592085 -0.010260098
0000d0 14 2a 85 bc c9 ec a7 3c 1f 7f bc 3c 6b 9a 72 bd
       -0.016255416 0.02049865 0.023009835 -0.059229296
0000e0 44 ab 11 3d f8 57 d3 3c 7f 0f 99 3c 00 a2 10 bc
       0.035563722 0.025798783 0.018684147 -0.008827686
0000f0 02 87 07 bd 39 1b 70 3d 00 d3 35 bd 80 46 eb bb
       -0.033087738 0.05861971 -0.04439068 -0.007180035
000100 e2 82 75 bd 39 42 62 bd 2c 03 b7 3c 4c 2a d1 bc
       -0.059939273 -0.055238936 0.02234038 -0.025532864
000110 16 53 2e 3d e0 5c c0 3c 8a 95 55 3d 18 1d 46 3c
       0.042559706 0.023481786 0.052144565 0.012091897
000120 65 33 2a bd 5a 07 24 bd 75 38 99 3c 18 4e 68 3c
       -0.04155292 -0.040046073 0.018703679 0.014178775
000130 89 2c 65 bd 06 29 ee b9 3c b7 ea bc 83 42 6e bd
       -0.055950675 -0.00045425462 -0.028651826 -0.0581689
000140 5c 50 0b bd 3b 15 b0 3c a0 28 7a bc eb 1b 16 bd
       -0.034012184 0.021494498 -0.015268475 -0.03664772
000150 22 04 60 bc 01 47 92 bc 73 d7 f6 3c 68 b0 22 3d
       -0.01367286 -0.017856123 0.030132031 0.039719015
000160 ca 5e 62 3c 15 ef 00 3d 2d 5b f3 bc c0 98 6a bb
       0.013816545 0.031478006 -0.029706562 -0.0035796613
000170 84 40 30 3d db 15 08 bd f2 90 27 3d 9c e1 63 bd
       0.043030277 -0.033223968 0.040909715 -0.05563508
000180 88 51 d8 3c ad d9 78 bb 30 ab 3d bc 31 30 b1 3a
       0.026406065 -0.0037971542 -0.011576459 0.001351839
000190 8d fe f3 bc 3f 1d b8 bc 10 e7 ca bc dc 5b 0e bc
       -0.029784465 -0.022474883 -0.024768382 -0.008688893
0001a0 5f d8 64 3c bc 6f f8 3c 31 12 5a 3c e8 29 29 3b
       0.0139676025 0.030326717 0.013310001 0.0025812332
0001b0 60 d6 2b bb 34 35 cc 3c f0 3f 17 3d 3e 35 2f 3c
       -0.0026220307 0.024927713 0.03692621 0.010693846
0001c0 cd b4 4c bd 17 c2 f2 3c f1 17 52 bd c7 6b 29 3d
       -0.049977113 0.029633565 -0.051292364 0.04136255
0001d0 22 63 43 3d d3 78 92 bc 25 32 6c 3d c6 cf 61 bd
       0.047701962 -0.01787988 0.05766501 -0.05512979
0001e0 4a ce 10 3d b5 4a 8e 3c 64 b8 0a bd 73 db 03 3d
       0.035352983 0.017369607 -0.033867255 0.032191705
0001f0 75 61 7f 3d 8e cb 57 bd 8a 1b 27 bd ab 7a 36 ba
       0.0623488 -0.05268436 -0.040797748 -0.0006961028
000200 ec 9f 84 bc 14 41 b3 3c 34 92 6f 3c 5a c5 0c bd
       -0.016189538 0.021881618 0.01462226 -0.034367897
000210 aa a3 4e bd 72 a1 fa bc 60 00 f4 bc b0 ba a7 39
       -0.05044905 -0.030594561 -0.029785335 0.00031991815
000220 d4 f5 64 3b 24 57 cf 3c 30 72 05 3d 14 b7 46 3c
       0.0034936564 0.025310107 0.0325796 0.01212861
000230 5c b4 17 3d 79 fc 9c 3c 9e 6c 49 bd d5 88 2b 3d
       0.03703724 0.019163357 -0.04917585 0.04187854
000240 24 9a 46 3d 40 c4 a3 3c 6e 30 e2 bc 21 14 ca bb
       0.048486844 0.01999104 -0.027610984 -0.0061669503
000250 64 71 b6 3c 12 ce cd 3c 78 d0 33 3c 39 24 30 3d
       0.022270866 0.025122676 0.010974996 0.043003295
000260 ae 7f 53 bb 6c 47 cd bc 8b b9 76 bd 20 9a a8 3b
       -0.0032272148 -0.02505847 -0.06023554 0.0051453263
000270 b8 c6 58 3d 00 22 da 39 55 85 e7 3a c9 fe a3 bb
       0.052923888 0.00041605532 0.0017663637 -0.005004738
000280 62 d3 1f bd 37 d3 79 bd 28 38 98 3c 11 f0 ae 3c
       -0.03901995 -0.060992446 0.018581465 0.021354707
000290 c0 c0 ba bc 61 74 06 ba a8 f1 4a 3d 0f 2e 8b bc
       -0.022796988 -0.0005129036 0.049546868 -0.016989736
0002a0 5f b2 ee 3c d8 12 ae 3c 37 6d 86 bc 53 87 5e 3d
       0.029137788 0.02124922 -0.0164095 0.054328274
0002b0 26 c5 56 3d 9e b2 e8 3b c6 94 e9 3c 0a 62 d0 3c
       0.05243411 0.007101371 0.028513324 0.025437374
0002c0 ee fb c7 3c 7a 3e 44 bd 68 75 25 bd 58 4e 37 bd
       0.024412122 -0.047911145 -0.04039517 -0.04475245
0002d0 86 c6 6f 3d d5 83 01 3d d7 51 dc 3c b8 e7 c6 bc
       0.058538936 0.031619865 0.026894493 -0.024280414
0002e0 10 c7 5a 3c 78 07 74 bd 06 4b 4a bd 05 7d d7 3b
       0.013353124 -0.059577435 -0.049387954 0.006576183
0002f0 5c e7 19 3d cf 93 f7 3a f1 17 53 3d 65 27 7d 3d
       0.037574157 0.0018888655 0.051536504 0.061805148
000300 1a 83 fe bc 64 ff 36 bd 52 ac 5f 3d 6a 6f f9 bc
       -0.031068373 -0.044677153 0.054607697 -0.030448634
000310 ba 34 72 3d f8 cf 1e 3d 04 7c 99 3c 08 f7 57 3d
       0.059132315 0.038772553 0.018735893 0.05272582
000320 a2 e2 03 3c 89 77 a7 bc 6c 9a 00 3d a6 93 34 3d
       0.008049639 -0.020442741 0.03139727 0.04408612
000330 9c 24 1f b9 7f 25 93 3c 1c 1f 0b 3c a1 4d 7b bd
       -0.0001517706 0.017962215 0.008491304 -0.06135333
000340 e5 88 5c bd ab 46 ae bc a2 83 6c 3c 60 c6 b9 bc
       -0.05384149 -0.021273931 0.014435681 -0.0226776
000350 a0 0d b0 bc f4 d6 de 3c 31 a1 5c 3d 18 03 38 bb
       -0.021490872 0.027202107 0.05386466 -0.0028078016
000360 26 b6 74 bc b1 b9 b6 3c 42 21 a9 3c dc 47 f3 3b
       -0.014936006 0.022305341 0.020645741 0.007424338
000370 ee 72 45 3d 27 aa 75 3d e9 d4 f3 bc 8f b7 29 3c
       0.04820531 0.059976723 -0.02976461 0.010358705
000380 cb db 3e 3c 60 d1 70 bd af 15 c7 bc b9 ad 09 3d
       0.011649082 -0.058793426 -0.024302332 0.03361294
000390 a4 47 40 3d 00 ce e0 3b ed d3 16 3d d4 e8 7d 3d
       0.04694332 0.0068604946 0.036823202 0.06198962
0003a0 1d 2c bf 3b bb dc 3e 3d 90 3d 02 bc d3 6f 12 3c
       0.005834116 0.046597224 -0.007949248 0.008937794
0003b0 ba 66 3a bd 7a 55 01 3d 38 1b 5f 3c e8 84 13 3d
       -0.045508124 0.031575657 0.013617329 0.03601542
0003c0 ff 94 0c bd ab dd 60 bd fe 79 1e bd 06 b9 69 3d
       -0.03432178 -0.0548989 -0.03869056 0.057061218
0003d0 55 48 71 bd ac 5d 42 bd 33 27 03 bc 45 19 dc bc
       -0.05890687 -0.047452614 -0.008004951 -0.026867518
0003e0 bf 2f c4 bb c8 82 3e bd bc db 20 bd 72 f5 25 bd
       -0.005987137 -0.04651144 -0.039272055 -0.040517278
0003f0 a3 b4 a9 bc a0 93 65 bc 30 64 40 3d 4d 5f 0b 3d
       -0.020716017 -0.014012247 0.046970546 0.034026433

2.bias f4 [256]
000000 06 f0 d8 bc cb c4 80 3d 00 6b b6 bc b0 f4 97 bc
       -0.02648164 0.06287535 -0.022267818 -0.018549293
000010 5d 19 1c bd 9d ec 19 bd 32 10 13 bd 18 b5 3a bd
       -0.038110126 -0.037579168 -0.035904117 -0.04558286
000020 00 1c 68 bd ce 58 e5 3c 29 19 59 bc df 37 91 bc
       -0.056667328 0.027996447 -0.013250628 -0.017726837
000030 93 92 a4 3b e7 b8 56 bd 11 10 17 bd 7d c7 e8 bc
       0.005022356 -0.05242243 -0.036880556 -0.028415436
000040 43 d9 cf 3c c2 b8 8c bb 54 0b 1b bd 90 37 ac bb
       0.025372153 -0.004294486 -0.0378526 -0.005255647
000050 f0 19 5e bd a2 7b 12 bd ff 37 1b bd ef 52 95 3c
       -0.054223955 -0.035762437 -0.0378952 0.018228022
000060 82 2b 47 3d c8 9f 1c 3d c1 f8 2b bd 7c 92 60 3d
       0.048625477 0.038238317 -0.041985277 0.0548272
000070 da f3 54 bd c8 22 8e 3c 40 f9 2e bc 9f 35 7a 3c
       -0.051990367 0.01735057 -0.010679543 0.015271573
000080 24 f1 0e bd 20 9f 50 3d f0 27 29 bd 22 ee 70 bd
       -0.03489794 0.050933003 -0.041297853 -0.05882085
000090 8e 99 01 bd 04 64 28 bd 23 72 74 3c ae 6f 58 bd
       -0.03164058 -0.041111007 0.01491979 -0.05284088
0000a0 44 91 c3 3c a0 6c 54 bd 9e 58 42 3d 40 69 72 bd
       0.023872979 -0.051861405 0.047447793 -0.059182405
0000b0 ca 85 75 bb fa 40 d7 bb c0 57 58 3d 2e 85 3e 3d
       -0.0037463778 -0.006569025 0.05281806 0.04651373
0000c0 a6 78 96 3c 17 c9 75 bc af 6a c7 bc d4 fc 58 bc
       0.018368077 -0.015001557 -0.024342863 -0.013243873
0000d0 7c 56 73 bd ec dc 7d bd 19 c3 74 bc 70 8a e5 bb
       -0.05940865 -0.061978266 -0.014939093 -0.0070050284
0000e0 03 32 73 3d 85 ef 7a 3d be 06 b1 3b a8 7f 3e bd
       0.059373867 0.06126358 0.005402415 -0.04650846
0000f0 20 40 f4 bc 9f df 33 bc 3d 7c eb 3c 23 3b 30 3d
       -0.029815733 -0.010978608 0.028745765 0.043025147
000100 0a c5 0c 3d 1f 3c 17 3c 73 87 fa 3c 5a 31 ee bc
       0.0343676 0.009230643 0.030582165 -0.029076267
000110 cb a9 49 bc 70 eb 21 bc 0e 35 3b bd c9 21 bc bc
       -0.012308548 -0.009882793 -0.045704894 -0.022965329
000120 98 f1 ce 3c a8 f0 4a bd 8f b1 1d bd 3b 52 06 3d
       0.025261685 -0.049545914 -0.03849941 0.032793265
000130 ac ea 29 3d 10 1c 5f 3d ef 1b 89 3a 76 ad 10 bd
       0.041483566 0.05447012 0.0010460595 -0.035321675
000140 b4 ab 80 3d 50 14 2d bb 71 55 7c 3d 79 1f 01 bd
       0.0628275 -0.0026409812 0.06160492 -0.031524155
000150 1d c9 27 bd f8 dd 26 3c e4 ca 6d bd 8d f9 1f bd
       -0.04096328 0.010184757 -0.05805482 -0.03905635
000160 d6 d4 71 bd 79 d3 04 3d 0a a6 71 bd 9c c2 4f bd
       -0.059040867 0.03242824 -0.058996238 -0.050722703
000170 6e 7f 77 bd 52 07 06 bd 48 43 da 3c d8 e0 e6 3c
       -0.06042426 -0.032721825 0.02664341 0.028183386
000180 0b cd 1c 3c a4 7e 5c 3d c6 c9 53 bd 86 26 6e 3d
       0.00957037 0.05383171 -0.051706098 0.058142208
000190 da 8c e4 bc c2 d9 93 3c b6 39 29 bd 27 91 a9 bc
       -0.027899195 0.018048171 -0.041314803 -0.020699097
0001a0 1f 15 75 3d fb 3a 49 bd 30 8f ff 3c e1 03 43 bd
       0.059834596 -0.049128514 0.031196207 -0.04761112
0001b0 02 1f 00 3d b9 5d 45 bd 23 19 19 bd e8 ec 09 bc
       0.03127957 -0.048185084 -0.037377488 -0.008418299
0001c0 ce df 2f 3c c3 75 a0 bc d8 11 01 3c 89 40 76 bb
       0.010734512 -0.019587403 0.007877789 -0.0037575087
0001d0 ac d1 1d 3d d1 21 80 3d 2c bb 37 3d 38 d3 80 3d
       0.038530037 0.0625645 0.044856235 0.06290287
0001e0 9d 60 e9 3b c0 5f 3b bd 60 b9 da 3b b8 32 30 bc
       0.007122113 -0.04574561 0.0066749305 -0.01075428
0001f0 65 96 53 3c 05 71 23 3c 9b be 6e bd fe 06 0b 3d
       0.012914275 0.009975676 -0.058287244 0.033942215
000200 b4 47 28 bd bb 54 db 3c 76 fe dc 3b de a1 65 bd
       -0.041084006 0.026773801 0.0067442013 -0.05606257
000210 84 9c bd 3b 88 ea 79 bd bd 16 d2 bc 8f a7 75 3d
       0.0057864804 -0.061014682 -0.025645608 0.05997425
000220 4c 4a 04 bd b3 e5 75 3d a2 40 74 3d d2 fe 1f 3d
       -0.032297418 0.06003351 0.05963195 0.039061375
000230 9a e7 15 bc f3 ab 6a bd 7d f9 0e 3d ea ff ad bb
       -0.009149456 -0.05729289 0.0349059 -0.0053100483
000240 1a 5e 10 bd ff 3d e1 3c a4 0c 68 3c 60 dc 55 3c
       -0.035245992 0.027495382 0.01416317 0.01305303
000250 5a 43 74 3c d2 a8 50 bd 37 83 0f 3d fb 87 10 bd
       0.014908636 -0.05094225 0.035037246 -0.03528593
000260 14 a3 bb 3c 73 8d 1f bd 70 5d 65 3d 4a 2a 65 3d
       0.02290491 -0.038953256 0.055997312 0.055948533
000270 b0 e6 86 3c ae 25 5d 3c e4 ab 0b 3d 1a 6d f5 3c
       0.016467422 0.013497753 0.034099475 0.02995925
000280 ff 28 ed 3c 2f 62 45 3d bd 7f 50 bd 06 6c 86 3b
       0.028950213 0.04818934 -0.05090307 0.004102233
000290 4b 99 46 bd 28 15 4d 3d 82 53 0f 3d b8 d6 63 bc
       -0.048486035 0.050069004 0.03499175 -0.013906173
0002a0 a9 d6 01 bd 9d c4 80 3d e9 2e 01 3d 1d 28 78 3d
       -0.031698857 0.06287501 0.031538878 0.06058513
0002b0 85 61 29 3d 78 a4 40 3c d7 eb 7c 3d 18 e0 61 bd
       0.041352767 0.011757962 0.061748352 -0.055145353
0002c0 76 00 0d bd e4 c1 e8 3c 41 a6 65 3c 28 21 a4 3c
       -0.034424268 0.028412767 0.014016689 0.020035341
0002d0 18 48 3f 3d 0b a2 c6 3b 5a 4b 14 3d 0d bf 13 bd
       0.046699613 0.0060617975 0.036204673 -0.036070872
0002e0 e0 e6 0c bc 2a bf 7b 3d 54 2d bd bc e2 b9 46 3d
       -0.008599967 0.061461605 -0.023092903 0.048517115
0002f0 a8 57 e7 bc 16 bf 02 3c 7c 0a 6c bd b0 ea 06 bd
       -0.02824004 0.007980129 -0.057627186 -0.03293866
000300 13 b9 cd 3c 2e c1 5f bd 31 a1 66 bd 12 35 cf 3b
       0.025112664 -0.05462759 -0.056306068 0.006323465
000310 b6 7f 81 3c 98 d4 71 bc 57 6d ad bc 90 a6 5a 3d
       0.015807968 -0.014760159 -0.021170301 0.053381503
000320 b8 fe 5a bd dc 98 d4 bc 8f 79 59 3d 7d 49 32 3d
       -0.053465575 -0.025951795 0.053094443 0.043527115
000330 7c 23 37 bd bb e5 89 3c 85 8e f4 bc 44 80 0f 3d
       -0.044711575 0.016833177 -0.029853115 0.035034433
000340 18 45 0c bd ee d7 86 3b a8 6d 1e bd a3 0b e0 bc
       -0.03424558 0.0041150963 -0.038678795 -0.027349299
000350 ce aa 5e bd 21 de 44 3d 2c 22 27 bc f0 31 3e 3d
       -0.05436211 0.0480634 -0.010201018 0.046434343
000360 f4 f4 14 bd 02 cd 01 bd 34 b4 b9 3c 39 df ea bc
       -0.036366418 -0.03168965 0.022668935 -0.028670894
000370 54 db 94 3b cd 13 ce bb cd f9 0a 3d e8 b7 93 3c
       0.0045427475 -0.0062889815 0.033929635 0.01803203
000380 55 48 c2 bc 3c 76 20 3d 49 33 46 3d 95 35 b7 ba
       -0.023716131 0.039175257 0.048388753 -0.0013977761
000390 1c 4b 37 bd d1 5b 18 3d fc 01 cc 3c 79 3b 7c 3d
       -0.044749364 0.037196938 0.02490329 0.061580155
0003a0 f1 d5 80 3d 98 e9 4c bc ee 09 34 bd 3d 5d a6 bc
       0.06290806 -0.012506865 -0.043954782 -0.020308131
0003b0 73 bb 5c bd 0a ec 49 bd 3e 2d 90 bb 43 85 08 bc
       -0.053889703 -0.04929737 -0.0043999245 -0.008332553
0003c0 66 81 bb bb f9 07 5f bd 23 c6 8d bc 20 83 09 bb
       -0.0057222126 -0.054450963 -0.017306393 -0.0020982698
0003d0 db e1 a4 3c 80 a0 75 bc 47 d5 3d 3d 62 13 b5 3c
       0.020127228 -0.014991879 0.046345975 0.022103969
0003e0 34 66 3d 3d 52 92 0b bd 84 82 a7 bc 70 4a 64 bd
       0.046240047 -0.03407509 -0.020447977 -0.05573505
0003f0 29 82 01 3d bd 6b 03 3d bf ae 4c bd 29 68 09 bd
       0.03161827 0.03208517 -0.04997134 -0.0335466

4.weight f4 [128, 256]
000000 4f 8e 24 bd 94 08 74 bc 9a 82 43 bd 58 1c 22 bd
       -0.04017478 -0.014894623 -0.047731973 -0.039577812
000010 a6 84 66 3d d6 62 41 3d 86 36 55 bd 80 25 26 3b
       0.056278847 0.047213398 -0.05205395 0.0025351942
000020 70 67 2f 3c 8c e6 40 bd 22 58 5a bc 6a f4 51 bd
       0.010705814 -0.047094867 -0.013326677 -0.051258482
000030 29 f9 f8 3c 7f e4 3d bd b0 01 27 bc bb a4 20 bd
       0.030392246 -0.04636049 -0.010193273 -0.0392196
000040 4d 73 4b bd c5 e2 4d 3d 3c eb 23 3d 70 c7 cf bc
       -0.049670506 0.050265092 0.04001926 -0.025363654
000050 d8 59 17 3c bc 0f 0a bd 70 8c d5 bc e4 24 65 3d
       0.009237729 -0.03370641 -0.026067942 0.055943385
000060 4b 29 ee 3c f6 8b df 3c e2 00 48 bd 57 ee bc 3c
       0.029072424 0.027288418 -0.048828967 0.023062868
000070 40 12 dc 3b 7d 22 cb bc e4 35 e6 3c 96 f1 e3 bb
       0.0067160428 -0.024796719 0.028101869 -0.0069562895
000080 73 28 07 3d 9e 13 51 bd 9a aa 6e bd f8 f8 73 bc
       0.03299756 -0.0510441 -0.058268167 -0.014890902
000090 21 c3 26 3c 2c ee d8 bc 50 ee 8f bc 0c 1f 10 3d
       0.010178358 -0.026480757 -0.017569691 0.03518586
0000a0 b0 f2 96 3b 03 c3 f5 bc 41 78 ad bc bc 04 7a 3d
       0.0046065673 -0.030000215 -0.021175506 0.06103967
0000b0 b2 46 46 bd 9a eb 2b bd 54 59 eb bb 05 b6 27 3c
       -0.048407264 -0.041972734 -0.0071822796 0.010236268
0000c0 11 b6 5c bd b0 0d 32 bc 5f 87 5e 3d f7 4e 40 3a
       -0.05388457 -0.010867521 0.05432832 0.00073359854
0000d0 f1 b8 79 bd 6d cc 32 bc 49 a8 9a bc 1e ed 53 bd
       -0.06096739 -0.010912997 -0.018879073 -0.051739804
0000e0 9a 3a 17 bc 4e 52 30 3d 19 b6 c6 3c 53 aa a8 3c
       -0.00923028 0.043047242 0.024256753 0.02058903
0000f0 b8 1f e5 bc 4c 40 c7 3c 6a 31 8e bc 1d 45 c3 3c
       -0.027969226 0.024322651 -0.017357547 0.023836667
000100 81 fb 06 3d be 0d f1 bc 70 3a 4f 3d 5e 7a 4b 3d
       0.032954697 -0.029425498 0.05059284 0.049677245
000110 82 4d f5 bc 88 fe 5a bc 78 23 a5 bc 13 f3 23 bd
       -0.029944185 -0.013366349 -0.020158514 -0.040026736
000120 be de 63 3d 20 a7 a6 3c 6f 42 4b 3d bc 54 51 bd
       0.055632345 0.020343363 0.049623903 -0.0511062
000130 f6 ac 52 bd 80 e2 ec bb 4c 6e 25 bd 74 d3 b2 3c
       -0.05143448 -0.0072291493 -0.04038839 0.021829344
000140 33 ae 8b bc 45 08 c5 3b f0 16 14 3d 83 9b 27 bd
       -0.017050838 0.0060129487 0.036154687 -0.040919792
000150 2c bc 79 bd 09 52 dc 3c 78 89 79 3d 7d 39 68 bd
       -0.06097047 0.026894586 0.060922116 -0.05669545
000160 88 7d 2c 3c 68 52 95 bc 70 26 7c 3d 26 09 0b bd
       0.010527976 -0.01822777 0.061560094 -0.03394427
000170 d0 8d 2b 3d 1e 66 2b 3d c6 1e 7e bd db 0d 59 bd
       0.04188329 0.041845433 -0.062041067 -0.05299173
000180 65 67 55 bd d3 a6 01 3d 1c 0d e1 bc 54 59 75 3d
       -0.052100558 0.031653237 -0.027472071 0.059899643
000190 0f e0 12 bd 1c 03 e9 b9 f4 fd bb 3c f5 f3 a4 bc
       -0.03585821 -0.0004444354 0.022948243 -0.020135859
0001a0 f6 e4 2b 3d dd 3e 5b 3d 10 0d 61 3b 92 b3 77 3d
       0.0419664 0.053526748 0.0034340061 0.060473986
0001b0 e1 3a 45 bd 94 23 69 bd c3 45 4c 3d de f7 1f bd
       -0.048151854 -0.056918696 0.049871217 -0.039054744
0001c0 5d 85 b0 bb 98 9a 8c 3c e0 27 10 3b 1c 66 4d bd
       -0.005386992 0.01716356 0.0021996424 -0.050146207
0001d0 30 c4 99 bb e6 21 47 bd 14 18 f5 bc ab 8d 33 3d
       -0.004692577 -0.048616312 -0.029918708 0.043836277
0001e0 e9 03 05 bd 50 70 b6 3b a4 52 e5 3c 92 9d 3b bd
       -0.032474432 0.005567588 0.027993508 -0.045804568
0001f0 be 37 0a 3d 58 18 38 bd f0 d5 3e bd e4 fa 19 bd
       0.033744566 -0.04494509 -0.046590745 -0.037592784
000200 a6 0a 11 bd 27 92 1c bd d6 c8 28 bd 5c 09 47 bd
       -0.035410546 -0.03822532 -0.041207157 -0.04859291
000210 ad 71 65 3d 6a 23 4e bd a6 f2 bc 3c 44 15 16 bd
       0.056016613 -0.050326742 0.023064923 -0.036641374
000220 8c fd 76 3d 66 17 f3 bc 9b 67 54 bd b0 38 eb bb
       0.060300395 -0.029674243 -0.05185662 -0.0071783885
000230 67 e7 ff bc 1c a1 85 3c 4f 90 3f bd d2 2e 26 3d
       -0.03123827 0.016312174 -0.046768483 0.040571995
000240 d4 75 33 bd b4 e1 75 bd 4b 5e f1 bc bc 3d 42 bb
       -0.04381354 -0.0600297 -0.029463908 -0.0029638847
000250 17 68 3b bd 16 61 53 3d 38 65 7a 3d 80 f0 76 3b
       -0.045753565 0.05160626 0.061131686 0.003767997
000260 d4 ae df 3c 77 3f bf 3c 5a d0 3e bc 63 74 b4 3c
       0.027305044 0.023345692 -0.011646355 0.022028154
000270 12 27 70 bd 1c 9a 28 3d f2 ba 14 bd f7 c8 02 3d
       -0.05863101 0.041162595 -0.036311097 0.031929936
000280 82 8a 21 3d 2e 29 66 bc 45 cb 1f 3c f0 58 2e bd
       0.039438732 -0.014047904 0.009753053 -0.042565286
000290 e0 7c ba bb ac ea 0b 3d a8 79 47 39 c8 cb 89 bc
       -0.005691156 0.034159347 0.0001902344 -0.016820803
0002a0 22 04 1a 3d bc 2b 01 bd 2c 54 34 bd ac 40 0a 3d
       0.037601598 -0.03153585 -0.044025585 0.033753082
0002b0 be e8 63 3d c1 c7 58 3d aa ee 05 3c 44 3d 23 3d
       0.055641882 0.052924875 0.008174578 0.03985335
0002c0 8e 14 d4 bb ab fb dc bb f8 41 78 3d 82 53 c3 bc
       -0.006472177 -0.0067438683 0.060609788 -0.02384353
0002d0 55 72 e2 3c 60 8c d0 bb 5a 8d 30 bd 5c e6 37 3d
       0.027642408 -0.0063643903 -0.043103553 0.044897422
0002e0 78 3f 68 bc 67 76 95 bc 20 04 ed 3b 05 cc 1c 3d
       -0.014175288 -0.018244935 0.0072331578 0.038280506
0002f0 a0 fe 57 bd ae 35 73 bd 56 f1 d2 39 00 4d d3 bb
       -0.052733064 -0.059377365 0.0004023413 -0.006448388
000300 74 06 e5 3c 4c 59 b0 bc 9a 58 b5 bc b4 1c 1b bd
       0.027957179 -0.021526955 -0.022136975 -0.03786917
000310 b1 16 7c bd ea 15 88 bb a1 8b 54 3d b8 fa fb bc
       -0.061545078 -0.004153003 0.051890973 -0.0307592
000320 5a 7f 22 bd 9f 28 10 3d dc a0 df bc de 67 15 bb
       -0.039672233 0.03519499 -0.027298383 -0.0022797505
000330 c8 7e 01 bc 99 66 6e bd 1c 91 77 3b 48 67 2b 3d
       -0.007903762 -0.058203313 0.00377757 0.041846544
000340 48 77 d5 3c c6 21 ea ba 8a 5a 1a 3d cf 77 34 bd
       0.026057854 -0.0017862848 0.037684 -0.04405957
000350 84 c2 20 3d 8b d6 58 bd c3 c3 7e bd e7 5d 6c 3d
       0.039248005 -0.05293898 -0.06219841 0.05770674
000360 a3 78 01 3c fc 43 19 bd ef 28 7d 3d 01 4e 66 bd
       0.007902297 -0.03741835 0.061806615 -0.056226734
000370 c3 e2 f2 bb 24 65 e0 bc 21 d3 9d 3c a3 fa 9f 3c
       -0.007412286 -0.027391978 0.019265713 0.019528693
000380 dd 3e 26 bd 20 7d df 3c 38 4a 2f 3c 7e a9 84 bb
       -0.040587295 0.027281344 0.0106988475 -0.0040485254
000390 88 65 5b bd 24 23 3b 3d 76 e7 42 3d 88 16 3d 3d
       -0.053563625 0.04568781 0.04758402 0.046164066
0003a0 81 85 44 3d de 67 0f bd 20 59 0d 3c 4c 92 2e 3c
       0.04797888 -0.035011165 0.008627206 0.010654997
0003b0 ec e0 45 3d e6 61 28 bd ba 79 5c bd 82 ff 63 3d
       0.048310205 -0.04110899 -0.053827025 0.055663593
0003c0 c8 3d de 3c af a5 31 3d 82 28 b4 bc 88 96 80 bc
       0.027129069 0.0433709 -0.021991972 -0.015696779
0003d0 8b 21 43 bd c0 a7 7b 3d 36 af 2a 3d ff 46 66 bd
       -0.04763941 0.061439276 0.041671 -0.05622005
0003e0 fc 6c 46 3d 3e 0a 1c bd 30 f6 d5 3b d8 74 0e 3c
       0.04844378 -0.038095705 0.006529592 0.00869485
0003f0 15 3f 5f 3c 18 61 02 bc f4 b2 67 3d 70 c3 40 3d
       0.01362588 -0.007957719 0.056567147 0.047061384

4.bias f4 [128]
000000 df 2c c0 3b c4 df 04 bd ee a4 f8 3b d0 e7 48 3d
       0.005864724 -0.032439962 0.0075880205 0.0490492
000010 19 5f ad bb 37 6b de 3c 38 1e 2a bc 8e 8c 3e bd
       -0.0052908775 0.027150733 -0.010383181 -0.046520762
000020 3c 00 2c 3d 70 9c 99 3b 24 11 7f bc 32 61 52 bb
       0.04199241 0.0046878383 -0.0155680515 -0.003210139
000030 b0 4e 61 bd c2 99 c3 3c b5 2d ca 3b 08 45 49 bc
       -0.055006683 0.023877028 0.0061699995 -0.012284525
000040 05 e9 a1 3c de 19 d1 ba 96 32 1a 3d a1 1c ef bc
       0.019764433 -0.0015953144 0.0376459 -0.029188456
000050 a4 b9 6c bd 76 c9 37 bd 52 27 e9 bc 3a 1d 00 3d
       -0.05779423 -0.044869862 -0.028461132 0.031277873
000060 c4 29 ce 3c d2 52 75 3d 73 c6 1d bd 35 fd ca 3c
       0.0251664 0.059893437 -0.038519334 0.024778942
000070 c5 c8 1a bd 75 be 89 bb ce 72 59 bb d4 b0 b9 bc
       -0.037789125 -0.0042036125 -0.0033180001 -0.022667326
000080 ae 75 33 bd 22 70 55 bd 79 51 99 3b 9b b4 c9 3c
       -0.0438134 -0.05210889 0.0046789018 0.024622252
000090 db 73 61 3c 80 cd 6e bd 4a c5 77 bd 95 70 b3 3c
       0.013760532 -0.05830145 -0.060490884 0.02190427
0000a0 72 20 65 bd 56 3e 0c bd 33 cc ea bc 6e 16 b6 bc
       -0.055939145 -0.034239136 -0.028661823 -0.022227492
0000b0 00 dc 56 bd 1e 80 75 bc 55 2b 55 bb ab b4 59 bd
       -0.052455902 -0.014984159 -0.0032527049 -0.053150814
0000c0 40 1f 73 3d 73 11 30 bd 66 76 32 bd 6a 54 21 3c
       0.059355974 -0.04298539 -0.043569945 0.009846786
0000d0 ef 96 c8 3c 80 8e 74 bd 19 e6 3f 3d e6 e6 43 bb
       0.024486033 -0.05970621 0.046850298 -0.0029892265
0000e0 a9 1b e7 3c f9 90 cd bc c4 c9 7e 3c fa 7e c2 3c
       0.028211432 -0.025093542 0.015551034 0.023742188
0000f0 bc b1 c1 3c ec f3 35 bd e0 82 95 3c 34 17 f6 bc
       0.02364432 -0.044422075 0.018250883 -0.030040361
000100 d3 c6 0c bc b4 b6 71 bd d8 92 70 3b d5 d0 24 3d
       -0.008592325 -0.05901213 0.003670862 0.04023822
000110 bd ba 6d bd 5c 8a 51 3d 6c d7 5c bc 66 95 17 bc
       -0.058039416 0.05115734 -0.013479095 -0.009251928
000120 61 a6 4f 3b d0 b0 dd bb 6f f2 ee 3c 7d 18 8c 3a
       0.0031684863 -0.0067654625 0.029168336 0.001068845
000130 90 b2 0c bc bc 11 2b bd d1 cd 83 bc 08 c3 24 3c
       -0.0085874945 -0.04176496 -0.016089352 0.010056265
000140 6e 3b ae bc 88 2c 79 bd f2 33 44 bc 9e c6 2b bd
       -0.021268573 -0.060833484 -0.011975275 -0.041937463
000150 e4 53 9c bc ff a7 31 3d 0d b5 0f 3d ac 0c 42 bd
       -0.01908297 0.043373104 0.035084773 -0.047375366
000160 e7 b7 43 3d be 24 09 3d ae 6f 68 bd 0b 3a a6 bb
       0.047782805 0.033482306 -0.05674713 -0.005072837
000170 c0 35 a6 3b db 18 3f 3b e8 55 0d bd 9c ed e9 3c
       0.0050723255 0.0029159102 -0.034505755 0.028555684
000180 98 6a 76 bd 2c ac 5b bd f2 d4 25 3d a1 8f 0a bd
       -0.06016025 -0.053630993 0.040486284 -0.03382838
000190 2a 5c cd 3b d2 5f 39 bd 58 43 4e bd 07 20 c5 bc
       0.0062670903 -0.045257397 -0.050357193 -0.024063123
0001a0 1e ad 20 3d bc 00 22 bd 92 9f f5 bc cc 70 67 3c
       0.039227597 -0.03955148 -0.029983316 0.014126014
0001b0 87 2f a5 3c 39 23 11 bd 00 fe 5f b9 20 5b e1 bb
       0.020164264 -0.03543398 -0.0002136156 -0.006877318
0001c0 4c 66 7d bd 83 fc 35 3c a2 fa 12 3b a3 e9 4c 3d
       -0.061865136 0.011107567 0.002242722 0.0500275
0001d0 46 fd 09 3d ef 49 f0 bc 00 4d 96 3c 2b e6 03 bd
       0.033688806 -0.02933213 0.018347263 -0.032201927
0001e0 54 04 ab 3c c7 4c 9e 3c 8b 7a f7 ba 27 75 fa 3c
       0.020876087 0.01932372 -0.0018881125 0.03057344
0001f0 fc 91 8f bc 90 51 4e bc ef 1a 20 bd 6e 45 73 3d
       -0.017525665 -0.012592688 -0.039088186 0.059392385

6.weight f4 [128, 128]
000000 e9 04 ae bd 9d 7f c8 bc 6d 1d 9c bd 45 07 44 3d
       -0.0849703 -0.024474913 -0.076228 0.047858495
000010 4c 7d 3d bd 4c c8 52 bc 70 57 ae bd 00 2f a3 3b
       -0.04626207 -0.012865137 -0.08512771 0.004979968
000020 41 1a 0e 3d d8 31 62 3c 90 81 ad 3d 8d 66 83 bd
       0.034693006 0.013805829 0.08471978 -0.064160444
000030 ee bb 69 3d 27 b6 33 3d 43 12 89 bd 06 2e 7f bd
       0.05706399 0.043874886 -0.06692936 -0.06229975
000040 d9 6c 61 bc 2e fa 12 ba 00 4f b2 ba 28 83 82 3d
       -0.013758861 -0.00056067377 -0.0013603866 0.06372672
000050 ee be 7a bd fe 22 3c 3d 2c 6e 9d 3d f0 f0 58 bd
       -0.06121724 0.04593181 0.07687029 -0.05296415
000060 b1 36 92 bd 21 1c 34 bd eb 8d 6b bd 1c 5b a1 3d
       -0.07139338 -0.04397214 -0.05750839 0.07878706
000070 42 b5 95 3d 3c 29 51 bd f1 83 5c 3d e1 a8 12 3c
       0.07309963 -0.051064715 0.053836767 0.008951397
000080 fc f2 4f bd 58 e4 a0 bd 42 be 22 3d c9 52 9c bd
       -0.050768837 -0.07856053 0.039732225 -0.076329775
000090 fb ac a4 bd c2 71 3c 3d f2 9c ab bd 88 cc 28 3d
       -0.08040806 0.046006925 -0.08379544 0.04121068
0000a0 fd a7 a4 bd c6 3c 5e bd 04 f1 48 bc 41 5a 23 bc
       -0.08039854 -0.054257177 -0.012264494 -0.009970249
0000b0 6a ff 9e bd 35 15 a7 3d c6 3a 37 bd 96 04 34 bd
       -0.0776356 0.08158342 -0.044733785 -0.043949686
0000c0 44 26 e4 bc 36 7b 98 bc 6b 3a 1d bd ac 24 1f bd
       -0.027850278 -0.018613439 -0.03838579 -0.038853332
0000d0 5e bb 31 3c bc b8 d3 bc 49 2a 5d 3d 6e 70 aa bd
       0.0108478945 -0.025844924 0.053995404 -0.083222255
0000e0 85 f3 0d 3d 7c ef 83 3d 38 5a 16 3d 67 4a 0f bd
       0.034656066 0.064421624 0.036707133 -0.034983065
0000f0 c8 4f a4 bd 78 cb a8 bc 6e 45 ab bc c0 87 1f bc
       -0.080230296 -0.020604834 -0.02090713 -0.009736955
000100 04 d7 24 bc cc fc fb bc f7 a9 2a bd b3 6b 22 3b
       -0.010061029 -0.030760191 -0.041665997 0.0024783432
000110 2c 60 82 3b 94 0a 45 3d a9 f3 a6 3d a2 bf 3e 3c
       0.0039787497 0.04810579 0.08151943 0.0116423685
000120 72 21 b0 3d d2 cc 86 bb da 12 0f 3d f1 45 e9 bc
       0.08600129 -0.004113772 0.034930088 -0.028475733
000130 d5 e6 a8 bc f4 bb be bc ea 4c 81 bd 9c 8a ed bc
       -0.020617882 -0.023282982 -0.06313498 -0.028996758
000140 3d ab 72 3d 00 7a 56 39 07 55 15 bd 25 b4 82 bd
       0.059245337 0.00020454079 -0.03645804 -0.06382016
000150 46 58 51 bd 1a 94 ae 3c 5a 8d 26 bc 88 2f 49 bc
       -0.051109575 0.021310855 -0.010165537 -0.012279399
000160 6d 4f 47 3d a7 b4 aa 3b c8 cd 70 bc 62 71 a8 bd
       0.04865973 0.0052095237 -0.0146975 -0.08224751
000170 6e 63 0e 3d c9 63 8f bd 93 30 ae 3d 45 ad 5a 3d
       0.034762792 -0.070014544 0.085053585 0.0533879
000180 c4 4a 89 bc ad 8e 83 3c c2 3a 79 bc ed cf 2d bd
       -0.016759284 0.016059244 -0.015211763 -0.04243462
000190 bf 0b ee 3c fc 5c 84 3d 88 37 cb 3c fc 84 5c bd
       0.029058335 0.06463048 0.024806753 -0.05383776
0001a0 03 ea a1 bd 24 3d 2a 3c 70 8f 57 3b 30 c1 f8 bc
       -0.07905962 0.010390554 0.0032891892 -0.030365556
0001b0 0d 66 68 bd 9a da 9e 3d 34 75 3d bd 53 b4 a0 bd
       -0.05673795 0.07756539 -0.04625435 -0.07846894
0001c0 2e 1e 03 bd 63 1a bd 3c b6 81 80 3d f6 06 ab bd
       -0.032011203 0.023083871 0.062747404 -0.08350937
0001d0 39 9e af bd 6b 0a 00 bd 3d ca 30 3d 0f cb a9 3d
       -0.085751005 -0.031259935 0.04316162 0.082906835
0001e0 9c 2d 15 3d b0 5c e9 3c 87 49 76 bd a2 0f 0f bd
       0.03642045 0.02848658 -0.060128715 -0.034927018
0001f0 dd a3 90 3d 9e 37 09 bd 95 c6 90 3d 9c 6a 93 3c
       0.070625044 -0.033500306 0.070691265 0.017995171
000200 9f c1 85 3d 01 29 7f bd 64 30 53 bd 6b 19 5a 3d
       0.06531071 -0.062294964 -0.05155982 0.053246897
000210 3e a0 66 3d 70 98 ff bc 10 30 00 3c fa 94 4a bd
       0.056305163 -0.031200618 0.007823959 -0.04945848
000220 bf 42 64 bd ae 87 75 bd 59 05 5c bc 74 4e 9f 3d
       -0.055727717 -0.059943847 -0.013429009 0.077786356
000230 2c b7 bd 3c 6d ac a3 3d 1a aa 08 3d 15 d1 af 3d
       0.023158632 0.07991872 0.033365346 0.08584801
000240 20 94 34 bd 9e bf 09 bd ed f6 a4 bd a9 93 7a 3d
       -0.044086576 -0.033630006 -0.0805491 0.061175976
000250 e7 70 8f bd 62 ce 5d 3d 42 83 0d 3d 18 62 64 3c
       -0.07003956 0.0541519 0.034549005 0.013939403
000260 ad 8f 32 bb d9 8f a0 bd 43 a2 34 bc d8 8c 9b 3d
       -0.0027246282 -0.07839937 -0.011025014 0.07595223
000270 cb b2 95 bd ba ef 30 3c ce 59 5c 3d cb 2b bc bc
       -0.07309493 0.010799343 0.053796582 -0.0229701
000280 42 1e 4b 3d fb 80 22 bd 4e e6 1c bd 13 ec 8f 3d
       0.049589403 -0.039673787 -0.038305573 0.070274495
000290 98 b6 71 bb c2 5e 2e 3d c6 b1 44 3d fa 36 55 bd
       -0.0036882516 0.042570837 0.0480211 -0.052054383
0002a0 c7 10 58 bd 80 9f 50 bc 02 e2 56 bd 89 ea fa 3c
       -0.052750375 -0.01273334 -0.05246163 0.030629413
0002b0 4e 05 18 3d c8 80 b0 3d 7e 5a 6c bd 7a 5a 38 3d
       0.037114434 0.08618313 -0.057703488 0.04500816
0002c0 c0 c0 f5 bb 30 45 9f 3d 40 8b 23 3b a1 52 29 3d
       -0.007499784 0.07776868 0.0024954826 0.041338567
0002d0 d5 13 98 bb 90 8b d9 3b d0 37 47 3d 43 27 a3 3d
       -0.004641036 0.0066389516 0.04863721 0.07966473
0002e0 c5 1e b1 3d cb 69 3a 3d 33 69 04 3d 13 23 88 3d
       0.08648447 0.04551105 0.03232689 0.06647315
0002f0 33 bf 84 3d ae 15 41 3d 11 9e 20 bd 36 cc 69 3d
       0.06481781 0.047139816 -0.039213244 0.057079516
000300 be ff 74 3d d9 01 b2 3d ed 8c 34 bd 73 d6 96 3c
       0.059814207 0.08691759 -0.04407971 0.018412804
000310 60 f9 9c 3d d3 1c ab bd 15 d9 33 bd 07 a8 40 bd
       0.07664752 -0.08355107 -0.043908197 -0.047035243
000320 2c ce 28 bd 8e a0 78 bc 8b 50 8f bd 63 26 3d bb
       -0.041212246 -0.015174998 -0.06997784 -0.0028861992
000330 d7 90 c1 3c 20 42 36 3b 36 98 99 3d d7 df 91 bd
       0.023628635 0.002781041 0.07499735 -0.07122772
000340 9f 65 c0 bc 71 e2 96 3d 67 10 07 3d fb 30 fa bc
       -0.023485957 0.07367409 0.032974627 -0.030540934
000350 96 0e 43 bd c3 d1 13 bc 6a dd 4a bd 91 8c ac bd
       -0.047621332 -0.009022179 -0.049527563 -0.084252484
000360 4f a2 a4 3d 06 24 af 3b 6c fd a3 3d ea 16 a7 bd
       0.080387704 0.0053448705 0.08007321 -0.081586674
000370 3d 37 8d bd 06 2f 0c 3d 52 41 4a 3d 56 53 6b 3d
       -0.068953015 0.034224533 0.0493787 0.057452522
000380 62 5a 23 bd ff 2a 96 bc 0c 13 49 3d 67 bf ff 3c
       -0.039881118 -0.018331049 0.04909043 0.031219197
000390 6f 11 6d 3b 20 0a 73 bd 7c cf ed 3c c6 03 87 3d
       0.0036173721 -0.059335828 0.0290296 0.065925166
0003a0 47 d0 01 3d 0a 4f b9 b9 5c 48 45 bd 83 05 f9 bc
       0.03169277 -0.00035344838 -0.04816471 -0.030398136
0003b0 d6 2a 57 3d 6e 2a 34 3d 00 97 2f ba 00 e2 25 3c
       0.052531086 0.043985777 -0.0006698221 0.010124683
0003c0 3c d4 89 bc d8 fb 97 bd 0b 3c a5 bd 69 42 8a bc
       -0.016824834 -0.07421082 -0.08068093 -0.01687737
0003d0 1e 85 9e 3b 4f d4 b3 3b 80 62 f8 3b 1b 35 a8 bd
       0.004837646 0.0054879556 0.0075801015 -0.08213254
0003e0 9d d4 39 bb 07 5e f1 bc 75 37 49 bd 54 33 29 bd
       -0.0028355487 -0.029463781 -0.049125154 -0.041308716
0003f0 f7 75 b3 3d 71 d6 97 3d d7 0d 74 3d 03 83 6f bd
       0.087627344 0.07413948 0.05958351 -0.058474552

6.bias f4 [128]
000000 ef 9e 6e 3d 11 4f ae 3d f9 29 59 3d df 45 a3 3c
       0.05825704 0.085111745 0.053018544 0.019930778
000010 d0 c7 ab 3d aa 44 9d bd 38 c5 e7 bc 67 e6 2a 3c
       0.083877206 -0.07679112 -0.028292283 0.010430909
000020 f0 de a8 bb 06 d9 97 bd 5f 11 8e 3d 0e 13 38 bc
       -0.0051535293 -0.07414441 0.06936907 -0.011235012
000030 e9 95 40 bc 0e 92 11 bd a5 39 e5 bb 95 99 99 bd
       -0.011754491 -0.03553968 -0.006995397 -0.074999966
000040 55 fd 50 bd 68 e3 78 3d 73 cb a9 bd f6 58 b9 3c
       -0.051022846 0.060763747 -0.08290758 0.022625428
000050 c8 d7 31 3c 51 63 b2 3d c2 2f 53 bd c9 50 53 bd
       0.010854669 0.08710349 -0.051559217 -0.051590715
000060 e2 33 ea 3c 34 af 60 bd 94 da dc bc 77 cd 54 3d
       0.028589193 -0.054854587 -0.026959695 0.05195376
000070 8c ac 13 bd 41 82 ae 3d 87 c7 c7 bc fa 85 40 3b
       -0.036053225 0.08520938 -0.024387134 0.0029376731
000080 42 24 03 bc ee f6 8a bd 59 ef 61 bc 72 58 b0 bd
       -0.00800425 -0.06785379 -0.013789975 -0.086106196
000090 b0 37 da bc 46 03 23 3d 38 b6 85 3d 06 d9 31 bd
       -0.026637882 0.039798044 0.06528896 -0.04341986
0000a0 98 ff 37 3d f5 e2 44 3a a8 83 81 bc 17 da 2a bd
       0.044921488 0.0007510626 -0.015809849 -0.041711893
0000b0 b3 1a 98 3c f3 17 3a bd 29 1c 1f 3d 6f f8 ad 3d
       0.018567419 -0.045432996 0.038845215 0.084946506
0000c0 68 11 6b bc f8 e7 aa 3d 79 fe 94 bd ca 8a 12 bd
       -0.014347412 0.08345026 -0.07275099 -0.03577689
0000d0 69 e6 8b 3d b1 0a a4 bd 61 58 4f 3c 5d e5 9c 3c
       0.068310566 -0.08009852 0.0126553485 0.019152338
0000e0 ed 49 9b 3d 68 aa a4 3d 6d 96 81 3d 42 cd 80 bd
       0.075824596 0.08040315 0.063275196 -0.0628915
0000f0 2b 38 0b bd 2e e4 ef bc 5e 46 9d 3d 30 97 f4 bb
       -0.033989113 -0.02928361 0.07679437 -0.007464312
000100 bc 86 f0 bc 80 94 0a 3a 40 4b 17 bc 7b b1 02 bd
       -0.029361121 0.00052864105 -0.00923425 -0.03190754
000110 f1 11 48 bd ba 69 f1 3c 74 75 69 3c f0 e7 7b bd
       -0.048845235 0.02946936 0.014249194 -0.06150049
000120 00 fd 5c ba e8 6b a2 3c 49 66 5f bc 8e 4c 9e 3d
       -0.0008430034 0.019826844 -0.0136352265 0.077294454
000130 94 1c de 3c 3c 83 05 3d b4 6e 25 3d 78 91 2e bd
       0.027113236 0.032595858 0.040388778 -0.0426192
000140 e0 fe b0 bc cf b0 6e bd 5f 97 86 bc 5e 84 ad 3d
       -0.021605909 -0.058274087 -0.016429601 0.08472513
000150 4f 99 d0 3c 57 4d a6 3d ad 56 27 3b 42 5e 9a 3d
       0.025463728 0.0812022 0.002553384 0.075375095
000160 54 58 60 3d e1 84 32 3d 70 c0 25 bd fe 78 70 bd
       0.054771736 0.043583754 -0.040466726 -0.058709137
000170 62 b1 a4 bc a9 b7 28 bd 59 78 38 3d c6 73 06 3d
       -0.020104114 -0.041190777 0.045036647 0.032825254
000180 72 cc 6a bd e7 fe 79 3d 16 1c 97 3d b2 c8 2f 3d
       -0.05732388 0.06103411 0.07378404 0.042916007
000190 5d 5f a8 3d 75 28 82 3d 33 ff e3 3c 9b 73 5e bd
       0.08221314 0.06355373 0.02783165 -0.05430947
0001a0 39 77 ad ba 8d f7 e7 3c 6e ff 28 bb e9 e4 53 3c
       -0.0013234384 0.028316284 -0.0025787014 0.012932994
0001b0 c9 2c a7 3d f6 b5 5f 3d 4d b8 7c 3d 3e 6c b4 bd
       0.08162839 0.05461689 0.0616992 -0.08809708
0001c0 06 78 4a 3d a1 34 0c bd ed 1a a5 bd 08 2f 1c 3c
       0.04943087 -0.03422988 -0.08061776 0.0095326975
0001d0 45 15 53 3d 13 49 a4 3d d0 ed 98 bc e0 b7 aa 3d
       0.051533956 0.0802175 -0.018668085 0.083358526
0001e0 f4 5a d1 bc e6 2c 63 bd 40 55 62 3c 98 cd 76 bc
       -0.025556065 -0.05546274 0.0138142705 -0.015063666
0001f0 eb 03 95 bd 12 50 3b bb 0e dd aa bd 5f 40 97 bd
       -0.07276138 -0.0028581661 -0.08342944 -0.07385325
