models_4_200/checkpoint132.pth.tar (torch_old, 489035 bytes, 10 tensors)

0.weight f4 [256, 17]
-0.032063533 0.26723248 0.07551317 0.15189178 -0.18167856 -0.09952112 -0.009266756 0.2970192
-0.0027431322 -0.13764627 -0.055814672 0.25658244 0.08483234 0.102563486 0.22674863 -0.03463309
-0.054217156 -0.18560174 -0.14846726 0.19140294 -0.12733816 0.116317384 0.23698576 0.18567073
-0.023977771 -0.06122692 0.1962063 0.12060592 0.0049990546 0.18060349 0.017628826 0.1338597
0.19751562 0.1831814 0.02749827 0.09686654 0.0751359 0.030493239 0.20694509 0.0183116
-0.2007551 -0.086517245 -0.15886685 0.19412415 -0.022200571 -0.19812395 -0.11055792 0.03239526
-0.15505758 -0.068925366 -0.16149835 0.13150813 0.017493647 -0.12037313 0.28023207 -0.04585384
0.18272421 0.20538156 -0.084018536 -0.10528728 0.015720729 0.0013376744 -0.007939459 0.05588416
-0.21204843 0.071701065 -0.038008586 0.04947717 0.10913185 0.21970451 -0.1379047 0.1480685
0.04848938 0.050182205 0.18074538 -0.10074616 -0.28446868 -0.021007296 0.0010995356 -0.010721935
-0.10948646 0.034827624 -0.019361887 0.015127513 0.12434713 -0.1750107 0.24842688 -0.02123842
-0.20969158 0.27062932 -0.15917702 -0.07149098 -0.045381367 0.13352752 -0.12125318 0.10530401
-0.07491201 -0.013946794 0.054380998 0.20970297 -0.18957627 0.19306421 0.17196983 0.29664385
0.036589004 -0.03608433 0.121823244 -0.11471793 -0.100764334 0.18898016 0.08134201 0.20345803
0.061109096 -0.019185217 0.22413976 -0.27084497 -0.020749979 -0.13085213 0.014668821 0.2692895
0.13831413 -0.0013820195 0.004287823 0.2612257 0.23819284 -0.21292135 -0.012977886 -0.13250995
-0.0292965 -0.20197801 0.10401427 0.0027832778 -0.039835434 0.17586353 -0.107765034 -0.10734939
0.027248615 -0.2124119 0.24739105 0.077691436 -0.11340626 0.13092132 0.059713613 0.004880844
0.12496059 0.028715905 0.09527132 -0.096906655 -0.12704182 0.071816325 -0.14470331 -0.04843625
0.2189278 0.028285729 -0.02555667 -0.11184292 0.1707426 -0.091898784 -0.11969064 0.135823
0.2502791 -0.15049961 0.20336387 0.20730469 -0.07822914 -0.13693562 -0.1360543 -0.1653701
0.20437439 0.20338708 0.11407393 0.2550382 0.12391984 0.29960084 0.11259133 -0.095421694
0.04435331 -0.21579222 -0.09513317 -0.016749624 -0.15780722 0.16809773 -0.17117949 -0.085598856
0.058902595 -0.04964221 0.1504263 -0.069463305 -0.037692394 0.15346114 0.09428218 -0.062036682
0.23200226 0.1968991 0.04038757 -0.21315607 -0.1778775 -0.11748781 -0.12868878 0.15981494
0.28183332 0.09975982 -0.16198282 0.123401396 0.12572971 0.04750667 0.03106275 0.123872824
0.23339742 0.23219752 -0.14177284 -0.07382523 -0.047048323 0.100704856 0.018253606 -0.13305908
-0.16153921 -0.17181376 0.17995152 0.0963347 0.05194235 -0.09963374 0.1857317 0.18874393
-0.108955786 -0.030892638 -0.03193158 -0.053830363 0.08954379 0.13103564 0.06710652 0.165127
-0.07899933 0.25960347 -0.115276165 0.24425033 0.10452829 0.070590116 0.20469189 0.06683788
-0.09916846 0.26258823 -0.07630711 -0.022144172 0.1530371 -0.18510425 -0.19195963 -0.13206463
0.03738477 0.2707734 0.1506685 -0.031137008 -0.09759482 0.27121878 -0.039391275 -0.26088464
00000000: 0d55 03bd b2d2 883e a6a6 9a3d 8589 1b3e
00000010: f209 3abe bbd1 cbbd 97d3 17bc e712 983e
00000020: 1fc6 33bb 25f3 0cbe ed9d 64bd c65e 833e
00000030: 94bc ad3d ce0c d23d cb30 683e 6ddb 0dbd
00000040: cf12 5ebd 620e 3ebe cd07 18be 22ff 433e
00000050: ef64 02be cf37 ee3d 65ac 723e 7820 3e3e
00000060: 086d c4bc 14c9 7abd 4eea 483e 3d00 f73d
00000070: 1ccf a33b 1ff0 383e 546a 903c 8412 093e
00000080: 8941 4a3e e893 3b3e 0d44 e13c f761 c63d
00000090: dae0 993d f5cc f93c 6ae9 533e 3502 963c
000000a0: bf92 4dbe f42f b1bd fead 22be 7bc8 463e
000000b0: f9dd b5bc 01e1 4abe 316c e2bd e4b0 043d
000000c0: 6ac7 1ebe be28 8dbd d35f 25be 11aa 063e
000000d0: d64e 8f3c 3086 f6bd 947a 8f3e 3cd1 3bbd
000000e0: 0e1c 3b3e 8b4f 523e e911 acbd dca0 d7bd
000000f0: c2c8 803c e854 af3a 8114 02bc cae6 643d
00000100: 3923 59be 02d8 923d e4ae 1bbd 93a8 4a3d
00000110: 8580 df3d 38fa 603e e436 0dbe 459f 173e
00000120: cd9c 463d db8b 4d3d 5115 393e 0154 cebd
00000130: e1a5 91be 7e17 acbc 4b1e 903a 0eab 2fbc
00000140: 703a e0bd 69a7 0e3d d29c 9ebc 63d9 773c
00000150: b5a9 fe3d 0136 33be 9e63 7e3e 32fc adbc
00000160: 64b9 56be ed8f 8a3e 4dff 22be dd69 92bd
00000170: d0e1 39bd 70bb 083e 9653 f8bd a1a9 d73d
00000180: 786b 99bd 1881 64bc 9cbe 5e3d 60bc 563e
00000190: 4820 42be a0b2 453e dc18 303e b4e1 973e
000001a0: 5ade 153d 2acd 13bd 777e f93d 3cf1 eabd
000001b0: 885d cebd 0484 413e a496 a63d 4d57 503e
000001c0: 884d 7a3d 512a 9dbc e584 653e 31ac 8abe
000001d0: dcfb a9bc 1afe 05be 7f55 703c 50e0 893e
000001e0: 38a2 0d3e e124 b5ba de80 8c3b 60bf 853e
000001f0: d3e8 733e 0e08 5abe 33a1 54bc b0b0 07be
00000200: 37ff efbc 53d3 4ebe 6f05 d53d a767 363b
00000210: 7b2a 23bd 9215 343e eab3 dcbd ffd9 dbbd
00000220: 7d38 df3c 8182 59be 1454 7d3e b01c 9f3d
00000230: 8b41 e8bd 3d10 063e 4396 743d 7def 9f3b
00000240: 56eb ff3d 9e3d eb3c 9c1d c33d ff76 c6bd
00000250: 4017 02be 7014 933d 1b2d 14be 1765 46bd
00000260: 9c2e 603e 79b7 e73c 395c d1bc e70d e5bd
00000270: 26d7 2e3e 6e35 bcbd 5e20 f5bd 2f15 0b3e
00000280: 9524 803e 921c 1abe 9e3e 503e ae47 543e
00000290: 9936 a0bd da38 0cbe d251 0bbe c856 29be
000002a0: 8547 513e b444 503e 989f e93d 5e94 823e
000002b0: afc9 fd3d 4865 993e 4996 e63d 736c c3bd
000002c0: d1ab 353d a3f8 5cbe 2ed5 c2bd 8236 89bc
000002d0: 3798 21be d021 2c3e ad49 2fbe 744e afbd
000002e0: d943 713d a155 4bbd 5a09 1a3e c742 8ebd
000002f0: 5763 1abd eb24 1d3e 0417 c13d 2d1a 7ebd
00000300: 0092 6d3e eb9f 493e 706d 253d 9645 5abe
00000310: 8525 36be 739d f0bd fec6 03be 87a6 233e
00000320: 754c 903e e04e cc3d d3de 25be dfb9 fc3d
00000330: 4abf 003e 5b96 423d 4f77 fe3c 09b1 fd3d
00000340: bcff 6e3e 30c5 6d3e e62c 11be af31 97bd
00000350: beb5 40bd 593e ce3d 9688 953c a440 08be
00000360: 896a 25be f2ef 2fbe 3645 383e 214b c53d
00000370: 80c1 543d c60c ccbd 7330 3e3e 1746 413e
00000380: 3624 dfbd 8f12 fdbc b0ca 02bd 3a7d 5cbd
00000390: bc62 b73d 352e 063e 256f 893d 0d17 293e
000003a0: 67ca a1bd bfea 843e e915 ecbd c21c 7a3e
000003b0: ee12 d63d 8d91 903d c09a 513e 4ce2 883d
000003c0: d518 cbbd f771 863e e746 9cbd b267 b5bc
000003d0: c2b5 1c3e f88b 3dbe 1191 44be f33b 07be
000003e0: c620 193d d0a2 8a3e d848 1a3e 0a13 ffbc
000003f0: cbdf c7bd 30dd 8a3e bf58 21bd ac92 85be

0.bias f4 [256]
-0.15675189 -0.15311487 0.084761165 0.03246678 0.077871345 0.006926823 0.22744276 -0.052781645
0.060926646 0.12709428 -0.034516316 0.2311495 0.22814387 -0.1345378 -0.04942929 -0.032478545
-0.17699376 0.07395763 -0.0084785195 0.2725552 0.16095164 0.024423767 0.19424425 0.08263496
-0.017792476 0.00052249175 -0.1701297 0.06981513 0.19223286 0.06441063 0.17551918 0.22832365
-0.07094916 0.07639017 -0.2168424 -0.09505268 -0.13683231 0.006769236 -0.03895356 0.051979497
-0.062257815 -0.024364756 -0.00805566 0.1656211 0.05630626 0.29441482 -0.0793346 0.011158398
-0.17181362 -0.16400453 -0.09565521 -0.20145114 0.12931743 -0.10943589 0.22429122 0.21745089
-0.036580313 -0.034796175 -0.2285434 -0.22438632 0.3047708 -0.011566593 0.29654697 0.09243492
-0.16694081 0.291322 -0.13899876 -0.16520092 -0.07838908 0.22935236 -0.11276041 -0.0757524
-0.13997178 0.2464271 0.22885987 -0.121866204 0.024790354 0.1562502 -0.08415761 0.2469188
0.21571974 -0.20514207 0.08679047 0.08920925 0.021350242 -0.14789732 0.037940692 0.013843579
-0.10109973 0.024321664 0.19890584 -0.04811339 0.14728141 -0.12875693 -0.005209004 0.112318836
-0.11208645 -0.0509959 0.115993574 -0.017379306 -0.053780217 -0.1593504 0.044173535 -0.045119047
0.04669714 -0.03936947 -0.117125586 -0.12084746 -0.1540669 0.06479006 -0.016009314 -0.0737732
0.14533274 -0.13141042 0.15478273 -0.13027544 0.09422901 0.23486952 0.09140545 0.11218955
-0.0433963 -0.09391654 0.06788336 0.0070989095 0.013255565 0.07629715 0.20605426 0.1071193
-0.06186688 -0.17912245 0.13777524 0.025175082 0.144865 0.1244179 -0.04441735 0.111088075
-0.1808641 0.22908026 0.33037806 -0.134596 -0.025081296 -0.10209436 0.21013333 -0.18108457
0.112167224 0.18291546 0.21112023 -0.14247939 0.18033041 -0.093001775 -0.19278216 -0.06743128
0.026770327 -0.0710984 -0.16558152 0.17685175 0.039560586 -0.11643814 -0.17562574 -0.13549636
0.22211443 0.1947509 -0.11036426 -0.23555538 -0.07784363 0.2924738 -0.24648766 0.16655771
0.1990939 0.08098055 0.14703906 -0.08501832 -0.10149554 0.15203631 -0.022089066 0.03371581
0.15718818 0.08831905 -0.14912914 -0.16096728 -0.17841403 0.20093814 0.07397206 0.060359165
0.15605119 0.12152651 0.19395362 0.09659609 -0.13412139 -0.24824356 0.21835509 0.22651738
-0.058092583 -0.028480187 -0.14696845 0.25030574 -0.0679277 -0.011588487 0.21626359 0.23496844
0.14258151 0.15962474 0.10932484 0.08402855 0.14414543 0.05004463 0.058088098 -0.25987634
-0.0031946446 -0.08600797 0.168051 0.20373622 -0.08879652 0.10298138 -0.18041348 -0.009086444
0.113835715 0.011494538 -0.11119226 0.212321 0.24565125 0.035379134 -0.13731985 -0.16305935
-0.06033547 -0.22533922 -0.07274863 0.21108769 0.2799614 -0.19831067 0.042660605 -0.11463387
0.04306071 -0.06514041 -0.061616607 0.25240886 -0.09853137 0.16712484 -0.13176878 -0.08029934
0.015981488 0.10179594 0.017536225 -0.058810305 -0.06225733 0.22774245 -0.067484416 -0.22193938
-0.10634252 0.1166644 -0.14021817 0.07693802 0.16155036 0.04376121 0.095622666 0.16252783
00000000: 9183 20be 25ca 1cbe 4397 ad3d e3fb 043d
00000010: 037b 9f3d 67fa e23b c1e6 683e 9131 58bd
00000020: 388e 793d 0125 023e fb60 0dbd 74b2 6c3e
00000030: 8c9e 693e 47c4 09be 5e76 4abd 3908 05bd
00000040: da3d 35be 1977 973d 7de9 0abc 5b8c 8b3e
00000050: 82d0 243e 5a14 c83c f7e7 463e 853c a93d
00000060: 87c1 91bc d4f7 083a 7b36 2ebe 3cfb 8e3d
00000070: b1d8 443e b8e9 833d 4dbb 333e adcd 693e
00000080: cb4d 91bd 7372 9c3d ef0b 5ebe fbaa c2bd
00000090: c51d 0cbe 78d0 dd3b c58d 1fbd 74e8 543d
000000a0: 0d02 7fbd 9998 c7bc e3fb 03bc 9498 293e
000000b0: 65a1 663d 8abd 963e 2e7a a2bd b7d1 363c
000000c0: e9ef 2fbe cef0 27be e1e6 c3bd 3549 4ebe
000000d0: ca6b 043e ed1f e0bd 99ac 653e 72ab 5e3e
000000e0: 3dd5 15bd 6f86 0ebd 4807 6abe 87c5 65be
000000f0: eb0a 9c3e cf81 3dbc 01d5 973e 854e bd3d
00000100: 88f2 2abe 2828 953e b155 0ebe 6e2a 29be
00000110: 748a a0bd 58db 6a3e eeee e6bd 1324 9bbd
00000120: c354 0fbe 6357 7c3e 3e5a 6a3e fd94 f9bd
00000130: 2415 cb3c 0d00 203e d35a acbd 48d8 7c3e
00000140: a3e5 5c3e c310 52be 34bf b13d 57b3 b63d
00000150: b4e6 ae3c 6572 17be b367 1b3d 2ed0 623c
00000160: 600d cfbd 3a3e c73c f9ad 4b3e 8c12 45bd
00000170: f0d0 163e dbd8 03be 4bb0 aabb 6b07 e63d
00000180: 958d e5bd 14e1 50bd 0a8e ed3d 0c5f 8ebc
00000190: a548 5cbd c02c 23be 4fef 343d c0ce 38bd
000001a0: 8045 3f3d e241 21bd 8adf efbd e07e f7bd
000001b0: b7c3 1dbe a7b0 843d f725 83bc 6716 97bd
000001c0: 1bd2 143e 7490 06be 5d7f 1e3e ed66 05be
000001d0: 24fb c03d a381 703e c832 bb3d a3c3 e53d
000001e0: 52c0 31bd 5157 c0bd 6e06 8b3d f89d e83b
000001f0: df2d 593c ae41 9c3d e3ff 523e 5d61 db3d
00000200: 2068 7dbd e06b 37be f414 0d3e f93b ce3c
00000210: 7e57 143e d0ce fe3d f8ee 35bd 2582 e33d
00000220: 7034 39be 0494 6a3e 5027 a93e 89d3 09be
00000230: 4a77 cdbc d916 d1bd 312d 573e 3c6e 39be
00000240: eeb7 e53d 314e 3b3e e72f 583e 1ee6 11be
00000250: 89a8 383e b777 bebd b068 45be 6919 8abd
00000260: 724d db3c 0a9c 91bd 348e 29be a018 353e
00000270: 480a 223d 1f77 eebd 3cd7 33be 8fbf 0abe
00000280: f771 633e c86c 473e a806 e2bd 6e35 71be
00000290: 7b6c 9fbd 20bf 953e 4367 7cbe 1b8e 2a3e
000002a0: 45df 4b3e 21d9 a53d 6891 163e 161e aebd
000002b0: e5dc cfbd 68af 1b3e 21f4 b4bc 9719 0a3d
000002c0: f0f5 203e 9ee0 b43d 4fb5 18be 9bd4 24be
000002d0: 2bb2 36be bac2 4d3e aa7e 973d 2c3b 773d
000002e0: e2cb 1f3e e4e2 f83d c79b 463e 2cd4 c53d
000002f0: 1e57 09be 8f33 7ebe 7a98 5f3e 2cf4 673e
00000300: 7df2 6dbd 484f e9bc e67e 16be 1328 803e
00000310: ae1d 8bbd a3dd 3dbc 3474 5d3e 919b 703e
00000320: e300 123e ab74 233e b4e5 df3d 2917 ac3d
00000330: dc9a 133e 99fb 4c3d c9ed 6d3d 830e 85be
00000340: 3e5d 51bb f224 b0bd 9015 2c3e 3aa0 503e
00000350: f3da b5bd e7e7 d23d 50be 38be 4fdf 14bc
00000360: b322 e93d 9653 3c3c c5b8 e3bd ad6a 593e
00000370: 008c 7b3e b6e9 103d 939d 0cbe 08f9 26be
00000380: 5322 77bd 53bf 66be 3cfd 94bd 5f27 583e
00000390: 1a57 8f3e f411 4bbe e3bc 2e3d 2ac5 eabd
000003a0: 6d60 303d 5668 85bd b261 7cbd bc3b 813e
000003b0: d1ca c9bd c622 2b3e 65ee 06be fb73 a4bd
000003c0: 9ceb 823c 647a d03d 21a8 8f3c 13e3 70bd
000003d0: 8b01 7fbd 5135 693e 4535 8abd 1444 63be
000003e0: 1bca d9bd bfed ee3d 5a95 0fbe ae91 9d3d
000003f0: 756d 253e f43e 333d d1d5 c33d b26d 263e

2.weight f4 [256, 256]
0.11307498 -0.0656922 0.016783584 -0.052624363 0.034575857 -0.007798795 0.037936013 -0.05055849
-0.043978445 -0.06448482 0.052791517 -0.05034991 -0.0054522376 -1.1124779e-05 -0.027479077 0.0035935557
-0.11568328 0.06100602 0.076265104 -0.047304858 -0.04494316 -0.10267909 -0.06592567 0.0023939607
0.07830313 0.047267087 -0.047289483 -0.05243178 0.0756669 0.022069676 0.06717264 -0.004727033
-0.06519075 0.04029779 0.05058307 0.029239552 0.052109208 0.072622225 -0.037967503 -0.025552683
-0.056615874 -0.073959365 -0.024030635 -0.0038538505 -0.021505134 -0.08499184 -0.0070469175 -0.040926985
0.04125811 0.13602677 -0.04896738 -0.026591256 0.046798773 -0.01983795 -0.13495919 0.0519713
-0.08443763 -0.11408092 -0.0130160265 -0.0042873793 0.016648127 -0.038092706 -0.014350373 -0.0101141315
0.05333716 -0.07450979 0.034581006 -0.017322691 -0.037350357 -0.020636752 0.0062973173 0.022017878
0.0579512 -0.021759959 0.048904978 0.024214366 -0.06728922 0.026781864 0.04503396 0.031804103
0.07263583 -0.0598292 -0.01201409 -0.038491234 -0.03527024 0.051157482 -0.03705799 -0.0056236763
-0.030770814 -0.034846187 0.031726804 0.010948675 0.03438408 0.039038163 -0.04366971 -0.06920894
-0.00030996918 0.03699994 -0.025961785 0.002082555 -0.038429927 0.0810451 0.03884197 -0.015857134
0.020009197 0.01638783 -0.029736057 -0.050125506 0.070863046 0.01408912 -0.016394792 0.03135531
-0.012817821 0.06466931 0.07182849 -0.049929835 -0.023693513 -0.07290611 0.05935512 -0.02305538
-0.08687046 0.08484913 0.009488554 -0.04677184 -0.0923247 -0.057330154 0.05232491 0.022272723
0.072524786 0.0078087766 -0.037035126 -0.050467752 0.0038408998 0.08520074 -0.005162865 -0.08664907
0.088566646 -0.041942414 -0.12496086 0.06685077 0.04057208 -0.06982559 -0.0728408 -0.042642698
-0.081174076 -0.012275526 -0.0012726085 -0.014245865 0.050133057 0.042558715 -0.06254496 0.052145235
0.05538556 -0.035694227 0.057755206 0.054807868 0.05297355 0.040937535 0.055742245 0.0056969645
-0.01396591 0.02950858 0.0023483622 -0.0674477 0.008822368 -0.08291239 0.027551234 0.05399025
0.06707838 0.020730183 0.023845071 0.07796527 -0.030741403 0.019014893 0.037082758 0.017094007
0.08947971 0.023225833 -0.0051474273 -0.060216006 0.0106291 -0.00066321087 -0.07697905 0.0005142992
-0.029968198 0.013083925 -8.082978e-05 0.040982816 0.067044914 -0.03641701 0.028358987 -0.03442403
-0.1186079 -0.011408915 0.033568237 -0.027628576 0.055346053 -0.074462526 -0.038421825 -0.08495633
0.0053049326 -0.008893804 -0.06811409 -0.054325886 0.0028680165 0.0438199 -0.07697811 -0.024869695
0.044322617 -0.020443495 -0.019820614 -0.055687115 0.08289289 -0.0043896115 0.06760101 0.019262657
0.0699446 -0.014011628 0.00077179744 -0.05542472 -0.04231107 0.009534673 -0.11652867 -0.09264583
0.037213657 0.07849523 -0.032624934 0.06872311 0.0076602055 -0.012006097 -0.019465769 0.010071856
-0.05056113 0.030008523 0.0591573 0.011146626 0.058625013 0.053716857 0.04232336 -0.023987552
-0.020895641 0.023943324 -0.046178035 0.07434481 0.038619906 -0.03659949 0.08326563 0.02781859
0.05946179 0.027691126 0.040476844 0.052277036 0.022483485 0.018209184 0.06861475 -0.11905454
00000000: db93 e73d a289 86bd ba7d 893c a58c 57bd
00000010: 6a9f 0d3d 098d ffbb cb62 1b3d 6b16 4fbd
00000020: be22 34bd 9e10 84bd eb3b 583d b53b 4ebd
00000030: afa8 b2bb 90a4 3ab7 cd1b e1bc dc81 6b3b
00000040: 5beb ecbd 73e1 793d e130 9c3d bdc2 41bd
00000050: 5216 38bd 6a49 d2bd 0a04 87bd ffe3 1c3b
00000060: 645d a03d 229b 413d 9eb2 41bd b5c2 56bd
00000070: 3ff7 9a3d 77cb b43c cf91 893d 3ae5 9abb
00000080: ba82 85bd 4c0f 253d 3130 4f3d c987 ef3c
00000090: 7770 553d f6ba 943d d083 1bbd dc53 d1bc
000000a0: 0ce6 67bd 0278 97bd e5db c4bc e290 7cbb
000000b0: 892b b0bc 3410 aebd d4e9 e6bb 0ea3 27bd
000000c0: 44fe 283d 9a4a 0b3e 0592 48bd e8d5 d9bc
000000d0: 12b0 3f3d 3283 a2bc be32 0abe dcdf 543d
000000e0: a3ed acbd 42a3 e9bd 2c41 55bc 257d 8cbb
000000f0: a761 883c 1907 1cbd d41d 6bbc beb5 25bc
00000100: 1178 5a3d 9798 98bd d0a4 0d3d 51e8 8dbc
00000110: b0fc 18bd 680e a9bc ba59 ce3b d65e b43c
00000120: 3d5e 6d3d f141 b2bc 9650 483d 355d c63c
00000130: eece 89bd a465 db3c 8875 383d 0545 023d
00000140: 18c2 943d 770f 75bd bfd6 44bc fca8 1dbd
00000150: 8777 10bd 828a 513d 1eca 17bd d146 b8bb
00000160: 1313 fcbc e0ba 0ebd f7f3 013d 1262 333c
00000170: 52d6 0c3d 7be6 1f3d 03df 32bd 6bbd 8dbd
00000180: 5c83 a2b9 408d 173d cfad d4bc 7a7b 083b
00000190: b368 1dbd f9fa a53d c218 1f3d d2e6 81bc
000001a0: 54ea a33c c53f 863c 0899 f3bc 6750 4dbd
000001b0: a520 913d 0dd6 663c 5f4e 86bc 6d6e 003d
000001c0: d701 52bc 5871 843d d11a 933d 3a83 4cbd
000001d0: e618 c2bc cc4f 95bd 5b1e 733d a3de bcbc
000001e0: 24e9 b1bd 61c5 ad3d e175 1b3c d493 3fbd
000001f0: bb14 bdbd 06d3 6abd a552 563d 4975 b63c
00000200: e087 943d c4e0 ff3b 25b2 17bd 46b7 4ebd
00000210: 9bb7 7b3b ba7d ae3d 402d a9bb 1175 b1bd
00000220: 6e62 b53d cfcb 2bbd 7beb ffbd 0ee9 883d
00000230: e92e 263d b800 8fbd 8f2d 95bd 1caa 2ebd
00000240: 983e a6bd 4a1f 49bc a8cd a6ba 7d67 69bc
00000250: 5258 4d3d 0c52 2e3d 9217 80bd 3e96 553d
00000260: f8db 623d 1c34 12bd b990 6c3d 377e 603d
00000270: cbfa 583d 1eae 273d fb51 643d 9aad ba3b
00000280: 46d1 64bc fabb f13c fbe6 193b 0522 8abd
00000290: b28b 103c f9cd a9bd 20b3 e13c e124 5d3d
000002a0: 6460 893d 58d2 a93c bd56 c33c 41ac 9f3d
000002b0: 65d5 fbbc 1fc5 9b3c 17e4 173d bb08 8c3c
000002c0: 2341 b73d 1a44 be3c c0ab a8bb 0fa5 76bd
000002d0: ad25 2e3c 54db 2dba 31a7 9dbd 09d2 063a
000002e0: de7f f5bc f55d 563c 2883 a9b8 99dd 273d
000002f0: d84e 893d 012a 15bd 1b51 e83c 3600 0dbd
00000300: b3e8 f2bd 75ec 3abc d97e 093d 5355 e2bc
00000310: 8bb2 623d cf7f 98bd 3460 1dbd 96fd adbd
00000320: 00d5 ad3b 51b7 11bc 667f 8bbd d284 5ebd
00000330: 55f5 3b3b 7f7c 333d b3a6 9dbd 88bb cbbc
00000340: a28b 353d 1e79 a7bc d75e a2bc 2c18 64bd
00000350: bfc3 a93d bbd6 8fbb 6672 8a3d b8cc 9d3c
00000360: 1d3f 8f3d 0791 65bc 7352 4a3a 0805 63bd
00000370: 5f4e 2dbd 5137 1c3c 95a6 eebd 19bd bdbd
00000380: 596d 183d 1bc2 a03d b9a1 05bd b4be 8c3d
00000390: 7602 fb3b 38b5 44bc ad76 9fbc 6d04 253c
000003a0: 3019 4fbd 6fd4 f53c ed4e 723d 57a0 363c
000003b0: c820 703d 3506 5c3d 425b 2d3d 8b81 c4bc
000003c0: 562d abbc ca24 c43c 2e25 3dbd 1742 983d
000003d0: e82f 1e3d 59e9 15bd 2c87 aa3d d0e3 e33c
000003e0: 358e 733d 80d8 e23c 0ccb 253d 7220 563d
000003f0: 492f b83c 6d2b 953c e485 8c3d ded2 f3bd

2.bias f4 [256]
0.04625629 0.020763414 0.040257704 -0.022957055 0.022750234 0.0001654649 0.041662365 -0.03222445
-0.031054342 0.051751804 0.05583689 -0.061049923 0.031240532 0.06856814 0.037555013 -0.010702594
-0.009522052 0.049931113 -0.039849572 0.036838505 0.052307278 -0.017154815 -0.03688914 0.022068597
0.026992032 0.027408095 -0.05638052 0.0522616 0.028558126 -0.041771524 0.051891003 0.0081009995
0.021949539 0.02517542 -0.017399339 0.033483792 -0.06486822 -0.016374419 -0.01695921 0.040317275
0.0025800646 0.04532713 0.03022628 -0.04772392 0.06285729 0.02321744 -0.02325989 0.0013334117
-0.012006592 0.014532339 -0.045550134 0.022252498 0.014064924 0.021750296 0.05708723 0.011393485
0.001969699 -0.05033353 -0.004685303 0.011292204 0.017484352 0.015077714 -0.018121785 -0.010117371
-0.02596568 -0.020919036 -0.03966343 0.029171726 -0.07452584 0.04633094 0.004755042 -0.018348644
0.054408617 0.050701432 0.053657282 0.00055571843 0.020363426 -0.01763714 -0.048326053 -0.0042430474
-0.0395772 -0.06460706 -0.026789907 -0.0024408898 0.015444965 0.007900555 -0.019499803 0.0008741024
0.0115466155 0.047707886 0.023277197 -0.008880837 -0.027050782 0.04389361 0.05084646 0.0035351627
-0.04805059 -0.059483346 0.029422084 -0.03520096 -0.027283082 0.032176334 0.026168888 0.05402521
0.020580763 0.002143953 0.048845157 0.033340257 0.036466956 0.04599787 -0.063172214 0.025374917
-0.00027520588 0.050979782 0.0016555798 -0.032776494 0.06832158 -0.029810883 -0.017032353 -0.035943218
0.02779258 0.05795855 0.05069521 -0.0066446704 0.014460723 -0.02324293 0.036011487 -0.0022683367
-0.051464908 -0.016107626 -0.0231355 -0.03490026 -0.059257925 -0.029509015 0.04166203 -0.021653648
0.0373839 0.025159698 0.059220392 -0.053214706 0.025978928 0.006393496 0.04353636 -0.015319396
0.028898401 -0.058143027 -0.067195676 -0.07319951 -0.047541972 0.055715557 -0.03601574 -0.029902332
0.029551508 0.057679605 0.078936286 0.008981123 -0.019636646 -0.028739903 -0.021033317 -0.04775335
-0.048863877 -0.007111417 0.04826207 -0.0243349 -0.013747492 -0.039749205 0.020503677 -0.064108826
-0.035037104 -0.018127957 -0.0011414536 -0.020012952 -0.031237563 -0.048504744 0.015407045 -0.057453707
-0.0076784207 -0.06390746 0.01214908 0.09210076 -0.04123915 -0.033248007 -0.052380957 -0.002446821
-0.022657162 -0.005333519 -0.04723509 -0.035000265 -0.06472344 -0.031942822 -0.04018258 0.0041953158
-0.0342397 -0.0043075476 0.0028345364 -0.01443909 -0.02185424 0.017364863 -0.06416068 0.044784293
-0.0027580312 -0.029179936 -0.00935263 0.051152695 0.032294553 -0.0712728 0.050399616 -0.03977354
-0.049502444 -0.01022286 0.059174094 0.02035962 -0.03935318 -0.01591725 0.0042367154 -0.00026049363
-0.027613193 0.06440786 -0.066828266 0.030467818 0.002130721 0.018109499 -0.019014198 -0.06334217
0.0062274076 -0.045129333 -0.039916676 -0.0019704718 -0.030071342 0.06073312 0.0025968351 -0.028992107
-0.06697774 -0.031339493 -0.053282067 0.046519015 0.06003671 -0.05682341 -0.037288852 -0.043162353
-0.011784311 -0.06291283 -0.021235583 0.057701424 -0.00800143 -0.020322697 -0.048268363 0.01600191
-0.056901466 -0.039796848 -0.022637855 0.0043213046 0.02310726 0.056877617 -0.07248785 0.07859069
00000000: 3c77 3d3d 0918 aa3c 43e5 243d 6f10 bcbc
00000010: b35e ba3c a580 2d39 28a6 2a3d c9fd 03bd
00000020: ad65 febc b3f9 533d 39b5 643d 7c0f 7abd
00000030: 25ec ff3c 746d 8c3d 49d3 193d ef59 2fbc
00000040: 6102 1cbc 9184 4c3d 4e39 23bd f9e3 163d
00000050: 2840 563d 4188 8cbc 1119 17bd 34c9 b43c
00000060: 651e dd3c f186 e03c 43ef 66bd 4210 563d
00000070: bbf2 e93c 9e18 2bbd a98b 543d 0eba 043c
00000080: 85cf b33c af3c ce3c 0f89 8ebc 4d26 093d
00000090: a1d9 84bd a523 86bc 0bee 8abc ba23 253d
000000a0: 4d16 293b f1a8 393d 1b9d f73c 287a 43bd
000000b0: 53bb 803d 8032 be3c 868b bebc dfc5 ae3a
000000c0: 4cb7 44bc 0c19 6e3c c792 3abd df4a b63c
000000d0: 9170 663c ad2d b23c 4dd4 693d bdab 3a3c
000000e0: 1116 013b 882a 4ebd 2c87 99bb f002 393c
000000f0: 583b 8f3c 8408 773c 2374 94bc 54c3 25bc
00000100: fab5 d4bc 665e abbc 1f76 22bd 8bf9 ee3c
00000110: 01a1 98bd 83c5 3d3d 2fd0 9b3b e54f 96bc
00000120: 92db 5e3d 4eac 4f3d bdc7 5b3d a2ad 113a
00000130: 33d1 a63c c37b 90bc 8af1 45bd 4309 8bbb
00000140: b41b 22bd b550 84bd 8276 dbbc 56f7 1fbb
00000150: e10c 7d3c 5471 013c 0dbe 9fbc 0524 653a
00000160: 042e 3d3c 5869 433d d2af be3c ee80 11bc
00000170: 9a99 ddbc c9c9 333d 6144 503d 30ae 673b
00000180: b2d0 44bd cfa4 73bd 9506 f13c e22e 10bd
00000190: c580 dfbc 55cb 033d 2360 d63c 8a49 5d3d
000001a0: fd98 a83c 9081 0c3b dc11 483d cb8f 083d
000001b0: 605e 153d 4368 3c3d 6f60 81bd 0fdf cf3c
000001c0: 8249 90b9 2dd0 503d 0a00 d93a a540 06bd
000001d0: 2fec 8b3d f435 f4bc 6f87 8bbc 3239 13bd
000001e0: 44ad e33c f265 6d3d c8a5 4f3d 89bb d9bb
000001f0: abec 6c3c f567 bebc c880 133d 60a8 14bb
00000200: decc 52bd 24f4 83bc a986 bdbc 93f3 0ebd
00000210: 70b8 72bd e4bc f1bc cea5 2a3d fe62 b1bc
00000220: dc1f 193d b61b ce3c 1591 723d aaf7 59bd
00000230: c3d1 d43c 8880 d13b 2f53 323d 34fe 7abc
00000240: 57bc ec3c 6227 6ebd e39d 89bd a0e9 95bd
00000250: 5fbb 42bd ff35 643d 3e85 13bd bcf5 f4bc
00000260: 0116 f23c 7341 6c3d 59a9 a13d 8f25 133c
00000270: 08dd a0bc f26f ebbc 104e acbc 0499 43bd
00000280: 7d25 48bd e406 e9bb 73ae 453d fc59 c7bc
00000290: 293d 61bc 10d0 22bd 54f7 a73c 7d4b 83bd
000002a0: 1183 0fbd 1581 94bc d49c 95ba 34f2 a3bc
000002b0: ebe5 ffbc e9ac 46bd d56d 7c3c 9454 6bbd
000002c0: 439b fbbb eae1 82bd ef0c 473c 539f bc3d
000002d0: 62ea 28bd 102f 08bd 6a8d 56bd d85a 20bb
000002e0: 839b b9bc cdc4 aebb 9579 41bd 705c 0fbd
000002f0: b98d 84bd 7ad6 02bd 7d96 24bd dc78 893b
00000300: ed3e 0cbd 5426 8dbb a1c3 393b ef91 6cbc
00000310: aa07 b3bc c240 8e3c ad66 83bd bc6f 373d
00000320: 16c0 34bb c30a efbc c63b 19bc 7d85 513d
00000330: 4b47 043d 79f7 91bd d46f 4e3d 94e9 22bd
00000340: 13c3 4abd c87d 27bc 8960 723d 38c9 a63c
00000350: cd30 21bd e564 82bc 25d4 8a3b dd92 88b9
00000360: 1035 e2bc 45e8 833d 42dd 88bd a597 f93c
00000370: 91a3 0b3b 5f5a 943c aac3 9bbc 8ab9 81bd
00000380: 480f cc3b 89d9 38bd ab7f 23bd 0823 01bb
00000390: 2d58 f6bc 4bc3 783d aa2f 2a3b db80 edbc
000003a0: a02b 89bd d75d 00bd 4c3e 5abd b98a 3e3d
000003b0: 0ee9 753d aabf 68bd 32bc 18bd 02cb 30bd
000003c0: fc12 41bc 71d8 80bd 3ff6 adbc 5458 6c3d
000003d0: 6e18 03bc c97b a6bc 0cb5 45bd 7016 833c
000003e0: 8311 69bd 0502 23bd 0673 b9bc bb99 8d3b
000003f0: 704b bd3c 81f8 683d 8374 94bd 28f4 a03d

4.weight f4 [128, 256]
-0.03350577 -0.0013860816 -0.04993764 -0.033244886 0.024146656 0.050870057 0.027504422 0.009791225
-0.037105385 -0.0154946465 0.009664753 0.05338211 0.022186143 0.014619491 0.01959842 -0.012450615
-0.04439972 -0.05022604 0.043144632 -0.031593543 0.055986654 0.006693597 -0.003986342 -0.04699915
-0.020025492 0.03221769 -3.0770898e-05 0.007950594 0.04315145 0.043037057 -0.008119935 0.019874522
-0.041864138 -0.02347552 0.03274409 -0.038611848 -0.019440038 -0.009296775 -0.037156034 0.001953043
0.056341026 -0.041368093 -0.036229353 -0.01678393 -0.053574722 0.032037687 -0.0361682 -0.024684807
0.034747746 0.038696185 -0.04724962 0.04103595 -0.031913612 0.01756945 0.044045996 0.023050752
-0.064311355 0.029800968 -0.010432436 0.011188145 -0.0061891647 0.015406019 -0.030787822 -0.035615206
-0.05707387 -0.001050688 -0.03863272 -0.046774223 0.028684083 0.055439927 -0.036928166 0.03307385
-0.045545302 -0.02073314 0.0297888 0.0046562245 -0.008868027 -0.003807908 0.061022304 -0.029466778
-0.015749613 0.055534884 0.040854443 0.058342546 0.025737297 -0.03221765 0.010229035 0.039678596
0.012697567 -0.012290651 0.024258267 0.022334307 -0.009558896 0.04917375 0.016433738 -3.198199e-05
-0.006658346 -0.05186015 -0.045684546 -0.020766394 0.0047177896 -0.0042486 -0.043287423 0.047508515
0.04319082 0.052412823 -0.016919134 -0.05631204 0.0029853215 -0.009669344 0.012994647 0.04061435
0.018749107 -0.0526504 0.023256583 0.050849978 0.051427804 -0.034385547 0.007853259 -0.004195617
-0.048842818 0.04351804 -0.013716608 0.053502593 0.01741632 -0.024552865 0.039384387 0.03858934
0.013278365 0.008443683 -0.048466306 -0.046791255 -0.029114204 -0.010421947 -0.005816377 -0.018486306
-0.017374584 0.029004853 -0.007901315 0.020930637 -0.046611056 -0.05943078 0.040156562 -0.03245193
-0.021136591 -0.032944966 -0.015361704 0.030280307 -0.039058506 -0.06213173 0.058891416 0.012375653
-0.05883444 0.03146352 -0.038208116 0.0048802113 0.03819878 -0.03598056 -0.045759384 -0.018162403
0.049390092 -0.022049002 0.0066981064 -0.0021635029 -0.042952236 0.038017105 -0.03563459 -0.048563976
-0.01288118 0.015414097 0.052434266 -0.043185234 -0.01408425 -0.022966221 -0.03947702 -0.06436461
-0.04924899 0.05363358 0.052412562 -0.052771788 -0.059750814 0.027242117 -0.054007478 -0.0012921605
0.05665613 0.02004961 -0.04271849 -0.019076772 -0.008086033 0.040472005 -0.05508387 0.005502422
0.009571049 -0.039696116 -0.06319225 0.00088646 -0.039656594 0.025794307 0.05919265 -0.033067748
0.03765999 0.030203614 0.053782612 -0.057157166 -0.025963053 0.025538027 -0.06107722 -0.0056986585
0.006408227 -0.018960334 -0.019947484 0.03325824 -0.027885946 -0.005094784 0.033001453 0.010980511
-0.0034222056 0.03875223 0.014305615 -0.0050943666 0.00750612 0.04666668 -0.0319641 0.0248133
-0.036455374 -0.05577545 -0.0069717774 0.03459846 -0.043811567 0.01692887 0.020168124 0.023201237
0.02822373 0.030628195 0.030195907 0.044721417 -0.027499506 0.0470329 0.041990265 -0.052155532
0.05383036 0.040478025 0.034191795 0.056120396 0.019258482 -0.013566963 -0.041093335 -0.03724843
-0.06365355 -0.012802423 -0.01513251 0.034683697 0.0036576106 -0.05597466 -0.05671905 -0.049701072
00000000: 593d 09bd 2ead b5ba 698b 4cbd ca2b 08bd
00000010: 35cf c53c 1f5d 503d f450 e13c 606b 203c
00000020: d1fb 17bd 42dd 7dbc ea58 1e3c 33a7 5a3d
00000030: b7bf b53c 9786 6f3c de8c a03c aafd 4bbc
00000040: 7bdc 35bd d2b9 4dbd 6db8 303d 3b68 01bd
00000050: 4352 653d f655 db3b dc9f 82bb 2e82 40bd
00000060: 800c a4bc b2f6 033d 0010 01b8 3543 023c
00000070: 93bf 303d a047 303d 7a09 05bc e5cf a23c
00000080: bb79 2bbd bc4f c0bc ab1e 063d 7527 1ebd
00000090: b740 9fbc 8051 18bc ed30 18bd 40fd ff3a
000000a0: d9c5 663d 9771 29bd 3b65 14bd 747e 89bc
000000b0: 2b71 5bbd f339 033d 1b25 14bd cb37 cabc
000000c0: a753 0e3d e47f 1e3d d188 41bd 5015 283d
000000d0: d9b7 02bd cfed 8f3c 9369 343d eed4 bc3c
000000e0: acb5 83bd 2921 f43c cfec 2abc 7b4e 373c
000000f0: 7ace cabb 8769 7c3c be36 fcbc 40e1 11bd
00000100: 4ac6 69bd 3db7 89ba 583d 1ebd 5496 3fbd
00000110: e2fa ea3c fa14 633d fd41 17bd 7278 073d
00000120: b68d 3abd 8cd8 a9bc a407 f43c 3e93 983b
00000130: 334b 11bc 188e 79bb 86f2 793d 5064 f1bc
00000140: 5505 81bc 8c78 633d fd56 273d 98f8 6e3d
00000150: 06d7 d23c a8f6 03bd af97 273c 0686 223d
00000160: 7509 503c ba5e 49bc 46b9 c63c 70f6 b63c
00000170: ea9c 1cbc 6a6a 493d 0ca0 863c 6624 06b8
00000180: 412e dabb 4f6b 54bd b81f 3bbd 491e aabc
00000190: b097 9a3b d737 8bbb 274e 31bd 4a98 423d
000001a0: dbe8 303d d4ae 563d ff99 8abc 74a7 66bd
000001b0: 62a5 433b 2b6c 1ebc 80e7 543c 3c5b 263d
000001c0: ba97 993c f2a7 57bd 9784 be3c 1148 503d
000001d0: f6a5 523d dcd7 0cbd f5aa 003c 637b 89bb
000001e0: 680f 48bd f93f 323d a0bb 60bc 8925 5b3d
000001f0: acac 8e3c 1723 c9bc 8651 213d db0f 1e3d
00000200: 808d 593c 6057 0a3c 9b84 46bd 30a8 3fbd
00000210: e980 eebc d0c0 2abc 4e97 bebb 9870 97bc
00000220: 2555 8ebc 969b ed3c 8474 01bc ba76 ab3c
00000230: 3ceb 3ebd b16d 73bd 357b 243d 51ec 04bd
00000240: a526 adbc 4df1 06bd a8af 7bbc 680e f83c
00000250: d0fb 1fbd d77d 7ebd 2038 713d 40c3 4a3c
00000260: 62fc 70bd e4df 003d 1d80 1cbd 2eea 9f3b
00000270: 5376 1c3d 5a60 13bd 316e 3bbd 52c9 94bc
00000280: 444d 4a3d 1ca0 b4bc ca7b db3b 8ec9 0dbb
00000290: afee 2fbd d3b7 1b3d 93f5 11bd 05eb 46bd
000002a0: 960b 53bc 698b 7c3c 50c5 563d 00e3 30bd
000002b0: a0c1 66bc a823 bcbc a8b2 21bd 98d1 83bd
000002c0: 4fb9 49bd e3ae 5b3d 8eae 563d 3b27 58bd
000002d0: 45bd 74bd dc2a df3c f236 5dbd b65d a9ba
000002e0: 4210 683d 143f a43c 95f9 2ebd e446 9cbc
000002f0: 487b 04bc f9c5 253d a09f 61bd a94d b43b
00000300: e4cf 1c3c 6598 22bd f06a 81bd 5361 683a
00000310: f46e 22bd 954e d33c fe73 723d 0c72 07bd
00000320: 5d41 1a3d 926d f73c 284b 5c3d a21d 6abd
00000330: 78b0 d4bc 2035 d13c 1b2c 7abd d0bb babb
00000340: 1bfc d13b b452 9bbc e868 a3bc cb39 083d
00000350: 1171 e4bc 25f2 a6bb 882c 073d 9ae7 333c
00000360: 1547 60bb a9ba 1e3d 1962 6a3c a5ee a6bb
00000370: e6f5 f53b 9025 3f3d caec 02bd 4345 cb3c
00000380: 3b52 15bd cc74 64bd 8273 e4bb 1db7 0d3d
00000390: c273 33bd 6aae 8a3c 9f37 a53c 8510 be3c
000003a0: 7435 e73c fbe7 fa3c 685d f73c ce2d 373d
000003b0: a546 e1bc 92a5 403d fcfd 2b3d 0aa1 55bd
000003c0: 397d 5c3d 49cc 253d b20c 0c3d 80de 653d
000003d0: f7c3 9d3c f847 5ebc 7c51 28bd cf91 18bd
000003e0: cb5c 82bd 41c1 51bc 59ee 77bc 7e10 0e3d
000003f0: 86b4 6f3b af45 65bd 3c52 68bd 5a93 4bbd

4.bias f4 [128]
-0.019932216 -0.007960691 0.06592172 0.03784774 0.08239164 -0.00980028 -0.020747349 -0.003120403
0.043819845 -0.073222734 -0.04861692 0.048861917 0.032078914 0.0061496557 -0.049908496 -0.04436465
0.037301872 -0.061350383 -0.05517888 0.009474443 0.071410745 -0.030431945 0.018140122 -0.014697429
0.054768216 -0.05329417 -0.056635283 -0.057625774 0.03412888 -0.05340814 0.02935165 -0.02513392
-0.021217354 0.014841509 0.025045453 0.044328958 0.051124785 0.05749335 -0.010468548 0.03388735
0.017687641 -0.03334753 0.05363858 -0.040476196 -0.06213529 -0.041095257 0.046537187 0.02873362
-0.010791306 -0.052717425 -0.055478312 0.002690596 -0.009407956 -0.043088004 -0.053469628 0.012980195
0.043042168 -0.03386995 0.009999892 -0.04223864 -0.0454734 0.00039686298 0.03832198 -0.04584284
-0.020160945 0.05478609 0.0099476455 -0.018451042 0.013591743 0.05345551 0.034650978 0.05550648
-0.05351427 0.0037011316 0.04150508 0.05816049 0.0010551283 0.052114338 -0.028798917 -0.017328639
-0.039293934 -0.018950593 0.051672447 0.040880915 -0.03898046 0.012060488 0.030683065 0.013819449
0.023771884 0.035305284 -0.00790507 -0.0288938 0.017770128 -0.045761254 0.04786175 -0.00058604416
0.039988816 0.072988115 -0.04983965 0.05413625 0.02851014 0.028492695 -0.04715088 -0.03780436
0.044815343 0.03803154 0.042197343 0.015921315 -0.032518744 0.015296679 -0.03907061 -0.063883536
0.053296473 0.02822997 -0.017205536 -0.004434072 0.05385385 -0.029597024 0.037521932 -0.060322046
0.0024146198 -0.03971088 -0.005315777 0.03203667 0.0013387984 0.0020003347 0.060121395 -0.002914552
00000000: e348 a3bc 8f6d 02bc f701 873d 3b06 1b3d
00000010: f3bc a83d 5b91 20bc 58f6 a9bc ad7f 4cbb
00000020: 707c 333d cdf5 95bd 8922 47bd 6f23 483d
00000030: 2e65 033d 0d83 c93b da6c 4cbd b5b7 35bd
00000040: d9c9 183d 8a4a 7bbd 4003 62bd b23a 1b3c
00000050: cc3f 923d 6a4c f9bc 989a 943c 7ccd 70bc
00000060: a354 603d fd4a 5abd 66fa 67bd 0109 6cbd
00000070: b9ca 0b3d 7ec2 5abd df72 f03c a7e5 cdbc
00000080: 04d0 adbc cd29 733c 1f2c cd3c 4892 353d
00000090: 3968 513d 267e 6b3d 4684 2bbc 76cd 0a3d
000000a0: ace5 903c 6b97 08bd 21b4 5b3d 5eca 25bd
000000b0: 9381 7ebd 8053 28bd c79d 3e3d c562 eb3c
000000c0: 05ce 30bc 3aee 57bd 3a3d 63bd b654 303b
000000d0: d423 1abc 0c7d 30bd f802 5bbd e2aa 543c
000000e0: fc4c 303d 37bb 0abd 96d6 233c 6d02 2dbd
000000f0: 5142 3abd 0c12 d039 82f7 1c3d b4c5 3bbd
00000100: 9128 a5bc 6167 603d 73fb 223c a426 97bc
00000110: e7af 5e3c 2af4 5a3d 2fee 0d3d c35a 633d
00000120: c731 5bbd af8e 723b 3b01 2a3d b239 6e3d
00000130: 3b4c 8a3a d875 553d b5eb ebbc caf4 8dbc
00000140: adf2 20bd 463e 9bbc 7da6 533d bf72 273d
00000150: faa9 1fbd 5a99 453c 0d5b fb3c f86a 623c
00000160: 41bd c23c 469c 103d 4484 01bc b1b2 ecbc
00000170: a992 913c 2770 3bbd af0a 443d c2a0 19ba
00000180: 50cb 233d cb7a 953d a924 4cbd f9bd 5d3d
00000190: 198e e93c 8369 e93c 4821 41bd bfd8 1abd
000001a0: 4b90 373d f6c6 1b3d 1fd7 2c3d 6b6d 823c
000001b0: 6032 05bd ec9e 7a3c 8108 20bd 5fd5 82bd
000001c0: 674d 5a3d 8a42 e73c a0f2 8cbc b14b 91bb
000001d0: db95 5c3d 7575 f2bc 99b0 193d 4014 77bd
000001e0: 993e 1e3b e0a7 22bd f82f aebb e238 033d
000001f0: 9f7a af3a 0c18 033b da41 763d 1202 3fbb

6.weight f4 [128, 128]
-0.03321161 -0.0677149 -0.04471337 0.019654272 -0.0124230385 0.017859489 0.116167516 0.096065454
-0.00094286876 0.035914138 -0.02313548 -0.068179116 0.036089327 -0.05717159 -0.040846955 -0.05562579
0.085448794 -0.03170922 0.041367598 0.05253232 -0.013967609 0.053721316 -0.000891596 -0.0354124
0.06447732 -0.01751735 0.14396301 -0.04479941 -0.0008152424 -0.045924347 0.05088431 -0.0083196815
-0.03866097 -0.06875266 -0.046435278 0.023532514 0.06484819 -0.041721545 -0.031199943 0.0017945839
0.07719465 0.086554445 -0.048757814 0.100966096 0.09175783 0.02720197 0.051068563 -0.026936721
-0.05147468 -0.045931526 0.049735636 -0.009416434 0.030007884 -0.10058267 0.025133297 -0.036125183
0.0058217687 -0.0059652105 -0.11341508 0.03579399 -0.082204595 0.09505693 -0.061542373 -0.06460571
0.08467466 -0.08671781 -0.05805815 0.0031629612 -0.02309434 0.06544508 0.07619771 0.07058236
-0.054573663 -0.07861623 0.08527937 -0.08803425 -0.055786733 -0.027389381 0.103370026 -0.0028251018
0.033578575 -0.01093702 0.024362845 -0.011634845 -0.035272747 -0.0008290381 0.021027556 0.046373185
-0.071505815 0.0037739298 0.100492105 -0.052220568 -0.053828277 0.021839203 0.085798204 -0.106530435
-0.053975444 0.056639414 0.057971198 0.008532207 0.09234451 -0.07813329 0.008392213 -0.01107843
-0.0705345 0.06625207 0.06475686 -0.014886917 -0.06590966 -0.052149735 0.017346129 0.04829256
-0.099707685 -0.027849205 -0.060886063 0.016065124 0.07198557 -0.06339727 0.029768836 0.011116497
0.07444333 -0.051400144 -0.015411414 -0.107377805 -0.007463619 0.07402674 -0.045026388 0.05214358
0.07107534 -0.045979824 0.14326352 0.049502965 -0.05346497 0.025543414 0.04940117 0.02816957
-0.037757017 0.06860996 -0.0513917 0.00024661148 -0.037792087 0.080670066 0.079216324 -0.015497796
-0.014001964 0.0047322884 0.071810685 0.053680416 0.0015306597 -0.013488822 -0.07303847 0.07554929
-0.0044091395 -0.025790414 -0.016876634 -0.044090975 0.0042982 0.025852399 -0.06068857 0.032700673
0.06859327 0.030251615 -0.05396669 0.0472241 0.08439871 -0.009468256 0.054663986 -0.07540394
0.123317756 -0.044914074 0.007096719 -0.05863533 0.075588465 0.054227766 -0.047003925 -0.047516912
0.05294862 -0.07952543 -0.11155677 0.026344733 0.029254338 0.07960054 -0.0294899 0.05486928
-0.07532986 0.059266232 -0.026068524 0.03284552 -0.025105411 -0.07799662 -0.07752043 -0.048609626
-0.045569424 -0.037474867 -0.058074195 -0.04888368 -0.078809544 0.02260261 0.07401183 0.07849381
-0.05325579 0.052389346 -0.0015640759 0.09685226 0.081419714 0.02843967 -0.102462254 -0.07753858
0.035818838 -0.064429544 -0.08708669 -0.08110226 -0.048144467 -0.06403754 -0.053899024 -0.058163695
0.013617505 -0.056269635 0.06276544 -0.01676784 -0.04826561 0.035383724 0.05100166 -0.06373271
-0.0015279502 -0.015391034 -0.06490983 0.003041415 0.09093415 0.08673286 0.0029211794 0.11734121
0.049672797 -0.079521045 0.06874995 -0.09220461 -0.038862754 0.093390554 0.033350278 -0.06430276
0.014265584 -0.029039726 -0.043441013 0.025268257 0.038288474 0.084697 0.10359493 -0.041835412
0.050269973 0.0038727152 -0.05242179 0.071446195 0.011991768 -0.08503987 0.040524073 0.04983615
00000000: e608 08bd 1cae 8abd 5e25 37bd ff01 a13c
00000010: 008a 4bbc 104e 923c 3ce9 ed3d f7bd c43d
00000020: da2a 77ba b41a 133d 9e86 bdbc 7ea1 8bbd
00000030: 67d2 133d c22c 6abd 234f 27bd ded7 63bd
00000040: c7ff ae3d 87e1 01bd 1271 293d 212c 573d
00000050: 66d8 64bc e20a 5c3d ffb9 69ba 980c 11bd
00000060: af0c 843d 8c80 8fbc 0a6b 133e 967f 37bd
00000070: feb5 55ba 2b1b 3cbd 116c 503d 464f 08bc
00000080: f75a 1ebd 32ce 8cbd eb32 3ebd 42c7 c03c
00000090: 21cf 843d 36e4 2abd 0697 ffbc 3e38 eb3a
000000a0: 3b18 9e3d 7543 b13d 46b6 47bd 50c7 ce3d
000000b0: 87eb bb3d aad6 de3c 452d 513d 66aa dcbc
000000c0: 1dd7 52bd b222 3cbd 98b7 4b3d 6347 1abc
000000d0: 18d3 f53c 49fe cdbd 58e4 cd3c 00f8 13bd
000000e0: 89c4 be3b d077 c3bb 2a46 e8bd b89c 123d
000000f0: e25a a8bd 35ad c23d db13 7cbd 0050 84bd
00000100: e869 ad3d 1b99 b1bd 62ce 6dbd af49 4f3b
00000110: 5730 bdbc 1208 863d 8c0d 9c3d 7c8d 903d
00000120: a288 5fbd 8c01 a1bd f3a6 ae3d 4d4b b4bd
00000130: a180 64bd b25f e0bc aab3 d33d 5825 39bb
00000140: b089 093d 3031 33bc 9794 c73c 14a0 3ebc
00000150: 287a 10bd ce53 59ba fb41 ac3c cff1 3d3d
00000160: a471 92bd 0954 773b cece cd3d 3ce5 55bd
00000170: 0a7b 5cbd 21e8 b23c f8b6 af3d a12c dabd
00000180: 5b15 5dbd bbfe 673d 3573 6d3d acca 0b3c
00000190: 1e1f bd3d 5904 a0bd 7e7f 093c 4e82 35bc
000001a0: 6474 90bd 2aaf 873d 3f9f 843d 41e8 73bc
000001b0: a5fb 86bd f69a 55bd 7819 8e3c 6bce 453d
000001c0: 8b33 ccbd 0424 e4bc aa63 79bd 029b 833c
000001d0: 2c6d 933d 6ed6 81bd c6dd f33c f821 363c
000001e0: bf75 983d f588 52bd 2880 7cbc e5e8 dbbd
000001f0: 6091 f4bb 559b 973d 976d 38bd 8294 553d
00000200: f38f 913d 5755 3cbd acb3 123e 9fc3 4a3d
00000210: 16fe 5abd 6c40 d13c e258 4a3d dfc3 e63c
00000220: 1aa7 1abd 6183 8c3d 1a80 52bd a24b 8139
00000230: e0cb 1abd 5936 a53d 2b3c a23d 78ea 7dbc
00000240: 7e68 65bc 5011 9b3b 7b11 933d ffdf 5b3d
00000250: 6ba0 c83a 3800 5dbc 3195 95bd 96b9 9a3d
00000260: 8b7a 90bb 6b46 d3bc de40 8abc bd98 34bd
00000270: ead7 8c3b 69c8 d33c 9494 78bd 24f1 053d
00000280: a17a 8c3d 3cd2 f73c 2d0c 5dbd 0f6e 413d
00000290: 3bd9 ac3d be20 1bbc 58e7 5f3d 626d 9abd
000002a0: 058e fc3d d2f7 37bd 988b e83b 9a2b 70bd
000002b0: 20ce 9a3d ef1d 5e3d 3087 40bd 18a1 42bd
000002c0: a7e0 583d 3bde a2bd e077 e4bd e9d0 d73c
000002d0: cba6 ef3c 9c05 a33d ce94 f1bc 9cbe 603d
000002e0: 8b46 9abd 26c1 723d a88d d5bc 0689 063d
000002f0: dda9 cdbc b1bc 9fbd 08c3 9ebd e31a 47bd
00000300: 01a7 3abd 3f7f 19bd 35df 6dbd 413a 48bd
00000310: e666 a1bd 1c29 b93c 8493 973d 5dc1 a03d
00000320: be22 5abd 3696 563d ae01 cdba 7a5a c63d
00000330: 61bf a63d 50fa e83c bbd7 d1bd 8ccc 9ebd
00000340: c6b6 123d a3f3 83bd 825a b2bd f118 a6bd
00000350: 2233 45bd 1d26 83bd 39c5 5cbd 0e3d 6ebd
00000360: f51b 5f3c fd7a 66bd 2b8b 803d b65c 89bc
00000370: 29b2 45bd 86ee 103d 1ee7 503d 4c86 82bd
00000380: 8045 c8ba ad2a 7cbc 72ef 84bd 7a52 473b
00000390: af3b ba3d ffa0 b13d 4271 3f3b 9750 f03d
000003a0: b475 4b3d eedb a2bd c6cc 8c3d c5d5 bcbd
000003b0: 8d2e 1fbd 8c43 bf3d 4d9a 083d 2ab1 83bd
000003c0: 32ba 693c b8e4 edbc 34ef 31bd 60ff ce3c
000003d0: 60d4 1c3d 9f75 ad3d 9429 d43d 9c5b 2bbd
000003e0: e3e7 4d3d 61cd 7d3b 3bb8 56bd 6252 923d
000003f0: 1f79 443c 6229 aebd 92fc 253d fe20 4c3d

6.bias f4 [128]
-0.020998757 -0.010233623 -0.020886526 0.061199233 -0.099987075 -0.017002888 0.0054005617 0.023855017
-0.0054116566 -0.024812052 -0.045021236 0.07895441 0.03169184 0.027095312 -0.07085457 0.09777965
0.05378476 -0.061001495 0.041449007 -0.018893907 0.02723038 -0.07439523 -0.08339308 0.07637054
-0.07328652 -0.04607014 -0.042091034 -0.06565406 -0.028450495 0.09134793 0.05085351 -0.047800325
0.07318668 -0.03757936 0.034568675 0.06384588 0.050699044 0.07362301 -0.06233538 -0.05839954
-0.07967779 0.056932345 0.019250296 -0.0314746 0.059784785 -0.008592728 0.04240138 -0.045442868
-0.013783547 0.0036537454 -0.08494052 -0.032518573 -0.06626305 0.06108345 -0.08705825 0.08277905
0.07752806 0.025645377 0.020939374 0.023296786 0.047078267 -0.09328872 0.028898988 0.08163153
-0.070217445 0.007417564 0.0322023 0.015540933 -0.035721686 0.058589004 -0.026544552 -0.024454065
0.045971986 -0.013385896 -0.056298077 -0.057951435 -0.031471442 0.025944857 -0.053325996 -0.071121216
0.015427592 0.0060604243 0.050651755 -0.024264146 0.0023695542 0.02948001 0.063276805 -0.064140774
0.078793384 0.06937946 0.054108426 0.09147064 -0.08609761 -0.070241526 -0.0966432 0.057835244
0.03298927 -0.030531675 -0.08098207 -0.07797544 0.040910453 0.04931059 -0.074704915 -0.03827893
-0.09078318 0.016554376 0.072551645 -0.09049315 -0.09662312 0.05926113 -0.04761852 -0.03574721
0.052743193 -0.07395487 0.04440536 0.011662631 -0.008654226 0.054208785 -0.076616526 -0.058960054
0.056631915 -0.02959374 -0.07209704 -0.07674558 -0.06955136 0.012552442 0.019002976 -0.07382349
00000000: 9605 acbc edaa 27bc 381a abbc 0cac 7a3d
00000010: 06c6 ccbd a449 8bbc 32f7 b03b 996b c33c
00000020: 4454 b1bb a542 cbbc 3068 38bd dab2 a13d
00000030: 4ecf 013d fdf6 dd3c 331c 91bd b240 c83d
00000040: 694d 5c3d b4dc 79bd 6fc6 293d 65c7 9abc
00000050: 3f12 df3c 875c 98bd fec9 aabd 2868 9c3d
00000060: 3e17 96bd 0bb4 3cbd a667 2cbd a375 86bd
00000070: 0311 e9bc a014 bb3d c54b 503d 46ca 43bd
00000080: e6e2 953d d1ec 19bd e297 0d3d a1c1 823d
00000090: cda9 4f3d a9c7 963d 6253 7fbd 5b34 6fbd
000000a0: 1c2e a3bd e431 693d ccb2 9d3c 83eb 00bd
000000b0: e4e0 743d 83c8 0cbc 12ad 2d3d 4d22 3abd
000000c0: 63d4 61bc ad73 6f3b 4cf5 adbd 3232 05bd
000000d0: ecb4 87bd a432 7a3d 994b b2bd 1088 a93d
000000e0: 08c7 9e3d 4116 d23c 0d89 ab3c e7d8 be3c
000000f0: 24d5 403d 280e bfbd 92bd ec3c 6e2e a73d
00000100: 2ace 8fbd 090f f33b 8fe6 033d 669f 7e3c
00000110: e750 12bd 06fb 6f3d f673 d9bc e453 c8bc
00000120: 1f4d 3c3d 8450 5bbc d098 66bd 7c5e 6dbd
00000130: 33e8 00bd 4f8a d43c 5c6c 5abd 00a8 91bd
00000140: 03c4 7c3c 8696 c63b 3778 4f3d 9ac5 c6bc
00000150: 864a 1b3b 1080 f13c 4597 813d 3d5c 83bd
00000160: 6d5e a13d d116 8e3d cca0 5d3d f554 bb3d
00000170: f253 b0bd cada 8fbd dfec c5bd a6e4 6c3d
00000180: c21f 073d 901d fabc edd9 a5bd 96b1 9fbd
00000190: b891 273d e7f9 493d e4fe 98bd 5eca 1cbd
000001a0: 88ec b9bd 0b9d 873c f595 943d 7954 b9bd
000001b0: 58e2 c5bd ccbb 723d a30b 43bd ab6b 12bd
000001c0: 3f09 583d a775 97bd 65e2 353d 9f14 3f3c
000001d0: 74ca 0dbc 080a 5e3d 20e9 9cbd 1980 71bd
000001e0: def6 673d 926e f2bc 9da7 93bd c92c 9dbd
000001f0: f270 8ebd c2a8 4d3c 21ac 9b3c c530 97bd
