models_4_200/checkpoint198.pth.tar (torch_old, 489035 bytes, 10 tensors)

0.weight f4 [256, 17]
0	0xbcf7ae42	-0.03023446
1	0x3e8d478f	0.27593657
2	0x3d9737c7	0.073836856
3	0x3e1a3a77	0.15061365
4	0xbe35553d	-0.17708297
5	0xbdc62445	-0.096748866
6	0xbbeafe59	-0.007171434
7	0x3e9b3d55	0.3032023
8	0x3b275c36	0.002553714
9	0xbe0c0f5d	-0.13677736
10	0xbd4d1fdf	-0.050079223
11	0x3e85b7ff	0.2611694
12	0x3db610b1	0.088899024
13	0x3de09b4e	0.10967122
14	0x3e6e694d	0.23282357
15	0xbcccc449	-0.02499594
16	0xbd385b41	-0.0450089
17	0xbe3cfb0c	-0.18455142
18	0xbe182833	-0.14859085
19	0x3e414fd0	0.18878102
20	0xbe0560df	-0.13025235
21	0x3de662f1	0.1124934
22	0x3e75e39c	0.24012607
23	0x3e3ceb3a	0.18449107
24	0xbcf22318	-0.02955775
25	0xbd81567e	-0.06315325
26	0x3e4d7b27	0.2006651
27	0x3dfb6b19	0.12276287
28	0x3bf5e145	0.007503661
29	0x3e35f1d4	0.17768031
30	0x3cacc83e	0.021091577
31	0x3e090129	0.13379349
32	0x3e4bf59d	0.19917913
33	0x3e3c032a	0.18360582
34	0x3d309c87	0.043118026
35	0x3de59f4f	0.11212026
36	0x3d866e23	0.06563976
37	0x3d7b1326	0.06129756
38	0x3e3e9e1c	0.18615001
39	0x3c97a2c4	0.01851023
40	0xbe55bf2e	-0.2087371
41	0xbdcecf17	-0.10098093
42	0xbe3a5df4	-0.18199903
43	0x3e3dcbeb	0.1853482
44	0xbcebb5d9	-0.028773235
45	0xbe4d780b	-0.20065324
46	0xbe037a9b	-0.12839739
47	0x3d48cff5	0.04902645
48	0xbe2eae65	-0.17058714
49	0xbdd26ca8	-0.10274631
50	0xbe1ab8ab	-0.15109508
51	0x3e0877cf	0.13326953
52	0x3c885236	0.016640764
53	0xbdf86c0e	-0.12129985
54	0x3e92381e	0.2855844
55	0xbd0ea98d	-0.034829665
56	0x3e3edb84	0.18638426
57	0x3e5678d6	0.20944533
58	0xbd9b0e43	-0.075710796
59	0xbdd1883f	-0.10231065
60	0x3cbfe112	0.023422752
61	0x3c386fee	0.011257155
62	0xbbb661e6	-0.0055658696
63	0x3d72f548	0.05931595
64	0xbe566916	-0.20938525
65	0x3d9aa53e	0.07551049
66	0xbd07d8eb	-0.033165853
67	0x3d5a05a4	0.053228036
68	0x3ddd8338	0.108160436
69	0x3e5dfc88	0.21678364
70	0xbe0a02d5	-0.13477643
71	0x3e23ee33	0.16008835
72	0x3d6955e3	0.056966674
73	0x3d62b9a7	0.055352833
74	0x3e38cf1d	0.18047757
75	0xbdc90fdd	-0.09817479
76	0xbe9793f5	-0.2960507
77	0xbc9303d7	-0.017946167
78	0x3b73ae5b	0.0037182781
79	0xbb56ff32	-0.0032805917
80	0xbddcc06e	-0.107788906
81	0x3d2187ca	0.03943614
82	0xbc629535	-0.013829519
83	0x3c4af4be	0.012387453
84	0x3e01a8e7	0.12662087
85	0xbe315e93	-0.17321233
86	0x3e7de058	0.24792612
87	0xbc816c0c	-0.015798591
88	0xbe3e697b	-0.18594925
89	0x3e8ec356	0.27883404
90	0xbe223595	-0.15840752
91	0xbd940b93	-0.0722877
92	0xbd1b3e9a	-0.0379015
93	0x3e11c89d	0.14236684
94	0xbded8c8e	-0.11599074
95	0x3ddbf230	0.10739553
96	0xbd83b20e	-0.064304456
97	0xbc828b9e	-0.015935715
98	0x3d7215ff	0.05910301
99	0x3e57d2f7	0.2107657
100	0xbe4168c7	-0.18887626
101	0x3e4e1504	0.20125204
102	0x3e3670a9	0.17816414
103	0x3e9bfb1a	0.30465013
104	0x3d135a25	0.03597464
105	0xbd0b3f0a	-0.033995666
106	0x3e00b382	0.12568477
107	0xbdec778c	-0.11546239
108	0xbdd24391	-0.102667935
109	0x3e44c90d	0.1921732
110	0x3db8e972	0.09028901
111	0x3e568dfc	0.209526
112	0x3d894cd7	0.06704109
113	0xbc9956fb	-0.018718233
114	0x3e695b0a	0.22788635
115	0xbe8956f8	-0.26824164
116	0xbcca2aca	-0.024678607
117	0xbe038cab	-0.1284663
118	0x3cb02907	0.021503938
119	0x3e856239	0.260515
120	0x3e0f2e85	0.1398259
121	0x39c4cd50	0.00037537003
122	0x3c027642	0.007962765
123	0x3e82e017	0.25561592
124	0x3e72ece6	0.23723182
125	0xbe6eb372	-0.2331064
126	0xbc731e83	-0.0148388175
127	0xbe086cc7	-0.13322745
128	0xbcd5e999	-0.026112365
129	0xbe4b2b41	-0.19840719
130	0x3dc48a6b	0.09596714
131	0x3bc596c8	0.0060299374
132	0xbd272a50	-0.040811837
133	0x3e30c82a	0.17263857
134	0xbdf1be43	-0.11803868
135	0xbdd8ef89	-0.10592563
136	0x3cf922fd	0.030412192
137	0xbe52121d	-0.20514722
138	0x3e83c9c3	0.2573987
139	0x3d9a53b9	0.075355
140	0xbdedc92b	-0.11610635
141	0x3e0b1b45	0.13584621
142	0x3d8bc193	0.06824031
143	0x3be202e9	0.0068973196
144	0x3dfe6c4d	0.124230005
145	0x3ce2da17	0.027691884
146	0x3dcc96c2	0.09989692
147	0xbdc894c3	-0.09793999
148	0xbe000c60	-0.1250472
149	0x3d947b5e	0.07250093
150	0xbe195d00	-0.14976883
151	0xbd2e83d2	-0.042606182
152	0x3e5c43e5	0.21510275
153	0x3cda32dd	0.026635582
154	0xbcbdfc73	-0.023191666
155	0xbdc99f67	-0.09844857
156	0x3e383ece	0.17992708
157	0xbdb2844a	-0.087166384
158	0xbdeb240c	-0.11481485
159	0x3e0e9138	0.13922584
160	0x3e81b523	0.2533351
161	0xbe185b3d	-0.14878555
162	0x3e515005	0.20440681
163	0x3e593366	0.21211013
164	0xbd9442f8	-0.07239336
165	0xbe0f17a7	-0.13973866
166	0xbe0db554	-0.13838702
167	0xbe230bb3	-0.15922432
168	0x3e57552d	0.21028586
169	0x3e4cd1c8	0.200019
170	0x3de886f8	0.11353868
171	0x3e805fa1	0.2507296
172	0x3dff5515	0.124674
173	0x3e9a7500	0.3016739
174	0x3ddeb023	0.10873439
175	0xbdca1a5e	-0.098683104
176	0x3d3b0fc8	0.045669347
177	0xbe618880	-0.22024727
178	0xbdcbbbd3	-0.09947934
179	0xbc64e49f	-0.013970523
180	0xbe230616	-0.1592029
181	0x3e271a80	0.16318703
182	0xbe2babfa	-0.16764823
183	0xbda8700a	-0.08224495
184	0x3d69b055	0.05705293
185	0xbd43e2cd	-0.047823716
186	0x3e17a1ce	0.14807817
187	0xbd8a4505	-0.06751446
188	0xbd1174c7	-0.03551176
189	0x3e2441fd	0.16040798
190	0x3dcd0f6e	0.100127086
191	0xbd7e6bc0	-0.062114477
192	0x3e74bbbb	0.23899738
193	0x3e4f4b97	0.20243679
194	0x3d496853	0.049171757
195	0xbe6004e9	-0.21876873
196	0xbe329ea1	-0.17443325
197	0xbdf6afc1	-0.12045241
198	0xbe073591	-0.13204028
199	0x3e27c4cc	0.16383666
200	0x3e8fe925	0.28107563
201	0x3dd89500	0.105752945
202	0xbe1bc131	-0.15210415
203	0x3df2e089	0.11859233
204	0x3dfdf033	0.1239933
205	0x3d33827c	0.04382561
206	0x3d0e392d	0.034722496
207	0x3dfc1d6c	0.12310299
208	0x3e6ebb97	0.23313747
209	0x3e736b86	0.23771486
210	0xbe19d9e7	-0.1502453
211	0xbd8b11a8	-0.06790477
212	0xbd45508a	-0.04817251
213	0x3ddfca8b	0.10927304
214	0x3c34fb62	0.011046262
215	0xbe098350	-0.13428998
216	0xbe246fa0	-0.16058207
217	0xbe365c2b	-0.17808597
218	0x3e3a1140	0.18170643
219	0x3dba6fed	0.091033794
220	0x3d58e109	0.052948985
221	0xbdc5425c	-0.09631798
222	0x3e44e110	0.1922648
223	0x3e445f5c	0.19177002
224	0xbde650cc	-0.112458795
225	0xbd01dea9	-0.031706486
226	0xbcf76bfe	-0.030202862
227	0xbd4fb68e	-0.050711207
228	0x3dbef9e1	0.09325004
229	0x3e0d0aaf	0.13773607
230	0x3d96b6f6	0.07359116
231	0x3e24be57	0.16088234
232	0xbda1c2a6	-0.07898454
233	0x3e878e0a	0.26475555
234	0xbde867d0	-0.11347926
235	0x3e7be30b	0.24598329
236	0x3dd41012	0.10354628
237	0x3da46bf0	0.080284
238	0x3e5713a7	0.2100359
239	0x3d828d2b	0.06374582
240	0xbdcabf4a	-0.09899767
241	0x3e86eeea	0.26354152
242	0xbd98ef30	-0.074674964
243	0xbc8b7a0c	-0.01702597
244	0x3e2023a6	0.15638599
245	0xbe48e290	-0.19617677
246	0xbe4e6399	-0.20155181
247	0xbdf66ac3	-0.12032082
248	0x3d26f164	0.04075755
249	0x3e8ccebf	0.27501485
250	0x3e1ad587	0.15120517
251	0xbccc13e6	-0.024911832
252	0xbdcf3a98	-0.10118598
253	0x3e8c713a	0.27430135
254	0xbd287c8e	-0.04113441
255	0xbe866f87	-0.26256964

0.bias f4 [256]
0	0xbe1dc67c	-0.15407747
1	0xbe17e85e	-0.14834735
2	0x3da712cd	0.08157883
3	0x3d2f8512	0.042851515
4	0x3daa274b	0.08308276
5	0x3c19d9c5	0.009390299
6	0x3e669653	0.22518282
7	0xbd7387ad	-0.059455562
8	0x3d875e3d	0.066097714
9	0x3e085c27	0.13316403
10	0xbd0823b5	-0.033237178
11	0x3e70653f	0.23476122
12	0x3e6ca156	0.2310842
13	0xbe064f14	-0.13116103
14	0xbd3abd2a	-0.045590557
15	0xbd148096	-0.03625544
16	0xbe3674f5	-0.17818053
17	0x3da0c77a	0.07850547
18	0xbc6b2c65	-0.014353846
19	0x3e8c3b9c	0.27389228
20	0x3e26e1e4	0.16297108
21	0x3ca5dc0e	0.020246532
22	0x3e46a100	0.19397354
23	0x3daf1c11	0.08550275
24	0xbc98e8b2	-0.018665645
25	0xbb8a1587	-0.004213992
26	0xbe28649c	-0.1644463
27	0x3da4ff9d	0.08056567
28	0x3e42f5dd	0.19039102
29	0x3d893610	0.06699765
30	0x3e33b3e1	0.17549087
31	0x3e6a404e	0.22876093
32	0xbd8dcf14	-0.06924263
33	0x3d947c0c	0.072502226
34	0xbe7fac1d	-0.24968
35	0xbdc15767	-0.09440499
36	0xbe0bceb7	-0.13653074
37	0x3bc74d42	0.006082208
38	0xbd02492b	-0.03180806
39	0x3d6dbbee	0.05804055
40	0xbd6dad67	-0.058026697
41	0xbcc031d6	-0.023461264
42	0xba734b7c	-0.00092809624
43	0x3e2c604b	0.16833608
44	0x3d6b7b20	0.057490468
45	0x3e9801b1	0.2968879
46	0xbd966237	-0.07342952
47	0x3c964781	0.018344643
48	0xbe2f149d	-0.17097707
49	0xbe21d977	-0.15805613
50	0xbdb333f8	-0.087501466
51	0xbe4947e1	-0.19656326
52	0x3e000b32	0.1250427
53	0xbddf235c	-0.10895416
54	0x3e61573f	0.22005938
55	0x3e6181db	0.22022192
56	0xbd11fa49	-0.03563908
57	0xbcf47714	-0.029841937
58	0xbe664aa5	-0.22489412
59	0xbe6186ee	-0.22024128
60	0x3e9b3f58	0.30321765
61	0xbc304634	-0.010758925
62	0x3e98ac4c	0.29818952
63	0x3dc5a466	0.09650497
64	0xbe2faee4	-0.17156559
65	0x3e9970c2	0.2996884
66	0xbe1212cd	-0.14264984
67	0xbe2bd783	-0.1678143
68	0xbda8d52c	-0.08243784
69	0x3e6be2ee	0.23035786
70	0xbddb9e1a	-0.10723515
71	0xbd9aaccc	-0.0755249
72	0xbe106a62	-0.14103082
73	0x3e7ae05c	0.24499649
74	0x3e735cba	0.23765841
75	0xbdf5aff1	-0.11996449
76	0x3c0da57a	0.00864541
77	0x3e17c9b0	0.14823031
78	0xbda8a5e0	-0.08234763
79	0x3e7ee118	0.24890554
80	0x3e613fc2	0.21996978
81	0xbe511dbc	-0.20421499
82	0x3dad9263	0.08475187
83	0x3dbfecf7	0.09371369
84	0x3cabda3e	0.02097809
85	0xbe1837b3	-0.14864998
86	0x3d0b3a88	0.033991367
87	0x3c48cddb	0.012256111
88	0xbdc1d406	-0.094642684
89	0x3cbeb599	0.023279952
90	0x3e4d089a	0.20022812
91	0xbda1fae7	-0.07909184
92	0x3e1121c4	0.14173037
93	0xbe039220	-0.12848711
94	0xbba73356	-0.0051025553
95	0x3df26af2	0.118368044
96	0xbde79d66	-0.11309318
97	0xbd52c6ed	-0.05145924
98	0x3df27f7c	0.11840722
99	0xbc8b6cfd	-0.017019743
100	0xbd5c4f20	-0.053786397
101	0xbe22c9d6	-0.15897307
102	0x3d39f435	0.04539891
103	0xbd37ec4c	-0.044903085
104	0x3d572af8	0.052531213
105	0xbd022e0b	-0.03178219
106	0xbdec19c0	-0.11528349
107	0xbdf5d42d	-0.1200336
108	0xbe1804ec	-0.14845628
109	0x3d873593	0.06602015
110	0xbb0aa3b0	-0.0021154694
111	0xbd752195	-0.05984648
112	0x3e1586af	0.14602159
113	0xbe064af7	-0.13114534
114	0x3e1f7fc4	0.15576082
115	0xbe0c367b	-0.13692658
116	0x3dcd79a2	0.10032965
117	0x3e720e28	0.23638213
118	0x3dc5d5d0	0.09659922
119	0x3dec95ae	0.11551987
120	0xbd1b89cd	-0.037973214
121	0xbdc3f3f8	-0.09568018
122	0x3d93de5f	0.07220148
123	0x3c517ebb	0.012786563
124	0x3c204b34	0.009783555
125	0x3d9eab44	0.0774751
126	0x3e558ba6	0.20854053
127	0x3ddd0454	0.10791841
128	0xbd7a0905	-0.061043758
129	0xbe35831b	-0.17725794
130	0x3e172ca7	0.14763127
131	0x3ca241dc	0.019806795
132	0x3e12f421	0.1435094
133	0x3e005fd4	0.12536556
134	0xbd5541c2	-0.052064665
135	0x3de17d3f	0.11010217
136	0xbe37ba62	-0.17942193
137	0x3e6a97d8	0.22909486
138	0x3eaaf53e	0.3339023
139	0xbe026376	-0.12733254
140	0xbca6a4b2	-0.020342205
141	0xbdca7028	-0.09884673
142	0x3e5547ff	0.20828246
143	0xbe3b7ad3	-0.18308572
144	0x3de54232	0.111942664
145	0x3e3e9ab2	0.18613699
146	0x3e576b04	0.21036917
147	0xbe120ac6	-0.14261922
148	0x3e38a102	0.1803017
149	0xbdacf8c9	-0.084458895
150	0xbe4ad6be	-0.1980848
151	0xbd8e81dd	-0.06958363
152	0x3d01cf06	0.031691574
153	0xbd837c37	-0.064201765
154	0xbe235272	-0.15949419
155	0x3e33b6df	0.17550229
156	0x3d40aee9	0.047041807
157	0xbdef2f1a	-0.11678906
158	0xbe3a8b9b	-0.18217318
159	0xbe10dfb1	-0.14147831
160	0x3e682b80	0.22672844
161	0x3e46b323	0.19404273
162	0xbde75773	-0.112959765
163	0xbe67d1a9	-0.22638573
164	0xbd91f05d	-0.07125924
165	0x3ea39ee3	0.31957158
166	0xbe779626	-0.24178371
167	0x3e282fc0	0.16424465
168	0x3e4bb4de	0.19893214
169	0x3da26182	0.079287544
170	0x3e1803f4	0.14845258
171	0xbdb4828e	-0.08813964
172	0xbdc9e2c6	-0.09857707
173	0x3e19402f	0.1496589
174	0xbcf26fe0	-0.029594362
175	0x3d176094	0.03695734
176	0x3e255ea4	0.16149384
177	0x3db9e253	0.09076371
178	0xbe10b975	-0.14133246
179	0xbe313351	-0.17304732
180	0xbe39ab37	-0.1813172
181	0x3e4e6731	0.20156552
182	0x3d9a7b71	0.07543076
183	0x3d80253c	0.06257102
184	0x3e1da8a1	0.15396358
185	0x3e0299b0	0.1275394
186	0x3e4bd223	0.1990438
187	0x3dc266c5	0.09492258
188	0xbe0ab9b9	-0.1354741
189	0xbe7cca2c	-0.24686497
190	0x3e5d27f0	0.21597266
191	0x3e6b76c9	0.22994532
192	0xbd35bc85	-0.04436924
193	0xbcddfa4a	-0.027096886
194	0xbe1fdba6	-0.15611133
195	0x3e80ca77	0.25154468
196	0xbd8c858a	-0.06861408
197	0xbc1bd041	-0.009510101
198	0x3e633923	0.22189765
199	0x3e7349a4	0.2375856
200	0x3e117485	0.14204605
201	0x3e2fd9ab	0.17172877
202	0x3de192f1	0.11014355
203	0x3da803b4	0.08203831
204	0x3e1de3f8	0.15418994
205	0x3d429b8a	0.047511615
206	0x3d766dc0	0.06016326
207	0xbe86d88d	-0.2633709
208	0x3b4aa939	0.0030923618
209	0xbda973b0	-0.08274019
210	0x3e299264	0.1655975
211	0x3e5ad3a8	0.21369803
212	0xbdb13e4b	-0.086544596
213	0x3dd3b4ca	0.10337217
214	0xbe35731b	-0.1771969
215	0xbc21b1f4	-0.0098690875
216	0x3de97d1d	0.114008166
217	0x3c3877a8	0.011258997
218	0xbdd962b7	-0.106145315
219	0x3e5413f2	0.20710734
220	0x3e83e00f	0.2575688
221	0x3d25019f	0.04028475
222	0xbe0c788d	-0.13717861
223	0xbe227564	-0.15865093
224	0xbd816cae	-0.06319557
225	0xbe67bd28	-0.22630751
226	0xbd9dff93	-0.077147625
227	0x3e5cdea4	0.21569306
228	0x3e949802	0.29022223
229	0xbe409aeb	-0.18809097
230	0x3d215f5f	0.039397594
231	0xbdf40766	-0.11915474
232	0x3d387fa2	0.045043595
233	0xbd8048fa	-0.06263919
234	0xbd80e2e1	-0.06293274
235	0x3e818d79	0.25303248
236	0xbdbf2aa4	-0.09334305
237	0x3e2bd8ca	0.16781917
238	0xbe09525e	-0.13410327
239	0xbda9a6f1	-0.08283795
240	0x3c8f2d34	0.01747761
241	0x3dcf7e0b	0.10131463
242	0x3c9cc02a	0.0191346
243	0xbd5d999f	-0.054101583
244	0xbd6e67bb	-0.058204394
245	0x3e673d25	0.22581919
246	0xbd87475c	-0.066054076
247	0xbe60e19c	-0.21961063
248	0xbdd78eed	-0.10525308
249	0x3debb0be	0.1150832
250	0xbe0af6d1	-0.13570715
251	0x3d9a5fcf	0.07537805
252	0x3e1e6e21	0.15471698
253	0x3d34fc2a	0.044185795
254	0x3dc3dd29	0.09563667
255	0x3e35ed4c	0.17766303

2.weight f4 [256, 256]
0	0x3df391c8	0.1189304
1	0xbd889230	-0.06668508
2	0x3c1fd170	0.009754524
3	0xbd55abf0	-0.052165926
4	0x3d1b78a0	0.037956834
5	0xbaed1606	-0.0018088229
6	0x3d22996e	0.039697103
7	0xbd45ca19	-0.04828844
8	0xbd2e2807	-0.04251864
9	0xbd85a421	-0.06525446
10	0x3d5d2f30	0.05400008
11	0xbd574358	-0.05255446
12	0xbb0f3e8a	-0.0021857345
13	0x3b0bf1a4	0.0021353746
14	0xbce0a149	-0.027420657
15	0xbad63f12	-0.0016345701
16	0xbde1061e	-0.10987495
17	0x3d8346af	0.06409966
18	0x3da92bf5	0.08260337
19	0xbd4f6248	-0.050630838
20	0xbd3e506f	-0.046463426
21	0xbde9037f	-0.1137762
22	0xbd923315	-0.071386494
23	0x3ad93869	0.0016572598
24	0x3d9e6482	0.07734014
25	0x3d4736a5	0.048636097
26	0xbd417058	-0.04722628
27	0xbd940b73	-0.07228746
28	0x3d9db1e9	0.07699949
29	0x3cad35ca	0.021143813
30	0x3d8d3811	0.068954594
31	0xbc520087	-0.012817509
32	0xbd551481	-0.052021507
33	0x3d1fc253	0.03900368
34	0x3d504c4a	0.050854005
35	0x3d0153bc	0.031573996
36	0x3d5f3162	0.054490454
37	0x3d89e18f	0.06732475
38	0xbd2e58b0	-0.042565048
39	0xbcf76dfa	-0.030203808
40	0xbd70cec8	-0.058790952
41	0xbd972d15	-0.073816456
42	0xbcd57084	-0.026054628
43	0xbbc56d16	-0.006024967
44	0xbca8199e	-0.020520028
45	0xbdad3b3f	-0.08458566
46	0xbb209740	-0.0024504215
47	0xbd2f9d10	-0.042874396
48	0x3d134ab8	0.03595993
49	0x3e0a9ad3	0.13535623
50	0xbd645237	-0.05574247
51	0xbc88e395	-0.016710082
52	0x3d3dc048	0.04632595
53	0xbc51f883	-0.0128155975
54	0xbe0603c4	-0.13087374
55	0x3d468f13	0.04847629
56	0xbdb484a3	-0.08814361
57	0xbded09c7	-0.115741305
58	0xbc0a8c2d	-0.008456272
59	0xbbb4f5e2	-0.0055224756
60	0x3c83772a	0.016048033
61	0xbcd21ff1	-0.025649996
62	0xbc8b6eb2	-0.017020557
63	0xbd412d5a	-0.04716239
64	0x3d64407d	0.055725563
65	0xbd8f21f5	-0.06988899
66	0x3d1cb387	0.038257148
67	0xbd10e388	-0.03537324
68	0xbd210d07	-0.039319064
69	0xbcb910e9	-0.022591071
70	0x3be4a214	0.006977329
71	0x3c9662fd	0.018357748
72	0x3d758d60	0.05994928
73	0xbcbc1bf6	-0.022962552
74	0x3d2f4468	0.042789847
75	0x3ce3b54e	0.027796414
76	0xbd9b6bc5	-0.07588915
77	0x3bad5937	0.0052901763
78	0x3d298941	0.04139066
79	0x3d02ddd6	0.03194984
80	0x3d9ae5b2	0.07563342
81	0xbd732ed0	-0.059370816
82	0xbc29681e	-0.010339765
83	0xbd0d2ccc	-0.03446655
84	0xbd2daaee	-0.04239934
85	0x3d4cc368	0.04999104
86	0xbd179628	-0.037008435
87	0xbb81ffb0	-0.003967248
88	0xbcc9ff5a	-0.024657894
89	0xbd10091f	-0.03516495
90	0x3d09b807	0.033622768
91	0x3c2ef61c	0.010678794
92	0x3d06eecd	0.032942582
93	0x3d3ed227	0.046587136
94	0xbd354a58	-0.044260353
95	0xbd99cfc0	-0.07510328
96	0x3b5ee0af	0.0034008434
97	0x3d1e113c	0.038590655
98	0xbcb9b54d	-0.022669459
99	0x3ba8eb92	0.0051550353
100	0xbd1a810e	-0.037720732
101	0x3da82eb8	0.08212036
102	0x3d1ed5ec	0.03877823
103	0xbc38065b	-0.011231984
104	0x3ca68f94	0.020332135
105	0x3b47bd4a	0.0030477815
106	0xbcf9d97f	-0.030499218
107	0xbd4b6de4	-0.049665347
108	0x3d9c189d	0.07621882
109	0x3c8de238	0.017319784
110	0xbcb46742	-0.022021893
111	0x3d088ebf	0.03333926
112	0xbc5e3fc6	-0.013565009
113	0x3d7f26ac	0.06229274
114	0x3d990518	0.07471675
115	0xbd406058	-0.04696688
116	0xbc80f044	-0.015739568
117	0xbd911abc	-0.07085177
118	0x3d7b0b2d	0.061289955
119	0xbcab3373	-0.020898556
120	0xbdc29dad	-0.095027305
121	0x3dc18bf1	0.0945052
122	0x3c1499be	0.009069858
123	0xbd37f390	-0.044910014
124	0xbdc6c8e6	-0.09706287
125	0xbd664a44	-0.05622317
126	0x3d54179b	0.051780324
127	0x3cbfa68d	0.023394847
128	0x3d9a3f08	0.075315535
129	0x3c359351	0.011082486
130	0xbcd338ae	-0.025783863
131	0xbd57512d	-0.05256765
132	0xbbd199be	-0.0063965013
133	0x3db5685a	0.08857794
134	0xbbb1af95	-0.0054225423
135	0xbdac11b6	-0.084018156
136	0x3dbf4271	0.093388446
137	0xbd31e808	-0.043434173
138	0xbdfff90c	-0.12498674
139	0x3d820a8e	0.063496694
140	0x3cf97db1	0.030455442
141	0xbd8555b2	-0.06510486
142	0xbd9e3880	-0.0772562
143	0xbd241b04	-0.040064827
144	0xbda3c2a8	-0.07996112
145	0xbc4b841f	-0.012421637
146	0xba713cda	-0.0009202488
147	0xbc4b8398	-0.012421511
148	0x3d573e82	0.052549846
149	0x3d3a1f39	0.045439932
150	0xbd7cdec2	-0.061735876
151	0x3d6aef0b	0.057356875
152	0x3d6cfdd9	0.057859275
153	0xbd135420	-0.0359689
154	0x3d7e3797	0.062064733
155	0x3d722d3f	0.05912518
156	0x3d5a0aae	0.05323284
157	0x3d43e531	0.047825996
158	0x3d1a952a	0.03773991
159	0x3c288454	0.010285456
160	0xbc665122	-0.0140574295
161	0x3c871df6	0.016493779
162	0x3b8e58b4	0.0043440703
163	0xbd829e96	-0.06377904
164	0x3c121e83	0.008918407
165	0xbd9b9ccd	-0.07598267
166	0x3cf33d34	0.02969227
167	0x3d722283	0.059114944
168	0x3d906533	0.07050552
169	0x3cbc491c	0.02298408
170	0x3ce9cd5c	0.028540306
171	0x3dac123d	0.08401916
172	0xbd0c8976	-0.03431078
173	0x3cb1759d	0.021662528
174	0x3d383af8	0.044978112
175	0x3c890837	0.01672755
176	0x3db6f729	0.08933861
177	0x3cd7a305	0.026322851
178	0x38b054dc	8.40814e-05
179	0xbd32b675	-0.043631036
180	0x3c72ce26	0.014819657
181	0xbb7dbfc9	-0.003871905
182	0xbda12534	-0.07868424
183	0xb98f3f96	-0.0002732246
184	0xbce3a9f0	-0.027790993
185	0x3c244513	0.010026234
186	0x39ec60fa	0.0004508568
187	0x3d4529db	0.04813562
188	0x3d9001e5	0.07031611
189	0xbd2d7159	-0.042344425
190	0x3cd920c3	0.02650488
191	0xbd1211e8	-0.035661608
192	0xbdda29c8	-0.106525004
193	0xbc30f67e	-0.010800956
194	0x3c6d18d7	0.014471254
195	0xbcef4fa7	-0.029212786
196	0x3d74502b	0.059646767
197	0xbdbecff9	-0.093170114
198	0xbd2430c7	-0.04008558
199	0xbda25998	-0.07927245
200	0x3c451f6a	0.0120314155
201	0xba920195	-0.0011139387
202	0xbd8c02a5	-0.06836442
203	0xbd9d5109	-0.07681472
204	0xbbf15856	-0.007365267
205	0x3d3d47cb	0.046211045
206	0xbd9fd5dc	-0.07804462
207	0xbcc00595	-0.023440162
208	0x3d4ee791	0.050513808
209	0xbd1f8bd3	-0.038951706
210	0xbcbda1fc	-0.02314853
211	0xbd592a36	-0.05301877
212	0x3daa33fc	0.083106965
213	0x3a115b37	0.0005544903
214	0x3d8d7943	0.069078945
215	0x3c964f7e	0.018348452
216	0x3d95202e	0.072815284
217	0xbcae9993	-0.021313464
218	0xbb5a545e	-0.0033314447
219	0xbd6074e4	-0.054798976
220	0xbd10f91a	-0.03539381
221	0x3c244924	0.010027204
222	0xbe066d03	-0.13127522
223	0xbdac0202	-0.083988205
224	0x3d0d6592	0.034520693
225	0x3da68d14	0.08132377
226	0xbd0bc524	-0.034123555
227	0x3d8cb7e8	0.06871015
228	0xb93b8c65	-0.00017886011
229	0xbbe97e93	-0.0071256845
230	0xbcac047c	-0.020998232
231	0x3c49645d	0.012291995
232	0xbd522dae	-0.051313095
233	0x3ceb5a47	0.028729571
234	0x3d7be287	0.06149533
235	0x3bed8c96	0.007249425
236	0x3d4c6ba3	0.049907338
237	0x3d57318e	0.052537493
238	0x3d40e3f7	0.047092404
239	0xbcc9cfe1	-0.024635257
240	0xbc9af58d	-0.018915916
241	0x3ce16499	0.027513789
242	0xbd3a274e	-0.04544764
243	0x3d9aef46	0.07565169
244	0x3d1c402e	0.038147144
245	0xbd111424	-0.0354196
246	0x3d9c8436	0.07642405
247	0x3cf2fa2e	0.02966031
248	0x3d813104	0.06308177
249	0x3cec1f4b	0.028823515
250	0x3d23f334	0.04002686
251	0x3d47e620	0.04880345
252	0x3cc0bb52	0.023526821
253	0x3cb753ef	0.02237889
254	0x3d8f9606	0.070110366
255	0xbdfd9d0e	-0.123834714

2.bias f4 [256]
0	0x3d31cc10	0.0434075
1	0x3c8cc84f	0.017185358
2	0x3d2b1bc8	0.04177454
3	0xbcb2daa6	-0.021832775
4	0x3ca21ec3	0.019790059
5	0x3b555426	0.0032551377
6	0x3d34fc6a	0.044186033
7	0xbd17f89f	-0.037102338
8	0xbd034b58	-0.032054275
9	0x3d5d01b8	0.053956717
10	0x3d5ff9a3	0.05468143
11	0xbd892230	-0.06695974
12	0x3cfcbb33	0.030850982
13	0x3d92a968	0.07161218
14	0x3d24166a	0.04006044
15	0xbc26fdce	-0.010192348
16	0xbc15395d	-0.009107915
17	0x3d4cc333	0.049990844
18	0xbd233954	-0.039849594
19	0x3d16e2d8	0.03683743
20	0x3d65736e	0.056018285
21	0xbc8c97d3	-0.01716224
22	0xbd11056b	-0.035405558
23	0x3cbc6437	0.022997005
24	0x3cdd1e56	0.026992004
25	0x3ce8d2c4	0.028420813
26	0xbd7bb701	-0.061453823
27	0x3d67c788	0.056586772
28	0x3cdb38c4	0.026760466
29	0xbd2f2db4	-0.042768195
30	0x3d48e25d	0.049044
31	0x3c2f0c14	0.010684032
32	0x3cb7ddf3	0.0224447
33	0x3cbae0f1	0.022812339
34	0xbc7f49cb	-0.015581558
35	0x3d0c0eb0	0.034193695
36	0xbd8a5bd0	-0.06755793
37	0xbc9b90a6	-0.018989872
38	0xbc67dfec	-0.014152508
39	0x3d2515ba	0.040303923
40	0x3aa79afa	0.0012787275
41	0x3d4c20cc	0.049835965
42	0x3ce9c71c	0.028537326
43	0xbd4f662d	-0.05063455
44	0x3d865ed1	0.065610535
45	0x3ccceff5	0.025016764
46	0xbcc4dd25	-0.024031231
47	0x3aaec49b	0.001333374
48	0xbc44b786	-0.012006646
49	0x3c13a7f6	0.009012213
50	0xbd4e9338	-0.050433367
51	0x3cb64ad5	0.02225248
52	0x3c39b1f2	0.011333929
53	0x3ccdb752	0.025111828
54	0x3d69a276	0.0570397
55	0x3c4b9280	0.012425065
56	0x3ba4406c	0.0050125625
57	0xbd4bf44f	-0.049793538
58	0xbb9987aa	-0.004685362
59	0x3c1b7e25	0.009490524
60	0x3c873115	0.016502896
61	0x3c77087c	0.015077706
62	0xbc8c1654	-0.01710049
63	0xbc2ae816	-0.01043131
64	0xbcf24565	-0.029574106
65	0xbc97ecaf	-0.018545477
66	0xbd32235c	-0.043490753
67	0x3cfc18fa	0.030773629
68	0xbd98a11f	-0.074526064
69	0x3d3643b8	0.044498175
70	0x3971079e	0.00022986389
71	0xbc85dc92	-0.016340528
72	0x3d5e5e84	0.054289356
73	0x3d335306	0.04378035
74	0x3d507fef	0.050903257
75	0x388198d8	6.179669e-05
76	0x3ca6d12b	0.020363411
77	0xbca80376	-0.020509463
78	0xbd5e825b	-0.054323535
79	0xbb8b0969	-0.004243065
80	0xbd221bbb	-0.039577227
81	0xbd8db741	-0.069197185
82	0xbcf84ea2	-0.030310933
83	0x3afb8321	0.001918886
84	0x3c9d0deb	0.019171676
85	0x3be8015e	0.007080241
86	0xbc9fbe14	-0.019499816
87	0x3a652294	0.0008740809
88	0x3c7eef0a	0.015559921
89	0x3d57542a	0.0525705
90	0x3cd2c874	0.02573035
91	0xbc1180f9	-0.008880847
92	0xbcdbef49	-0.026847498
93	0x3d400fd5	0.0468901
94	0x3d5c23cd	0.05374508
95	0x3b67adf4	0.0035351487
96	0xbd55d8f5	-0.05220886
97	0xbd7b4fe1	-0.061355475
98	0x3cf10693	0.02942208
99	0xbd102ee3	-0.035200965
100	0xbce14070	-0.027496547
101	0x3d058539	0.032597754
102	0x3cd9e0f1	0.026596518
103	0x3d59cad8	0.053171962
104	0x3ca60ddd	0.020270282
105	0x3b315511	0.002705876
106	0x3d4f167b	0.05055855
107	0x3cf977d8	0.030452654
108	0x3d23597f	0.039880272
109	0x3d3edf62	0.046599753
110	0xbd81606f	-0.063172214
111	0x3ccfdf08	0.025374904
112	0xb9a515da	-0.00031487533
113	0x3d58610d	0.05282693
114	0x3ad8ff42	0.0016555565
115	0xbd0dcb2a	-0.03461758
116	0x3d8f899d	0.070086695
117	0xbcf9d844	-0.030498631
118	0xbc9308e6	-0.017948579
119	0xbd133933	-0.03594322
120	0x3ccfcd3a	0.025366414
121	0x3d6ae1a1	0.057344083
122	0x3d31cb31	0.04340667
123	0xbbd7a974	-0.0065814797
124	0x3c5b9aa7	0.013403571
125	0xbcbe67fe	-0.023242947
126	0x3d43adcc	0.047773167
127	0x3b6705dd	0.0035251298
128	0xbd52ccf1	-0.05146498
129	0xbc341ae4	-0.010992739
130	0xbcbd871a	-0.02313571
131	0xbd041939	-0.032250617
132	0xbd7a5f39	-0.061125968
133	0xbcf1bcf5	-0.029509047
134	0x3d285a21	0.04110158
135	0xbcbc2165	-0.022965143
136	0x3d269eca	0.040678777
137	0x3cce1bb0	0.025159687
138	0x3d82025b	0.063481055
139	0xbd5a1bea	-0.053249277
140	0x3cffb411	0.031213792
141	0x3c14e0b1	0.009086774
142	0x3d3bf924	0.045891896
143	0xbc7afe5a	-0.015319431
144	0x3cfad5f5	0.0306196
145	0xbd72b31f	-0.059252854
146	0xbd899de3	-0.067195676
147	0xbd95e9a6	-0.073199555
148	0xbd48320b	-0.04887585
149	0x3d5aa2c6	0.05337789
150	0xbd0ea20b	-0.034822505
151	0xbcf4f5d1	-0.02990237
152	0x3cd5639b	0.026048472
153	0x3d6e082c	0.058113262
154	0x3d9c6889	0.07637126
155	0x3c5dd364	0.013539169
156	0xbc8f3f61	-0.017486276
157	0xbcffcd15	-0.03122572
158	0xbc997c24	-0.018735953
159	0xbd49e2b1	-0.049288455
160	0xbd3e3f79	-0.04644725
161	0xbbf2f8f9	-0.0074149338
162	0x3d4f13fe	0.050556175
163	0xbc99bc2a	-0.018766481
164	0xbc5fb2db	-0.013653482
165	0xbd22d015	-0.039749224
166	0x3c9f6554	0.019457497
167	0xbd80156c	-0.06254086
168	0xbd09d15c	-0.033646926
169	0xbc47bd86	-0.012191182
170	0xba959e08	-0.0011414895
171	0xbca3f23c	-0.020012967
172	0xbd0acebe	-0.03388857
173	0xbd592fef	-0.05302423
174	0x3c830742	0.015994672
175	0xbd6f939f	-0.05849039
176	0xbbdfd4e0	-0.0068307966
177	0xbd81de21	-0.06341196
178	0x3c55339e	0.013012795
179	0x3db50819	0.08839435
180	0xbd399cc7	-0.04531553
181	0xbd082f10	-0.033248007
182	0xbd63ae85	-0.055586357
183	0xbbce732a	-0.0063003497
184	0xbcb99b88	-0.02265717
185	0xbbd20c81	-0.006410182
186	0xbd3c93d2	-0.04603941
187	0xbd0f5c7c	-0.03500031
188	0xbd848db9	-0.06472344
189	0xbd02d67d	-0.031942833
190	0xbd24967e	-0.040182583
191	0x3af898f0	0.0018966477
192	0xbd10d49d	-0.035359014
193	0xbbbf3875	-0.0058355876
194	0x3bb295d9	0.005449992
195	0xbc710a7b	-0.014711971
196	0xbcc2c7d5	-0.023776928
197	0x3c7a6af2	0.015284287
198	0xbd836743	-0.0641618
199	0x3d2fcbe1	0.042919043
200	0xbae505a6	-0.0017472997
201	0xbcdc1e62	-0.026869956
202	0xbc3647fd	-0.011125562
203	0x3d440f88	0.047866374
204	0x3d00129a	0.03126774
205	0xbd91f779	-0.0712728
206	0x3d2a1ec0	0.04153323
207	0xbd1cd85d	-0.038292278
208	0xbd3f36df	-0.04668319
209	0xbc597ac0	-0.013273895
210	0x3d72f70f	0.059317645
211	0x3cc6271b	0.024188569
212	0xbd0b653d	-0.034032095
213	0xbc8172aa	-0.015801746
214	0x3bd9aed7	0.006643157
215	0xbb11801e	-0.0022201608
216	0xbcb1654a	-0.021654744
217	0x3d834a0d	0.064106084
218	0xbd911234	-0.0708355
219	0x3cdd23a0	0.026994526
220	0x3b0ba358	0.0021307077
221	0x3c6e5c00	0.014548302
222	0xbc9823f5	-0.018571833
223	0xbd81b98a	-0.06334217
224	0x3ba24c74	0.0049529616
225	0xbd334094	-0.04376276
226	0xbd07ff3d	-0.0332024
227	0xbb3174a9	-0.0027077592
228	0xbcf65838	-0.030071363
229	0x3d74f169	0.05980054
230	0x3bb58bcf	0.005540348
231	0xbcf0176f	-0.029308049
232	0xbd892ba2	-0.066977754
233	0xbcedf2bf	-0.029046414
234	0xbd5a42b8	-0.053286284
235	0x3d3e8ab9	0.046519015
236	0x3d8303f2	0.06397237
237	0xbd61ef41	-0.05515981
238	0xbcc7bde2	-0.024382535
239	0xbd2ddcc5	-0.04244687
240	0xbc4bad1e	-0.012431411
241	0xbd671448	-0.056415826
242	0xbcc4f1ae	-0.024041023
243	0x3d624f05	0.05525114
244	0xbae8ce8e	-0.0017761753
245	0xbca44841	-0.020053985
246	0xbd3cd1ca	-0.046098508
247	0x3c444b5f	0.0119808605
248	0xbd710eeb	-0.058852118
249	0xbd27182a	-0.04079453
250	0xbc90c70c	-0.017673038
251	0x3b8d9999	0.004321289
252	0x3cbd4b67	0.023107244
253	0x3d725e92	0.05917222
254	0xbd9155be	-0.07096432
255	0x3d995155	0.07486216

4.weight f4 [128, 256]
0	0xbd093d59	-0.03350577
1	0xbab5adb4	-0.0013860972
2	0xbd4d0264	-0.050051108
3	0xbd082bca	-0.033244886
4	0x3cabfa8c	0.020993493
5	0x3d505d1f	0.050870057
6	0x3ce1463a	0.027499307
7	0x3bcf3c5c	0.006324334
8	0xbd17fbd1	-0.037105385
9	0xbc7ed700	-0.01555419
10	0x3c1a9b41	0.0094364295
11	0x3d5aa733	0.05338211
12	0x3cb56cec	0.022146665
13	0x3c4f14a1	0.012639196
14	0x3c9b6f98	0.01897411
15	0xbc4bfdaf	-0.01245062
16	0xbd4092be	-0.047014944
17	0xbd4dcb0e	-0.050242476
18	0x3d30b86d	0.043144632
19	0xbd01683b	-0.031593543
20	0x3d579d9f	0.052640554
21	0x3bd209a3	0.00640984
22	0xbbeb3f12	-0.0071791494
23	0xbd40822e	-0.04699915
24	0xbca40c80	-0.020025492
25	0x3cc6ba7f	0.02425885
26	0xb8011000	-3.0770898e-05
27	0x3b945edb	0.004527909
28	0x3d30a07e	0.043121807
29	0x3d3047a0	0.043037057
30	0xbc050983	-0.008119944
31	0x3ca0f21c	0.019646697
32	0xbd2bbe8f	-0.041929778
33	0xbcd48ef0	-0.025947064
34	0x3d060008	0.032714874
35	0xbd1e4495	-0.038639624
36	0xbc9f40b7	-0.019440038
37	0xbc82e5b3	-0.01597867
38	0xbd1830ed	-0.037156034
39	0x3afffd40	0.001953043
40	0x3d66b2ab	0.056322735
41	0xbd2a8587	-0.041631248
42	0xbd150008	-0.036376983
43	0xbc897e74	-0.01678393
44	0xbd5b7345	-0.053576726
45	0x3d033962	0.032037146
46	0xbd24ecd8	-0.040264934
47	0xbcca37cb	-0.024684807
48	0x3d0e53a7	0.034747746
49	0x3d1e7fe4	0.038696185
50	0xbd4188d1	-0.04724962
51	0x3d281550	0.04103595
52	0xbd035b75	-0.032069642
53	0x3c25adf6	0.010112276
54	0x3d346993	0.044045996
55	0x3cbcd4eb	0.023050746
56	0xbd83ba48	-0.06432015
57	0x3cbc8a3c	0.023015134
58	0xbc2aecd9	-0.010432445
59	0x3c374e72	0.011188136
60	0xbbd3af1e	-0.0064600846
61	0x3c7c6987	0.015406019
62	0xbcfd0f2b	-0.030891022
63	0xbd11eddd	-0.035627235
64	0xbd69c64a	-0.05707387
65	0xba89b734	-0.0010506869
66	0xbd1e3d58	-0.03863272
67	0xbd3f9654	-0.046774223
68	0x3ceafae0	0.02868408
69	0x3d62add3	0.055341553
70	0xbd1741fd	-0.036928166
71	0x3d06ecb6	0.03294059
72	0xbd3b900d	-0.045791674
73	0xbca9d88c	-0.02073314
74	0x3cf407a3	0.029788798
75	0x3b97bf63	0.0046309694
76	0xbc114b3b	-0.008868034
77	0xbb798e48	-0.003807919
78	0x3d79f286	0.061022304
79	0xbcf16450	-0.029466778
80	0xbc81055a	-0.015749622
81	0x3d63788c	0.055534884
82	0x3d274b9f	0.040843602
83	0x3d6d52ec	0.05794041
84	0x3cd1ac20	0.02559477
85	0xbd03f6a8	-0.03221765
86	0x3c2797a7	0.010229028
87	0x3d228606	0.039678596
88	0x3c50096c	0.012697559
89	0xbc495ec3	-0.012290659
90	0x3cba00ef	0.022705523
91	0x3cb6f670	0.022334307
92	0xbc1d1108	-0.00958658
93	0x3d472e5f	0.048628207
94	0x3c789e23	0.0151744215
95	0xb80624b0	-3.1982257e-05
96	0xbbda2e59	-0.006658357
97	0xbd546b4f	-0.05186015
98	0xbd3b1fb8	-0.045684546
99	0xbcaa1e4b	-0.020766398
100	0x3b9a9798	0.0047177784
101	0xbb8b37ec	-0.0042486098
102	0xbd314e27	-0.043287423
103	0x3d427a6a	0.047480024
104	0x3d30ccba	0.043163992
105	0x3d53faec	0.05175297
106	0xbc8aaebe	-0.016929027
107	0xbd695795	-0.05696829
108	0x3b417426	0.0029518693
109	0xbc1ed655	-0.009694655
110	0x3c54e785	0.012994652
111	0x3d265b3c	0.04061435
112	0x3c9997b5	0.018749097
113	0xbd57b921	-0.052666787
114	0x3cbe8497	0.023256583
115	0x3d503168	0.050828367
116	0x3d52a5f6	0.051427804
117	0xbd0cf828	-0.034416348
118	0x3c00aaec	0.007853251
119	0xbb897b6b	-0.004195621
120	0xbd482365	-0.04886188
121	0x3d323ff9	0.04351804
122	0xbc60bbaa	-0.013716618
123	0x3d58bd2c	0.052914783
124	0x3c8eacac	0.01741632
125	0xbcc92319	-0.024552869
126	0x3d215186	0.039384387
127	0x3cece33f	0.028916953
128	0x3c598d80	0.013278365
129	0x3c098920	0.00839451
130	0xbd46849b	-0.048466306
131	0xbd527359	-0.051379535
132	0xbceeebe0	-0.029165208
133	0xbc2ac0dc	-0.010421958
134	0xbbbe9763	-0.0058163865
135	0xbc97990a	-0.018505592
136	0xbc8e5527	-0.017374588
137	0x3ced9b96	0.029004853
138	0xbc069280	-0.008213639
139	0x3caae0f9	0.020859228
140	0xbd3eeb3c	-0.046611056
141	0xbd736db1	-0.05943078
142	0x3d24752f	0.040150817
143	0xbd04ec51	-0.03245193
144	0xbcad26a6	-0.021136593
145	0xbd06f14d	-0.032944966
146	0xbc7bafa8	-0.015361704
147	0x3cf80e68	0.030280307
148	0xbd20b1ab	-0.039231937
149	0xbd7e7dd7	-0.06213173
150	0x3d713820	0.058891416
151	0x3c4ac340	0.012375653
152	0xbd70fc62	-0.05883444
153	0x3d00baaa	0.031428017
154	0xbd3b7234	-0.04576321
155	0x3b9fea19	0.0048802015
156	0x3d1c7653	0.03819878
157	0xbd15a1d5	-0.03653129
158	0xbd3bc0e5	-0.045838255
159	0xbc94c954	-0.018162407
160	0x3d4a4d44	0.049390092
161	0xbcb52573	-0.022112584
162	0x3bdb7bb5	0.0066980966
163	0xbbe9e142	-0.0071374485
164	0xbd2feeaf	-0.042952236
165	0x3d1bb7d3	0.038017105
166	0xbd11f593	-0.03563459
167	0xbd46eb05	-0.048563976
168	0xbc7e3c8d	-0.015517366
169	0x3c7c7888	0.015409596
170	0x3d56c550	0.052434266
171	0xbd30e300	-0.043185234
172	0xbc66d38e	-0.0140885245
173	0xbcc4b745	-0.024013171
174	0xbd22ef94	-0.03977926
175	0xbd83d198	-0.06436461
176	0xbd5d7010	-0.05406195
177	0x3d5baee3	0.05363358
178	0x3d56ae8e	0.052412562
179	0xbd65bb03	-0.05608655
180	0xbd819754	-0.06327692
181	0x3cdf2adc	0.027242117
182	0xbd5d36f2	-0.054007478
183	0xbaa95e19	-0.001292172
184	0x3d681042	0.05665613
185	0x3c92016b	0.017822942
186	0xbd2ef995	-0.04271849
187	0xbc9c46e4	-0.019076772
188	0xbc047b51	-0.008086042
189	0x3d25c5f9	0.040472005
190	0xbd619fa0	-0.05508387
191	0x3bb3bb32	0.005484962
192	0x3c1ccfdb	0.009571041
193	0xbd229865	-0.039696116
194	0xbd816af0	-0.06319225
195	0x3a68608c	0.0008864484
196	0xbd227fae	-0.039672546
197	0x3cbdd685	0.02317358
198	0x3d7273fe	0.05919265
199	0xbd07720c	-0.033067748
200	0x3d185478	0.03718993
201	0x3cf76d92	0.030203614
202	0x3d3adbaf	0.045619663
203	0xbd6a1da2	-0.057157166
204	0xbd0c91bf	-0.03431868
205	0x3cd1351e	0.025538024
206	0xbd7a2c1b	-0.06107722
207	0xbbbabbd0	-0.0056986585
208	0x3bd121e3	0.0063822134
209	0xbc9b52b4	-0.018960334
210	0xbca39596	-0.01996879
211	0x3d07f73d	0.03319477
212	0xbce545ec	-0.027987443
213	0xbbc5f14c	-0.0060407277
214	0x3d072c88	0.033001453
215	0x3c3362a5	0.010948812
216	0xbb651bd4	-0.0034959214
217	0x3d1ea538	0.038731784
218	0x3c6a0b53	0.0142849265
219	0xbbc127af	-0.005894623
220	0x3bf5f5d1	0.0075061102
221	0x3d3f2590	0.04666668
222	0xbd1376ab	-0.036001842
223	0x3ccb4543	0.0248133
224	0xbd15523b	-0.036455374
225	0xbd6474cc	-0.05577545
226	0xbbe63b09	-0.0070260805
227	0x3d0d73ef	0.03453439
228	0xbd3373c2	-0.043811567
229	0x3c8aae69	0.016928868
230	0x3ca5379d	0.02016812
231	0x3cbe1083	0.023201233
232	0x3ce73574	0.02822373
233	0x3cfac087	0.030609382
234	0x3cf75d68	0.030195907
235	0x3d372dce	0.044721417
236	0xbd089ff0	-0.033355653
237	0x3d40a592	0.0470329
238	0x3d2bfdfc	0.041990265
239	0xbd55eefd	-0.05222987
240	0x3d5c7d39	0.05383036
241	0x3d256378	0.040378064
242	0x3d0c0cb2	0.034191795
243	0x3d65de80	0.056120396
244	0x3c9a6597	0.01884727
245	0xbc9bcd68	-0.019018844
246	0xbd28517c	-0.041093335
247	0xbd1891cf	-0.03724843
248	0xbd825ccb	-0.06365355
249	0xbc51c14a	-0.012802431
250	0xbc7a5d6f	-0.015281065
251	0x3d0e107e	0.034683697
252	0x3b6fb465	0.003657603
253	0xbd6545af	-0.05597466
254	0xbd68523c	-0.05671905
255	0xbd50963a	-0.050924517

4.bias f4 [128]
0	0xbca36db7	-0.019949777
1	0xbbd5e983	-0.006528081
2	0x3d8911d8	0.066928566
3	0x3d29bbde	0.04143893
4	0x3da58eec	0.08083901
5	0xbbfad46c	-0.007654717
6	0xbc868b5e	-0.016423877
7	0xbbb10127	-0.0054017487
8	0x3d350010	0.044189513
9	0xbd95f5cd	-0.073222734
10	0xbd361926	-0.044457577
11	0x3d437457	0.047718372
12	0x3d0cf18a	0.034410037
13	0x3bc982eb	0.00614964
14	0xbd4c6cdf	-0.049908515
15	0xbd35b7b7	-0.044364657
16	0x3d112d60	0.035443664
17	0xbd7b4ac5	-0.061350603
18	0xbd620340	-0.05517888
19	0x3c325424	0.0108843185
20	0x3d9a0453	0.07520356
21	0xbd013766	-0.031546973
22	0x3ca6aa72	0.020344947
23	0xbc8e1598	-0.017344281
24	0x3d608ed5	0.054823715
25	0xbd61e261	-0.055147532
26	0xbd6db971	-0.05803818
27	0xbd5582f6	-0.052126847
28	0x3d016abb	0.031595927
29	0xbd786b5c	-0.06064926
30	0x3cb880fa	0.022522438
31	0xbcb976a2	-0.022639576
32	0xbc4f3663	-0.012647244
33	0x3c588f31	0.013217733
34	0x3ccd2c1b	0.025045445
35	0x3d2c8776	0.042121373
36	0x3d516839	0.051124785
37	0x3d641c4b	0.055691045
38	0xbc24cb09	-0.010058173
39	0x3cf4661a	0.029833842
40	0x3caf0297	0.02136354
41	0xbd145d86	-0.036222003
42	0x3d8c8957	0.06862133
43	0xbd0deb9e	-0.03464853
44	0xbd7a1dc4	-0.061063543
45	0xbd1505ae	-0.03638237
46	0x3d4bde2c	0.049772426
47	0x3cfa02e4	0.030518956
48	0xbc49ec4d	-0.012324405
49	0xbd54546a	-0.051838316
50	0xbd5aca30	-0.053415477
51	0x3c0b039e	0.008484749
52	0xbc500c44	-0.012698237
53	0xbd287e79	-0.04113624
54	0xbd457100	-0.04820347
55	0x3bb6111c	0.005556239
56	0x3d304bca	0.043041028
57	0xbd0abb37	-0.03386995
58	0x3c1bd0c2	0.009510221
59	0xbd2d0273	-0.042238664
60	0xbd360fca	-0.04444865
61	0x39e2f824	0.00043290958
62	0x3d1ccec2	0.038283117
63	0xbd4c0a6a	-0.04981462
64	0xbca64a65	-0.020299146
65	0x3d5be357	0.053683605
66	0x3c014dc1	0.007892073
67	0xbc719ac9	-0.014746376
68	0x3c6aae9a	0.014323855
69	0x3d73953b	0.05946849
70	0x3d2807c6	0.04102304
71	0x3d78a1bc	0.060701117
72	0xbd57f388	-0.052722484
73	0x3b728b8f	0.0037009453
74	0x3d1aec07	0.03782275
75	0x3d5ee4c4	0.054417387
76	0xba2702e9	-0.0006370978
77	0x3d5575d8	0.052114338
78	0xbcfb3d69	-0.030668931
79	0xbc545899	-0.012960576
80	0xbd20f2ad	-0.039293934
81	0xbc9a70e9	-0.018852668
82	0x3d53a67d	0.051672447
83	0x3d32311d	0.04350387
84	0xbd28b9ac	-0.041192695
85	0x3c1769f2	0.009241568
86	0x3d0af6a7	0.033926632
87	0x3c7adcee	0.015311463
88	0x3cda656d	0.026659692
89	0x3d0433cf	0.03227597
90	0xbc0a6ce8	-0.008448817
91	0xbcf1fb39	-0.029538738
92	0x3c774336	0.015091708
93	0xbd3a9c17	-0.045559015
94	0x3d536244	0.051607385
95	0xbb9ec038	-0.0048446916
96	0x3d23cb50	0.039988816
97	0x3d915426	0.07096128
98	0xbd4c24bc	-0.04983972
99	0x3d886f12	0.0666181
100	0x3d0050e9	0.031327162
101	0x3ce9697f	0.028492687
102	0xbd41215f	-0.047150966
103	0xbd2d49f8	-0.04230687
104	0x3d379029	0.044815216
105	0x3d3200f8	0.043457955
106	0x3d305052	0.04304535
107	0x3c96674f	0.018359808
108	0xbce033f4	-0.027368523
109	0x3c0d5d45	0.008628194
110	0xbd38c790	-0.045112193
111	0xbd774207	-0.060365703
112	0x3d6832d1	0.056689087
113	0x3ce74282	0.028229956
114	0xbc8410c3	-0.016121274
115	0xbb914cec	-0.0044342186
116	0x3d4c433d	0.04986881
117	0xbcc7a937	-0.02437268
118	0x3d14810d	0.036255885
119	0xbd771440	-0.060322046
120	0x3bc3781e	0.005965247
121	0xbd5007f7	-0.050788846
122	0xbb89a5ca	-0.004200672
123	0x3d0ca8a8	0.03434053
124	0xbad318f0	-0.0016105454
125	0x399be7ca	0.000297366
126	0x3d7ed3c4	0.062213674
127	0xbb3f3115	-0.0029173542

6.weight f4 [128, 128]
0	0xbd07a0c6	-0.03311231
1	0xbd883d52	-0.06652321
2	0xbd230d22	-0.039807446
3	0x3ca2036c	0.019777022
4	0xbc3642cf	-0.011124327
5	0x3c86f644	0.01647485
6	0x3def5fff	0.11688232
7	0x3dc228b7	0.09480422
8	0xbacb89d8	-0.0015528752
9	0x3d131ab4	0.035914138
10	0xbcc320a4	-0.023819275
11	0xbd8d7489	-0.06906993
12	0x3d1329ed	0.035928655
13	0xbd6a2cc2	-0.05717159
14	0xbd274f23	-0.040846955
15	0xbd63d7de	-0.05562579
16	0x3da4f2e0	0.08054137
17	0xbd01e187	-0.03170922
18	0x3d297112	0.041367598
19	0x3d55a968	0.05216351
20	0xbc2bb7e2	-0.010480853
21	0x3d55008b	0.05200247
22	0xba861aaf	-0.0010231341
23	0xbd10821d	-0.035280336
24	0x3d863ce0	0.0655458
25	0xbca6574f	-0.020305304
26	0x3e131e7f	0.14367102
27	0xbd3a568d	-0.045492698
28	0xbb4403d3	-0.0029909506
29	0xbd3c8cfa	-0.046032883
30	0x3d51f6dd	0.051260818
31	0xbc2e89df	-0.010652988
32	0xbd1ff550	-0.039052308
33	0xbd8b2c7c	-0.06795594
34	0xbd3e32eb	-0.046435278
35	0x3caa8326	0.02081449
36	0x3d84cf21	0.06484819
37	0xbd2614b7	-0.0405471
38	0xbd03a5e2	-0.03214062
39	0xba6cebb7	-0.000903781
40	0x3d9de0c8	0.07708889
41	0x3dabd7f7	0.083908014
42	0xbc7c701e	-0.01540759
43	0x3dc9310f	0.0982381
44	0x3db85dcf	0.090022676
45	0x3cd6a332	0.026200864
46	0x3d52a37d	0.051425446
47	0xbcd72106	-0.026260864
48	0xbd6021fc	-0.05471991
49	0xbd48b6f5	-0.049002606
50	0x3d41bbfb	0.047298413
51	0xbc47fa9e	-0.012205748
52	0x3d05d437	0.032673087
53	0xbdd1196a	-0.102099255
54	0x3cee3581	0.029078247
55	0xbd12f221	-0.035875443
56	0x3bbeef95	0.0058269002
57	0xbbc377d0	-0.0059652105
58	0xbde9c1be	-0.114139065
59	0x3d129cb8	0.03579399
60	0xbda6f7d2	-0.08152737
61	0x3dc2b9a5	0.09508065
62	0xbd7c13db	-0.061542373
63	0xbd854325	-0.065069474
64	0x3dacf957	0.08445995
65	0xbdb8a6dd	-0.09016202
66	0xbd10b82e	-0.035331897
67	0x3b52b9d4	0.003215422
68	0xbcb7946b	-0.022409638
69	0x3d819e24	0.06328991
70	0x3d9d952e	0.076944694
71	0x3d94fb3e	0.07274483
72	0xbd6abcae	-0.057308845
73	0xbda1018c	-0.07861623
74	0x3dab03cd	0.08350334
75	0xbda5eb43	-0.08101513
76	0xbd6648a4	-0.05622162
77	0xbce05fb2	-0.027389381
78	0x3dd7cb32	0.10536803
79	0xbb466702	-0.00302738
80	0x3d0989b0	0.033578575
81	0xbc122fc2	-0.008922519
82	0x3cc79495	0.024362842
83	0xbc3f076a	-0.0116594825
84	0xbd121a77	-0.03566977
85	0xba9f3fc0	-0.0012149736
86	0x3cb852f6	0.022500496
87	0x3d4000f7	0.04687592
88	0xbd8f2d36	-0.06991045
89	0x3ba0b27e	0.0049040904
90	0x3dd3db89	0.103446074
91	0xbd56e10c	-0.052460715
92	0xbd5db255	-0.05412515
93	0x3ca2f4bf	0.019892095
94	0x3dac86f6	0.08424179
95	0xbde3e194	-0.1112701
96	0xbd5d155b	-0.053975444
97	0x3d6270f2	0.055283494
98	0x3d6d7335	0.057971198
99	0x3c0b17af	0.008489533
100	0x3dbfe60d	0.093700506
101	0xbda00459	-0.07813329
102	0x3c097f7e	0.008392213
103	0xbc2c67b2	-0.01052277
104	0xbd90746a	-0.07053454
105	0x3d865d7d	0.065608
106	0x3d6f8759	0.058478687
107	0xbc811d28	-0.015760973
108	0xbd3e2936	-0.04642602
109	0xbd4f500c	-0.050613448
110	0x3c6f6eda	0.014613831
111	0x3d423646	0.04741504
112	0xbdc496cc	-0.09599075
113	0xbce42404	-0.027849205
114	0xbd7c7e2c	-0.061643764
115	0x3c839ab7	0.016064985
116	0x3d86e2ef	0.06586253
117	0xbd872fac	-0.066008896
118	0x3ce10eea	0.027472932
119	0x3c3621f8	0.011116497
120	0x3d982cb7	0.07430404
121	0xbd5dfd30	-0.054196537
122	0xbc74d8fd	-0.014944312
123	0xbddb61d3	-0.10712018
124	0xbc0333ab	-0.008007924
125	0x3d910348	0.07080704
126	0xbd301bb9	-0.04299519
127	0x3d559482	0.05214358
128	0x3d918ff3	0.07107534
129	0xbd57515b	-0.05256782
130	0x3e1c59e9	0.15268673
131	0x3d43546f	0.047687944
132	0xbd9114aa	-0.070840195
133	0x389a3ff8	7.355207e-05
134	0x3c833a29	0.016018944
135	0x3bd83f83	0.006599368
136	0xbd180a63	-0.03711928
137	0x3d8c8361	0.06860996
138	0xbc896d9f	-0.016775904
139	0xbce6336c	-0.028100692
140	0xbd72e0fd	-0.059296597
141	0x3da53659	0.080670066
142	0x3da23c2b	0.079216324
143	0xbc7dea78	-0.015497796
144	0xbc73bab6	-0.014876058
145	0x3b9b1150	0.0047322884
146	0x3d93117b	0.071810685
147	0x3d1a0a5a	0.03760753
148	0xbbdfe74b	-0.006832992
149	0xbc50bde7	-0.012740589
150	0xbd99ded7	-0.075132065
151	0x3d66487c	0.05622147
152	0xbcb1938f	-0.021676807
153	0xbca43f37	-0.020049674
154	0xbcc38c1d	-0.023870522
155	0x3bc045a1	0.0058676754
156	0x3c73583c	0.01485258
157	0x3cbc0077	0.02294944
158	0xbdaf0c80	-0.08547306
159	0x3d3ddedd	0.046355117
160	0x3d3cdb3f	0.046107527
161	0x3cf1c2df	0.029511867
162	0xbd5d0c2d	-0.05396669
163	0x3d0ba5fe	0.03409385
164	0x3dacd93b	0.08439871
165	0x3b2b033b	0.0026094455
166	0x3d14a3da	0.036289074
167	0xbd764ffb	-0.06013487
168	0x3de8c303	0.113653205
169	0xbd2d29f2	-0.04227633
170	0x3d0341fb	0.032045346
171	0xbdc0e85a	-0.094193175
172	0x3da2d2be	0.07950352
173	0x3cda841f	0.026674328
174	0xbd093d2c	-0.033505604
175	0xbd8e020b	-0.069339834
176	0x3d390fe1	0.04518116
177	0xbdfc83d7	-0.12329834
178	0xbe15af09	-0.14617552
179	0x3cd6b71f	0.026210366
180	0x3c9e3b1c	0.019315295
181	0x3dad8ca2	0.08474089
182	0x3b3c5fc9	0.0028743616
183	0x3d5774fd	0.052601803
184	0xbd9a468b	-0.07532986
185	0x3d72c126	0.059266232
186	0xbcc911aa	-0.024544556
187	0x3d068906	0.03284552
188	0xbafa0258	-0.0019074185
189	0xbdbb480d	-0.09144602
190	0xbd9eaefa	-0.07748218
191	0xbd505da6	-0.05087056
192	0xbd6cf7f0	-0.05785364
193	0xbd84d79f	-0.06486439
194	0xbd9efa26	-0.07762556
195	0xbd898386	-0.06714539
196	0xbdc632d7	-0.09677666
197	0x3c663667	0.0140510565
198	0x3d9a8fec	0.07546982
199	0x3d6780b1	0.056519214
200	0xbd4bd640	-0.04976487
201	0x3d569636	0.052389346
202	0xbd0c7696	-0.03429278
203	0x3dbc7b0d	0.092031576
204	0x3d60eb72	0.05491204
205	0x3ce8fa50	0.02843967
206	0xbdbbd651	-0.09171737
207	0xbd9385ff	-0.07203292
208	0x3d12b6c6	0.035818838
209	0xbdd5422b	-0.10413011
210	0xbdb25a82	-0.08708669
211	0xbd890bc0	-0.06691694
212	0xbcde0a38	-0.027104482
213	0xbd8366ac	-0.064160675
214	0xbd01b2f8	-0.03166482
215	0xbd7e2200	-0.062044144
216	0xbc43c90f	-0.011949792
217	0xbd9477d7	-0.0724942
218	0x3d3f96c2	0.046774633
219	0xbd5879bd	-0.052850474
220	0xbd4d2a51	-0.050089184
221	0x3d0925b0	0.033483207
222	0x3cec438c	0.028840803
223	0xbdd628d8	-0.10457009
224	0xbac84580	-0.0015279502
225	0xbc9cc8fe	-0.01913881
226	0xbd84ef72	-0.06490983
227	0x3c5b176c	0.013372283
228	0x3d9cf540	0.07663965
229	0x3db1a0ff	0.08673286
230	0x3b3f7142	0.0029211794
231	0x3dc47f84	0.09594634
232	0x3d4b75da	0.04967294
233	0xbda3548c	-0.079751104
234	0x3d29b06f	0.041428026
235	0xbddaee31	-0.10689963
236	0xbc2848c4	-0.010271255
237	0x3db9bbb8	0.09069008
238	0x3cad6457	0.02116601
239	0xbda6ef96	-0.08151166
240	0x3d60c7e6	0.054878138
241	0xbcede4b8	-0.029039726
242	0xbd88f4ad	-0.06687293
243	0x3cceff5d	0.025268251
244	0x3d93c6f5	0.072156824
245	0x3cfacad6	0.030614298
246	0x3dbad63b	0.091228925
247	0xbd2b5b9c	-0.041835412
248	0x3d4cf326	0.050036572
249	0x3cf393e5	0.029733608
250	0xbd801a3e	-0.06255005
251	0x3dac4650	0.084118485
252	0x3c1cd494	0.009572167
253	0xbdc95bda	-0.098319724
254	0x3d3443d5	0.044010002
255	0x3d4c20fe	0.04983615

6.bias f4 [128]
0	0xbc7d9966	-0.015478468
1	0xbc914f4f	-0.017738013
2	0xbcd533c8	-0.026025668
3	0x3d79f01e	0.06102001
4	0xbdccc9e6	-0.099994466
5	0xbc88f51e	-0.016718443
6	0x3bd5fb76	0.0065302206
7	0x3cdc51f7	0.026894553
8	0xbbadce88	-0.0053041615
9	0xbcad09ad	-0.021122778
10	0xbd386836	-0.04502126
11	0x3d9d8420	0.076912165
12	0x3cf418bc	0.02979695
13	0x3ccb8734	0.024844743
14	0xbd92a87d	-0.07161043
15	0x3dccf0eb	0.10006889
16	0x3d47047c	0.04858826
17	0xbdae50bd	-0.08511493
18	0x3d2eb64b	0.042654317
19	0xbc898fdb	-0.016792228
20	0x3ce593c3	0.02802456
21	0xbd996b74	-0.07491198
22	0xbd9f2b3b	-0.077719174
23	0x3da0a75f	0.078444235
24	0xbd961759	-0.07328672
25	0xbd352c48	-0.044231683
26	0xbd2f2054	-0.04275544
27	0xbd938108	-0.07202345
28	0xbd161900	-0.036644936
29	0x3db364a4	0.0875943
30	0x3d56c068	0.052429587
31	0xbd3c68bb	-0.045998316
32	0x3d8eb1ed	0.069675304
33	0xbd102268	-0.035189062
34	0x3d1ce7b7	0.038306918
35	0x3d82c3d5	0.06385008
36	0x3d4d1c80	0.050076008
37	0x3d9cd9f9	0.076587625
38	0xbd80a54e	-0.06281529
39	0xbd6f54a5	-0.058430333
40	0xbda32e24	-0.07967785
41	0x3d712d15	0.058880884
42	0x3cceb463	0.0252325
43	0xbd010135	-0.03149529
44	0x3d83c4c6	0.06434016
45	0xbbf4e91a	-0.007474077
46	0x3d3ded91	0.04636914
47	0xbd6559f0	-0.055993974
48	0xbc5b2b93	-0.013377088
49	0x3ba24088	0.0049515404
50	0xbdadf557	-0.084940605
51	0xbce95907	-0.028484834
52	0xbd87b4f7	-0.06626313
53	0x3d760cdc	0.060070857
54	0xbda7a5b0	-0.08185899
55	0x3da57cfc	0.080804795
56	0x3da3c3f5	0.0799636
57	0x3cd2fb0e	0.025754478
58	0x3cd9882a	0.026554186
59	0x3cd9278e	0.026508119
60	0x3d475934	0.048669055
61	0xbdbf0e28	-0.09328872
62	0x3cda552b	0.02665194
63	0x3da251d9	0.079257675
64	0xbdae5cc1	-0.08513785
65	0x3bf64695	0.0075157383
66	0x3cfe3c85	0.031034717
67	0x3c47e7ba	0.012201244
68	0xbd1883ef	-0.037235197
69	0x3d6a5f55	0.057219822
70	0xbcc5034d	-0.024049425
71	0xbcd48abe	-0.025945064
72	0x3d3d5927	0.0462276
73	0xbc49a57a	-0.012307519
74	0xbd5b2000	-0.053497314
75	0xbd762a83	-0.060099136
76	0xbcfe1182	-0.031014208
77	0x3cd43f6e	0.025909152
78	0xbd461496	-0.048359476
79	0xbd95648f	-0.07294571
80	0x3c7cc32b	0.015427391
81	0x3c19c313	0.009384888
82	0x3d53ffa3	0.051757466
83	0xbcd18c71	-0.025579663
84	0xba2ae365	-0.000651887
85	0x3ce49b87	0.027906192
86	0x3d7fd005	0.062454242
87	0xbd762968	-0.06009808
88	0x3d98706d	0.074433185
89	0x3d8bb5e6	0.06821804
90	0x3d5c8e5f	0.053846713
91	0x3dbd0962	0.09230305
92	0xbdb9d9a8	-0.09074718
93	0xbd8619b6	-0.06547873
94	0xbdc5ed38	-0.096643865
95	0x3d808c6d	0.06276784
96	0x3d0b8b61	0.03406847
97	0xbd0e7f9b	-0.034789663
98	0xbda0c7e8	-0.07850629
99	0xbda8582f	-0.08219945
100	0x3d2b3602	0.041799553
101	0x3d5e5039	0.054275725
102	0xbd916c90	-0.07100785
103	0xbd18b5ff	-0.03728294
104	0xbdae512c	-0.08511576
105	0x3c79122c	0.015202086
106	0x3d91a5df	0.071117155
107	0xbdc086ea	-0.09400733
108	0xbdc5e391	-0.096625455
109	0x3d6f625e	0.05844342
110	0xbd53e378	-0.051730603
111	0xbd13cbe2	-0.03608311
112	0x3d5a82af	0.053347286
113	0xbd9065c7	-0.070506625
114	0x3d3a5b8d	0.045497466
115	0x3c3f1494	0.011662621
116	0xbc2772a0	-0.0102202
117	0x3d5e0a04	0.05420877
118	0xbd9c93ed	-0.07645402
119	0xbd883f23	-0.066526674
120	0x3d65931b	0.056048494
121	0xbd00f7e6	-0.031486414
122	0xbd93a79d	-0.07209704
123	0xbd9180bd	-0.07104633
124	0xbd8ef6de	-0.0698068
125	0x3c5b5508	0.013386972
126	0x3c72084a	0.014772484
127	0xbd8a0502	-0.067392364
