models_5nomix/checkpoint6.pth.tar (torch_old, 9006 bytes, 8 tensors)

0.weight f4 [16, 26]
00000000: 8db3 cebd 7530 e63d 0b5e 86bc e558 9fbd
00000010: 5071 73bc f4e8 543d ba1f 22be 707d e73d
00000020: e166 083e b822 8ebc 32e8 283e 57f4 933e
00000030: 5e09 01be 1457 973c d154 dc3d 862b 9d3e
00000040: f3e6 5e3e 6169 f6bd 3a0d 213d c7e3 993e
00000050: 7420 d3bd 1fd3 3cbe d02f 0fbe 0317 233e
00000060: d419 1c3e 0f09 41be 9e55 913b 59e5 093e
00000070: 5a76 3a3e 9e8a 153e a0f9 c3bd 7b9b 723d
00000080: 2e4e 66bd 3faa 94bd 1fab 99bd 9305 ddbd
00000090: 6638 35bc 84d0 093d 2ae7 45be 3aa9 6b3e
000000a0: 4d50 0fbe c873 1d3d 374e 2abc 6a76 4fbe
000000b0: d235 babb 520d afbc 40f2 9ebe d2ff 253e
000000c0: a1e5 a23c e88b 46be d5a8 adbd 9895 0d3e
000000d0: a433 443e 84de 36be 37ab bfbd 6644 94bb
000000e0: fefe 23be 924c 6bbe 52fe 04be 01d9 ae3c
000000f0: 4728 9c3b 252f 123d 923a 043e 035d cd3d
00000100: f206 e9bd 3c73 00be 8922 c53c ab70 413e
00000110: 2965 63bd d711 06be b697 06be 3154 d33d
00000120: 9ac0 c43c 89db 14be 03f9 5abd d629 263d
00000130: f8d3 153e 2969 2bbd 38fb b5bd 595a d5bd
00000140: d4f7 1bbe 1c6d e5bd e3e0 99bd b0bc 17be
00000150: 73c4 5abe fd47 2bbe 2782 12be 6248 f23d
00000160: 7a5c 6d3c 587b ee3d 8749 d13c adef 9bbd
00000170: a49d 48be 13d1 1abe c639 893d e5a8 4e3d
00000180: 6096 1f3a 0082 cc3d ac72 2fbe e66c 07be
00000190: e099 95bd 9cd7 5e3d 0953 c83d 1b40 dabd
000001a0: 8652 b5bd d8e6 e3bd 78c9 9b3d 905f 123c
000001b0: 33ad 6bbe a0b1 28be 6b8f 8a3d d5b3 babd
000001c0: 7762 593e b36d 313c bd07 473e d5b7 2ebe
000001d0: c6ca 5abc b00a edbd 1f31 8e3d 0377 73bd
000001e0: 168c ff3b 26df 1fbc fba2 a239 97bf 4dbe
000001f0: 52a2 4b3e 5375 923c 523e 90be 201e 52be
00000200: 19f7 a9bd 72a2 21be 7225 a03e e9d2 253e
00000210: b4e6 803e 4d78 1fbd 585c ebbb b895 f6bc
00000220: 6ce4 973e bd9c 4fbe 240e 713e 0ebc b23d
00000230: 25ee 813e a099 07be 7085 efbd fac2 bb3c
00000240: 42cb fe3d 4391 e1bd 4bb0 8e3e 29a0 1fbc
00000250: 22c6 693e aed2 aebe 72ff 06be f1f8 263e
00000260: 4a39 a53e bb45 c43d 177d 03be 0b93 90bd
00000270: 85a2 dabc db47 653d 5b68 b1be c3f7 1a3e
00000280: 5db5 733d 1ab0 45bd 6a87 c43d 3882 bfbb
00000290: 418f 72be 0a1f a4bd 1e11 a63c ef8c 8fbd
000002a0: 9209 b13d 2446 803e a141 8e3c b268 1abe
000002b0: 4c69 e63c dd05 0f3e bf77 103e 8e38 373e
000002c0: d51d 3e3e 009b 9ebc e8a7 333e 36c4 4c3e
000002d0: fe3f 62be 16cc 923c 2a7b 813d 36b0 e1bc
000002e0: 8cde 24bd 8f12 113e 8cd8 1b3e 1e26 a1bd
000002f0: 3f44 313e c050 803c 0806 63bd eb44 943e
00000300: eed0 a33d 9e4c 783d 05d8 9f3d 2802 15be
00000310: edef b13c a6f4 a9be 6150 d0bd 12af 8f3e
00000320: 226e c9bc 717f a0be f396 763d 32a1 5c3d
00000330: 2670 103d 8de0 013e 16a8 23bc d49c 17be
00000340: efbd 2abe bfaf 39be d7b6 58bd 2bfc c83c
00000350: 4270 ccbc 97cf 5abd dd3b 32be d60f 8bbe
00000360: 445d 4cbe afe4 bb3b 2eaa bcbd 25b6 a0be
00000370: 2436 d93b f664 0bbd 02d3 92bc 47d5 aabc
00000380: 91f9 c1bd 9f37 c4bd e8c0 7f3d cc64 9fbc
00000390: e4b2 013e 25a2 02be 8092 2c3e 47ef d7bd
000003a0: 8160 893d ea5b 84bd 8e2b e8bd 9682 0cbe
000003b0: e8de 833d 8d3e 9abd 62d7 253d cd2d e53d
000003c0: 0718 6abe 5d88 e23d e8c3 70bd 64ba 88bd
000003d0: dc37 0abd 017d b2bd 9a72 54be 13ac 12be
000003e0: b691 1cbe d79a d4bd 10f4 1e3d a0de 1d3d
000003f0: c0fa 68bd 6775 4cbe 6284 863d 1a82 b8bd
-0.1009284 0.11239711 -0.016402265 -0.07780627 -0.014858559 0.051979974 -0.15832415 0.11303222
0.13320495 -0.01735054 0.16494825 0.28897354 -0.1260123 0.01847414 0.10758365 0.30697268
0.21767788 -0.12031818 0.039319254 0.30056593 -0.10308924 -0.18439911 -0.13983083 0.15926747
0.15244228 -0.18851112 0.004435255 0.13466395 0.1820921 0.1460366 -0.095690966 0.05923031
-0.0562269 -0.07259034 -0.07503342 -0.10792079 -0.01106081 0.03364612 -0.19326463 0.23013774
-0.13995476 0.038440496 -0.010394624 -0.20260015 -0.0056826854 -0.021368656 -0.31044197 0.16210869
0.019884886 -0.19389307 -0.08479468 0.13826597 0.19160324 -0.1785832 -0.093588285 -0.0045247553
-0.1601524 -0.22978428 -0.1298764 0.02134371 0.0047655436 0.03568949 0.12912968 0.10027506
-0.11378278 -0.12543958 0.02406432 0.18890636 -0.055516396 -0.13092743 -0.1314381 0.103187926
0.02401762 -0.14536871 -0.053460132 0.04056724 0.14631641 -0.041848335 -0.08885807 -0.10417623
-0.15231258 -0.112024516 -0.07513597 -0.14818072 -0.21364002 -0.1672668 -0.14307462 0.11830212
0.01448738 0.1164462 0.025547756 -0.07614074 -0.19591385 -0.15118818 0.067004725 0.05045404
0.0006087776 0.09985733 -0.17133588 -0.13225135 -0.0730474 0.05440484 0.09781463 -0.106567584
-0.08853631 -0.11128014 0.076067865 0.008933917 -0.23015289 -0.16474009 0.06765636 -0.091163315
0.21228968 0.010829377 0.19436546 -0.17062314 -0.013354009 -0.11574304 0.06942963 -0.05943967
0.007798682 -0.009757793 0.00031020478 -0.20092617 0.19886139 0.01787821 -0.28172547 -0.20519304
-0.08299083 -0.15784624 0.31278569 0.16193737 0.25176013 -0.038933087 -0.007182639 -0.030100688
0.2966646 -0.20274635 0.2354055 0.08727275 0.25377002 -0.13242197 -0.11695373 0.02292012
0.12441112 -0.110140346 0.27868876 -0.009742775 0.22829488 -0.3414511 -0.13183382 0.16305901
0.3227027 0.095836125 -0.12840687 -0.07059296 -0.026688823 0.05597673 -0.3464993 0.15133576
0.059499133 -0.048263647 0.09596141 -0.0058443807 -0.2368746 -0.08013733 0.020271834 -0.07009303
0.086444035 0.25053513 0.017365279 -0.15079 0.028126381 0.1396708 0.1410818 0.17892668
0.18566068 -0.01936102 0.1754452 0.19996724 -0.22094724 0.017919581 0.0632232 -0.027549844
-0.0402513 0.14167236 0.15219325 -0.078685984 0.1731119 0.015663505 -0.055425674 0.2895883
0.079988346 0.060619943 0.07804874 -0.14551604 0.02172085 -0.33194464 -0.10171581 0.28063256
-0.024588648 -0.3134723 0.06020255 0.053864665 0.035263203 0.12683316 -0.009988805 -0.14805919
-0.16674016 -0.18133448 -0.052908745 0.024534306 -0.024955872 -0.05342063 -0.17405649 -0.2716052
-0.19957453 0.0057340483 -0.09212147 -0.31388965 0.0066287685 -0.03403183 -0.017922882 -0.020853652
-0.09471429 -0.095809214 0.06243983 -0.019457243 0.12665898 -0.12757166 0.1685276 -0.105436854
0.0670786 -0.06462844 -0.113364324 -0.1372169 0.06439 -0.07531462 0.04048861 0.111903764
-0.22860728 0.110611655 -0.05878058 -0.06676176 -0.033744678 -0.08715249 -0.20746842 -0.14323454
-0.1528996 -0.10381096 0.038806975 0.03854239 -0.05687976 -0.1996666 0.06568219 -0.0900919

0.bias f4 [16]
00000000: cf42 2cbc 50c8 8dbd 1de0 8a3d 4c26 54bd
00000010: 0adf 7ebd 3f7f 8bbc 5ff5 b9bb ed8e fc3d
00000020: 130b 7dbe 7a05 63be daa4 65bd bfd1 053e
00000030: b2ca eb3c 45be 11be 02dd 013e 81c7 893d
-0.010513975 -0.06922972 0.067810275 -0.051794335 -0.062224425 -0.01702845 -0.0056750025 0.123319484
-0.24711256 -0.22170058 -0.056065418 0.13068293 0.028783176 -0.14232738 0.12681964 0.067275055

2.weight f4 [32, 16]
00000000: c3af 99be 62ef 7cbe 4c73 8abd d660 7abe
00000010: 48aa b7bd b98f 6f3c e669 52be 6816 0fbe
00000020: 26d5 36be 405e 333e 96bb 26be b8ff 3abe
00000030: 22a6 82be bcfb 5a3e c31d 27bd 81a1 113e
00000040: 63f5 5d3d ab1f fb3d 2096 c13c 1ea7 3b3e
00000050: dc2e 983d 114d 60be 70e8 7f3d 54e0 44be
00000060: 122d f9bd 640a 6bbc 22dc 4a3d 92e4 30be
00000070: 45ed 0abe be05 e83b 3640 2ebe 6792 3abe
00000080: a9ff 96be f29e a8bd 287d 88bd 6655 5dbe
00000090: 4476 b0bd 62fd 34be 157f 933c 8511 d3bc
000000a0: f834 363e 8b70 393e cb84 083c b18c 0bbe
000000b0: ee1f ba3d e33d 043e 1864 e0be 1e24 a0bd
000000c0: 43ed a1be 82d5 b8be 18d0 8a3d 7338 a1bd
000000d0: 2f3c d0bd 0efc b83d 3f97 943e efcf d43c
000000e0: a3f5 1abd d492 603e 0257 4c3e 0c75 9c3d
000000f0: 6727 3dbe 6d7a 503e 344e debc a013 05be
00000100: f679 78bd fa85 483e 7af9 283d 5806 2bbe
00000110: 6383 e93d 14d2 973c e80f 50be 58b9 afbd
00000120: 5883 9cbc 8906 303e 5b3c 503e e402 dbbd
00000130: 7674 6dbe 8b30 923d 0c8b 9c3d 111d 9abe
00000140: 1aa7 cebc 1037 d53d 8c8a 7bbe 5873 573d
00000150: 0082 72ba a280 5dbe af4f 26bb 6b4e c53c
00000160: b218 22be 36de 74be 1d12 45be de68 b4bd
00000170: ed07 0ebe 30ba 3d3e 9050 123e 5081 ccbd
00000180: 0aef 4e3e 7380 fbbc e64b 80be dc78 403d
00000190: 6cb9 343e 395c 733d 14bb eabd 78e8 f23d
000001a0: 3f82 1dbd 641f f23d f221 7abe 42e3 123e
000001b0: 159f 6dbe 8db9 b5bd 354d 7cbe 5245 92be
000001c0: 76f0 1b3e 2be8 7ebe 098a 1d3d 3e1c 2abe
000001d0: cfae 363e 6de7 0bbe e42e 013e c87c 81be
000001e0: ad08 1c3e 8a79 0dbe 7295 87bd d1ec 633d
000001f0: 9c8d 42be 1ef0 6f3e ea57 04be b5dd 573c
00000200: 6cd7 4f3e d29a 05bd f7bd 3cbc f783 49be
00000210: 039f 1d3d 263a 65be d974 38be 0e3a 33be
00000220: 07ca 983d cab0 3f3d 6249 063e 904d 8f3e
00000230: 6f7c 82be 03e5 b3bc a80e ad3b f234 6c3e
00000240: 87a8 ac3e da40 34be 701d c33d 23a7 44be
00000250: cf63 ad3c 8edd a23e 8d5f c43c 6988 bbbe
00000260: 2f4f 413e 7adb 94be e265 9c3d e883 8abe
00000270: 8ff5 4e3e 9779 9abd 18b0 293d 8632 fb3c
00000280: d41f 0bbd daa4 213e baf1 99be b6e6 fabd
00000290: fa74 7abd 024b 24bd 329f 633e fb84 31bc
000002a0: 7e0f a0bd 72bf 34bd d37c 52bd f482 f0bd
000002b0: a596 10be d7cd 893d 3c30 39bd 7743 233c
000002c0: d826 8cbd ca2b e3bd 62ec 0fbe 73ba 2ebd
000002d0: 2c32 cd3d 12e8 273e 5560 9fbd 855c 08be
000002e0: 76da d43d eb00 f13c c84e 4fbe 55f6 1abe
000002f0: 25fd 1f3e 6b52 5c3d fe5f 333e af53 f63e
00000300: fb51 0c3e 4c62 89be cd99 21be 948b 97bd
00000310: 0c17 9bbd ea5b 0c3e e888 97bd 0004 45bd
00000320: 4429 5fbe b04e a1bd 8da2 8bbd 98d8 65be
00000330: b66e c3bd 34e1 e23d 7a53 233e d0d5 a6bc
00000340: 46d9 693e e580 203d f9ca fabd aea0 2e3e
00000350: 4ce3 b6be 6cc3 093d bc2e f83e 904f 45be
00000360: bf84 c73c 2079 a4bd 3b80 0cbd 3a6e c53e
00000370: 0b48 edbd 981e 40bd b9d1 87bd 4043 86bd
00000380: 7aff 47be 6827 083d eed7 15be fc0e 5f3e
00000390: 2418 29be 5279 54be 4ee0 3bbe 4ef4 67be
000003a0: 6692 1a3e 84c8 ce3d a023 b33c 0054 b7bc
000003b0: a012 733d 6226 73be d81b 4cbd 240e 083e
000003c0: 11b7 c6bd 2dc2 10be 0d7f 403e 13d6 94be
000003d0: 3840 503d 6318 e2bd d36d 2d3c 0dbf 273e
000003e0: fa43 923c 4bf3 97bd 18be f0be 5d61 91bd
000003f0: e685 15be 9e15 e7bd 240d 0e3d b548 66bd
-0.30016908 -0.24700692 -0.067602724 -0.24451002 -0.089680254 0.0146216685 -0.2054821 -0.13973391
-0.17854747 0.17516422 -0.16282496 -0.18261611 -0.25517374 0.21385092 -0.040799867 0.14221765
0.054189097 0.122618996 0.023631155 0.18325469 0.07430813 -0.21904399 0.06247753 -0.192262
-0.121667996 -0.014345739 0.04952634 -0.17274693 -0.13567074 0.0070807626 -0.17016682 -0.1821991
-0.29491928 -0.082334414 -0.06664497 -0.21614608 -0.086163074 -0.17674783 0.018004933 -0.02576519
0.17793643 0.18109338 0.008332442 -0.13627888 0.09088121 0.12914233 -0.43826365 -0.07819389
-0.3162633 -0.36100394 0.06777972 -0.07872095 -0.10167729 0.090324506 0.29021642 0.025978057
-0.037831914 0.2193101 0.19955066 0.076395124 -0.18472062 0.20359202 -0.0271369 -0.12995768
-0.060663186 0.19582358 0.041253544 -0.16701639 0.11402013 0.01853279 -0.20318568 -0.085802734
-0.019105598 0.17189993 0.20335524 -0.10693911 -0.23188958 0.07138165 0.076437086 -0.301003
-0.025226165 0.10410893 -0.2456457 0.052600235 -0.0009250939 -0.21631101 -0.0025377085 0.024085244
-0.15829733 -0.23912892 -0.19245191 -0.08809064 -0.13870211 0.18528056 0.14288545 -0.09985602
0.20208374 -0.030700898 -0.25057906 0.04699026 0.17648858 0.059414122 -0.114614636 0.11860746
-0.03845429 0.118223935 -0.24427012 0.14344504 -0.23205216 -0.08873282 -0.24638827 -0.28568512
0.15228447 -0.24893253 0.03846172 -0.16612336 0.17840122 -0.136625 0.12615544 -0.25290513
0.15237685 -0.13815895 -0.06620301 0.055645768 -0.18999332 0.23431441 -0.12924162 0.013175418
0.2029702 -0.03261835 -0.0115199005 -0.19679247 0.038481724 -0.22385463 -0.18013324 -0.17502615
0.07460409 0.04679946 0.13113931 0.27988863 -0.2548556 -0.021959787 0.005281288 0.23067072
0.33722326 -0.17602864 0.09527099 -0.19204383 0.021165757 0.31809658 0.023971343 -0.3662751
0.18877862 -0.29073697 0.0763662 -0.2705376 0.2021086 -0.07542723 0.0414277 0.03066374
-0.0339659 0.15785542 -0.30067235 -0.12251036 -0.061146714 -0.040110596 0.22228697 -0.010834928
-0.07815455 -0.04412789 -0.051388573 -0.11743727 -0.14119966 0.06728714 -0.045212016 0.009964815
-0.06843346 -0.110923365 -0.14055017 -0.04265828 0.10019335 0.16397122 -0.07782046 -0.13316543
0.103932306 0.029419383 -0.20244896 -0.1513303 0.1562391 0.053789537 0.17517087 0.4811072
0.13703148 -0.26832807 -0.15781327 -0.07399669 -0.07572755 0.13706937 -0.0739916 -0.048099518
-0.21793085 -0.078763366 -0.068181135 -0.22445905 -0.09542601 0.1107811 0.15949813 -0.020365626
0.2283679 0.039185423 -0.12245745 0.17053482 -0.3572029 0.033633634 0.48473155 -0.19268632
0.02435529 -0.08030915 -0.034301978 0.3856066 -0.11586007 -0.046904176 -0.06631798 -0.06555796
-0.1953105 0.033240706 -0.14633152 0.2178306 -0.16513115 -0.20749405 -0.18347284 -0.22651789
0.15094909 0.10096839 0.021867573 -0.022378922 0.059343934 -0.2374511 -0.04983124 0.13286644
-0.09702886 -0.14136572 0.18798466 -0.29069576 0.050842494 -0.11039808 0.010585266 0.16381474
0.01785468 -0.07419451 -0.4702003 -0.07098649 -0.1460186 -0.1128342 0.0346805 -0.056221683

2.bias f4 [32]
00000000: 565b 16be bd92 893e d0dc 1b3e 717a c13d
00000010: 7b96 60be 3d04 58be d7e2 b43d 694b 60bc
00000020: 3619 d83b 3d97 3fbe a7ac 86bd 8ad4 fa3d
00000030: 7156 9abe ac1c 133e 6a36 3ebe f8c4 afbd
00000040: 070c 4d3e 567f 823e e542 b1bb 547d 06be
00000050: 170c 1ebe 8dee e2bd d8c5 bebd 74b0 33be
00000060: 90a7 61bc dfc7 3bbe 13a1 863d 293b 7a3d
00000070: 5904 58be 1ef6 e5bd 06f3 24be 6e0a 993c
-0.1468328 0.26869765 0.15220952 0.09447182 -0.21932404 -0.21095367 0.08832329 -0.013689854
0.0065948023 -0.18710037 -0.065758996 0.1224757 -0.30144075 0.14366406 -0.18575445 -0.08582491
0.2002412 0.25487775 -0.005409586 -0.13133746 -0.154343 -0.11080656 -0.093150795 -0.1754778
-0.01377286 -0.18337964 0.06573691 0.061091576 -0.21095408 -0.11228584 -0.16108331 0.018681731

4.weight f4 [16, 32]
00000000: 1a29 15bd 6498 233e 46d4 b33d add3 033c
00000010: ae95 013d cf4a bc3d e9c2 e73c c826 c53d
00000020: 9da4 abbe 875b 223e 2ace 333d 3c0c 153d
00000030: 27d3 1d3e 78f7 cfbc 42c4 7abd 4aec 39be
00000040: 54b3 8bbd 8efa 373e 57c2 fabc a688 173d
00000050: f76d ab3d 68c1 663e 7a10 033e d975 7abd
00000060: 99ff 80bd 8e2b 9ebd bb81 91bd 22f9 b53d
00000070: cf09 52bd 65a6 f43d 6688 2b3e 5e75 46bd
00000080: 588f 483e 071e 433e e751 5c3e 280a dcbc
00000090: f018 c5bd 17de 933d 169b 7f3d 242f ae3d
000000a0: b4ae c43d 16af db3d 9282 713e 698d e4bd
000000b0: 9d70 13be bef7 c53d da9e bebd f53f c1bd
000000c0: ed2f 87be c976 9fbd 7543 343e 08f0 81bd
000000d0: 1ca9 b93d ee1c 063d 2f29 f13d e330 dd3d
000000e0: 5d00 22be 8c4f d23d 438f 48bd a14f d03d
000000f0: 4b94 e1bd 0bad f23d 4dc2 ab3e d14c 053e
00000100: e8ab c33d 11a4 493e ce25 8d3c 03b0 3f3e
00000110: 76c7 243e ee88 073e 0405 823e 0119 bc3d
00000120: e0d9 4e3e 4ffd 8bbd 62ab 023d 55d0 cabe
00000130: 9b32 e5bc f893 f83e d8bb 9b3c 74ed ecbd
00000140: cc23 1b3e 42a9 4fbc 8ea0 e23d 6a46 e0bd
00000150: 22cb f8bc 3688 01be c716 df3c d8eb c8be
00000160: 281b ca3d 7cf4 123e 3d84 603e 6aee 8c3c
00000170: 1796 e83d 4513 3e3e 5723 b03c 5cfd 9b3d
00000180: 2e1b 5abd bb0d e1bd 2091 3b3c 0208 68ba
00000190: e7b1 eabd 68ff 323d dc1b a33d b118 243d
000001a0: f753 9e3d 6a06 0ebe d6d2 29bd a2df 76bd
000001b0: 80ab a6bc dc5a 963d c6c1 9a3d 818a 3c3d
000001c0: 799f 50be e004 d0bd 9f72 0dbe d0ad 07bd
000001d0: c8ea 28be 2043 d8bb 4143 ef3d af26 18be
000001e0: 9471 5f3e f41b 173e e200 b9bd 0afb c13c
000001f0: 936f 5ebc aa08 7e3d 022a a2bd 16de cf3d
00000200: 31e7 0c3e 3ee3 b6bd 561d 65bd 1037 a03c
00000210: 4c14 773d 2e73 25be e350 0c3e e2d0 e93d
00000220: 7604 b53d 98e7 073d 3cbc 613d ade5 31be
00000230: 9d43 13be 2f6f e7bd c024 be3c c2dc 7fbd
00000240: 4fb7 15be 75a6 8bbd 90ad cebc 80bd 4bbd
00000250: 4033 6fbc 9299 a7bd a258 13be 666e f73d
00000260: 4478 1d3d 0e1c 963d aa91 eebd 86a3 09be
00000270: 0098 d3b8 a895 b83c 2872 b33c bc63 1cbe
00000280: e01a f6bb d0df 4b3e d4bb 273e 3b11 f2bd
00000290: 713f 95bd 0821 d63d c95d 003e a000 2d3e
000002a0: 3972 4abd 3a03 17be dc73 823b 97ba 94bd
000002b0: cbb7 2b3e c420 46be 889a 84bc 9220 0d3e
000002c0: fb33 9ebb 6445 b7bd 3094 9abd 3238 c6bd
000002d0: 5c5d 053e 3044 823d d9f9 e53d a16a c43d
000002e0: 6ebd 15bd 96b6 b5bd a4dd 74bd d818 85be
000002f0: 12fd 0bbe 01e6 b83d fbd8 aebc a74e 893d
00000300: a0e5 f73b 4a24 cbbd 7e3b e63d 0ffa e83d
00000310: f39a 84bd e8c5 b63c 6adb c13d 766d 64bb
00000320: 17ee 233e fed7 21be 4961 0b3d d3f0 f73d
00000330: 900b d73c f3e5 2c3d cd4e 103e 429c 8abd
00000340: 6694 95bd 155c 93bd dc67 2cbe 56ed 75bd
00000350: 4026 103c f3aa 14be b13a b3bd c57d 52bd
00000360: d4ed 68bd 401f 273c 5c72 cebd 853d 47be
00000370: 0a28 ddbd 6684 963d bc9f 023d 0190 3e3d
00000380: 43e2 e9bd 1942 063e 176a 6e3c 184b f43c
00000390: 4133 c6bd aaed 23bd 2c27 49be 965e a5bc
000003a0: f91a 90bd d415 5b3d 842a 5c3d ab62 fa3d
000003b0: 6540 97bd f6c5 8b3d 80de b6bc 5e24 d13d
000003c0: 4844 ffbd 8255 7bbe c445 763e 68ef 65bd
000003d0: 4321 e93c c759 253e 8645 82be 0dd8 723d
000003e0: 5810 793d 8f6c 43be f011 603e e3e2 123e
000003f0: 7631 a83d 86d4 7ebd 56ab 143e 36a2 5d3e
-0.03641615 0.15976101 0.08780722 0.008046073 0.031636886 0.09193956 0.028291183 0.096265376
-0.33524027 0.15855227 0.043897785 0.03638862 0.1541258 -0.025386557 -0.061222322 -0.18156543
-0.068213135 0.17966673 -0.030610247 0.036995552 0.083705835 0.22534716 0.12799254 -0.061147545
-0.062987514 -0.07723151 -0.07104822 0.08885409 -0.051278885 0.119458 0.1675125 -0.048451774
0.19585931 0.19054423 0.21515618 -0.026860312 -0.09623897 0.07220095 0.06240376 0.08505085
0.096036345 0.10726754 0.23584965 -0.11159784 -0.14398427 0.09666394 -0.09307642 -0.09436027
-0.26403752 -0.07786328 0.17603858 -0.063446105 0.09065458 0.032742433 0.11775433 0.1080034
-0.15820451 0.102690786 -0.04896475 0.10171438 -0.11014613 0.118494116 0.33546677 0.13017584
0.09554273 0.19691493 0.01722994 0.18719487 0.16091713 0.13235828 0.25394452 0.091844566
0.202003 -0.06835424 0.031901725 -0.3961207 -0.027978232 0.4855039 0.01901047 -0.11568728
0.15150374 -0.012674632 0.110657796 -0.109509304 -0.030370299 -0.12649617 0.02723254 -0.39242435
0.09868461 0.14351076 0.21925445 0.017203528 0.11356752 0.18562038 0.021501226 0.07616684
-0.053248577 -0.10988947 0.011448175 -0.0008851291 -0.114597134 0.043700606 0.07964298 0.04006261
0.07730859 -0.13869634 -0.041460834 -0.060271867 -0.02034545 0.07341549 0.075564906 0.046030525
-0.20373334 -0.1015718 -0.13813256 -0.033124745 -0.16495812 -0.006599799 0.116827495 -0.14858507
0.2182067 0.14756757 -0.090333715 0.023679275 -0.013576406 0.06201998 -0.079181686 0.101497814
0.13760068 -0.08930062 -0.05593618 0.019557506 0.06032209 -0.16157219 0.13702731 0.11416794
0.088387415 0.03317985 0.055111155 -0.1737277 -0.14381261 -0.113005035 0.023210883 -0.06246639
-0.14620708 -0.068188585 -0.025229245 -0.04974127 -0.014599621 -0.08183588 -0.1438928 0.12081604
0.038444772 0.0732957 -0.11648877 -0.13441285 -0.00010089576 0.0225323 0.02190502 -0.1527242
-0.007510528 0.19909596 0.16380244 -0.11819693 -0.07287491 0.10455519 0.12535776 0.1689477
-0.049425337 -0.14747325 0.0039810967 -0.07262152 0.1676933 -0.19348437 -0.016186967 0.13781956
-0.004827974 -0.08948782 -0.07547796 -0.09678687 0.13023895 0.06360662 0.11229295 0.0959065
-0.036557607 -0.08872716 -0.059781685 -0.25995517 -0.13670757 0.09028245 -0.021343699 0.06704455
0.007565215 -0.09919031 0.11241816 0.1137582 -0.06474867 0.022311166 0.09465678 -0.0034855283
0.16008793 -0.1580505 0.034028325 0.121064804 0.02625063 0.042211484 0.1409256 -0.06768085
-0.073036954 -0.07195298 -0.16836494 -0.060040794 0.008798182 -0.14518337 -0.08751429 -0.051389474
-0.056867436 0.010200322 -0.10080406 -0.19457062 -0.107986525 0.07349472 0.031890616 0.04652405
-0.11420109 0.13111152 0.014551661 0.029820964 -0.09677745 -0.040021576 -0.19643849 -0.020186704
-0.070363946 0.053487614 0.053751484 0.12225851 -0.07385329 0.068248674 -0.022322893 0.102120146
-0.124641955 -0.24544337 0.24050051 -0.05613652 0.028458243 0.16147529 -0.25443667 0.059288073
0.060806602 -0.1908438 0.21881843 0.14344363 0.08212559 -0.062214397 0.14518484 0.2164391

4.bias f4 [16]
00000000: d590 1e3c de5f 363c 7450 82bd 3b94 50be
00000010: 0ef0 9dbd 90e0 a2bd a76d 11be 83c4 da3b
00000020: 1b4a eabb 8973 d73d ac86 1e3b 4555 fbbc
00000030: f64c 98bd 2476 b83d 8f2b c1bd 3abd 023b
0.009678085 0.011131255 -0.063630015 -0.20369045 -0.077118024 -0.07952988 -0.14201985 0.006676258
-0.0071499473 0.105200835 0.0024189157 -0.030680308 -0.07436554 0.090069085 -0.09432136 0.0019949214

6.weight f4 [25, 16]
00000000: fe2d 5dbe 9fc2 433e 1eb0 463e 7de5 ab3d
00000010: e45e 973d 9814 c5bd 2767 663d f6eb c6bd
00000020: 7240 9a3d aa05 a53d cb49 cebd 26bd 0ebe
00000030: 8275 76be f876 03bd d3e4 5abe 930c c53b
00000040: 2201 9fbe 8f31 993b 242a 90be e546 aabe
00000050: 403b 283d 971e ee3d c4b1 083d cef6 2a3e
00000060: 5914 423e 08d7 5cbe d1bd 103e d21b 52be
00000070: 2b82 2cbe 7796 e7bd 7b14 073e 709b 81ba
00000080: 7066 3cbe 25ed a63e 7dd6 893e 45c2 80be
00000090: 6c12 fd3d 4946 e53a 7ae9 c9bd 181e a83e
000000a0: 45f8 623e c582 9a3d 6f84 733e f865 a0bd
000000b0: 280c 8b3e d779 73bb 3405 0ebd cc53 25be
000000c0: 6c0c ecbd d531 f63b 41c0 753e 55db 853d
000000d0: 8085 d83c 5433 2fbe 7104 ef3d 3b36 05bf
000000e0: 5485 0b3c 7f2c 83bd 651f e0bd 923e 773e
000000f0: 1e2e dcbd 0694 263d 8180 993d 0ecc 053e
00000100: 1127 a23e a144 15be 6913 553e 9078 e9bd
00000110: e05b e0bc a658 813e 6825 b93c 38f8 9bbe
00000120: bc1c 873d 8d6b 85bc 74aa 56be cbe5 6e3d
00000130: 9483 423e 1421 1d3e abd1 3d3c 2a5e ce3d
00000140: 4ccf 93bd 9012 7abd a371 08be 4005 183e
00000150: 76ce 4bbe ff8b cfbd 1d53 8cbe 098a 9dbd
00000160: cbf7 4bbd 7c33 8a3d 4511 003e 0e17 86bd
00000170: ec2d 63bc f332 b73d a170 2dbd aafe 423e
00000180: d8b1 aebe 77f7 1bbe 4664 3f3e d991 3d3e
00000190: 062e 13be a00b 843d 7e71 833d 462e 5ebe
000001a0: 8529 5c3d 0099 093e a187 c63d b8b2 4bbe
000001b0: 91fb 1a3d 37b9 62be a89e fdbe bfad 283e
000001c0: a5ce 213e 7d6c 8f3e 87e1 383e 4e12 083d
000001d0: d088 a3bc 28d8 5cbe d9c7 07be 64e3 23be
000001e0: d538 85bd 2801 1c3e 45fb 17be eec5 4abe
000001f0: fdda 2abe e4d3 12be a354 af3e 3f42 f93d
00000200: 30f1 11be a815 913d 98ec 353d a574 983d
00000210: 0079 0a3d a1bc 2bbe a791 cabd b41d 4c3e
00000220: c73f 4d3d 12f2 203d f80c 393e 5a95 2cbe
00000230: 34c5 3bbd a9a0 f43d d270 dfbd 1687 8fbe
00000240: 70b6 403d e776 063e ddc0 ccbe abe7 c3be
00000250: ba38 48be 2900 963d fb95 7fbe 3ce0 1d3d
00000260: cbe4 063e 03ce 933e 86cb 0c3d f4ee 63be
00000270: 7fa6 1e3e 0088 fb3d c6be 05bf 6010 053e
00000280: cfd5 77be 4a6c 6dbd 99d0 3cbe 1a06 13bc
00000290: 38c0 0f3e db1a 99bd 2e65 233d f9b8 be3c
000002a0: a141 593e bce5 06be ee8a 94bc c03d ca3b
000002b0: 7692 3dbe 8089 873d 314c bdbd b7e9 073d
000002c0: 3a5b 2a3d d678 9a3d 48c9 39bc aedc b3be
000002d0: 4a10 11be 315b 3c3e e035 42be 428f c63d
000002e0: 4685 f63d 87c6 8dbe b24b cdbd 3545 323d
000002f0: e6dc 2ebe 214c 2d3e 266c be3d a451 85bd
00000300: 6df9 203e 1b67 3a3e ee51 e13d b2a4 fcbd
00000310: 5c58 49be dbc8 01be 3c49 a1be 0030 bfbe
00000320: 00df 08be 4991 063e ff55 123c 60b6 173e
00000330: ea1f 4abe c7d2 8d3d ee35 92be 8442 35be
00000340: c768 acbe 6ea2 97be c2d5 bfbd cdf5 b93d
00000350: d251 2ebe b3f0 c0be 4af2 eabd 5dca d6bd
00000360: d97b c6bd d8f2 6ebe 7e68 1bbd 8c8f 1dbd
00000370: 908b 0d3e 5c8d 74be e9e5 12be 6c45 60be
00000380: 91e8 953e 840b 1a3e eae1 e0bd 0bc2 913c
00000390: 8cd1 09be 8507 80bc 17e7 23be f661 aabe
000003a0: 5745 dcbd 37f8 84bd cd5a b03d 9235 4abc
000003b0: 9457 3fbd 0c99 ddbd e88c 45bd ba59 50be
000003c0: e6a6 753d 7dd1 01bd 2985 94bd 5dba 693d
000003d0: 2077 1cbd b5cc 8ebe 5306 e5bc cab1 593e
000003e0: 15b0 a13d 33a8 87be ac0f a5bc eb94 1ebe
000003f0: eccf 303d a2c9 55bc b917 a03e e4f7 bfbe
-0.21599576 0.19117211 0.19403121 0.08393381 0.07391146 -0.096230686 0.056250717 -0.09712975
0.07531823 0.08057721 -0.10072669 -0.13939342 -0.24068263 -0.03209588 -0.21376352 0.006013462
-0.31055552 0.0046750973 -0.2815715 -0.33257213 0.04107213 0.11626928 0.033372656 0.16695711
0.18953075 -0.21566403 0.14134909 -0.20518425 -0.1684653 -0.11307996 0.13191406 -0.0009888243
-0.18398452 0.32602802 0.26921454 -0.25148216 0.12357029 0.001749226 -0.09858985 0.3283546
0.2216502 0.075444736 0.23780988 -0.07831949 0.27157712 -0.003715148 -0.03467293 -0.16145247
-0.11525807 0.0075132647 0.2399912 0.06535975 0.026430845 -0.17109424 0.11670769 -0.52035874
0.008515675 -0.06404971 -0.10943488 0.24144962 -0.10750984 0.04066851 0.07495213 0.13066122
0.3167043 -0.14576961 0.20808186 -0.113999486 -0.02738756 0.25262946 0.022600845 -0.30462813
0.065972775 -0.016286636 -0.2096346 0.058324616 0.18995506 0.1534465 0.011585633 0.10076554
-0.07217273 -0.06105286 -0.13324599 0.14845753 -0.19902977 -0.10134124 -0.2740716 -0.07692344
-0.04979686 0.06748101 0.12506588 -0.06547366 -0.013865929 0.08945265 -0.04234374 0.19042459
-0.3412006 -0.15231119 0.18690595 0.18512668 -0.14373025 0.0644753 0.06418131 -0.2169734
0.053750534 0.13437271 0.09693838 -0.19892395 0.03783757 -0.22140966 -0.49535108 0.16472529
0.15801485 0.28012457 0.18054782 0.03322058 -0.019962698 -0.21566832 -0.1325983 -0.16004711
-0.065049805 0.15234816 -0.14841945 -0.19802067 -0.166851 -0.14338642 0.3424426 0.121708386
-0.14252162 0.07084209 0.044415087 0.07444123 0.0338068 -0.16771175 -0.09891062 0.19933206
0.05010965 0.039293356 0.18071353 -0.16853848 -0.045842364 0.11944706 -0.10910191 -0.2803275
0.047048986 0.13131295 -0.39990893 -0.38262686 -0.1955289 0.07324249 -0.24959557 0.038543925
0.13173215 0.28868112 0.034373783 -0.22259122 0.154932 0.12281799 -0.5224422 0.12994528
-0.24202655 -0.0579646 -0.18438949 -0.008973623 0.1403817 -0.074758254 0.039891414 0.023281561
0.21216442 -0.13173574 -0.018132653 0.006171912 -0.18512902 0.06618023 -0.09243048 0.033181872
0.041590907 0.07542579 -0.011339493 -0.35129303 -0.1416637 0.18394162 -0.18965864 0.09695293
0.12037139 -0.27690527 -0.10024203 0.043523032 -0.17076454 0.16923572 0.092979714 -0.06509712
0.15720148 0.18203394 0.11001955 -0.12336101 -0.19662613 -0.12674277 -0.31501186 -0.3734131
-0.13366318 0.1314136 0.008931636 0.14815664 -0.19738737 0.06924968 -0.2855677 -0.17701155
-0.3367369 -0.29616112 -0.09366943 0.09080086 -0.170234 -0.3768364 -0.11471994 -0.104878165
-0.09691591 -0.23334825 -0.03794145 -0.038466975 0.1382277 -0.2388205 -0.14345516 -0.21901482
0.29278997 0.15043455 -0.1098059 0.017792722 -0.13458842 -0.015628586 -0.16006123 -0.33277863
-0.10755413 -0.06492656 0.08611069 -0.012341874 -0.04671438 -0.10820207 -0.04823008 -0.20346728
0.05997362 -0.031693924 -0.07251961 0.057062495 -0.038199544 -0.27890554 -0.027957117 0.21259227
0.07894913 -0.26495513 -0.020149074 -0.15486495 0.04316704 -0.013048561 0.312681 -0.37493813

6.bias f4 [25]
00000000: e03e 033d 2e2c c23d 031e 0bbe 8552 84bd
00000010: 6e2d 62bd 8485 90bc 0e03 b5bd 90e6 e1bd
00000020: ea01 33bc dab5 1c3d 8de4 2b3e fd00 913c
00000030: 8527 b2bd 17e8 bd3d 1e6a bf3d 7858 853d
00000040: f1e6 403e babf 213d 3ab9 743d c079 c13d
00000050: e02d 1e3d dd90 89bd 94ba cdbd f2a0 973d
00000060: 6e07 eabd
0.032042384 0.09481083 -0.13585667 -0.06461052 -0.055219106 -0.01764179 -0.08838473 -0.110303044
-0.010925749 0.038259365 0.16786404 0.017700667 -0.08698944 0.09272783 0.09346412 0.06511015
0.18838097 0.039489485 0.05974696 0.0944705 0.03861797 -0.067170836 -0.100453526 0.07403745
-0.11427198
