models_5nomix/checkpoint18.pth.tar (torch_old, 9006 bytes, 8 tensors)

0.weight f4 [16, 26]
0	0xbb017224	-0.001975187
1	0x3e19c274	0.15015584
2	0x3d4e8a00	0.050424576
3	0xbe014599	-0.12624206
4	0xbdd77be9	-0.10521681
5	0x3d829941	0.06376887
6	0xbe72ec7b	-0.23723023
7	0x3cef635f	0.029222189
8	0x3e5bedf4	0.2147749
9	0xbdf911b4	-0.1216158
10	0x3e8390b7	0.25696346
11	0x3eeccb55	0.4624888
12	0xbdf0f9db	-0.11766406
13	0xbc8dddc5	-0.017317662
14	0x3e555723	0.20834021
15	0x3f031198	0.5119872
16	0x3db879c4	0.090076
17	0xbe197b4e	-0.14988443
18	0x3e69b4cc	0.22822875
19	0x3efd0240	0.4941578
20	0xbd3e28a4	-0.046425477
21	0xbe581663	-0.2110229
22	0xbe49b693	-0.19698553
23	0x3e25c37e	0.16187856
24	0x3e883c21	0.26608375
25	0xbe62df58	-0.22155511
26	0xbe1064e5	-0.14100988
27	0x3e6bcb85	0.23026855
28	0x3e473154	0.19452411
29	0x3e146b6e	0.14494106
30	0xbdea41c0	-0.11438322
31	0xbd0f5988	-0.034997493
32	0xbe848bfc	-0.2588805
33	0xbc8b79b1	-0.0170258
34	0x3d803d1c	0.06261656
35	0xbe90c8a0	-0.28278065
36	0x3db5fc0d	0.088859655
37	0x3d83b82b	0.064316116
38	0xbec93f41	-0.3930607
39	0x3e94afaa	0.2904027
40	0xbe6e792c	-0.23288411
41	0xbc9b80fa	-0.0189824
42	0xbca4a26b	-0.020096978
43	0xbebb86cd	-0.36626282
44	0x3d1ed311	0.038775507
45	0x3d2a056b	0.041509073
46	0xbe5adaa9	-0.21372475
47	0x3e1efee4	0.1552692
48	0xbdec7113	-0.11545005
49	0xbe3aa759	-0.182279
50	0xbe52b6bf	-0.20577525
51	0x3e8fd9fc	0.28095996
52	0x3ea7508d	0.32678643
53	0xbc108cdf	-0.008822649
54	0x3d7423df	0.05960452
55	0xbe4befd8	-0.19915712
56	0xbe88e05e	-0.2673368
57	0xbec5cc40	-0.38632393
58	0xbe62f78f	-0.22164749
59	0xbb828a23	-0.0039837523
60	0x3df0d0ca	0.11758573
61	0xbcba0709	-0.022708433
62	0x3dd22e42	0.10262729
63	0x3e0d8f65	0.13824232
64	0xbe05426b	-0.13013618
65	0xbde177ee	-0.11009203
66	0x3d7582e5	0.059939284
67	0x3e1094bc	0.14119238
68	0xbe334627	-0.1750723
69	0xbdfb148e	-0.1225978
70	0xbd25a6db	-0.04044233
71	0x3e8204ab	0.25394186
72	0x3e31f737	0.17379461
73	0xbebb48df	-0.36579034
74	0x3cd36561	0.025805177
75	0x3da2d167	0.079500966
76	0x3dd49796	0.10380475
77	0xbd89175a	-0.06693907
78	0xbdbc3168	-0.09189111
79	0xbde1195c	-0.10991165
80	0xbe1bf756	-0.1523107
81	0xbde8a1f6	-0.113590166
82	0xbd4ef5ae	-0.050527267
83	0xbe17e984	-0.14835173
84	0xbe5b04a1	-0.21388485
85	0xbe2d0009	-0.16894545
86	0xbe128222	-0.14307454
87	0x3ddab5d5	0.10679213
88	0xba4e8695	-0.00078783307
89	0x3dad22f4	0.084539324
90	0x3b79445f	0.0038035137
91	0xbdb6d839	-0.0892796
92	0xbe4c0e67	-0.19927369
93	0xbe1a46f0	-0.15066123
94	0x3d6181c3	0.05505539
95	0x3d4ef7b6	0.050529204
96	0xbd012181	-0.031526092
97	0x3decef99	0.11569137
98	0xbe2c9a6e	-0.16855785
99	0xbdfa6adc	-0.12227413
100	0xbd92229e	-0.07135509
101	0x3d21cd1a	0.03950224
102	0x3dd86a8b	0.105671965
103	0xbdfecacf	-0.124410264
104	0xbe716991	-0.23575427
105	0xbdc33327	-0.09531241
106	0xbd0f1534	-0.03493233
107	0x3ddebf9e	0.10876392
108	0xbf18368d	-0.5945824
109	0xbded20be	-0.11578511
110	0x3d9b942e	0.075966224
111	0xbd2d8b6c	-0.04236929
112	0x3e51e0f7	0.20495974
113	0xbe496472	-0.19667223
114	0x3e5f2425	0.21791132
115	0xbe54aeb6	-0.20769772
116	0xbe252ebd	-0.1613111
117	0xbbfa12fc	-0.0076316576
118	0x3e193f3d	0.1496553
119	0x3bcb3494	0.006201336
120	0xbd404a19	-0.046945665
121	0x3cc3aeb1	0.02388701
122	0x3d9bdcf2	0.07610501
123	0xbd856c11	-0.06514753
124	0x3f0526cb	0.5201232
125	0x3e49abd0	0.19694448
126	0xbe9850a7	-0.29749033
127	0xbeafbcf9	-0.34323862
128	0xbedb39d4	-0.42817557
129	0xbe01a017	-0.12658726
130	0x3eb18895	0.34674516
131	0x3dad9bfd	0.08477018
132	0x3e95509e	0.2916307
133	0xbcb2b7c3	-0.02181614
134	0xbe0b527a	-0.13605681
135	0x3d5bed86	0.053693317
136	0x3e9cabba	0.30599767
137	0xbe98f571	-0.29874757
138	0x3ea0b12a	0.31385165
139	0x3e36a96c	0.17838067
140	0x3e7b501a	0.24542275
141	0xbe0068c1	-0.1253996
142	0xbd3d0980	-0.046151638
143	0x3dfbfb85	0.12303833
144	0xbcbd2131	-0.023087116
145	0x3d1d66ee	0.03842824
146	0x3e8f52c5	0.27992836
147	0xbe071e8f	-0.13195251
148	0x3e89c174	0.26905406
149	0xbee7f6e0	-0.45305538
150	0xbda5c9bc	-0.080951184
151	0x3e61a0ca	0.22033992
152	0x3e8d1ff3	0.27563438
153	0x3e2586c1	0.16164686
154	0xbe075944	-0.13217646
155	0xbe5559d0	-0.20835042
156	0xbbdf9dde	-0.006824239
157	0xbdb50ca2	-0.088403
158	0xbe8f9ccb	-0.2804931
159	0x3e9e706c	0.30945146
160	0x3e4eec9f	0.20207451
161	0x3e268555	0.162618
162	0x3e4316f2	0.19051722
163	0x3e20f7cb	0.15719526
164	0xbedefc70	-0.4355197
165	0xbdf685b7	-0.12037223
166	0x3d605326	0.054766797
167	0xbdb20dbc	-0.08694026
168	0x3ddc3701	0.10752679
169	0x3ecffa8b	0.40620837
170	0x3d9eaf14	0.07748237
171	0x3ce3be8b	0.027800819
172	0x3e35984b	0.17733876
173	0x3e2f5564	0.17122418
174	0x3e2b488d	0.16726895
175	0x3e3a4c24	0.18193108
176	0x3e819a73	0.25313148
177	0xbe47c515	-0.19508775
178	0x3e6e49ae	0.23270294
179	0x3e22e991	0.15909411
180	0xbe63897e	-0.22220418
181	0xbe386d70	-0.18010497
182	0x3dcb3480	0.09922123
183	0xbe07ad2a	-0.1324965
184	0xbcad15a7	-0.021128489
185	0x3e72b139	0.23700418
186	0x3e891b91	0.26778844
187	0xbd7237f1	-0.05913538
188	0x3e5f4eeb	0.21807449
189	0x3ca89cde	0.020582613
190	0xbd984d33	-0.074365996
191	0x3ee48401	0.4463196
192	0xbd8136d5	-0.063092865
193	0x3c999124	0.018745966
194	0x3eaa707e	0.3328895
195	0xbc2f9468	-0.010716535
196	0x3d12942a	0.03578583
197	0xbeb20ca1	-0.3477526
198	0x3c03e6f4	0.008050669
199	0x3e9a7612	0.30168205
200	0xbd853546	-0.06504302
201	0xbed3878c	-0.41314352
202	0x3ccbbaa1	0.024869265
203	0x3ddbc9f5	0.107318796
204	0xbb922db3	-0.004461014
205	0x3e533585	0.20625885
206	0xbdb59f01	-0.08868218
207	0xbe441a6a	-0.19150701
208	0xbe2e5f5a	-0.17028561
209	0xbe39b1a5	-0.18134172
210	0xbd7b74f1	-0.06139082
211	0x3cc9f613	0.02465347
212	0xbd07b490	-0.033131182
213	0xbd5aea94	-0.053446367
214	0xbe323cee	-0.17406055
215	0xbe8b1078	-0.27161002
216	0xbe4c5ec8	-0.19958031
217	0x3ba826c3	0.005131574
218	0xbdbcac28	-0.09212524
219	0xbea0b738	-0.31389785
220	0xbb409330	-0.0029384606
221	0xbca95e3b	-0.020674815
222	0xbca6e538	-0.020372972
223	0xbcafd9b8	-0.021466121
224	0xbdc1fb89	-0.09471805
225	0xbdceb2cb	-0.10092696
226	0x3d401585	0.046895523
227	0xbc9f73ed	-0.019464457
228	0x3df21a6d	0.118214466
229	0xbe02a43d	-0.12757964
230	0x3e1da8bb	0.15396397
231	0xbdd7f2df	-0.10544371
232	0x3d7c73a5	0.061633725
233	0xbd97ac76	-0.07405941
234	0xbe1503b1	-0.1455219
235	0xbd6fe5f6	-0.058568917
236	0x3e8deb66	0.27718657
237	0xbe016b7d	-0.1263866
238	0xbcfb4d77	-0.030676587
239	0x3e6b266d	0.22963877
240	0xbe4eac4d	-0.20182915
241	0x3ea370ba	0.3192194
242	0xbc84d65d	-0.016215498
243	0xbe22be18	-0.15892828
244	0x3d2b712d	0.04185598
245	0xbd3ae8d8	-0.045632213
246	0xbe06c33f	-0.13160418
247	0xbe5a2578	-0.21303356
248	0x3d50bec6	0.050963186
249	0xbd50fa68	-0.051020056
250	0xbc0760ff	-0.008262872
251	0xbb4d03ba	-0.0031282739
252	0xbdc81758	-0.097700775
253	0xbe6ada20	-0.2293477
254	0x3c393b6e	0.011305673
255	0x3dacd751	0.08439506

0.bias f4 [16]
0	0xbe17177b	-0.14755051
1	0x3cd65634	0.026164152
2	0x3d10f6f6	0.03539177
3	0xbd8d5fc2	-0.0690303
4	0xbb9e98ac	-0.0048399772
5	0xbe9ef676	-0.3104741
6	0xbe444e8a	-0.19170585
7	0x3dbc633c	0.09198615
8	0xbe84b166	-0.25916594
9	0xbdfc745e	-0.12326883
10	0x3e0e32f4	0.13886625
11	0x3d27d69e	0.04097616
12	0xbc76f5ae	-0.015073223
13	0xbe14eaba	-0.14542666
14	0x3e4bb184	0.19891936
15	0x3c9505f1	0.01819131

2.weight f4 [32, 16]
0	0xbea1a85f	-0.3157377
1	0xbe834f66	-0.25646514
2	0xbd8a734c	-0.067602724
3	0xbe7a60d6	-0.24451002
4	0xbdb7aa48	-0.089680254
5	0x3b4d9580	0.0031369627
6	0xbe5269e6	-0.2054821
7	0xbe1ddbdf	-0.15415905
8	0xbe36d526	-0.17854747
9	0x3e335e40	0.17516422
10	0xbe26bb96	-0.16282496
11	0xbe4a5f1f	-0.19762848
12	0xbe8d9877	-0.27655384
13	0x3e5afbbc	0.21385092
14	0xbd5ed246	-0.05439975
15	0x3e04e262	0.12976983
16	0x3dd867b5	0.105666555
17	0x3dda5f82	0.10662748
18	0x3cfb7a8b	0.030698081
19	0x3e2a3396	0.16621241
20	0x3e0cfb89	0.13767828
21	0xbe20d30c	-0.15705508
22	0x3e0634af	0.13106035
23	0xbe10081c	-0.14065593
24	0xbe00952b	-0.12556903
25	0xbd8f7730	-0.07005155
26	0x3dd74e7c	0.105130166
27	0xbe8aac48	-0.27084565
28	0xbe64f215	-0.22357972
29	0xba4cccc0	-0.00078124925
30	0xbeb52dbf	-0.35386464
31	0xbde1b521	-0.11020876
32	0xbe974336	-0.29543465
33	0xbdc1836f	-0.09448897
34	0xbda087c4	-0.07838395
35	0xbe5d4628	-0.21608794
36	0xbdcb37cb	-0.09922751
37	0xbe656547	-0.22401915
38	0xbc62e884	-0.013849381
39	0xbd5ccbe6	-0.05390539
40	0x3e370a30	0.1787498
41	0x3e39efb3	0.18157844
42	0xbdd3b329	-0.103369065
43	0xbe123b99	-0.14280547
44	0x3d9b3fbf	0.07580518
45	0x3e027d94	0.12743217
46	0xbedaf5c6	-0.42765635
47	0xbda44e68	-0.08022767
48	0xbe592c2b	-0.21208255
49	0xbf02df8f	-0.51122373
50	0x3cede208	0.029038444
51	0xbe07b4cb	-0.13252561
52	0xbdc2ec79	-0.0951776
53	0x3e17e683	0.14834027
54	0x3ee998d5	0.45624414
55	0x3da7d306	0.081945464
56	0xbd7c5764	-0.06160678
57	0x3e36e7ae	0.17861816
58	0x3d8194ce	0.0632721
59	0x3dd4e9f9	0.10396189
60	0xbe34613a	-0.17615214
61	0x3e5ddc99	0.21666183
62	0xbd49326b	-0.049120348
63	0xbd8b5dee	-0.06805025
64	0xbdf6d06e	-0.120514736
65	0x3db79742	0.08964397
66	0x3d9f9334	0.07791749
67	0xbe2356d7	-0.15951096
68	0x3e23f9ac	0.16013211
69	0x3d71825c	0.05896221
70	0xbe9d2ebe	-0.30699724
71	0xbe0e1788	-0.13876164
72	0x3c29c027	0.010360754
73	0x3d52bfdf	0.051452514
74	0x3e8f54ee	0.27994484
75	0x3dc400c8	0.095704615
76	0xbe41ef71	-0.18938996
77	0x3d9f8c10	0.07790387
78	0xbe8823ce	-0.26589817
79	0xbee34d9a	-0.44395143
80	0x3cf83e17	0.030303044
81	0x3d0fa514	0.03506954
82	0xbeba5dfb	-0.36399826
83	0x3e3bc39c	0.18336338
84	0xbddf5218	-0.1090433
85	0xbe66e5bb	-0.22548573
86	0x3b85587a	0.004069385
87	0x3d908006	0.070556685
88	0xbe2218b2	-0.15829733
89	0xbf0b18df	-0.54334825
90	0xbe136814	-0.14395171
91	0x3dc7b2f7	0.09750932
92	0xbf11cd28	-0.5695367
93	0x3e3dba30	0.18528056
94	0x3e8c6786	0.27422732
95	0xbef6be94	-0.48192275
96	0x3e571810	0.21005273
97	0xbe43cf69	-0.1912209
98	0xbe9c9c6b	-0.30588087
99	0x3ce550d3	0.027992642
100	0x3e9ce8e4	0.3064643
101	0x3d0e0e68	0.034681708
102	0xbd7c7e71	-0.06164402
103	0x3dc593c7	0.09647327
104	0xbd878fc1	-0.06619216
105	0x3dedcba3	0.11611106
106	0xbe873ff4	-0.2641598
107	0x3df54918	0.11976832
108	0xbea28fd5	-0.3175036
109	0xbdd4454b	-0.10364779
110	0xbeac91a4	-0.33704865
111	0xbe64e0a0	-0.22351313
112	0x3e4d07f0	0.20022559
113	0xbec1b69e	-0.37834638
114	0xbd6f9d00	-0.058499336
115	0xbe2c1462	-0.1680465
116	0x3e76d336	0.24104008
117	0xbd676a4c	-0.056497857
118	0x3df7a371	0.12091721
119	0xbe57f6ba	-0.21090212
120	0x3e0e28f0	0.13882804
121	0xbe0f4e5d	-0.13994737
122	0xbd4c29e9	-0.049844656
123	0x3d53b1ce	0.05168324
124	0xbe78a21c	-0.2428059
125	0x3e6f7915	0.23386033
126	0xbe81a8ea	-0.25324184
127	0xbe306ac2	-0.17228225
128	0x3edc3dae	0.43015808
129	0x3ba1b0e1	0.0049344157
130	0xbc8ce106	-0.017197143
131	0xbe4be5d8	-0.19911897
132	0x3b80e61c	0.003933681
133	0xbe469482	-0.19392589
134	0xbdefccda	-0.11708994
135	0xbd9b836a	-0.075934246
136	0x3d84c8da	0.06483622
137	0x3d082140	0.033234835
138	0x3cacaadc	0.021077566
139	0x3ea018c9	0.3126891
140	0xbe99d153	-0.30042514
141	0xbc3db7c3	-0.011579457
142	0x3cffb420	0.03121382
143	0x3ec61797	0.38689873
144	0x3ebd805d	0.37011996
145	0xbebd27e9	-0.36944512
146	0x3e1f0bdb	0.15531866
147	0xbe431f4a	-0.19054905
148	0xbd85f5a6	-0.06540994
149	0x3ec0150d	0.3751606
150	0xbdc1d6de	-0.09464811
151	0xbeb62727	-0.35576746
152	0x3e32a515	0.17445786
153	0xbe9cc9a3	-0.30622587
154	0xbe5eff9b	-0.21777193
155	0xbe86670e	-0.262505
156	0x3e856678	0.2605474
157	0xbdabad67	-0.08382683
158	0x3e36310a	0.17792144
159	0xbcca5246	-0.024697434
160	0xbdfee707	-0.12446409
161	0x3da24c79	0.07924742
162	0xbeb2a260	-0.34889507
163	0xbdfaea28	-0.12251693
164	0x3c1c5006	0.009540563
165	0xbdd7ac8f	-0.1053096
166	0x3df51b21	0.11968065
167	0xbdb3afd3	-0.0877377
168	0xbd9d06f6	-0.07667343
169	0xbd34c369	-0.04413167
170	0xbd6124dc	-0.054966792
171	0xbe2e3f5c	-0.17016357
172	0xbe229211	-0.15876032
173	0x3d829a80	0.06377125
174	0xbe06ba49	-0.13157
175	0xbd7df03d	-0.061996687
176	0xbdd9212f	-0.106020324
177	0xbe851b19	-0.25997236
178	0xbe66b500	-0.22529984
179	0xbcec2c5c	-0.028829746
180	0xbd1a91c1	-0.037736658
181	0x3e2b71bb	0.16742603
182	0xbd98d27c	-0.07462022
183	0xbe102126	-0.14075145
184	0x3e019308	0.12653744
185	0x3e5f660a	0.21816269
186	0xbf150b5d	-0.58220464
187	0xbe6bea5e	-0.23038623
188	0x3dacb018	0.08432025
189	0x3d3ddede	0.04635512
190	0x3e979a07	0.296097
191	0x3f0a2f13	0.5397808
192	0x3e6e56d0	0.23275304
193	0xbe99c7db	-0.3003529
194	0xbdda4afb	-0.10658833
195	0xbd978b94	-0.07399669
196	0xbe53e556	-0.20692953
197	0x3da18645	0.07886938
198	0xbe8ee087	-0.27905676
199	0x3d56387b	0.052299958
200	0xbe5f2944	-0.21793085
201	0xbca02eb0	-0.019553512
202	0xbe31a412	-0.17347744
203	0xbe524673	-0.20534687
204	0xbe42e0a7	-0.1903101
205	0x3de2e134	0.1107811
206	0x3df1020e	0.1176797
207	0xbe04c7a0	-0.12966776
208	0x3e5fb9f7	0.21848284
209	0xbe2b2b5e	-0.16715762
210	0xbeaf4f95	-0.34240404
211	0x3dd11704	0.10209468
212	0xbf46c1dc	-0.77639556
213	0xbdb5ecd2	-0.088830605
214	0x3eed2a1a	0.46321183
215	0xbe0b341a	-0.13594094
216	0x3c6764ac	0.014123123
217	0xbda577c2	-0.080794826
218	0x3c7c7674	0.015409101
219	0x3ea9d181	0.3316765
220	0xbe225c30	-0.15855479
221	0xbd5915f6	-0.05299946
222	0xbe097a65	-0.13425596
223	0xbdf46ec7	-0.119351916
224	0xbe47ff7a	-0.1953105
225	0x3d082768	0.033240706
226	0xbe15d7ee	-0.14633152
227	0x3e5f0efc	0.2178306
228	0xbe291824	-0.16513115
229	0xbe547952	-0.20749405
230	0xbe3be04e	-0.18347284
231	0xbe67f44e	-0.22651789
232	0x3e1a9266	0.15094909
233	0x3dcec884	0.10096839
234	0x3cb323a0	0.021867573
235	0xbcb75400	-0.022378922
236	0x3d7312a0	0.059343934
237	0xbe732662	-0.2374511
238	0xbd4c1bd8	-0.04983124
239	0x3e080e24	0.13286644
240	0x3d286437	0.041111197
241	0xbd98ed21	-0.07467104
242	0x3e743131	0.2384689
243	0xbea0a500	-0.31375885
244	0x3e03acd3	0.12858896
245	0xbe918100	-0.28418732
246	0x3e1789c0	0.14798641
247	0x3dfec972	0.124407664
248	0xbc300fc0	-0.010745943
249	0xbdd7654f	-0.1051737
250	0xbf0b88ff	-0.54505914
251	0xbe03c0dc	-0.12866539
252	0xbe176fad	-0.14788695
253	0xbde62cc2	-0.112390056
254	0x3e2cc7ae	0.16873047
255	0x3da4b5e2	0.08042504

2.bias f4 [32]
0	0xbe202bc6	-0.15641698
1	0x3e8b33f4	0.27188075
2	0x3e0ca0af	0.13733171
3	0xbd28a668	-0.041174322
4	0xbea34590	-0.3188901
5	0xbe356303	-0.17713551
6	0x3cdf7c0b	0.027280828
7	0xbe0494f9	-0.12947454
8	0x3ce55bb2	0.027997825
9	0xbeaa153e	-0.33219332
10	0xbe1a1b6d	-0.15049525
11	0x3d17845a	0.036991455
12	0xbed29fd7	-0.41137573
13	0xbc9c502b	-0.019081196
14	0xbe3e366a	-0.18575445
15	0xbe2cf368	-0.16889727
16	0x3e107915	0.14108689
17	0x3e56b58a	0.20967689
18	0xbde7c4a2	-0.113168016
19	0xbe40b3bf	-0.18818568
20	0xbe42c4d4	-0.19020396
21	0xbe87c417	-0.26516792
22	0xbe12e605	-0.14345558
23	0xbe3ce5e4	-0.18447071
24	0xbd549388	-0.05189851
25	0xbe8fb3e1	-0.28066924
26	0x3c0ea89a	0.00870719
27	0xbda2fb71	-0.07958115
28	0xbe902ab0	-0.28157568
29	0xbe8a277c	-0.2698325
30	0xbeaf06d1	-0.34184888
31	0xbda819b3	-0.08208027

4.weight f4 [16, 32]
0	0xbcd628f0	-0.026142567
1	0x3e0d0e4f	0.1377499
2	0x3db7f840	0.08982897
3	0xbd2e4139	-0.04254267
4	0x3dce21cc	0.1006504
5	0x3e30cc54	0.17265445
6	0xbbc1a383	-0.0059093847
7	0x3e08a3ce	0.13343737
8	0xbef88451	-0.4853845
9	0x3e19cd17	0.15019642
10	0x3d30405c	0.043030128
11	0xbdb1b990	-0.08677971
12	0x3e244eeb	0.1604573
13	0x3d516fd4	0.05113204
14	0xbd7ac442	-0.061222322
15	0xbe02df8c	-0.12780589
16	0xbe100136	-0.14062962
17	0x3e71eceb	0.23625533
18	0x3d119730	0.035544574
19	0x3d2735bc	0.04082273
20	0x3d6d2392	0.05789525
21	0x3e98f8bd	0.29877272
22	0x3e08b044	0.1334849
23	0xbd06013a	-0.032716013
24	0xbd9128c3	-0.07087853
25	0x3df512fc	0.119665116
26	0xbddcccce	-0.10781251
27	0x3dd1ed73	0.10250368
28	0xbcfcabd0	-0.030843645
29	0x3e057633	0.1303337
30	0x3ea39ae7	0.3195412
31	0xbdfbfa00	-0.12303543
32	0x3e5b10e0	0.21393156
33	0xbcff0737	-0.03113137
34	0x3e5b21a1	0.21399547
35	0x3d9ec467	0.077523045
36	0xbe458134	-0.19287568
37	0xbe7a3264	-0.24433285
38	0xbd97a6c2	-0.074048534
39	0x3d6c5d55	0.057706196
40	0x3c25ddbb	0.010123665
41	0x3bfd826e	0.0077364957
42	0x3e1c4df3	0.1526411
43	0xbdf853ce	-0.121253595
44	0xbe21c35b	-0.15797178
45	0x3e4f5906	0.20248803
46	0xbdbe9eda	-0.09307642
47	0xbe7b13fd	-0.24519344
48	0xbec44b39	-0.3833864
49	0xbe91b12e	-0.2845549
50	0x3df5d0d7	0.12002724
51	0xbd1fdf63	-0.039031398
52	0x3d1ab577	0.037770715
53	0x3d3a7ae3	0.04552735
54	0x3e2ddf94	0.1697982
55	0x3db2ef5e	0.08737062
56	0xbe25cb04	-0.16190726
57	0xbe2229cf	-0.15836261
58	0xbda00501	-0.078134544
59	0x3df306c1	0.118665226
60	0xbdd28c6a	-0.10280688
61	0x3e140a0f	0.14456962
62	0x3e9628f5	0.29328123
63	0x3e00bb8d	0.12571545
64	0x3db34442	0.087532535
65	0x3e30fa08	0.1728288
66	0x3bd4e4e3	0.006497012
67	0x3e4c9d65	0.19981916
68	0x3e38cfc0	0.18048
69	0x3e683b99	0.22678985
70	0x3e225c75	0.15855582
71	0x3e0a5ac9	0.13511194
72	0x3e82d449	0.25552586
73	0xbb048ae6	-0.0020224391
74	0x3ca3a34c	0.019975327
75	0xbefb8a88	-0.49129128
76	0x3dfb5b1f	0.12273239
77	0x3eaec76d	0.34136525
78	0x3c9bbbd8	0.01901047
79	0xbe37753d	-0.17915817
80	0x3e0f3652	0.13985565
81	0xbd7bacb4	-0.061444
82	0x3a969551	0.0011488592
83	0x3d014be4	0.031566516
84	0xbd5a9f0e	-0.053374343
85	0xbd81ff3b	-0.063475095
86	0x3e0076ee	0.12545368
87	0xbecd9755	-0.4015452
88	0x3da6c358	0.081427276
89	0x3e1b2fc4	0.1515494
90	0x3e22b3ad	0.15888853
91	0xbe011064	-0.12603909
92	0x3de324e5	0.110910214
93	0x3db97d9d	0.09057162
94	0xbbd1d978	-0.006404098
95	0x3cdaee52	0.026724968
96	0xbd5a1b2e	-0.053248577
97	0xbe1dd94d	-0.15414925
98	0x3c3b9120	0.011448175
99	0xbcc959e5	-0.024578998
100	0xbdeabc39	-0.11461682
101	0x3d32ff68	0.043700606
102	0x3d80f4dc	0.06296703
103	0x3d2455b2	0.040120788
104	0x3d9dfd37	0.077143125
105	0xbe0e066a	-0.13869634
106	0xbd2991d0	-0.041398823
107	0xbd76dfa2	-0.060271867
108	0xbca6ab80	-0.02034545
109	0x3d9638bd	0.07335041
110	0x3d9ac1c6	0.075564906
111	0x3c991202	0.018685345
112	0xbe539740	-0.20663166
113	0xbdf13732	-0.11778106
114	0xbe0d728b	-0.13813226
115	0xbe261829	-0.16220154
116	0xbe28eac8	-0.16495812
117	0xbe030526	-0.12794933
118	0x3d7f915d	0.06239449
119	0xbe185ac0	-0.14878368
120	0x3e5f7d03	0.21825032
121	0x3e1718fe	0.14755628
122	0xbdb9588b	-0.09050091
123	0xbccbafcc	-0.0248641
124	0xbc5fd133	-0.013660717
125	0x3d7db929	0.06194416
126	0xbda23e7b	-0.079220735
127	0x3dcff73b	0.10154577
128	0x3e0ce731	0.13760068
129	0xbdb6e33e	-0.08930062
130	0xbd651d56	-0.05593618
131	0x3ca03710	0.019557506
132	0x3d77144c	0.06032209
133	0xbe25732e	-0.16157219
134	0x3e0c50e3	0.13702731
135	0x3de9d0e2	0.11416794
136	0x3db50476	0.088387415
137	0x3d07e798	0.03317985
138	0x3d61bc3c	0.055111155
139	0xbe31e5ad	-0.1737277
140	0xbe13439d	-0.14381261
141	0xbde76f2f	-0.113005035
142	0x3cbe24c0	0.023210883
143	0xbd7fdcc2	-0.06246639
144	0xbe15b74f	-0.14620708
145	0xbd8ba675	-0.068188585
146	0xbccead90	-0.025229245
147	0xbd4bbd80	-0.04974127
148	0xbc6f3340	-0.014599621
149	0xbda79992	-0.08183588
150	0xbe1358a2	-0.1438928
151	0x3df76e66	0.12081604
152	0x3d1d7844	0.038444772
153	0x3d961c0e	0.0732957
154	0xbdee91aa	-0.11648877
155	0xbe09a386	-0.13441285
156	0xb8d39800	-0.00010089576
157	0x3cb895a8	0.0225323
158	0x3cb37228	0.02190502
159	0xbe1c63bc	-0.1527242
160	0xbbf61ae0	-0.007510528
161	0x3e913a52	0.28364807
162	0x3e26a8a0	0.16275263
163	0xbe0b392c	-0.13596028
164	0xbe000cd3	-0.12504892
165	0x3ed2d584	0.41178524
166	0x3e22b562	0.15889505
167	0x3e7188e4	0.23587376
168	0xbdda571c	-0.10661146
169	0xbdfffa8e	-0.124989614
170	0x3cdf9555	0.027292887
171	0xbdc548af	-0.09633004
172	0x3d4e12de	0.050310962
173	0xbe544989	-0.20731176
174	0xbc849a88	-0.016186967
175	0x3cb0eb43	0.021596557
176	0xbdf51853	-0.1196753
177	0xbe32b952	-0.17453507
178	0xbd8cdb17	-0.068777256
179	0x3d4c9d15	0.049954493
180	0x3e055e04	0.13024145
181	0x3e08083e	0.13284394
182	0x3e67d31a	0.22639123
183	0x3dc894c0	0.09793997
184	0xbd1571bd	-0.036485422
185	0xbe8d6cfa	-0.27622205
186	0xbd9bdeac	-0.07610831
187	0xbe8dbfb6	-0.27685326
188	0xbe203891	-0.15646578
189	0xbe021460	-0.12703085
190	0x3d8ae040	0.067810535
191	0x3cde6630	0.027148336
192	0x3bf7e5a0	0.007565215
193	0xbeb291d7	-0.34876892
194	0x3c30cb88	0.010790713
195	0x3dc1fe92	0.094723836
196	0xbe0340ac	-0.12817639
197	0xbdf249d2	-0.11830486
198	0xbd84deac	-0.06487784
199	0xbc17a24b	-0.009255002
200	0x3e32dfc7	0.17468177
201	0xbdcfd3db	-0.1014783
202	0x3e54080c	0.20706195
203	0x3e92972d	0.28630963
204	0x3df4d2f7	0.11954301
205	0x3e030bdb	0.12797491
206	0x3e104ecd	0.1409256
207	0xbd32f9c4	-0.043695226
208	0xbd8e1050	-0.06936705
209	0xbdefd1a9	-0.117099114
210	0xbea74192	-0.32667214
211	0xbd75ed56	-0.060040794
212	0x3c102640	0.008798182
213	0xbdd800b3	-0.10547008
214	0xbe2f1e4c	-0.17101401
215	0x3dd36c04	0.10323337
216	0xbcc15d64	-0.023604102
217	0xbdbd320a	-0.0923806
218	0xbe397f9e	-0.18115088
219	0xbd8d0a84	-0.06886771
220	0xbddd280a	-0.107986525
221	0x3d968466	0.07349472
222	0x3de6c5e3	0.11268213
223	0x3db365bc	0.08759639
224	0xbdd0a32f	-0.10187375
225	0x36d79200	6.424496e-06
226	0x3c23289a	0.009958411
227	0x3e66e58c	0.22548503
228	0xbe5fb452	-0.2184613
229	0xbd9201ce	-0.071292505
230	0xbecd62a2	-0.40114313
231	0xbd9232f0	-0.07138622
232	0xbe04076d	-0.12893458
233	0x3ad28ceb	0.0016063725
234	0x3c9c4ec1	0.019080522
235	0x3e3f4180	0.1867733
236	0x3dee77bf	0.116439335
237	0x3df16498	0.11786765
238	0xbcb6de80	-0.022322893
239	0x3e5d1b92	0.21592548
240	0xbe21519a	-0.15753785
241	0xbeba5f18	-0.36400676
242	0x3ea1b1dd	0.3158101
243	0xbe32a65c	-0.17446274
244	0x3ce92981	0.028462173
245	0x3dde84c2	0.10865165
246	0xbeb50b33	-0.35360107
247	0x3dd32a6f	0.10310828
248	0x3d68bb22	0.05681909
249	0xbea771a9	-0.32703903
250	0x3e28a9d5	0.16471036
251	0x3e7ddec3	0.24792008
252	0x3de9bc58	0.11412877
253	0xbe8cc8a2	-0.2749682
254	0x3de96cc7	0.11397701
255	0x3e80a402	0.25125128

4.bias f4 [16]
0	0xbdaf35da	-0.08555193
1	0xbd89291a	-0.066972926
2	0xbdc2a74b	-0.09504565
3	0xbe5de9b8	-0.21671188
4	0xbd9df00e	-0.077118024
5	0xbd59de5a	-0.053190567
6	0xbe159a5c	-0.14609665
7	0xbd194ebd	-0.037428606
8	0xbd979d69	-0.074030705
9	0x3dfcbe3d	0.123409726
10	0xbe1bcf27	-0.15215741
11	0xbd038360	-0.03210771
12	0xbd985694	-0.074383885
13	0xbdde0b6c	-0.10842022
14	0xbe283758	-0.16427362
15	0xbd8d1e1a	-0.06890507

6.weight f4 [25, 16]
0	0xbec641cb	-0.3872207
1	0x3e9478ae	0.2899832
2	0x3e31185b	0.17294447
3	0x3da6b871	0.08140648
4	0x3d975ee4	0.07391146
5	0xbea02073	-0.31274757
6	0x3e0c1f99	0.13683929
7	0xbd1308e2	-0.035897143
8	0x3e43b177	0.19110666
9	0x3d069a49	0.03286198
10	0xbcaf5286	-0.021401655
11	0xbe0f788e	-0.14010832
12	0xbe767144	-0.24066645
13	0xbe091026	-0.13385066
14	0xbe313ad0	-0.17307591
15	0xbe2834c4	-0.16426378
16	0xbeeb20a1	-0.4592333
17	0xbe2dd805	-0.16976936
18	0xbe6bf821	-0.23043872
19	0xbead6371	-0.3386493
20	0x3d283b40	0.04107213
21	0xbd7caf6c	-0.061690733
22	0xbdd37fa0	-0.10327077
23	0x3e546508	0.20741665
24	0x3de653d3	0.11246457
25	0xbe9d8903	-0.30768594
26	0x3dcaa8c0	0.09895468
27	0xbe539e32	-0.20665815
28	0xbe2c8341	-0.16846944
29	0xbc456dd5	-0.012050112
30	0x3def7c48	0.11693627
31	0xbe51bc70	-0.2048204
32	0xbe8fd079	-0.2808874
33	0x3e3f828e	0.18702146
34	0x3e617c30	0.2202003
35	0xbe810c8e	-0.2520489
36	0x3dfd126c	0.12357029
37	0x3e9a11ca	0.30091697
38	0xbc5f93ce	-0.013646079
39	0x3e702bfe	0.23454282
40	0x3dcfde26	0.10149793
41	0x3d302a2f	0.04300898
42	0x3d31c954	0.043404892
43	0xbda1ddcb	-0.07903632
44	0x3e8b0e71	0.27159455
45	0xbe143b5a	-0.14475766
46	0xbde1613e	-0.110048756
47	0xbe885e43	-0.26634416
48	0xbe77a872	-0.2418535
49	0xbdb8acdc	-0.09017345
50	0x3e48dda2	0.19615796
51	0x3d807095	0.06271473
52	0x3cd88580	0.026430845
53	0xbe2f5f6f	-0.17126249
54	0x3d7b5234	0.061357692
55	0xbf45868b	-0.7715842
56	0xbdfa7c4c	-0.12230739
57	0xbd16c000	-0.0368042
58	0xbe5c9435	-0.21540911
59	0x3e771c85	0.24131973
60	0xbddc2611	-0.10749448
61	0x3e026f2d	0.12737723
62	0xbde6be11	-0.11266721
63	0x3e532e7d	0.20623203
64	0x3e6dedc6	0.23235235
65	0x3d773340	0.06035161
66	0x3d2dc54e	0.042424493
67	0xbde4d6b8	-0.11173767
68	0xbce05be0	-0.02738756
69	0x3e8d0bf3	0.2754818
70	0xbcd4ffe9	-0.026000934
71	0xbf2f0407	-0.6836552
72	0x3e3e23ab	0.18568294
73	0x3c118f53	0.008884269
74	0xbebd3468	-0.36954045
75	0x3d6bcfc4	0.057571188
76	0x3e42803e	0.18994233
77	0xbd5e15c4	-0.054219976
78	0xbe808047	-0.25097868
79	0x3e25da66	0.16196594
80	0x3d9747fa	0.07386775
81	0x3d1986fd	0.03748225
82	0xbe30785a	-0.1723341
83	0x3e1de484	0.15419203
84	0xbe4bce76	-0.19902977
85	0xbea1d1fe	-0.31605524
86	0xbefdd16b	-0.49573836
87	0xbbe06395	-0.0068478086
88	0x3d376f1d	0.0447837
89	0xbd5af795	-0.05345877
90	0x3e9357d2	0.2877794
91	0xbd7e7d45	-0.062131185
92	0xbc63455c	-0.013871517
93	0x3d6d7b0f	0.057978686
94	0xbe1b71d0	-0.15180135
95	0x3d6831fa	0.056688286
96	0xbeba824e	-0.3642754
97	0xbe9d31a0	-0.30701923
98	0x3e3bfd5b	0.18358366
99	0x3e3cc3d4	0.18434078
100	0xbe132e06	-0.14373025
101	0x3dcdce90	0.10049164
102	0xbd059e88	-0.03262189
103	0xbeaeceb7	-0.34142086
104	0x3ded982f	0.11601292
105	0x3e2a0a54	0.16605502
106	0x3d3171a0	0.043321252
107	0xbe4a57b7	-0.19760023
108	0x3d1aff62	0.03784121
109	0xbda2380d	-0.07920847
110	0xbf222d25	-0.63350135
111	0x3e79405f	0.24340962
112	0x3e0449de	0.12918803
113	0x3e5b1a0f	0.2139666
114	0x3d9f73c0	0.077857494
115	0x3cfeda54	0.031109966
116	0xbca388d0	-0.019962698
117	0xbe5b4146	-0.21411619
118	0xbcccdd08	-0.02500774
119	0xbe050c0f	-0.12992881
120	0xbe458e28	-0.1929251
121	0x3dc738c9	0.09727628
122	0xbe85e987	-0.2615473
123	0xbe4b3656	-0.19844946
124	0xbe2adf70	-0.16686797
125	0xbe2c34cc	-0.16817015
126	0x3e218982	0.15775111
127	0x3d5230de	0.051316135
128	0xbed56f79	-0.4168661
129	0x3e5e7e92	0.2172797
130	0x3e239755	0.15975697
131	0x3d90cea5	0.07070664
132	0x3d0a7900	0.0338068
133	0xbeae1659	-0.34001425
134	0xbe1a7503	-0.15083699
135	0x3e85bab3	0.26119003
136	0x3e18d9f2	0.1492689
137	0x3cb7b897	0.022426886
138	0x3e9e9d30	0.309793
139	0xbe2db2e3	-0.16962771
140	0xbd3bb98c	-0.04583125
141	0xbdeb77fc	-0.114974946
142	0x3c5af4c5	0.013364022
143	0xbef66496	-0.48123616
144	0xbd5f38ab	-0.054497402
145	0x3d0fe8f2	0.035134263
146	0xbe39e5fb	-0.18154137
147	0xbec513fb	-0.38491806
148	0xbe4838ba	-0.1955289
149	0x3e45bb4e	0.19309732
150	0xbe67e65c	-0.22646469
151	0xbd34efdd	-0.044174064
152	0x3e2afcff	0.16698073
153	0x3eec71b4	0.461805
154	0x3e19c664	0.15017086
155	0xbe638d57	-0.22221886
156	0x3e1e9ffd	0.15490718
157	0x3db3c60f	0.08778011
158	0xbf44cf4d	-0.76878816
159	0x3d5f1c9f	0.054470655
160	0xbeee7e89	-0.46580914
161	0xbc4da0c5	-0.0125505375
162	0xbe912bf1	-0.28353837
163	0xbc559e25	-0.013038193
164	0x3e0fc038	0.1403817
165	0xbe4c1b6f	-0.1993234
166	0x3e06773b	0.1313142
167	0x3e185881	0.14877512
168	0x3e8e1981	0.27753833
169	0xbeaff162	-0.34363848
170	0xbd6f8156	-0.058472954
171	0x3bb09889	0.0053892774
172	0xbe3d8cef	-0.18510793
173	0x3c24f1be	0.010067401
174	0xbd93391a	-0.07188626
175	0xbe081d8b	-0.1329252
176	0x3ca80cfb	0.020514002
177	0x3d885580	0.06656933
178	0xbd1c8cc2	-0.038220175
179	0xbeb13117	-0.34607765
180	0xbe11104a	-0.1416637
181	0x3e5d25b1	0.2159641
182	0xbe51935a	-0.20466366
183	0x3ecfe0e6	0.4060127
184	0x3d3bf86b	0.045891207
185	0xbe4afee2	-0.19823793
186	0xbd0f2820	-0.034950376
187	0x3d33ad16	0.04386624
188	0xbe2ed82a	-0.17074648
189	0x3e83b3ed	0.2572321
190	0x3e4632ae	0.1935527
191	0xbe89ef20	-0.2694025
192	0x3ea745de	0.32670492
193	0x3e9050c8	0.2818663
194	0x3e22d2e9	0.15900768
195	0xbdfd820a	-0.123783186
196	0xbe49585c	-0.19662613
197	0xbe08167e	-0.1328983
198	0xbed1aa9e	-0.40950483
199	0xbf1d8e69	-0.61545426
200	0xbd45a934	-0.048257068
201	0x3e94be68	0.29051518
202	0xbcf9071a	-0.030398894
203	0x3e1732ce	0.14765474
204	0xbe4a1d19	-0.19737662
205	0xbd95b479	-0.07309813
206	0xbebf7b0b	-0.37398562
207	0xbd0262c9	-0.03183249
208	0xbe5810af	-0.21100114
209	0xbef24f56	-0.47326154
210	0xbe02eee0	-0.12786436
211	0x3db8398a	0.0899535
212	0xbe2e51d2	-0.170234
213	0xbed7d7b1	-0.42156747
214	0xbd4bd94c	-0.049767777
215	0xbe851a98	-0.25996852
216	0xbe1e7e70	-0.1547792
217	0xbec662aa	-0.3874715
218	0xbdb67539	-0.08909077
219	0xbd19c6bf	-0.037543055
220	0x3e0d8bec	0.13822907
221	0xbeab7b7f	-0.33492658
222	0xbe566b50	-0.20939374
223	0x3e9ae1a7	0.30250284
224	0x3ecb8977	0.39753315
225	0x3e1ac1bc	0.15112966
226	0xbe8ac4ed	-0.27103367
227	0x3c76123c	0.015018996
228	0xbe09d18c	-0.13458842
229	0xbe3d3a9d	-0.1847939
230	0xbf05f2fb	-0.52323884
231	0xbeaeb6ec	-0.34123933
232	0xbd82ff46	-0.06396346
233	0xbe4297f7	-0.19003282
234	0xbdb2b9b3	-0.087268256
235	0xbc584ded	-0.013202173
236	0xbd3f4680	-0.046698093
237	0x3d11e263	0.03561629
238	0xbd4dbd73	-0.0502295
239	0xbe16375e	-0.14669558
240	0xbe316e25	-0.17327173
241	0xbb8942b8	-0.0041888617
242	0xbd21e9f8	-0.03952977
243	0x3d76b90b	0.060235064
244	0xbd1c7720	-0.038199544
245	0xbe074909	-0.13211454
246	0xbe4bfa44	-0.19919688
247	0x3e093c83	0.1340199
248	0x3de9dfba	0.114196256
249	0xbeb466fd	-0.35234824
250	0xbd52acd1	-0.05143434
251	0xbe1c307c	-0.1525287
252	0x3d30cca6	0.043163918
253	0xbdd7dbf7	-0.10540002
254	0x3e9882c2	0.2978726
255	0xbf26570b	-0.6497657

6.bias f4 [25]
0	0x3cfd026a	0.03088494
1	0xbd481df8	-0.048856705
2	0xbd57f88d	-0.05272727
3	0xbde726e5	-0.112867154
4	0xbdc31268	-0.09524995
5	0x3d86cdee	0.06582247
6	0x3c0720c8	0.008247562
7	0xbde3912b	-0.11111673
8	0xbccdcc28	-0.025121763
9	0xbb83891b	-0.004014147
10	0x3d7197ed	0.05898278
11	0x3e07bc39	0.13255395
12	0xbbb01b0e	-0.005374319
13	0x3dd41671	0.10355843
14	0x3c8079a4	0.015683003
15	0x3d080ce4	0.03321542
16	0x3dd54a95	0.10414616
17	0xbd6d5661	-0.057943705
18	0x3dda1aad	0.10649619
19	0x3da8ccf0	0.08242214
20	0xbcb491b8	-0.02204214
21	0xbd461170	-0.048356473
22	0xbcb0123e	-0.021493074
23	0x3dbe438e	0.09290229
24	0x3c7e879c	0.0155352615
