models_5nomix/checkpoint0.pth.tar (torch_old, 9006 bytes, 8 tensors)

0.weight f4 [16, 26]
00000000: 3faf cfbb 77ea 943c e294 1d3d 496f 99bc
00000010: 82be a6bc 2584 d63d 9472 65bd 9dd8 0f3e
00000020: f6c9 e13d fc00 5b3e 314e 433e a14a 813e
00000030: eb45 f1bd bed4 00bd 3b19 cd3d 5d7e 2e3e
00000040: 08d7 6b3e 2051 00be 709d d33d 2202 1c3e
00000050: 014c 6cbd 729c cfbd 738f e0bd af31 483e
00000060: 0065 4c3e 60cb 03be 1333 743d d24a 0b3e
00000070: b881 2b3e e7d7 163e 0e63 58bd 01fa abba
00000080: 8d2f 74bd dcdb 783b e32f c1bd 84d1 dcbc
00000090: b725 eabd e6af 093c 09ac 12be 25b5 5e3e
000000a0: 656a c4bd a8b9 123c b2c4 85bd 1e34 0dbe
000000b0: 04e7 963c 9460 babd 545a 08be dcc2 733e
000000c0: c30e 723c 66fc 05be fbf5 83bd 0ad4 523e
000000d0: 83cf 6b3e 3dde 15be 5601 19bc 65be 863d
000000e0: 9c66 91bd 5620 1cbe 7ce4 13bd e47a ae3d
000000f0: 7522 163d 4a6c f63d 3ed2 3f3e f15c 303e
00000100: 468a 40bd 6f26 8dbd 51a3 ec3d 7e2b 753e
00000110: b939 083c 42ea 92bd 58fc b1bd f40a 0a3e
00000120: 139d bd3c c9bd 3fbd c4e3 eeba 3087 7e3d
00000130: 86d2 373e 0066 1c3d e79a 5dbd 21a0 b6bd
00000140: f847 eebd 484b 8abd c988 a3bd 38d4 e4bd
00000150: e9fe 24be f451 fcbd 0a30 03be 8837 323e
00000160: 9aeb 963d 5b11 1b3e 8235 a43d cfb2 14bd
00000170: d409 19be 9cee ecbd ddc1 de3d d460 c13d
00000180: 0fcf 0d3d f423 153e fe92 32be 432c d7bd
00000190: 97dd 3bbd 0890 633d 690e e83d b8e5 8abd
000001a0: af80 39bd 6520 40bd 92b7 0c3e f0c0 b53d
000001b0: 0f66 28be c05b c4bd 1f8f 093e 1ff4 c5bc
000001c0: 7a88 783e 62f4 a73d 1957 713e 0a5f 00be
000001d0: 6781 353d 23b7 5dbd adea 073e 65fd 85bc
000001e0: 7fdc 733d 64f5 363d bb92 793d 624c 1abe
000001f0: afa7 6e3e 9ae3 7d3d fcd7 4bbe 59a6 28be
00000200: 3efd 78bc 0bdb d8bd 659c fb3c ad6f 293d
00000210: 24e1 173e 8be6 153e 84ec dd3d ffb8 cdbd
00000220: adf2 0f3e feeb c6bd 53a1 fe3d bc2b b1bc
00000230: 8481 cb3c 6e3a 09be 63e7 50bd 933f fcbd
00000240: caab da3d d993 97bd a370 7e3c 20e8 0dbe
00000250: 4c0c 263e 40f1 42be 7e17 b3bd 3ff8 7cbc
00000260: 00d3 443e 328c fabc ee61 29be 7e8b 14be
00000270: b2d4 afbd 57f5 c93d c467 4fbe fbf3 df3d
00000280: d60e 163d ce33 67bd 7fac ab3d a2e0 70bc
00000290: 5fb6 3bbe 028d 19be 0bed b2bd 0269 e0bc
000002a0: b88e 833d e997 1f3e 5e69 443d 97e3 3dbd
000002b0: 55e2 bf3d f8d0 2c3e 9d9b 893d ce39 4c3e
000002c0: e976 2d3e 4ba9 7dbc 382c 2a3e 70cb 123e
000002d0: 23b5 efbd 64f5 8a3d c5d0 a7bd ca5d 1c3d
000002e0: d57b 59bd 1038 273e 083b 463e 7bb1 a6bd
000002f0: 2790 9d3d 92c3 723d d477 10bc 55fb d03d
00000300: acff 7b3d 501e ed3d 3245 a33d d788 2cbe
00000310: 8f03 b13a a0ac 2ebe 8f2b 95bd f2cb 3b3e
00000320: df89 1abe 9d12 67be 6990 b1bc 9f6f 0ebe
00000330: 565d 90bd 61cd 52bb 03b4 0abd 7ae1 37be
00000340: c291 0cbe ff93 66bd e1d6 c8bc 8655 1e3c
00000350: 2e9c e33c 9443 d639 9efd 01be 8280 4fbe
00000360: 1a41 20be a803 28bd 7e1c 0bbe 3f7a 4fbe
00000370: 84d2 b83d 6d7e d6bd 235a bb3d 7b8b a53d
00000380: 9ac5 9ebd 9a10 83bd 927d f33d 5611 833c
00000390: 043d 3e3e b646 c8bc cb4b 443e e8d9 28bd
000003a0: 920e 0e3e 67f9 453d b487 cabd ac88 d3bd
000003b0: 9f70 893d 4674 0fbd c3c5 b13d 0664 063e
000003c0: e297 2bbe d4f1 ec3d 7f02 1ebd cb1d 3ebc
000003d0: ca29 a33b 5458 9abd 6944 47be 4fe6 0bbe
000003e0: 8226 14be e49d ccbd 2ab9 7c3d 12f0 be3d
000003f0: 74fb 9bbd 55ac 4ebe 76f5 9a3d 4108 7abd
-0.0063380296 0.018178208 0.038472064 -0.018729823 -0.020354513 0.10474423 -0.056017473 0.14047475
0.11024849 0.21387094 0.19072796 0.2525225 -0.11780914 -0.031452887 0.10014578 0.17040391
0.23031247 -0.12530947 0.10332763 0.15235189 -0.05768967 -0.101372615 -0.10964861 0.19550203
0.19960403 -0.1287055 0.05961902 0.1360276 0.16748703 0.14730798 -0.05282884 -0.0013120772
-0.05961566 0.0037972843 -0.09432962 -0.026955374 -0.11432975 0.008403754 -0.14323439 0.21748789
-0.09590606 0.008955397 -0.06531657 -0.13789412 0.018420704 -0.09100452 -0.13315707 0.23804802
0.014774027 -0.13084564 -0.064434014 0.20588699 0.23028378 -0.14635558 -0.009338697 0.065792836
-0.07099649 -0.1524671 -0.03610657 0.08519533 0.036653955 0.12032373 0.18732545 0.17222954
-0.047006868 -0.06892096 0.11554588 0.23942372 0.008314543 -0.071735874 -0.08690709 0.13480741
0.023146188 -0.046811853 -0.0018225838 0.062140644 0.17951402 0.038183212 -0.054102805 -0.08917261
-0.11634821 -0.0675264 -0.07985074 -0.1117329 -0.16112866 -0.12320319 -0.12811294 0.17403996
0.07369156 0.1514334 0.08018018 -0.036303338 -0.14945155 -0.115689486 0.1087682 0.094422966
0.034621295 0.14564496 -0.17438886 -0.10506489 -0.04586562 0.05555728 0.113308735 -0.067820966
-0.045288738 -0.046905894 0.13741902 0.088746905 -0.16445182 -0.095878124 0.13433503 -0.024164258
0.24270812 0.08200909 0.23568381 -0.12536255 0.04431286 -0.05412973 0.13273115 -0.01635618
0.059536453 0.044667616 0.06093095 -0.150682 0.23306154 0.061984636 -0.1990661 -0.16469707
-0.015197096 -0.10588654 0.030714223 0.041366268 0.14831978 0.14638726 0.108361274 -0.10045051
0.14057417 -0.09712981 0.12433114 -0.0216273 0.024842031 -0.13401195 -0.051001918 -0.12316813
0.106772974 -0.074012466 0.015529784 -0.1385808 0.16215628 -0.19037342 -0.08744715 -0.015440046
0.19221115 -0.030584428 -0.16541263 -0.14506337 -0.0858549 0.09861248 -0.20254427 0.109352075
0.036635242 -0.05644589 0.083825104 -0.014701994 -0.18331288 -0.14995196 -0.087366186 -0.027393822
0.06423706 0.15585293 0.04795205 -0.046359625 0.09369341 0.1687659 0.06719134 0.19943926
0.16939892 -0.015482257 0.1661843 0.14335418 -0.11704471 0.06785086 -0.081941165 0.03817538
-0.05309661 0.1632998 0.19358456 -0.081393205 0.076935105 0.05926854 -0.008817632 0.10204188
0.061523125 0.11578047 0.07972182 -0.16849075 0.0013505089 -0.17058039 -0.07283699 0.18339518
-0.15091656 -0.22565694 -0.021675305 -0.13909768 -0.070490524 -0.0032165872 -0.03386308 -0.17957106
-0.13727477 -0.056293484 -0.024516525 0.009663945 0.027784433 0.0004086761 -0.12694404 -0.20263866
-0.15649834 -0.041019112 -0.13585088 -0.20261477 0.09024528 -0.104733326 0.091480516 0.080832444
-0.07752533 -0.06399651 0.11889185 0.015999477 0.18577963 -0.02444778 0.19169538 -0.041223437
0.13872746 0.04833355 -0.098891646 -0.103288025 0.06710934 -0.035022996 0.08680298 0.13124093
-0.16757157 0.115695626 -0.0385766 -0.011603783 0.004979347 -0.075363785 -0.1945969 -0.13662075
-0.14467815 -0.09991053 0.061700024 0.093231335 -0.0761632 -0.20182927 0.07566349 -0.061043028

0.bias f4 [16]
00000000: 05ad 2f3d 94d3 c6bc f2f4 0a3e 2575 37bc
00000010: 8c4c 26bc 0d98 32bd 9d3b 3e3d c2ce f13d
00000020: 4882 fcbd 2724 4ebe 1368 e33b dcc7 ab3d
00000030: 516b df3c fba6 95bd 6dcc 6f3d 56e1 ad3d
0.042889614 -0.02427081 0.13570002 -0.011197363 -0.010150086 -0.04360204 0.04644357 0.11807014
-0.12329537 -0.20130979 0.006939897 0.083877295 0.027272852 -0.073072396 0.058544565 0.08490245

2.weight f4 [32, 16]
00000000: a214 6fbe 229d 63be 4c73 8abd d660 7abe
00000010: 48aa b7bd d09e 2b3d e669 52be 08db c6bd
00000020: 26d5 36be 405e 333e 96bb 26be f4a4 08be
00000030: e632 11be bcfb 5a3e 0072 323a 8800 343e
00000040: 339d b33d 6826 463e 0c65 e33d 1c97 593e
00000050: 447a da3d 66f9 19be 1364 d63d 073f 28be
00000060: 86c2 b6bd 2423 86bd f5f3 663d c3c4 15be
00000070: d6b1 9ebd 6702 3a3d bf66 b6bd 7737 24be
00000080: 0061 3ebe 4c10 003d 0b38 1a3d a133 22be
00000090: 6fe7 85bd 6c13 94bd f998 be3d 1bb9 823d
000000a0: fedb 3d3e f777 3f3e 9653 bb3d 946e 41bd
000000b0: 4a84 613e c719 103e 94f5 80be 2a93 353d
000000c0: a102 78be b2f6 7abe 2ae5 ac3d 5fd5 0ebd
000000d0: f272 33bd 77ce 983c 1963 993e 13e3 ee3b
000000e0: 47c3 bcbd bcdd 373e 0752 fd3d a6ad d03c
000000f0: bd75 b4bd 1c9b 853e d287 7d3d 91f9 8d3d
00000100: 4cdd 3dbc 290d 793e 3081 b63d ab15 12be
00000110: 50ab 253e ded6 393d 1a9e 21be cf6c 1dbd
00000120: 36bb a63b 34b1 243e a533 7d3e f260 26bd
00000130: 8543 25be aa29 dc3d 8dc2 2f3e f487 82be
00000140: 40ba 063c a258 0c3e 8c8a 7bbe 5873 573d
00000150: 0082 72ba a280 5dbe 4069 5a3d a464 a53d
00000160: b218 22be 36de 74be acdb 45be 98b5 30bd
00000170: c4ee cbbd 30ba 3d3e a467 b43d 5081 ccbd
00000180: c4f6 8d3e 4bec 0dbd 3bd0 32be ea85 b53d
00000190: dd8e 563e dfc2 163e 30b3 d4bd a36f 093e
000001a0: 99db 99bd abdd e53d 657f 24be 99ff f03d
000001b0: d2e6 10be 5fad 0cbd a4b1 ecbc f6ed 91bd
000001c0: 01fb 6b3e 9d6f 36be 8fde ff3d e9f6 edbd
000001d0: 296f 503e c7f8 ccbd ad47 283e 7736 27be
000001e0: 111b e83d 67da 0dbe 50ab 4e3c a1cb f13d
000001f0: 0934 b9bd faf6 923e 051d 06bd 2463 f33d
00000200: ba30 1d3e 4a00 4e3d f4c4 0f3d 2456 30be
00000210: b455 dd3d 94cf 00be 1bcd 5bbe cf27 95bd
00000220: b6ce fa3b d177 543d d43c 903e d892 553e
00000230: 427d 4cbe f09e b2b9 add3 c63d b84d 4b3e
00000240: f030 6c3e 9e53 c5bc 1885 473d 0a21 3cbe
00000250: 44c2 35bd 93fe 0d3e 4fa4 4dbc 008d fbbd
00000260: e0ad 3b3e f1a8 49be b479 0a3e ed79 18be
00000270: e8aa 423e 7635 0dbe c26d 193e 6942 bbbd
00000280: 450b 0bbc 7a95 823e 15f8 5ebe 149a e8bd
00000290: aa26 d7bb 7e67 46bc f8f6 883e 0c7c 233d
000002a0: 545a 81bd 7b79 393b 7c1d cebd b44c 2abc
000002b0: da3e 13bd c297 ce3d daf9 403e 8d81 e23d
000002c0: 8f36 65be c01d 1bbe 7e5e bebd d0b4 eb3c
000002d0: d920 223e 4986 b7bc 5aa6 bebd ce7d aabd
000002e0: 9d43 433e 2178 b13d c933 44be 8dcd 45be
000002f0: 6c92 1f3e dede 23bd cb40 2e3e 9492 9c3e
00000300: 10f2 1d3e 48f3 84be a34e 11be 948b 97bd
00000310: 494c 85bd ea5b 0c3e e888 97bd 16f9 1dbd
00000320: 4429 5fbe b04e a1bd 511e 73bd 478a 5bbe
00000330: e85e b0bd 34e1 e23d 4965 313e e4fd 1ebc
00000340: 72be 72bd 658a edbc c5f1 04be 8665 603e
00000350: 979f 59be af19 d33c 321e 673e eb20 79be
00000360: 3f8d 4abd 8332 94bd cb53 1a3c 4526 393e
00000370: d189 17be 897b 01bc 8106 4abe 70b8 3abe
00000380: 7aff 47be 6827 083d eed7 15be fc0e 5f3e
00000390: 2418 29be 5279 54be 4ee0 3bbe 4ef4 67be
000003a0: 6692 1a3e 84c8 ce3d a023 b33c 0054 b7bc
000003b0: a012 733d 6226 73be d81b 4cbd 240e 083e
000003c0: 2c76 623c ca4a d4bd 8b35 283e 1234 88be
000003d0: 8c25 563d 3b0d 2cbe db4a 173e 5f71 4e3e
000003e0: 4f9b 893c 55f4 8dbd b777 8fbe 6850 d63c
000003f0: 1c55 5dbc 0109 9dbd bb7a 2d3c d3fc a03d
-0.23347715 -0.2222791 -0.067602724 -0.24451002 -0.089680254 0.041899502 -0.2054821 -0.09709746
-0.17854747 0.17516422 -0.16282496 -0.13344175 -0.14179572 0.21385092 0.00068071485 0.17578328
0.08770218 0.19350588 0.111032575 0.2124905 0.106678516 -0.15036544 0.104683064 -0.16430293
-0.08923821 -0.06549671 0.056385 -0.1462584 -0.07748763 0.045412447 -0.08906316 -0.16036783
-0.1859169 0.031265542 0.037651103 -0.15840007 -0.06538283 -0.07230267 0.09306521 0.06382962
0.18540952 0.18698107 0.09146802 -0.047224596 0.2202312 0.14072333 -0.2518736 0.0443298
-0.24219753 -0.2450817 0.08442147 -0.034871455 -0.043810792 0.018653138 0.29958418 0.007290253
-0.09216934 0.17955679 0.12369161 0.025473427 -0.08811519 0.26094902 0.061897106 0.06932367
-0.011588406 0.24321426 0.08911359 -0.14266078 0.16178632 0.04537093 -0.15782967 -0.038433846
0.0050882353 0.16083223 0.24726732 -0.040619798 -0.16139038 0.10750134 0.17164059 -0.2549435
0.008223116 0.13705686 -0.2456457 0.052600235 -0.0009250939 -0.21631101 0.05332303 0.08075836
-0.15829733 -0.23912892 -0.1932208 -0.04314193 -0.0995765 0.18528056 0.088088304 -0.09985602
0.2772733 -0.034649175 -0.17462246 0.08863433 0.20952936 0.14722775 -0.1038574 0.13421492
-0.07512588 0.112239204 -0.16064222 0.117675014 -0.14150551 -0.034345027 -0.0288933 -0.071254656
0.23044969 -0.17816015 0.124936216 -0.1161936 0.20354904 -0.10008388 0.16433592 -0.1632937
0.113332875 -0.13852845 0.012614086 0.11806417 -0.09043128 0.28704053 -0.03274252 0.11884144
0.15350619 0.050293244 0.03509994 -0.1722036 0.10807362 -0.12579185 -0.2146496 -0.072829835
0.0076540364 0.05187208 0.28171408 0.20856798 -0.19969657 -0.00034069223 0.09708343 0.19853866
0.23065543 -0.024087723 0.048710912 -0.18371978 -0.04437472 0.13866644 -0.012551381 -0.12282753
0.18328047 -0.19693352 0.13522989 -0.14890261 0.19010508 -0.13789925 0.14983276 -0.09143526
-0.008486574 0.25504667 -0.21774323 -0.11357513 -0.0065658884 -0.012109635 0.26750922 0.039913222
-0.06316057 0.0028301168 -0.100642174 -0.010394264 -0.03594861 0.10087539 0.18845311 0.11059866
-0.22384094 -0.15148067 -0.09295367 0.028772742 0.15832843 -0.0224029 -0.09309073 -0.083247766
0.19068761 0.08665491 -0.1916038 -0.19316693 0.155832 -0.040007465 0.17016904 0.3058058
0.15424371 -0.2596686 -0.14190154 -0.07399669 -0.06508691 0.13706937 -0.0739916 -0.038567625
-0.21793085 -0.078763366 -0.059355084 -0.21439467 -0.08611852 0.1107811 0.17323793 -0.009704087
-0.059263654 -0.028996656 -0.12982853 0.21913728 -0.21252285 0.025769083 0.22570112 -0.24328963
-0.04945111 -0.07236197 0.009419392 0.18081005 -0.14798667 -0.007902988 -0.19729044 -0.1823442
-0.1953105 0.033240706 -0.14633152 0.2178306 -0.16513115 -0.20749405 -0.18347284 -0.22651789
0.15094909 0.10096839 0.021867573 -0.022378922 0.059343934 -0.2374511 -0.04983124 0.13286644
0.01382212 -0.103658274 0.16426675 -0.26602226 0.0522819 -0.16801922 0.14774649 0.20160435
0.01679769 -0.06931368 -0.28021023 0.026161388 -0.013509061 -0.07667733 0.010588343 0.078607224

2.bias f4 [32]
00000000: e002 02be 6133 973e 760d 8a3e 2495 173e
00000010: 440c 29be 1ebe 21be df05 053e e04e 633d
00000020: 9778 6f3d e4ff 1abe 89a0 1e3c 330d ac3d
00000030: 3ef2 91be bda1 823b 6a36 3ebe 3380 d03c
00000040: e546 543e cb79 903e 9b6f 923d fecd 6ebd
00000050: cf34 8fbd 02e6 42bd 34eb 7cbc 9a15 92bd
00000060: 73ac eb3b 395a f8bd 6781 0e3e ba9f 8f3d
00000070: be35 27be c4a4 b6bd e435 37be c978 dc3d
-0.12696409 0.29531386 0.26963395 0.14802986 -0.16508585 -0.1579518 0.12990521 0.055495143
0.058464613 -0.15136677 0.009681829 0.08400955 -0.2850513 0.003986566 -0.18575445 0.025451755
0.20730169 0.2821792 0.07150193 -0.05830192 -0.06992494 -0.047582634 -0.015436936 -0.071330264
0.0071921884 -0.121265836 0.1391655 0.07012887 -0.16329095 -0.08918145 -0.17891651 0.107652254

4.weight f4 [16, 32]
00000000: 23d1 c0bd 4763 003e 0dc3 313d 5056 123d
00000010: 7ace d23c 3e51 a73d 5cce bd3a e649 323d
00000020: 62a1 3cbe 42a1 1a3d 261e 003d 0826 403d
00000030: 14ef 233e 20fa 5cbd 42c4 7abd 08ea 34be
00000040: 807c f53c 90b5 cb3d 6648 f1bc 0b12 e53d
00000050: 4dbc 823d 0245 213e 5f19 053d 875a d8bd
00000060: 961e 113d ad60 fcbd 866a a0bd f5fd 6e3d
00000070: d4e8 9fbd 00fe 06bd 2aff d5bb 4ac2 77bd
00000080: 66e9 bd3d d3aa 343e 6d59 383e c51a 0fbe
00000090: 65f4 eebd be37 ca3d a939 d2bd 11fb 76bc
000000a0: 4a60 b73d 006d a23d 4f49 6b3e 885b fb3c
000000b0: 9d70 13be bbb3 cebd da9e bebd 2b03 24be
000000c0: 39df 20be dd74 82bd 7bb7 333e cecd 1fbd
000000d0: f5ac b43d 0d3b cdbc c8a2 c7bb 635c 483e
000000e0: c0c3 23be e8cf 9f3d e336 96bd 763f ec3d
000000f0: 7d29 aabd c777 00be f839 143e 46b5 8a3d
00000100: 4654 cd3d cc56 623e 4955 0d3d b958 493e
00000110: 9807 523e 4e86 fe3d 4a35 353e 9ce5 093e
00000120: e5a8 383e 82f8 51bd 65cd 2d3d c5ca e7bc
00000130: 7d39 2ebd d2ef 483e d8bb 9b3c e41f 99bd
00000140: 6e1e 1b3e 92e6 c33d 9ced 8b3d 72c3 b3bd
00000150: 76ad c83d 5d49 95bd 6e5e 683d 9232 3fbe
00000160: 707d b33d 2904 463e 44bc 163e d275 363e
00000170: a864 f13b 2c08 1b3e 1e6d b9bc 6400 e03d
00000180: 2e1b 5abd 6a0b 00be 2091 3b3c f01d 683d
00000190: 9993 bdbd 68ff 323d 5e26 fc3d 10bf fdbc
000001a0: 7915 303e 6a06 0ebe bfe7 ebbd a2df 76bd
000001b0: 80ab a6bc 8c66 3a3d c6c1 9a3d 5a85 be3d
000001c0: c49f 10be 9cb4 27bd 88f9 0dbe d0ad 07bd
000001d0: c8ea 28be 0cde 79bd 5b09 1a3e 7891 34bd
000001e0: 8320 283e d978 223e f003 bbbc 65ab 003e
000001f0: 7459 333d 6a07 8f3d 4b86 d1bd a822 0d3d
00000200: 31e7 0c3e 3ee3 b6bd 561d 65bd 1037 a03c
00000210: 4c14 773d 2e73 25be e350 0c3e e2d0 e93d
00000220: 7604 b53d 98e7 073d 3cbc 613d ade5 31be
00000230: 9d43 13be 2f6f e7bd c024 be3c c2dc 7fbd
00000240: 4fb7 15be 75a6 8bbd 90ad cebc 80bd 4bbd
00000250: 4033 6fbc 9299 a7bd a258 13be 666e f73d
00000260: 4478 1d3d 0e1c 963d aa91 eebd 86a3 09be
00000270: 0098 d3b8 a895 b83c 2872 b33c bc63 1cbe
00000280: e01a f6bb 7364 3d3e 3094 503e 962c e5bd
00000290: 9842 ddbd c357 053e b2d4 9e3d 8a45 243e
000002a0: 4289 7abd df03 3dbd 7ce4 553d 4221 b7bd
000002b0: cbb7 2b3e 5e6d eabd 889a 84bc 3d51 0c3e
000002c0: da10 9abc dbd6 36bd 1a3f 81bd 506a 0ebc
000002d0: f73b cc3d 7f8f 8b3d 7242 eb3d 5ad7 263e
000002e0: 812d ae3d 6fc0 86bd 8070 cebd 22fa 00be
000002f0: 7c93 d9bd 1867 733d 6bf1 8bbd 85df e93d
00000300: a0e5 f73b 4a24 cbbd 7e3b e63d 26ec 993d
00000310: f39a 84bd e8c5 b63c f45d 453d 2cca 0ebd
00000320: e3de 2d3e 017f c8bd 8026 6a3b b3b3 113e
00000330: 900b d73c f0fc 8abc cd4e 103e 72ea 01be
00000340: 609e 31be bcc5 04bd dc67 2cbe 56ed 75bd
00000350: 4026 103c f3aa 14be 7088 06bc 3ec4 70bd
00000360: d4ed 68bd 401f 273c 91d7 adbd 18b2 19be
00000370: 0a28 ddbd 6684 963d bc9f 023d 70ff 6c3d
00000380: f287 16be 1414 fd3d cfb8 5abc 6875 d5bd
00000390: 32e6 f3bd 7088 72bd 2ab3 21be 58f7 e1bc
000003a0: ac42 59be cebe 133d e505 42bd 6f4f 033e
000003b0: 6540 97bd 64b9 9dbd 80de b6bc 84c1 973d
000003c0: 872f 08be c8fc 41be 210a 473e 3fe8 04be
000003d0: a6f6 003d 17a3 023e 1bb2 37be a82c f83d
000003e0: ae84 8abd b381 23be 70e6 3dbd b7f6 f83d
000003f0: 0091 43bb 00c7 85bc a2c5 033e 0f3f 2d3e
-0.0941489 0.12537871 0.043398906 0.035726845 0.025733221 0.081697926 0.0014481056 0.043527506
-0.18420938 0.037751444 0.03127875 0.04691127 0.1600917 -0.053949475 -0.061222322 -0.17667401
0.029966593 0.0994674 -0.029453468 0.11185082 0.06383572 0.1574898 0.0324949 -0.10564142
0.03542956 -0.12323127 -0.07832818 0.05834766 -0.0780808 -0.032957077 -0.006530662 -0.060488023
0.09273033 0.1764329 0.18002863 -0.13975056 -0.11667708 0.09873913 -0.10264904 -0.015074507
0.089539126 0.07930946 0.22977184 0.030683294 -0.14398427 -0.100928746 -0.09307642 -0.16016833
-0.15710153 -0.06369946 0.17550461 -0.03901463 0.088220514 -0.025052572 -0.006092403 0.19566493
-0.15992641 0.07803327 -0.073346876 0.11535542 -0.083086945 -0.12545691 0.14475238 0.067728564
0.100258395 0.22103423 0.034505162 0.19662751 0.2051071 0.1242796 0.1769611 0.13466495
0.18033178 -0.051262386 0.042432208 -0.02829493 -0.042535294 0.19622734 0.01901047 -0.07476786
0.15148327 0.09565462 0.0683243 -0.087775126 0.0979871 -0.072893836 0.05673068 -0.18671635
0.0876416 0.19337524 0.14720255 0.17818382 0.0073667355 0.15139836 -0.022635039 0.109375745
-0.053248577 -0.12504354 0.011448175 0.056669176 -0.09256668 0.043700606 0.123120055 -0.030974895
0.17195691 -0.13869634 -0.115188114 -0.060271867 -0.02034545 0.045507953 0.075564906 0.093027785
-0.14123446 -0.040943727 -0.1386472 -0.033124745 -0.16495812 -0.061002776 0.15042631 -0.044084042
0.16418652 0.15866412 -0.022829026 0.12565382 0.04378648 0.06983836 -0.102306925 0.03445688
0.13760068 -0.08930062 -0.05593618 0.019557506 0.06032209 -0.16157219 0.13702731 0.11416794
0.088387415 0.03317985 0.055111155 -0.1737277 -0.14381261 -0.113005035 0.023210883 -0.06246639
-0.14620708 -0.068188585 -0.025229245 -0.04974127 -0.014599621 -0.08183588 -0.1438928 0.12081604
0.038444772 0.0732957 -0.11648877 -0.13441285 -0.00010089576 0.0225323 0.02190502 -0.1527242
-0.007510528 0.1849535 0.20369029 -0.11190145 -0.108037174 0.1302176 0.07755412 0.16042152
-0.061166056 -0.04614627 0.052219853 -0.0894189 0.1676933 -0.114466414 -0.016186967 0.13702865
-0.018806864 -0.044638496 -0.06310864 -0.008692339 0.09972375 0.06814479 0.11487283 0.16293088
0.08504773 -0.065796725 -0.100800514 -0.12595418 -0.106238335 0.05942449 -0.06833156 0.11419586
0.007565215 -0.09919031 0.11241816 0.07515745 -0.06474867 0.022311166 0.048185304 -0.034860775
0.16979556 -0.09789849 0.0035728514 0.14228706 0.02625063 -0.016966313 0.1409256 -0.1268709
-0.17345572 -0.032415137 -0.16836494 -0.060040794 0.008798182 -0.14518337 -0.00821124 -0.0587809
-0.056867436 0.010200322 -0.08488382 -0.15009344 -0.107986525 0.07349472 0.031890616 0.05786079
-0.14700297 0.12357345 -0.013349726 -0.10422784 -0.11909141 -0.05921215 -0.15791002 -0.027583763
-0.2121684 0.036070637 -0.047368903 0.1282327 -0.07385329 -0.07701376 -0.022322893 0.07409957
-0.1329938 -0.18944085 0.19437458 -0.1297922 0.031485222 0.12757526 -0.17939036 0.121178925
-0.06763588 -0.15967445 -0.04636234 0.12156432 -0.0029841065 -0.016330242 0.1286836 0.16918586

4.bias f4 [16]
00000000: 5c4f 45bd c022 383c d66d 63bd 836d 1dbe
00000010: 0ef0 9dbd b4dd 12bd eff3 06be ebf3 abbb
00000020: 6305 163d 5e2d e53d 8978 e4bc 708b 15bc
00000030: 076f 15bd 1431 703d 57c1 b3bd 1f7c 1c3d
-0.048171386 0.011238754 -0.05552467 -0.15373807 -0.077118024 -0.035855964 -0.13178991 -0.005247583
0.03662623 0.11190294 -0.027889507 -0.009127483 -0.036482837 0.058640555 -0.08777111 0.03820431

6.weight f4 [25, 16]
00000000: 0ca3 6cbe 4d74 593e 826a a83d 9464 0e3e
00000010: e45e 973d 744a bbbd c044 ca3b d67f 2ebe
00000020: a567 9d3d 2c67 f7bc 5e05 22be 61b5 debd
00000030: f262 66be 7020 1dbe 3b88 96be 058b d7bb
00000040: 8746 78be 0a47 c93d 80a8 8abe 20ba 1abe
00000050: 403b 283d def1 2d3d 6cdc b53d e14c 783e
00000060: 44cb 723e 3986 55be c2ef 4e3d 0642 26be
00000070: 48cd 53be 42c1 b0bd 8d00 313e c97e 94bd
00000080: 5fa8 11be 7c0e 953e ba1f 2e3e ce01 0ebe
00000090: 6c12 fd3d 70f3 933c 54af 90bd 69b9 4d3e
000000a0: 4959 613d 506d cd3c a74b 803e 9774 9bbd
000000b0: 9bec 653e d232 dd3c 57e9 a9bd 1d3e b8bd
000000c0: f5df 87bd ca64 f63d ce65 5e3e b2f7 103e
000000d0: 8085 d83c 02a6 34be dc56 3d3e b94b 59be
000000e0: 9ef6 33bb b3cb 133c c12e bcbc 46cf 363e
000000f0: 533a 0cbe 9c1b a03d 90b7 c43d c089 673e
00000100: b307 563e ec42 09be b963 363e 1c71 7abe
00000110: e05b e0bc c60f 743e e0b4 aa3c fe59 09be
00000120: 73c3 ab3d 4778 e9bd 3d91 10be aa32 943d
00000130: ef3c 3e3e 0e7f bf3d 85f5 b13d 2ee9 d83a
00000140: 3be5 1cbe 2a55 23bd 5c6b e3bd c8c9 a13d
00000150: 76ce 4bbe a2d0 dfbd 7874 5fbe 19da 943d
00000160: ae7a d0bd 9683 b53d 0a85 343e 520e 07bd
00000170: 2e75 013d 6e1b 0b3e 588c 9a3c 9e45 053e
00000180: c1fc 4fbe e4db 68bd 223c 743e fcbf 2e3e
00000190: 062e 13be 0c92 343e 0e23 303e ce8b 2abe
000001a0: 0853 c03d 80d3 353e df23 4c3e 5d86 41be
000001b0: 0a3f a23d e390 1dbe 80af 2cbe 8e7b 503e
000001c0: 7ed2 0b3d 08f7 8a3e fc82 653e 40ac 083c
000001d0: d088 a3bc a7c7 50be 0887 1fbe f750 53bd
000001e0: 5dfa 5abd f114 6d3e 122a f2bd 0652 3ebe
000001f0: 55cf 84bd 1550 34bd ca43 863e 3cbe fb3d
00000200: b14e 38be f6f6 a9bd cfe7 5f3d 9073 793e
00000210: 0079 0a3d e3d6 55be b812 72bd e42c 043e
00000220: 4921 a7bc 034c ad3c 17a6 a63d 49c1 79be
00000230: d8b7 efbd e3cb 673d e649 9bbd e24d 4abe
00000240: 6f6f a3bd 5bf9 243d bafd 6cbe faae 45be
00000250: ba38 48be b07c dc3d 46c8 0ebe 1d05 79bc
00000260: 6b83 9d3d 5b48 703e 666f 143d 136d 50be
00000270: 549f 683e b721 4c3d 270a 96be bcbc ac3d
00000280: d781 64be bedf 4ebd ebca 35be 2484 ce3d
00000290: 38c0 0f3e 5075 10bc 08c3 07bd 9900 0cbe
000002a0: 3ca4 3b3e 15f1 39be 7880 a83a 4807 f43c
000002b0: 4079 8fbe d318 673d 51cc 83bd 76f6 8cbc
000002c0: b8a2 fd3b 3ff0 883d 1c29 8e3c 9a62 1ebe
000002d0: 4a10 11be 1bd4 533e dc45 aebd 6125 163e
000002e0: c28d 0b3e b084 84be be52 cebd f1f1 9d3d
000002f0: e529 6abe f86c 383e ce9d bdbc 0507 7cbd
00000300: 7ac4 2a3e fa87 263e ec01 163e dc64 fcbd
00000310: 5c58 49be 4cbf c6bd 68a7 57be 2253 96be
00000320: 4787 33bd 3329 153e a8f7 d53d c6f9 303e
00000330: 049c 44be 4af6 623d eb60 1ebe 43c2 1abe
00000340: 21e7 23be fcbd 4abe 3f07 b3bd 4c56 e33d
00000350: d251 2ebe 94f4 87be 6026 18bc 5c82 963d
00000360: 84d6 a6bc b7e8 08be ec6b fcbc 4d4b a1bd
00000370: f379 1a3e bc40 26be b8b6 29bd 52c1 10bd
00000380: fa60 573e 89ae 323e 0818 7bbe c00a 643c
00000390: 8cd1 09be 42a5 c9bc 18d5 6bbd 3c30 8ebe
000003a0: d33c dabd 2004 a4bd 604d 213d 3d46 253c
000003b0: 8fd8 e7bd 3530 09be 778e 43be 50f6 6cbe
000003c0: d7ec 093e 48c5 33bc d005 81bd 5026 a4bc
000003d0: 2077 1cbd b0f1 7ebe 207f 23bc 6b4a 9e3d
000003e0: 12f8 aa3d af81 29be 6fef 59bc 7ad5 09be
000003f0: e3e1 3b3c d75d 10bd 7c28 663e 7291 8bbe
-0.23109072 0.21235771 0.0822344 0.13905555 0.07391146 -0.0914506 0.0061727464 -0.17040953
0.07685784 -0.030200563 -0.1582236 -0.10874439 -0.22498682 -0.15344405 -0.2940081 -0.0065778517
-0.24245654 0.09828003 -0.2708168 -0.15110064 0.04107213 0.04246699 0.08879933 0.24248077
0.23710352 -0.20851983 0.05052162 -0.16236123 -0.20683777 -0.08630611 0.17285366 -0.07250745
-0.14224385 0.29112613 0.1700429 -0.13867876 0.12357029 0.018060416 -0.07064691 0.2009026
0.05501679 0.025076538 0.25057718 -0.07590597 0.22453539 0.027001772 -0.08296459 -0.08996222
-0.06634513 0.12030943 0.21718523 0.14156988 0.026430845 -0.17641452 0.18490165 -0.21220292
-0.0027460228 0.009020734 -0.022971513 0.17852506 -0.13694124 0.07817766 0.09605324 0.22611141
0.20901375 -0.13404435 0.17811479 -0.2445721 -0.02738756 0.23834142 0.020838201 -0.13413236
0.08386888 -0.11399894 -0.14117904 0.07236226 0.18577932 0.09350406 0.08689407 0.0016548985
-0.1532182 -0.03987614 -0.111044616 0.07899815 -0.19902977 -0.109284654 -0.21821773 0.07268161
-0.10179649 0.08862989 0.17628875 -0.03297264 0.031605892 0.13584682 0.01886575 0.13014838
-0.20311262 -0.05685033 0.23851064 0.17065424 -0.14373025 0.17633837 0.17200872 -0.16654894
0.09390837 0.17756462 0.19935559 -0.18898912 0.0792218 -0.15387301 -0.16863823 0.20359632
0.034136288 0.27141595 0.22413248 0.008341849 -0.019962698 -0.20388661 -0.15578854 -0.051590886
-0.05346142 0.2315252 -0.118244305 -0.18585977 -0.06484858 -0.044021685 0.26223594 0.12292144
-0.17998768 -0.08299057 0.05466443 0.2436049 0.0338068 -0.20882754 -0.059099883 0.1290775
-0.020401614 0.02115441 0.08137148 -0.24390139 -0.11704987 0.056590926 -0.075824544 -0.19756272
-0.07980239 0.040276866 -0.23143664 -0.1930503 -0.1955289 0.1076597 -0.13943586 -0.015198973
0.076910816 0.23465101 0.03623905 -0.20354109 0.22717029 0.04983684 -0.2930462 0.08434436
-0.22315155 -0.050506346 -0.17753188 0.100837976 0.1403817 -0.008817032 -0.03314498 -0.13672103
0.18324369 -0.18158372 0.001285567 0.029788628 -0.28022194 0.05642016 -0.06435455 -0.017207365
0.007740345 0.06686448 0.017353587 -0.15467301 -0.1416637 0.2068638 -0.08509418 0.14662696
0.13628295 -0.25882483 -0.100743756 0.07712162 -0.22867544 0.18010318 -0.023146536 -0.06153013
0.16676512 0.16262808 0.1464917 -0.12323925 -0.19662613 -0.09704456 -0.21059954 -0.293603
-0.043830182 0.14566498 0.10447627 0.17282781 -0.1920014 0.05541066 -0.15466659 -0.15113167
-0.16006137 -0.19799036 -0.087416165 0.11100444 -0.170234 -0.26553786 -0.009286493 0.07349083
-0.02036596 -0.13370024 -0.03081318 -0.078756906 0.15085582 -0.16235632 -0.04143402 -0.035340615
0.21033087 0.17449392 -0.24520886 0.013918579 -0.13458842 -0.024614934 -0.05757627 -0.27771175
-0.106561325 -0.08008599 0.03938043 0.010087547 -0.11320602 -0.13397296 -0.19097315 -0.23140836
0.13469253 -0.0109723285 -0.06299937 -0.0200378 -0.038199544 -0.24896884 -0.009979039 0.07729038
0.08348097 -0.16553377 -0.013301714 -0.13460341 0.01146743 -0.035245743 0.22476381 -0.27259403

6.bias f4 [25]
00000000: 421a 913a f042 473d 144b 0dbe 9ea1 d3bc
00000010: 45af f4bd 6c58 8cbd b655 a8bd d991 0ebe
00000020: e3b8 42bd 5bd7 5b3d 526f 123e 815a 023d
00000030: 58c8 85bd b2e0 1e3e efbe 003d b72e fe3c
00000040: 4ac6 2d3e 625d bb3d a1ac cd3d 355b 563e
00000050: e9e1 0e3e a5c3 c4bd a31b febc c572 0b3e
00000060: a174 61be
0.0011070448 0.04864782 -0.13798171 -0.025833901 -0.119474925 -0.06852803 -0.08219473 -0.13922824
-0.047539603 0.053672176 0.14300278 0.031824593 -0.06532353 0.15515402 0.03143209 0.031028135
0.16970173 0.09148671 0.10042692 0.2093323 0.13953365 -0.09607629 -0.031019038 0.13618
-0.22017147
