demo_5x5/checkpoint249.pth.tar (torch_old, 502895 bytes, 10 tensors)

0.weight f4 [256, 26]
00000000: b18c 4fbc 10a1 723e 3070 99bd 44d4 1fbe
00000010: 4251 003e d91f 8d3b 3548 553d b84a 5c3e
00000020: f358 69be 4154 493d 2934 803d 2f1d 563d
00000030: 1a72 61bd c4af babd fd56 7aba 1d97 973d
00000040: 6404 863d b3d4 ba3c d807 e53d 21f0 edbd
00000050: 5005 253e 192d 6c3e 7f56 23be 1a64 ef3d
00000060: 7e6d c6bd 01c7 efbd ef7b 39bc 8408 3abd
00000070: e4f1 c13d 382f 05bd cd06 1cbe feef f0bd
00000080: 33a1 0b3e e3d3 13bc ef93 2e3e 7446 56be
00000090: 037e e73d 6f5a 05bb 0b62 273e c724 95bb
000000a0: 2f0c 7fbd 9005 183e 4463 4d3b acfa 893e
000000b0: d351 663e e2a7 953d 13b8 3dbd eab4 893c
000000c0: 0cc6 633e 76b3 6c3e e678 92bc 3d80 80bd
000000d0: 4a3b 283e 7a4b bd3c 1e5b b2bc 8736 8b3e
000000e0: 875d 36be 791a 123c 865b 8abd 0201 1e3e
000000f0: 4307 04be fa84 ebbd 2c67 883e aae4 423d
00000100: 650a 6bbc feba ef3d 6646 9d3e 82aa 893d
00000110: 26fc c1bc ecf3 7b3d aa1c d33c 0c0e 463d
00000120: 31b7 78bd b84d 103e 484f 093c b972 94bd
00000130: 60d3 0e3c 149e 953d f821 3f3e 151a 533e
00000140: f754 613e 6088 8c3d d09b bf3a 2a67 3abe
00000150: 54e1 703d 204b 0c3e 3fda a03d 1633 2c3e
00000160: 355b 483e ecf3 cfbd 5a36 653c cbf6 ed3d
00000170: d2b7 cf3a 77c5 d2bd 8c09 16be b893 b6bd
00000180: 94a4 07be 89d3 823d 468e 5e3e 3598 683e
00000190: 6cbe 253d 699f b43d ec09 19be 6ea6 ec3d
000001a0: 4f8f a0b9 6e81 2a3e f20a 3a3e f4e8 a5bc
000001b0: aa56 b13d f776 513e 5a5c aabd 8ce6 82bb
000001c0: 32a3 063e ff69 98bc c7a2 d9bb 0bee f7bc
000001d0: a256 d23d f3f9 5b3e cb34 1bbe da2e 94bd
000001e0: 880e 963d 92f1 683e f76f 11be 3b11 623d
000001f0: 4c8c 0fbe 476d 6e3e 61fc d6bc df67 373e
00000200: 6af6 553e 3c88 86bb a90b afbc 1cf1 123e
00000210: 994e 9f3d ada3 a8bd 56cf 26be 8ce8 f63d
00000220: e3c3 963d b0c3 a8bc 107c 2e3e 9485 313e
00000230: 2080 17be 19ce 18bc 5659 4c3d 6ea7 563e
00000240: 06fd 88bd 197a 583e aadb d4ba 0fd2 2b3e
00000250: 6f9c 853e 7442 103d b7eb f4bd 8bd9 20be
00000260: b0b6 2cbd c46b d5bd cc46 383e 9f7e cbbd
00000270: d675 a2bd a567 493e b727 6c3e f5ba 85bc
00000280: e885 2ebc 7190 bcbd f907 f9bd 4123 04be
00000290: fd6c 52bc 232a 64bd aab0 1d3e aa71 413e
000002a0: 7403 77be 92f4 d7bd ff6e 74bd 57bc 13be
000002b0: 4f67 b7bc 9266 d03d 3e32 0dbd b4e8 1fbd
000002c0: e7c6 743d 9a2d 553e 2ba6 dd3c 98d9 ab3d
000002d0: c99b 403e 33ef 873b a443 5c3e 6551 953c
000002e0: ca45 4b3e 7874 143e e445 22be 5260 363e
000002f0: 73cc 223d 519c 843e beb4 33be 632d 0bbe
00000300: d98b 12be d9f2 f2bc b5d9 163d f77e 9e3c
00000310: a607 ebbd 5b75 3c3e ed71 433e 7a0e 9d3d
00000320: 1107 c53d 12f7 723d b146 edbd aa46 733e
00000330: 0716 e73c a9ee 0e3e c98e e73d ae8d 9f3b
00000340: e01a c9bd 107f e7bd 3bb5 923d e244 13bd
00000350: 50c3 473e 36ac 813e c86c 863e e892 8e3d
00000360: 36ab 203d 7bf4 343e 1279 b3bd 6a9f 46be
00000370: 359d 6abd 06d7 003e b2d2 773e 1663 f53d
00000380: a46e 1a3e 5351 8d3e f15b 1bbe 6711 11be
00000390: 725c 693e c9b0 50bd b1a1 b2bd 27cd 1e3e
000003a0: f731 3dbd efb9 bcbc 7970 273c 36c8 833e
000003b0: 8c88 adbd 25c3 373e d539 70bd 020a 35be
000003c0: 405a 7c3e 7b82 a13d c7c3 413e 0418 143b
000003d0: 41dd 143e 09a4 493e 6263 1d3e 2368 81bd
000003e0: 6394 14bb b927 113e 9caf f5bd 13d1 0f3e
000003f0: 20cb d13d e745 a2ba e8b7 dc3c 4d83 05be
-0.012667821 0.23694253 -0.07492101 -0.15608317 0.12530997 0.004306775 0.052070815 0.21512878
-0.22787838 0.049152616 0.06259949 0.052273925 -0.055040456 -0.09115556 -0.00095497054 0.074018694
0.06543806 0.022806501 0.11183137 -0.116180666 0.16115308 0.23064078 -0.15950964 0.11689015
-0.09688853 -0.11707879 -0.011321052 -0.045418277 0.09469965 -0.032515734 -0.1523697 -0.11764525
0.13635711 -0.009022686 0.1704862 -0.20925313 0.11303332 -0.0020348092 0.16345994 -0.0045515033
-0.06226748 0.14845872 0.0031339685 0.2694906 0.22492151 0.07307412 -0.046318125 0.0168099
0.22243518 0.23115334 -0.017879914 -0.062744595 0.16428867 0.02310728 -0.021771964 0.2719004
-0.17809115 0.008917444 -0.06755738 0.15430072 -0.12893395 -0.11499973 0.26641214 0.047581352
-0.01434574 0.11705588 0.30717772 0.06721975 -0.023679804 0.06151192 0.025770504 0.04835324
-0.06072158 0.14092147 0.0083807185 -0.07248444 0.008717388 0.07305542 0.18665302 0.20615418
0.22005068 0.06861949 0.0014618579 -0.18203416 0.05880864 0.13700533 0.07854127 0.16816363
0.19566043 -0.10153946 0.013990009 0.11619338 0.0015847629 -0.1029157 -0.1465208 -0.08914894
-0.13246375 0.063880034 0.2173396 0.22714312 0.040464804 0.088194676 -0.14945191 0.115551814
-0.0003062435 0.16650936 0.18168238 -0.020252682 0.08659108 0.20455538 -0.08318396 -0.0039947685
0.13148192 -0.01860523 -0.006641719 -0.030264875 0.1027043 0.21482067 -0.15156858 -0.07235499
0.0732699 0.22748402 -0.14202867 0.055192214 -0.14018363 0.23283873 -0.02624339 0.17910717
0.20894781 -0.004105596 -0.021367865 0.14349788 0.07778663 -0.08234344 -0.1629003 0.120560735
0.07361581 -0.020601124 0.17039514 0.17336112 -0.1479497 -0.009326481 0.049889885 0.20962307
-0.066888854 0.21140327 -0.0016239781 0.1677935 0.26095912 0.035219625 -0.119590215 -0.15707986
-0.042166412 -0.10420945 0.17995757 -0.099362604 -0.07932632 0.19668444 0.23062025 -0.0163245
-0.010652043 -0.092072375 -0.12159724 -0.12904073 -0.012843368 -0.055704247 0.15399423 0.18891016
-0.24122411 -0.10544695 -0.059676167 -0.14427315 -0.022388129 0.10175814 -0.034471743 -0.039040282
0.05976 0.20818177 0.027056774 0.08391112 0.18809427 0.004148388 0.21510178 0.018227288
0.19850841 0.14497554 -0.15846974 0.17810181 0.03974576 0.2590051 -0.17549416 -0.13591532
-0.1431116 -0.029656814 0.036828715 0.01934765 -0.11476068 0.18404143 0.19086428 0.07668777
0.096204884 0.059317656 -0.11585749 0.23757425 0.028208746 0.13958229 0.11306531 0.0048691845
-0.09819579 -0.11303532 0.07163473 -0.035954364 0.195081 0.253267 0.26254869 0.06961614
0.03922578 0.17671387 -0.08763327 -0.19396749 -0.05727883 0.12582025 0.24201468 0.1198179
0.15081269 0.27601108 -0.15171792 -0.14166795 0.22789171 -0.050949845 -0.087222464 0.15507947
-0.04619023 -0.023037879 0.010219687 0.25738686 -0.0847331 0.17945535 -0.058648903 -0.17679599
0.24643803 0.07886215 0.1892234 0.0022597322 0.14537527 0.1969148 0.15369943 -0.06318691
-0.0022671453 0.14175309 -0.119963855 0.14044599 0.10243821 -0.0012380452 0.026943162 -0.13038369

0.bias f4 [256]
00000000: a560 bf3c e198 3a3e c5fe f3bd 7e73 0fbe
00000010: 7b1c e7bd afa5 2d3d a14c b1bb 8bc7 cbbd
00000020: 082a 53bd fe81 733d 9948 c5bd c352 f93d
00000030: 2f98 aebd a6d4 403e eaef 06bd 91b2 74bd
00000040: 9f33 67bd 7061 0cbd 6cb8 b93b a57f 533e
00000050: 4af6 80bc c48b 1f3a c38f 81bd fac6 bdbd
00000060: aaa8 dfbc 614f c33d 469c 9d3c 99b6 de3d
00000070: fba6 343e 5eee 743d e116 4e3d 72fe a1bd
00000080: 85b0 343e 0b9f cfbc 2ddd 453e 136e cebc
00000090: 4558 6fbd c35e 733d f5b1 94bd 6b38 813e
000000a0: 9e1c 3cbd e15c 4d3c 870b 9fbd 70a6 f3bd
000000b0: c815 b93d d0e8 e4bd 2991 7dbd 7b4c 203e
000000c0: bdbe b93d d7da 163e d5ec b2bd 67c5 bd3d
000000d0: a2c6 ed3d 69ad 7e3e 204e 543e 836b ee3c
000000e0: 708d a9bb 2e66 1b3e 4d5c 1e3e 8c81 d13d
000000f0: f0a5 4f3e 61d3 343e 17ac 4d3d 7600 e5bd
00000100: 1f3a efbd 967b 453e 003c 28bd 9d60 cd3a
00000110: e332 9cbc df9f c93d 90ed 453e 30f7 453e
00000120: e144 e0bd 8f9a f0bd 89f6 20bd 3f6a 3d3e
00000130: 4913 343e d97c 533e 6272 743d 5c95 473e
00000140: 0bb7 da3d 035e 04be 7446 903d 9102 76bd
00000150: ccf8 d73c 463b 5d3e b5e0 3f3e 2994 9b3d
00000160: c980 ef3d 8f59 2a3c 73db 5ebd af04 db3d
00000170: 89e8 383d a5dc 923d 995a 01be 0d45 2dbe
00000180: bba8 84bd a3d9 e7bd 0fd6 2d3e a23d 553e
00000190: 82f4 ba3d 174f 883d 6a9f 3a3e b2cc 823e
000001a0: 0eb1 ea3d 5091 3f3e 4252 04be a7ca cabb
000001b0: 7cb9 913d d86d d3bd 6d7e f2bd 2d4e 99b9
000001c0: ec39 793b 35ae 73bc bbef 43bd cec6 3d3e
000001d0: 015e 02bd 14f4 613e abb6 403d 3c28 17bc
000001e0: fc4b 483e ce9a d63b 40ed 0f3e 6915 0b3e
000001f0: c53e 5abd 8e73 603d c527 0e3b ac86 053e
00000200: 75ab 933c 224f 083e 3beb f43d a1c0 163e
00000210: df15 13bd ef65 ed3d a33f 4bbd dad9 da3c
00000220: dae7 d23c 4980 20be 3f2a cebc 28ef 9cbd
00000230: 5ed4 423e bae8 fbbd 0e2f d9bd 5ed9 263e
00000240: 6080 5b3e bffb 08be 50c9 043e 407e d93d
00000250: b557 b53c 2b3f 0c3e d6ba 6c3e 88d2 e2bd
00000260: 5075 263e 7c3c 2a3e 7636 ccbb 445a 913d
00000270: 469c 9d3b 7de9 163d 442a 37bd 58f2 f0bd
00000280: 47fb 95bd fd62 edbd 4a19 ddbb 549b f83c
00000290: f178 1d3e a439 42bd ab45 2f3e d712 703e
000002a0: b95a 003e c4e8 49bc 4b48 31bc 33f6 b1bc
000002b0: 979b e3bd 5099 103e 747b 22be 5114 303d
000002c0: 145f cbbd 5924 5a3e 9ddf 32bd 89d8 153e
000002d0: 97ac f0bd a94b 663c 897c ac3d abeb 43bd
000002e0: 0524 fe3d ac96 5bbc ed55 69bd 1075 aabd
000002f0: 9865 e93d 54d8 cbbd 82fb af3c 8bca 80bd
00000300: da55 473d 3942 05be 880a 603e 56b9 6dbc
00000310: 84ca 923d 6fbe 053e cb3d 0a3d 12ec b4bc
00000320: 5774 dcbd 4a9a dc3c c2f5 2d3e 6524 e7bc
00000330: 4f22 123e af76 a9bc a1c9 7f3d 0a33 bebd
00000340: 5e26 0e3e e4b0 1c3d 43df e43d ad29 eb3d
00000350: 196c f2bd 3bf1 e13d 88ba 35be 8b81 adbd
00000360: d705 b23c 6164 3c3c 6714 333e f59d 7b3c
00000370: e9fc f53c a3a4 6c3d c8dc 6dbd 6c8e 8fbd
00000380: 854f ff3d da82 113e e609 1a3e 0232 bb3d
00000390: 61b3 0d3d 13f5 0a3e 211f d0bd c64f d53d
000003a0: 9925 943c 9a5a 753e 4238 233e ab4c 573e
000003b0: 5fb8 eebd d107 373d 1a65 683d c66e 5e3c
000003c0: 7e0a 6bbd 9329 103e 3222 563d 0451 ed3d
000003d0: c2b2 85bd 826f 14bd 3cc6 e6bd c862 15be
000003e0: 915d 333d 54e2 b9bc 2964 d3bd bb61 4b3e
000003f0: 3980 b3bd cf5d a13d 2eba 03be 81f5 873d
0.023361513 0.18222381 -0.11913828 -0.140089 -0.11284729 0.042394336 -0.005410746 -0.09950169
-0.051553756 0.059450142 -0.096329875 0.12173989 -0.085251205 0.18831119 -0.032943644 -0.059740607
-0.056445714 -0.03427261 0.0056677368 0.20654161 -0.01574244 0.00060861954 -0.063262485 -0.092664674
-0.027302105 0.09536625 0.019239556 0.108746715 0.17641823 0.059797637 0.050314788 -0.0790986
0.17645462 -0.025344392 0.19322653 -0.025198972 -0.05843379 0.059416544 -0.07260505 0.25238356
-0.04592573 0.012534351 -0.077658705 -0.1189698 0.090373576 -0.11177218 -0.061906014 0.15654175
0.090695836 0.14731918 -0.087365784 0.09266167 0.11610152 0.24870838 0.20732927 0.029104
-0.0051743314 0.15175697 0.15464897 0.10229787 0.20278144 0.1765876 0.050212946 -0.111817285
-0.116810076 0.19285426 -0.041072845 0.0015669052 -0.019067233 0.09844946 0.19328904 0.19332576
-0.109506376 -0.1174823 -0.039297614 0.18497561 0.17585482 0.20653094 0.059679396 0.1949057
0.10679444 -0.12926488 0.07044688 -0.06006104 0.026363753 0.21604642 0.18738063 0.07596619
0.11694486 0.010397329 -0.0544085 0.10694253 0.045143638 0.07170991 -0.12632217 -0.16920872
-0.06477495 -0.11320808 0.16976188 0.20824292 0.091286674 0.0665571 0.18224874 0.25546795
0.11459552 0.18707776 -0.12922004 -0.006188709 0.071154565 -0.103236854 -0.1184052 -0.0002924068
0.003802891 -0.014873077 -0.047836047 0.18532869 -0.03182793 0.22065765 0.047049206 -0.009225901
0.19560236 0.006549216 0.14055347 0.13582386 -0.053282518 0.0547977 0.0021691185 0.13039654
0.018026093 0.13311437 0.11958929 0.1472192 -0.03590953 0.11591708 -0.049621236 0.026715208
0.025745321 -0.15673937 -0.025166629 -0.07662803 0.19026324 -0.123002484 -0.10604678 0.16293857
0.2143569 -0.13377284 0.1296742 0.106197834 0.022136549 0.13695972 0.23118147 -0.11075312
0.16255689 0.16624635 -0.006232078 0.07097295 0.004809889 0.036843766 -0.044718042 -0.117649734
-0.07323318 -0.11591146 -0.0067473995 0.030347504 0.15378167 -0.04741825 0.1711642 0.23444687
0.12534608 -0.012323562 -0.010820459 -0.021723842 -0.11113661 0.14120984 -0.15867406 0.042988125
-0.09930244 0.21302928 -0.043670285 0.14633383 -0.11751669 0.014056125 0.08422191 -0.047832172
0.12409214 -0.013402622 -0.05696671 -0.08323109 0.113963306 -0.09953371 0.021482233 -0.06288632
0.04866586 -0.13013543 0.21879017 -0.01450952 0.07167533 0.13060926 0.033750337 -0.022085223
-0.107643776 0.02692904 0.1698828 -0.028215596 0.142709 -0.020686476 0.062448148 -0.09287079
0.13881823 0.038254634 0.11175396 0.114825584 -0.11837024 0.11032339 -0.17746937 -0.08471974
0.0217313 0.011498542 0.17488252 0.015357484 0.030027824 0.057774197 -0.05807188 -0.07009587
0.12466339 0.14210072 0.15042838 0.091403976 0.034594897 0.13570051 -0.10162187 0.10415606
0.018084334 0.23960343 0.1593943 0.2102534 -0.1165626 0.04468519 0.056737043 0.013576215
-0.057383053 0.1407836 0.052278705 0.11587718 -0.06528236 -0.036239155 -0.11268279 -0.14588463
0.043790404 -0.02269093 -0.103218384 0.198615 -0.08764691 0.07879221 -0.1286399 0.06638623

2.weight f4 [256, 256]
00000000: 30c1 0c3c 34e7 323c c406 05bd 0d50 3bbc
00000010: dd74 ae3c fcba b4bc 02e7 64bd db59 f1bb
00000020: 16bc 0bbc 8fbb fd3b 8697 483d d3b3 42ba
00000030: 3cb3 68bd 4360 4ebd 2a18 e63c 835c ffbb
00000040: ddaa 38bd 40b5 fbbc 2502 82bd fea2 e8bc
00000050: d160 d3bc acbb 8cbc d446 f4bc a45e 3a3d
00000060: 56cc 133d 2157 92bc 0d1d fe3c 8cec 89bc
00000070: f97d 053d 4256 7dbc ccc9 8dbd 085f 063c
00000080: ff70 89bd b454 c53c 71e7 f33c 359e 19bd
00000090: 4bef 0ebd c7b1 a1bc f801 81bd 3ec3 a63c
000000a0: afdc fd3c 8128 5fbd 2a34 503d 551e ecbc
000000b0: 6779 3abc 8bfe 11bc 3bb2 1ebb 9676 323d
000000c0: 783f 3fbd 2f5b 8dbd 63f9 d03c a64a e83c
000000d0: b973 8cbd 374c 3dbd 80e7 83bc 7729 323d
000000e0: a7b9 e1bc 3251 40bc 92a4 e8bc 5a34 a83c
000000f0: 8178 88bd 1160 1abd 34ff f4bc b240 613b
00000100: fbcf 293c 8879 ec3c 55e2 9dbd 0233 173d
00000110: 5a55 133d 7742 423d e048 53bd d113 da3c
00000120: 9eb9 4e3c 6d3d 4ebd 236e 2ebd dafd 383d
00000130: f8a8 b4ba 34f8 e9bc 2bb7 31bd 86c8 41bd
00000140: 6b0e ab3c d723 ab3b e256 0b3d f648 d73c
00000150: 985e 16ba 305e dd3c 2d32 fb3b b9cc 0cbc
00000160: 1219 4d3b 1a9f 413d 042c 92bd a670 e5bc
00000170: a4ac 87bd 673b 6ebd a158 b53c 20df 953c
00000180: 5f53 fc3c c80b 8bbd cb53 0dbc e5e9 73bd
00000190: b354 53bc 0315 38bd d268 a2bc c8f8 5ebc
000001a0: 7565 61bd ea64 cc3c be49 fc3c 7a1c 4b3d
000001b0: b1d7 f23c 48ca 89bc 70d4 7a3d b889 bb3c
000001c0: a4f9 2e3d 2d59 003d 45de 393b d8e1 603d
000001d0: fdae e73c fed7 9a3c 2be9 9a3c e903 62bb
000001e0: d956 18bd 36f8 ce3c 47dd e23c a968 98bd
000001f0: 5967 043c cc15 08bc 6491 0fbd 569b bc3c
00000200: 894b a2bc 870d 6abb 21e9 9cbc f245 afbc
00000210: 89f9 86bd ebb3 01bd 5ecb dabc f854 443d
00000220: db6a 0e3d da53 45bd 4ed0 413d 47cd 023d
00000230: 2331 18bd e2f8 5d3c 0a99 9dbc 57c3 50bd
00000240: ad8c ab3c c1bb edbc 1be9 52bd 84c0 99bd
00000250: aaeb fd3c b325 4dbd 93e2 973b d58d 143b
00000260: 25c7 debc 9273 60bd 3a8b 353d cde1 dfbc
00000270: d197 4bbd eb4d d83c dc12 34bd 6e84 193d
00000280: 00e5 4b3d 5b10 7ebd c399 513c 9de5 1a3d
00000290: ea8f e5bc 2a2d e2bb 9128 fcbc da42 5fbc
000002a0: c12b 70bd 169b d03c fb1c 5ebd d63d 9dbc
000002b0: 4369 203d ad77 b73b d274 28bd a0da 6bbc
000002c0: b859 89bb fd44 273c 76fb 52bd 7856 e23b
000002d0: e5c7 32bd a561 4dbc 8da5 42bd 7510 fdbb
000002e0: 9f72 8ebb 63ca 24bd 54ea f73c eff0 6dbd
000002f0: e647 cc3c 2893 adbc 3ce2 123d 0449 c7bc
00000300: ee24 343c b3d5 58bd 1e4c bf3c a02f 82bc
00000310: 6f5c 6d3b 730f 4bbd 8270 523d bca4 87bc
00000320: b7b6 debb 9235 32bd fe53 37bd 0049 e93b
00000330: 96cb a7bc cd5f 85bd d5bf 8abc 68af 37bd
00000340: 5832 0a3d c6c7 0d3d 51fc 1e3d ac6f 443d
00000350: baff 0c3c 6586 61bc e4fe fe3c 0a3a 433d
00000360: 6daa 133d 38af 8ebd b493 2fbd 2cac ef3c
00000370: 737d 2d3d cfa8 46bd 7fa5 033d 5f6e f1bc
00000380: 0b0e beba 3505 02bd b387 e43c 6fcd 66bc
00000390: f2e8 fe3c 0fbf 7c3c 9500 553a 2b83 95bd
000003a0: 548a 023d 7d9a 66bc 0510 9cbd 3fb0 123d
000003b0: ccc6 8c3c 60f9 90bc d200 013d 569d c23c
000003c0: ac00 443d ec48 36bd a786 8cbd 9343 ef3c
000003d0: e338 81bc 6a43 7d3d f14f 5abd f928 aa3c
000003e0: fd19 bc3c df9b 05bb abaf f83c 8be6 31bd
000003f0: b410 12bd fdbe 8b3a d916 3fbc 1647 0c3c
0.008590981 0.010919381 -0.032477155 -0.01143266 0.02129596 -0.022061817 -0.05588437 -0.007365448
-0.00852873 0.007743306 0.04897263 -0.00074273086 -0.056811556 -0.05038477 0.028087694 -0.0077930107
-0.045084823 -0.030726075 -0.06348065 -0.028398033 -0.025803002 -0.017179333 -0.02981893 0.045500413
0.03608354 -0.017863812 0.031019712 -0.016836427 0.03259084 -0.01546246 -0.06923255 0.008201368
-0.067110054 0.024088241 0.029773446 -0.037504394 -0.034896176 -0.019738091 -0.06299204 0.02035677
0.03098902 -0.054481987 0.050830998 -0.028823057 -0.011381484 -0.008910785 -0.002421512 0.043570124
-0.046691388 -0.069021575 0.025509542 0.028355908 -0.0685801 -0.046215262 -0.016101599 0.043496575
-0.027554346 -0.0117381085 -0.028398786 0.020532776 -0.06663609 -0.037689272 -0.029906847 0.0034370837
0.010364528 0.028866544 -0.07709185 0.03691388 0.03597007 0.047426667 -0.05158317 0.026620777
0.012617497 -0.05035155 -0.042585503 0.045163967 -0.0013783267 -0.028560735 -0.043387573 -0.047310375
0.020880898 0.0052227783 0.034018405 0.026279908 -0.00057361415 0.027022451 0.0076658935 -0.008593732
0.003129546 0.04727087 -0.071373016 -0.028007817 -0.066247255 -0.05816212 0.022136988 0.01829487
0.030801473 -0.067893565 -0.008625935 -0.05954923 -0.012898612 -0.044941913 -0.019825373 -0.013609119
-0.055028398 0.024950463 0.030796882 0.049587704 0.029643865 -0.016820088 0.061237752 0.022892818
0.042718545 0.031335045 0.0028361243 0.05490288 0.028281683 0.018901821 0.018910011 -0.0034487194
-0.0371922 0.02526484 0.027693404 -0.07441837 0.008081281 -0.008305978 -0.035050765 0.023023289
-0.019811409 -0.003571363 -0.019154133 -0.021395657 -0.06590564 -0.031665724 -0.026708301 0.047932595
0.034769874 -0.04817567 0.047317795 0.03193405 -0.037156235 0.013548108 -0.019238014 -0.05096754
0.020941103 -0.029020192 -0.051491838 -0.075074226 0.030996162 -0.05008478 0.004635164 0.0022667546
-0.027194569 -0.054797716 0.04432223 -0.02732935 -0.04970533 0.026404342 -0.0439633 0.03747981
0.04977894 -0.062027317 0.012793007 0.037816633 -0.028022725 -0.0069023566 -0.030781062 -0.0136267785
-0.058635477 0.025464576 -0.054226857 -0.019194525 0.039162885 0.0055989833 -0.041127034 -0.014395386
-0.0041916035 0.010209319 -0.051509343 0.0069072805 -0.043647666 -0.012535487 -0.047521163 -0.007722909
-0.00434716 -0.040232074 0.030263104 -0.0580911 0.024936628 -0.021188334 0.035860285 -0.024326809
0.010995133 -0.052938174 0.023351725 -0.01589185 0.0036218425 -0.04957528 0.051376827 -0.016558044
-0.0067966837 -0.04350812 -0.044757836 0.007119298 -0.02048282 -0.06512413 -0.016937176 -0.044845015
0.033739418 0.034614347 0.038814846 0.04795806 0.008605892 -0.013764952 0.0311274 0.047662772
0.036051203 -0.06967014 -0.04286547 0.029256903 0.042355966 -0.048500832 0.03214025 -0.029471574
-0.0014500035 -0.031743247 0.027896738 -0.014087065 0.031116936 0.015426411 0.0008125392 -0.07300409
0.0318702 -0.014074919 -0.07620243 0.035812613 0.017184637 -0.017697036 0.031494923 0.023756664
0.047852203 -0.044503137 -0.068616204 0.029207027 -0.015774196 0.06183187 -0.053298894 0.02077149
0.02296161 -0.0020387096 0.030357203 -0.043432754 -0.03566046 0.0010661777 -0.011663162 0.00856187

2.bias f4 [256]
00000000: b035 643c b4e5 1c3d 2ed8 b13c 4afe f1bb
00000010: 740e 8fbc 6831 61bc f9c5 89bd 5cfa 0ebd
00000020: e7d3 113b 892b 113b 23bc adbc 01cf e23c
00000030: 844d 8c3d ceaf 9f3c c085 073a ab7c 26bd
00000040: 1811 4bbd dc48 d83c 2824 c9bc 8a48 603d
00000050: 699c cebc d767 583d 03e0 f63b 170f 1a3d
00000060: 2ece 923d 377a f03c ef58 873d 4329 7a3d
00000070: c6ca 143d 03ac 9b3d abb4 403c 021b 82bc
00000080: eba0 ed3c 467e 0a3d f8c3 36bd d633 0bbd
00000090: 85ac 253c 48e3 55bb 094a 22bd 4944 573d
000000a0: db42 ba3c b98d 683d bea1 b23c eda2 6cbc
000000b0: 3660 70bc 6461 91bd 1782 1a3d 2851 623c
000000c0: 7afe 3e3c 523a e6bc f912 103d 899a 733d
000000d0: ba77 91bb 69c7 56bc e6fe df3c 710a 8c3b
000000e0: acbe 7c3b 422a 8abc 8a3d 853d a9ee 8ebc
000000f0: 5f0c acba fe07 32bc 608c e4bc 2d6d 9fbc
00000100: e421 e33c 0eff f0bb a84c 09bd 85b4 f43c
00000110: 0530 4ebd f2de 46bd 4de3 f03c b4e1 f93c
00000120: 9e94 32bd 3630 19bc 4c74 b9bb 2e9b 0bbd
00000130: e1b6 28bd 512c 783c 49c4 853d 46cc 583c
00000140: 1534 993d e728 5239 0743 5fbd 2747 2dbd
00000150: bab6 373d 7c29 b3bc 2f56 aabc 0c2a 553d
00000160: 3a06 2dbd 0398 773d 2664 e23c 8f53 7a3d
00000170: 9514 443d 9de5 b93b abb6 74bc 8c3c 55bd
00000180: fc1c 453d 70e1 363d 7067 3ebc 272f 903d
00000190: ee91 42bc 1abd 98bb 13eb f8bc c72d ef3c
000001a0: 022e 823a 9fe5 87bc d4f0 803c 6efc d43c
000001b0: 73b3 6b3d 5749 603d 6cb7 2fbd f67c 623d
000001c0: eb2e 35bc 88cc f9bc ed24 3a3d f9ad 9a3d
000001d0: 83d1 6ebc 96dc 863d 9c10 f4bc e0b8 d5bc
000001e0: c020 1e3c b398 d33b c645 e8bc 0bf9 883d
000001f0: 361a 093c 1eab f03a b1a7 373d c31f 0f3d
00000200: e552 5f3d 18ae d33c db9e 623d bc6e 8a3d
00000210: 7f0f 9abc ea5d f9bc 13b8 2fbd e9b8 28bc
00000220: 3a36 7f3d 2a23 8f3c 6095 1a3d 20b3 b2b9
00000230: 28e8 ccbc e048 d83c b257 de3c 0db9 0ebd
00000240: 55f4 9d3c f724 023d f863 763d 0ce8 dfbc
00000250: bddb 9a3d 51ac d0bc aa44 34bd aac1 873d
00000260: b056 7cbd 6a70 ac3b fb7f 153c 3565 a23d
00000270: 0e20 8e3d 3740 cfbc 8ffa e83a 25b4 153d
00000280: 9a11 b3bc 7680 d13c 16f1 50bd 647c cb3c
00000290: 4ce1 8c3d 1630 27bd 98aa 2c3d af54 f0bb
000002a0: 3c3a efbc 5945 5f3d 020f 39bd e988 463c
000002b0: 16c6 c43c 3a2d 75bc c603 443a 5c9f 7c3c
000002c0: 3326 b2bc 1248 5cbd a3db 98bc 71a3 293d
000002d0: 0495 f4bc 2297 06bd 86da 813a 4d97 7d3d
000002e0: 5e0d 37bc 6e74 0f3d 3136 0e3c 6c08 113d
000002f0: 2021 e33b 783c 17bd 9ecf 37bd b305 80bd
00000300: 4b83 2f3d 5e9f 873d 671b 5b3c 622c 62bc
00000310: a37c 6d3d 684a 1e3c fb7b 813d 1bfd 4a3d
00000320: 79d5 773d eeac c13c 89e6 bfbc 8f50 a23c
00000330: 8bf7 8ebc cdd1 f43c 0961 7b3c ad62 813d
00000340: c26a 3a3d 1fba 733d 0d70 ae3c c8eb dfbb
00000350: 750a 2c3a 08d7 2d3c 9b7c d0bc 10ee 30bd
00000360: 607f 123d 6410 553c cb25 5b3d c0e5 113c
00000370: c6e0 0cbd 9ab5 e0bc bc73 8f3d 80f9 e33b
00000380: d779 373d eb6b 7ebb 9390 35bc 7889 b8bc
00000390: 3feb 563c c1ba a2bc 1339 eb3c cc85 c13c
000003a0: 3c97 c83c 3e6c 5c3d 6883 613d 0270 d33c
000003b0: 2ec9 1bbd 514d 4b3c 19a5 32bd 6e8a 1ebd
000003c0: 24ac 1dbc 0126 b23c 5a25 9c3c 3ea0 89bd
000003d0: 48ea f1bb f86d cf3c ea00 c33c 9b50 8fbc
000003e0: 56a2 0fbc 81a0 193d 3187 823d 7da0 e8bc
000003f0: a653 173d 1845 98bc ca4c 25bc 2fd3 153c
0.013928816 0.038305 0.021709528 -0.00738505 -0.017462946 -0.0137446895 -0.067272134 -0.03490673
0.0022251548 0.0022151193 -0.021207875 0.027686598 0.068507224 0.01949301 0.00051697716 -0.040646236
-0.04957685 0.02640193 -0.024553373 0.05475668 -0.025221067 0.052833404 0.0075340285 0.037612047
0.07168232 0.029355152 0.066087596 0.061074506 0.036326192 0.07601168 0.011761825 -0.015882019
0.029007396 0.03381183 -0.044620484 -0.03398498 0.010111933 -0.003263669 -0.039621387 0.052555356
0.022736957 0.056775782 0.02180564 -0.014443141 -0.014671376 -0.07098654 0.03772172 0.0138132945
0.011657352 -0.028103981 0.035174344 0.059473548 -0.0044393213 -0.0131090665 0.027343225 0.0042737057
0.0038565798 -0.016865853 0.06505878 -0.017447786 -0.0013126245 -0.010866163 -0.027898967 -0.019461239
0.027726121 -0.0073546236 -0.03352037 0.029871235 -0.050338764 -0.04855246 0.02940526 0.030503131
-0.043598764 -0.009349873 -0.0056596156 -0.034083538 -0.041190032 0.015147285 0.06531579 0.013232296
0.07480637 0.00020042398 -0.05450728 -0.042304184 0.044851996 -0.021870367 -0.020793049 0.052042052
-0.042242266 0.060447704 0.027635645 0.061114844 0.04787119 0.005673124 -0.01493613 -0.052059695
0.048123345 0.044648588 -0.011621341 0.070402436 -0.011875613 -0.0046612145 -0.03038553 0.029196633
0.0009931924 -0.016588984 0.015739836 0.025999274 0.057544183 0.054757442 -0.042899534 0.055294953
-0.011058549 -0.030493036 0.04544537 0.07552714 -0.014576319 0.06585042 -0.029793076 -0.026089132
0.009651363 0.006457412 -0.028353583 0.06688126 0.008368066 0.0018361544 0.044837657 0.0349424
0.054522414 0.02583985 0.055327278 0.06759402 -0.018806217 -0.03044029 -0.042900156 -0.010297992
0.062307574 0.017472822 0.03774011 -0.00034084264 -0.025013044 0.026401937 0.027141426 -0.034844447
0.019281546 0.031773534 0.06015393 -0.027332328 0.07561443 -0.025472792 -0.044010796 0.06628735
-0.06160611 0.0052624242 0.009124751 0.0792946 0.06939708 -0.025299175 0.0017774868 0.036548752
-0.021858979 0.02557395 -0.051011167 0.024839588 0.068789095 -0.040817343 0.04215488 -0.007334314
-0.029202573 0.054509494 -0.04518033 0.012117603 0.024020236 -0.014964396 0.0007477369 0.015418854
-0.02174673 -0.05377967 -0.018659418 0.041415635 -0.029856212 -0.032858975 0.0009907044 0.06191187
-0.011172621 0.035023145 0.008679912 0.035408422 0.006931439 -0.036922902 -0.044875734 -0.06251087
0.04284982 0.06622194 0.013373232 -0.013804527 0.05798019 0.0096612945 0.063224755 0.049557786
0.060506318 0.02364203 -0.023425357 0.019813804 -0.017452022 0.029885197 0.015342959 0.06317649
0.04551197 0.05950367 0.021293664 -0.0068335272 0.00065628375 0.0106103495 -0.025450042 -0.043195784
0.035766006 0.013004396 0.05350284 0.008904874 -0.03439405 -0.027430344 0.070044965 0.006957233
0.04479393 -0.0038821648 -0.011081832 -0.022526488 0.0131176105 -0.019864442 0.028713739 0.02362337
0.024486177 0.053814165 0.05505696 0.025810245 -0.038033657 0.01240857 -0.04361448 -0.038706236
-0.009623561 0.021746637 0.01906078 -0.06720017 -0.007382665 0.025320992 0.023804147 -0.01749449
-0.008766731 0.037506584 0.06373442 -0.02839684 0.036945008 -0.018587634 -0.010089109 0.009144588

4.weight f4 [128, 256]
00000000: f0a9 f53c 5af5 393d 6571 a6bb 3e49 7abd
00000010: e21a 2bbd 241c b5bc e6f2 76bd 4876 57bd
00000020: 72d7 22bd 0ac4 413d dc03 93bc d897 5ebd
00000030: ed5e d1bb f855 74bc 5446 d5bc 6004 5bbb
00000040: 3333 f5bc 0d5e cb3c 4fff 863c 8da0 2d3d
00000050: ecff 65bd 5ba5 3dbc e3b8 e93c 9733 123c
00000060: daff 84bd d021 8abb 00c0 183d 6717 6dbc
00000070: 6a7c 123d f3b5 4fbc 3611 39bb 4d00 503d
00000080: dae9 5a3d 362c 41bd a535 f03c 5dd3 673d
00000090: 7eca 84bc 2537 ac3c 157d 5c3c b8f8 6a3c
000000a0: 1cf4 af3c 9a95 26bd f17a 2d3d 7c25 633d
000000b0: ece6 ae3c 00dc ddb8 e0f0 82bc 76b0 6a3c
000000c0: 20bd b33c 4069 5e3d 1957 133c 861f 333d
000000d0: a482 0abd 8422 af3c aba1 943c 64a3 983c
000000e0: 001f 48bc 0ec4 4fbd d597 8fbc 7846 49bc
000000f0: a088 26bd 88f1 2a3d 760f aebc f07c 823b
00000100: 8e89 4bbd 3b27 003d f9f8 87bc 58db ddbc
00000110: fb48 72bd 8095 03ba 7a31 2b3c 7ca7 d1bc
00000120: c629 50bd f006 86bc e2e0 463d a278 67bd
00000130: ba93 693d 8c02 543d 2d64 d83c f34e 13bb
00000140: b6cf 6b3d 88df 36bc b827 3f3d 6715 153d
00000150: 9f28 9dba 4830 a63c 00f8 87ba 78b4 d4bc
00000160: a88c c73c 4794 543d 45e4 4cbd ec28 583d
00000170: c04e 45bd c676 283d 5065 0abc 329b 59bd
00000180: fb0f 95bc 6ca1 d7bb 3145 2fbd 319c 1dbd
00000190: faae 0cbd c045 64bb 5c9b d43c 90a8 a13b
000001a0: 904a 9fbc 1280 1d3d 79be c83a 2bad 0cbd
000001b0: 85f9 28bd 6655 51bd 4542 cbbb ba30 693c
000001c0: 30e3 1b3d 6098 1dbc c0b5 d1bc 9855 573d
000001d0: f2ed 9d3b 3a04 1fbd 3dc4 033c 84b1 38bd
000001e0: dc3e 6dbd 8015 f7ba 6415 55bd bce7 063d
000001f0: d481 c13c 62e6 27bd 4231 e6bc 1f45 5e3d
00000200: 76a3 c3bb 9067 69bd 59f1 e6bc 7797 1e3c
00000210: 569c 833c a4dc 423d 16de 00bc f824 6f3c
00000220: dd48 563c 0a4d 7e3d 3405 adbc a4e9 99bb
00000230: ad82 92bb 9feb e53c 6cee b2bc 521e bc3c
00000240: 00bc 17bc cdbf 4e3d 8fbd 3dbd c3fc 41bd
00000250: c31a 643d 3fb8 2e3d 6d30 83bd 4a23 483d
00000260: 6072 263c 6bf1 60bd 780e 4abd 0417 72bc
00000270: c3dc 793c f0ce f03c 0620 8ebc 5001 093c
00000280: 8132 b73c 645c 82bd 8032 d13a 58b5 d2bc
00000290: 5a12 073d e045 45bd fcdb 24bd 45d8 18bd
000002a0: 2a3e 03bd 7167 21bc 08a7 0f3d b072 08bd
000002b0: 5c1a 243d 69de debb 7126 2fbc 7cc5 d53c
000002c0: 121e 823b a80e 793c 422a 223d 94c0 163d
000002d0: 808b 273a c970 ae3c 84bb 3e3d dd2a 84bd
000002e0: 0c87 933c 20eb 7abd c684 02bd 77c0 fc3c
000002f0: 6034 ecbc 1325 dbbc ac5e 02bd 810a d03c
00000300: 9943 c93b 7a63 75bd 6abc 293d e120 d53b
00000310: 4415 f4bc 8042 c7ba e9dc 5ebc 684c 47bd
00000320: 33db a0bb 1282 bbbc 3b56 b1bc a08b 013d
00000330: 94f9 efbb 06a3 3dbd aa7c 24bd 873c 58bd
00000340: 00a3 b43c dc07 9a3c cddf 343c 73ea 1c3c
00000350: b38b 69bd d338 79bd 5b48 043c 603e 5a3d
00000360: 743d 4dbd 4be7 37bd fce2 ad3c b9c9 033d
00000370: 013d 7ebd 409b a1ba 7445 7fbd 9c9d 023d
00000380: 6693 64bd 8950 bcbc 936a bebb 6d25 ad3c
00000390: f0e8 a3bb 00b7 dc3b ab25 5dbd 2813 363c
000003a0: 0062 4a3d 6fe6 5f3b 5b67 793d 2d54 2abd
000003b0: a02b 643d f0a3 b5bc bbc9 6fbd 9fab 6abd
000003c0: d8eb 773c 8c8e 043d 97f0 3fbb d2e0 2e3d
000003d0: 7ebe 44bd 308f 4abd f24d 19bd ac9c d43c
000003e0: 30f1 bb3b c83d 39bd 0357 a3bc 0c0d b3bc
000003f0: 7a68 84bd 49b0 8bbb 9bc8 53bd 5c38 583d
0.02998826 0.0454 -0.0050794357 -0.061105005 -0.041773684 -0.022108145 -0.06029024 -0.052603036
-0.039756246 0.047306098 -0.017946176 -0.05434403 -0.00638949 -0.014913075 -0.026034512 -0.0033419356
-0.02993164 0.02482512 0.016479162 0.04238944 -0.05615227 -0.011575068 0.028530544 0.008923433
-0.06494112 -0.0042154565 0.03729248 -0.014470912 0.03576318 -0.012677657 -0.0028239018 0.050781537
0.053445674 -0.047161303 0.029322455 0.056598056 -0.016209837 0.021022389 0.013457556 0.014341526
0.021478705 -0.040670015 0.042353574 0.05545567 0.021350347 -0.000105790794 -0.015983999 0.014324298
0.021940768 0.054299593 0.008992934 0.043731235 -0.033815995 0.021378763 0.018143496 0.018632598
-0.012214422 -0.05072408 -0.017528454 -0.012284867 -0.04065764 0.04173425 -0.021247607 0.003982179
-0.04969173 0.031287413 -0.016598212 -0.02708213 -0.05915163 -0.00050195307 0.010448808 -0.025592558
-0.05082109 -0.01636073 0.04855431 -0.05651153 0.05702565 0.05176024 0.026414955 -0.0022477477
0.057571135 -0.011161692 0.046668738 0.036397364 -0.0011990255 0.020286694 -0.0010373592 -0.02596496
0.024359062 0.05189922 -0.050022382 0.0527734 -0.048170805 0.041128896 -0.008447006 -0.05312652
-0.018196097 -0.0065805223 -0.042790595 -0.038479034 -0.03434656 -0.0034831613 0.025952987 0.0049334243
-0.019444734 0.038452215 0.0015315554 -0.034344833 -0.041253585 -0.051106833 -0.0062029683 0.014232809
0.03805846 -0.009618849 -0.02559936 0.052571863 0.004819625 -0.03882239 0.008042392 -0.045091167
-0.057921275 -0.0018851012 -0.052022353 0.032935843 0.023621477 -0.040991195 -0.02809966 0.054265138
-0.005970414 -0.05698353 -0.028191255 0.009679667 0.016065758 0.0475737 -0.007865449 0.014596216
0.013078895 0.06208519 -0.021120645 -0.0046970416 -0.004471144 0.028066454 -0.021842204 0.022963677
-0.009261131 0.050475884 -0.046323355 -0.047360193 0.055689584 0.04265618 -0.06405721 0.04886178
0.010159105 -0.054917734 -0.049330205 -0.014775995 0.015250388 0.02939555 -0.017349254 0.008362129
0.02236295 -0.06365278 0.0015960485 -0.025721237 0.032976486 -0.04816234 -0.040248856 -0.037315626
-0.032041706 -0.0098513225 0.035071403 -0.0333125 0.0400642 -0.0068014157 -0.0106903175 0.026095144
0.00397087 0.015201248 0.03959108 0.03680475 0.00063913316 0.021294015 0.046565548 -0.06453488
0.018008731 -0.06125939 -0.031864904 0.030853493 -0.028833568 -0.026751077 -0.031828567 0.025395634
0.0061420915 -0.05990932 0.04143945 0.0065041636 -0.029795296 -0.0015202314 -0.013602474 -0.04865685
-0.004908943 -0.02288917 -0.021647563 0.031627297 -0.007323453 -0.04629805 -0.04015795 -0.0527921
0.02205038 0.018802576 0.011039686 0.009577381 -0.057017993 -0.060845207 0.0080738915 0.05328214
-0.050107434 -0.044898313 0.021226399 0.0321748 -0.062069897 -0.0012329593 -0.062322095 0.03188859
-0.055804633 -0.02298762 -0.0058110445 0.02113601 -0.0050021335 0.0067356825 -0.053991 0.011112966
0.049409866 0.0034164449 0.060889583 -0.041584183 0.055705667 -0.022172898 -0.058541995 -0.057292577
0.015131913 0.032362506 -0.002928769 0.042694874 -0.04803323 -0.04945296 -0.03742785 0.025953613
0.005735539 -0.045224935 -0.019938951 -0.021856807 -0.0646524 -0.004262958 -0.051704984 0.052788123

4.bias f4 [128]
00000000: 61f2 85bd aab4 ba3c e471 293d f72c 07bd
00000010: 1aaa 883c ce8d 7a3d ecd4 773c ef1e 993c
00000020: 0408 153d f35b 023d 2325 6bbd f181 fbbc
00000030: 2a78 9dbb 4a7f 133d c81a 14bd 31a2 323d
00000040: 9ea0 e1bb 8231 2a3d c3bd e7bc 22a3 0ebc
00000050: d360 5dbd 5b19 32bd 0a87 0e3c f7b3 773c
00000060: fe47 793d 59a6 34bc b286 b73c 3f7e 0d3d
00000070: 33e6 dabc 0217 f03c 6504 2dbd a04e d73c
00000080: bd2d 0bbd 4f01 ca3a 5797 1bbd 3572 af3b
00000090: 4fcb cc3c b8a2 0d3d 601d 223d aaad fdba
000000a0: 961c 3cbd 59c6 bebc 380c 733d 0104 6ebc
000000b0: 5526 8d3d 276d 06bd c2d5 2cbd 84a5 dfba
000000c0: 5035 35bd 02e4 743c af54 643b fed8 e3bc
000000d0: 6d46 1dbc a0e5 073d b061 e13c c1f9 4e3d
000000e0: e82c dabc 3eec 8d3d d921 f63c 160d 6d3d
000000f0: 6f4c 983b 8c18 38bd 2e92 80bb 515b 843d
00000100: a437 173d ce30 07bd 014b 013d 627d 443c
00000110: 47d1 24bc 4c07 5c3b 6a15 283d 9d5f bd3c
00000120: eeb4 06bb 3ed5 263d 560a bdbb b8c2 3e3d
00000130: 6d08 85bd 6a20 e8bc 9e5b 383c d842 06bd
00000140: a138 d4bb a2fa 97bc 649a bfbc 8559 8a3d
00000150: 376e 4eba 2b06 81bd 7a7b a2bb 03e2 203d
00000160: eea0 883d ba11 40bd b179 753d d293 39bd
00000170: 3836 843d efb8 823d 6e3a 08bc ba40 0bbb
00000180: e410 d5bc 4482 b3bc 517a 813d 9a22 c7bc
00000190: 496d 9ebb 2ff8 1cbb 534c db3c 835f 3b3d
000001a0: c72b 22bd 1f88 053c 3a69 ac3c 45d5 e8bc
000001b0: 3117 e3bc 273a 31bd 1460 153b 9602 e7bb
000001c0: 0155 1bbd 8f7c b53d 2036 0f3d 93c7 0abd
000001d0: 0da6 fa3c d6f8 733c 7f3b 413c 1c9c 563d
000001e0: e126 503c f297 ffbb 6b32 9bbc 8dc4 f5bb
000001f0: bcce 903d 8295 ca3b bebb e8bb 53dc d438
-0.06540371 0.022791225 0.04136838 -0.033001866 0.016682673 0.06117039 0.015126448 0.018691508
0.036384597 0.03182597 -0.057408463 -0.03070161 -0.0048055844 0.036010064 -0.036158353 0.04361171
-0.006885602 0.04155112 -0.028288728 -0.008705886 -0.054047417 -0.043481212 0.008699188 0.015118591
0.060859673 -0.0110259885 0.022403095 0.034544226 -0.026721096 0.029307846 -0.04224052 0.026282609
-0.033979166 0.0015411767 -0.037986126 0.0053541907 0.024999289 0.03457901 0.039578795 -0.0019354124
-0.0459257 -0.023287939 0.059337825 -0.014527322 0.06892077 -0.03281894 -0.042196043 -0.0017062877
-0.044240296 0.014946939 0.0034840514 -0.02781343 -0.00959931 0.03317797 0.027512401 0.050531153
-0.026632741 0.06929825 0.030045437 0.057873808 0.0046477835 -0.044945285 -0.003923676 0.0646273
0.036918297 -0.03300553 0.03156567 0.011992784 -0.010059661 0.0033573685 0.041036047 0.023116881
-0.002055462 0.040730707 -0.0057690544 0.046572417 -0.06495748 -0.028335769 0.011252312 -0.03277859
-0.0064764773 -0.018552128 -0.023389049 0.06755356 -0.00078746997 -0.063000046 -0.004958567 0.03927804
0.0667132 -0.046891905 0.059930507 -0.045306988 0.06455654 0.063829295 -0.008314712 -0.0021248297
-0.02600903 -0.021912701 0.06322158 -0.024308491 -0.004834805 -0.002395164 0.026769793 0.045745384
-0.03959253 0.00815013 0.02104627 -0.028422007 -0.02772102 -0.04326835 0.0022792863 -0.007049869
-0.037922863 0.08861648 0.034963727 -0.033881735 0.030596757 0.01489087 0.01179397 0.05239497
0.012704582 -0.0078000957 -0.01894494 -0.0075002373 0.070706815 0.0061823735 -0.0071024587 0.00010149986

6.weight f4 [128, 128]
00000000: 81fb 21bd c657 393d e559 9e3d 58be 253d
00000010: 7c62 fabc 2f99 c8bd f70d 903b 26d7 233d
00000020: a093 bf3c 6bf7 05bd ee4e 5c3d 7f7b 513d
00000030: d4d7 acbd 7bfa 483d 9897 8f3c a40d 393d
00000040: f831 bfbd 785f 4ebd 435d 6abd df3d 46bc
00000050: cf8e adbb 07c9 323d fa45 b93d e0c7 36bd
00000060: 2e1c 2a3d a0c2 5f3c af42 2f3d 8870 31bc
00000070: 6711 763d 3c8f ab3b 4c31 ba3c b84b 51bc
00000080: 631c 153d 842e b9bc 7367 8c3c fec3 f8bc
00000090: 25b0 b63d 3f0e ba3c bcae d63c 5594 eebc
000000a0: 2b84 88bd d9e3 323c 958d 143d c35e d2bc
000000b0: 2a11 1bbd 161d 6cbc ee80 5fbd 3ff3 19bd
000000c0: 3544 983d 5171 3c3d 0eb8 693c 0986 bd3d
000000d0: 359d 883d ef77 7fbd 7000 f03b fc02 a23d
000000e0: 44c0 733d 7846 b4bd e175 00bd 78e7 5b3c
000000f0: 27c0 d8bd f88b 103c de7f 573d ef12 b43d
00000100: 32dd aeba a1f5 a3bd e7ea 013b 89ac 613c
00000110: 055e 5d3d 5733 43bc ffa7 b2bc f63a 4dbd
00000120: 1742 a83d 912b 3b3d 8dc3 e0bd 6a2c 19bd
00000130: 5cd3 41bc 543c a9bd ed07 90bd ddd6 6b3d
00000140: 67e4 643d 78a8 103d c8cb 0a3d 2660 893d
00000150: 5e4b 88bb 7fa0 e2bc 19aa 0cbc bd76 37bd
00000160: ea33 e13c 04a0 133d 71bd babd 1374 aabd
00000170: 7931 a0bd 4643 8c3b 4be9 6bbd a2b1 ccbd
00000180: 3324 aebc adb1 76bd b2c3 6bbd 0db2 9bbc
00000190: c6f9 0f3d 55b6 a7bd a386 90bd 3585 bebc
000001a0: 44a9 7e3d 202e d7bc d5c5 82bd 0e6e 3bbd
000001b0: 1c46 2d3d cbf3 6c3d c58b 3ebd 0b12 8ebd
000001c0: bfd9 66bd ae28 94bd 1236 15bd 6613 2e3d
000001d0: e1b3 8ebd 6de6 953d fe31 333d 7550 8c3d
000001e0: b549 27bd 3d8f 7cbd 0003 eab9 a491 21bd
000001f0: 78e4 c2bd 4b40 8abb 473f a73d ed2f 33bd
00000200: 2524 8ebd 611b 133c 9f63 8e3d ca4c e93a
00000210: 7b84 01bd 5098 5cbc 7f10 9abd fc30 b73d
00000220: 4694 9cbc bb69 fe3c 6277 f73c 13dd da3d
00000230: 439b 9dbc e1ab 36bd 3e0a 063d 4aab c93d
00000240: 3401 923d 57ed a83b 98da 5d3d 6881 823d
00000250: e7cd 6e3d 3450 88bd 6ce6 61bc b560 023d
00000260: eac0 dabc 81f6 68bd 314d 153d e210 7e3d
00000270: 2157 643d 4b0f d63d 17db 2c3d 71c7 823d
00000280: fd54 983d fe29 b93d 7d5b 20bd edec 053d
00000290: f83f 02bd 0cff 62bc 5297 6e3d 20b1 fc3d
000002a0: b41c b93d 2e21 ba3d c9db 393d a708 aabd
000002b0: c6e5 cd3b 11c1 8bbd 2eeb 39bd b99f 0ebd
000002c0: 8378 28bd 1217 debc 6274 a43d a1c2 3abd
000002d0: 99fb 7fbd e2ed 4a3d 77f0 ac3d f004 14bd
000002e0: 036e 053e 5230 d33d b924 a8bd ebd1 903d
000002f0: 55d5 f43d 9e13 0ebd c8eb a9bd ec2c d6bc
00000300: 306a 4c3d b879 dd3c c306 04bd 65ac 0abe
00000310: c63a 82bd f4e8 3cbd 5f09 0f3c 43d1 3bbd
00000320: dc1d d4bd 7921 bbbb 8c6e 963c ddc4 543d
00000330: 1e5c 113c 9f75 803d e974 9f3d 0ee0 87bd
00000340: 3577 173d 8177 5e3d 4a24 573d 5548 9dbc
00000350: cf41 b5bd 4c34 cabd 8a9b 803d 6b90 a0bc
00000360: 458e 1b3d f43c e93d e53e bc3d 54f8 8abd
00000370: 0003 ba3d dc6f babd 9ada 05bc f1a5 53bd
00000380: 4623 543d d2b3 9d3d 116b 62bd 57a9 003e
00000390: 74d2 803d 1173 79bd 8ccc 00bc a623 553c
000003a0: 15f4 e0bc e669 3d3d b225 69ba ea61 7e3c
000003b0: 48a9 a53d 5751 3e3d f258 d63d f810 51bd
000003c0: 909c 8bbc a334 c4bd bbc6 0abd b643 3abd
000003d0: e34d 80bc 694d dbbd ad9d db3d d555 bd3d
000003e0: c811 bbbd 43d7 8ebd 1b94 553d c25e 8a3d
000003f0: 0b0f 0a3d 099b c2bc 8a43 933c cabc d33d
-0.039546493 0.045249723 0.0773199 0.04046473 -0.03056454 -0.097948425 0.004396196 0.040000103
0.023385823 -0.03270666 0.05378621 0.051143166 -0.084396034 0.049067 0.01752834 0.045179024
-0.09335703 -0.050384015 -0.057217848 -0.012099712 -0.005296565 0.043648746 0.0904655 -0.04462421
0.04153078 0.013657242 0.042788204 -0.010830052 0.06007519 0.0052355807 0.022728585 -0.0127744
0.036404025 -0.022605188 0.017139172 -0.030366894 0.08920316 0.022711871 0.026206367 -0.029123465
-0.06665834 0.010918581 0.036267836 -0.025679952 -0.037858166 -0.0144112315 -0.054566316 -0.037585493
0.074348845 0.046006504 0.014265073 0.09254081 0.0667061 -0.062370237 0.007324271 0.079107255
0.05950953 -0.08802503 -0.031362418 0.013421886 -0.10583525 0.008822434 0.052612178 0.08792674
-0.0013341068 -0.08005834 0.001982385 0.013774046 0.054044742 -0.011914096 -0.021808622 -0.050105058
0.08215731 0.045695845 -0.10974798 -0.037395872 -0.011830177 -0.0826346 -0.07032762 0.057577956
0.055881884 0.035316914 0.033885747 0.06707792 -0.004159375 -0.027664421 -0.008585476 -0.044790972
0.027490575 0.036041275 -0.09118164 -0.08322921 -0.07821936 0.0042804806 -0.057595532 -0.09994818
-0.021257496 -0.06022804 -0.057559676 -0.0190058 0.035150312 -0.08189074 -0.0705693 -0.023256877
0.062173143 -0.026267111 -0.0638539 -0.045759253 0.04230319 0.057849687 -0.046520013 -0.06937035
-0.056360003 -0.072343215 -0.03642852 0.04249897 -0.06967903 0.07319341 0.04374885 0.068512835
-0.040841777 -0.06166004 -0.00044634193 -0.039445534 -0.09516233 -0.00421909 0.08166366 -0.043746877
-0.06940488 0.008978696 0.06952595 0.0017799374 -0.031620484 -0.0134640485 -0.07522678 0.0894489
-0.019113671 0.031056276 0.030208293 0.10686698 -0.019239074 -0.04459751 0.03272461 0.09847124
0.07129136 0.0051552462 0.054163545 0.063723385 0.058301833 -0.066559225 -0.013787847 0.03183051
-0.026703317 -0.05687571 0.03645057 0.06202782 0.055747155 0.10452136 0.042201128 0.06385697
0.07438085 0.090412125 -0.03914975 0.032696653 -0.031799287 -0.013854753 0.05824978 0.123384714
0.09038678 0.0908836 0.04537562 -0.083024316 0.0062834946 -0.06823934 -0.0453903 -0.034820292
-0.041130554 -0.02711061 0.08030011 -0.04559577 -0.0624958 0.04954327 0.084443025 -0.03613752
0.13030247 0.10311951 -0.08210129 0.07071289 0.11954752 -0.034686677 -0.08296925 -0.026144467
0.049905956 0.02703558 -0.03223301 -0.13542326 -0.063588664 -0.0461206 0.008730262 -0.045853864
-0.10357258 -0.0057107774 0.01836326 0.051945556 0.00887206 0.062724344 0.07785971 -0.06634532
0.03697892 0.054313187 0.052524842 -0.01919953 -0.088504426 -0.09873256 0.06279667 -0.019600114
0.037977476 0.11388579 0.09191684 -0.06785646 0.090826035 -0.09103367 -0.008169794 -0.051671926
0.051791452 0.07700314 -0.055277888 0.12564598 0.06290141 -0.06090075 -0.007861268 0.0130089875
-0.027460137 0.04624357 -0.00088938617 0.015526274 0.080889285 0.04646429 0.10466184 -0.051041573
-0.017042428 -0.09580352 -0.03388093 -0.04547473 -0.01566214 -0.10708124 0.10723434 0.09244887
-0.09134251 -0.06974652 0.052143198 0.06756355 0.033705752 -0.023755567 0.017976541 0.10338743

6.bias f4 [128]
00000000: f128 873c be50 383c 4728 be3c 4697 bebd
00000010: 5bb7 bebc 4662 bc3d a53e a93d 0071 ffbc
00000020: abf6 923d a792 63bd 6a70 c03d 3298 293d
00000030: a518 2a3d f39e 943d 804e 893b 5422 423d
00000040: bb69 933d cf9a 7b3d 9bdd 62bb 4ae1 5e3d
00000050: 7492 bc3c d0e1 273d 2822 5ebd fa9e 6dbd
00000060: 3863 06bd aa3a 903d 1c46 98bc 0d01 71bd
00000070: 24b2 adbc f7b1 92bc 177c fcbc a23c 9abd
00000080: c4db 1dbd 3f6d 203d b953 47bd a7b8 b53c
00000090: 158d 293d f588 27bd 3b24 a3bd 9f79 c83c
000000a0: 802b 3638 8b13 94bc 45a4 683d 50d4 213d
000000b0: 3155 4c3d 1865 7b3d 48f6 4e3d 3f94 2b3d
000000c0: 718a a13d 72f4 60bd 3fb4 f6bc 5d6b f53c
000000d0: a51f b8bb aaa3 a13d 69e7 3fbb 1d29 8ebc
000000e0: fc95 17bd 584d 593d 0ad7 07bd 048f b93d
000000f0: 63c3 78bd f9e8 9d3d 9998 7d3d 6d0f 23bb
00000100: 712c 4c3d 8969 c5bd 74ad bdbd b6bc 7d3b
00000110: e45b 8cbc bfa0 63bb e27f 863b 8d5f 60bd
00000120: 592b 233d 417e 0bbd 5617 163d ded1 4ebc
00000130: 8352 fe3c 2545 323d 46fd 7c3c a872 9fbc
00000140: bba3 14bd 8d7f 8d3c 8f19 31bd ff08 3a3b
00000150: 0e98 1fbc fcd4 8dbb 85a0 18bc f7a3 223d
00000160: 36bb c3bc 0054 e8bb 10d3 323d 385d 06bc
00000170: 29ce 50bd 2ecd 0c3c 611a 943d 3925 8abd
00000180: cfee b4bd bdb3 863d 100c 95bd b255 4cbd
00000190: 031c 1d3d b3d6 a83d 802b 19bb 54ad b53c
000001a0: 5e2b 4f3d bc79 8f3d 98c2 023d 2ee0 413d
000001b0: a81d 34bd c0a4 1f3d 2ff9 6fbd 2269 9bbd
000001c0: 8ab3 b4bd ad95 b8bc 8241 78bd 5701 323d
000001d0: dde8 523d 3845 a1ba 0a88 243c d7b6 21bd
000001e0: 279a 453d 591b adbd 3e8c 45bd 4261 9f3d
000001f0: acb3 833d 3bd4 4e3c d27a e43c 2138 9ebc
0.016499015 0.011249719 0.023212565 -0.09306197 -0.02328079 0.09198432 0.082639016 -0.031181812
0.071759544 -0.05555978 0.09396441 0.04140491 0.04152741 0.0725688 0.004190266 0.04739602
0.07197901 0.061426934 -0.003461695 0.05441407 0.023019053 0.040986836 -0.054231793 -0.05801294
-0.032809466 0.07042439 -0.018588118 -0.058838893 -0.021203108 -0.017907126 -0.03082089 -0.07531096
-0.038539663 0.039166685 -0.04866383 0.022182776 0.041394312 -0.040902097 -0.07965895 0.024472056
4.3432694e-05 -0.018075725 0.056797285 0.039509118 0.049885932 0.061375707 0.05052784 0.041889425
0.07887734 -0.05492062 -0.030115245 0.029958421 -0.0056190067 0.078925446 -0.0029282218 -0.017353589
-0.03700827 0.053052276 -0.03316406 0.09060481 -0.06073321 0.07710452 0.061913107 -0.002488102
0.04984707 -0.0963927 -0.09261599 0.0038717217 -0.01713366 -0.0034733263 0.0041046003 -0.054778624
0.03983626 -0.034055952 0.03664335 -0.012623278 0.031045204 0.043522973 0.0154412445 -0.019463852
-0.036288958 0.017272735 -0.043237265 0.002838671 -0.0097408425 -0.004328368 -0.009315615 0.03970715
-0.02389298 -0.0070900917 0.043658316 -0.008200936 -0.05097786 0.0085938405 0.07231594 -0.06745381
-0.088346116 0.06577251 -0.07277691 -0.049886413 0.038356792 0.082440756 -0.0023371875 0.022177376
0.050578468 0.07005641 0.03192386 0.047332935 -0.043973595 0.038975477 -0.05858725 -0.07588412
-0.08823307 -0.022532308 -0.060609348 0.04345831 0.051491607 -0.0012303954 0.0100422 -0.03948101
0.048242714 -0.08452482 -0.04822945 0.07782222 0.06430754 0.012623842 0.027890597 -0.019313874
