models1/checkpoint75.pth.tar (torch_old, 91660 bytes, 12 tensors)

0.weight f4 [32, 26]
0.07061432 -0.08757696 0.19743961 -0.12640604 -0.09236302 -0.005134246 0.171604 0.011827639
-0.08942074 0.11296329 0.2084355 0.15423518 -0.17620791 -0.029303566 0.07534955 0.004291572
-0.07797188 0.13370256 -0.0011339632 0.047407173 0.10859063 -0.04457788 -0.18532634 -0.20041864
0.025391404 -0.03168227 0.026964914 -0.15119617 0.13508368 0.088690594 0.055260397 0.09882441
0.18978748 0.095912986 0.004761697 -0.14120457 0.09494789 -0.11765472 -0.0545132 -0.16263011
-0.0546239 -0.08059991 0.12101058 0.024132378 -0.0120762605 -0.064397775 -0.02481739 -0.075901814
0.0500898 0.11385895 0.060738206 0.1846693 -0.032881215 -0.071074024 0.14687908 0.25272822
0.10799525 -0.10236084 -0.08816325 -0.07459517 0.12472513 0.097497836 -0.094752885 0.010777071
-0.16582495 0.13520418 -0.10708174 -0.16979851 0.17957951 0.2102877 0.13045937 -0.15204981
0.054806445 0.028749097 0.20367332 0.14936288 0.10590243 -0.035829276 0.06192855 -0.029970245
-0.011463886 0.0052853767 -0.16324392 0.16523027 0.10603661 0.10065322 -0.10579898 -0.14989054
0.22346747 -0.050787628 -0.18720895 -0.12706839 -0.0019156768 -0.02957775 0.08281459 -0.13646859
0.19943848 0.07080815 0.070132874 -0.13124152 0.021008134 0.10931493 0.12562133 -0.034133375
0.08228585 0.12711059 0.05206652 -0.022746686 0.23939168 -0.060500767 0.14066824 -0.08322676
0.13646445 -0.06482037 0.11200601 0.058799475 0.021646058 -0.17910299 -0.18368953 0.2012261
-0.013612587 0.16282707 -0.08093225 -0.17421703 0.12586266 -0.012186687 0.18358792 -0.12198866
-0.0053678467 0.05985322 0.0715731 0.15937948 -0.0566562 0.083777376 -0.17308499 0.14072785
0.039015617 0.044479966 0.103052825 -0.029323518 0.08408074 -0.041993003 0.07735342 0.2419057
0.07212897 -0.1900736 -0.15079418 0.07334765 0.05730039 0.058455225 -0.03477721 -0.06352285
0.08395932 -0.15054935 0.111556746 0.010416783 -0.078458846 -0.0627082 0.17914198 -0.16700418
0.18397178 0.14705199 -0.20194635 0.14883211 0.112898394 -0.17826894 0.2088681 -0.056205336
-0.17090183 -0.11111791 0.17212787 0.044301216 -0.08499666 -0.0149086695 0.1869304 -0.11327527
0.07448461 -0.008129225 -0.12922233 0.076250814 0.0450835 -0.09505015 -0.08136129 0.19899629
0.0787961 0.042665005 -0.035313413 -0.16244087 -0.00837586 -0.077144675 0.01951288 -0.0539837
-0.13418572 0.09963247 -0.1695375 0.093928955 0.16492559 0.04729837 -0.16777408 -0.04401136
-0.19832753 0.15792225 0.15837067 0.21490572 0.1760016 0.10737603 0.22122167 -0.027505618
-0.04106513 0.12159674 -0.0061673294 -0.105115876 -0.1297136 0.15726842 0.04368553 -0.13016383
0.017715244 -0.17174315 -0.18909098 -0.0037784702 -0.16843058 -0.0264714 0.12973915 -0.011546158
0.043915786 -0.16535823 0.14750676 -0.14879677 -0.19184454 0.077095 -0.17421073 0.13236246
-0.05377594 -0.18349293 -0.1399491 0.13567875 -0.08916394 0.012905765 -0.0256442 0.14091398
-0.12786505 -0.17012303 -0.108140826 0.053328868 -0.11469434 -0.1413054 0.04482275 -0.15175
0.018281806 0.15896408 0.20922798 -0.10838726 -0.036388673 -0.18883777 -0.006176171 -0.1339203
00000000: 3e9e 903d 8d5b b3bd 9c2d 4a3e 9670 01be
00000010: d328 bdbd 2d3d a8bb f5b8 2f3e b7c8 413c
00000020: 3922 b7bd 4c59 e73d 1e70 553e d4ef 1d3e
00000030: d96f 34be 080e f0bc dd50 9a3d 51a0 8c3b
00000040: b9af 9fbd 53e9 083e 7ea1 94ba 062e 423d
00000050: c464 de3d 4c97 36bd 30c6 3dbe 8b3a 4dbe
00000060: a201 d03c 45c5 01bd 86e5 dc3c 2bd3 1abe
00000070: 6053 0a3e 6aa3 b53d ba58 623d 7464 ca3d
00000080: a657 423e 076e c43d 0208 9c3b ee97 10be
00000090: 0a74 c23d f5f4 f0bd 3c49 5fbd 8288 26be
000000a0: 50bd 5fbd 9111 a5bd 65d4 f73d 44b1 c53c
000000b0: 82db 45bc fbe2 83bd d74d cbbc 6972 9bbd
000000c0: f62a 4d3d e22e e93d a0c8 783d f319 3d3e
000000d0: 74ae 06bd 428f 91bd 7867 163e 9865 813e
000000e0: 9d2c dd3d 8fa2 d1bd ef8e b4bd 5ac5 98bd
000000f0: e46f ff3d f2ac c73d cd0d c2bd 5092 303c
00000100: 04ce 29be f772 0a3e ac4d dbbd a9df 2dbe
00000110: b1e3 373e a955 573e 2497 053e f2b2 1bbe
00000120: b97c 603d 3a83 eb3c bd8f 503e 95f2 183e
00000130: 60e3 d83d b8c1 12bd cba8 7d3d 2984 f5bc
00000140: 06d3 3bbc f430 ad3b 6a29 27be 2032 293e
00000150: b929 d93d 4723 ce3d 23ad d8bd e87c 19be
00000160: a8d4 643e b006 50bd b4b3 3fbe 371e 02be
00000170: 7217 fbba 0a4d f2bc b29a a93d 6cbe 0bbe
00000180: 9a39 4c3e dd03 913d d3a1 8f3d 2d64 06be
00000190: 4019 ac3c 82e0 df3d e1a2 003e 70cf 0bbd
000001a0: 7c85 a83d 4729 023e b443 553d 4257 babc
000001b0: 1823 753e a7cf 77bd 560b 103e cb72 aabd
000001c0: 56bd 0b3e 8bc0 84bd 6863 e53d b8d7 703d
000001d0: 1353 b13c c666 37be 1c19 3cbe 370e 4e3e
000001e0: 5407 5fbc 24bc 263e cfbf a5bd f365 32be
000001f0: 24e2 003e acaa 47bc 79fe 3b3e 31d5 f9bd
00000200: c3e4 afbb a628 753d eb94 923d 6034 233e
00000210: 5510 68bd 7993 ab3d 313d 31be f61a 103e
00000220: d7ce 1f3d a030 363d 5c0d d33d e037 f0bc
00000230: 8632 ac3d db00 2cbd 786b 9e3d 21b6 773e
00000240: 5ab8 933d a7a2 42be ca69 1abe 4b37 963d
00000250: d0b3 6a3d bf6e 6f3d 8c72 0ebd 4518 82bd
00000260: ddf2 ab3d 9c29 1abe dd77 e43d 28ab 2a3c
00000270: 08af a0bd 286d 80bd ff70 373e 2503 2bbe
00000280: 1963 3c3e cc94 163e 06cb 4ebe 7267 183e
00000290: 4637 e73d 228c 36be 85e1 553e 9137 66bd
000002a0: e400 2fbe c991 e3bd 4a42 303e 3175 353d
000002b0: bb12 aebd 7e43 74bc af6a 3f3e ddfc e7bd
000002c0: 638b 983d 7130 05bc dc52 04be 6329 9c3d
000002d0: 7aa9 383d a7a9 c2bd bfa0 a6bd afc5 4b3e
000002e0: da5f a13d 80c1 2e3d cca4 10bd e656 26be
000002f0: e73a 09bc 07fe 9dbd 7ad9 9f3c 031e 5dbd
00000300: fb67 09be 1c0c cc3d 3d9b 2dbe d35d c03d
00000310: 41e2 283e f0bb 413d f8cc 2bbe 4145 34bd
00000320: 5f16 4bbe 5fb6 213e ec2b 223e 3f10 5c3e
00000330: c339 343e f7e7 db3d ef87 623e 7653 e1bc
00000340: e933 28bd b607 f93d 4f17 cabb fe46 d7bd
00000350: a4d3 04be f90a 213e 99ef 323d ab49 05be
00000360: 8f1f 913c 70dd 2fbe 11a1 41be 36a0 77bb
00000370: 1179 2cbe 8dda d8bc 57da 043e 192c 3dbc
00000380: 0ae1 333d ab53 29be 030c 173e 2e5e 18be
00000390: e572 44be fce3 9d3d 4c64 32be 068a 073e
000003a0: 2944 5cbd 92e5 3bbe d14e 0fbe 5fef 0a3e
000003b0: 959b b6bd b472 533c c913 d2bc c14b 103e
000003c0: 0eef 02be bb34 2ebe f078 ddbd 5f6f 5a3d
000003d0: dee4 eabd 5db2 10be 0f98 373d 5a64 1bbe
000003e0: bac3 953c 7bc7 223e dc3f 563e 24fa ddbd
000003f0: 4a0c 15bd b05e 41be 7a61 cabb 6722 09be

0.bias f4 [32]
-0.13775551 -0.109690465 0.19241866 -0.13035607 0.14869869 0.072243325 -0.053337228 0.06878804
0.0668473 -0.03177583 0.077479355 0.032135107 -0.020833855 0.00090576254 0.06687834 0.20364814
-0.011530713 0.13455693 0.08696202 0.15086623 -0.0646397 0.11126411 -0.10372451 0.1783683
-0.09450126 0.13151564 -0.0032023445 -0.1028347 0.18283877 0.16457197 -0.12815484 -0.035118666
00000000: c80f 0dbe 65a5 e0bd 6609 453e 107c 05be
00000010: 7844 183e 4ff4 933d 2378 5abd bee0 8c3d
00000020: 3de7 883d 5f27 02bd 7fad 9e3d 1aa0 033d
00000030: c3ab aabc b270 6d3a 83f7 883d 2389 503e
00000040: 51eb 3cbc 4bc9 093e 2519 b23d ad7c 1a3e
00000050: d261 84bd 70de e33d 846d d4bd 2ea6 363e
00000060: e089 c1bd 09ac 063e 6dde 51bb 009b d2bd
00000070: 163a 3b3e 8e85 283e 063b 03be 97d8 0fbd

2.weight f4 [64, 32]
-0.1481455 -0.10500231 0.19234543 0.0031251458 -0.008829635 0.19992632 -0.029835831 -0.14333744
0.17455615 0.079618186 0.04833831 0.029246232 -0.017865783 0.14825225 -0.06977984 0.102293186
0.19060569 0.11074351 -0.14266154 -0.1691363 0.02694676 -0.11131063 -0.20467642 0.15975426
0.1491851 -0.09541585 -0.05350579 -0.18091676 0.082705125 0.08786433 -0.07690414 0.22795138
-0.15562664 0.13211866 -0.17157416 0.01281418 -0.04248761 0.015055743 -0.19410832 0.010688972
0.09083533 0.112491585 -0.18709941 0.05326077 0.12214418 0.058782537 -0.10071104 0.1967679
-0.14561246 -0.048045285 0.11871947 0.026440717 0.12427208 0.16182612 0.014616855 0.1957027
-0.12499681 0.17930004 0.0055650347 -0.18866453 0.015750967 0.073330484 0.14566432 0.061329495
0.01293243 0.049234573 0.15957214 0.017127816 0.05176625 -0.007458009 -0.13198349 0.16736352
0.0012425757 0.09350394 0.06327291 0.027383156 0.010121637 0.030974822 -0.10655797 -0.0473269
-0.0013461041 0.11029358 0.1697909 -0.01864812 0.21695027 -0.116420805 -0.14205611 -0.043556422
-0.08950728 0.12342978 0.11149994 0.2020734 0.08675836 0.04212454 0.019270526 -0.12610136
-0.10139896 -0.16673286 -0.042173713 -0.13806558 -0.0024533018 0.13134654 0.15908189 0.10109301
-0.08868645 0.16354346 -0.15693378 -0.12823364 -0.14264232 0.0073094424 0.10841028 -0.007843485
0.09590045 0.008892462 0.075418904 0.09424195 -0.06906574 0.035132878 0.05032311 -0.11542333
-0.13259846 0.10918774 -0.17639391 -0.0063954443 -0.037650224 0.016833981 -0.052290577 0.14849012
-0.19985428 0.015688116 0.010059835 0.044681102 -0.017471097 0.07467441 -0.030147338 0.22419901
-0.1580768 0.0094817905 -0.06666516 0.10245994 0.14279328 0.016519105 -0.16242795 0.046189718
-0.07009523 -0.106601134 0.15599242 0.004980961 0.072958425 0.17991011 -0.109319024 -0.14836612
0.07453618 0.15712778 0.09250094 0.05925528 0.019138506 0.048609395 -0.19677672 -0.18359965
0.17452827 -0.18511316 -0.11274508 -0.032890163 -0.0011652879 0.10129574 0.04390729 0.20418976
0.12326761 -0.1905261 0.081376456 -0.09738877 0.105086416 0.16433905 0.014619606 -0.03783765
0.07862258 0.16271682 -0.11235766 0.19172546 0.058264337 0.020095883 0.012936917 0.14225952
0.034903076 0.031996787 0.1690408 -0.14573573 0.16728146 -0.14549144 0.19669019 -0.032745153
-0.14411028 -0.07952041 0.00018140727 -0.16303888 0.13648005 -0.08041399 -0.09234945 0.1029597
-0.040591933 -0.024342395 -0.11770898 -0.14034098 -0.08314056 -0.025033833 -0.10726603 -0.042165168
-0.08916957 0.15013106 0.13434933 0.15298182 0.112259515 0.16794416 0.16724725 0.038059875
0.012498036 0.16357157 -0.11271902 0.18490443 -0.1394143 0.05070369 0.13445766 -0.13224843
-0.044046197 -0.10155284 0.20007381 -0.08867667 -0.034354754 -0.12863195 -0.13741438 0.1413655
-0.076270185 -0.048786808 0.19648659 0.040903628 0.064316794 0.054011893 -0.0040298225 0.06850519
-0.050827835 -0.120576754 -0.053558283 0.064237654 -0.07424636 0.07234411 -0.14472353 0.02644316
0.07524991 -0.10223586 -0.10967443 0.08891366 0.000663023 0.04534538 -0.033181176 0.16323236
00000000: 74b3 17be 730b d7bd 33f6 443e 3fcf 4c3b
00000010: 2caa 10bc 7cb9 4c3e 466a f4bc 0dc7 12be
00000020: d9be 323e dc0e a33d 64fe 453d cb95 ef3c
00000030: 435b 92bc 70cf 173e bce8 8ebd 177f d13d
00000040: 232e 433e 7ecd e23d de15 12be 1132 2dbe
00000050: 74bf dc3c d4f6 e3bd b296 51be 9f96 233e
00000060: fbc3 183e 6369 c3bd e328 5bbd 3e42 39be
00000070: 4e61 a93d 37f2 b33d eb7f 9dbd 166c 693e
00000080: 975c 1fbe 1d4a 073e 23b1 2fbe 91f2 513c
00000090: 7d07 2ebd 5dac 763c 55c4 46be cc20 2f3c
000000a0: e007 ba3d fd61 e63d fd96 3fbe f727 5a3d
000000b0: ba26 fa3d f5c5 703d 9741 cebd 867d 493e
000000c0: 6f1b 15be 22cb 44bd 3223 f33d 349a d83c
000000d0: 5c82 fe3d bfb5 253e 897b 6f3c 4a66 483e
000000e0: 54fe ffbd 6e9a 373e e55a b63b 4631 41be
000000f0: 2c08 813c 4b2e 963d 0729 153e a334 7b3d
00000100: 8be2 533c 31aa 493d e166 233e a24f 8c3c
00000110: d908 543d 5062 f4bb ae26 07be 5861 2b3e
00000120: ecdd a23a fe7e bf3d 3a95 813d a452 e03c
00000130: 39d5 253c e9be fd3c 113b dabd dad9 41bd
00000140: c26f b0ba 9ae1 e13d aadd 2d3e f1c3 98bc
00000150: 3628 5e3e 086e eebd 2877 11be 3868 32bd
00000160: 984f b7bd c1c8 fc3d 155a e43d 54ec 4e3e
00000170: 5eae b13d c88a 2c3d 39dd 9d3c b720 01be
00000180: 42aa cfbd 05bc 2abe 58be 2cbd 1061 0dbe
00000190: 93c7 20bb b57f 063e 5de6 223e da09 cf3d
000001a0: 3ea1 b5bd f077 273e 40b3 20be ae4f 03be
000001b0: d410 12be 0c84 ef3b 3506 de3d f681 00bc
000001c0: 7567 c43d b0b1 113c 3a75 9a3d ec01 c13d
000001d0: 5772 8dbd 7ee7 0f3d 9b1f 4e3d 1163 ecbd
000001e0: e4c7 07be d29d df3d 9ba0 34be e090 d1bb
000001f0: 1f37 1abd 6be7 893c a52e 56bd cb0d 183e
00000200: 9aa6 4cbe 5d84 803c 02d2 243c 8803 373d
00000210: 8c1f 8fbc e6ee 983d 8df7 f6bc 6d94 653e
00000220: e2de 21be 8359 1b3c be87 88bd 84d6 d13d
00000230: 6738 123e 1353 873c 8353 26be 6e31 3d3d
00000240: 178e 8fbd b251 dabd 7abc 1f3e 5437 a33b
00000250: 3a6b 953d 5b3a 383e a7e2 dfbd 4aed 17be
00000260: 6da6 983d 1be6 203e 2271 bd3d aab5 723d
00000270: 5bc8 9c3c a51a 473d d67f 49be 8c01 3cbe
00000280: 8ab7 323e 4e8e 3dbe e4e6 e6bd d6b7 06bd
00000290: 93bc 98ba 2474 cf3d 21d8 333d 1f17 513e
000002a0: bb73 fc3d 4619 43be b3a8 a63d c373 c7bd
000002b0: 8c37 d73d 7f48 283e 1287 6f3c a7fb 1abd
000002c0: e004 a13d 3d9f 263e c61b e6bd ae53 443e
000002d0: 96a6 6e3d 1fa0 a43c 5df5 533c 7bac 113e
000002e0: 87f6 0e3d 100f 033d 0819 2d3e bf3b 15be
000002f0: d54b 2b3e b5fb 14be 2769 493e c81f 06bd
00000300: a591 13be 99db a2bd 2538 3e39 aaf3 26be
00000310: 6dc1 0b3e 17b0 a4bd b521 bdbd 89dc d23d
00000320: ba43 26bd b469 c7bc 6811 f1bd 8cb5 0fbe
00000330: 9945 aabd c113 cdbc 4bae dbbd 62b5 2cbd
00000340: 899e b6bd f5bb 193e df92 093e 44a7 1c3e
00000350: 51e8 e53d 8ef9 2b3e dd42 2b3e ace4 1b3d
00000360: 90c4 4c3c 4e7f 273e 3bd9 e6bd 9657 3d3e
00000370: 9fc2 0ebe acae 4f3d 45af 093e 226c 07be
00000380: c969 34bd effa cfbd 26e0 4c3e 1d9c b5bd
00000390: 92b7 0cbd 18b8 03be 5bb6 0cbe 1ec2 103e
000003a0: 8b33 9cbd add4 47bd c833 493e 908a 273d
000003b0: 86b8 833d 933b 5d3d 9a0c 84bb 734c 8c3d
000003c0: d930 50bd f2f0 f6bd ee5f 5bbd 088f 833d
000003d0: 7a0e 98bd 2629 943d 6832 14be 539f d83c
000003e0: a01c 9a3d 0961 d1bd fd9c e0bd 5d18 b63d
000003f0: b8ce 2d3a 14bc 393d fce8 07bd 6226 273e

2.bias f4 [64]
0.16847728 0.15383439 -0.12372704 -0.15115963 0.12839378 -0.10041307 -0.14456175 0.07709604
0.03853798 0.06947624 0.10349296 -0.10592224 0.057600696 -0.07767829 -0.11073564 0.05534845
0.031905938 0.1252737 0.17781803 -0.13533919 0.014567018 -0.0457292 0.11546261 0.06539757
0.088434264 0.12624992 -0.10595027 -0.14430152 0.14401865 0.046873476 0.1811694 0.09868915
0.02040088 0.13797562 0.1801198 -0.053991657 0.08982163 -0.07374247 0.11834215 0.05353158
0.032590892 -0.12982665 -0.005237874 0.009709756 0.05790007 0.08060444 0.02134069 -0.023257699
0.1540102 -0.06357792 -0.111005224 0.17845781 0.0031224117 0.0041760956 -0.12726794 0.14017564
0.016341433 0.052124444 -0.024082853 -0.05509087 -0.030807715 0.03037828 0.09828485 0.17628935
00000000: 4f85 2c3e c386 1d3e 9a64 fdbd 97c9 1abe
00000010: a979 033e 5ea5 cdbd ff07 14be 87e4 9d3d
00000020: 00da 1d3d 8f49 8e3d 1ef4 d33d c2ed d8bd
00000030: b5ee 6b3d cc15 9fbd 5ec9 e2bd 0eb5 623d
00000040: cdaf 023d c047 003e ee15 363e 5b96 0abe
00000050: 80aa 6e3c 8b4e 3bbd a977 ec3d 29ef 853d
00000060: 061d b53d a947 013e 75fc d8bd c7c3 13be
00000070: a079 133e 67fe 3f3d 7984 393e 891d ca3d
00000080: bf1f a73c 7b49 0d3e 5371 383e 5b26 5dbd
00000090: 67f4 b73d 4b06 97bd 5e5d f23d ee43 5b3d
000000a0: 077e 053d 47f1 04be 79a2 abbb ab15 1f3c
000000b0: a028 6d3d f113 a53d acd2 ae3c ee86 bebc
000000c0: dab4 1d3e 2435 82bd b556 e3bd a5bd 363e
000000d0: 60a1 4c3b a1d7 883b 8752 02be 348a 0f3e
000000e0: 78de 853c 7180 553d 6749 c5bc f7a6 61bd
000000f0: 7660 fcbc dfdb f83c 9149 c93d 3285 343e

4.weight f4 [128, 64]
0.031274747 0.012237586 0.13402817 -0.056147583 0.036944453 -0.06009332 0.051395655 0.008557215
0.14486653 -0.041307755 0.11721443 -0.047250867 -0.08534323 -0.023596998 -0.085278 -0.09636021
0.023078525 -0.08757625 -0.10301745 -0.02746295 -0.062083375 -0.06606153 -0.04423256 0.040927257
-0.11709692 -0.0769448 -0.012450705 -0.10519483 0.04694395 -0.099003986 -0.03007657 0.13463537
0.0123416195 -0.05618247 0.130154 -0.058464337 0.13945529 0.01610495 -0.007350407 0.16030677
0.049747933 -0.0020993524 -0.04312604 0.011182701 0.10237321 0.047103845 -0.038968153 0.13388386
0.020645248 -0.09233279 0.023212984 0.011568068 0.14325243 0.007867363 -0.07060348 0.08812245
0.026758209 0.01711235 0.014894478 -0.02245617 0.06982825 0.13024989 -0.0044540092 0.1495489
0.027363304 0.00036595186 -0.08547164 -0.07377751 0.0507887 0.10132744 0.08355424 0.047829114
0.003635785 -0.11897452 0.1054464 0.041915104 0.06701408 -0.0680446 -0.06997002 0.06916323
0.06948119 0.10621693 0.08855308 -0.08841524 -0.06953098 -0.023075318 -0.09833173 -0.09439326
-0.05597572 0.11638687 0.13073197 -0.094755955 0.11078351 -0.02024936 -0.048167173 -0.05533687
0.10934566 -0.026489226 -0.098391466 0.10136108 0.0041934745 0.08187866 0.017296761 0.11205387
-0.05127082 0.1122547 -0.06965374 -0.030152312 0.13053018 -0.07298071 -0.026341446 0.021070769
0.01919848 0.010534619 0.033880875 0.022902507 -0.05465899 -0.061090056 0.07149412 -0.09383382
0.007069028 -0.070104085 -0.036046825 0.041091006 0.093506075 -0.080277406 -0.120431066 -0.00042906505
-0.05606281 -0.04404199 -0.09461054 0.08581274 -0.023070939 0.046342462 -0.026269577 0.059298392
0.08848212 0.08384104 0.09331186 0.003807187 0.02216306 0.06934173 0.06530286 -0.022581734
-0.027985578 0.023355946 0.11130878 0.02809468 0.032860003 0.011729732 -0.023830017 0.09204498
0.093507454 -0.08636178 0.09649846 0.027389249 0.025726354 0.063081056 -0.07558666 -0.08773199
-0.0836952 0.06312129 0.01779693 0.1090205 -0.102274105 0.049469586 -0.007301106 -0.04713016
-0.03215667 -0.1358083 -0.10676086 0.062113065 -0.06732875 0.010212559 0.003826516 0.120966814
-0.08567164 -0.08538676 0.030392438 -0.05921937 0.09373179 0.04404185 -0.0053575966 -0.090017185
-0.06555925 0.10093728 -0.06358122 0.09025278 -0.074494965 0.058285613 0.1149819 -0.027005697
-0.020586869 0.12704633 0.08412992 0.012621498 0.09055293 -0.040289965 -0.07723586 0.118207924
-0.122248374 -0.11708868 -0.08834818 -0.018013343 0.123578735 -0.0241076 -0.033216707 0.1458779
-0.044008534 -0.10216986 -0.009780594 -0.028148025 0.089815155 0.07367523 -0.11968318 0.10788751
-0.088037126 0.09662976 0.084377825 -0.0782093 0.028652716 0.022363538 0.006169299 0.0831114
-0.09459076 -0.07387329 -0.09520364 -0.07756376 0.074733585 0.120242834 0.043304417 -0.04443551
0.03804855 -0.037208043 0.084501855 0.06608338 0.13371278 0.01569835 0.13864581 0.13518557
-0.028113708 0.10214918 -0.10123812 0.10713566 -0.1257957 -0.07722882 0.113228835 -0.04001869
0.116671674 -0.06371573 0.01675071 0.02211177 -0.11633104 0.09720717 -0.020530881 0.07266676
00000000: f319 003d 2880 483c ae3e 093e 02fb 65bd
00000010: 1153 173d 6a24 76bd 4084 523d 9033 0c3c
00000020: e457 143e 5232 29bd 1e0e f03d 208a 41bd
00000030: 6ec8 aebd 7e4e c1bc 3ba6 aebd 8058 c5bd
00000040: 2d0f bd3c 2d5b b3bd d0fa d2bd fbf9 e0bc
00000050: 234b 7ebd 444b 87bd 332d 35bd 57a3 273d
00000060: 83d0 efbd 3c95 9dbd 0bfe 4bbc 6370 d7bd
00000070: 4d48 403d 9ac2 cabd 2463 f6bc dbdd 093e
00000080: 8134 4a3c 971f 66bd 1747 053e 4d78 6fbd
00000090: 5ecd 0e3e 87ee 833c afdb f0bb 7527 243e
000000a0: 7dc4 4b3d 4a95 09bb eea4 30bd a637 373c
000000b0: 0ca9 d13d f6ef 403d 129d 1fbd da18 093e
000000c0: 3920 a93c f918 bdbd 2829 be3c fe87 3d3c
000000d0: c4b0 123e 1de6 003c 8f98 90bd 8b79 b43d
000000e0: 0834 db3c 332f 8c3c f807 743c 00f6 b7bc
000000f0: 1d02 8f3d 3a60 053e f0f2 91bb 5923 193e
00000100: 0229 e03c 3add bf39 c10b afbd aa18 97bd
00000110: d007 503d c384 cf3d 7c1e ab3d 76e8 433d
00000120: 5a46 6e3b eaa8 f3bd 48f4 d73d 2caf 2b3d
00000130: ae3e 893d f85a 8bbd 714c 8fbd 74a5 8d3d
00000140: 274c 8e3d 4388 d93d 515b b53d 0d13 b5bd
00000150: 4266 8ebd 7308 bdbc 2562 c9bd 4151 c1bd
00000160: cc46 65bd 3d5c ee3d 9ade 053e 690f c2bd
00000170: 77e2 e23d fce1 a5bc f14a 45bd eaa8 62bd
00000180: 9ef0 df3d efff d8bc 7781 c9bd 6696 cf3d
00000190: 6a69 893b 00b0 a73d f0b1 8d3c 807c e53d
000001a0: 5a01 52bd cbe5 e53d 9fa6 8ebd fb01 f7bc
000001b0: b4a9 053e e976 95bd 04ca d7bc 9b9c ac3c
000001c0: 2146 9d3c 6599 2c3c acc6 0a3d 0a9e bb3c
000001d0: 1be2 5fbd 9139 7abd 826b 923d f22b c0bd
000001e0: 4ea3 e73b bb92 8fbd d6a5 13bd 0b4f 283d
000001f0: 1d80 bf3d 7b68 a4bd 90a4 f6bd 23f4 e0b9
00000200: 1ea2 65bd 6065 34bd 2cc3 c1bd 97be af3d
00000210: 44ff bcbc 98d1 3d3d 4c33 d7bc dfe2 723d
00000220: 1d36 b53d dab4 ab3d 4a1a bf3d 0082 793b
00000230: 4e8f b53c 0903 8e3d 82bd 853d 54fd b8bc
00000240: 0342 e5bc f854 bf3c dcf5 e33d d026 e63c
00000250: 3698 063d 102e 403c 2b37 c3bc 1482 bc3d
00000260: d680 bf3d 72de b0bd fca0 c53d 6b5f e03c
00000270: 13c0 d23c a430 813d 2ecd 9abd d4ac b3bd
00000280: 6468 abbd bc45 813d deca 913c 2446 df3d
00000290: 1675 d1bd 9fa0 4a3d 1e3e efbb 8e0b 41bd
000002a0: b6b6 03bd 5511 0bbe 70a5 dabd 456a 7e3d
000002b0: a8e3 89bd 9452 273c 49c6 7a3b 73bd f73d
000002c0: 9d74 afbd 41df aebd 90f9 f83c 0390 72bd
000002d0: 74f6 bf3d 3a65 343d c78e afbb ee5a b8bd
000002e0: ee43 86bd 34b8 ce3d df36 82bd 73d6 b83d
000002f0: d190 98bd e5bc 6e3d a17b eb3d 0d3b ddbc
00000300: cba5 a8bc 6f18 023e 4f4c ac3d 66ca 4e3c
00000310: d173 b93d 1707 25bd d62d 9ebd ff16 f23d
00000320: 5b5d fabd 31cc efbd e4ef b4bd b890 93bc
00000330: d916 fd3d 4d7d c5bc 3e0e 08bd 0461 153e
00000340: 4b42 34bd 6e3e d1bd c93e 20bc b096 e6bc
00000350: 02f1 b73d 0ae3 963d 741c f5bd 20f4 dc3d
00000360: cf4c b4bd d3e5 c53d 48ce ac3d 332c a0bd
00000370: 1ab9 ea3c bd33 b73c d527 ca3b 4f36 aa3d
00000380: cdb8 c1bd e14a 97bd 20fa c2bd c0d9 9ebd
00000390: ec0d 993d e041 f63d f95f 313d 0202 36bd
000003a0: ccd8 1b3d 7667 18bd 4f0f ad3d b956 873d
000003b0: 01ec 083e d399 803c 2bf9 0d3e 166e 0a3e
000003c0: b84e e6bc 9733 d13d ee55 cfbd f169 db3d
000003d0: 97d0 00be 252a 9ebd 85e4 e73d a3ea 23bd
000003e0: 8ff1 ee3d 657d 82bd c938 893c be23 b53c
000003f0: f83e eebd 8e14 c73d 6130 a8bc 4fd2 943d

4.bias f4 [128]
0.032687575 -0.11519088 -0.070135005 -0.08337546 0.12638997 0.13636753 -0.0150064295 0.14360337
0.09181282 0.098949365 -0.01482182 -0.022534328 0.09740249 -0.08013471 0.1105702 0.086351864
-0.023228249 -0.015660467 0.016795734 -0.029489929 0.018370418 -0.036939606 0.106090836 0.14235811
-0.021074513 0.058991883 0.12401322 0.062833436 0.08828835 -0.08418868 0.12953702 -0.020062493
0.046270933 0.16089681 -0.03533603 -0.07545531 0.084703624 0.091937274 -0.07850894 -0.043361224
0.021544144 -0.09293532 -0.06907235 0.10734155 -0.124372445 0.11784781 0.06480548 -0.045499347
-0.09058858 0.1085459 0.092769556 -0.099847265 0.006612104 0.090099566 -0.08361069 -0.07165803
0.01211564 0.021397697 -0.023165828 -0.0669851 0.059145886 -0.11030461 -0.095996566 0.15321247
-0.058323186 0.11700159 -0.04285494 0.11958285 0.12019514 -0.12768137 0.09325291 -0.010034934
0.09916169 0.11538597 0.13140601 -0.058950346 0.0707634 -0.030114327 0.07853779 -0.0748694
0.08242014 0.12678166 0.13194017 0.07618665 -0.026604732 0.050978523 0.09632749 -0.11272074
-0.093808666 -0.03494955 -0.0631251 -0.101583645 -0.10732578 -0.022470681 -0.012573016 -0.12772192
-0.08523455 0.06613224 -0.078401715 -0.115473665 0.08302893 -0.09686062 -0.107309416 0.021960694
0.12330443 -0.025595965 -0.014384676 0.120730065 -0.002895007 -0.026395587 0.15278001 0.03638012
-0.0049586995 -0.06213689 -0.028711341 0.097234115 -0.12934826 0.13087797 -0.0015850257 -0.04378175
-0.10659812 -0.11868957 0.07714148 0.11599975 0.13620488 0.09814338 -0.076958194 -0.086235344
00000000: 68e3 053d 32e9 ebbd f1a2 8fbd c1c0 aabd
00000010: 5f6c 013e eea3 0b3e 87dd 75bc c30c 133e
00000020: 5c08 bc3d f7a5 ca3d 38d7 72bc e999 b8bc
00000030: f57a c73d ab1d a4bd a172 e23d 3fd9 b03d
00000040: 2b49 bebc 614a 80bc 3597 893c dd94 f1bc
00000050: 8f7d 963c fc4d 17bd 2746 d93d 53c6 113e
00000060: 75a4 acbc 79a1 713d a5fa fd3d d1ae 803d
00000070: 86d0 b43d 1d6b acbd 5aa5 043e 195a a4bc
00000080: 9786 3d3d 22c2 243e 83bc 10bd 5088 9abd
00000090: 1879 ad3d 9c49 bc3d 4cc9 a0bd 8a9b 31bd
000000a0: 587d b03c e054 bebd ce75 8dbd e3d5 db3d
000000b0: fbb6 febd 315a f13d bcb8 843d 865d 3abd
000000c0: 8186 b9bd 504d de3d f7fd bd3d b97c ccbd
000000d0: 59aa d83b 1f86 b83d 153c abbd 72c1 92bd
000000e0: ad80 463c 394a af3c 43c6 bdbc 7c2f 89bd
000000f0: f542 723d 62e7 e1bd d999 c4bd bbe3 1c3e
00000100: 4be4 6ebd 889e ef3d a988 2fbd dae7 f43d
00000110: df28 f63d e8be 02be 62fb be3d 9069 24bc
00000120: 4915 cb3d 7b4f ec3d 4c8f 063e eb75 71bd
00000130: 67ec 903d 52b2 f6bc 6cd8 a03d 2155 99bd
00000140: e4cb a83d 0dd3 013e 531b 073e bf07 9c3d
00000150: 2bf2 d9bc dbce 503d 5947 c53d 22da e6bd
00000160: c21e c0bd 4227 0fbd bc47 81bd 160b d0bd
00000170: 9ecd dbbd 6f14 b8bc 0dff 4dbc 89c9 02be
00000180: 748f aebd 5770 873d 1491 a0bd 757d ecbd
00000190: 120b aa3d dc5e c6bd 0ac5 dbbd eae6 b33c
000001a0: 0887 fc3d a1ae d1bc b4ad 6bbc 5341 f73d
000001b0: 28ba 3dbb 8f3b d8bc 5d72 1c3e 5203 153d
000001c0: 967c a2bb 4083 7ebd 0c34 ebbc ae22 c73d
000001d0: df73 04be e004 063e a3c0 cfba 7e54 33bd
000001e0: 1d50 dabd 8413 f3bd 5afc 9d3d 4791 ed3d
000001f0: 4b79 0b3e 65ff c83d 429c 9dbd 289c b0bd

6.weight f4 [64, 128]
0.041115995 -0.06134641 -0.055646133 0.073428854 0.085752025 0.004527353 0.014274065 0.0505166
0.07264715 0.046722274 -0.038129773 0.09609779 -0.06596502 0.039533217 0.05486142 -0.03155143
0.06686489 0.03845224 0.030144228 0.03286922 0.08479485 0.06485494 0.08503385 0.0087311035
-0.023174595 -0.06929065 0.07540432 -0.08316885 0.05434461 -0.011617216 0.007130609 0.013608202
0.053096402 -0.0037221427 -0.0014682497 -0.06966888 -0.08839214 0.0047289557 -0.047079407 0.07831034
0.058017503 0.0628095 -0.020266078 -0.0073967334 -0.05322636 -0.060293738 -0.071887314 0.039440356
0.10661874 0.014011448 0.06682844 -0.016397905 0.11008659 0.10272331 0.034372028 0.056639627
-0.08415212 -0.037299655 0.043966793 0.05249329 0.06964063 0.015563675 0.07991198 0.022886865
-0.027871465 0.0389309 0.03939191 0.029356303 0.104424514 -0.06945509 -0.029028665 0.025322951
0.11266373 0.0792219 -0.020612473 0.045059033 -0.051350955 -0.001100048 -0.05147754 0.060298648
-0.0462841 0.06398604 -0.034650605 -0.031029252 0.10428352 -0.024820993 0.053267892 0.04107765
-0.08386846 0.010047393 0.039943375 -0.06942791 0.07895195 0.034087867 0.06324213 0.05710714
0.080951676 -0.028029017 -0.050070982 -0.029230978 0.05148344 0.032398522 -0.07136752 -0.044706184
-0.0552612 0.008715292 0.0075908303 -0.0718441 0.031733595 0.031561814 0.05877188 0.07598088
-0.06549589 -0.026499202 -0.009075613 0.075946786 0.060963012 0.041859727 -0.054038033 0.06598018
-0.0012697945 0.015436083 -0.10341278 0.034910254 -0.023852205 -0.054970514 -0.06321331 -0.08891787
-0.1189274 0.003804641 0.0034613868 -0.012980764 -0.040825576 0.08377126 0.059581496 -0.036958117
0.0003958909 0.01489093 -0.024254799 -0.044589054 0.09248644 -0.051796358 -0.005211241 0.0037306286
-0.077541575 0.0725799 0.027192893 0.10036367 -0.011714785 -0.0042316467 0.13223082 -0.07448542
-0.032715887 -0.0060890024 0.07895155 0.06135789 0.012807654 0.0319843 0.060118627 -0.05142292
-0.014665013 -0.029251534 -0.041151207 -0.006470434 0.013983471 -0.034550212 0.10003946 0.062369198
0.08480622 0.07411237 0.05014717 -0.06670291 -0.07289602 -0.03547119 0.040121797 -0.009917184
0.09702134 0.012804277 -0.021704357 -0.037659436 0.07953613 0.049913663 0.011021936 0.11860336
0.0026826407 -0.06337728 0.0073099677 -0.038406793 0.105742685 0.0051452215 0.062981375 -0.0077600153
0.006836139 0.012627788 0.09316251 -0.01601199 -0.085372835 -0.04438213 0.11431692 0.06639462
0.017917652 -0.05802132 0.07767938 -0.066290766 -0.042960964 0.116959825 0.039891332 -0.04696225
0.07309287 0.0012861197 0.0859381 0.05178627 -0.004232084 -0.02332373 0.09864809 0.04517784
0.111930974 0.04615852 -0.03787416 0.015935918 0.049565025 -0.0645932 -0.028023975 0.01085424
-0.06329404 0.016779171 -0.049825665 -0.04622578 0.054907393 0.03299063 0.05089142 -0.03996524
-0.03286789 -0.057479378 0.0077816937 0.04793725 0.05977774 0.023998775 0.0762156 -0.07787852
-0.05650768 -0.051072262 -0.09055449 0.02552344 0.07710768 0.11905993 0.09027171 -0.044915617
-0.07646517 -0.07983798 0.035570763 -0.08383814 -0.120083936 -0.043388158 -0.012116066 0.085302144
00000000: 3f69 283d 6046 7bbd 33ed 63bd de61 963d
00000010: c29e af3d 315a 943b c5dd 693c 7fea 4e3d
00000020: 07c8 943d db5f 3f3d f72d 1cbd ebce c43d
00000030: ab18 87bd 95ed 213d 5eb6 603d 123c 01bd
00000040: 76f0 883d 1980 1d3d 07f1 f63c e0a1 063d
00000050: eca8 ad3d abd2 843d 3a26 ae3d e70c 0f3c
00000060: a6d8 bdbc 42e8 8dbd 956d 9a3d 6e54 aabd
00000070: 7498 5e3d 2356 3ebc e2a7 e93b f0f4 5e3c
00000080: 9d7b 593d 31ef 73bb 4972 c0ba 8fae 8ebd
00000090: f006 b5bd 5bf5 9a3b 56d6 40bd 2c61 a03d
000000a0: c3a3 6d3d 44a2 803d 0c05 a6bc 4c60 f2bb
000000b0: e203 5abd 91f6 76bd a839 93bd 368c 213d
000000c0: ed5a da3d 4690 653c 59dd 883d e654 86bc
000000d0: 1475 e13d 9960 d23d afc9 0c3d f4fe 673d
000000e0: f257 acbd 86c7 18bd 8616 343d 3403 573d
000000f0: bf9f 8e3d c9fe 7e3c e4a8 a33d 3c7d bb3c
00000100: b352 e4bc 0276 1f3d 6959 213d a17c f03c
00000110: 85dc d53d 783e 8ebd 86cd edbc 1472 cf3c
00000120: 3ebc e63d 173f a23d 7ddb a8bc d28f 383d
00000130: 6155 52bd 7c2f 90ba 1dda 52bd b7fb 763d
00000140: 6594 3dbd 1d0b 833d cbed 0dbd 0f31 febc
00000150: 9992 d53d 6555 cbbc 6f2f 5a3d 0a41 283d
00000160: 3ac3 abbd d29d 243c aa9b 233d 3830 8ebd
00000170: 8fb1 a13d b89f 0b3d 1785 813d 2de9 693d
00000180: fec9 a53d 1c9d e5bc 3b17 4dbd ce75 efbc
00000190: 4de0 523d 50b4 043d 2229 92bd d51d 37bd
000001a0: 9159 62bd 96ca 0e3c 80bc f83b 0023 93bd
000001b0: 16fb 013d f646 013d c8ba 703d dd9b 9b3d
000001c0: b622 86bd db14 d9bc e1b1 14bc fd89 9b3d
000001d0: 5ab4 793d 1b75 2b3d fc56 5dbd 9e20 873d
000001e0: 3c6f a6ba a0e7 7c3c 14ca d3bd 0efe 0e3d
000001f0: b365 c3bc c328 61bd fb75 81bd 921a b6bd
00000200: 3590 f3bd 4957 793b 6fd8 623b 45ad 54bc
00000210: b838 27bd 4490 ab3d ba0b 743d 6561 17bd
00000220: 948f cf39 16f9 733c 00b2 c6bc 03a3 36bd
00000230: 8869 bd3d 6b28 54bd 0fc3 aabb 907d 743b
00000240: 1ece 9ebd c5a4 943d a1c3 de3c 788b cd3d
00000250: 5fef 3fbc a0a9 8abb 8467 073e d08b 98bd
00000260: 1801 06bd 4186 c7bb 5ab1 a13d 6952 7b3d
00000270: 32d7 513c f801 033d f33e 763d d7a0 52bd
00000280: 8645 70bc eaa0 efbc 2b8e 28bd ef05 d4bb
00000290: ee1a 653c 8684 0dbd 7de1 cc3d d876 7f3d
000002a0: e2ae ad3d 3ac8 973d 1e67 4d3d 899b 88bd
000002b0: 824a 95bd 3d4a 11bd c156 243d af7b 22bc
000002c0: 20b3 c63d 08c9 513c 56cd b1bc c840 1abd
000002d0: d7e3 a23d 4572 4c3d 5a95 343c 52e6 f23d
000002e0: 3ecf 2f3b f3cb 81bd 7488 ef3b 7150 1dbd
000002f0: 9f8f d83d 3f99 a83b 61fc 803d ba47 febb
00000300: b101 e03b c8e4 4e3c fccb be3d 942b 83bc
00000310: f4d7 aebd 09ca 35bd fd1e ea3d e7f9 873d
00000320: 0ac8 923c c3a7 6dbd 5e16 9f3d 74c3 87bd
00000330: d6f7 2fbd a288 ef3d 1865 233d 7d5b 40bd
00000340: b7b1 953d 0493 a83a 5100 b03d d71d 543d
00000350: 4bad 8abb 6811 bfbc 0308 ca3d 660c 393d
00000360: 113c e53d b710 3d3d ef21 1bbd 0b8c 823c
00000370: b204 4b3d 7149 84bd 8992 e5bc fbd5 313c
00000380: 4ea0 81bd 7974 893c ff15 4cbd 3e57 3dbd
00000390: 93e6 603d 2f21 073d 8673 503d 97b2 23bd
000003a0: 7ba0 06bd 7f6f 6bbd 94fd fe3b da59 443d
000003b0: 81d9 743d 1499 c43c ed16 9c3d c67e 9fbd
000003c0: 9974 67bd 2631 51bd a274 b9bd 8916 d13c
000003d0: a2ea 9d3d b1d5 f33d 60e0 b83d 70f9 37bd
000003e0: c599 9cbd 1882 a3bd a6b2 113d 55b3 abbd
000003f0: 91ee f5bd c8b7 31bd 7782 46bc e4b2 ae3d

6.bias f4 [64]
-0.05996674 -0.00018269662 0.0121111395 0.0900875 0.036538564 -0.003766502 -0.030129198 0.038378816
0.036965817 0.045921315 -0.07200592 -0.07116646 -0.021384543 -0.020253368 -0.0023724607 0.028517995
0.045246236 0.08151932 0.025186276 -0.06750314 -0.06353554 0.051037375 0.007570968 0.010440008
-0.06964941 -0.067940876 -0.04403199 0.089283586 -0.07725169 0.09099379 -0.07598991 0.020053936
-0.039537888 -0.08242287 0.022640608 0.03052044 0.10082274 -0.05028842 0.08319947 0.02509407
-0.013038613 -0.07799609 0.003586797 0.008177698 0.014681266 0.043851614 -0.014787525 0.011073481
-0.0031744356 0.03495179 -0.038053636 -0.0442768 0.04782306 -0.030881608 0.017567687 -0.001690649
-0.071463585 0.090874456 0.024649143 0.08822874 0.0034882915 -0.043218568 0.005922045 0.09436306
00000000: af9f 75bd 4092 3fb9 cd6d 463c cc7f b83d
00000010: 76a9 153d 6bd7 76bb 82d1 f6bc 1b33 1d3d
00000020: 7869 173d fd17 3c3d d777 93bd b9bf 91bd
00000030: a32e afbc 64ea a5bc 497b 1bbb 929e e93c
00000040: 1e54 393d 9af3 a63d 7353 ce3c 163f 8abd
00000050: ec1e 82bd 910c 513d e215 f83b 910c 2b3c
00000060: 5aa4 8ebd 9624 8bbd e35a 34bd 50da b63d
00000070: 2236 9ebd f45a ba3d 99a0 9bbd 2748 a43c
00000080: 7bf2 21bd 52cd a8bd cc78 b93c 0006 fa3c
00000090: 277c ce3d 3bfb 4dbd 7c64 aa3d 1492 cd3c
000000a0: e89f 55bc 6abc 9fbd 7810 6b3b c0fb 053c
000000b0: b189 703c c09d 333d 6047 72bc 8c6d 353c
000000c0: 310a 50bb 9c29 0f3d 21de 1bbd 975b 35bd
000000d0: 1de2 433d 6dfb fcbc 1cea 8f3c c498 ddba
000000e0: 805b 92bd 631c ba3d 00ed c93c 45b1 b43d
000000f0: d29b 643b f405 31bd b70d c23b 6c41 c13d

8.weight f4 [32, 64]
0.03115736 0.105860606 0.015567392 -0.0908355 -0.038377002 0.014514968 -0.08501837 -0.0072850287
0.031019002 0.049329594 -0.005605042 -0.053635493 0.0987521 -0.023561254 -0.039832205 0.085002005
-0.004017055 0.072603956 0.054412335 0.12285395 0.11636756 -0.036879003 -0.10915573 -0.07470654
0.023190662 -0.016689077 -0.06716351 -0.002153784 0.019698426 0.036806226 0.013697073 0.031518936
-0.024333268 0.08325881 0.09394714 -0.10629384 0.095600605 0.013926223 0.12254013 -0.09641299
-0.09403139 0.06376381 -0.117594585 0.031999707 0.07341792 -0.123533085 0.12349743 0.08695343
-0.037272766 -0.027365655 0.0249504 -0.106433585 0.09413937 0.0038189292 -0.1091294 -0.04690677
0.119426996 0.011297151 -0.0655379 -0.0805116 0.06766395 -0.12095468 0.10147129 -0.07995865
-0.021866992 0.060421377 -0.07136847 0.024448305 -0.11990242 0.1103162 -0.10002802 0.10734078
-0.08578509 -0.07233502 0.056867138 -0.09642966 -0.017832726 0.05499804 -0.11861758 -0.0054140985
-0.10750283 -0.12381816 -0.08108589 -0.10190198 0.04776217 -0.04701221 -0.011020601 0.03435053
-0.019720316 -0.0008868128 -0.12438485 0.10666928 0.005666837 -0.04875502 -0.014373347 -0.07384291
-0.09809594 0.015592068 0.09840758 0.045796424 -0.08383629 -0.014861494 -0.12037371 0.06514618
-0.02012381 0.103442475 -0.0838224 -0.05752991 0.043070197 0.03355053 0.09981336 -0.10764317
-0.0393786 -0.08569205 0.05808519 0.08101308 -0.04675038 -0.017134085 -0.0039975643 -0.027123481
0.05941707 -0.07508418 0.07509357 -0.038325906 -0.018453479 -0.010717645 0.04155563 -0.11418435
0.0046120333 0.11119776 0.039392706 -0.02727727 0.013959632 0.091351576 0.029747462 0.08738878
-0.015568361 0.13908024 0.14415164 0.074549206 0.028404215 0.10858082 -0.03645696 0.06104433
0.10182825 -0.06728192 0.11883961 0.077631414 -0.088188365 -0.0009321306 0.078408904 0.0506707
-0.06534204 0.10594947 0.089086145 0.040076673 -0.02297093 0.07499872 0.015742488 -0.001529152
0.06696315 -0.04820755 -0.07989964 -0.09063253 -0.12649348 0.027589355 -0.019460365 -0.03798646
-0.0144737065 0.045400605 0.041879714 0.07854255 0.009578018 0.019877084 -0.061969534 -0.031628877
0.06606502 -0.071299665 -0.035769302 -0.08250893 0.12077221 0.027695978 0.0130237825 -0.066179164
-0.08036903 -0.007220801 -0.03585527 0.012924254 0.10718014 0.057747215 -0.024151579 -0.018359866
-0.0044984524 -0.07247305 0.11372511 -0.07697718 0.09580298 -0.042326327 -0.03164744 -0.08931466
0.08241946 0.060834583 0.041508272 0.07268319 -0.049078286 -0.13242422 -0.13709405 0.018646901
-0.0064499043 -0.07154992 0.10684096 -0.12017152 0.09804496 -0.08704722 0.022754243 -0.11751679
0.04998793 0.10244827 0.026671603 0.030373257 0.031963617 0.091224566 0.11026989 0.042101797
-0.060285654 0.09757383 -0.08312093 0.027546808 -0.015312354 -0.12387395 -0.037341576 -0.029023468
0.05020757 0.06943439 0.0994304 -0.079440534 -0.110498615 -0.11256034 -0.07251482 0.014995205
-0.035634257 0.07909257 -0.09353635 -0.11645428 0.13305219 -0.000701373 -0.0027893535 -0.020680204
0.074933365 -0.09448531 0.111482635 -0.13745932 -0.05825714 0.0575224 -0.13108012 -0.041261304
00000000: b83d ff3c 72cd d83d 600e 7f3c f607 babd
00000010: 3431 1dbd 30d0 6d3c 1c1e aebd 40b7 eebb
00000020: 901b fe3c d40d 4a3d 80aa b7bb e4b0 5bbd
00000030: 8a3e ca3d 8803 c1bc 1827 23bd 8815 ae3d
00000040: 80a1 83bb 62b1 943d 78df 5e3d da9a fb3d
00000050: 1e52 ee3d 700e 17bd 0a8d dfbd beff 98bd
00000060: 58fa bd3c 88b7 88bc 068d 89bd 8026 0dbb
00000070: 985e a13c 20c2 163d b069 603c 001a 013d
00000080: 9056 c7bc 9883 aa3d 5c67 c03d 96b0 d9bd
00000090: 40ca c33d d02a 643c 52f6 fa3d 2c74 c5bd
000000a0: 8893 c0bd 9a96 823d 6ed5 f0bd 2012 033d
000000b0: 225c 963d eafe fcbd 38ec fc3d a414 b23d
000000c0: 54ab 18bd f02d e0bc c864 cc3c daf9 d9bd
000000d0: 24cc c03d 0047 7a3b 3c7f dfbd 5021 40bd
000000e0: 2496 f43d b017 393c bc38 86bd 44e3 a4bd
000000f0: 6693 8a3d 16b7 f7bd 2ed0 cf3d 5cc1 a3bd
00000100: 6822 b3bc 687c 773d a229 92bd d047 c83c
00000110: 668f f5bd 76ed e13d 7edb ccbd 7cd5 db3d
00000120: 18b0 afbd 6224 94bd 84ed 683d ea7c c5bd
00000130: f015 92bc a045 613d c6ed f2bd c068 b1bb
00000140: 722a dcbd 6094 fdbd 5c10 a6bd fcb1 d0bd
00000150: 44a2 433d e08f 40bd c08f 34bc 24b3 0c3d
00000160: 808c a1bc 0079 68ba 7cbd febd 6c75 da3d
00000170: e0b0 b93b 58b3 47bd 307e 6bbc f43a 97bd
00000180: 86e6 c8bd e075 7f3c ea89 c93d 0895 3b3d
00000190: 5cb2 abbd a07d 73bc 7e86 f6bd 5c6b 853d
000001a0: b0da a4bc a6d9 d33d 14ab abbd 7ca4 6bbd
000001b0: 606a 303d 486c 093d f26a cc3d 0674 dcbd
000001c0: 744b 21bd 507f afbd bcea 6d3d 30ea a53d
000001d0: 547d 3fbd c85c 8cbc 00fe 82bb 1032 debc
000001e0: 505f 733d bcc5 99bd a8ca 993d a0fb 1cbd
000001f0: c02b 97bc 1099 2fbc 3c36 2a3d 7cd9 e9bd
00000200: 8a20 973b a7bb e33d 3f5a 213d 9574 dfbc
00000210: f1b6 643c 8916 bb3d f3b0 f33c e4f8 b23d
00000220: 7012 7fbc 0d6b 0e3e 7d9c 133e 41ad 983d
00000230: f5af e83c 9f5f de3d e553 15bd 9f09 7a3d
00000240: 548b d03d 1acb 89bd 2e62 f33d 38fd 9e3d
00000250: 1a9c b4bd 3a5a 74ba d994 a03d 148c 4f3d
00000260: 0cd2 85bd 09fc d83d cc72 b63d 7027 243d
00000270: 882d bcbc ee98 993d 64f6 803c d46d c8ba
00000280: fa23 893d 4875 45bd 6ca2 a3bd 8c9d b9bd
00000290: 8287 01be 1203 e23c 586b 9fbc b197 1bbd
000002a0: 2023 6dbc fcf5 393d 108a 2b3d ebda a03d
000002b0: 1fed 1c3c 44d5 a23c c4d3 7dbd 488d 01bd
000002c0: 194d 873d 8f05 92bd d582 12bd 71fa a8bd
000002d0: 6c57 f73d ade2 e23c b461 553c f188 87bd
000002e0: 8598 a4bd 789c ecbb fadc 12bd 40c0 533c
000002f0: 4381 db3d 5888 6c3d 88d9 c5bc 6e67 96bc
00000300: c167 93bb c06c 94bd b6e8 e83d 36a6 9dbd
00000310: 5a34 c43d 5f5e 2dbd bfa0 01bd 9bea b6bd
00000320: 89cb a83d af2d 793d 9404 2a3d edda 943d
00000330: 5006 49bd 379a 07be 6262 0cbe 63c1 983c
00000340: b859 d3bb c488 92bd 6fcf da3d 7c1c f6bd
00000350: cccb c83d d045 b2bd 1b67 ba3c a5ac f0bd
00000360: 25c0 4c3d 66d0 d13d 687e da3c 56d1 f83c
00000370: 48ec 023d f2d3 ba3d 2ed5 e13d ef72 2c3d
00000380: 17ee 76bd cad4 c73d 4e3b aabd d8a9 e13c
00000390: abe0 7abc a0b1 fdbd 7bf3 18bd a0c2 edbc
000003a0: 74a6 4d3d 9e33 8e3d 2aa2 cb3d b8b1 a2bd
000003b0: 194d e2bd 0986 e6bd a682 94bd 73ae 753c
000003c0: 3af5 11bd 49fb a13d fc8f bfbd 957f eebd
000003d0: d53e 083e 58dc 37ba 96cd 36bb 8869 a9bc
000003e0: aa76 993d 8481 c1bd 0251 e43d 23c2 0cbe
000003f0: 0a9f 6ebd 9c9c 6b3d de39 06be 9d01 29bd

8.bias f4 [32]
-0.115135506 -0.023801684 0.007733929 0.110546224 0.07378832 0.07172424 0.12200162 0.014726393
0.066770494 0.0005503715 -0.02440983 0.102438614 -0.06935616 0.08863323 0.018164035 0.058240335
0.026776593 -0.072483264 -0.022317173 0.027355265 0.12150671 0.11598369 -0.06338824 -0.049788192
-0.060894087 0.09645083 -0.0009753027 -0.10658609 0.046903033 0.09849164 0.015774064 0.014338055
00000000: 2acc ebbd c0fb c2bc e66c fd3b 0f66 e23d
00000010: 551e 973d 29e4 923d fcdb f93d f846 713c
00000020: f8be 883d ce46 103a 20f7 c7bc 56cb d13d
00000030: 9a0a 8ebd 5785 b53d becc 943c 6b8d 6e3d
00000040: 965a db3c 1b72 94bd 81d2 b6bc 2618 e03c
00000050: 83d8 f83d db88 ed3d b2d1 81bd b4ee 4bbd
00000060: 146c 79bd 0388 c53d 75ab 7fba cf49 dabd
00000070: 651d 403d fcb5 c93d 9c38 813c 29ea 6a3c

10.weight f4 [25, 32]
0.059463456 -0.008056447 0.009975987 -0.13884628 0.16759431 -0.00019830826 0.02990525 -0.043413203
0.14195053 -0.12682393 0.056968976 -0.031794854 -0.009597892 0.10426906 0.021210687 -0.06572781
0.14678355 -0.051784858 -0.040984716 -0.1291842 -0.11583796 0.119321145 0.16901006 -0.0075507704
-0.1747425 -0.025260963 -0.10590708 -0.08544056 -0.057562448 0.19418664 -0.17138381 -0.046765924
0.1749943 0.032292098 0.0014931092 -0.023285856 -0.0546694 0.012888432 0.10946574 0.060339607
-0.13628726 -0.15248068 0.046401046 -0.010958348 0.16506268 0.14486918 -0.16597737 0.10506776
-0.046814654 -0.02075365 -0.055470068 0.16736887 -0.05885245 -0.047678787 0.16331671 0.07355209
-0.13527621 -0.21588948 0.043278903 -0.005239004 -0.028155219 0.12680233 -0.12487911 0.1314413
-0.00047649443 0.14275296 0.142883 0.0825963 0.087103374 -0.07035619 0.108706355 -0.14939904
0.09056388 0.050308757 0.049755305 0.08738584 0.020981153 -0.04851666 -0.021195896 -0.1139989
0.13222744 -0.00012831004 0.061531253 0.0030917842 0.10201923 -0.12356481 -0.18067534 -0.0012097914
-0.1081767 0.13226877 0.1712489 0.10475085 0.07044212 0.1618566 0.080756225 -0.10342324
0.118527845 0.15780683 0.10416332 0.09447716 -0.11131994 0.13016936 -0.024821732 -0.1809556
0.09964318 -0.20784228 -0.11272484 0.09784955 0.11515823 -0.15961663 0.08790153 0.11348618
0.07097471 -0.00395117 0.039054386 -0.008316691 0.03656987 -0.11962556 -0.1922226 0.12712398
0.13753515 0.057908997 -0.06698478 0.027094213 -0.06510161 -0.0642139 -0.13069601 0.12351089
-0.043558836 -0.10066962 0.09258804 -0.07670678 0.034271996 -0.17253442 -0.1349498 -0.09475386
-0.073043935 -0.052133903 0.038831376 -0.11525821 -0.002941561 -0.0027447268 0.035540752 -0.04867915
-0.068498775 0.080209315 -0.09790969 -0.05252703 0.14329067 0.13849452 -0.05295899 0.12975115
-0.06670531 0.13165139 0.09170363 0.056027785 0.10948533 -0.020330576 -0.063516326 0.14499578
-0.0078315735 0.060048237 0.15706272 -0.15022923 -0.07902272 -0.030049607 0.108251214 0.02140512
0.16677676 -0.02753369 -0.12302338 -0.012612348 0.10253052 -0.056739863 0.15790145 -0.14612412
-0.14825666 -0.06294788 0.13682733 0.018686423 -0.008033857 0.15145479 0.00500794 -0.07991735
-0.13989387 -0.045323104 -0.09687202 -0.11928994 0.13415247 -0.03567561 0.06799759 0.11771476
0.09674199 0.14734174 0.14812891 0.16248727 -0.04240344 -0.15825349 0.113678165 -0.10097873
-0.061001036 0.06062356 0.008124512 -0.09982427 -0.09611346 -0.028261371 -0.0039014106 0.017790077
0.17914426 -0.09282479 -0.14698805 -0.0068482 0.19399843 -0.052157838 -0.016885918 0.1015749
0.051746428 0.051955 -0.015716149 -0.03041614 -0.05030933 0.1105679 0.05092275 0.025699075
0.15290944 0.111070976 0.025770225 0.1051052 0.16816199 -0.14723828 -0.03551553 0.08529251
-0.08413786 -0.047635227 -0.06965891 0.02262441 0.029491123 -0.11324573 0.12463967 -0.11513869
-0.014251699 -0.07708918 -0.15018633 -0.054923974 0.10542889 -0.059413373 -0.041176803 -0.07507305
0.14658932 -0.19070347 -0.000263706 0.11721785 0.080178775 0.122824885 -0.09640346 -0.013354149
00000000: f48f 733d 30ff 03bc 5272 233c b82d 0ebe
00000010: d89d 2b3e f8f0 4fb9 dbfb f43c 0bd2 31bd
00000020: 7b5b 113e 22de 01be 4d58 693d 523b 02bd
00000030: 7a40 1dbc 048b d53d 09c2 ad3c 4d9c 86bd
00000040: 6d4e 163e 5c1c 54bd 97df 27bd dd48 04be
00000050: 743c edbd a55e f43d f910 2d3e 746c f7bb
00000060: b3ef 32be 14f0 cebc d0e5 d8bd 76fb aebd
00000070: 9ac6 6bbd ddd8 463e 3d7f 2fbe a08d 3fbd
00000080: b531 333e b844 043d 6eb4 c33a fbc1 bebc
00000090: 05ed 5fbd 002a 533c 932f e03d aa26 773d
000000a0: e38e 0bbe e523 1cbe 060f 3e3d a58a 33bc
000000b0: 3106 293e 9658 143e f9f5 29be c42d d73d
000000c0: b9c0 3fbd 8f03 aabc 9534 63bd bf62 2b3e
000000d0: 440f 71bd d54a 43bd 7f3c 273e 7aa2 963d
000000e0: d985 0abe 2212 5dbe 3845 313d f3ab abbb
000000f0: c6a5 e6bc 78d8 013e 9ec0 ffbd 8c98 063e
00000100: 00d2 f9b9 d52d 123e ec4f 123e 4028 a93d
00000110: 4163 b23d e816 90bd 70a1 de3d 10fc 18be
00000120: 8e79 b93d 8e10 4e3d 38cc 4b3d 59f7 b23d
00000130: abe0 ab3c 68b9 46bd 04a3 adbc 4178 e9bd
00000140: a166 073e f78a 06b9 3208 7c3d 889f 4a3b
00000150: 75ef d03d 8c0f fdbd f502 39be dd91 9eba
00000160: bf8b ddbd 7771 073e df5b 2f3e 9d87 d63d
00000170: f543 903d bdbd 253e 8563 a53d 90cf d3bd
00000180: babe f23d 1d98 213e 9453 d53d 3e7d c13d
00000190: b5fb e3bd 1e4b 053e f256 cbbc 6d4c 39be
000001a0: b911 cc3d 9bd4 54be 48dc e6bd 5865 c83d
000001b0: 14d8 eb3d 8b72 23be b805 b43d 716b e83d
000001c0: 305b 913d d178 81bb 7ef7 1f3d bb42 08bc
000001d0: 4aca 153d 3ffe f4bd 00d6 44be ca2c 023e
000001e0: 04d6 0c3e fc31 6d3d 512f 89bd aff4 dd3c
000001f0: fe53 85bd 9482 83bd 2dd5 05be 47f3 fc3d
00000200: c06a 32bd e02b cebd cc9e bd3d 7218 9dbd
00000210: cb60 0c3d ddac 30be 4830 0abe 500e c2bd
00000220: 0f98 95bd 5c8a 55bd a60d 1f3d 7f0c ecbd
00000230: 34c7 40bb e0e0 33bb 2e93 113d ca63 47bd
00000240: 1649 8cbd c844 a43d e084 c8bd 9526 57bd
00000250: caba 123e 82d1 0d3e 87eb 58bd 7cdd 043e
00000260: cb9c 88bd 9fcf 063e 1dcf bb3d 647d 653d
00000270: d839 e03d 4f8c a6bc d914 82bd c679 143e
00000280: 0050 00bc 24f5 753d 0dd5 203e b1d5 19be
00000290: aad6 a1bd 982a f6bc d0b2 dd3d ca59 af3c
000002a0: 87c7 2a3e 558e e1bc aff3 fbbd 06a4 4ebc
000002b0: 85fb d13d 0f68 68bd ebb0 213e 90a1 15be
000002c0: 98d0 17be d1ea 80bd 771c 0c3e 4514 993c
000002d0: 70a0 03bc f716 1b3e a519 a43b b5ab a3bd
000002e0: 5740 0fbe b8a4 39bd d664 c6bd 494e f4bd
000002f0: 445f 093e 9720 12bd 5242 8b3d 7014 f13d
00000300: aa20 c63d c1e0 163e 1baf 173e 1063 263e
00000310: 3baf 2dbd 340d 22be 19d0 e83d f0cd cebd
00000320: 39dc 79bd 6950 783d ac1c 053c ab70 ccbd
00000330: 22d7 c4bd 6484 e7bc cfae 7fbb 7fbc 913c
00000340: 9871 373e ec1a bebd 0984 16be de66 e0bb
00000350: 86a7 463e 75a3 55bd 5654 8abc 8006 d03d
00000360: 10f4 533d c4ce 543d 27bf 80bc 452b f9bc
00000370: 2811 4ebd 6c71 e23d 6094 503d de86 d23c
00000380: 4b94 1c3e 2e79 e33d 141c d33c 6541 d73d
00000390: a832 2c3e a2c5 16be bb78 11bd d7ad ae3d
000003a0: 7850 acbd 281d 43bd 55a9 8ebd d456 b93c
000003b0: 5e97 f13c 61ed e7bd 1543 ff3d d5cd ebbd
000003c0: f57f 69bc efe0 9dbd 72ca 19be f6f7 60bd
000003d0: 1aeb d73d 705b 73bd 02a9 28bd e6bf 99bd
000003e0: 831b 163e c547 43be 0542 8ab9 ea0f f03d
000003f0: c534 a43d 9d8b fb3d 2d6f c5bd 5ccb 5abc

10.bias f4 [25]
-0.021745428 -0.19220287 0.10482467 0.1301002 -0.044979975 -0.101411425 0.05594881 -0.005136512
0.08565147 0.06962516 -0.060889576 -0.07024042 -0.09449213 -0.13094123 -0.1577809 0.1044198
0.0072464575 0.038714096 0.06340572 -0.08211984 0.16771145 -0.06534702 0.071352 -0.07696745
0.016570006
00000000: 7823 b2bc d4d0 44be 51ae d63d fd38 053e
00000010: ec3c 38bd cbb0 cfbd 942a 653d 3050 a8bb
00000020: 0a6a af3d a397 8e3d 5967 79bd 36da 8fbd
00000030: 1785 c1bd 7515 06be 5191 21be 0cda d53d
00000040: b173 ed3b ac92 1e3d dcda 813d 722e a8bd
00000050: 8dbc 2b3e a9d4 85bd ff20 923d 1ca1 9dbd
00000060: d2bd 873c
