models1/checkpoint150.pth.tar (torch_old, 91660 bytes, 12 tensors)

0.weight f4 [32, 26]
0	0x3dcdd4c9	0.10050351
1	0xbdb93210	-0.09042752
2	0x3e6bb67a	0.23018828
3	0xbddc1d60	-0.1074779
4	0xbda2ea5f	-0.07954859
5	0x3d02b575	0.031911332
6	0x3e403011	0.18768336
7	0x3d43e903	0.04782964
8	0xbd860fdf	-0.06545996
9	0x3e088e56	0.13335547
10	0x3e6b7b20	0.22996187
11	0x3e36e097	0.17859112
12	0xbe2be579	-0.16786756
13	0x3ca25be6	0.019819211
14	0x3da6eefb	0.08151051
15	0x3d0c25c3	0.0342157
16	0xbd86c030	-0.065796256
17	0x3e3f1623	0.18660788
18	0x3c820580	0.015871763
19	0x3d9508e1	0.07277084
20	0x3e1e2291	0.15442874
21	0xbda66dc3	-0.08126404
22	0xbe1bbd86	-0.15209016
23	0xbe5280b7	-0.20556913
24	0x3d8eb9e1	0.06969047
25	0xbc590279	-0.013245218
26	0x3c8265de	0.015917715
27	0xbe265a90	-0.16245484
28	0x3e22b9df	0.15891217
29	0x3dcedb1a	0.10100384
30	0x3d62f33c	0.055407748
31	0x3defafd9	0.11703462
32	0x3e405059	0.1878065
33	0x3de80c87	0.113305144
34	0x3cec16cb	0.028819462
35	0xbe07ed07	-0.13274013
36	0x3df6d616	0.120525524
37	0xbd96525f	-0.0733993
38	0xbd973577	-0.073832445
39	0xbe357045	-0.17718609
40	0xbd9716ca	-0.073773935
41	0xbdab9e95	-0.083798565
42	0x3dfd7809	0.123764105
43	0x3d065397	0.03279456
44	0xbd4a9072	-0.04945416
45	0xbd589d5e	-0.052884452
46	0x3b314295	0.0027047743
47	0xbdc599fd	-0.096485116
48	0x3d327b92	0.043574877
49	0x3de1363c	0.109966725
50	0x3d15a13e	0.036530726
51	0x3e268276	0.16260704
52	0xbd18b5eb	-0.037282865
53	0xbd8eec20	-0.06978631
54	0x3e389261	0.18024589
55	0x3e895f9f	0.26830766
56	0x3dfc6b5c	0.12325165
57	0xbd8e4676	-0.06947033
58	0xbdf554a9	-0.11979038
59	0xbdac6837	-0.08418315
60	0x3e005b15	0.12534745
61	0x3dba5df0	0.090999484
62	0xbdb292d8	-0.087194145
63	0x3d0b7d1c	0.03405486
64	0xbe1d5247	-0.15363418
65	0x3e0f3220	0.13983965
66	0xbde8bb92	-0.11363901
67	0xbe43407f	-0.19067572
68	0x3e4458a4	0.19174439
69	0x3e686f4d	0.22698708
70	0x3de9e1d8	0.114200294
71	0xbe25af85	-0.16180237
72	0x3d837bbd	0.064200856
73	0x3d1a418f	0.037660178
74	0x3e56ba2a	0.20969453
75	0x3e104e1a	0.14092293
76	0x3dea2fb2	0.114348784
77	0xbd74868b	-0.059698623
78	0x3dbba5f0	0.091625094
79	0xbd019b3a	-0.031642176
80	0xbb077b11	-0.0020672719
81	0x3ce71652	0.028208885
82	0xbe20188d	-0.15634365
83	0x3e3d8caf	0.18510698
84	0x3dea673e	0.11445473
85	0x3dd2f8aa	0.10301335
86	0xbde3458a	-0.11097248
87	0xbe1f5528	-0.15559828
88	0x3e713eec	0.23559159
89	0xbd118970	-0.03553146
90	0xbe410fea	-0.18853727
91	0xbdb46a1d	-0.08809302
92	0xbac42cc1	-0.0014966951
93	0xbc3c6172	-0.011497842
94	0x3dafd170	0.08584869
95	0xbd9f3db1	-0.077754386
96	0x3e59c918	0.21268117
97	0x3d9e491f	0.077287905
98	0x3dc90b66	0.09816627
99	0xbe21b3d2	-0.15791252
100	0x3d112ab2	0.035441108
101	0x3dcb1cff	0.0991764
102	0x3e1dc2ca	0.15406337
103	0xbd2360ef	-0.039887365
104	0x3dc8a7b3	0.09797611
105	0x3e2a0ee5	0.16607244
106	0x3daa14ae	0.083047256
107	0xbcbace93	-0.02280358
108	0x3e854265	0.26027218
109	0xbd02644d	-0.031833936
110	0x3e25a267	0.16175233
111	0xbd733a30	-0.059381664
112	0x3e0f0a23	0.1396871
113	0xbdbd290c	-0.09236345
114	0x3ddeca99	0.10878486
115	0x3dd1514d	0.10220585
116	0xbc3704d8	-0.011170588
117	0xbe3cf6f2	-0.18453577
118	0xbe66d39a	-0.22541657
119	0x3e6e9039	0.23297204
120	0x3c7c4c4a	0.015399048
121	0x3e42bb17	0.19016682
122	0xbd8301d9	-0.06396837
123	0xbe1ddd41	-0.15416433
124	0x3e00ec07	0.12590037
125	0x3d330140	0.043702364
126	0x3e24fdcb	0.1611244
127	0xbe174606	-0.14772806
128	0xbbefd52a	-0.0073191123
129	0x3cce017c	0.025147192
130	0x3dba8640	0.091076374
131	0x3e122be2	0.14274552
132	0xbd7f5233	-0.06233425
133	0x3dc8ec39	0.09810681
134	0xbe39cf26	-0.18145427
135	0x3e2264b0	0.15858722
136	0x3bf37891	0.007430144
137	0x3c85cc4b	0.016332766
138	0x3da4d9fb	0.08049389
139	0xbcc773ac	-0.024347149
140	0x3dd04be6	0.101707265
141	0xbd926062	-0.0714729
142	0x3de19752	0.1101519
143	0x3e954410	0.2915349
144	0x3d914cb6	0.070947096
145	0xbe3932da	-0.18085805
146	0xbe394dcb	-0.18096082
147	0x3db1484f	0.0865637
148	0x3dad5b2d	0.08464656
149	0x3d2bb3ac	0.041919395
150	0xbc235f0b	-0.0099713905
151	0xbdd79598	-0.105265796
152	0x3e018d7f	0.12651633
153	0xbe233890	-0.15939546
154	0x3e210579	0.15724744
155	0x3c060ead	0.00818221
156	0xbd174c2b	-0.036937874
157	0xbcad79ce	-0.021176245
158	0x3e4223c7	0.1895896
159	0xbe260b6d	-0.16215296
160	0x3e596a2d	0.21231909
161	0x3e30fc20	0.17283678
162	0xbe42e690	-0.19033265
163	0x3e16de30	0.14733195
164	0x3df5c98a	0.12001331
165	0xbe4d5a1f	-0.2005391
166	0x3e598208	0.21241009
167	0xbd723d30	-0.059140384
168	0xbe2de398	-0.16981351
169	0xbdaa1937	-0.083055906
170	0x3e26f55d	0.16304536
171	0x3d6f0fc5	0.05836465
172	0xbd8c46b3	-0.06849422
173	0xbc410d82	-0.011783006
174	0x3e513e8d	0.20434017
175	0xbdb42d14	-0.087976605
176	0x3da1bb5e	0.078970656
177	0x3c6ad257	0.0143323755
178	0xbddc7e0a	-0.107662275
179	0x3da064f1	0.07831753
180	0x3da816e2	0.082074896
181	0xbdb47907	-0.08812147
182	0xbd4e21c1	-0.05032516
183	0x3e74f3b2	0.23921087
184	0x3d9e26b1	0.077222236
185	0x3c7d8aa4	0.015474949
186	0xbca84e98	-0.020545289
187	0xbe173343	-0.14765649
188	0xbc3d0cae	-0.011538668
189	0xbda8516e	-0.082186565
190	0x3cc5b23d	0.024132842
191	0xbcf71f77	-0.03016637
192	0xbdcc1430	-0.09964788
193	0x3deb9e11	0.11504758
194	0xbe47f7fd	-0.19528194
195	0x3da484b4	0.080331236
196	0x3e3a860e	0.182152
197	0x3d7f93ae	0.062396698
198	0xbdf0f007	-0.117645316
199	0xbd895530	-0.06705701
200	0xbe631bba	-0.22178546
201	0x3e24d121	0.16095401
202	0x3e3ab962	0.1823478
203	0x3e8b514d	0.27210465
204	0x3e539258	0.20661294
205	0x3e02cf76	0.12774453
206	0x3e8594ae	0.26089996
207	0xbd38b24e	-0.04509192
208	0xbd12bd75	-0.03582521
209	0x3e40988a	0.18808189
210	0x3cd7ed0b	0.026358148
211	0xbd685582	-0.05672217
212	0xbd9e8096	-0.077393696
213	0x3e6a86ec	0.22903031
214	0x3d902f5c	0.07040283
215	0xbdd1ff2e	-0.1025375
216	0x3cd0fa1d	0.025509888
217	0xbe02a2ef	-0.12757467
218	0xbe2f00a0	-0.17090082
219	0x3d5bd605	0.0536709
220	0xbe09d854	-0.13461429
221	0x3ca19301	0.019723417
222	0x3e4f5cb8	0.20250213
223	0xbb85b07f	-0.004079878
224	0x3dc66d45	0.0968881
225	0xbde61b3d	-0.11235664
226	0x3e2aae9c	0.1666817
227	0xbdd99eb5	-0.10625974
228	0xbe13dbac	-0.14439267
229	0x3de3c62c	0.11121783
230	0xbe22d39a	-0.15901032
231	0x3e3680c6	0.1782256
232	0xbc87cb3b	-0.0165764
233	0xbdfc39fe	-0.12315749
234	0xbdc0cea9	-0.09414417
235	0x3e0b7527	0.13618909
236	0xbcde7a5e	-0.027157959
237	0x3d8ff76b	0.07029613
238	0xbc163124	-0.0091669895
239	0x3e16e649	0.14736284
240	0xbe00bec4	-0.12572771
241	0xbdf1ec1d	-0.11812613
242	0xbdbdf35e	-0.09274934
243	0x3dd41ffa	0.103576615
244	0xbdff6f85	-0.124724425
245	0xbddd0663	-0.10792234
246	0x3d99a94c	0.07502994
247	0xbe32037e	-0.17384145
248	0x3cc42bcf	0.02394667
249	0x3e67e18d	0.22644635
250	0x3e6e6b69	0.23283161
251	0xbdb755df	-0.089519255
252	0xbd71384b	-0.058891576
253	0xbe51b791	-0.20480181
254	0x3d065c04	0.032802597
255	0xbdb22108	-0.086977065

0.bias f4 [32]
0	0xbdf73749	-0.12071092
1	0xbdf5070d	-0.119642355
2	0x3e2d212f	0.1690719
3	0xbe0ff6b1	-0.14058949
4	0x3deee906	0.116655394
5	0x3d6f7cbc	0.058468565
6	0xbd66ec7c	-0.056377873
7	0x3d4114cc	0.047138974
8	0x3e0a943a	0.13533106
9	0x3aa7e901	0.001281053
10	0x3d84ce88	0.06484705
11	0x3cfb05ff	0.030642508
12	0xbcc89221	-0.024483742
13	0x3bc53f40	0.006019503
14	0x3e358e7f	0.17730139
15	0x3e3f8856	0.18704352
16	0x3cf1cf01	0.029517652
17	0x3df72fbe	0.12069653
18	0x3d79eb5b	0.061015468
19	0x3e11b70b	0.14229982
20	0xbd8747e7	-0.06605511
21	0x3dde09fe	0.108417496
22	0xbdc82ce8	-0.0977419
23	0x3e1b8c76	0.151903
24	0xbdf13825	-0.11778287
25	0x3e041aa1	0.12900783
26	0xbcc2a147	-0.023758544
27	0xbd8e3d46	-0.06945281
28	0x3e3f1d1e	0.18663451
29	0x3e31606b	0.17321937
30	0xbe22aea9	-0.1588694
31	0xbd37d9cf	-0.044885453

2.weight f4 [64, 32]
0	0xbe1a5325	-0.1507078
1	0xbdd84793	-0.10560527
2	0x3e59bd04	0.2126351
3	0xbb276061	-0.0025539624
4	0xbc59a03f	-0.013282835
5	0x3e6f0065	0.23339994
6	0xbbb23373	-0.005438262
7	0xbe2a0a86	-0.16605577
8	0x3e1d64dd	0.15370508
9	0x3daf3045	0.085541286
10	0x3d1f8733	0.038947295
11	0x3d2a2783	0.041541588
12	0xbc3f7f06	-0.011688
13	0x3e193934	0.14963228
14	0xbe29c5a7	-0.16579305
15	0x3de06d6b	0.1095837
16	0x3e4f721a	0.2025837
17	0x3decea53	0.11568131
18	0xbe19a8c9	-0.15005793
19	0xbe36224a	-0.17786518
20	0x3cd71c61	0.02625865
21	0xbde4429b	-0.111455165
22	0xbe4259fa	-0.18979636
23	0x3e30c825	0.17263849
24	0x3e2c6999	0.16837157
25	0xbdc62940	-0.096758366
26	0xbd3d9d94	-0.046292856
27	0xbe3d38f7	-0.18478762
28	0x3e003fa3	0.12524275
29	0x3d8af7bf	0.06785535
30	0xbda3ebfd	-0.080039956
31	0x3e7e91a0	0.24860239
32	0xbdedfc30	-0.116203666
33	0x3e00de28	0.12584746
34	0xbe397de8	-0.18114436
35	0x3c4dd250	0.012562349
36	0xbd3b246f	-0.045689043
37	0x3b8a81ab	0.0042268834
38	0xbe5c4445	-0.21510418
39	0x3cba4914	0.022739924
40	0x3d423bc9	0.047420297
41	0x3d3a6377	0.045505013
42	0xbe489e2d	-0.1959159
43	0x3d5f27a9	0.054481182
44	0x3e089d67	0.13341294
45	0x3d60f915	0.054925043
46	0xbdfa100e	-0.122100934
47	0x3e4c44de	0.19948146
48	0xbe2bf21c	-0.16791576
49	0xbd5b840a	-0.05359272
50	0x3e06c4c2	0.13160995
51	0x3bd36cd8	0.006452184
52	0x3e0c2583	0.13686185
53	0x3e253a2f	0.16135477
54	0x3cd985d3	0.02655307
55	0x3e4e083f	0.20120333
56	0xbe088686	-0.13332567
57	0x3e354121	0.17700626
58	0x3c9872f2	0.018609498
59	0xbe6a9980	-0.22910118
60	0x3be62ad2	0.0070241475
61	0x3d765315	0.060137827
62	0x3e32f092	0.17474583
63	0x3d8d6b85	0.06905273
64	0x3c07e4cd	0.008294296
65	0x3cff22c8	0.031144515
66	0x3e2620b6	0.16223416
67	0xb97ffe72	-0.00024413483
68	0x3d781a5e	0.06057202
69	0xbc6b90a2	-0.014377745
70	0xbe1db91b	-0.15402643
71	0x3e54294f	0.20718883
72	0x3cdcaba2	0.02693731
73	0x3d4fb993	0.050714087
74	0x3db512ae	0.088414535
75	0x3d205872	0.039146848
76	0x3be3f51c	0.0069567095
77	0x3da53086	0.08065896
78	0xbe2b8f6a	-0.16753927
79	0xbd558bb1	-0.052135173
80	0xbd12cefa	-0.03584192
81	0x3dd06814	0.10176101
82	0x3e3b1508	0.18269742
83	0xbd3cd588	-0.046102077
84	0x3e5fdaec	0.21860856
85	0xbde42a86	-0.11140923
86	0xbe23885f	-0.1596999
87	0xbd48ed67	-0.04905453
88	0xbdcc9f0e	-0.09991275
89	0x3df5bbf1	0.119987376
90	0x3e0500f5	0.12988646
91	0x3e35a056	0.17736945
92	0x3db09b7d	0.08623407
93	0x3c038f44	0.008029763
94	0x3d49cd9d	0.049268354
95	0xbde872d0	-0.11350024
96	0xbdb3f207	-0.087863974
97	0xbdfaa8fe	-0.12239264
98	0xba802b9e	-0.0009778624
99	0xbe1f0f87	-0.15533267
100	0x3d78a547	0.060704496
101	0x3e26db88	0.16294682
102	0x3e18bcb1	0.1491573
103	0x3e0a1861	0.13485862
104	0xbda32ddc	-0.07967731
105	0x3e3274ab	0.17427318
106	0xbe014f7a	-0.12627974
107	0xbdcb91f2	-0.09939946
108	0xbdc2254d	-0.09479771
109	0x3982a68a	0.00024919613
110	0x3dfd217c	0.12359902
111	0x3d58ae1f	0.05290043
112	0x3e2b488b	0.16726892
113	0x3d898245	0.067143
114	0x3e012f3c	0.12615675
115	0x3e109920	0.14120913
116	0xbd56c6ac	-0.052435562
117	0x3d978c3f	0.07399797
118	0x3de21992	0.110400334
119	0xbdb742fb	-0.089483224
120	0xbdddcab0	-0.10829675
121	0x3e2a4370	0.16627288
122	0xbe31d605	-0.17366798
123	0x3d552108	0.052033454
124	0x3cefd481	0.029276134
125	0x3c6e2da9	0.014537253
126	0xbd258baf	-0.040416416
127	0x3e421910	0.18954873
128	0xbe66c0f4	-0.22534543
129	0x3c0f46b3	0.008744883
130	0x3b5614ab	0.0032666128
131	0x3d66462f	0.056219276
132	0xbbf912f4	-0.0076011363
133	0x3d400636	0.046880923
134	0xbcbed577	-0.023295147
135	0x3e7d28ee	0.24722645
136	0xbde28e12	-0.11062254
137	0x3d1c9d45	0.03823592
138	0xbd8d1c32	-0.068901435
139	0x3de9da41	0.11418582
140	0x3e194f6b	0.14971702
141	0x3d3133b6	0.043262206
142	0xbe0f2157	-0.13977562
143	0x3c8b6605	0.01701642
144	0xbdae85cb	-0.08521613
145	0xbdeb2f25	-0.114836015
146	0x3e328e8a	0.17437187
147	0x3c0135a0	0.00788632
148	0x3d552401	0.05203629
149	0x3e3f4c54	0.1868146
150	0xbe15b5ef	-0.14620183
151	0xbe1d90fb	-0.15387337
152	0x3d857895	0.0651714
153	0x3e25d0c2	0.16192916
154	0x3dd24915	0.102678455
155	0x3d66beae	0.05633419
156	0x3aac12c6	0.0013128154
157	0x3d74562f	0.059652504
158	0xbe511cc0	-0.20421124
159	0xbe415eeb	-0.18883865
160	0x3e3afe05	0.18260963
161	0xbe62fa03	-0.22165684
162	0xbdeefd0f	-0.11669361
163	0xbcecbcec	-0.028898679
164	0xbc2c9bda	-0.010535205
165	0x3dfa1cc3	0.12212517
166	0x3c53fe57	0.012939057
167	0x3e5c4714	0.21511489
168	0x3d0cea43	0.034403097
169	0xbe6e3be6	-0.23265037
170	0x3d9b0c14	0.07570663
171	0xbde90407	-0.11377721
172	0x3db6c827	0.08924895
173	0x3e45b188	0.19306004
174	0xbd85e8f0	-0.0653857
175	0xbd0c593d	-0.03426479
176	0x3db8ab12	0.09017004
177	0x3e2af786	0.16695985
178	0xbddee542	-0.10883571
179	0x3e31cc74	0.17363149
180	0x3d5b3e05	0.053525943
181	0x3c98395f	0.018582044
182	0xbbf23920	-0.0073920637
183	0x3e151382	0.14558223
184	0x3cdef479	0.027216183
185	0x3c1d0099	0.009582662
186	0x3e4272bd	0.18989082
187	0xbe165f92	-0.14684895
188	0x3e270b91	0.16313006
189	0xbe232654	-0.1593259
190	0x3e6d83eb	0.23194854
191	0xbccd1839	-0.025035964
192	0xbdfd633b	-0.12372442
193	0xbdc5cbba	-0.096579984
194	0xbba01450	-0.004885234
195	0xbe2205f2	-0.1582258
196	0x3e0899a0	0.13339853
197	0xbd98ad46	-0.07454924
198	0xbde3a3ff	-0.11115264
199	0x3e037214	0.12836486
200	0xbdcc08ea	-0.09962638
201	0xbd9fa6ca	-0.07795484
202	0xbddacc34	-0.1068348
203	0xbe203fb0	-0.15649295
204	0xbdd924dd	-0.10602734
205	0xbc1039ce	-0.008802844
206	0xbe0e7cb7	-0.13914762
207	0xbcdfcb2d	-0.027318561
208	0xbddfc52b	-0.10926279
209	0x3e145546	0.14485654
210	0x3e0ce287	0.13758288
211	0x3e1cd018	0.15313756
212	0x3e0225d6	0.12709746
213	0x3e2b5f74	0.16735631
214	0x3e3c9d8e	0.18419477
215	0x3d0a76cf	0.03380471
216	0x3bc10bac	0.005891284
217	0x3e225f6b	0.15856712
218	0xbdd8ec0c	-0.10591897
219	0x3e159031	0.14605786
220	0xbe218ed7	-0.15777145
221	0x3d569f39	0.05239794
222	0x3e24a74a	0.1607944
223	0xbe13023a	-0.14356318
224	0xbd841b14	-0.06450477
225	0xbdb2a73b	-0.08723303
226	0x3e5b87f7	0.21438585
227	0xbdd858c8	-0.10563809
228	0xbce6cc55	-0.028173605
229	0xbe076333	-0.13221435
230	0xbde1487f	-0.11000156
231	0x3e0b8ac0	0.13627148
232	0xbd00551a	-0.03133116
233	0xbcfec356	-0.031099003
234	0x3e5c9f67	0.21545182
235	0x3d5d592a	0.05404011
236	0x3d8e5a7a	0.06950851
237	0x3d615dc8	0.055021077
238	0xbba71939	-0.0050994423
239	0x3d89a90d	0.06721697
240	0xbd9a21ba	-0.07525964
241	0xbdff91e8	-0.12479001
242	0xbd7dd3be	-0.06196951
243	0x3d4c00fa	0.04980562
244	0xbd913c2f	-0.07091557
245	0x3d91f44a	0.071266726
246	0xbe2ff851	-0.17184569
247	0x3cab4f48	0.020911828
248	0x3dab0bf8	0.08351892
249	0xbdd69697	-0.104779415
250	0xbde76c55	-0.112999596
251	0x3da029f4	0.07820502
252	0xbb8757d7	-0.0041303444
253	0x3cc10221	0.023560585
254	0xbd09a8fb	-0.033608418
255	0x3e3d5cf4	0.1849249

2.bias f4 [64]
0	0x3e2bbc30	0.16771007
1	0x3e1c9eb4	0.15294915
2	0xbe0b0f7c	-0.13580126
3	0xbda8ab11	-0.08235753
4	0x3e029a75	0.12754233
5	0xbdfd9e50	-0.12383711
6	0xbe2023e2	-0.15638688
7	0x3d8f9663	0.07011106
8	0x3d04c27c	0.032412037
9	0x3df38112	0.118898526
10	0x3db04cca	0.08608396
11	0xbdd8edc2	-0.10592224
12	0x3da01ff2	0.07818593
13	0xbdde50d2	-0.10855259
14	0xbde950bd	-0.11392353
15	0x3d810546	0.06299834
16	0x3c042cf0	0.008067355
17	0x3e3a5b84	0.18198973
18	0x3e26959f	0.16268013
19	0xbe211aac	-0.15732831
20	0x3b17ad9b	0.0023144248
21	0xbd910b0d	-0.07082186
22	0x3e12f444	0.14350992
23	0x3d835c1b	0.06414052
24	0x3da803c3	0.082038425
25	0x3e02af40	0.12762165
26	0xbde11c02	-0.1099167
27	0xbe2f8715	-0.17141373
28	0x3e0a01b3	0.1347721
29	0x3cb42f25	0.021995137
30	0x3e1c69e0	0.15274763
31	0x3da6b4b7	0.08139937
32	0xbb56c264	-0.0032769674
33	0x3dfb89c5	0.12282137
34	0x3e305900	0.17221451
35	0xbd86f38a	-0.0658942
36	0x3dadf3f8	0.08493799
37	0xbddf3ad4	-0.108998924
38	0x3db9c2ef	0.09070384
39	0x3d169c80	0.036770344
40	0x3cf27190	0.029595166
41	0xbe047f39	-0.12939157
42	0x3d6fb8c1	0.058525804
43	0xbc3b9b6c	-0.01145063
44	0x3d0b8fce	0.03407269
45	0x3d89650c	0.06708726
46	0x3d7fde8a	0.06246809
47	0xbcc125d6	-0.023577612
48	0x3e0f010d	0.13965245
49	0xbd8e41ec	-0.06946167
50	0xbdd3bbe8	-0.10338575
51	0x3e2493e0	0.16072035
52	0xbcc06236	-0.02348433
53	0x3b9c87ea	0.0047769444
54	0xbe0657f4	-0.13119489
55	0x3ddc6cd2	0.10762943
56	0x3c1a4330	0.009415433
57	0x3d37c658	0.04486689
58	0xbc2996e7	-0.010350919
59	0xbd84df1d	-0.06487868
60	0xbd1059e9	-0.035241995
61	0x3d2e91cd	0.042619515
62	0x3dc23aaa	0.094838455
63	0x3e2c1ab6	0.16807064

4.weight f4 [128, 64]
0	0x3cd6e52a	0.02623232
1	0x3c6f23bc	0.014595922
2	0x3e11b160	0.1422782
3	0xbdb5c123	-0.088747285
4	0x3d272148	0.040803224
5	0xbd56d514	-0.0524493
6	0x3d7bdf97	0.06149253
7	0xbade48a2	-0.0016958902
8	0x3e144ecc	0.14483184
9	0xbd1a9fc7	-0.03775003
10	0x3e12d113	0.14337568
11	0xbd418a20	-0.047250867
12	0xbdc3e460	-0.095650434
13	0xbcb68bea	-0.022283513
14	0xbdacf45f	-0.084450476
15	0xbde29d83	-0.11065199
16	0x3c9e3ccc	0.0193161
17	0xbc833a5b	-0.016019037
18	0xbdc27a5b	-0.09495994
19	0xbcb6de8d	-0.022322917
20	0xbd51a08a	-0.051178493
21	0xbd827a25	-0.063709535
22	0xbc14ddc7	-0.009086079
23	0x3d26c18c	0.040711924
24	0xbddf9c19	-0.10918445
25	0xbd8d1976	-0.06889622
26	0xbc4754c1	-0.012166203
27	0xbdebc7b6	-0.11512701
28	0x3d773f14	0.06036289
29	0xbdc89108	-0.097932875
30	0xbcde37a7	-0.027126146
31	0x3e086b41	0.13322164
32	0x3c3d0d40	0.011538804
33	0xbd25e2a0	-0.04049933
34	0x3e0c76d4	0.13717204
35	0xbd8831d7	-0.06650131
36	0x3e0e5252	0.1389859
37	0x3c9f66ce	0.0194582
38	0xbb46c369	-0.0030328876
39	0x3e379d64	0.17931134
40	0x3d520c98	0.05128154
41	0x3a79ffc6	0.00095367094
42	0xbc9d0680	-0.019168139
43	0x3c8fc342	0.01754916
44	0x3de8d3fd	0.113685586
45	0x3d52a70a	0.051428832
46	0xbc8240de	-0.015900072
47	0x3e125189	0.14288916
48	0x3ccaa055	0.024734655
49	0xbdc71fc2	-0.09722854
50	0x3d102434	0.035190776
51	0x3c519821	0.012792618
52	0x3e1a4dda	0.1506876
53	0x3c033207	0.008007533
54	0xbd91fdfe	-0.07128523
55	0x3dd54099	0.10412712
56	0x3d1e6fe3	0.038680922
57	0x3bb09a4b	0.005389487
58	0x3d67c8ae	0.056587867
59	0xbcadf458	-0.021234676
60	0x3d9c6b81	0.07637692
61	0x3e0cd847	0.13754378
62	0xbc7255e2	-0.014790984
63	0x3e17ac2c	0.14811772
64	0x3bc7b8cb	0.006095027
65	0x3c1da382	0.009621503
66	0xbdb1e8d6	-0.08686988
67	0xbd2a73cf	-0.04161435
68	0x3d419499	0.047260854
69	0x3de7afd5	0.11312834
70	0x3dc5d73f	0.096601956
71	0x3b11e6ea	0.002226288
72	0x3c174ed3	0.009235102
73	0xbdf06f1f	-0.11739945
74	0x3df537b7	0.119735174
75	0x3d2baf2c	0.041915104
76	0x3da48757	0.080336265
77	0xbd99de4d	-0.07513104
78	0xbd96a415	-0.07355515
79	0x3dc1aeb1	0.09457148
80	0x3d983169	0.07431299
81	0x3d74706c	0.059677526
82	0x3dc66fb6	0.09689276
83	0xbdc377f1	-0.095443614
84	0xbda299d0	-0.07939494
85	0xbca52505	-0.020159254
86	0xbdf13e00	-0.11779404
87	0xbdc0ff5b	-0.09423705
88	0xbd4adfc2	-0.0495298
89	0x3ded03be	0.115729794
90	0x3e1ae474	0.1512621
91	0xbdcd5f4a	-0.100279406
92	0x3e14109b	0.1445946
93	0xbce5ac78	-0.028036341
94	0xbd603a49	-0.054743085
95	0xbd9187a7	-0.07105952
96	0x3dedc734	0.116102606
97	0xbc71b00c	-0.0147514455
98	0xbdc01d75	-0.093806185
99	0x3de1d5c5	0.110271014
100	0xbd0bcee7	-0.034132864
101	0x3da3c116	0.079958126
102	0x3c3e0b93	0.011599439
103	0x3df40731	0.11915434
104	0xbd7c0589	-0.061528716
105	0x3dc65cdc	0.0968568
106	0xbdb291a0	-0.08719182
107	0xbd2aadb3	-0.04166956
108	0x3e17e2e3	0.14832644
109	0xbdd48cd6	-0.10378425
110	0x3c7fb3a6	0.015606796
111	0x3cfe119b	0.031014254
112	0x3caf99b4	0.021435596
113	0xbba9e996	-0.0051853163
114	0x3d0bd92e	0.034142666
115	0x3c8b7493	0.01702336
116	0xbd88e1d8	-0.06683701
117	0xbd1b3ea1	-0.037901524
118	0x3d944c4d	0.07241116
119	0xbda3e7bf	-0.080031864
120	0x3c409ad4	0.011755664
121	0xbda42404	-0.08014682
122	0xbbfbd178	-0.0076848827
123	0x3d82b3fe	0.06381987
124	0x3dc26ed5	0.09493796
125	0xbdbed0f2	-0.09317197
126	0xbe15fbc9	-0.1464683
127	0xbb8d276e	-0.004307679
128	0xbda816eb	-0.08207496
129	0xbc7a082c	-0.015260737
130	0xbd9db939	-0.07701344
131	0x3c850a58	0.016240284
132	0xbc63a943	-0.013895336
133	0x3d740b0c	0.059580848
134	0x3be0cf46	0.0068606464
135	0x3d86fd6e	0.065913066
136	0x3defdccc	0.117120355
137	0x3d835b43	0.06413891
138	0x3dc31945	0.09526304
139	0x3b798200	0.003807187
140	0x3d873787	0.06602388
141	0x3dacae9b	0.08431741
142	0x3d85bd82	0.06530286
143	0x3c9490c2	0.018135432
144	0xbc8160f1	-0.015793296
145	0x3ccbca43	0.02487672
146	0x3e13a600	0.14418793
147	0xbc447b1d	-0.011992243
148	0x3cd64827	0.026157452
149	0x3c05a084	0.008155946
150	0xbd12e9a9	-0.035867367
151	0x3dbc88e3	0.092057966
152	0x3dbd92cf	0.09256517
153	0xbd47c5c2	-0.04877258
154	0x3e0a1b3a	0.13486949
155	0x3d85e7c6	0.06538348
156	0xbae77009	-0.001765729
157	0x3da34901	0.07972909
158	0xbd8832ac	-0.0665029
159	0xbdcfd1b9	-0.10147423
160	0xbdbcad67	-0.09212761
161	0x3d7c562b	0.061605614
162	0x3d29aa26	0.04142203
163	0x3e0e6872	0.1390703
164	0xbe0909aa	-0.13382593
165	0x3d8c2ac2	0.06844093
166	0xbca7b876	-0.0204737
167	0xbd20083e	-0.03907036
168	0x3ad17683	0.0015980754
169	0xbdedbed3	-0.116086625
170	0xbde1c124	-0.11023167
171	0x3d50d47d	0.050983895
172	0xbd7e4c2a	-0.062084354
173	0x3d2570b7	0.040390696
174	0x3ca72aad	0.020406092
175	0x3e2728cf	0.16324161
176	0xbd897db9	-0.06713433
177	0xbc856eee	-0.016288247
178	0x3d09818c	0.03357081
179	0xbd3c904d	-0.046036053
180	0x3dec6f45	0.115446605
181	0x3d3e9917	0.046532717
182	0x3c7d8fe1	0.015476198
183	0xbde4869b	-0.111584865
184	0xbd53294b	-0.051553052
185	0x3dff2410	0.1245805
186	0xbd5c3dea	-0.053769983
187	0x3de355b7	0.11100333
188	0xbd9aa762	-0.07551457
189	0x3d80ba37	0.06285518
190	0x3e0aa91b	0.13541071
191	0x3cafd62c	0.02146443
192	0xbd441faa	-0.04788176
193	0x3e0874a9	0.13325752
194	0x3da37874	0.07981959
195	0xbba64436	-0.0050740493
196	0x3db04d7f	0.08608531
197	0xbd5653cc	-0.05232601
198	0xbda97700	-0.082746506
199	0x3ded597c	0.115893334
200	0xbe149ee9	-0.14513744
201	0xbdd8ca7f	-0.10585498
202	0xbdcf3027	-0.10116606
203	0xbc9390b8	-0.018013343
204	0x3e34bc6c	0.17650002
205	0xbcb18370	-0.02166912
206	0xbd03e130	-0.032197177
207	0x3e4a2521	0.19740726
208	0xbd295eda	-0.041350223
209	0xbddb300d	-0.10702524
210	0xbc9b5ed5	-0.018966118
211	0xbd519beb	-0.051174086
212	0x3dcab577	0.09897893
213	0x3d7048e5	0.058663268
214	0xbe264432	-0.16236952
215	0x3ddd5f88	0.10809237
216	0xbd8e4615	-0.06946961
217	0x3db8ece6	0.0902956
218	0x3dccc097	0.09997671
219	0xbd3e0cb5	-0.046398837
220	0x3d07fdb4	0.033200935
221	0x3c84bcf8	0.016203389
222	0xbb97c8e4	-0.0046321023
223	0x3d85f536	0.06540911
224	0xbda2f638	-0.07957119
225	0xbdc8ad13	-0.09798636
226	0xbd999c5b	-0.075005256
227	0xbd8dd29f	-0.069249384
228	0x3cd1dd6a	0.025618274
229	0x3e04f98f	0.12985824
230	0x3b1292fd	0.0022365444
231	0xbd49c657	-0.049261417
232	0x3ce0d397	0.027444644
233	0xbd6c4676	-0.057684384
234	0x3dec57ed	0.11540208
235	0x3d1480d9	0.03625569
236	0x3e126514	0.1429637
237	0x3cfda2d2	0.030961428
238	0x3e29a0e9	0.16565289
239	0x3e2bca2f	0.16776346
240	0xbcf8d25c	-0.030373745
241	0x3ddea990	0.10872185
242	0xbdcc1b1e	-0.0996611
243	0x3dfc355b	0.12314864
244	0xbe0ebd96	-0.13939509
245	0xbddb49f4	-0.10707465
246	0x3e030265	0.12793882
247	0xbd8f641c	-0.07001516
248	0x3df09f1b	0.11749097
249	0xbd4b8da2	-0.04969562
250	0x3ceb043f	0.028688548
251	0x3c1bdfde	0.009513823
252	0xbdedec7b	-0.11617371
253	0x3e07ba3e	0.1325464
254	0x3a20b90c	0.000613109
255	0x3dbffade	0.09374021

4.bias f4 [128]
0	0x3d0da5fb	0.03458212
1	0xbdf7b56e	-0.12095152
2	0xbd70ac82	-0.058758266
3	0xbd949235	-0.07254449
4	0x3de311dd	0.110873915
5	0x3e008c80	0.12553596
6	0x38a02692	7.636579e-05
7	0x3e14b5d7	0.14522491
8	0x3db5a418	0.08869189
9	0x3da9ec43	0.082970165
10	0xbd0a1080	-0.033707142
11	0xbcd6c528	-0.026217058
12	0x3de695b0	0.112590194
13	0xbdb3d2e1	-0.08780456
14	0x3dac5b76	0.08415882
15	0x3d987272	0.07443704
16	0xbcd29597	-0.025706096
17	0xbd204b14	-0.0391341
18	0x3c950dd3	0.018195068
19	0xbce94f80	-0.028480291
20	0x3c2d011d	0.010559347
21	0xbd2684c4	-0.04065396
22	0x3dcad14d	0.09903202
23	0x3e04923f	0.12946413
24	0xbd162e5f	-0.036665317
25	0x3d6b64f2	0.057469316
26	0x3dde917c	0.10867593
27	0x3d6f2d28	0.058392674
28	0x3da3fae2	0.080068365
29	0xbdbc1836	-0.09184305
30	0x3dd69574	0.10477725
31	0xbcaea656	-0.02131955
32	0x3d184218	0.037172407
33	0x3e0a7839	0.13522424
34	0xbd359b22	-0.0443374
35	0xbd934337	-0.071905546
36	0x3dc0aacf	0.09407579
37	0x3db29b6e	0.08721052
38	0xbdb5caf6	-0.08876602
39	0xbcd37a9e	-0.025815304
40	0x3c7e06c9	0.015504547
41	0xbde15a5c	-0.11003563
42	0xbd9dae79	-0.07699294
43	0x3e057d3f	0.13036059
44	0xbdff2b15	-0.12459389
45	0x3e02609b	0.12732165
46	0x3d885920	0.06657624
47	0xbd3a8cc0	-0.045544386
48	0xbde936d1	-0.113874085
49	0x3db1aa96	0.08675115
50	0x3dbd3f43	0.09240582
51	0xbdc8b51f	-0.09800171
52	0xbc0262c3	-0.007958117
53	0x3d9ece58	0.07754201
54	0xbda40544	-0.08008817
55	0xbddd4fce	-0.10806237
56	0x3c829e61	0.015944662
57	0x3b3058eb	0.0026908468
58	0xbd099f4e	-0.03359919
59	0xbd9e4871	-0.07728661
60	0x3d3785aa	0.044805206
61	0xbdd2ed65	-0.10299186
62	0xbde479ef	-0.111560695
63	0x3e0018ac	0.12509412
64	0xbdb4d9de	-0.08830617
65	0x3dd45c7f	0.10369205
66	0xbd8e3fe2	-0.069457784
67	0x3de5489e	0.11195491
68	0x3de02712	0.10944952
69	0xbe11cf08	-0.14239132
70	0x3da1ae13	0.0789453
71	0xbc8c2b39	-0.017110454
72	0x3dacdbbc	0.084403485
73	0x3de37232	0.111057654
74	0x3e071e75	0.13195212
75	0xbd9359c4	-0.07194856
76	0x3d892b43	0.06697705
77	0xbd3ef7b1	-0.046622936
78	0x3d8f10e6	0.06985645
79	0xbdc707eb	-0.09718307
80	0x3d99dd8e	0.07512961
81	0x3dde9748	0.10868698
82	0x3dd90987	0.1059752
83	0x3da73510	0.08164418
84	0xbd57ec9e	-0.05271589
85	0x3d21a982	0.039468296
86	0x3dcd2652	0.10017075
87	0xbde704cb	-0.11280211
88	0xbdc48e0c	-0.09597406
89	0xbd17f83d	-0.037101973
90	0xbd67e8a4	-0.056618348
91	0xbdedc27a	-0.11609359
92	0xbddbcd9e	-0.10732578
93	0xbcb82cb9	-0.022482263
94	0xbc68f8a4	-0.014219437
95	0xbe03d4dc	-0.12874168
96	0xbdff7146	-0.12472777
97	0x3d4d2f0b	0.05009369
98	0xbd9b2df3	-0.075771235
99	0xbdec8f6b	-0.11550792
100	0x3d6bcdb7	0.05756923
101	0xbdc66167	-0.09686547
102	0xbddbd0ff	-0.10733222
103	0x3d2d44b4	0.04230185
104	0x3dec5aaf	0.11540734
105	0xbd1fad77	-0.03898379
106	0xbc37264c	-0.011178564
107	0x3df63005	0.12020878
108	0xbd158254	-0.036501244
109	0xbd7336e0	-0.059378505
110	0x3e0c2b95	0.136885
111	0x3da83978	0.08214086
112	0xbbaf5501	-0.0053507094
113	0xbd83ecc9	-0.064416476
114	0xbd2205cb	-0.039556306
115	0x3db0d283	0.08633902
116	0xbe0702c9	-0.13184656
117	0x3e05ae0a	0.13054672
118	0xbae49e24	-0.0017442149
119	0xbd5954fc	-0.053059563
120	0xbdde63f2	-0.10858907
121	0xbdf34589	-0.11878497
122	0x3dabd33f	0.08389901
123	0x3dd3b9a2	0.10338141
124	0x3e081b5a	0.13291684
125	0x3dc962f9	0.09833331
126	0xbd923c79	-0.071404405
127	0xbdaad6cb	-0.0834175

6.weight f4 [64, 128]
0	0x3d188e49	0.03724507
1	0xbd629958	-0.05532202
2	0xbd415525	-0.04720034
3	0x3d28f4d4	0.04124911
4	0x3dc71c54	0.097222
5	0x3ab2f44c	0.0013653128
6	0xbc5daa28	-0.013529338
7	0x3c45f69d	0.012082723
8	0x3d94c807	0.07264715
9	0x3dad75b6	0.08469717
10	0xbd348a2d	-0.044077087
11	0x3de3e4a6	0.111275956
12	0xbdd762c5	-0.10516886
13	0x3c00e5f4	0.007867325
14	0x3d8af5f8	0.06785196
15	0xbd0e7a0b	-0.034784358
16	0x3d90cd57	0.070704155
17	0x3d467247	0.048448827
18	0x3d049d22	0.032376416
19	0x3c66b377	0.014080874
20	0x3de61c6d	0.112358905
21	0x3d84d2ab	0.06485494
22	0x3d99a5bf	0.07502317
23	0xba4a48ba	-0.00077165256
24	0xbc508f0a	-0.012729416
25	0xbd8d5516	-0.069009945
26	0x3d987928	0.07444984
27	0xbde68885	-0.11256508
28	0x3d4fe976	0.050759755
29	0xbc96b88e	-0.01839855
30	0xbbeca2b8	-0.007221546
31	0x3c5ef4f0	0.013608202
32	0x3d910b91	0.07082284
33	0xbc9c88a5	-0.019108126
34	0xbc32e46e	-0.01091872
35	0xbd9909ec	-0.074725956
36	0xbdf398ef	-0.11894404
37	0xbd053712	-0.032523222
38	0xbd5f8f41	-0.054579977
39	0x3d8b937e	0.06815241
40	0x3d81a95f	0.06331133
41	0x3d9991b8	0.07498497
42	0x3c0068e6	0.00783751
43	0x3c8d461c	0.017245345
44	0xbd8516a5	-0.0649846
45	0xbdc0d85c	-0.09416267
46	0xbdb31ecf	-0.08746111
47	0x3d218c36	0.039440356
48	0x3deac010	0.11462414
49	0x3cbe8b36	0.02325974
50	0x3d88d7fa	0.06681819
51	0xbd5c5331	-0.053790275
52	0x3e1100fa	0.14160529
53	0x3e053fd2	0.13012627
54	0x3d7198b8	0.058983535
55	0x3dcc0aeb	0.0996302
56	0xbde0ead9	-0.10982294
57	0xbcbf5d3f	-0.023359893
58	0x3d62b41b	0.055347543
59	0x3d88593c	0.06657645
60	0x3d854e6b	0.06509098
61	0x3d724105	0.05914404
62	0x3dd0883f	0.10182237
63	0x3cdb7a4f	0.02679172
64	0xbca5909a	-0.020210553
65	0x3d07b4b4	0.033131316
66	0x3d6f24d6	0.05838474
67	0xbaa552d3	-0.0012613185
68	0x3db5f079	0.08883757
69	0xbd99ae62	-0.07503964
70	0xbcf2bc28	-0.029630736
71	0x3cac61de	0.02104276
72	0x3dfbd0af	0.122956626
73	0x3d5f3289	0.054491553
74	0xbd31346f	-0.043262895
75	0x3d72d680	0.059286594
76	0xbd4260f4	-0.047455743
77	0x3c819bed	0.015821422
78	0xbd2eba6a	-0.042658247
79	0x3d991a8f	0.07475769
80	0xbd104297	-0.035219755
81	0x3d966459	0.073433585
82	0xbcbf7625	-0.023371765
83	0xbd70ae4a	-0.058759965
84	0x3e12aa80	0.14322853
85	0xbd009896	-0.031395517
86	0x3cec5c56	0.028852623
87	0x3d28410a	0.04107765
88	0xbda80663	-0.08204343
89	0xbcbbc6f4	-0.022922017
90	0x3c23c7c5	0.009996359
91	0xbdac2061	-0.08404613
92	0x3da1b18f	0.07895195
93	0x3d0b9fb8	0.034087867
94	0x3daeb936	0.0853142
95	0x3d6b1385	0.057391662
96	0x3dfb731f	0.12277817
97	0xbcf98e98	-0.030463502
98	0xbd19ebfa	-0.03757856
99	0xbcef75ce	-0.029230978
100	0x3dbe4744	0.092909366
101	0x3d04b450	0.032398522
102	0xbd922922	-0.07136752
103	0xbd83bee1	-0.06432892
104	0xbd2668b9	-0.040627215
105	0x3cafe82e	0.021473017
106	0x3b0c33ef	0.002139326
107	0xbdd7fb46	-0.105459735
108	0x3d7c6c66	0.061626814
109	0x3d39eb32	0.045390315
110	0x3dc480de	0.09594892
111	0x3d267443	0.04063822
112	0xbd96651c	-0.07343504
113	0xbd659845	-0.05605342
114	0x3c31f4cb	0.010861586
115	0x3d97ee4f	0.07418501
116	0x3d8c60ab	0.068543755
117	0x3d87a1b4	0.06622639
118	0xbd5d56fc	-0.054038033
119	0x3d9d2cad	0.07674537
120	0xbb3133cf	-0.0027038937
121	0x3c7ce7a0	0.015436083
122	0xbe0c6520	-0.13710451
123	0x3d25c6d3	0.040472817
124	0xbd53b59d	-0.05168687
125	0xbd98c1cc	-0.07458839
126	0xbd9d239b	-0.07672807
127	0xbd9596a0	-0.0730412
128	0xbe0c556c	-0.13704461
129	0x3be3f0c1	0.0069561903
130	0x3cb8848d	0.022524143
131	0xbd0a150e	-0.033711486
132	0xbd4e4d43	-0.05036665
133	0x3dd92294	0.106022984
134	0x3ded39a4	0.1158326
135	0xbd1d40a9	-0.038391743
136	0x3a8f01eb	0.0010910606
137	0x3c943fa1	0.018096747
138	0xbcbd1e15	-0.023085633
139	0xbd399de6	-0.0453166
140	0x3d89c8d4	0.06727758
141	0xbd8a4255	-0.06750933
142	0xbcad0053	-0.021118319
143	0xbb4fda5a	-0.003171584
144	0xbd9b70eb	-0.07589897
145	0x3da30a4e	0.0796095
146	0x3d07186f	0.032982286
147	0x3dc4accd	0.09603272
148	0x3bab066d	0.005219272
149	0xbb846968	-0.0040408857
150	0x3e126c9c	0.14299244
151	0xbdc497a6	-0.09599237
152	0xbceb256b	-0.028704366
153	0x3bd72c05	0.006566527
154	0x3db25962	0.08708455
155	0x3d381c40	0.044948816
156	0xbc61c46d	-0.013779742
157	0x3cadc1c8	0.021210566
158	0x3d59d26c	0.05317919
159	0xbd5399b5	-0.05166026
160	0xbcde8cd8	-0.027166769
161	0xbcdb4871	-0.026767941
162	0xbda5c827	-0.08094817
163	0xbcb5f027	-0.02220924
164	0xbc3b8abf	-0.011446654
165	0xbd5f91d5	-0.054582436
166	0x3dbad4b0	0.09122598
167	0x3dd0a7cc	0.10188255
168	0x3db1579c	0.08659288
169	0x3da47f66	0.08032112
170	0x3d9d136c	0.0766972
171	0xbdf03ca6	-0.11730318
172	0xbd9527a8	-0.072829545
173	0xbd0af89d	-0.033928502
174	0x3d2cca6a	0.042185225
175	0xbc2214d5	-0.009892662
176	0x3ddc846f	0.10767447
177	0x3c300439	0.010743194
178	0xbcb2767b	-0.021785012
179	0xbd8016e9	-0.0625437
180	0x3dbeaf31	0.09310759
181	0x3d76622d	0.06015222
182	0x3cb0c5e0	0.02157873
183	0x3e0a2051	0.1348889
184	0xb98a4ac3	-0.00026377113
185	0xbdae7bcc	-0.08519706
186	0xbbcd84f0	-0.006271951
187	0xbd04ec49	-0.0324519
188	0x3dd691d5	0.10477034
189	0x3cd4bb70	0.025968283
190	0x3da0fbf4	0.07860556
191	0xbbe9881d	-0.0071268217
192	0x3caa5f54	0.02079741
193	0x3bd4ae99	0.00649054
194	0x3db07a8a	0.086171225
195	0xbd05a0da	-0.032624103
196	0xbdd0bc1e	-0.101921305
197	0xbd49788b	-0.049187224
198	0x3dfafbb6	0.12255041
199	0x3d6baa20	0.05753529
200	0x3bc21387	0.005922738
201	0xbd95b8dd	-0.073106505
202	0x3da58c63	0.08083417
203	0xbd92ff47	-0.071775965
204	0xbd50865a	-0.050909378
205	0x3e04f242	0.12983039
206	0x3d331120	0.043717504
207	0xbd440d6b	-0.04786436
208	0x3db5fa85	0.088856734
209	0xbbd0e038	-0.006374385
210	0x3ddd891f	0.108171694
211	0x3d20f5df	0.03929698
212	0x3c6fb67b	0.014630909
213	0xbd08178b	-0.033225577
214	0x3dc0036c	0.09375653
215	0x3d391965	0.045190234
216	0x3df22092	0.118226185
217	0x3d40bc41	0.047054533
218	0xbcdd1a82	-0.026990179
219	0xbb0945db	-0.0020946178
220	0x3d4b04b2	0.049565025
221	0xbd844270	-0.064579844
222	0xbce4615a	-0.027878452
223	0x3c3e28a3	0.011606368
224	0xbd4f726c	-0.05064623
225	0x3c4ec59c	0.012620356
226	0xbd503c34	-0.050838664
227	0xbd3d791f	-0.04625809
228	0x3da04938	0.07826465
229	0x3d0725b4	0.03299494
230	0x3d5072ef	0.05089086
231	0xbd741175	-0.05958696
232	0xbd3eec0b	-0.046611827
233	0xbd96d365	-0.07364539
234	0x3afb743a	0.0019184418
235	0x3d244e6f	0.040113863
236	0x3d6d54bf	0.05794215
237	0x3c2b652f	0.010461136
238	0x3dc0be3c	0.09411284
239	0xbdde1e4a	-0.10845621
240	0xbd76d12e	-0.060258083
241	0xbd8c31f9	-0.06845469
242	0xbdfe5afc	-0.12419698
243	0x3d10fc3f	0.03539681
244	0x3db5cdb8	0.08877128
245	0x3e14da51	0.14536406
246	0x3db8fa80	0.09032154
247	0xbd87b6ad	-0.066266395
248	0xbd9f0543	-0.077646755
249	0xbda3983f	-0.07988023
250	0x3d389d2b	0.045071762
251	0xbdb652ff	-0.08902549
252	0xbe188d44	-0.14897639
253	0xbcb03ed3	-0.021514332
254	0xbcd163ca	-0.025560278
255	0x3dc21dc3	0.09478333

6.bias f4 [64]
0	0xbdb8c434	-0.09021798
1	0xbb7509e4	-0.0037389928
2	0x3c4653a9	0.012104907
3	0x3dcf09bb	0.10109278
4	0x3d15a33b	0.03653262
5	0xba5039e3	-0.0007943196
6	0xbd259d1a	-0.040433027
7	0x3d1d1256	0.038347565
8	0x3c80bd8a	0.01571538
9	0x3d274a10	0.040842116
10	0xbda58213	-0.0808145
11	0xbd8e5491	-0.069497235
12	0xbcb03c22	-0.021513049
13	0xbc321fa7	-0.010871804
14	0xbbafadb4	-0.005361283
15	0x3ce98f90	0.028510839
16	0x3cecd25c	0.0289089
17	0x3d9e8c47	0.077415995
18	0x3cc11f4e	0.023574498
19	0xbda6739b	-0.08127519
20	0xbd823f4c	-0.06359729
21	0x3d206b9b	0.03916512
22	0xbbb9f348	-0.0056747533
23	0x3afc3a62	0.0019243474
24	0xbd8eb039	-0.069672056
25	0xbd8fd1a3	-0.07022407
26	0xbd597d7c	-0.053098187
27	0x3da91bf0	0.08257282
28	0xbda0afa9	-0.078460045
29	0x3db3d976	0.08781712
30	0xbd9d4f50	-0.07681143
31	0x3c481a5b	0.012213315
32	0xbd144eff	-0.03620815
33	0xbd886821	-0.06660486
34	0x3c8a1577	0.016855938
35	0x3cfa0600	0.03052044
36	0x3db3cff5	0.08779899
37	0xbd3c40c5	-0.045960207
38	0x3dbad038	0.09121746
39	0x3cc1bf3e	0.023650762
40	0xbc559fe8	-0.013038613
41	0xbd9fc4a0	-0.07801175
42	0x3b6ad681	0.003583342
43	0xbb0a77e0	-0.002112858
44	0x3c007170	0.007839546
45	0x3d46861e	0.048467748
46	0xbc74a5d6	-0.0149321165
47	0x3a33f870	0.0006865328
48	0x3ba60eed	0.0050676973
49	0x3d0f21cc	0.03494434
50	0xbd447144	-0.04795958
51	0xbd69badd	-0.057062972
52	0x3cd7c74c	0.02634015
53	0xbcfd93f7	-0.030954344
54	0x3a85835c	0.0010186243
55	0xbb92a0ca	-0.004474734
56	0xbd77fad9	-0.06054196
57	0x3dbcd292	0.092198506
58	0x3cc9db7b	0.02464079
59	0x3dc01fb2	0.093810454
60	0x3b5f2937	0.0034051666
61	0xbd3105f4	-0.043218568
62	0x3c972c31	0.01845369
63	0x3dafdbf2	0.08586873

8.weight f4 [32, 64]
0	0x3d4ea2ff	0.050448414
1	0x3e056b04	0.13029104
2	0x3c7f0e60	0.015567392
3	0xbda4569b	-0.08024331
4	0xbd1d3134	-0.038377002
5	0x3ca34a4f	0.019932894
6	0xbdd4881e	-0.10377525
7	0xbbeeb740	-0.0072850287
8	0x3c9a2c5d	0.018819982
9	0x3da17374	0.07883349
10	0x3b3e0238	0.0028993022
11	0xbd91448f	-0.07093155
12	0x3dca3e8a	0.0987521
13	0xbcd5ab83	-0.02608276
14	0xbd186beb	-0.037212294
15	0x3dae1588	0.085002005
16	0x3d48a73b	0.04898761
17	0x3da340e6	0.07971363
18	0x3db0f89b	0.08641168
19	0x3e2a2329	0.16614975
20	0x3dee521e	0.11636756
21	0xbd066972	-0.032815404
22	0xbdba7317	-0.09103983
23	0xbd6391ab	-0.05555884
24	0x3cbdfa58	0.023190662
25	0xbc88b788	-0.016689077
26	0xbdc26890	-0.094926
27	0x3bf88e9a	0.007585359
28	0x3ca15e98	0.019698426
29	0x3d52ea0c	0.051492736
30	0xbbfacbde	-0.0076536974
31	0x3d9ba2cc	0.075994104
32	0xbc9e1084	-0.019294985
33	0x3dc19a6d	0.094532825
34	0x3dfed9c1	0.12443877
35	0xbdd9b096	-0.10629384
36	0x3dda08b1	0.10646189
37	0x3c6acd58	0.014331184
38	0x3dfc9fca	0.12335165
39	0xbd87bf19	-0.06628246
40	0xbdc09388	-0.09403139
41	0x3d82969a	0.06376381
42	0xbdf0d56e	-0.117594585
43	0x3d1294dd	0.0357865
44	0x3da0c16e	0.07849394
45	0xbde60379	-0.11231131
46	0x3dfcec38	0.12349743
47	0x3dbea2cb	0.09308394
48	0xbd0f4368	-0.034976393
49	0xbce02df0	-0.027365655
50	0x3d35d82f	0.044395622
51	0xbdcc4cd4	-0.09975591
52	0x3ddd4570	0.1080426
53	0x3b7a4700	0.0038189292
54	0xbe00a233	-0.12561874
55	0xbd30d02c	-0.04316728
56	0x3e0e1008	0.13873303
57	0x3d0b632d	0.03403013
58	0xbd8638bc	-0.0655379
59	0xbda15d3a	-0.0787911
60	0x3d8a9366	0.06766395
61	0xbdf7b716	-0.12095468
62	0x3dd27cb8	0.102776945
63	0xbd901e54	-0.07037035
64	0xbcf24330	-0.029573053
65	0x3d58c59b	0.052922826
66	0xbd9229a2	-0.07136847
67	0x3c97d5b2	0.018534515
68	0xbdf58f66	-0.11990242
69	0x3ddd2fcf	0.108001344
70	0xbde1a0bb	-0.11016985
71	0x3ddbd57c	0.10734078
72	0xbdb4c069	-0.08825762
73	0xbda1f2d5	-0.07907645
74	0x3d4f1838	0.050560206
75	0xbdc57cea	-0.09642966
76	0xbc9215f0	-0.017832726
77	0x3d4f61d2	0.050630398
78	0xbdf2edc6	-0.11861758
79	0xbbb168c0	-0.0054140985
80	0xbde45617	-0.11149233
81	0xbdfd9460	-0.12381816
82	0xbdb195a3	-0.08671119
83	0xbdda482c	-0.10658297
84	0x3d43a244	0.04776217
85	0xbd5b2ea1	-0.053511266
86	0xbc8ec7ec	-0.017429315
87	0x3d0d1064	0.03443946
88	0xbca18c80	-0.019720316
89	0xba687900	-0.0008868128
90	0xbe05c07d	-0.1306171
91	0x3dc91ff0	0.09820545
92	0x3bb9b0e0	0.005666837
93	0xbd692ee4	-0.056929484
94	0xbc6b7e30	-0.014373347
95	0xbd973af4	-0.07384291
96	0xbdd70dde	-0.10500692
97	0x3c7f75e0	0.015592068
98	0x3dbd6564	0.09247854
99	0x3d3b9508	0.045796424
100	0xbdb86718	-0.090040386
101	0xbc737da0	-0.014861494
102	0xbde4cf9f	-0.11172413
103	0x3d740a13	0.05957992
104	0xbca4dab0	-0.02012381
105	0x3dd3d9a6	0.103442475
106	0xbdabab14	-0.0838224
107	0xbd635add	-0.055506576
108	0x3d009a5e	0.031397216
109	0x3ce0e305	0.027452001
110	0x3dcc6af2	0.09981336
111	0xbde8c302	-0.1136532
112	0xbd3be297	-0.04587039
113	0xbdaf7f50	-0.08569205
114	0x3d592d32	0.053021617
115	0x3d9bac58	0.07601231
116	0xbd6377ff	-0.05553436
117	0xbc8c5cc8	-0.017134085
118	0xbc34207f	-0.010994076
119	0xbcde3210	-0.027123481
120	0x3d6d0245	0.057863493
121	0xbd9004d8	-0.07032174
122	0x3d99caa8	0.07509357
123	0xbd2da542	-0.04239393
124	0xbc972bc0	-0.018453479
125	0xbc2f9910	-0.010717645
126	0x3d1fa7df	0.038978454
127	0xbdf7aa42	-0.12093021
128	0x3ced49b3	0.028965807
129	0x3df009a5	0.117205895
130	0x3d21569a	0.03938923
131	0xbd2ab041	-0.041671995
132	0x3c64c9d5	0.013964136
133	0x3db657c9	0.089034624
134	0x3c281080	0.01025784
135	0x3db2e5b5	0.087352194
136	0xbcbcdc97	-0.023054404
137	0x3e37a3be	0.17933556
138	0x3e0aa2fe	0.13538739
139	0x3dc30ff3	0.095245264
140	0x3ce8b096	0.028404515
141	0x3ddf03fc	0.10889432
142	0xbd39e8ab	-0.045387905
143	0x3d7a028f	0.061037596
144	0x3db76e57	0.089565925
145	0xbd82c914	-0.06386009
146	0x3e020826	0.12698421
147	0x3dbf3842	0.09336902
148	0xbdb49c1a	-0.088188365
149	0xbbf24048	-0.007392917
150	0x3d939462	0.07206036
151	0x3d64e10d	0.055878688
152	0xbd85d0a4	-0.06533936
153	0x3dd9c64a	0.10633524
154	0x3db3887a	0.08766265
155	0x3d3b25bc	0.045690283
156	0xbcbb9a12	-0.022900615
157	0x3d9f4983	0.07777693
158	0x3c8a7fc6	0.01690663
159	0xb98816fc	-0.00025957066
160	0x3dacfcc1	0.084466465
161	0xbd612840	-0.054970026
162	0xbdbcc4f8	-0.09217256
163	0xbdb99d8c	-0.09063253
164	0xbe0f587c	-0.13998598
165	0x3ce06be7	0.027395202
166	0xbca1ce3c	-0.01975166
167	0xbd4ad457	-0.04951891
168	0xbc6d2320	-0.0144737065
169	0x3d39f1d6	0.04539665
170	0x3d2b8a3f	0.04187989
171	0x3d858728	0.0651992
172	0x3bdb478e	0.0066918796
173	0x3d138b3e	0.036021464
174	0xbd7dd3c4	-0.061969534
175	0xbc720de7	-0.014773822
176	0x3dab4ca8	0.083642304
177	0xbd920959	-0.07130689
178	0xbd0ceff4	-0.034408525
179	0xbdc730df	-0.09726118
180	0x3e0a2ea6	0.13494357
181	0x3ce2d9ea	0.0276918
182	0x3c6ad639	0.014333301
183	0xbd6a99e0	-0.057275653
184	0xbdb7d724	-0.08976582
185	0xbca5a915	-0.020222226
186	0xbd12d72b	-0.03584973
187	0x3aa3d8db	0.0012500541
188	0x3ddb872f	0.107191436
189	0x3d6c8858	0.057747215
190	0xbd43479d	-0.047675718
191	0xbc16d4d4	-0.009206016
192	0xbb8ca05e	-0.004291578
193	0xbd944b93	-0.07240977
194	0x3de8e879	0.11372466
195	0xbd9d9ff4	-0.07696524
196	0x3dc4314a	0.09579714
197	0xbd2d1c26	-0.042263173
198	0xbcfd7e2e	-0.030943956
199	0xbdb6f16e	-0.08932768
200	0x3daa27b2	0.083083525
201	0x3d79361e	0.060842626
202	0x3d2b47fa	0.04181669
203	0x3d94d75a	0.072676376
204	0xbd4906a9	-0.049078617
205	0xbe079dca	-0.13243786
206	0xbe0c6185	-0.13709076
207	0x3c98b56b	0.018641194
208	0xbbc04ef7	-0.0058687883
209	0xbd926c72	-0.071495906
210	0x3ddb436b	0.10706218
211	0xbdf606f5	-0.12013046
212	0x3dc8cbcc	0.09804496
213	0xbdb1f802	-0.08689882
214	0x3cbc3680	0.022975206
215	0xbdf0b1de	-0.117526755
216	0x3d4cbc58	0.049984306
217	0x3dd1d066	0.10244827
218	0x3cda7e68	0.026671603
219	0x3cf91c5f	0.030409036
220	0x3d02ec48	0.031963617
221	0x3dbae55b	0.09125777
222	0x3de1d2d3	0.1102654
223	0x3d2c7a76	0.042108975
224	0xbd76f8a3	-0.060295712
225	0x3dc7d4ca	0.09757383
226	0xbdaa2b1a	-0.08309002
227	0x3ce1a9d8	0.027546808
228	0xbc7928e2	-0.015207501
229	0xbdfdb1a0	-0.12387395
230	0xbd18fbdf	-0.037349578
231	0xbced6851	-0.028980406
232	0x3d4da674	0.05020757
233	0x3d8e339e	0.06943439
234	0x3dcba0e3	0.09942796
235	0xbda18ab3	-0.07887783
236	0xbde25398	-0.110511005
237	0xbde65196	-0.1124603
238	0xbd9482a6	-0.07251482
239	0x3c75c399	0.015000247
240	0xbd11a76d	-0.03556006
241	0x3da1f7c7	0.07908588
242	0xbdbda21d	-0.09259436
243	0xbdecd642	-0.11564304
244	0x3e092c39	0.13395776
245	0xba393425	-0.000706496
246	0xbb03e240	-0.002012387
247	0xbca986c3	-0.020694142
248	0x3d9ae0a0	0.07562375
249	0xbdc17eb0	-0.09447992
250	0x3de44d11	0.11147512
251	0xbe0cc23e	-0.13745973
252	0xbd6ea4c9	-0.05826262
253	0x3d6b9c9c	0.0575224
254	0xbe0639db	-0.13108008
255	0xbd28c220	-0.041200757

8.bias f4 [32]
0	0xbde52b7c	-0.111899346
1	0xbcf6060f	-0.030032186
2	0x3b3d5793	0.002889131
3	0x3de26a2e	0.110554084
4	0x3d92f9c3	0.071765445
5	0x3daf4865	0.0855873
6	0x3e03ad5f	0.12859105
7	0x3cbd2094	0.023086824
8	0x3d7560cb	0.059906762
9	0x3c52a9a3	0.012857827
10	0xbcb523db	-0.022111824
11	0x3dd1c403	0.102424644
12	0xbd95e39b	-0.07318803
13	0x3da15602	0.07877733
14	0x3c8626b1	0.016375871
15	0x3d6e7867	0.058220293
16	0x3cdb47c9	0.026767628
17	0xbd98eba0	-0.07466817
18	0xbcc06bc5	-0.023488889
19	0x3d115bb3	0.03548784
20	0x3e07cc34	0.13261491
21	0x3deeddec	0.11663422
22	0xbd706b58	-0.05869612
23	0xbd4ffbcf	-0.050777253
24	0xbd9b896f	-0.07594573
25	0x3dbc535d	0.09195588
26	0xbae3abbc	-0.0017369906
27	0xbddbec1a	-0.10738392
28	0x3d61a742	0.05509115
29	0x3dd194d6	0.10233466
30	0x3c80e72c	0.015735231
31	0x3a1db466	0.0006015956

10.weight f4 [25, 32]
0	0x3cdb8075	0.026794652
1	0x3b0b27a2	0.002123334
2	0x3af7d0f3	0.0018906876
3	0xbe0e2c66	-0.13884124
4	0x3e262318	0.16224325
5	0xbc83632c	-0.0160385
6	0x3d0ec4f9	0.034855817
7	0xbd0eb675	-0.034841973
8	0x3de32819	0.110916324
9	0xbe09e905	-0.13467796
10	0x3d834399	0.064093776
11	0xbd0234d9	-0.03178868
12	0x3c5590fd	0.013035056
13	0x3dc21a31	0.09477652
14	0x3caac547	0.020846022
15	0xbd8695ff	-0.06571578
16	0x3e16500d	0.14678974
17	0xbd11ab6d	-0.035563875
18	0xbd4ebed0	-0.05047494
19	0xbde0ac8b	-0.1097041
20	0xbe0d5544	-0.13802058
21	0x3e044a37	0.12918936
22	0x3e269716	0.16268572
23	0xbc053f3e	-0.008132754
24	0xbe545727	-0.20736371
25	0xbd46a488	-0.048496753
26	0xbdc73a30	-0.09727895
27	0xbdae8025	-0.085205354
28	0xbd8762ba	-0.066106275
29	0x3e377183	0.17914395
30	0xbe2fcd3f	-0.17168139
31	0xbd7e3083	-0.062057983
32	0x3e482e4e	0.19548914
33	0x3caadc61	0.020857038
34	0x3c99f394	0.018792905
35	0xbcbea15d	-0.023270303
36	0xbd1b6805	-0.037940998
37	0x3cb3a392	0.021928582
38	0x3d99b69a	0.075055316
39	0x3d021446	0.031757616
40	0xbe2da913	-0.16959028
41	0xbe1b491b	-0.15164606
42	0x3d3a7788	0.04552415
43	0xbc337c47	-0.010954923
44	0x3e0e76bf	0.13912486
45	0x3e1b32f5	0.15156157
46	0xbe3ccef6	-0.18438324
47	0x3dd727f7	0.105056696
48	0xbd3fc0ed	-0.046814848
49	0xbc0bd8b5	-0.008535554
50	0xbcf8cdc6	-0.030371558
51	0x3e305fdd	0.17224069
52	0xbcdcacd6	-0.026937883
53	0xbc0f12a9	-0.008732476
54	0x3e22762a	0.15865389
55	0x3d95ad3f	0.07308435
56	0xbe22f39b	-0.1591324
57	0xbe56dba8	-0.2098223
58	0x3d10fd04	0.035397545
59	0xbbb81de6	-0.0056187985
60	0xbd143d4e	-0.036191277
61	0x3e212fa3	0.15740828
62	0xbdfae389	-0.1225043
63	0x3e336488	0.17518818
64	0x3bb511e4	0.0055258144
65	0x3e029b64	0.1275459
66	0x3e256fd6	0.16155943
67	0x3da926ef	0.08259379
68	0x3dcd7c46	0.10033469
69	0xbdabcb55	-0.08388392
70	0x3db14760	0.08656192
71	0xbe3a09df	-0.18167828
72	0x3d6f8e59	0.058485363
73	0x3d25bece	0.04046517
74	0x3d9f703f	0.07785081
75	0x3db2f43f	0.087379925
76	0x3c1901ba	0.009338791
77	0xbce91955	-0.028454462
78	0xbc9f6f24	-0.019462176
79	0xbde9796b	-0.11400112
80	0x3e07650f	0.13222145
81	0xbd0a9d07	-0.03384116
82	0x3d7a5159	0.061112735
83	0xbbd58e60	-0.0065172166
84	0x3e0f7bbd	0.14012046
85	0xbe02052e	-0.12697288
86	0xbe2ff864	-0.17184597
87	0xb9bae128	-0.0003564444
88	0xbdcc1920	-0.0996573
89	0x3e1e165c	0.15438217
90	0x3e3555db	0.17708533
91	0x3dd4eb6b	0.10396465
92	0x3d6d93ae	0.058002166
93	0x3e4a1b7f	0.19737051
94	0x3da52ebb	0.08065554
95	0xbd681571	-0.056661073
96	0x3e30e1eb	0.17273681
97	0x3e12a83d	0.1432199
98	0x3df2b58f	0.11851036
99	0x3dc17725	0.09446553
100	0xbda5246b	-0.08063587
101	0x3e12a098	0.14319074
102	0xbc15c5e6	-0.009141421
103	0xbe1a0b66	-0.1504341
104	0x3dfb5be3	0.122733854
105	0xbe5d38f6	-0.2160376
106	0xbe01fe9c	-0.12694782
107	0x3dc85fed	0.097839214
108	0x3de65b13	0.1124784
109	0xbe210163	-0.15723185
110	0x3dd6ed52	0.10494484
111	0x3de862fb	0.11347004
112	0x3d9157c1	0.07096816
113	0xbad3c350	-0.001615623
114	0x3d9a0ce4	0.0752199
115	0xbcfd96d4	-0.03095571
116	0x3cd5eb47	0.026113166
117	0xbe0bd1c8	-0.13654244
118	0xbe2a7d12	-0.16649273
119	0x3e019db0	0.1265781
120	0x3e218d2c	0.15776509
121	0x3d29d731	0.04146499
122	0xbd87c2bf	-0.06628942
123	0x3ce354c8	0.027750388
124	0xbceb007a	-0.02868675
125	0xbcfb9c38	-0.03071414
126	0xbe05118a	-0.12994972
127	0x3e0a2030	0.13488841
128	0xbc2711c0	-0.010197103
129	0xbdcdf3dd	-0.10056279
130	0x3dd7bd3e	0.10534142
131	0xbd9d10d5	-0.07669226
132	0x3d544bae	0.051829986
133	0xbe794863	-0.2434402
134	0xbe3c042c	-0.18360966
135	0xbe16a88e	-0.14712736
136	0xbdd9c8ab	-0.106339775
137	0xbde4a5e7	-0.11164456
138	0x3d82a532	0.06379165
139	0xbdec053e	-0.11524437
140	0xbcf964ae	-0.030443516
141	0xbcb046bf	-0.02151811
142	0x3ce886e8	0.02838464
143	0xbd475680	-0.048666477
144	0xbd8c474b	-0.068495356
145	0x3db44cab	0.08803686
146	0xbd9f8b32	-0.07790221
147	0xbd43b9d2	-0.047784634
148	0x3e19c331	0.15015866
149	0x3e143397	0.14472805
150	0xbdc600e7	-0.09668141
151	0x3e04472a	0.12917772
152	0xbd89b09f	-0.06723141
153	0x3dc2da28	0.09514266
154	0x3dab9946	0.08378844
155	0x3d637256	0.05552896
156	0x3de10ba7	0.10988551
157	0x3ab91a0d	0.0014122144
158	0xbd85f7d3	-0.06541409
159	0x3e3fb2d8	0.18720567
160	0xbd27ba51	-0.04094917
161	0x3d979394	0.07401195
162	0x3e19f91a	0.15036431
163	0xbe19d443	-0.15022378
164	0xbd9a8985	-0.07545761
165	0xbccb6206	-0.024827015
166	0x3e0dcf9b	0.13848726
167	0x3cca319c	0.024681859
168	0x3e0a6e8b	0.13518731
169	0xbd1638fd	-0.036675442
170	0xbe1b5432	-0.15168837
171	0xbc4e810c	-0.012604009
172	0x3e02fe2c	0.12792271
173	0xbdc8bbb2	-0.09801425
174	0x3e2ce425	0.16883905
175	0xbe159f09	-0.14611448
176	0xbe17cf20	-0.14825106
177	0xbd7b78f8	-0.06139466
178	0x3e053408	0.1300813
179	0x3cea75c9	0.028620617
180	0xbd498aa3	-0.04920448
181	0x3e0cbb8f	0.13743423
182	0xbc0a36db	-0.00843593
183	0xbda4e9f5	-0.08052436
184	0xbe45652d	-0.19276877
185	0xbdae4933	-0.085100554
186	0xbdbd543f	-0.09244584
187	0xbdf3ea7a	-0.11909957
188	0x3e093762	0.13400033
189	0xbd57111d	-0.052506555
190	0x3d8abbda	0.06774111
191	0x3d4b0064	0.04956092
192	0x3d87682b	0.06611665
193	0x3e248e77	0.16069971
194	0x3e147c69	0.14500584
195	0x3e2666f0	0.16250205
196	0xbd738e35	-0.05946179
197	0xbe0c88c9	-0.13724054
198	0x3e009478	0.12556636
199	0xbdbc27cd	-0.09187279
200	0xbd1a2b8f	-0.037639197
201	0x3db02ae7	0.08601933
202	0x3beeba78	0.0072854124
203	0xbdcc6eb6	-0.09982054
204	0xbdb6ae3d	-0.08919952
205	0xbd003a86	-0.031305812
206	0xbb9e6f43	-0.004835041
207	0x3c91a06a	0.017776687
208	0x3e377399	0.17915191
209	0xbdde7775	-0.10862628
210	0xbe2a1386	-0.1660901
211	0xbc90d81e	-0.017681178
212	0x3e54a662	0.20766595
213	0xbd74abdc	-0.05973421
214	0xbb915082	-0.004434646
215	0x3dd116a0	0.102093935
216	0x3d877033	0.06613197
217	0x3da664d6	0.08124702
218	0x3b29a764	0.0025887126
219	0xbcf88c7a	-0.030340422
220	0xbd580b8b	-0.052745383
221	0x3db317ed	0.08744798
222	0x3d4ca1c6	0.049958967
223	0xbc462c79	-0.012095564
224	0x3e2d029a	0.16895524
225	0x3dc8ac63	0.09798505
226	0x3d04bd35	0.032407004
227	0x3dd74020	0.10510278
228	0x3e2e640e	0.17030355
229	0xbe0503dc	-0.12989753
230	0xbcb4e325	-0.022080967
231	0x3d5ccd98	0.053907007
232	0xbdab18de	-0.083543524
233	0xbd344edb	-0.044020515
234	0xbdc58c4e	-0.096459016
235	0x3cb95170	0.02262184
236	0x3d57b176	0.052659474
237	0xbe0fda6c	-0.14048165
238	0x3df2bc2f	0.118522994
239	0xbdebd430	-0.11515081
240	0xbc699944	-0.014257733
241	0xbde86848	-0.11348015
242	0xbe16e9f1	-0.14737679
243	0xbdd69150	-0.10476935
244	0x3ddb74b4	0.10715619
245	0xbdc6d526	-0.097086236
246	0xbd3fbb25	-0.046809334
247	0xbd986328	-0.074407876
248	0x3e148df0	0.1450727
249	0xbe3cba35	-0.18430407
250	0xb998f5f8	-0.0002917496
251	0x3df141fc	0.11780164
252	0x3dc4ecaa	0.096154526
253	0x3e021d3e	0.12706468
254	0xbdc5a3d0	-0.096503854
255	0xbd07f4fa	-0.033192612

10.bias f4 [25]
0	0xbcca681c	-0.024707846
1	0xbe3afa7a	-0.18259612
2	0x3dfebf1e	0.124387965
3	0x3e097e9b	0.13427202
4	0xbd767c4d	-0.060177136
5	0xbde186fb	-0.110120736
6	0x3d66b6f7	0.056326833
7	0xbbbe2d39	-0.005803731
8	0x3dafb33e	0.085791096
9	0x3d8bd30d	0.06827364
10	0xbd73f830	-0.059562862
11	0xbd901b05	-0.070364036
12	0xbdd602cb	-0.104497515
13	0xbe07164b	-0.13192098
14	0xbe2f9709	-0.17147459
15	0x3ddd4424	0.108040124
16	0x3ca9f1d6	0.0207452
17	0x3d213729	0.039359245
18	0x3d87bbeb	0.066276394
19	0xbdaef1d8	-0.08542222
20	0x3e380304	0.179699
21	0xbd85494f	-0.06508123
22	0x3d8c7ff0	0.0686034
23	0xbdbe16a5	-0.09281663
24	0x3cfc0f3a	0.03076898
