models1/checkpoint300.pth.tar (torch_old, 91660 bytes, 12 tensors)

0.weight f4 [32, 26]
000000 3f 99 a1 3d 5b 7c eb bd 34 e7 8b 3e 45 66 f2 bd
       0.078905575 -0.11498328 0.2732483 -0.118359126
000010 e4 a2 c8 bd 50 c2 10 3d 77 46 23 3e 11 33 88 3d
       -0.09796694 0.03534156 0.15944849 0.06650365
000020 e5 0f 8c bd 42 f0 00 3e cf e4 4f 3e 8b 09 53 3e
       -0.06838969 0.12591651 0.20302127 0.20609109
000030 4d 11 30 be 30 bb 8b 3c da 2a b8 3d bf 12 14 3d
       -0.171941 0.017057031 0.08992548 0.03615069
000040 0f 35 83 bd 42 4b 6a 3e eb 39 18 bd 78 07 a7 3d
       -0.064066045 0.22880271 -0.03716461 0.081557214
000050 6b 09 2b 3e 17 91 de bd 19 d7 3d be 95 58 3f be
       0.16702811 -0.108675174 -0.18539084 -0.18686135
000060 b5 9a b9 3d 00 bf 40 bd be 8b 1e 3c de 44 2b be
       0.09062711 -0.04705715 0.009676872 -0.1672549
000070 c6 d4 3a 3e b8 88 dd 3d ae eb 45 3d 4f 4d cc 3d
       0.18245229 0.10817093 0.048320465 0.09975683
000080 9d 8f 2f 3e d5 61 e9 3d c0 8b 93 3d a3 42 13 be
       0.17144628 0.11395613 0.072043896 -0.14380889
000090 e8 c5 05 3e a8 d3 85 bc fb 97 b1 bd 7e 42 5d be
       0.13063776 -0.016336277 -0.08671566 -0.21607396
0000a0 74 3a b6 bd 9d 78 eb bd ce cc ff 3d 69 c5 6c 3c
       -0.08897868 -0.114976145 0.12490235 0.014451363
0000b0 cf 44 c0 bd 9e 40 c0 bc ff 35 f9 3c 42 05 1b be
       -0.09388124 -0.023468312 0.030421255 -0.15138724
0000c0 f9 25 f4 3c d7 54 02 3e 7d 5d fd 3c d5 8d 12 3e
       0.029803263 0.12727676 0.030928368 0.14311917
0000d0 77 9a e1 bc 38 9b 62 bd c3 83 47 3e 31 79 8e 3e
       -0.027539475 -0.05532381 0.19483857 0.27826837
0000e0 63 1e ff 3d 78 25 18 bd 3d 5a f5 bd 77 3b a4 bd
       0.12456968 -0.037145108 -0.11980102 -0.080191545
0000f0 1a 23 16 3e 2e a2 ac 3d 42 c3 db bd 87 17 09 3d
       0.14661828 0.08429371 -0.10730602 0.033469703
000100 50 24 19 be d9 5a 13 3e 5b cc d8 bd 64 34 45 be
       -0.14955258 0.14390124 -0.10585853 -0.19258267
000110 1f c7 57 3e f6 01 60 3e 44 64 09 3e f1 76 48 be
       0.21072052 0.21875748 0.13417155 -0.19576623
000120 e6 41 be 3d 10 88 b3 3c af 01 59 3e b3 9e 19 3e
       0.09289913 0.021915466 0.21192048 0.15001945
000130 e9 ab f8 3d 8e c5 ac bd e7 73 e0 3d 1e 18 de bc
       0.12142164 -0.08436118 0.109596066 -0.02711111
000140 80 6b f1 3c 2c 7f 48 3d 75 2f 28 be 2f 5b 42 3e
       0.029470205 0.048949406 -0.16424353 0.18980096
000150 d2 f5 f3 3d a1 ec e6 3d d0 11 f2 bd b3 a9 2d be
       0.11912121 0.11275602 -0.11819804 -0.16959266
000160 eb 20 5f 3e d0 3e 10 bd 7d 54 2e be 22 59 97 bd
       0.21789901 -0.035216153 -0.17024417 -0.073900476
000170 31 a8 cc 3c 62 db 94 3c d5 5a ae 3d 97 c3 5e bd
       0.024982544 0.018171016 0.085134186 -0.054385748
000180 92 f8 51 3e 01 f1 9a 3d 3b 63 f7 3d 4c e7 2b be
       0.20504978 0.07565499 0.120794736 -0.16787452
000190 ff 46 da 3c 18 5a f6 3d b6 4b 2b 3e 7c 23 79 bd
       0.026645182 0.12028903 0.167281 -0.060824856
0001a0 4f 46 03 3e c9 e7 4b 3e 6b 87 67 3d d4 1c a8 bc
       0.1281979 0.19912638 0.05652563 -0.020521559
0001b0 e8 10 7f 3e 9d 72 78 bb 10 99 2b 3e ba 76 92 bc
       0.24908793 -0.0037910112 0.16757607 -0.017878879
0001c0 da 69 2a 3e 2e 94 02 be 03 71 bf 3d b0 51 00 3e
       0.16641942 -0.12751839 0.09347727 0.12531161
0001d0 60 42 d7 bc 3f ed 2e be e2 65 85 be f3 7e 8d 3e
       -0.026276767 -0.1708269 -0.26054293 0.27635917
0001e0 4c 6e 0a 3d 44 f9 45 3e d8 06 27 bd 60 b0 22 be
       0.033796594 0.19333369 -0.04077801 -0.15887594
0001f0 63 11 fe 3d f3 6f d7 3d d8 06 2a 3e 98 c2 23 be
       0.1240566 0.105193995 0.16604173 -0.159922
000200 68 e3 09 bc 49 1d 8c bc 83 b8 bd 3d 30 6d 0f 3e
       -0.008416034 -0.017103808 0.092637084 0.14006495
000210 b2 12 80 bd 38 bb de 3d db 63 2c be bf 4b 33 3e
       -0.06253566 0.10875553 -0.16834967 0.17509364
000220 b7 c1 ab 3c 7a 30 89 bc c0 bf 3d 3d 93 07 11 bd
       0.020966394 -0.016746748 0.046325445 -0.035407614
000230 15 49 d5 3d ea 05 f8 bd a4 b6 09 3e 45 5b 9e 3e
       0.1041433 -0.12110503 0.13448578 0.30929008
000240 84 cc 90 3d 28 a6 2c be 0a 0b 4c be 06 87 b2 3d
       0.07070258 -0.16860259 -0.19926086 0.0871716
000250 1b 81 c9 3d b4 3d e3 3b ff 17 5c bc 31 3e dc bd
       0.09839078 0.006934846 -0.0134334555 -0.107540496
000260 d6 bc 13 3e c5 5c 2b be ef 0f 2a 3e e9 6e 9d 3c
       0.14427504 -0.16734608 0.1660764 0.019217925
000270 6e db 61 3c 04 20 76 bb 10 2d 34 3e dd 92 0f be
       0.013785226 -0.0037555704 0.17595315 -0.14020868
000280 ad 31 74 3e 2e f2 4e 3e b7 9c 40 be a9 e4 20 3e
       0.23847075 0.20209572 -0.18809782 0.15712227
000290 a8 ef f6 3d fd 7d 67 be 6d 49 55 3e 61 64 92 bd
       0.120574296 -0.22606654 0.20828791 -0.07148052
0002a0 5c a9 25 be 8b 1e 94 bd 7d 21 2b 3e 0c ff 74 3d
       -0.16177887 -0.07232388 0.16711994 0.059813544
0002b0 d0 78 af bd dd 05 cb bc d3 c4 5a 3e 6f c0 b3 bd
       -0.08567965 -0.02478307 0.21364145 -0.08776938
0002c0 0a 58 d3 3d 02 4a e0 3c 23 ea d9 bd 1a 18 86 3d
       0.103195265 0.02737904 -0.10640361 0.06547566
0002d0 dd d4 a7 3d cf f3 aa bd 89 92 14 bd d5 a6 91 3e
       0.08194897 -0.08347284 -0.03627256 0.28447595
0002e0 50 69 7a 3d 33 5e b6 bb 58 b9 ab bc ed 9a 06 be
       0.06113559 -0.0055654286 -0.020962402 -0.13145037
0002f0 e4 69 2c bc f1 4e a7 bd 2c f9 3a 3c cf 3f 67 bc
       -0.010523293 -0.08169354 0.011411946 -0.014114334
000300 c5 b5 cf bd 59 42 00 3e 46 73 5e be 91 d9 8a 3d
       -0.10142092 0.1252531 -0.21723661 0.06779779
000310 9e 85 3a 3e 4f 1b a0 3d 35 7e bf bd 44 b7 97 bd
       0.18215033 0.07817709 -0.09350244 -0.07408002
000320 57 7a 55 be 30 59 0a 3e 87 ea 2c 3e 4a f8 9d 3e
       -0.2084745 0.13510585 0.1688634 0.30853492
000330 8e e3 70 3e 6a a4 01 3e 85 5e 91 3e 88 01 6c bd
       0.23524305 0.12660375 0.28392425 -0.057618648
000340 05 23 eb bb a7 68 56 3e c6 65 7d 3c a6 c2 86 bc
       -0.0071758055 0.20938359 0.015466159 -0.016450237
000350 98 f5 79 bd b4 bf 5b 3e 58 e5 af 3d d0 a5 a3 bd
       -0.061025232 0.21459848 0.08588666 -0.079906106
000360 aa 0e 80 3d 30 65 03 be 77 99 51 be fc 36 a3 3d
       0.06252797 -0.12831569 -0.20468698 0.07969472
000370 ad cb 30 be aa 2d 87 3c 54 76 4f 3e ed a7 6b 3b
       -0.17265196 0.016501267 0.20259982 0.0035958246
000380 ee 30 f7 3d 3f cc bd bd 52 f6 36 3e 38 4d 05 be
       0.120698795 -0.092674725 0.17867401 -0.13017738
000390 9b a1 21 be f6 03 e9 3d 7c 7d 0a be 1a 3c 43 3e
       -0.15784304 0.113777086 -0.13524431 0.19065896
0003a0 28 29 04 bd 8b 48 de bd 1e ae 9d bd 9d 54 06 3e
       -0.032265812 -0.1085368 -0.07699226 0.13118215
0003b0 43 07 06 bd 9f ff 00 3e f4 1a 9a bc 6b f5 d2 3d
       -0.03272177 0.12597512 -0.01881168 0.10300716
0003c0 89 bb ea bd 6b 46 19 be 34 f9 f6 bd 7d 68 ec 3d
       -0.11461551 -0.14968269 -0.120592505 0.11543367
0003d0 77 f8 1b be c5 1b eb bd 3f 47 44 3d db a6 40 be
       -0.152315 -0.11479906 0.047919508 -0.1881365
0003e0 2a 5b 28 3d a5 81 75 3e dd d1 82 3e b0 ee 4f bd
       0.041102566 0.23975237 0.25550738 -0.05076474
0003f0 ed bd cf bd 4f a7 5e be 7a ab b4 3c 62 80 36 bd
       -0.10143647 -0.2174351 0.022054423 -0.04455603

0.bias f4 [32]
000000 e0 5b 0b be ec 27 d5 bd 9d e1 06 3e 49 68 21 be
       -0.13609266 -0.10408005 0.13172002 -0.15762438
000010 86 a0 b0 3d 77 2f 51 3d 81 23 6f bd 90 6b b0 3c
       0.086243674 0.051070657 -0.05838347 0.021535665
000020 7b 7f 2b 3e 0c 9f 75 3d 65 45 8a 3d 4e e6 64 3c
       0.16747849 0.059966132 0.06751517 0.013970925
000030 bc ec 3e bd 41 6a 9c bc 77 05 ba 3e 01 e9 30 3e
       -0.046612486 -0.019093635 0.36332294 0.17276384
000040 d9 b9 3e 3e 87 1c ce 3d 25 0d 19 3d 3b 36 10 3e
       0.18625583 0.10064035 0.03736605 0.14083187
000050 56 7b 8b bd 10 0f c9 3d 3b 2e e5 3b 4a b7 b8 3d
       -0.06810634 0.09817326 0.0069940365 0.090193346
000060 16 d9 27 be 6c 71 01 3e 93 e4 77 bd e8 fa 3d 3d
       -0.16391405 0.12640923 -0.06052072 0.04638186
000070 e6 b6 43 3e 0c ce 37 3e 0c 96 47 be 07 ff 73 bd
       0.19112739 0.17949694 -0.19490832 -0.059569385

2.weight f4 [64, 32]
000000 3a 87 29 be 1c c3 cf bd f4 d8 60 3e 97 31 9f bb
       -0.16555491 -0.10144636 0.21957761 -0.0048582065
000010 be 4b 95 bc a5 8d 7d 3e e0 f3 84 39 40 9a 3d be
       -0.018224593 0.24761064 0.00025358703 -0.18515873
000020 34 2e 22 3e 39 f3 58 3d 30 35 fa 3c e4 3e 1e 3d
       0.15837938 0.05296633 0.03054294 0.038634196
000030 5b 95 96 bc 01 99 0f 3e 7a 93 60 be 0f 1c e1 3d
       -0.018381765 0.1402321 -0.21931258 0.1099168
000040 b1 04 30 3e f9 30 e3 3d c8 e9 20 be 3c 47 35 be
       0.1718929 0.11093325 -0.1571418 -0.17702955
000050 dd f4 ab 3c d8 de e8 bd e1 18 33 be a1 52 2c 3e
       0.020990783 -0.11370629 -0.1748996 0.16828395
000060 f8 75 35 3e 0e 70 cb bd 57 63 46 bd c6 b9 34 be
       0.17720783 -0.09933482 -0.04843458 -0.17648992
000070 e1 5b 03 3e a7 1f 88 3d 0d 25 b1 bd 8f 4c 81 3e
       0.12828018 0.06646662 -0.08649645 0.25253722
000080 af 0c b2 bd 41 b4 f1 3d ce 32 3b be ad 1c 23 bc
       -0.086938255 0.11801959 -0.18281099 -0.009955567
000090 81 b9 4a bd 88 12 38 bc 45 03 63 be 7d 1d ae 3c
       -0.049493317 -0.011234887 -0.22169216 0.021254295
0000a0 4f 8f 08 bd e0 07 dc 3c 7f 99 53 be 31 db 4a 3d
       -0.033339795 0.026859224 -0.20664023 0.049525443
0000b0 c4 06 0c 3e 16 61 1e 3d 44 54 22 be 57 44 53 3e
       0.13674456 0.038666807 -0.15852457 0.20631538
0000c0 ae 3f 34 be db 73 74 bd 1f 9b fe 3d 61 28 cc bc
       -0.17602417 -0.0596808 0.12431931 -0.024921598
0000d0 1b c1 1e 3e cb f5 1e 3e 30 f3 1c 3b 35 b4 4e 3e
       0.15503351 0.1552345 0.0023948662 0.20185931
0000e0 d1 48 13 be f9 35 33 3e 24 d4 88 3c 8e ff 9b be
       -0.14383246 0.17501058 0.016702719 -0.3046841
0000f0 50 a0 15 bc 0d 7a 15 3d 5a d2 3d 3e ba 08 87 3d
       -0.00913246 0.03649335 0.18537274 0.06593461
000100 79 52 2b 3b ed 7d 6b 3c 49 6c 35 3e 8d 73 a1 3a
       0.0026141687 0.014373285 0.17717089 0.0012317762
000110 9e c4 ac 3d 88 4f 32 bc d3 00 2c be 64 20 6c 3e
       0.08435939 -0.01088322 -0.1679719 0.23059231
000120 99 fa 59 3d 0d 34 d6 3d 52 5e d0 3d 1f 56 28 3d
       0.053217504 0.10459147 0.1017424 0.041097756
000130 d4 00 42 bb 38 53 0b 3e 00 7f a0 be c7 6b 89 bd
       -0.0029602544 0.13605964 -0.31346893 -0.0671001
000140 c1 bf 47 bd 9e 9d f2 3d cc f3 3d 3e 83 42 59 bd
       -0.048766855 0.11846469 0.18550032 -0.053041946
000150 68 3d 62 3e b5 88 da bd ef f7 33 be 75 1f 58 bd
       0.22093737 -0.10670606 -0.17575048 -0.052764375
000160 3c 01 e0 bd c4 14 ef 3d e5 6a 14 3e dc d6 46 3e
       -0.109377354 0.116738826 0.14493902 0.194179
000170 c4 c3 c1 3d c0 a2 45 bc 49 9f 79 3d 94 d7 e3 bd
       0.094611675 -0.012062728 0.06094292 -0.11125103
000180 10 c5 0d be 36 a9 f9 bd 3b 49 d1 3a 3f 9e 33 be
       -0.13844705 -0.121904776 0.0015967259 -0.17540835
000190 79 47 b4 3d 3f 99 56 3e 7c 2e 0e 3e da e7 0d 3e
       0.08802695 0.20956896 0.1388492 0.13857976
0001a0 c8 0f bc bc 2b cb 4e 3e 11 e4 c0 bd f9 6c 9d bd
       -0.022956744 0.2019469 -0.094185 -0.076868005
0001b0 bf 48 9b bd 3b d0 15 3c 54 11 6e 3e fa c1 b0 3d
       -0.075822346 0.009143884 0.23248798 0.08630748
0001c0 b8 19 87 3e 9e 2f d1 3d 4e b1 16 3e e9 13 27 3e
       0.2638681 0.102141604 0.14716074 0.16316189
0001d0 92 9f bd bd b3 df b7 3d ca 4a 4f 3e 61 db b3 bd
       -0.09258951 0.08978214 0.20243374 -0.087820776
0001e0 f1 3a db bd bf db 38 3e fb 79 2e be d6 be 2f 3e
       -0.107046016 0.18052576 -0.1703872 0.17162642
0001f0 28 a5 eb 3d ba 73 fa bc be de 2f bd fe 15 59 3e
       0.115061104 -0.03057276 -0.042937033 0.21199796
000200 1d 2c 7b be 03 10 49 3c 06 ae 80 3c c6 d1 d4 3d
       -0.24528547 0.012271884 0.01570798 0.103915736
000210 dc c1 80 3c cd 42 53 3d cc ec 24 bd 5d b9 82 3e
       0.01571744 0.051577378 -0.04026489 0.25532046
000220 34 90 cc bd cf 37 f7 3d ad c4 67 bd 36 6e 06 3e
       -0.09988442 0.120711915 -0.05658405 0.1312798
000230 a3 1f 0e 3e c9 26 d1 3d ac 45 8e be 8f 1a 91 bc
       0.13879256 0.10212476 -0.2778753 -0.01771286
000240 04 9b 0e be 55 53 e4 bd 33 e2 3a 3e 1f 82 f3 3c
       -0.13926321 -0.11148707 0.1825035 0.029725133
000250 03 ef d2 3c f8 c5 4e 3e 38 e8 51 be ab ae 19 be
       0.025748735 0.20192707 -0.2049874 -0.15008037
000260 31 96 78 3d 30 8f 31 3e 63 7e 01 3e 63 e0 86 3d
       0.06069011 0.17339778 0.12645869 0.06585767
000270 c6 e7 26 ba f0 3d be 3d 2e 70 5e be 5f b4 45 be
       -0.00063669344 0.092891574 -0.2172248 -0.19307087
000280 dc 3d 37 3e 68 10 8a be f4 ec e7 bd 1b 06 43 bd
       0.17894691 -0.26965642 -0.11324492 -0.047613245
000290 4b ab d2 ba f8 80 04 3e 4c 94 88 3c af 12 66 3e
       -0.0016072778 0.12939823 0.016672276 0.22468065
0002a0 6a cb 12 3c 06 62 8a be 32 a7 8f 3d 3a 7f f3 bd
       0.0089596305 -0.2702791 0.07014312 -0.11889501
0002b0 2c d3 9f 3d 5d e2 65 3e 51 1e 3a be 69 46 36 bd
       0.0780395 0.22449632 -0.18175627 -0.044500742
0002c0 0e 00 19 3e a6 fc 36 3e 6e 50 ca bd c8 be 1f 3e
       0.14941427 0.17869815 -0.09878622 0.15600121
0002d0 52 7d 60 3d 73 ea 43 3c ad bd 2f 3c b4 66 12 3e
       0.054807015 0.0119577525 0.010726375 0.1429699
0002e0 94 d7 bc 3c 04 31 98 bb e9 83 51 3e 32 6e 3c be
       0.023052014 -0.004644515 0.20460476 -0.18401411
0002f0 8a ac 3d 3e 80 b8 4f be 34 ff 82 3e aa a1 be bc
       0.1852285 -0.20285225 0.2558533 -0.023270447
000300 96 49 ee bd 6d a8 e7 bd 88 3f 8f bb 36 de 16 be
       -0.11635129 -0.113114215 -0.004371587 -0.14733204
000310 34 97 0e 3e eb f0 90 bd 28 61 d8 bd db dc 0a 3e
       0.13924867 -0.070772015 -0.10565406 0.13560812
000320 2f 28 d4 bd ee fe 06 be 13 7c e6 bd c0 d9 30 be
       -0.10359227 -0.13183185 -0.11254134 -0.17270565
000330 4f 1c ec bd 97 ed 9b 3b 36 c6 7a be c0 63 db bc
       -0.11528837 0.0047585475 -0.24489674 -0.026780963
000340 19 59 b0 bd 6e ca 1f 3e b7 6e 07 3e 9c 6f 18 3e
       -0.08610744 0.15604565 0.13225828 0.14886326
000350 1b 8d 09 3e 1c a3 26 3e bf ae 3b 3e df 46 dc 3c
       0.13432734 0.16273159 0.18328379 0.026889263
000360 fc e8 bd 3a f7 20 15 3e b2 14 ce bd d2 06 c1 3d
       0.001448899 0.14563356 -0.10062541 0.09425129
000370 63 49 3a be 56 78 5a 3d 3a 2f 30 3e 9a e6 15 be
       -0.18192057 0.053337418 0.17205516 -0.14638749
000380 72 65 bf bd 2f a8 93 bd 17 2f 60 3e 6b 5c dd bd
       -0.09345521 -0.07209813 0.21892963 -0.10808643
000390 38 a2 f6 bc e9 be 0a be 58 b5 de bd d6 0b 07 3e
       -0.030106649 -0.13549389 -0.10874432 0.13188109
0003a0 93 b4 68 3c 54 a9 1e 3c af 50 70 3e 0a d5 83 3d
       0.0142032085 0.009683926 0.23468278 0.06437118
0003b0 5f f3 83 3d 9c 56 5e 3d da ed 93 bd 4e c8 61 3d
       0.06442904 0.054281816 -0.07223101 0.055122666
0003c0 a2 ee 23 be 73 ff 03 be 58 43 94 bd 23 57 51 3d
       -0.16009 -0.12890415 -0.07239407 0.05110849
0003d0 b4 79 72 bd 87 64 aa 3d 97 07 65 be 85 e6 7b 3c
       -0.059198096 0.08319955 -0.22366177 0.015374784
0003e0 87 94 c5 3d 66 11 e1 bd ba ff ea bd 21 b2 d4 3d
       0.0964747 -0.109896466 -0.11474557 0.10385538
0003f0 68 7e bd bc a7 26 ff 3c d1 7b 17 bd bf 9c 3c 3e
       -0.023131564 0.03114636 -0.036983315 0.18419169

2.bias f4 [64]
000000 5a e6 1d 3e 23 91 09 3e e8 d6 28 be 2f 10 28 bc
       0.15419903 0.13434272 -0.1648823 -0.010257765
000010 b0 cc eb 3d 0d a3 2b be ff 25 33 be cb fd 6d 3d
       0.115136504 -0.16761418 -0.17494963 0.058103364
000020 7b 11 ee 3c 87 8b 7e 3e e5 35 ab 3d c2 ed d8 bd
       0.02906107 0.24857913 0.08359889 -0.10592224
000030 96 99 9e 3d 3a fc 19 be 63 c2 06 be e4 44 19 3d
       0.07744138 -0.15037623 -0.1316009 0.037419215
000040 ab 72 a7 bc 57 4b ab 3e a7 96 0e 3e b0 3b 55 be
       -0.02044042 0.33455917 0.13924657 -0.2082355
000050 e4 b6 54 bc c0 32 0d be a8 a3 7f 3e 28 e6 6e 3d
       -0.012983058 -0.13788891 0.24964774 0.058324963
000060 8a cf 51 3d ce a7 f5 3d 36 46 0e be 00 f0 43 be
       0.051223315 0.11994897 -0.13893971 -0.19134521
000070 20 9a fd 3d 9f 92 7e bc 63 7f e3 3d 54 19 5d 3d
       0.12382913 -0.015537887 0.111082815 0.053979233
000080 45 67 1e bd 47 aa ce 3d 00 4a 2b 3e c3 bc ac bd
       -0.038672704 0.100910716 0.16727448 -0.08434441
000090 8d c0 bb 3d 33 eb 11 be 79 0c 8a 3d af 6a ba 3c
       0.091675855 -0.14249878 0.0674066 0.022755949
0000a0 e5 8b b2 3c 26 ed 1e be 15 b6 23 3e e3 91 f7 bc
       0.021795223 -0.15520152 0.15987428 -0.030220931
0000b0 10 ae 86 3c 6c de 3e 3d 41 3c 8e 3d e0 50 34 bc
       0.016440421 0.046598837 0.06945086 -0.01100561
0000c0 32 93 d0 3d d4 4f ae bd 75 76 f9 3b 77 18 17 3e
       0.10184325 -0.0851132 0.007612998 0.14755426
0000d0 41 97 4c bd 19 01 20 3b fa 8a 21 be 1b 59 9b 3d
       -0.049948934 0.0024414717 -0.15775672 0.07585355
0000e0 1c 74 42 bb 96 0b e5 3b c8 8a 44 bc 50 1f c9 bd
       -0.0029671257 0.0069899065 -0.011995979 -0.098204255
0000f0 3c 9a 7c bd 30 8f 32 3d 66 0f ac 3d 64 10 2a 3e
       -0.061670527 0.043593585 0.084013745 0.16607815

4.weight f4 [128, 64]
000000 bc f2 c1 3c f5 fb 63 3c 06 6e 0f 3e 90 a9 9e bd
       0.023675315 0.013915052 0.14006814 -0.07747185
000010 02 f0 22 3d a4 83 76 bd 0e fd 70 3d bc 3e d1 3a
       0.03977967 -0.060184136 0.05883508 0.0015964131
000020 99 af 0e 3e c3 a8 de bc fb 99 14 3e 20 8a 41 bd
       0.13934173 -0.027180081 0.14511864 -0.047250867
000030 2e a8 f1 bd ab 88 f8 bc e4 96 93 bd ed 54 09 be
       -0.11799656 -0.030338606 -0.072065145 -0.13411303
000040 b2 cb 35 3c c3 f5 87 bc 60 c3 d0 bd d5 41 dd bc
       0.011095928 -0.01659668 -0.10193515 -0.02700893
000050 2f 1a 64 bd cf 16 8b bd ac 86 9e bd 96 a1 27 3d
       -0.055689033 -0.0679146 -0.0774053 0.040925585
000060 e1 7b f4 bd fb ba 8f bd f0 56 64 bc 4e ae 04 be
       -0.119376905 -0.070180856 -0.013936743 -0.12957117
000070 ed da 8c 3d 0f 96 db bd e3 8d e9 bc 69 df 0b 3e
       0.06877694 -0.10721981 -0.02851004 0.13659443
000080 23 a6 aa bb d3 02 08 bd 02 72 0a 3e 84 f5 bc bd
       -0.0052077933 -0.03320582 0.13520053 -0.09226516
000090 1b 41 24 3e a4 2b cc 3b 8f 35 69 3c 39 39 3d 3e
       0.16040461 0.0062307883 0.014233961 0.1847886
0000a0 3f 3e 53 3d a6 a9 f8 bb 19 9e 31 bd 5f a7 fd 3b
       0.051573034 -0.007588583 -0.043363664 0.0077408995
0000b0 ed 67 db 3d fc 1b 5d 3d df 4f ad bc fb 3c 04 3e
       0.10713182 0.053981766 -0.02115625 0.12913887
0000c0 62 3d 97 3c 76 cd cb bd e3 1e d4 3c 36 ac 74 b9
       0.018461887 -0.09951298 0.025893634 -0.00023333807
0000d0 6a bb 18 3e 04 e6 a9 3a 58 54 ac bd f8 d1 f4 3d
       0.14915243 0.0012962227 -0.08414525 0.11954111
0000e0 12 e9 20 3d 4b 3d 5c bb 51 a1 b5 3d 8a e4 14 bd
       0.039284773 -0.003360587 0.08868659 -0.036350764
0000f0 46 fa 98 3d 0a e1 06 3e 85 09 77 bc b9 b5 1b 3e
       0.07469611 0.13171783 -0.015077953 0.1520604
000100 e7 07 61 bb 2b e4 20 3c e8 b8 9b bd 9b 8e 84 bd
       -0.0034336986 0.0098200245 -0.076036274 -0.06472512
000110 8e ce 34 3d c1 43 06 3e 67 b4 d9 3d 36 a2 04 bd
       0.0441423 0.13111784 0.10630112 -0.03238126
000120 fc 70 6f 3c 62 42 31 be b0 70 ea 3d 2c af 2b 3d
       0.01461434 -0.1731048 0.11447275 0.041915104
000130 99 1f 93 3d 2d 59 95 bd 11 af 96 bd 9a 8f c7 3d
       0.07183761 -0.072923996 -0.0735761 0.09744187
000140 1d 0a a6 3d 60 56 38 3a db d3 aa 3d 61 fb c3 bd
       0.08107398 0.0007031914 0.083411895 -0.09569431
000150 71 73 b6 bd 1d 0e 8e bc c6 d5 29 be 96 06 c1 bd
       -0.089087375 -0.017340714 -0.16585454 -0.09425084
000160 38 ab 36 bd fd a6 de 3d 1f 1e 2d 3e 37 df b0 bd
       -0.04459688 0.10871694 0.16906022 -0.08636325
000170 92 53 1d 3e 4b 8c f9 bc 10 93 85 bd 4d ad b5 bd
       0.15363911 -0.030462405 -0.065221906 -0.08870945
000180 86 bc 07 3e 3e 67 9f bc dc 91 d3 bd a7 e2 f6 3d
       0.1325551 -0.01945841 -0.10330555 0.12054949
000190 81 1b 84 bd 37 f0 ce 3d 8b be eb 39 0d b5 f2 3d
       -0.064505585 0.10104411 0.00044964658 0.11850939
0001a0 07 76 a1 bd e5 61 ae 3d 47 5d 21 be c8 16 37 bd
       -0.0788384 0.08514766 -0.15758239 -0.04469946
0001b0 45 35 22 3e b3 ed 02 be 4b a0 a2 3c c0 25 08 3d
       0.15840633 -0.12785988 0.019851824 0.033239126
0001c0 80 93 d2 3c 35 a2 cd bc 2e 31 1e 3d 74 30 70 ba
       0.0257051 -0.02510176 0.03862112 -0.00091624935
0001d0 93 08 a2 bd 7a 15 3b bd 8f 12 c2 3d 8f 3f b0 bd
       -0.07911792 -0.04567478 0.09476196 -0.08605873
0001e0 e1 8f 99 3c 8f 04 87 bd a1 6d 94 bc 71 22 a5 3d
       0.018745365 -0.06592666 -0.018118681 0.0806321
0001f0 c2 d3 b8 3d 01 e7 f1 bd f1 2a 2c be f7 f6 48 bc
       0.090247646 -0.118116386 -0.16813256 -0.012265912
000200 b2 be ac bd 78 c5 ad bb 2b 04 a8 bd fc 13 98 bc
       -0.0843481 -0.005303081 -0.0820392 -0.018564217
000210 4d d9 51 bd e8 7d ab 3d 1a e3 91 3c dd 15 4d 3d
       -0.051232625 0.08373624 0.017808486 0.05006968
000220 60 32 18 3e ec d4 25 3c ee 18 f3 3d 00 82 79 3b
       0.14862967 0.010121565 0.11869989 0.003807187
000230 b6 b9 95 3d 71 1a bd 3d 09 f2 4d 3d 39 d0 ca 3c
       0.07310812 0.09233559 0.05027965 0.024757491
000240 56 48 fa bc b2 a6 15 3d 50 f5 30 3e 1f 5d c5 bc
       -0.03055207 0.036535926 0.1728108 -0.024092255
000250 de 83 59 bc e6 ec 74 3c de 31 55 3c 99 10 bd 3d
       -0.0132760685 0.014949059 0.013012378 0.092316814
000260 da ca 87 3d 5b ec c2 bb 65 35 19 3e 74 c3 c1 3d
       0.06630488 -0.005948586 0.14961775 0.09461108
000270 b2 95 cd bc 76 c7 ca 3d 0f 0e 78 bd 6f f7 df bd
       -0.025095794 0.099013254 -0.060560282 -0.10935866
000280 1d 0f f4 bd b6 2b 67 3d 5d ef 7c 3d a6 c1 38 3e
       -0.11916945 0.05643817 0.061751712 0.18042621
000290 d2 dd 29 be da 4e 87 3d 4a 7c 0b bd 98 fa e5 bc
       -0.16588524 0.066068366 -0.03405408 -0.028073594
0002a0 3b 93 b9 3c 49 ff e0 bd ad 25 73 bd 79 52 70 3d
       0.022653213 -0.10986192 -0.059362102 0.058672402
0002b0 a0 35 84 bd dc 4d 72 3d af 29 07 3d 5d 16 5f 3e
       -0.06455541 0.059156284 0.032998737 0.21785875
0002c0 46 c0 60 bd 11 ec 35 3d 40 3b 5c 3d 9e ae 54 bd
       -0.054870866 0.044414584 0.053767443 -0.05192434
0002d0 93 54 0e 3e 11 70 1c 3d 8e f4 f9 3c a6 62 11 be
       0.1389945 0.038192812 0.03051212 -0.14197788
0002e0 1b 1c 2e bd c7 fb 01 3e a4 55 d1 bd 2d e7 2c 3e
       -0.042507272 0.12693702 -0.10221413 0.16885062
0002f0 f7 75 be bd c9 ed 57 3d 87 0d 12 3e 23 36 7e 3d
       -0.09299844 0.052717004 0.14262973 0.062063348
000300 fd 87 87 bd 43 1a 02 3e 34 09 b3 3d d9 06 89 bd
       -0.066177346 0.1270533 0.0874199 -0.06690759
000310 5c f5 7e 3d 21 1e 39 bd 35 a2 a8 bd e5 2c f3 3d
       0.06224571 -0.04519475 -0.082340635 0.11873797
000320 3c ed 23 be 2d 96 09 be 50 f3 c4 bd b8 90 93 bc
       -0.16008466 -0.13436194 -0.09616721 -0.018013343
000330 d6 39 3c 3e 35 54 9e bc a4 61 17 bd fc 96 53 3e
       0.18381438 -0.019327262 -0.03695835 0.20663065
000340 6b d8 2d bd a5 f4 22 be ad 7d fc bc 4f 12 1b bd
       -0.04244272 -0.15913637 -0.030821646 -0.037859257
000350 bf 78 9b 3d 7d bb 7f 3d da 01 42 be 23 45 de 3d
       0.0759139 0.062434662 -0.18946019 0.108530305
000360 1b d8 86 bd f9 11 ab 3d a8 12 df 3d ac 7a a0 bc
       -0.065841876 0.083530374 0.1089223 -0.019589745
000370 ab 9b 13 3d 08 c6 a2 3c 0c 09 97 bc 8a d9 93 3d
       0.03603713 0.01986982 -0.018436931 0.07219227
000380 ab 50 95 bd 82 f3 e8 bd a8 77 a3 bd 7d 3d 7f bd
       -0.07290777 -0.113745704 -0.07981807 -0.0623145
000390 9c 6b 12 3c 22 4a 07 3e d5 8d 33 3b e2 85 36 bd
       0.008936789 0.13211873 0.002739777 -0.044561274
0003a0 88 3a 84 3c 96 6e a8 bd 64 76 ef 3d 2a 07 de 3c
       0.016141191 -0.082242176 0.11692503 0.027103025
0003b0 4e 19 22 3e e6 90 4c 3d 5a 03 26 3e ca e8 3f 3e
       0.15829965 0.049942873 0.16212216 0.18741146
0003c0 7d a1 09 bd 16 4f dd 3d a2 f4 26 be d1 91 ed 3d
       -0.033601273 0.108061 -0.16304258 0.11600078
0003d0 4e c1 0f be 55 cb 0f be 1e 21 0c 3e c1 39 90 bd
       -0.14038584 -0.14042409 0.13684508 -0.07042266
0003e0 f3 8e 02 3e 52 ce 3a bd 81 f5 54 bb 55 43 0e 3d
       0.12749843 -0.04560692 -0.0032494965 0.03473218
0003f0 58 04 01 be 19 d4 00 3e 8b d8 0f 3c 31 cf e3 3d
       -0.12599313 0.12580909 0.008779655 0.11123503

4.bias f4 [128]
000000 76 75 3d 3d 4d 37 1d be 10 fa 89 bd 52 14 c3 bd
       0.046254598 -0.15353127 -0.06737149 -0.0952536
000010 e5 5c da 3d cb 51 f4 3d 54 3d a6 bb 98 fc 14 3e
       0.106622495 0.11929663 -0.005073229 0.14549482
000020 e3 39 05 3e 54 21 7c 3d e1 be 9e bd 36 59 2d bd
       0.13010363 0.06155522 -0.07751251 -0.042321406
000030 90 a9 f5 3d ab 13 ef bd 3c b5 46 3d f0 d3 0a 3d
       0.11995232 -0.11673673 0.048512682 0.033893526
000040 ac e4 5b 3d 0d 99 81 bd 0f 9a 83 3c 94 4e e9 bc
       0.053684875 -0.0632802 0.016064672 -0.028479852
000050 80 0a d0 3b d0 1c 50 bd 1f 7a 8c 3d 8c c7 02 3e
       0.006348908 -0.050808728 0.0685923 0.12771434
000060 30 1e 74 bd 4a 80 ae 3c 11 63 b3 3d ff ca 6b 3d
       -0.0595991 0.021301407 0.0875913 0.05756664
000070 05 54 8b 3d ee fd 03 be de 82 21 3d c2 fd 00 3d
       0.06803135 -0.12889835 0.039431445 0.031492002
000080 ae 5b 2f 3d 35 03 99 3d b9 80 9c bd 0a 8c a0 bd
       0.042812042 0.07471315 -0.076417394 -0.0783921
000090 4b 31 c6 3d 0a b7 8c 3d ce e0 cc bd b1 d6 92 bc
       0.09677371 0.068708494 -0.100038156 -0.017924638
0000a0 de cc 57 bc 5f 42 08 be 02 ef a4 bd 28 e8 2a 3e
       -0.013171403 -0.13306569 -0.080533996 0.16690123
0000b0 eb cb 00 be 56 c0 0c 3e 5f cd 64 3d c2 8c 3a bd
       -0.12577789 0.13745245 0.05585992 -0.045544393
0000c0 47 90 14 be e7 bd 1b 3d 22 a9 ba 3d d8 69 ca bd
       -0.14508162 0.038022902 0.09114291 -0.09883469
0000d0 9f 52 e1 bb 5e d1 7a 3d d1 2a dd bd 93 26 00 be
       -0.0068763043 0.061234824 -0.10799182 -0.12514715
0000e0 f1 6a d1 3b 98 05 00 bd 1c 01 51 bd d9 0e dc bd
       0.0063909222 -0.031255335 -0.05102645 -0.107450195
0000f0 8d 00 b1 3c c8 5e cc bd f6 36 0c be 50 a8 b7 3d
       0.021606708 -0.099790156 -0.13692841 0.0896765
000100 c6 c8 e2 bd 86 a9 b5 3d 10 53 f2 bd bd 38 c9 3d
       -0.11073451 0.08870225 -0.11832249 0.09825275
000110 c7 dc da 3d a1 cf 1d be dc aa 85 3d 7e b4 19 bd
       0.10686641 -0.15411235 0.065267295 -0.037525646
000120 d7 15 62 3d 1d db e9 3d 6f 2b ed 3d a6 51 cc bd
       0.05519661 0.11418746 0.1158055 -0.09976511
000130 b6 d3 39 3d 0c 09 aa bd 11 5f 31 3d d5 9a 02 be
       0.04536792 -0.08302507 0.043303553 -0.12754376
000140 6c 7d 4e 3d 7c b8 9a 3d 87 f6 a7 3d 6a 4c 8e 3d
       0.05041258 0.07554719 0.08201318 0.069481686
000150 63 f3 8f bd 9f 5f fb 3c c6 1e a3 3d 10 c1 fe bd
       -0.07028844 0.030685244 0.07964854 -0.124391675
000160 51 c0 fc bd 8d f1 56 bd 49 95 e9 bc 01 e6 1f be
       -0.12341369 -0.052476455 -0.028513568 -0.15615083
000170 a9 71 ea bd b9 2c b8 bc 6a 55 11 bd fc d4 03 be
       -0.1144746 -0.022482263 -0.035481848 -0.12874216
000180 63 7c 1c be 6c 33 d0 ba 20 0b d6 b9 2f 22 ed bd
       -0.15281825 -0.0015884466 -0.0004082555 -0.11578786
000190 7e 97 0a 3d 91 60 cd bd ff d0 db bd ae fb 84 3d
       0.03383588 -0.10028184 -0.10733222 0.064933166
0001a0 cf 64 d6 3d bb fc 85 bd 1f ce 30 bc b7 ad e3 3d
       0.104684465 -0.06542345 -0.010791331 0.11117118
0001b0 00 c0 81 bd 01 f6 bb bd c5 a0 e7 3d 58 bb 12 3e
       -0.06335449 -0.09177781 0.11309961 0.14329278
0001c0 87 ca ad bc 3b eb b9 bd b5 6b 73 bd f0 de a9 3d
       -0.021214737 -0.0907807 -0.05942889 0.08294475
0001d0 ad df 14 be d3 bc e6 3d e4 a0 e4 ba 67 cd 92 bd
       -0.1453845 0.11266484 -0.0017442969 -0.07168084
0001e0 78 84 90 bd 90 b0 f4 bd 38 fb b3 3d 12 f9 b9 3d
       -0.070565164 -0.11947739 0.087881505 0.090807095
0001f0 71 fa 08 3e c2 d3 9d 3d 1f cb be bd 2d a6 c2 bd
       0.13376786 0.07706405 -0.09316086 -0.09504352

6.weight f4 [64, 128]
000000 9b c7 09 3d 2d 8a 4f bd 5b bb 28 bd a4 61 db 3c
       0.033637624 -0.050668884 -0.0411943 0.026779957
000010 dc 78 f9 3d 75 7c 91 bb be ef 68 bd 0d 21 8f bc
       0.12181255 -0.0044398853 -0.05686926 -0.017471815
000020 12 19 63 3d cc bf e2 3d 9b da 5a bd fd 81 ea 3d
       0.05544383 0.110717386 -0.053431135 0.114505745
000030 21 ba ee bd a1 04 37 bc c8 8f c3 3d f9 4b 07 bd
       -0.11656595 -0.011170537 0.095489085 -0.033031438
000040 fe dd 8a 3c fb b8 4a 3d 27 d0 2f 3d 24 d4 bf 3c
       0.016951557 0.049492817 0.04292312 0.023416586
000050 e9 1c e9 3d 69 8c 83 3d ca 7f 87 3d 3a d4 69 bc
       0.11382467 0.064232655 0.06616171 -0.01427179
000060 16 1c b8 bc 59 39 b8 bd 43 81 6a 3d 75 75 ff bd
       -0.02247433 -0.08995313 0.05725218 -0.12473575
000070 34 ba 8a 3d 2f 6f b5 bc 73 c1 2a bc 8f 87 74 3d
       0.06773797 -0.022147743 -0.010422098 0.05969959
000080 09 03 a2 3d 5d 79 90 bc 48 99 38 3c 24 ca 86 bd
       0.07910735 -0.017635996 0.011267014 -0.06581524
000090 02 ee 02 be 2b 45 51 bd 7b 80 53 bd 72 e4 83 3d
       -0.12786105 -0.051091354 -0.0516362 0.06440057
0000a0 26 3a 76 3d e5 b4 c3 3d 87 32 07 3c 92 6c 8c 3d
       0.06011405 0.09555987 0.008251793 0.06856646
0000b0 f5 2d 92 bd 53 49 fa bd c4 31 d9 bd 36 8c 21 3d
       -0.07137672 -0.12221017 -0.10605195 0.039440356
0000c0 85 84 ef 3d 75 9c 0f 3d 96 44 d8 3d 9a 54 47 bd
       0.11695198 0.03506132 0.10559957 -0.048664667
0000d0 b9 2c 22 3e ae 04 12 3e 94 aa 32 3d f6 fc ec 3d
       0.15837373 0.14259598 0.043619707 0.11571686
0000e0 5a 11 fe bd 54 04 0a ba 27 e6 90 3d 31 72 96 3d
       -0.12405653 -0.0005264927 0.07075148 0.07345999
0000f0 f4 2b 5e 3d 29 6f d2 3d 8a 9c d0 3d b2 63 da 3c
       0.054241136 0.10275108 0.101861075 0.026658867
000100 c9 3f ba bc 4b 58 06 3d ba 5f 9e 3d 13 b6 3a bc
       -0.022735493 0.032799046 0.07733102 -0.011395949
000110 eb 0c b4 3d ce 98 9e bd e4 2b d9 bc dc 23 ac 3c
       0.087915264 -0.07743989 -0.026510186 0.021013193
000120 f5 c5 14 3e e1 1e f8 3c a2 c5 57 bd 2e 0e 98 3d
       0.1452864 0.030288162 -0.05267871 0.074245796
000130 1a 93 2a bd 07 47 8f 3c 69 f0 0b bd 67 fb a7 3d
       -0.041644193 0.017489923 -0.03416482 0.08202248
000140 60 26 24 bd 22 4a da 3d bd fa 10 bd 6b f4 8b bd
       -0.04007566 0.10658671 -0.035395373 -0.068337284
000150 ae d2 20 3e c3 43 17 bd 3c 17 9a 3c 10 d8 2b 3d
       0.15705368 -0.036929857 0.018809907 0.0419541
000160 6f 60 bc bd 43 4a 70 bd f7 a9 a6 bd 72 f3 ab bd
       -0.09198081 -0.05866457 -0.08137887 -0.08396043
000170 8f b1 a1 3d b8 9f 0b 3d 5c 3c fd 3d a3 13 6b 3d
       0.07895195 0.034087867 0.12365028 0.057391774
000180 05 22 0d 3e e8 d3 fe bc 12 5a 56 3d 49 b5 02 bd
       0.13782509 -0.031106904 0.05233199 -0.03191117
000190 13 a5 dc 3d a6 b9 d6 3c 22 29 92 bd 2e d7 91 bd
       0.10773673 0.026211571 -0.07136752 -0.071211204
0001a0 06 b0 95 bc 71 e8 17 3d 89 b8 8c 3b 6e f9 f3 bd
       -0.018272411 0.037086908 0.0042944592 -0.11912809
0001b0 c5 8b b4 3d 8e 47 96 3d fa 82 d2 3d bf 91 78 3d
       0.088157214 0.07337867 0.10278888 0.06068587
0001c0 7f f1 68 bd fb 9a a5 bd 7b 81 8f 3c 82 76 9d 3d
       -0.056870934 -0.08086201 0.017517796 0.07688619
0001d0 43 06 9a 3d e5 d1 88 3d fc 56 5d bd fc c2 11 3e
       0.075207256 0.06680659 -0.054038033 0.14234537
0001e0 54 e9 04 bc 32 74 67 3c 3b 05 33 be bf 60 3f 3d
       -0.00811227 0.014126824 -0.17482464 0.046723124
0001f0 66 43 8f bd de 51 d7 bd f3 50 96 bd c9 13 af bd
       -0.06995277 -0.10513662 -0.073396586 -0.085486956
000200 79 69 1d be f0 87 c3 3c bb 75 68 3d f8 c2 0f bd
       -0.15372266 0.023868531 0.0567529 -0.035098046
000210 96 c9 94 bd 24 ad f3 3d 15 46 1a 3e 33 cd 62 bd
       -0.07265012 0.11898258 0.15065797 -0.055371474
000220 3f 30 08 3c fa 75 0b 3d 17 bd 80 bc 4a 15 0e bd
       0.008312284 0.034048058 -0.015715165 -0.03468827
000230 3c de 7b 3d cb d2 82 bd 98 6d 1e bd 25 ca fa bb
       0.061491236 -0.06387862 -0.038678735 -0.007653492
000240 6f 0e e9 bd d4 b4 a0 3d 08 64 ae 3c 3c c6 be 3d
       -0.11379706 0.0784699 0.021287933 0.09315154
000250 14 c3 ba 3c b9 ef 5f bb d5 54 24 3e 4c fd e0 bd
       0.022798099 -0.0034169985 0.16047986 -0.109858125
000260 59 55 e5 bc d8 7f b5 3c d0 0c ce 3d f8 66 47 3d
       -0.027994798 0.022155687 0.100610375 0.048682183
000270 88 22 50 bd 13 57 cc 3c 5c 27 5a 3d e8 f7 33 bd
       -0.05081418 0.024943864 0.053260192 -0.043937594
000280 a5 36 0f bd 5a df 69 bc 28 48 e1 bd 8b cb 0e bd
       -0.034964222 -0.014274443 -0.11000091 -0.034862082
000290 48 75 55 bd b1 db 96 bd ea fd ce 3d 91 9e 0c 3e
       -0.0521138 -0.073661216 0.10107024 0.13732363
0002a0 5d 26 c3 3d ce 8d d6 3d ed 49 e8 3d b7 06 21 be
       0.095288016 0.10476266 0.11342225 -0.15725218
0002b0 a1 24 95 bd 36 ca b8 bc bc 64 4f 3d cd 14 22 bc
       -0.07282377 -0.02255736 0.050633177 -0.009892655
0002c0 48 c2 03 3e d8 73 d4 3b 54 c9 c2 bc 46 c2 86 bd
       0.12867081 0.006483536 -0.023777641 -0.065800235
0002d0 80 76 ed 3d f7 5a 8a 3d 66 63 2e 3d c1 9d 1a 3e
       0.11594868 0.067556314 0.042575262 0.15099241
0002e0 60 5e 03 bb 08 b9 c0 bd b7 da 6e bc 3b 3c a6 bc
       -0.0020045266 -0.09410292 -0.014578513 -0.020292392
0002f0 11 8f d4 3d f3 38 93 bc fc c3 c9 3d a4 30 45 ba
       0.1037885 -0.017971491 0.09851834 -0.00075222016
000300 dd 5c 03 3d 29 13 85 b9 3d 4c ac 3d 67 3f 38 bd
       0.032070983 -0.00025382012 0.08412979 -0.04498234
000310 7f 85 f5 bd 59 77 37 bd 0e 8d f0 3d 45 9f 6b 3d
       -0.11988353 -0.044791553 0.11745654 0.057524938
000320 1e 4f d3 3b 77 e9 aa bd 8b 9c a3 3d 4c 69 91 bd
       0.0064486405 -0.08345311 0.079888426 -0.07100162
000330 5a 4c 7f bd a5 1e 13 3e ef 3b 6e 3d 0c f6 c9 bc
       -0.062328674 0.14367159 0.058162626 -0.024653457
000340 c7 f3 d5 3d 78 a4 a1 bb 2f f9 ff 3d d5 d1 c0 3c
       0.104468875 -0.0049329363 0.124987 0.023537556
000350 0f 8a 16 3d 89 f7 4e bd 7d 7d c7 3d 65 19 39 3d
       0.036752757 -0.050529037 0.09740732 0.045190234
000360 bd 20 0a 3e e2 8a 4c 3d b6 1d 38 3b 99 94 2d bc
       0.13489051 0.049937136 0.002809388 -0.0105945105
000370 b2 04 4b 3d 70 42 84 bd 31 dc c4 bb 27 2a 3e 3c
       0.049565025 -0.064579844 -0.006007694 0.01160673
000380 f4 48 44 bd 4a 56 92 3c e6 c8 ee bd 1f 79 3d bd
       -0.047921136 0.017863411 -0.11659412 -0.04625809
000390 46 12 e0 3d 56 a8 05 3d ef 72 50 3d b6 5d 97 bd
       0.109409854 0.03263124 0.05089086 -0.07390921
0003a0 10 8f 85 bd e0 1c b7 bd f4 e0 76 bc 6d f2 0e 3d
       -0.06521428 -0.08941054 -0.015068281 0.034899164
0003b0 8b 19 85 3d c5 b3 98 3c ba d9 db 3d 3c 8f 32 be
       0.064990126 0.018640408 0.107348874 -0.17437452
0003c0 53 2e 86 bd b4 9c 86 bd 99 d8 02 be 7c b4 d7 3c
       -0.065518044 -0.065728575 -0.12777938 0.026331179
0003d0 50 e4 d4 3d 32 90 30 3e 80 fa b8 3d 34 3d 81 bd
       0.1039511 0.17242506 0.09032154 -0.06310502
0003e0 ff 85 ac bd 3f 98 a3 bd d1 d8 4e 3d 4e 88 d9 bd
       -0.08423995 -0.07988023 0.05049974 -0.10621701
0003f0 e1 36 34 be 31 ca 06 3b 7a 44 b9 bc ed 2e ef 3d
       -0.1759906 0.0020567293 -0.02261566 0.11678872

6.bias f4 [64]
000000 8e 94 d3 bd cc 9b 9c bc d5 29 e0 3b ff d8 a8 3d
       -0.10331069 -0.019117258 0.0068409243 0.08244514
000010 3b a3 15 3d b1 bd aa bb a2 25 81 bd 67 69 9f 3d
       0.03653262 -0.0052106013 -0.06306006 0.07783776
000020 f0 43 e0 bb 96 63 ec 3c 1b d7 dc bd 19 b0 be bd
       -0.0068440363 0.02885608 -0.107832156 -0.09310932
000030 dd 39 01 bd 1f de 07 39 9d d1 12 3a 7c cc e9 3c
       -0.031549323 0.0001295735 0.0005600693 0.028539889
000040 85 26 0a 3c a8 9d 92 3d 3c 0c 66 3c fb 7e ad bd
       0.008432035 0.07158977 0.014041003 -0.08471485
000050 6a f0 9f bd 91 b7 29 3c 22 e2 9a bc a1 0a 0a bc
       -0.07809527 0.010358707 -0.018906657 -0.008425386
000060 85 a9 8f bd 59 f6 9b bd 66 c0 a1 bd 9b 3f 60 3d
       -0.07014755 -0.076153465 -0.07898025 0.05474816
000070 85 e2 99 bd 76 a3 a0 3d b8 6c 9f bd b8 ec a5 3c
       -0.07513908 0.07843678 -0.07784408 0.020254478
000080 d2 7d 3b bd 6d f7 7d bd a7 bb 44 3c 80 d5 3a 3d
       -0.04577429 -0.06200354 0.01200763 0.045613766
000090 ed d0 b5 3d ac 89 51 bb c1 af be 3d 26 7d 1a 3c
       0.0887774 -0.0031972928 0.09310866 0.009429252
0000a0 b2 89 d1 bc 4e 56 a9 bd f7 30 79 3b 49 0f fc bc
       -0.025578354 -0.082684144 0.003802357 -0.030769007
0000b0 82 02 05 bc 76 d9 ce 3c 56 01 fd bb f3 83 4d bc
       -0.008118274 0.025250178 -0.0077211065 -0.012543666
0000c0 8c 3c 2f 3c 08 0a 88 3d c4 92 8e bd 61 b5 9b bd
       0.010695588 0.06642538 -0.06961587 -0.07602955
0000d0 0b 8e 19 3b f3 50 22 bd 47 6d b3 bc 81 43 15 3c
       0.0023430611 -0.03962798 -0.021902693 0.0091103325
0000e0 95 a6 79 bd db a8 a7 3d 7a 33 ce 3c f9 22 ba 3d
       -0.06094988 0.081865035 0.02517103 0.09088702
0000f0 ea 22 1b 3b 06 3f 25 bd 7c 49 7f 3c 93 76 a4 3d
       0.0023671933 -0.040343307 0.015581485 0.08030429

8.weight f4 [32, 64]
000000 9c e4 4f 3d 9f 16 23 3e d5 49 91 3c 9d 52 8d bd
       0.05075513 0.15926598 0.017735401 -0.06900523
000010 34 31 1d bd 30 2a fa 3c 58 27 00 be 5e 74 04 3c
       -0.038377002 0.030537695 -0.12515008 0.008084385
000020 82 c9 9c bb 7a 05 ac 3d 02 bc a4 3c 99 dc 84 bd
       -0.004784764 0.08399482 0.02010918 -0.06487388
000030 4c e1 be 3d 64 c7 09 bd e1 d2 31 bd 95 81 ad 3d
       0.09320316 -0.03363742 -0.043414 0.084719814
000040 af b8 ad 3d a8 25 b5 3d 0a 2d 02 3e 68 9a 43 3e
       0.08482491 0.08845073 0.12712494 0.1910187
000050 1a fc f3 3d 97 57 1a bd a6 1d aa bd bd c8 1c bd
       0.11913319 -0.03768119 -0.08306436 -0.038277376
000060 c4 94 bb 3c 0a 38 4a bc 69 ac 08 be be 1a aa 3c
       0.022898085 -0.012342462 -0.1334702 0.020764705
000070 93 ad 15 3d 47 bc 6d 3d 9e 00 79 bc f5 1a f6 3d
       0.036542486 0.058040883 -0.015197901 0.120168604
000080 6a af 00 bd b4 e5 fa 3d e7 3a 12 3e 9b 98 1c be
       -0.031417288 0.12250844 0.14280282 -0.1529259
000090 0f 29 e1 3d 07 07 6b 3c e1 f3 03 3e d8 94 5c bd
       0.109941594 0.014344937 0.12886001 -0.053852886
0000a0 c6 7f bd bd 58 2f 6c 3d 75 36 12 be f5 30 1b 3d
       -0.092528865 0.057662338 -0.14278586 0.037888486
0000b0 b7 1e a9 3d 03 55 f4 bd 4a 89 18 3e 54 5e c6 3d
       0.082578115 -0.11930277 0.14896122 0.096859604
0000c0 5e 21 e4 bc 11 f0 02 bd 94 77 68 3d f0 c1 cc bd
       -0.027847942 -0.031967226 0.056754664 -0.09997928
0000d0 ec 96 f1 3d b7 03 42 bc b2 44 31 be c2 aa 42 bd
       0.11796364 -0.011841706 -0.17311361 -0.04752613
0000e0 bd 3d 18 3e a6 03 1a 3d c3 17 8a bd b5 73 a4 bd
       0.14867301 0.037601136 -0.067428134 -0.08029882
0000f0 38 df 8b 3d df a7 12 be 5b c7 d9 3d b2 32 8a bd
       0.06829685 -0.1432185 0.10633727 -0.067479506
000100 f7 63 f2 bc 1a b5 58 3d a2 29 92 bd a7 b9 97 3c
       -0.029588683 0.052907087 -0.07136847 0.018521143
000110 66 8f f5 bd e3 2b dd 3d a7 aa e1 bd 7c d5 db 3d
       -0.11990242 0.10799386 -0.110188775 0.10734078
000120 7c c5 b4 bd d3 f8 a1 bd 05 0a 4f 3d ea 7c c5 bd
       -0.0882673 -0.079087876 0.050546665 -0.09642966
000130 f0 15 92 bc c7 5b 4f 3d c6 ed f2 bd c0 68 b1 bb
       -0.017832726 0.050624635 -0.11861758 -0.0054140985
000140 4b 5b e4 bd 60 94 fd bd 03 9c b1 bd 75 4c da bd
       -0.11150225 -0.12381816 -0.08672335 -0.10659114
000150 44 a2 43 3d d6 3d 5b bd 47 e5 8e bc 28 0f 0d 3d
       0.04776217 -0.05352577 -0.017443312 0.034438282
000160 80 8c a1 bc 00 79 68 ba f0 c3 05 be fb 16 c9 3d
       -0.019720316 -0.0008868128 -0.13063025 0.09818836
000170 e0 b0 b9 3b a2 40 69 bd 30 7e 6b bc f4 3a 97 bd
       0.005666837 -0.056946404 -0.014373347 -0.07384291
000180 e4 14 d7 bd e0 75 7f 3c 94 5e bd 3d 08 95 3b 3d
       -0.105020314 0.015592068 0.09246555 0.045796424
000190 81 6e b8 bd a0 7d 73 bc 76 c9 e4 bd b6 fc 73 3d
       -0.09005452 -0.014861494 -0.11171238 0.059567176
0001a0 b0 da a4 bc a6 d9 d3 3d 14 ab ab bd 18 5c 63 bd
       -0.02012381 0.103442475 -0.0838224 -0.05550775
0001b0 17 83 00 3d 52 c7 e0 3c f2 6a cc 3d ec c8 e8 bd
       0.031375017 0.027438793 0.09981336 -0.11366448
0001c0 2c f0 3b bd 50 7f af bd e5 20 59 3d b7 a5 9b 3d
       -0.045883343 -0.08569205 0.053009886 0.07599967
0001d0 bf 8a 63 bd c8 5c 8c bc 19 63 34 bc 10 32 de bc
       -0.05555224 -0.017134085 -0.011009955 -0.027123481
0001e0 5d fc 6c 3d e1 01 90 bd a8 ca 99 3d ae af 2d bd
       0.05785786 -0.070316084 0.07509357 -0.04240387
0001f0 c0 2b 97 bc 10 99 2f bc b5 9f 1f 3d dd b1 f7 bd
       -0.018453479 -0.010717645 0.038970668 -0.120944716
000200 4b 78 1e 3d f3 eb ed 3d 22 26 aa 3c 3e 04 59 bd
       0.03868894 0.11617269 0.020770136 -0.05298256
000210 d5 c9 64 3c b9 ca c0 3d 5c e2 0b 3c 44 35 52 3d
       0.013964136 0.09413666 0.008537855 0.05132033
000220 d4 56 70 bc 7b 29 5b 3e 3e 5a 19 3e 8b ac f1 3d
       -0.014669139 0.21402542 0.14975831 0.11800488
000230 af b9 fe 3c d9 80 04 3e 5f 65 23 bd 8f 02 7a 3d
       0.0310944 0.12939776 -0.039891597 0.061037596
000240 50 e0 6d 3d bb e8 7c bd ca aa 06 3e fb ad c0 3d
       0.05807525 -0.061745387 0.13151088 0.09408184
000250 2c 82 b4 bd 31 b1 1a bc 8f a1 83 3d 32 bf 58 3d
       -0.08813891 -0.00944166 0.06427299 0.052916713
000260 72 1c 87 bd ba aa e4 3d 54 52 06 3e b8 80 3a 3d
       -0.065972224 0.11165376 0.13117343 0.045532912
000270 6b 9d 54 bd 64 96 9f 3d ef bc c1 3c 4c be 1d bd
       -0.051907938 0.077923566 0.02364966 -0.03851156
000280 52 20 e9 3d 1d 4d b8 bd 04 23 fc bd f4 fc 7d bd
       0.11383118 -0.08999083 -0.12311366 -0.062008813
000290 52 53 24 be 02 2a 76 3d 68 e2 1f bc 42 2b 8f bd
       -0.16047409 0.060098656 -0.009758569 -0.06990673
0002a0 ae fd 69 bc 1a b0 54 3d d5 21 30 3d 99 cc 95 3d
       -0.014281673 0.051925756 0.043001015 0.073144145
0002b0 c2 c2 1b 3c f5 c6 64 3d 91 d9 8b bd 5e a3 0b 3a
       0.009506883 0.055853803 -0.06828607 0.0005326773
0002c0 c9 64 dd 3d 75 01 e1 bd 15 61 2f bd c4 a4 df bd
       0.10810239 -0.10986606 -0.042817194 -0.109200984
0002d0 e4 6c 09 3e ed cf d4 3c 3e 94 4d 3d 14 59 22 bd
       0.13420445 0.025978053 0.050190203 -0.039635733
0002e0 ba 24 d4 bd 3e 47 f5 bc 01 c0 0f bd be a9 ee 3a
       -0.103585675 -0.029941197 -0.03509522 0.0018208546
0002f0 92 85 c0 3d 41 93 9f 3d 9f 31 88 bd cb d4 36 3b
       0.094004765 0.07791758 -0.066500895 0.002789783
000300 29 a6 81 bd 28 98 96 bd 7d 72 f1 3d ab c3 9f bd
       -0.06330521 -0.0735324 0.11789415 -0.078009926
000310 4a 31 c4 3d 35 71 5a bd 35 8d 3e bd 37 fc b7 bd
       0.09579714 -0.05333062 -0.046521384 -0.08983653
000320 92 bb a7 3d 6c 78 78 3d 20 48 2b 3d 94 13 8f 3d
       0.08190073 0.06066172 0.04181683 0.06986156
000330 a9 06 49 bd c4 9f 08 be 84 5d 11 be 6b b5 98 3c
       -0.049078617 -0.13342196 -0.1419583 0.018641194
000340 2f 6c 14 bd bd b5 9b bd 55 93 d4 3d c8 75 f7 bd
       -0.036235984 -0.07603023 0.10379664 -0.12083012
000350 cc cb c8 3d ed 29 b6 bd 45 88 89 3c 71 d6 f0 bd
       0.09804496 -0.088947155 0.016788611 -0.117596515
000360 58 bc 4c 3d 66 d0 d1 3d c0 44 d7 3c 15 70 e7 3c
       0.049984306 0.10244827 0.0262779 0.028251687
000370 c3 d0 2a bd 38 af b9 3d d3 d2 e1 3d 1b 7c 21 3d
       -0.041702997 0.090666234 0.1102654 0.039424997
000380 ca 09 77 bd aa 65 db 3c cc 65 ae bd c5 3e 33 bd
       -0.06031207 0.026781876 -0.0851551 -0.043761034
000390 c5 a6 86 bc 40 f6 02 be 6f 4e 1d bd 18 6d f9 bc
       -0.016436944 -0.1278925 -0.03840488 -0.030447528
0003a0 74 a6 4d 3d 9e 33 8e 3d 9a d6 16 3d 8f 8a a1 bd
       0.05020757 0.06943439 0.036825754 -0.07887756
0003b0 0a 5e e2 bd c8 d4 e7 bd 9d 4c a7 bd 58 72 6a 3c
       -0.11053093 -0.11319882 -0.0816891 0.014309488
0003c0 1e 49 1c bd 12 48 a3 3d da 7b fd bd 7f cb f3 bd
       -0.038155667 0.07972731 -0.123771384 -0.11904048
0003d0 15 3b d2 3d 4b 34 39 ba f2 82 38 bb 3d c4 ac bc
       0.10265175 -0.0007064982 -0.0028154221 -0.021089667
0003e0 b3 d3 7e 3d b4 2f c2 bd f4 3b e4 3d 44 f2 0c be
       0.06221361 -0.09481755 0.11144248 -0.13764292
0003f0 b0 aa 6e bd d9 f8 11 3d be cb 06 be bb 2a 33 bd
       -0.05826825 0.03563771 -0.13163659 -0.043741923

8.bias f4 [32]
000000 6b 16 dd bd 77 23 f6 bc 2d 0e 5c bc 9b 72 e1 3d
       -0.107952915 -0.030046208 -0.013431114 0.110081874
000010 a7 52 b1 3d 82 5b 9a 3d ea cb 13 3e 2d c3 02 3d
       0.08658343 0.07536985 0.14433256 0.031924415
000020 4a bd 4f 3d 0a 07 94 3c 2c 59 38 bd ef f6 d0 3d
       0.05071763 0.018069763 -0.045006916 0.10203349
000030 48 40 7b bd 32 0b 83 3d 46 f3 6f 3c c7 37 6e 3d
       -0.0613406 0.0639862 0.014645403 0.058158662
000040 c9 47 db 3c c9 51 6d bd 69 e9 cf bc b5 2c 1a 3d
       0.026767628 -0.057939325 -0.025379853 0.037640292
000050 f8 f9 02 3e 2f 3b cc 3d 0b 6f 8a bd 10 0c 70 bd
       0.12790668 0.09972226 -0.06759461 -0.058605254
000060 48 b6 a6 bd cb 23 85 3d 04 55 38 39 2d 96 e8 bd
       -0.08140236 0.065009676 0.00017579278 -0.11356769
000070 ac 0e a2 3d 61 67 d3 3d 38 a2 20 3c c7 83 f3 3b
       0.07912955 0.10322452 0.009804301 0.0074314806
