models_3_250/checkpoint83.pth.tar (torch_old, 478255 bytes, 10 tensors)

0.weight f4 [256, 10]
000000 55 d7 25 3d bd f6 82 3e 09 74 d6 bd cf ea 39 bd
       0.04048856 0.2557887 -0.10471351 -0.045389947
000010 3b b5 c7 3d d9 c6 1d 3e 6d ba 14 3d fc e1 00 3e
       0.09751364 0.15407886 0.036310602 0.12586206
000020 35 a1 9b be e1 f4 f0 bc 78 87 e0 3d 4f b2 04 bd
       -0.3039643 -0.029413642 0.109633386 -0.03239661
000030 26 f5 e4 3d c4 59 9c 3e 92 51 a1 bc 6e 50 35 be
       0.11179571 0.30537236 -0.019692216 -0.17706463
000040 6c 05 5f bd c2 5b a6 be 7d 65 54 3e 40 2e 3e be
       -0.05444853 -0.3249188 0.2074184 -0.1857233
000050 c2 da e9 bd 20 f8 12 3c bc 67 d6 bd 0a c2 62 be
       -0.11418678 0.00897029 -0.104690045 -0.22144333
000060 5c be 95 be b2 33 9e be c0 93 0b be 3e 9b 4a be
       -0.29246795 -0.30898815 -0.13630581 -0.19785783
000070 c0 fa 18 3d d0 7c 09 be 2a fe 85 be 66 54 82 3e
       0.03734851 -0.13426518 -0.26170474 0.25455016
000080 b7 be db bd a0 47 c9 3d 0d 09 6e 3e ce a3 9d 3e
       -0.10729735 0.098281145 0.2324564 0.30789036
000090 4e af 89 be f4 4e 05 bd e8 4e 18 bd 83 9b 21 be
       -0.2689156 -0.032546 -0.037184626 -0.1578198
0000a0 5d 30 70 be 6d 8a 5f be bf 6a 38 3d f8 c9 80 3d
       -0.23455949 -0.21830149 0.045023676 0.062885225
0000b0 a3 6c 2f 3e b2 ec 9e 3e 5c 0c 79 be c7 e2 21 be
       0.17131285 0.3103996 -0.24321121 -0.15809165
0000c0 3a f3 94 be d8 d3 92 bd 08 f0 a6 be ca 81 25 3d
       -0.29091817 -0.07169312 -0.32605004 0.04040698
0000d0 5f d1 99 3d fb 23 02 3e c8 15 90 3d 76 31 be 3c
       0.075106375 0.12709038 0.070354044 0.023216944
0000e0 e7 ff 30 bd 60 94 b1 3d 86 30 64 3d 2e f4 0f be
       -0.043212797 0.086708784 0.055710338 -0.14057991
0000f0 7f 07 a4 3e 4a cf 4a bd d5 27 15 be 22 1e 00 be
       0.3203697 -0.049514093 -0.14565976 -0.12511495
000100 c5 7a a7 be ec a0 39 be 06 0a 3f bd 73 95 2f 3c
       -0.32710853 -0.18127793 -0.04664042 0.010716784
000110 48 7f 39 be 87 22 83 3e 62 c0 c1 3d 82 97 57 bd
       -0.1811496 0.2561228 0.09460522 -0.052634723
000120 7e e0 42 be d6 0b ca ba 51 dd bd 3d e2 ca d6 3d
       -0.1903095 -0.0015414904 0.092707284 0.104879156
000130 e2 29 0f 3e 32 83 51 bd eb ca 08 3d d4 69 97 3b
       0.13980821 -0.05115051 0.033396643 0.00462077
000140 6d ec 5c 3e 40 ef 80 3d 63 0c 39 3e 3d ce 6c 3e
       0.21574564 0.06295633 0.18071131 0.23125549
000150 a0 ce 8d 3c 18 ed 9a be b8 48 48 be 47 f6 26 be
       0.01731044 -0.30259013 -0.1955899 -0.16304885
000160 c2 5a d7 3c 3c 9e 21 3e f9 6a 97 3e 18 0b d5 3d
       0.026288394 0.15783018 0.295738 0.104025066
000170 3a 32 a5 3e cf 5b 5a be bb 19 8a be db 78 09 3e
       0.32264882 -0.21324085 -0.26972756 0.13425009
000180 50 1a a0 bd 05 52 2d bd cc 11 9c 3e 5e c9 c8 3d
       -0.07817519 -0.042314548 0.30482328 0.09804033
000190 a5 58 17 bd 75 43 e3 3d f3 57 88 bd 86 0c 42 3e
       -0.036949772 0.11096851 -0.066574 0.1895009
0001a0 09 9c 98 3e a0 26 99 3e 16 3e a6 3e 8a bd 0a 3e
       0.29806545 0.2991228 0.32469243 0.13548866
0001b0 3e f2 98 be 07 bd 1e be 4a ba b7 bb 9a c7 e6 bd
       -0.29872316 -0.15501796 -0.005606924 -0.1126854
0001c0 a5 e1 80 3e 08 ee 48 be d4 fe 2a bd ba 08 0b be
       0.25172153 -0.19622052 -0.04174693 -0.13577548
0001d0 07 45 8d 3e 38 9d a3 3e 5a dd 69 be 02 3a 95 3e
       0.27591726 0.31955886 -0.22838345 0.2914582
0001e0 bd 6e 5e 3e 6f 03 56 3e a9 6d 8c 3e c7 44 90 be
       0.21721931 0.20899747 0.27427414 -0.28177473
0001f0 31 2a 03 3e a4 6d 53 3d 0d dc bd bb dc 41 1e be
       0.12809063 0.051618233 -0.0057940544 -0.15454811
000200 0d de 87 be af 4b 8b be 0d 17 27 be 09 68 90 be
       -0.265366 -0.2720618 -0.16317387 -0.28204373
000210 61 71 7a be 35 ec 3c 3e f8 36 91 bd e0 1d 96 bd
       -0.24457313 0.18449481 -0.070905626 -0.07329917
000220 87 18 4b bc 73 fd af 3d 36 6f 3f be 84 9e cc bd
       -0.0123959845 0.085932635 -0.18694767 -0.09991172
000230 c6 e8 f5 3d 54 33 02 3d b4 ac b5 3d d0 d2 85 3e
       0.12007289 0.03178723 0.08870831 0.261374
000240 3a ad 9b bd 1c e8 a5 3e 6f d2 1c be bc 6d 86 be
       -0.076014 0.32403648 -0.15314649 -0.26255596
000250 76 51 b9 3c 1a 51 22 3e 6a f8 02 be 98 c3 60 3e
       0.022621851 0.1585125 -0.12790075 0.21949613
000260 74 0d 73 be 98 0e 0c be 5e 93 2b 3e 47 6e e4 bd
       -0.237356 -0.13677442 0.16755435 -0.11153846
000270 a2 a1 a9 bd 7b de 92 be dd 01 57 bc 0b 49 7d 3e
       -0.08282782 -0.28685364 -0.013123003 0.24734895
000280 a3 cc 81 be 46 5b 91 3e 03 2e 0b be 25 69 57 3d
       -0.25351438 0.2838995 -0.13591771 0.052590508
000290 0d 46 ac 3e cf ff 5b be f8 d9 39 bd 46 78 31 3e
       0.33647195 -0.21484302 -0.045373887 0.17331037
0002a0 89 fc 1b be 31 7e 3e bd 82 01 34 3e 5f a9 7c bd
       -0.15233053 -0.046507064 0.175787 -0.061684962
0002b0 b1 48 27 3e 2a 23 09 3c b4 e5 a1 bc ff dd a0 be
       0.16336323 0.0083702 -0.019762851 -0.3141937
0002c0 93 f7 4b 3e c4 56 8f be 10 54 a0 3e 9b c6 4c 3e
       0.19918661 -0.27995884 0.31314135 0.19997637
0002d0 2f 41 97 3e ff d9 47 3d 59 13 69 bd ec f3 69 3e
       0.2954192 0.04879188 -0.056903217 0.22846955
0002e0 5a d0 a5 3e c9 63 8a 3e 5a bf 82 bd f8 73 90 be
       0.32385522 0.27029255 -0.06384154 -0.28213477
0002f0 f7 7f 24 3e 82 83 0e bd 96 a0 8b 3e 70 51 88 be
       0.1606444 -0.034793384 0.27270955 -0.26624632
000300 56 f0 39 be 2b 29 84 bc 40 51 63 3e 9a 0e c0 bd
       -0.18158087 -0.016132912 0.22198963 -0.09377785
000310 de 42 27 3e ce 4a c1 3d 11 45 a6 bd d0 fc 4f 3e
       0.16334102 0.09438096 -0.08118642 0.20311284
000320 db 57 00 bd 97 92 78 3e 38 2c 88 be fe 35 fc 3d
       -0.031333786 0.2427467 -0.26596236 0.12314986
000330 1f c0 e8 3c b1 77 9b 3e 0d 5e a1 3e a0 9d 39 3d
       0.028411923 0.30364755 0.31517068 0.04531634
000340 a6 96 a4 3d 83 33 0d be de 41 03 3e 83 7d 8a bc
       0.080365464 -0.13789181 0.12818095 -0.016905552
000350 cd a9 af 3d 9d 93 33 bd 45 da 8f be ca 81 10 be
       0.08577309 -0.043841947 -0.28096214 -0.1411201
000360 53 ca 60 bd 8f 73 94 3e 86 2a 53 3e cd d7 e5 3d
       -0.05488045 0.28994414 0.2062169 0.11222801
000370 2d a5 7b 3e d8 4d b0 3e 43 cb 77 be 4a 15 67 be
       0.24574728 0.3443439 -0.24198632 -0.22566715
000380 65 68 89 be 97 db 30 be 2c bc 04 3e 00 d4 e0 3d
       -0.2683746 -0.17271267 0.12962407 0.10977936
000390 08 b6 5b be 22 12 9d bc 86 5f 8f be d6 42 07 be
       -0.21456158 -0.019173685 -0.28002566 -0.1320909
0003a0 9b 74 85 be 19 77 31 3e 66 df 32 3e 88 c5 88 3e
       -0.26065525 0.17330588 0.17468032 0.26713204
0003b0 fa 2e 7a bd e1 3b 90 3e 5f f4 00 bc 82 30 f9 3d
       -0.061079957 0.28170684 -0.007870763 0.12167455
0003c0 8b bd 99 3e ee 90 20 be 0e b0 d6 bd c0 8b 87 be
       0.30027422 -0.15680286 -0.104827985 -0.26473808
0003d0 7c 23 41 3e dc 25 21 be 27 a4 8b bd e0 20 93 3e
       0.18861192 -0.15737098 -0.06818419 0.2873602
0003e0 04 a4 10 bd 3c 8a 79 be 20 8b 37 3e 8d 16 99 be
       -0.035312667 -0.24369138 0.17924166 -0.29900017
0003f0 84 02 8e be e8 4f 1b bd d0 df 49 bd 40 3f 28 bd
       -0.27736294 -0.037918 -0.04928571 -0.041075945

0.bias f4 [256]
000000 c4 8f 65 be b5 c3 85 be 6a 0c 93 be 35 16 60 3e
       -0.22418123 -0.26125875 -0.2872041 0.21883471
000010 d9 0a 2d bd 5a 8c 13 3e b4 85 ac 3d 98 ad b0 3d
       -0.042246673 0.14409009 0.08423939 0.086268604
000020 fe 8f 6d 3e e1 3b 5a be c0 d5 8e bc c8 b3 94 bd
       0.2319946 -0.21311904 -0.017435908 -0.07260853
000030 e7 19 01 3e 45 aa 9e 3d 06 fd da bb c0 0b 55 be
       0.12607537 0.0774732 -0.006682995 -0.20805264
000040 4b c0 78 3d 42 de 92 3e da 78 18 3e d6 5d 27 be
       0.06073026 0.28685194 0.14889851 -0.1634439
000050 78 d6 5d 3e 89 ef 95 3e 50 82 54 be 06 27 98 be
       0.21663845 0.29284313 -0.20752835 -0.29717273
000060 c7 89 35 be 6c 86 ac bd c2 88 95 be e2 ec 8c 3d
       -0.17728339 -0.084240764 -0.292059 0.06881119
000070 39 8e a0 bd 35 5e 17 be ff ad d4 3d e2 28 46 3e
       -0.07839627 -0.14782031 0.103847496 0.19351533
000080 bb 9a 8a 3e 6c a0 16 be 12 ce 06 3e 77 f5 a5 3e
       0.27071175 -0.14709634 0.13164547 0.32413837
000090 44 f3 38 3e f0 7f 91 3e 9c f3 2e 3e 78 3e eb bd
       0.18061548 0.2841792 0.17085117 -0.11486524
0000a0 69 c8 56 be 14 ac b9 3d 8b 63 64 be 9d 43 f7 bd
       -0.20974888 0.090660244 -0.22303598 -0.12073443
0000b0 34 f9 8f 3e 26 43 b8 bd ad 33 0c 3e ac 19 82 3e
       0.28119814 -0.089971825 0.13691588 0.2541021
0000c0 f4 8b 2e 3e 8b b6 69 bd d9 e5 10 be 29 61 87 be
       0.17045575 -0.057058852 -0.1415018 -0.26441315
0000d0 5c 80 6d 3e 5b 70 7f be e2 48 6f bd 11 5e 90 3d
       0.23193496 -0.24945204 -0.058419116 0.07049192
0000e0 ad 77 a4 3e c8 5c 9e bd fd e6 2e 3e 9b 87 ad 3d
       0.32122555 -0.0773254 0.17080303 0.0847313
0000f0 65 9c 7b 3d a0 7e 98 3e b7 07 44 3e 85 ac c1 bd
       0.061428446 0.29784107 0.19143568 -0.094567336
000100 74 aa 18 bd 88 4d df bd b6 21 c2 3c 1d 77 7a be
       -0.03727193 -0.1090346 0.023697715 -0.244595
000110 69 3e 46 be fe f9 1f be aa f7 8f be f8 07 0d 3e
       -0.19359745 -0.15622708 -0.2811864 0.13772571
000120 b9 28 30 be 35 30 fe 3d 30 fe 82 be f2 58 08 3e
       -0.17203034 0.124115385 -0.25584555 0.1331518
000130 cd 7e 13 be 12 9f 81 be 51 45 28 3e fe 99 52 3e
       -0.1440384 -0.25316674 0.16432692 0.20566556
000140 35 8d 5b 3d 5d ce 4b 3e c5 50 47 3e e6 7f 55 3e
       0.053601462 0.1990294 0.19464405 0.2084957
000150 d1 ae 02 be 18 77 20 3e 0c 3b 0c be bd 91 26 3e
       -0.12762 0.1567043 -0.136944 0.16266532
000160 34 44 44 3e f9 91 66 3e 8f bc 7d 3e fb c9 86 be
       0.19166642 0.22516622 0.2477896 -0.26325974
000170 8f fc 86 be 19 f6 ac 3c 23 64 8f be 99 35 67 3d
       -0.26364562 0.021113442 -0.28006086 0.0564476
000180 0d 8c 63 be 2e c6 11 be d7 54 e6 bd 86 0c a0 3e
       -0.22221394 -0.14235756 -0.11246651 0.31259555
000190 63 93 e5 bd 9b b0 6e be a8 15 92 bc 48 f3 1b 3e
       -0.112097524 -0.23309557 -0.017832592 0.15229523
0001a0 02 ec 92 be c2 f7 49 be fb af 9c 3e 82 d8 d4 bd
       -0.28695685 -0.19723418 0.30603012 -0.10392858
0001b0 61 96 4b 3e 53 5d 0a 3d ee 53 59 bd 53 a4 8c 3e
       0.19881584 0.033780407 -0.053058557 0.2746912
0001c0 68 1f 89 3e 8c f6 5e be 8d 93 4e 3e a9 34 55 3c
       0.26781774 -0.21773738 0.20173474 0.013013043
0001d0 d1 a4 32 3c 2f 5f 14 3e a9 3e b8 3c 04 5d 78 be
       0.010903553 0.14489435 0.022490816 -0.24254233
0001e0 ae c5 a1 3c 40 6a 3f be 04 1c 99 3e ba 14 ec bb
       0.019747581 -0.18692875 0.29904187 -0.0072046192
0001f0 d4 0c 27 3e 28 09 77 3e 46 0c 75 be 22 da eb bd
       0.16313487 0.24124587 -0.23930463 -0.11516215
000200 cd 2d 8d 3e 12 d2 0d 3d e5 9f fd 3c 28 d5 9a be
       0.27574006 0.034624167 0.030960033 -0.3024075
000210 b7 52 93 bc 4e c9 00 3e 45 39 49 3e 1b b8 9a bd
       -0.017983777 0.12576792 0.19650753 -0.075546466
000220 37 1a 90 3d f2 d5 4a 3e a6 57 41 3e 49 ba 0c 3e
       0.0703625 0.19808176 0.18881091 0.13742937
000230 09 64 1b be 6a 37 02 be d3 cb c0 bd 4c 85 31 be
       -0.15174879 -0.12716451 -0.094138764 -0.17336005
000240 fe 48 9d 3e 0c d1 7f 3c a8 9c 05 bd a2 46 5a 3d
       0.3071975 0.0156138055 -0.032620102 0.053290017
000250 fe 28 31 be a9 6b b1 3d 16 d3 0f 3e b5 5a 1b be
       -0.17300794 0.08663113 0.14045367 -0.1517132
000260 9e 01 55 be d4 29 20 3e bd f8 81 3e 3d f1 df 3c
       -0.20801398 0.15640956 0.25385085 0.027336711
000270 15 3f 4a 3e b1 fa 90 3e f6 ae 21 bd 7f 82 a9 3e
       0.19750626 0.28316262 -0.039473496 0.33107373
000280 bb 65 d4 bd a7 9e a4 3d 00 33 0b be de 92 c8 bd
       -0.10370966 0.08038073 -0.13593674 -0.09793638
000290 30 35 a0 3c 03 40 95 3e d9 ea 0f 3e f4 30 cf 3d
       0.019556612 0.291504 0.14054431 0.10116759
0002a0 fd dc 61 be 1f 5d 6b be d8 ee 86 bb b8 4b 66 be
       -0.22056957 -0.22984742 -0.004117828 -0.22489822
0002b0 3f 0e 30 bd f8 66 06 3c 81 c6 79 3e 34 cb 34 be
       -0.042982336 0.008203261 0.2439213 -0.17655641
0002c0 33 c2 12 bd c3 23 aa bc f7 35 e5 bd d0 0d c7 bc
       -0.035829734 -0.020769006 -0.111919336 -0.024298579
0002d0 b8 54 47 3e 1b f6 06 be 40 36 0f b7 45 1b 54 3d
       0.19465911 -0.1317982 -8.536095e-06 0.05178382
0002e0 00 55 ff bd 65 65 8c 3e b4 28 f2 bc e9 d0 a5 3c
       -0.12467384 0.27421108 -0.029560424 0.020241218
0002f0 aa 17 75 be a9 4a 09 be d0 99 78 3e ba be a2 3d
       -0.23934808 -0.13407387 0.24277425 0.079465345
000300 68 3e 32 bd 5d e9 6c 3d f9 00 8f 3d 7f a5 29 be
       -0.043516546 0.05783974 0.069826074 -0.16567038
000310 64 eb 60 3e 44 85 5a 3e d1 99 f6 3c ad a3 49 3d
       0.21964794 0.213399 0.030102642 0.04922836
000320 f2 2d a8 3e 5b 27 90 bd 5a 78 1f be c0 19 95 3e
       0.32847553 -0.070387565 -0.15573254 0.29121208
000330 d8 29 fc 3d 2c c8 35 3d 2b 19 28 3d 81 63 40 3e
       0.123126686 0.044380352 0.041039627 0.18787958
000340 52 75 97 bc b0 7b cc bc 43 a2 0d 3e 48 71 ce bb
       -0.01848856 -0.024961323 0.13831429 -0.0063001253
000350 ae c6 9f 3e b5 67 3c 3e 1d b1 4d 3e 71 63 e7 3d
       0.31206268 0.18398936 0.20087095 0.11298264
000360 b8 9a 55 bd 6d c6 f7 3d 4c b6 0f 3e a2 f0 67 be
       -0.052149504 0.120983936 0.14034384 -0.22650388
000370 34 b4 8c 3e 3f fc 9e 3d f3 9a 8a 3e 54 cc a6 3e
       0.27481234 0.07762956 0.27071342 0.32577765
000380 7c a8 4e be 2e 4f 79 3e 48 08 8f be 01 bf 6b 3e
       -0.20181459 0.24346611 -0.27936006 0.23022081
000390 eb bc 93 3d 7d e5 8c 3d 84 8e 8c 3e d0 25 ce 3d
       0.072137676 0.06879709 0.2745248 0.10065806
0003a0 d1 41 17 bc 18 87 e4 3d 2e 3e 0a be e3 91 b3 3a
       -0.009232 0.111585796 -0.13500282 0.0013700094
0003b0 20 21 7d 3d ba 86 95 be b7 33 aa 3e b9 f0 d9 bd
       0.06179917 -0.2920435 0.3324258 -0.10641617
0003c0 7f d3 79 bd ff c9 3e 3d 94 04 6a 3d 06 36 0f be
       -0.060992714 0.046579357 0.057133272 -0.13985452
0003d0 9d 2a 17 be 79 5b b8 bc a5 71 1c 3e d2 5f 91 3e
       -0.1476235 -0.022504555 0.15277727 0.28393418
0003e0 df 0c 49 3a d0 8a a4 3e 6c 64 9b be c2 63 a0 3d
       0.00076694594 0.32137156 -0.30350053 0.07831527
0003f0 ef b0 85 bd 4d 48 95 3e 95 5a a8 3d b6 f4 a7 3e
       -0.06527888 0.29156724 0.08220402 0.32803887

2.weight f4 [256, 256]
000000 d3 d7 29 bb 1d 63 4b 3d b8 1e 78 bc 8f ef 90 3c
       -0.0025915995 0.04965507 -0.015144043 0.017692355
000010 dd 9e 5e 3c 20 f3 70 bc 98 c0 5d 3b 8c d0 04 bd
       0.013587681 -0.014706403 0.0033836719 -0.03242545
000020 5d 7f 6c bc 5b 52 f1 bb 2f 76 95 3c d1 b2 37 bd
       -0.014434663 -0.007364554 0.01824483 -0.044848267
000030 ce f3 9c bd 17 7c 8b bd 2f 9f 73 3d 71 4b 90 3b
       -0.076636896 -0.06810778 0.05947798 0.0044035246
000040 27 bd 1c bd 44 b8 9e 3a bc 8e 38 3d d8 ee 1d bd
       -0.038266327 0.0012109359 0.045057997 -0.038557857
000050 3d dd b2 bc 96 04 7c 3d 04 db 43 3c 98 d8 4b 3d
       -0.02183401 0.06152781 0.011954073 0.049767107
000060 e2 0d 3a bd fc 38 5d 3d 38 c8 0e 3d 2a 1d 54 bd
       -0.045423396 0.054009423 0.034858912 -0.051785626
000070 67 1d 90 bd af 69 af 3c b9 22 76 bd ef 20 37 3d
       -0.07036858 0.021412699 -0.060091708 0.044709142
000080 1b ef 7c bb f6 44 7b 3d 66 d5 24 3c 9c e9 62 3d
       -0.0038594666 0.061345063 0.010060644 0.05539857
000090 a4 4d 90 3b 16 b3 6b 3c 86 f0 03 3c 93 57 51 bc
       0.0044037867 0.014385959 0.008052951 -0.012777227
0000a0 40 81 c4 3b e5 8f 5a 3d 9d 22 13 3d 1f 3d ea 3c
       0.005996853 0.053359885 0.03592168 0.028593598
0000b0 46 9b 6e 3d be 42 f8 bc f7 1e 73 bc 9b a2 42 bd
       0.05825355 -0.030305263 -0.014838926 -0.047518354
0000c0 df c6 ba 3b 8a f3 23 bd 60 b6 ca bb 57 b9 85 3c
       0.005699977 -0.04002718 -0.0061862916 0.016323728
0000d0 47 af 3b bd 7d 60 3c 3d 3b c9 86 bd f9 6b 99 3c
       -0.045821454 0.045990456 -0.065813504 0.018728243
0000e0 32 d9 2e 3d 75 5c 2d bc d5 22 f2 bc 3a d3 0f bd
       0.042687602 -0.0105811255 -0.029557625 -0.03511355
0000f0 37 24 c6 3c 8c 56 e7 bb ff 1f fe bc 80 26 c4 bb
       0.02418719 -0.0070598777 -0.031021116 -0.005986035
000100 d0 84 d3 37 7b 17 c1 bc 9a c5 75 3d c3 3d 8a bd
       2.5215006e-05 -0.023570767 0.0600029 -0.06750061
000110 0d 3d a9 3b 73 8b 9d bc 8f 5b d6 bc a9 06 4b 3c
       0.0051647485 -0.019231534 -0.026166705 0.012391725
000120 3f 77 5d 3c b4 6b 3f bc 03 cf 3f 3d cc 3d b2 bc
       0.0135172 -0.011683393 0.04682828 -0.021757983
000130 70 8a 51 3d 47 cd 82 3d b5 94 8f bd 99 ee 1c bd
       0.051157415 0.0638681 -0.070107855 -0.038313482
000140 62 1f 57 bd 1b 74 16 3d 31 1e a7 bc 29 91 ad 3c
       -0.052520163 0.03673182 -0.020400139 0.021187382
000150 e3 be 8e 3d ee ce 41 3d 4e 8e b2 bc c9 81 67 bd
       0.069700025 0.047316484 -0.021796372 -0.056520257
000160 c2 7f 6c 3d 9a 5f 7d 3d 00 37 2b bd 80 9e 34 3d
       0.057739027 0.06185875 -0.0418005 0.04409647
000170 78 82 3a 3d 9f 0e 9d bc 8f 14 47 bc 33 76 6a bd
       0.04553458 -0.019172011 -0.012150898 -0.05724163
000180 30 39 40 3d 77 63 0d 3d 3d a4 8a 3d d8 ea 4d 3d
       0.04692954 0.034518685 0.06769607 0.050272793
000190 95 a5 8c bc 2b 22 ca bc 7b c6 0d bc 7a 03 b7 3c
       -0.0171688 -0.024674496 -0.008653278 0.022340525
0001a0 16 e0 4c 3d b5 8c e0 3c b4 6b 92 bd 6d 8e 83 3d
       0.050018393 0.027410844 -0.07149449 0.0642365
0001b0 91 05 8e 3d 4c 95 81 3b 66 3d 83 3d 96 08 ca 3c
       0.069346555 0.003954565 0.06408195 0.024662297
0001c0 77 83 4c 3c f3 ec 60 3c d1 ec bc bc 02 16 26 3d
       0.012482516 0.013728368 -0.023062142 0.040548332
0001d0 d6 87 b2 ba 77 7d d7 b9 76 4e 26 3d 27 fc 99 bc
       -0.0013620805 -0.00041101474 0.04060217 -0.018796993
0001e0 06 7c 75 3d 8d a8 40 3c 17 57 02 bd 72 e3 ae bd
       0.05993273 0.011758936 -0.031821337 -0.085394755
0001f0 70 46 72 3c 4e f4 4c bd 32 e7 18 3b 5e 88 aa 3d
       0.014787301 -0.050037675 0.0023331163 0.08326791
000200 b5 21 56 3d ef 4a 93 bd 99 d9 d1 3c 70 8f d9 bc
       0.05227824 -0.07192027 0.025616454 -0.026557654
000210 ee fa 83 bd e4 6e 72 3d 1a c2 25 bd 37 4f 33 3c
       -0.064443454 0.059187785 -0.040468313 0.010944179
000220 a8 42 32 bb 48 3c 51 3c f1 63 83 bd cd a5 8f 3d
       -0.0027200375 0.01277072 -0.06415547 0.07014046
000230 28 3e 18 3d ad fa 28 3d 00 ee 7d 3c 51 1a 41 3d
       0.03716865 0.041254688 0.015498638 0.047144238
000240 84 64 55 3c c0 52 78 3d 3a 24 f0 3c 6c e1 81 3c
       0.013024453 0.06062579 0.02931415 0.01585456
000250 30 46 40 bd c8 87 9f bd e7 10 0b bd 7d ce 12 3d
       -0.046941936 -0.0778957 -0.033951666 0.035841454
000260 82 fd 01 3d 87 05 10 3d 39 78 1f bd 01 74 36 3a
       0.031735905 0.03516152 -0.038933013 0.0006960035
000270 ae cf 56 bd 19 4a 5a 3d b1 28 2d 3d 91 bc 63 bd
       -0.052444153 0.05329332 0.042275134 -0.055599753
000280 99 68 8e bb 1a 5f 38 bc e8 3c 11 3d c1 26 76 3d
       -0.004345965 -0.011253143 0.035458475 0.060095552
000290 d6 6f 27 bd 45 fb d0 3c 81 06 19 bd 32 05 65 bd
       -0.04087814 0.02551044 -0.03735972 -0.055913158
0002a0 36 5b 9f 3a 7c 91 86 bc 1e b4 c8 bd ce 5d fa bc
       0.001215792 -0.016426794 -0.097999796 -0.030562308
0002b0 5f 2e 2b 3d dd 57 5c bd cb 00 3a bc 24 6a e5 bc
       0.04179227 -0.05379473 -0.011352728 -0.028004713
0002c0 43 39 a0 bd 43 13 3d bd 35 38 74 3c 50 8d 74 bd
       -0.07823422 -0.046160948 0.014905979 -0.05970508
0002d0 c3 56 62 bd 8b ba 94 3d 92 13 a9 3d 45 a6 36 bd
       -0.055258524 0.07262143 0.08255686 -0.04459216
0002e0 7f f5 3d bc 95 f8 c9 bc 6f 7e 7c 3d f0 2f 10 3c
       -0.011594175 -0.024654666 0.061644014 0.008800492
0002f0 27 60 91 3d 91 b6 39 3c 26 8a 28 bc 3c 79 99 bc
       0.07098418 0.011335031 -0.010286843 -0.018734567
000300 b6 cd 10 3c 85 d2 53 bc f6 80 87 3d 1c b5 8e 3d
       0.008838108 -0.01292861 0.06616394 0.069681376
000310 df aa 8a 3c 8b 6c ee 3c b9 02 17 3c b8 83 ae 3c
       0.01692718 0.029104492 0.009216958 0.021303043
000320 aa a8 33 3d a1 3d 36 bd 65 d7 5e bc ba 76 4f 3c
       0.043862022 -0.044492368 -0.013601159 0.012662584
000330 8d e2 10 3d eb 4b ee bc 5a f0 d1 3b fb 6e 09 3a
       0.035372306 -0.029088935 0.006406826 0.00052426726
000340 c7 db 81 3b 6a e0 78 3d 8b d7 db bc 8d b6 d7 3c
       0.003962967 0.060760893 -0.026836177 0.026332164
000350 9b c2 bf bc dc f6 42 3d 30 c9 02 3c b9 f9 d4 3c
       -0.023408225 0.047598705 0.007982537 0.025997983
000360 69 c7 84 3d a2 a3 4f 3c 9d a2 1a 3c dc d7 00 3d
       0.06483347 0.01267329 0.009438184 0.03145586
000370 61 90 c0 bc 3c 8d 62 3d ac 7c 33 bd da 39 c4 3b
       -0.023506345 0.055310473 -0.04382007 0.0059883418
000380 d0 f4 47 3c 90 15 80 bd 5a 9f 45 3d d9 e3 04 3d
       0.012204364 -0.06254113 0.048247673 0.032443855
000390 e6 af 8e 3d 8e d9 cc bc 4a e2 35 3c 67 e0 d8 bc
       0.06967144 -0.025006082 0.011101315 -0.02647419
0003a0 74 76 63 3d 92 a0 4b bd 25 cf 4a 3d 23 16 d5 3c
       0.055532888 -0.04971368 0.049513955 0.026011532
0003b0 3d 94 2a 3b fa aa ad 3c db 47 5b bd f7 ac 06 3d
       0.0026028298 0.021199692 -0.053535324 0.032879796
0003c0 7e 08 c4 3a 2e 2a 81 3d 8e 68 4f bc 26 02 96 3d
       0.0014956144 0.06306873 -0.012659205 0.073246285
0003d0 60 0b 07 bb 6f 48 42 3d f0 f1 2e 3d 10 c3 43 bc
       -0.0020606145 0.04743236 0.0427112 -0.011948362
0003e0 7d 6a 62 3d db 75 e1 bc ee 77 89 bb 4f aa 0f 3d
       0.055277336 -0.027522018 -0.004195205 0.03507453
0003f0 35 72 06 3d 28 89 bb bc d0 45 94 3c 85 0e c7 3d
       0.03282376 -0.02289255 0.018099695 0.09719566

2.bias f4 [256]
000000 1e 85 17 bc b4 d5 99 bc ca 86 27 bd fe 4b fc bc
       -0.009248046 -0.01877866 -0.04090003 -0.030797955
000010 8c 82 a9 bb 7a 2e c7 3b 71 4c a9 bc 7c e3 41 bd
       -0.005173033 0.0060785385 -0.020666333 -0.047336087
000020 7e b0 3b bd f8 52 04 3d fc 0e 57 3b e8 0b 93 3d
       -0.045822613 0.032305688 0.0032815328 0.07180005
000030 f1 ad 7e 3c 3e 34 64 bd 7c 2a 2e 3d ae b9 ac 3d
       0.015544401 -0.055713885 0.042520985 0.08433853
000040 ca 1d e8 3c 7a e7 82 3d 34 bd 45 bd 8f 9d 4b bd
       0.028334517 0.06391807 -0.04827614 -0.049710806
000050 b8 a9 ae bc 77 ef 12 3d 8e ba ab 3c c7 58 de 3c
       -0.021321163 0.035872903 0.02096298 0.027141942
000060 a9 b0 69 bd a2 68 6f 3c 00 cf 4e 3c a4 74 8d 3c
       -0.057053242 0.014612349 0.012622595 0.017267533
000070 9c a5 64 3d a3 ef ce bb cd a7 94 3b e5 cb 38 bc
       0.055822 -0.006315188 0.004536605 -0.011279081
000080 4e c2 ca 3b 86 09 31 3d 25 19 01 3d a2 e7 03 bc
       0.0061877137 0.043221973 0.03151812 -0.008050831
000090 cc 0e 1e bd 11 e3 28 3d 0c aa 5d 3d 4f f0 3a 3d
       -0.03858833 0.041232172 0.054117247 0.045639332
0000a0 74 6b 74 bd 1e 32 64 bd f8 13 ef 3c ee fa 7e 3d
       -0.059672788 -0.055711858 0.029184327 0.062251024
0000b0 3a 3a 08 bd 2f 52 21 bb dd 73 62 3b cb a9 23 3d
       -0.033258654 -0.0024615636 0.0034553923 0.03995685
0000c0 c6 07 a8 3b 52 4c 48 bd e0 e1 c6 bc 56 76 e6 bc
       0.00512788 -0.04890091 -0.024277627 -0.028132599
0000d0 46 9b 26 3b 44 c0 46 bd 07 07 2f 3d 06 f4 8f 3d
       0.002542214 -0.048523203 0.04273131 0.07028966
0000e0 6e 45 20 3d 72 2d b4 3c f8 e0 35 bd 86 89 5f 3c
       0.039128713 0.021994326 -0.044404 0.013643628
0000f0 b9 83 71 bd 88 2d 3c 3c f5 3a 99 bc 5d c6 b0 bc
       -0.05896351 0.011485465 -0.01870487 -0.021578962
000100 7e 6a 1a 3d 3c 3a 28 bd 7e 7e ea bc c5 28 a2 3c
       0.037699215 -0.04107116 -0.02862477 0.019794831
000110 29 b1 f4 bb eb 83 67 3d 7c 41 5d bd 54 fe 78 3d
       -0.007467408 0.05652229 -0.05401753 0.06078942
000120 80 ed 84 bc bc 78 e5 3b 83 22 c1 3c 9c ec 8d 3d
       -0.01622653 0.007002918 0.023576027 0.06929895
000130 70 0b 1a bd 61 a3 5c 3d 09 0d 71 bd fe 34 08 bd
       -0.037608564 0.053866748 -0.058850322 -0.033253662
000140 67 cb da 3c 97 54 82 3d d0 05 62 bd bf 46 09 bc
       0.026708318 0.063637905 -0.055181324 -0.008378684
000150 0e a0 00 bd fc cb ed bc b1 75 4a bd b7 34 f8 bb
       -0.03140264 -0.029027931 -0.049428646 -0.0075746435
000160 7c c8 c2 bc 95 57 a1 bc 8e 97 6a 3d 03 71 2a bc
       -0.023777239 -0.019695083 0.05727344 -0.010402921
000170 53 af 00 3d 50 71 2f bd 24 23 65 bd 25 60 0f 3d
       0.031417202 -0.042832673 -0.055941716 0.0350038
000180 e6 ef b6 3c 54 1e a4 bc e7 9f 41 3d 81 40 68 3c
       0.02233119 -0.020033993 0.047271635 0.014175535
000190 5d 7e 89 3b db f3 6c 3d 24 41 f7 bc 9e f2 05 3c
       0.004195972 0.057849746 -0.030182429 0.00817552
0001a0 73 21 23 3d ac 16 0e bd 9c 79 84 3d a7 1b 1a 3c
       0.03982682 -0.03468959 0.06468508 0.009406007
0001b0 30 61 85 3d 20 02 2c bd 54 e1 45 3b c0 57 87 3d
       0.06512678 -0.041994214 0.003019412 0.06608534
0001c0 41 02 54 3b 7a d4 0f bd a0 15 62 bc fa 7a c0 3c
       0.0032349976 -0.035114743 -0.013799101 0.02349614
0001d0 50 6e 1e 3d 2f 92 43 bd 23 2e 94 3c 6b 08 95 3c
       0.03867942 -0.047746833 0.018088406 0.01819249
0001e0 46 4c d3 bc fe 9f 30 bd d1 9f 7b 3c 09 64 58 bb
       -0.025793206 -0.04312133 0.015357927 -0.003301861
0001f0 4c e8 86 bc 13 16 92 3c 47 23 7b bc ec e2 3b 3c
       -0.01646819 0.017832791 -0.015328235 0.011467677
000200 85 25 34 3d d4 ba 92 3c 86 56 60 bc 07 38 15 bd
       0.043981094 0.017911352 -0.013692504 -0.036430385
000210 51 15 77 3d 9b 1f 99 3c 8c 42 f2 3c 85 a1 22 bd
       0.060323063 0.018691828 0.029572748 -0.03970482
000220 db 00 1b bc 41 ad 3b bd 9b 29 7e 3c 0f 77 cd 3c
       -0.009460653 -0.045819525 0.015512849 0.025081186
000230 f3 fd 4c 3c 46 76 1c bd 9d 42 05 3d 4a c5 8d bc
       0.012511718 -0.03819873 0.03253423 -0.017305989
000240 91 bd 40 3d d7 a8 28 3d de 68 04 3c 14 32 14 3c
       0.047055785 0.041176643 0.008081643 0.009045143
000250 12 79 64 bd 5c 54 3b 3d 34 37 24 3c a2 b2 83 3c
       -0.055779524 0.04573475 0.010022927 0.01607639
000260 85 de 6b 3d c0 97 4e bd 29 1e 59 bd d5 c9 a6 3c
       0.057585258 -0.05043769 -0.05300728 0.020359913
000270 fd df 4e bd 3f 7f 03 bd 8f 66 ab ba a8 d1 01 3c
       -0.05050658 -0.032103773 -0.001307683 0.007923521
000280 90 5c 5e 3c 92 78 0e bd c9 b3 2f bd f1 15 68 bd
       0.013571873 -0.034782954 -0.042896066 -0.05666155
000290 7e c2 ff 3c e4 dd dd 3c af 29 55 bc 84 b5 67 3d
       0.03122067 0.027083345 -0.013010426 0.05656959
0002a0 47 db cf bb db 8d 31 3d 48 ba da bb e9 c1 ba 3c
       -0.0063432786 0.043348175 -0.0066750385 0.022797542
0002b0 6b 34 ef 3b 66 f8 8b 3c b1 79 5e bd 1a 53 bf bc
       0.00729995 0.017086219 -0.054315273 -0.023355056
0002c0 04 f4 95 3d 60 83 3c 3d cc ba 51 3d 58 fc bb bc
       0.07321933 0.046023726 0.051203534 -0.022947475
0002d0 04 f3 85 bb 66 46 57 bc 57 aa c6 bc 0d 3c 7b bd
       -0.0040878076 -0.013139343 -0.024251146 -0.061336566
0002e0 62 a4 41 3b 14 8c 4f 3c f4 d5 d0 b9 75 40 20 3d
       0.0029547443 0.012667675 -0.0003983226 0.03912397
0002f0 f6 c1 ac 3c b6 5a 2f bd 5a ce 88 bd da 7d 11 b8
       0.021088582 -0.042811118 -0.066799834 -3.4687902e-05
000300 10 cf 9b 3c 31 e1 49 bc e8 cc 47 3d 4e 77 c5 bc
       0.019019634 -0.012321756 0.0487794 -0.02410474
000310 0d 6a f8 bc da 95 8d bc ca 57 bb bc a2 31 76 3d
       -0.030324006 -0.017283369 -0.02286901 0.060105927
000320 70 e8 1c 3d 27 fe da bc c3 d4 04 3c 68 44 89 bc
       0.038307607 -0.026732517 0.008107367 -0.016756251
000330 ac 2c 41 3c 3a 6e 25 bd fb 4a c0 3d 10 fa 80 3d
       0.011790436 -0.040388323 0.093893014 0.06297696
000340 c6 f3 dd 3b 64 2e 3f 3d 29 b3 da bc e2 85 66 bd
       0.006773445 0.0466751 -0.026696758 -0.056280024
000350 30 74 41 3d c4 7d 69 3d 72 f3 03 3d 28 27 ab bc
       0.047229946 0.057004705 0.03221459 -0.020892695
000360 03 ec 7e 3d 65 3a 01 bd d2 a5 79 3c 33 e6 b6 bc
       0.062236797 -0.03154983 0.015237289 -0.022326564
000370 83 3c 9c bc b3 7f 88 3d 93 14 02 3d d9 a5 74 3b
       -0.019071823 0.06664982 0.031757902 0.0037330298
000380 04 f2 b3 3c a5 c4 60 3c ec bb 61 3d 4d 8b 14 3c
       0.021965988 0.013718759 0.055110857 0.009066415
000390 5d a3 af bc 5d 4f b0 3b b0 a9 aa bb 4a 14 9a 3d
       -0.021440202 0.0053805546 -0.0052082166 0.07523401
0003a0 b0 5b 35 bd 74 85 d6 3c 78 c9 ac bc db 3e 04 3d
       -0.044276893 0.026186682 -0.021092162 0.032286506
0003b0 29 b8 61 bc 48 08 2b 3d da e0 29 bc 6b 98 cc bb
       -0.013776817 0.041755944 -0.01036855 -0.0062437556
0003c0 3a 98 2f 3c ac a2 60 3c 87 ff 41 3d db ac 35 bd
       0.010717446 0.013710659 0.04736283 -0.0443543
0003d0 65 01 cb bc 13 c8 e0 bc ac 12 10 3d 17 ee 80 bc
       -0.024780938 -0.027439153 0.035174057 -0.01573853
0003e0 03 e5 ca bc 24 37 bc bc 8a af cf bc e8 db 4c 3d
       -0.024767404 -0.022975512 -0.025352258 0.050014406
0003f0 e4 0d e4 3c 74 73 a0 bb 04 c3 a6 bc aa 07 94 bc
       0.027838655 -0.0048965756 -0.020356663 -0.01807006

4.weight f4 [128, 256]
000000 d7 c5 95 bc 98 39 8d bd 69 20 5f 3c 34 76 81 3d
       -0.018282814 -0.06895751 0.013618567 0.063213736
000010 21 49 59 3c f0 15 24 bd af 90 e3 3c 33 49 37 3b
       0.013262064 -0.040059984 0.027778951 0.0027967214
000020 6e 32 a5 bc 56 13 0c bd 14 01 98 3c e4 17 2b bd
       -0.020165648 -0.034198128 0.018555202 -0.04177083
000030 4b 46 45 bd ae 35 14 3d a3 38 2a 3d dd dd 40 3d
       -0.04816274 0.036184005 0.04155792 0.047086585
000040 0b 38 51 bc 21 87 e7 bc 44 46 df 3c cd b7 bb bc
       -0.012769709 -0.028262677 0.027255185 -0.022914791
000050 dd 54 70 3d e8 a4 aa 3b 47 24 6d 3c b6 15 a5 bd
       0.058674682 0.0052076466 0.014473981 -0.08060782
000060 a4 c1 91 3c 0b 91 11 bc ad ad 49 3d 14 62 84 bb
       0.01779253 -0.008884679 0.049237896 -0.004040012
000070 6c 41 3f 3c 5c 92 2a 3d d2 cd 02 3d 76 c2 1b bd
       0.011673313 0.041643485 0.031934567 -0.03802725
000080 a3 07 47 bc 5d 3e 1d 3b 56 cf 93 3d 4b 86 7d 3c
       -0.012147817 0.002399347 0.072172806 0.0154739125
000090 73 ad 2f bd 75 e6 44 3d 22 04 b1 3c a8 10 4b bd
       -0.042890023 0.048071343 0.021608416 -0.04957643
0000a0 11 c5 61 3d 76 d1 1d bd d3 e0 38 3d 81 9e 5d 3d
       0.055119578 -0.038529836 0.045136284 0.05410624
0000b0 1d c5 83 3d 34 2d ef 3c 9a fa 44 bc 06 4d 45 3d
       0.06434081 0.02919636 -0.012022639 0.04816916
0000c0 a8 9f 95 3b 22 4e 57 bc 5e aa 13 3d 72 f9 31 bd
       0.0045661516 -0.013141187 0.036051147 -0.04345078
0000d0 13 44 ad bc 10 ef 7f 3d 27 3c 0c bc 80 5d 8f bd
       -0.021150624 0.062483847 -0.008559263 -0.070002556
0000e0 7d 17 f8 3c b1 2a 13 bc ed 9e e3 bc 0a ff 5e 3d
       0.030284638 -0.008982346 -0.027785743 0.054442443
0000f0 5f e0 90 bd b4 fe a3 bc 85 61 1b bd d8 b2 48 bd
       -0.070740454 -0.020018913 -0.0379348 -0.048998684
000100 7e b2 51 bc 63 d5 a4 3d 87 f3 b4 3c b0 d8 2a 3d
       -0.0127989035 0.08048513 0.02208878 0.041710556
000110 a6 12 3a bb 89 13 a0 3d ea 12 cb bc d1 81 7d 3c
       -0.0028392463 0.07816226 -0.024789292 0.015472845
000120 fb 80 69 3d 7e 2f dd 3c 8a 21 09 bd 51 57 2d 3d
       0.05700777 0.027000185 -0.03347925 0.0423196
000130 db a4 2a bd 5f 80 88 3d 80 6a 7b 3d 55 a5 01 3d
       -0.041661125 0.0666511 0.061380863 0.031651814
000140 f4 d5 aa 3c ab 7e aa 3c db fc fc 3c 6d 5b 45 bd
       0.020853974 0.020812353 0.03088229 -0.048182894
000150 30 a0 66 bd 16 f9 32 bd 1c 8c c6 3c af 99 8a 3d
       -0.05630511 -0.043694578 0.024236731 0.06767594
000160 00 f3 c1 3c 0e 4a 3a 3d df 73 65 3d f1 db b4 bc
       0.023675442 0.04548078 0.056018706 -0.022077532
000170 d8 59 41 3d 2c e4 7b bd 0e 50 73 bd 65 b6 53 bd
       0.047204822 -0.0614969 -0.059402518 -0.051687617
000180 d5 e4 00 3d 4e b6 52 3c 2e 44 51 bd 39 ab 13 bd
       0.03146823 0.012860848 -0.05109041 -0.036051963
000190 7e dc 5f 3d 02 10 ae 3b 9d db 85 bd a2 91 9d 3d
       0.054653637 0.005311967 -0.065360285 0.07693793
0001a0 4c 11 63 3d af 32 73 3c 6c 50 64 3d f7 6b 6c bd
       0.055436417 0.014843627 0.05574076 -0.05772015
0001b0 61 25 71 3c 43 6e 9c 3d 55 d6 d1 3c 33 2b 90 bd
       0.0147183845 0.07638218 0.025614897 -0.070394896
0001c0 6c 65 48 bd 2e 76 c3 bb b7 59 05 bc 8c f4 7e 3d
       -0.04892485 -0.005965016 -0.0081390655 0.062244937
0001d0 ef 1c 5c 3d 7d 56 01 bd cf 29 11 3c 53 f4 f7 3c
       0.05373853 -0.031576622 0.008860066 0.03026787
0001e0 45 fa 2b bd 0e 21 94 bb 89 bb 9e bc 78 73 10 3d
       -0.041986722 -0.004520542 -0.019376533 0.03526637
0001f0 af 0c 28 bd d5 8c f8 bb ad 5c 83 3c b6 65 38 bd
       -0.04102772 -0.007585148 0.016035402 -0.045018874
000200 d2 03 d4 3c aa a5 c7 bc 2c d5 7d bc fe 9e a0 3c
       0.025880728 -0.024370987 -0.015492719 0.019607063
000210 2f 40 32 3c 81 48 7c 3a 53 b3 47 bc 6e 49 44 3d
       0.01087956 0.0009623841 -0.01218875 0.04792159
000220 2d a7 5e 3d 7f 9e 91 3d 7d eb 62 bd 95 32 40 3d
       0.05435865 0.07110309 -0.05540036 0.04692324
000230 47 a2 97 3c 73 ea 30 bd 25 14 cf 3c 50 3a cb 3c
       0.018509997 -0.04319234 0.02527816 0.024808079
000240 2f 17 77 bc 1b 3e 13 bb 51 5e 95 bc cd 66 bd 3c
       -0.015081211 -0.0022467438 -0.01823345 0.023120308
000250 88 46 e5 3c 42 2b 82 bb 91 92 38 3d 29 a8 73 bd
       0.027987733 -0.003972442 0.04506165 -0.059486542
000260 7f 81 80 3d 6d 95 bd bc a7 88 9c 3c 4b 18 b2 bc
       0.062746994 -0.02314254 0.01910813 -0.0217401
000270 63 59 45 bd 57 3a 1e bd 35 2f 3b 3d d6 16 88 3d
       -0.04818095 -0.038629856 0.045699317 0.066449806
000280 74 9b 61 3d 70 b0 e6 bb 3e 2d a8 3d f4 00 80 3d
       0.055079892 -0.007040076 0.08211754 0.06250182
000290 56 be f4 3c fc 8f 43 bd c6 1d ea 3c ea 64 af 3c
       0.029875915 -0.047744736 0.02857865 0.021410424
0002a0 6d cd f2 3b 60 a1 0b bc f7 66 a8 3c 43 88 e3 3c
       0.0074097426 -0.0085223615 0.02055691 0.027774936
0002b0 11 b5 44 bd 96 cd 72 3d 08 cf a3 3c 9c 55 72 3d
       -0.04802424 0.059278093 0.019996181 0.059163675
0002c0 57 04 00 bd 96 0d 22 3c 89 4a 2c bc 1b 23 16 b9
       -0.03125414 0.009890934 -0.010515817 -0.00014318193
0002d0 0e 6b 7f bc bd 57 01 3d 8b 9b 02 3d f9 aa c6 3c
       -0.015589489 0.031577814 0.03188662 0.024251448
0002e0 b5 58 5d bd 27 d4 f7 bc 31 d2 21 bc 82 7b 8b 3d
       -0.054039676 -0.03025253 -0.009876774 0.068106666
0002f0 87 e6 36 3d e2 99 78 3d f3 ab ae bc 56 6d 5f 3d
       0.04465344 0.06069363 -0.021322226 0.05454763
000300 bb 69 f8 3c 49 fa 07 bd c8 74 f6 bb 1d e2 a7 3d
       0.030323854 -0.033197675 -0.0075212456 0.081974246
000310 8b 90 91 bd 44 2f 9a 3c 14 88 77 bc 77 e8 91 bd
       -0.071076475 0.018821366 -0.015108127 -0.07124417
000320 51 cc 43 3d eb 69 49 bd 02 28 cc bc 18 cd 2a bc
       0.047802273 -0.049173277 -0.024921421 -0.010424875
000330 20 00 5e bc da e5 15 3d a6 23 06 3c ec 00 2f 3d
       -0.0135498345 0.036596157 0.00818721 0.04272549
000340 43 14 7d 3d 96 1f 4f 3d 1c 00 e3 3c 5a d7 86 bd
       0.0617869 0.050567232 0.027710013 -0.06584044
000350 c8 46 22 bc 73 43 79 3d 22 cd 2a 3d 2e cf 52 bc
       -0.009904571 0.06085534 0.041699536 -0.012866778
000360 98 8d 3e 3d 6a 12 a1 3a d8 88 52 3b 60 4e 8b bd
       0.046521753 0.0012288813 0.0032125022 -0.06802058
000370 77 18 22 bd ca 27 38 bd 7e c0 81 3d 1b 0a 27 3a
       -0.039574113 -0.04495982 0.06335543 0.000637205
000380 3a c6 58 3d fe fa 1e 3d 2a 3e 46 bc c4 63 6c bd
       0.05292342 0.038813584 -0.012099782 -0.05771233
000390 85 b8 eb b9 22 a8 41 bd 60 7e 06 3d 2e 96 be 3b
       -0.0004496017 -0.047279485 0.032835364 0.0058162427
0003a0 e0 c2 40 3d f1 9e 1e bd 38 b2 06 3d 7b 35 47 bd
       0.047060847 -0.038725797 0.032884806 -0.048634987
0003b0 10 c1 47 3a 78 30 21 3d 6e 52 3b 3d 37 5e 9a bc
       0.0007620016 0.039352864 0.045732908 -0.018843753
0003c0 2b 87 48 bc 2c 23 b9 3c 3d 39 82 bd 56 96 a8 3d
       -0.012239258 0.02259978 -0.063585736 0.08231799
0003d0 57 95 a9 3d 93 1c 9f 3c f0 d1 61 3d 70 ec 03 bd
       0.082804374 0.019422805 0.055131853 -0.032207906
0003e0 a6 3c 88 3c f9 eb 61 3c 1e e4 0b 3c ee 3a 85 bd
       0.016630482 0.01378917 0.008538274 -0.065053806
0003f0 83 dd 85 3d 82 95 be 3d fa 0e 04 3d e0 48 ab 3d
       0.06536391 0.0930586 0.032240845 0.08363509

4.bias f4 [128]
000000 bd f6 5d 3d 31 8a 84 3c 6c c3 57 3d dc 1c 75 b9
       0.054190386 0.016179176 0.052676603 -0.00023375772
000010 f3 21 4c 3d 28 7f 97 3c c3 b7 3e 3d 62 e2 45 3d
       0.049837064 0.01849325 0.046561968 0.0483116
000020 7a 18 43 3d be 4d 3f bd 4e 1b 43 3c 24 08 51 bd
       0.047630765 -0.046705 0.011908365 -0.051033154
000030 12 71 10 3d bd 95 31 3d 06 99 c0 bc 34 ff 1a 3a
       0.035264082 0.043355692 -0.023510467 0.0005912662
000040 c7 bf 24 bd b9 0f 74 3d 8d 1e 64 3d 13 80 f9 bc
       -0.040221956 0.059585307 0.055693198 -0.030456578
000050 cc 6a 56 3d ed 0e 9b 3c bb 31 bc 3c 4f ad 76 bc
       0.052347943 0.018928016 0.022972932 -0.015055968
000060 be 65 a0 3a 2c b9 1d bd 2b 95 5c 3a 8a f0 32 3b
       0.0012237353 -0.03850667 0.0008414562 0.0027304017
000070 4e 18 2d bd 2c d9 0c 3d f3 b1 26 bd 27 f1 11 bd
       -0.042259507 0.0343868 -0.04069705 -0.03563037
000080 9a 6a 1a bd 75 92 8a bc c2 c5 17 bd cf e1 9e bc
       -0.03769932 -0.01691554 -0.03705383 -0.019394783
000090 bc 11 4c 3d 0f 49 5d bd 6c 57 5d bc 7f 84 59 3d
       0.0498216 -0.054024752 -0.0135096125 0.053104874
0000a0 c2 81 18 bd e1 e1 80 3d 4f f4 e7 3b e4 64 80 bd
       -0.03723312 0.06293083 0.0070786844 -0.06269243
0000b0 5f a5 54 3d 08 a1 b9 3c 44 4b 1c bd 1e f5 18 bd
       0.051915523 0.022659793 -0.038157716 -0.037343137
0000c0 02 76 45 3b 19 15 15 bd 31 6d 81 3d ba 4f aa 3c
       0.0030130153 -0.036397073 0.06319655 0.02078997
0000d0 25 1d 2b 3d 86 1d 5c bd 2f ba 6c 3d 83 c0 82 3c
       0.04177584 -0.053739093 0.057794746 0.015960937
0000e0 c2 97 1e bd 92 5b 0e 3d 67 78 d7 3c 5f 5f 49 bc
       -0.038718946 0.034755297 0.02630253 -0.012290805
0000f0 c2 2a 31 3d 2d 14 0f bd c4 23 3a bd 31 88 1d bd
       0.043253668 -0.03493135 -0.045444265 -0.03845996
000100 90 11 1c 3d 65 05 40 3d 21 1f 9c bc 25 9b 86 bd
       0.038102686 0.046880145 -0.019057812 -0.0657256
000110 e0 14 3b 3d 72 b8 c1 bb 95 54 99 3c ee ce 27 3b
       0.045674205 -0.00591188 0.01871709 0.0025605517
000120 9d b7 5c bd e8 25 9b 3b f4 11 c0 bc 49 e4 f3 bc
       -0.053886045 0.0047347434 -0.02344606 -0.02977194
000130 91 d4 39 3d 87 d3 1a 3d cb 9c 2e bd fd 37 9a bb
       0.045368735 0.037799384 -0.04263 -0.0047063814
000140 1e 5d 37 3d 6c 11 9f bc 94 aa fb bc cc 46 6b bc
       0.044766538 -0.019417487 -0.030720986 -0.014360141
000150 41 a6 7a bd 77 c9 40 bd b8 f6 89 3d ba 18 6c 3d
       -0.06119371 -0.04706713 0.06736511 0.05764077
000160 fe 2a 89 bc e0 49 86 3d f3 2f c4 3b 43 c3 3a bd
       -0.016744133 0.06557059 0.0059871613 -0.045596372
000170 c2 6f 47 3d 17 92 73 3d ce 75 5e 3d 0b 4e 20 3b
       0.048690565 0.059465494 0.054311566 0.002446058
000180 e2 d0 5b bd f0 d5 b3 3b c2 40 82 bd 9d 12 9b 3a
       -0.053666003 0.00548815 -0.06360008 0.0011831109
000190 97 3a 94 bb 74 1e 35 bd 1f aa 69 3d a2 4b 1e 3d
       -0.004523586 -0.044218495 0.057047006 0.038646348
0001a0 18 48 3b 37 16 11 4b 3d 41 53 22 3d fc 9a a2 3c
       1.1162854e-05 0.04957684 0.03963018 0.019849293
0001b0 33 b9 99 bc 2d 36 02 3d e3 06 f6 3c be bc 2c bd
       -0.018765068 0.031789947 0.03003258 -0.042172186
0001c0 31 2c 81 3c cb 26 e1 bb 52 40 88 3b 05 ab 35 3d
       0.015768142 -0.0068710796 0.004158058 0.04435255
0001d0 fe f5 0b bd 27 66 dc bc 50 44 0f 3d 20 54 0f bb
       -0.034170143 -0.026904179 0.034977257 -0.002187021
0001e0 30 ef 24 bd ae 3d 09 bc 78 e2 a7 3b 52 dd 43 3b
       -0.04026717 -0.008376522 0.0051234327 0.0029886556
0001f0 88 4d 0a bd 45 f6 66 3d f0 03 12 bd 04 13 e1 3b
       -0.033765346 0.056387205 -0.035648286 0.006868722

6.weight f4 [128, 128]
000000 d3 e7 5b bd 6b 35 82 3d 79 ca c7 bb ee 55 33 3d
       -0.05368788 0.06357845 -0.0060971347 0.04378312
000010 c8 e0 77 ba 2e d3 73 bd ac 91 75 3d d9 3b 89 3d
       -0.0009455797 -0.05952757 0.059953377 0.06700868
000020 5b 13 80 3d db fc 89 3d 96 8a a7 bd 5f 3b 5e 3c
       0.06253692 0.067376815 -0.0818073 0.01356396
000030 1e 69 87 3c c8 4a 74 3d 41 46 a5 bd 1f d9 b9 bb
       0.016529616 0.05964163 -0.080700405 -0.005671635
000040 c6 f6 63 3d ac 98 c2 3c 92 dd 80 bd 98 e2 ff bc
       0.055655263 0.02375444 -0.06292261 -0.031235978
000050 1d 02 1d bd 89 61 81 3c 19 61 f6 3c b5 82 f2 bc
       -0.038332094 0.015793579 0.030075597 -0.029603342
000060 70 23 3c bc 17 f2 12 3d de b1 73 bd d0 16 70 bc
       -0.011483058 0.035875406 -0.0594958 -0.014653876
000070 2c 8d 88 bc 45 b9 9a bc ae d0 6c 3d a7 f5 83 3d
       -0.016668878 -0.018887172 0.0578162 0.06443339
000080 89 91 62 3d 99 dc b9 bd c5 42 82 3d 82 b4 37 3d
       0.055314574 -0.09075279 0.063603915 0.04484988
000090 ad 48 3c bd 3c d7 ab 3c cd 2e ae bc ce f7 f7 bc
       -0.045967747 0.020976655 -0.02126255 -0.03026953
0000a0 63 af 81 3d 39 08 ac 3d 40 08 d6 3a 66 c7 19 bd
       0.063322805 0.08400006 0.0016329363 -0.037543677
0000b0 92 72 2e bd 46 f3 8b bd 66 fe 26 3d aa 7c 43 bd
       -0.04258973 -0.0683351 0.040769957 -0.04772631
0000c0 c8 26 71 bc fe 79 71 bd 58 ad 48 bd 2c f4 8a bc
       -0.014718719 -0.05895423 -0.04899344 -0.016962133
0000d0 7e ec a4 3d 0e cb 6b 3b 4a 3e 53 bc 56 ed 56 3d
       0.0805292 0.0035979184 -0.012893269 0.052472435
0000e0 24 3d 80 3c 4d a4 34 3c 6f 7c e4 3c f8 25 88 bd
       0.015654154 0.0110255005 0.027891366 -0.06647867
0000f0 e1 c1 65 bd f8 b6 48 bc e2 f8 46 3d cf f9 a5 bd
       -0.0560931 -0.012250654 0.048577197 -0.08104288
000100 42 c4 00 3d 05 be 8e 3d 73 44 2f 3d ad 15 65 3b
       0.031437166 0.06969837 0.042789888 0.0034955547
000110 1c fd 92 3c 0a 13 8a bd 85 43 88 3d 60 b3 06 3d
       0.017942958 -0.06741913 0.06653503 0.03288591
000120 bf cb a6 bd 3f 68 b5 bd f6 21 27 bd 64 ac 8d bd
       -0.0814433 -0.08857774 -0.040803872 -0.069176465
000130 61 da a5 bc 79 93 25 bc a4 95 69 bd 84 08 9b 3c
       -0.020245733 -0.010105961 -0.057027474 0.018924959
000140 3f 93 60 bd 62 0d 1f bd 2e c8 44 3d a8 9c a7 bd
       -0.054827925 -0.038831122 0.04804247 -0.08184177
000150 bd 36 36 bd 98 8b 56 bc 03 97 0e 3d b2 62 63 3d
       -0.044485796 -0.013094805 0.034811985 0.055514045
000160 5e e6 08 bb 64 31 90 bd b9 9d 58 3d 7f 0f 91 bd
       -0.0020889263 -0.070406705 0.05288479 -0.07083034
000170 f5 8c 84 3c 22 c7 a3 bb 00 6c 42 bc 04 11 70 bd
       0.016180495 -0.0049981037 -0.0118665695 -0.058609977
000180 23 23 04 bd 91 45 81 bd 5e 0b 2c bb 0c bb 01 3c
       -0.03226007 -0.06312097 -0.0026251893 0.007918131
000190 5c 5c d4 3c e2 8b 88 bb d4 5d 29 3d 36 96 03 3d
       0.025922947 -0.004167066 0.041349247 0.032125674
0001a0 5b d0 a7 bd e6 01 58 bd 0d 70 53 bd fc d0 05 bd
       -0.081940375 -0.052736185 -0.05162053 -0.032670006
0001b0 07 db 8c 3d 67 ce 96 3d 0b 89 51 bd f8 d6 9c bd
       0.06877714 0.07363587 -0.051156085 -0.076581895
0001c0 db b8 45 bd 9d 16 83 3b 97 31 b1 bd 28 f8 6f 3c
       -0.048271995 0.0040004984 -0.08652037 0.014646567
0001d0 be fd 55 3d 5b f6 29 bd 45 9d 80 bd 6b fb 57 bd
       0.05224394 -0.04149471 -0.06279997 -0.052730005
0001e0 f4 0b 83 bc 39 60 ee 3c 2e 0b 2d bd 17 39 5b bc
       -0.01599691 0.029098617 -0.04224699 -0.0133803105
0001f0 8a 63 6d bd 6f 9c 97 3b 2e 85 1e 3d 10 92 a1 3b
       -0.057956256 0.0046268026 0.03870123 0.004930742
000200 6c 95 a7 3d 9a 5e 32 3d 5b 85 87 bd 19 e6 64 3c
       0.08182797 0.04354725 -0.066172324 0.013970875
000210 b5 2d 37 bc 81 a7 6d bd ef b9 e6 3c a8 9d ed 3c
       -0.011180331 -0.058021072 0.028164832 0.02900584
000220 7c 56 6e bb 4f 67 af bd 60 16 7f 3d be 8b 05 bd
       -0.0036367467 -0.085646264 0.062277198 -0.03260397
000230 32 9c 97 3d ea f0 6f 3d 20 d0 f6 3c 50 7e a1 bb
       0.07402839 0.058579363 0.030128539 -0.0049283877
000240 c8 5e b4 bc 49 75 04 bd d4 19 3f 3d be eb 9f bd
       -0.022017851 -0.032338414 0.04665549 -0.07808636
000250 52 ee bb bc c5 bd b2 bd e0 38 ad 3c 26 48 58 bd
       -0.022940788 -0.08727602 0.021145284 -0.05280318
000260 25 b1 f6 bb 71 42 bf bc 82 6f c5 bd e2 ea 92 bd
       -0.0075284415 -0.023347111 -0.09640409 -0.071737066
000270 70 10 a1 bb e0 3c 51 bd c1 f0 92 bd a9 32 aa 3d
       -0.0049152896 -0.051083446 -0.071748264 0.08310444
000280 7a 31 a6 3c 16 d0 f4 bc 04 14 e0 3c bc 3b c8 bc
       0.020287264 -0.02988438 0.027353294 -0.024442546
000290 8d 44 10 3d 7e 8f 8a 3d 78 9f b2 bc 6b 57 51 bd
       0.035221625 0.0676565 -0.021804556 -0.05110876
0002a0 2b 85 97 3d fd f1 3b 3d dc 20 ad 3d 71 e6 70 3c
       0.07398447 0.045885075 0.08453533 0.014703379
0002b0 4f e1 51 3d 7b 5d 68 bd d2 11 8d 3d 33 d6 0f bd
       0.05124026 -0.056729775 0.068881646 -0.035116386
0002c0 da 33 11 3d 94 5d 4f 3c d7 a3 91 3d ba 0c 9f bd
       0.03544984 0.012656588 0.07111328 -0.07766099
0002d0 5c 6b 95 3d 9e ec a4 3d c1 10 a1 3d 48 0c 01 3c
       0.07295868 0.08052944 0.07864524 0.007876463
0002e0 be 67 43 3c de 8c 93 bd 61 77 81 3d 54 74 3a bc
       0.0119265895 -0.07204603 0.06321598 -0.011380274
0002f0 77 a9 45 bd a8 ac 0d 3d a8 f1 62 bc 5e 9a 49 bd
       -0.048257317 0.034588486 -0.013851561 -0.04921948
000300 fd df 57 bd 13 ef 6e 3d 8f 6d 9a 3d 52 80 28 bc
       -0.052703846 0.058333468 0.07540428 -0.0102845
000310 ee 2a cf bc 33 00 a9 bd 37 ac a3 3c 65 18 c4 bc
       -0.025289025 -0.08251991 0.01997958 -0.023937413
000320 4d 7e a3 bd 05 55 93 bd 67 be 97 3d 85 1d 53 bd
       -0.07983074 -0.071939506 0.07409363 -0.051541824
000330 ae af 3a 3c 61 da 20 bd 24 3d a9 3c 3b ea af 3c
       0.011394424 -0.039270762 0.020659037 0.021473994
000340 4b a8 a6 3d f0 da a1 bc b4 e1 8a bd a1 48 a1 b9
       0.08137568 -0.019757718 -0.06781331 -0.00030762426
000350 e4 47 ea bc 31 aa 62 3d 01 9f 14 bd 38 54 8b bd
       -0.028598733 0.05533809 -0.03628445 -0.06803173
000360 15 25 93 3d fc 90 54 bd e2 76 54 bd 0a 61 af 3b
       0.07184807 -0.05189608 -0.051871188 0.005352144
000370 57 2b c7 bd e3 78 ca 3c 24 09 9e bd 24 41 b3 bd
       -0.09725063 0.024715846 -0.07716587 -0.08752659
000380 57 2d 88 3d 41 49 01 bd 32 6b 1c 3d 14 0a 9f bc
       0.06649273 -0.031564 0.038188167 -0.019413985
000390 80 0d 9d 3c 29 69 e8 bc 26 cd 40 3d dc bc 6d 3c
       0.019171476 -0.028370457 0.047070645 0.01451036
0003a0 62 f8 88 bb b5 f4 a0 bb 57 4e c5 bc 18 2a 83 3d
       -0.00418 -0.004911984 -0.024085207 0.06404513
0003b0 f6 51 9e 3d 24 1b 9a 3d 30 e7 29 3c e9 a9 64 bd
       0.077304766 0.07524708 0.010370061 -0.0558261
0003c0 b8 3a 77 3d a9 b8 93 3d 6b 09 aa 3d 9e 29 57 bb
       0.060358733 0.072129555 0.083025776 -0.0032831202
0003d0 34 9c 3a 3d f2 81 c1 bd 04 37 9a bd 32 bc 69 3d
       0.045559123 -0.09448613 -0.07530025 0.057064243
0003e0 40 99 a0 3b 15 a9 5c bd 22 cf 21 3b 7e a0 4e bd
       0.0049010813 -0.053872187 0.0024690111 -0.050446026
0003f0 62 8d e8 3c 63 50 bd bd f5 a2 89 bd 16 30 98 3d
       0.02838773 -0.09243848 -0.06720535 0.07431047

6.bias f4 [128]
000000 85 e7 a9 bd 8c 30 c8 3c b5 2f 90 bd a4 f2 19 3d
       -0.08296112 0.024437211 -0.070403494 0.037584916
000010 e1 7f a7 bd bc 26 a3 3d fa c3 00 3d f8 96 11 bd
       -0.08178688 0.07966372 0.031436898 -0.035544366
000020 21 2f 3a bd b5 9f 08 3d 5d 53 85 bb 21 89 df 3c
       -0.045455102 0.033355433 -0.0040687756 0.027287068
000030 84 c0 99 3c b0 db 5f bd 09 79 90 3d d5 ef 64 bd
       0.018768556 -0.05465287 0.070543356 -0.055892784
000040 e8 65 ac bb 18 4d 3e bd 95 33 40 3d 52 0d 9e 3d
       -0.0052611716 -0.04646024 0.046924192 0.077173844
000050 c5 3e 3b 3d 54 75 5f bd 4f c4 53 3d c0 2e 8a bd
       0.04571416 -0.054555252 0.051700886 -0.06747198
000060 91 f6 9d bd f4 da 70 3c 3b be 6e bd 9a e3 d3 bd
       -0.077130444 0.01470064 -0.058286887 -0.10346146
000070 8b ab 94 bd 70 b6 33 bd f6 78 8c bd c3 90 17 3d
       -0.07259282 -0.043875158 -0.06859009 0.03700329
000080 f4 c9 93 bc da e4 14 bd 48 5f 00 3d f5 86 c3 3d
       -0.018040635 -0.036351062 0.031340867 0.095472254
000090 fd a6 d1 3b f1 10 2c 3c 4c f9 78 bd c1 7e 89 bc
       0.0063980804 0.010502086 -0.060784623 -0.016784074
0000a0 c4 b3 3e bd 95 54 b5 3c bb d8 0f 3d 77 7f 23 3d
       -0.046558157 0.022135058 0.0351188 0.03991648
0000b0 36 5a a8 3d a9 5f a1 3d ed 30 22 bc 8a 1b a5 3c
       0.08220331 0.07879574 -0.00989936 0.020154733
0000c0 1f ea b4 3d 1b 7c b0 3d 22 5d a9 bd ed 5a 32 ba
       0.088337176 0.08617421 -0.08269717 -0.000680371
0000d0 6d 7c ac 3d 9d 37 a4 3d b2 38 78 bd d8 1b 88 bc
       0.0842217 0.0801842 -0.060600944 -0.01661484
0000e0 7e fe d6 3c 29 03 c1 bc 4c b6 26 3d 26 ed ad 3d
       0.026244398 -0.023561077 0.040701196 0.08492498
0000f0 0d 6f 1f bd 82 5a 8a 3d b8 46 29 3d 70 f1 ae 3d
       -0.038924266 0.06755544 0.04132721 0.08542144
000100 7a 74 db bc c9 f3 bd 3d 72 d8 96 3d 45 f2 7b 3c
       -0.026788939 0.09275014 0.073655024 0.015377586
000110 4c 83 57 3d 47 f8 8e bd 72 57 4b bd 90 16 c5 3c
       0.05261545 -0.06980949 -0.04964394 0.02405861
000120 fa 68 ff 3c fa 50 6c bc 3b 74 32 3b 5e 0b 39 3c
       0.031177986 -0.014423603 0.0027229923 0.011294214
000130 c7 30 e1 3c d7 94 15 bd 56 b0 32 bd d3 fc 0b 3c
       0.02748908 -0.036518898 -0.0436252 0.008544165
000140 08 7a bf 3b 12 d8 35 bd dd 39 7b bd 95 48 30 bd
       0.0058434047 -0.044395514 -0.06133448 -0.04303797
000150 6b 6c 06 bd 89 d9 d6 bc 86 00 3f 3d 4f 5e 53 3d
       -0.03281824 -0.026226776 0.04663136 0.05160361
000160 5a 71 8a 3c 75 92 88 bd 40 a8 b6 3d d1 6f 42 bd
       0.016899753 -0.066685595 0.0891881 -0.047469918
000170 38 89 a6 bd 5a 9d f5 3c 05 3f 83 3d ea 68 0c bd
       -0.08131641 0.029982258 0.064085044 -0.03427974
000180 1c 20 3e 3d a8 16 50 3d 2e d4 ab 3d 0b 05 1b 3d
       0.04641734 0.050802857 0.083900794 0.037846606
000190 dd 33 82 3d 9b 15 a4 3c 1b c8 5c 3d 1a ae 9f 3d
       0.063575484 0.020029834 0.053901773 0.07796879
0001a0 36 0d 59 bd ac be 96 bd e8 6d 2c bd b1 79 82 3d
       -0.052991115 -0.073605865 -0.042097002 0.06370867
0001b0 7d 73 a2 bd b1 62 aa bc 70 2a 93 bc 7b f7 af 3d
       -0.07932184 -0.020799013 -0.017964572 0.08592125
0001c0 2c 32 8f bd ad 82 fb bb aa cb b8 bd 76 b7 9a 3d
       -0.069919914 -0.00767549 -0.09023221 0.07554524
0001d0 33 fb 96 bc ea 3a 29 bd 1e 7a cf bb 48 3d 29 bd
       -0.018430328 -0.04131595 -0.006331696 -0.041318208
0001e0 78 66 1a 3c c8 44 5c 3c 5a 3e 8e 3d c7 ed 80 bd
       0.0094238445 0.013444133 0.06945486 -0.062953524
0001f0 56 ac 86 3d 44 cc 4f 3d a5 56 a9 bd 0e d1 d5 3b
       0.06575839 0.050731912 -0.08268479 0.0065251654
