models_3_250/checkpoint249.pth.tar (torch_old, 478255 bytes, 10 tensors)

0.weight f4 [256, 10]
0.041783385 0.26047143 -0.07388362 -0.02899318 0.106646374 0.17766637 0.05531669 0.14225341
-0.35706517 -0.0201465 0.10410983 0.0044769314 0.10157427 0.3245135 -0.0134893665 -0.13369608
-0.042645093 -0.30706897 0.22239806 -0.18194611 -0.11418678 0.00897029 -0.104690045 -0.22144333
-0.29246795 -0.30898815 -0.13630581 -0.19785783 0.03734851 -0.13426518 -0.28873506 0.27018845
-0.0970819 0.11800941 0.23924816 0.30006355 -0.24240035 -0.0076492815 -0.03568532 -0.14192507
-0.153865 -0.18384023 0.022135498 0.036719304 0.16214162 0.33734328 -0.27125314 -0.13137199
-0.3065551 -0.084805705 -0.36408857 0.03240227 0.07161501 0.1394657 0.07720612 0.011872511
-0.03788343 0.0925919 0.059923064 -0.13793573 0.32417697 -0.06611592 -0.14303835 -0.11501226
-0.31080642 -0.20402654 -0.08963252 -0.0028428398 -0.19706789 0.2378025 0.09805065 -0.051368207
-0.20889817 -0.008886227 0.10126689 0.112828486 0.1493765 -0.0525707 0.039797183 0.003691475
0.21311614 0.06808277 0.19404581 0.24314766 0.013868218 -0.3297388 -0.20928448 -0.17755035
0.0313369 0.15585153 0.30282748 0.11437553 0.32744524 -0.22892772 -0.24948636 0.16020514
-0.07565496 -0.040101763 0.31555784 0.117457666 -0.021817591 0.12440854 -0.058769442 0.20711541
0.2883356 0.31885365 0.34882608 0.15306334 -0.28798935 -0.15143555 -0.024278626 -0.085669816
0.26401222 -0.19425698 -0.03524675 -0.15612344 0.29477546 0.33165956 -0.24682307 0.29023764
0.22708173 0.22618255 0.2754586 -0.30460522 0.14634204 0.044380937 0.010962677 -0.13556999
-0.27933586 -0.26328957 -0.22553968 -0.283688 -0.24094795 0.19880182 -0.12130537 -0.09526561
-0.02602692 0.054475363 -0.15240206 -0.09428351 0.12740694 0.05220132 0.10470324 0.27193946
-0.06449592 0.33519644 -0.13302393 -0.25811222 0.03225052 0.16804898 -0.15908475 0.1885006
-0.2787612 -0.16230594 0.14010684 -0.12549537 -0.1348647 -0.28738186 -0.020690376 0.22929208
-0.24564384 0.29875213 -0.12116952 0.060548052 0.36105117 -0.25856993 -0.017054945 0.17386033
-0.11831342 -0.017802002 0.17486097 -0.059195552 0.17156532 0.014950747 -0.008647768 -0.3329506
0.20689458 -0.2874087 0.32649225 0.20470624 0.30511653 0.054621708 -0.04452856 0.23514223
0.33337072 0.28936222 -0.059763014 -0.27557376 0.15682036 -0.03217625 0.2787571 -0.26232526
-0.19045605 -0.02451408 0.23034203 -0.07077691 0.1845892 0.122738674 -0.0660133 0.20080778
-0.026793655 0.24487841 -0.28359133 0.1347844 0.022811787 0.31644046 0.33351514 0.038850237
0.08698642 -0.14524767 0.13087387 -0.027468756 0.07578757 -0.061982427 -0.3049503 -0.14948271
-0.062335305 0.30558312 0.21534875 0.1045747 0.25764287 0.36071545 -0.23981024 -0.19828548
-0.2588481 -0.12596458 0.16238426 0.07259395 -0.19371507 -0.023334784 -0.25127938 -0.1159312
-0.28200993 0.20074943 0.1830889 0.2637288 -0.03449657 0.29283714 0.014470748 0.12894802
0.30182475 -0.15345585 -0.083681755 -0.29657593 0.18815695 -0.14669132 -0.06891874 0.28538328
-0.038313877 -0.27411458 0.17924166 -0.29900017 -0.27736294 -0.037918 -0.04928571 -0.041075945
00000000: 0e25 2b3d 835c 853e 4c50 97bd 1b83 edbc
00000010: 6a69 da3d 2cee 353e c193 623d e1aa 113e
00000020: 3fd1 b6be 460a a5bc 8937 d53d 39b3 923b
00000030: 2c06 d03d a226 a63e 8102 5dbc a0e7 08be
00000040: 9fac 2ebd 2538 9dbe 51bc 633e 1550 3abe
00000050: c2da e9bd 20f8 123c bc67 d6bd 0ac2 62be
00000060: 5cbe 95be b233 9ebe c093 0bbe 3e9b 4abe
00000070: c0fa 183d d07c 09be 15d5 93be 2456 8a3e
00000080: e0d2 c6bd ebae f13d 78fd 743e eea1 993e
00000090: cc37 78be d3a6 fabb c52a 12bd ce54 11be
000000a0: c98e 1dbe 9d40 3cbe 8155 b53c fb66 163d
000000b0: 7408 263e 42b8 ac3e b1e1 8abe 6186 06be
000000c0: caf4 9cbe 9dae adbd d169 babe 3eb8 043d
000000d0: e4aa 923d 19d0 0e3e 3e1e 9e3d ec84 423c
000000e0: a82b 1bbd d2a0 bd3d e371 753d 063f 0dbe
000000f0: 86fa a53e c967 87bd a578 12be 8c8b ebbd
00000100: 0522 9fbe 55ec 50be 4191 b7bd f04e 3abb
00000110: 2acc 49be 8082 733e c7ce c83d 7867 52bd
00000120: 67e9 55be 8a97 11bc 0465 cf3d 9f12 e73d
00000130: 27f6 183e 6054 57bd 5f02 233d acec 713b
00000140: 1e3b 5a3e fb6e 8b3d f2b3 463e b3fb 783e
00000150: 8637 633c 86d3 a8be ac4e 56be c2cf 35be
00000160: 1f5b 003d 8b97 1f3e 340c 9b3e b83d ea3d
00000170: e7a6 a73e 076c 6abe 5a79 7fbe d10c 243e
00000180: fdf0 9abd bf41 24bd cc90 a13e a58d f03d
00000190: ceba b2bc e8c9 fe3d 3ab8 70bd 1016 543e
000001a0: b9a0 933e c940 a33e 5599 b23e a3bc 1c3e
000001b0: 5773 93be ec11 1bbe f8e3 c6bc a873 afbd
000001c0: 9c2c 873e 4deb 46be e55e 10bd d3de 1fbe
000001d0: cfec 963e 48cf a93e 30bf 7cbe 079a 943e
000001e0: 1d88 683e 669c 673e e908 8d3e 37f5 9bbe
000001f0: b0da 153e c9c8 353d cd9c 333c dcd2 0abe
00000200: 1c05 8fbe e4cd 86be e0f3 66be 8e3f 91be
00000210: 0fbb 76be b492 4b3e f36e f8bd 9e1a c3bd
00000220: 6836 d5bc 8f21 5f3d 490f 1cbe b717 c1bd
00000230: f776 023e 0dd1 553d a76e d63d a63b 8b3e
00000240: 7016 84bd de9e ab3e 6d37 08be 4927 84be
00000250: 1f19 043d 0815 2c3e 1de7 22be 4d06 413e
00000260: cab9 8ebe 8733 26be 2b78 0f3e dc81 00be
00000270: f919 0abe b723 93be dd7e a9bc 8bcb 6a3e
00000280: 0f8a 7bbe 0af6 983e ba27 f8bd 3c01 783d
00000290: b3db b83e 4763 84be d0b6 8bbc 7108 323e
000002a0: 4e4e f2bd 81d5 91bc c10e 333e 0977 72bd
000002b0: d2ae 2f3e faf3 743c 5eaf 0dbc 8078 aabe
000002c0: 2cdc 533e 3c27 93be fe29 a73e 839e 513e
000002d0: 3c38 9c3e 03bb 5f3d 9463 36bd 20c9 703e
000002e0: 91af aa3e 4927 943e 10ca 74bd 0118 8dbe
000002f0: 8495 203e 3ecb 03bd 40b9 8e3e 7f4f 86be
00000300: e906 43be c0d1 c8bc c8de 6b3e 7cf3 90bd
00000310: f404 3d3e 6a5e fb3d fb31 87bd 8ea0 4d3e
00000320: 5e7e dbbc 68c1 7a3e e232 91be ec04 0a3e
00000330: c9df ba3c 7c04 a23e 7fc2 aa3e 6d21 1f3d
00000340: f025 b23d cebb 14be cd03 063e 2806 e1bc
00000350: 8336 9b3d 49e1 7dbd 7222 9cbe ff11 19be
00000360: 4e53 7fbd 6475 9c3e 6284 5c3e 432b d63d
00000370: c4e9 833e b2af b83e d190 75be 590b 4bbe
00000380: bd87 84be dcfc 00be 0f48 263e 23ac 943d
00000390: 3e5d 46be 9728 bfbc b1a7 80be 566d edbd
000003a0: 9b63 90be 4291 4d3e a87b 3b3e 7607 873e
000003b0: 464c 0dbd c0ee 953e b716 6d3c f30a 043e
000003c0: c688 9a3e 8823 1dbe 5761 abbd cdd8 97be
000003d0: 37ac 403e 4036 16be 4525 8dbd c21d 923e
000003e0: 03ef 1cbd bf58 8cbe 208b 373e 8d16 99be
000003f0: 8402 8ebe e84f 1bbd d0df 49bd 403f 28bd

0.bias f4 [256]
-0.2242424 -0.26093504 -0.2872041 0.2260617 -0.050909914 0.13085002 0.07097004 0.093315504
0.22932635 -0.18868983 -0.012000942 -0.074479796 0.12597798 0.06251321 0.0033718538 -0.23213571
0.08105599 0.29797602 0.15839279 -0.15096228 0.21242371 0.28795412 -0.21871728 -0.2827333
-0.18122023 -0.084240764 -0.28833476 0.07240896 -0.08525503 -0.125449 0.10331419 0.19947079
0.27346647 -0.1460096 0.13840422 0.3283653 0.18096785 0.28075618 0.17877367 -0.10817602
-0.2004586 0.091601975 -0.2067204 -0.11430656 0.2909531 -0.066890754 0.14056025 0.25724378
0.16677521 -0.045949116 -0.14223625 -0.253281 0.22921145 -0.25965115 -0.05708603 0.079634555
0.3215149 -0.07881595 0.17071846 0.08733971 0.069135174 0.31043512 0.1910068 -0.08809406
-0.043395717 -0.1033187 0.043683562 -0.24958701 -0.17991279 -0.14553617 -0.28175503 0.16181685
-0.13899529 0.11508831 -0.25234002 0.1533205 -0.12728523 -0.22972535 0.18150562 0.20762102
0.074637815 0.20332944 0.18662481 0.21823968 -0.12205725 0.15773465 -0.11803693 0.1626345
0.20931295 0.23367523 0.21111572 -0.26197866 -0.22822757 0.051808227 -0.2723047 0.06667715
-0.21506563 -0.16247964 -0.13996501 0.31255212 -0.11071725 -0.21097787 -0.02204532 0.15602581
-0.29103658 -0.19719048 0.31880623 -0.09668339 0.19976139 0.03542427 -0.025816798 0.29666802
0.22993034 -0.20692775 0.216468 0.0115948 0.010513815 0.15147053 0.0023034303 -0.2382412
0.018037764 -0.17570402 0.32511124 -0.0022285746 0.17806989 0.22838786 -0.22915095 -0.11510867
0.28486577 0.050348677 0.046894014 -0.3238462 -0.0048553157 0.1258304 0.1978137 -0.066380195
0.089961484 0.20950867 0.18013543 0.15009746 -0.14735001 -0.113259956 -0.089915134 -0.17678334
0.3136443 0.010305271 -0.016979596 0.052081626 -0.17868197 0.07475408 0.15105888 -0.15893042
-0.20652092 0.1659943 0.2663702 0.034587983 0.20103806 0.28441143 -0.011026422 0.34955302
-0.089865014 0.09418864 -0.13840614 -0.0860884 0.019556612 0.29101467 0.1377511 0.12264909
-0.20724325 -0.22151466 -0.018961107 -0.23538324 -0.033060998 0.016879888 0.24819234 -0.15985838
0.0051092384 -0.02592828 -0.0934689 -0.017032804 0.20207956 -0.12415919 0.009145311 0.065438695
-0.111209124 0.2737526 -0.02907283 0.050050043 -0.22860797 -0.13127322 0.24330913 0.084999554
-0.019229596 0.073975295 0.07911337 -0.16077623 0.2424299 0.21809345 0.037866756 0.05723186
0.3269775 -0.045202285 -0.15534982 0.29937497 0.10168158 0.061386835 0.05472683 0.18318017
-0.017007416 0.047431722 0.15254064 -0.0013380211 0.30559158 0.16902983 0.18960844 0.12198937
-0.047812197 0.14994389 0.13693932 -0.22804444 0.2719265 0.081676126 0.26873842 0.32182354
-0.18289821 0.24281095 -0.2833665 0.24092579 0.07729007 0.06540765 0.27879116 0.1080445
0.00410693 0.099511735 -0.13319717 -0.005167041 0.12735952 -0.26911122 0.33978325 -0.10920434
-0.055975735 0.08627486 0.052008346 -0.14663596 -0.14361425 -0.01275785 0.16496661 0.28848678
0.0048308074 0.30673015 -0.29986712 0.09715152 -0.06038246 0.29593837 0.09252518 0.33496335
00000000: cd9f 65be 4799 85be 6a0c 93be b87c 673e
00000010: ea86 50bd 8cfd 053e be58 913d 331c bf3d
00000020: 87d4 6a3e e837 41be 999f 44bc dd88 98bd
00000030: 5f00 013e ed06 803d 52fa 5c3b fcb4 6dbe
00000040: af00 a63d 5090 983e b831 223e db95 1abe
00000050: 9a85 593e b96e 933e 6cf7 5fbe 6bc2 90be
00000060: cc91 39be 6c86 acbd 9da0 93be 264b 943d
00000070: 309a aebd b475 00be 6496 d33d 1242 4c3e
00000080: cc03 8c3e 8a83 15be d6b9 0d3e 7f1f a83e
00000090: a34f 393e 46bf 8f3e 7210 373e 648b ddbd
000000a0: 0545 4dbe d199 bb3d 83ae 53be 8f19 eabd
000000b0: cef7 943e 05fe 88bd 07ef 0f3e 75b5 833e
000000c0: 1fc7 2a3e 2435 3cbd 61a6 11be 0cae 81be
000000d0: 68b6 6a3e fff0 84be 0ad3 69bd 7117 a33d
000000e0: 9a9d a43e 426a a1bd d2d0 2e3e 29df b23d
000000f0: be96 8d3d 5af1 9e3e 4997 433e a96a b4bd
00000100: b5bf 31bd c198 d3bd 89ed 323d bd93 7fbe
00000110: 0f3b 38be 6f07 15be 3242 90be 51b3 253e
00000120: c854 0ebe 6bb3 eb3d b632 81be 0d00 1d3e
00000130: 0f57 02be 1f3d 6bbe 9cdc 393e 9b9a 543e
00000140: b6db 983d 9835 503e 931a 3f3e 397a 5f3e
00000150: 27f9 f9bd 3185 213e 59bd f1bd a989 263e
00000160: 2256 563e 8f48 6f3e b82e 583e 1122 86be
00000170: 7db4 69be dd34 543d 866b 8bbe 088e 883d
00000180: 2a3a 5cbe 1061 26be fd52 0fbe d506 a03e
00000190: babf e2bd 950a 58be 6398 b4bc 3bc5 1f3e
000001a0: bf02 95be 4dec 49be 923a a33e f101 c6bd
000001b0: 408e 4c3e 0a19 113d c07d d3bc dfe4 973e
000001c0: dc72 6b3e dee4 53be caa9 5d3e 1ef8 3d3c
000001d0: 2342 2c3c 171b 1b3e 26f5 163b 80f5 73be
000001e0: efc3 933c c1eb 33be fb74 a63e 470d 12bb
000001f0: f457 363e 82de 693e 8ca6 6abe 18be ebbd
00000200: edd9 913e 6a3a 4e3d f013 403d 2bcf a5be
00000210: 5719 9fbb afd9 003e ad8f 4a3e 57f2 87bd
00000220: ba3d b83d 7189 563e 6c75 383e 26b3 193e
00000230: ece2 16be d6f4 e7bd 6d25 b8bd b106 35be
00000240: fc95 a03e 70d7 283c cb18 8bbc 8b53 553d
00000250: 68f8 36be ab18 993d 2eaf 1a3e a8be 22be
00000260: 387a 53be 69fa 293e ad61 883e 21ac 0d3d
00000270: ecdc 4d3e 609e 913e 2aa8 34bc 9df8 b23e
00000280: 260b b8bd f9e5 c03d 57ba 0dbe 1d4f b0bd
00000290: 3035 a03c e0ff 943e a00e 0d3e 722f fb3d
000002a0: 9337 54be bdd4 62be 5354 9bbc 4e08 71be
000002b0: f86a 07bd b147 8a3c 2226 7e3e eab1 23be
000002c0: 666b a73b 8b67 d4bc 9f6c bfbd 6188 8bbc
000002d0: f2ed 4e3e 2c47 febd 37d6 153c b904 863d
000002e0: 9cc1 e3bd 4d29 8c3e 252a eebc 4601 4d3d
000002f0: 3518 6abe 7d6c 06be 0726 793e 3f14 ae3d
00000300: 6387 9dbc 5c80 973d 3106 a23d 86a2 24be
00000310: 8b3f 783e e453 5f3e 2c1a 1b3d f46b 6a3d
00000320: 9869 a73e 0826 39bd 0614 1fbe ad47 993e
00000330: 6f3e d03d c370 7b3d 3e29 603d 9593 3b3e
00000340: 2353 8bbc c447 423d 9d33 1c3e 8a60 afba
00000350: 8076 9c3e 2816 2d3e b728 423e 90d5 f93d
00000360: b9d6 43bd e48a 193e d239 0c3e 7b84 69be
00000370: f339 8b3e d045 a73d 1598 893e 0ec6 a43e
00000380: ab49 3bbe 6fa3 783e 6a15 91be 40b5 763e
00000390: 424a 9e3d 72f4 853d b7bd 8e3e 6f46 dd3d
000003a0: 6d93 863b cfcc cb3d d764 08be 4850 a9bb
000003b0: 896a 023e f2c8 89be 12f8 ad3e 86a6 dfbd
000003c0: d046 65bd e0b0 b03d b406 553d bd27 16be
000003d0: 9d0f 13be 4d06 51bc 02ed 283e 8ab4 933e
000003e0: c04b 9e3b bc0b 9d3e 2f88 99be 60f7 c63d
000003f0: 9953 77bd 3c85 973e d77d bd3d 5180 ab3e

2.weight f4 [256, 256]
-0.01973046 0.028926848 -0.015144043 0.027910223 0.0035165173 0.007181733 -0.0019750074 -0.025178673
-0.020240473 -0.0014651726 0.019843057 -0.048254486 -0.06887729 -0.02366426 0.06467425 0.01959092
-0.025134915 0.0006254329 0.050320115 -0.055645227 -0.013078035 0.060374454 0.022579037 0.056819208
-0.04094716 0.054009423 0.040029135 -0.031225687 -0.06522601 0.022736268 -0.06643644 0.04758288
-0.00017911085 0.063604355 0.044650666 0.057449665 0.010676505 0.03331447 0.0069808825 -0.019368691
0.015040051 0.059701566 0.050855607 0.026527552 0.06835781 -0.026020495 -0.008107263 -0.048029292
-0.0063664927 -0.038362797 -0.010882478 0.04714188 -0.04707549 0.068554655 -0.044321414 0.015054362
0.0491861 -0.019841023 -0.019517995 -0.03429637 0.026985087 -0.0078067305 -0.032568503 -0.005585375
-0.018596062 -0.019348303 0.05427198 -0.054459047 -0.013538134 -0.018025346 -0.022438912 0.0020674078
0.0003956982 -0.007187719 0.06636731 -0.036189344 0.04693455 0.068569854 -0.06539458 -0.036649067
-0.05047635 0.039234728 -0.017257206 0.017818952 0.076787844 0.061932914 -0.012342366 -0.053068433
0.05854878 0.06631869 -0.08396618 0.05594307 -0.008617954 -0.023280732 -0.0071533 -0.06217442
0.05011263 0.08175 0.061694503 0.05050274 -0.015645117 -0.02157305 -0.012422052 0.024075408
0.059144136 0.024980437 -0.07125052 0.07034835 0.07059089 0.004561219 0.06221028 0.032134704
0.02097793 0.019498339 -0.010244496 0.050318155 0.00622702 0.010319274 0.029634291 -0.0063911886
0.06544476 0.06044617 -0.018633133 -0.09113782 0.017612105 -0.0485045 0.009911404 0.09599017
0.060423255 -0.07391547 0.0303125 -0.032082245 -0.066364706 0.06288763 -0.03807041 0.025583621
-0.008235848 0.019724717 -0.06454901 0.07267016 0.057488296 0.041084237 0.0320378 0.052914124
0.022002384 0.060328227 0.04105155 0.015864326 -0.055718172 -0.07356222 -0.03631949 0.042002242
0.041020524 0.04445596 -0.029622953 0.002686335 -0.057244625 0.05058691 0.018598726 -0.053945906
0.0007947526 -0.010256601 0.04172799 0.069272585 -0.04087814 0.030638149 -0.031854585 -0.06640716
0.013389466 -0.0021967099 -0.10933539 -0.021895407 0.04223908 -0.05311848 -0.007667599 -0.032560002
-0.08449496 -0.08170365 0.0023946746 -0.05555639 -0.049771678 0.0796881 0.08696018 -0.04528847
-0.0031722195 -0.023081748 0.06642916 0.0069091427 0.08439249 -0.000927074 -0.007875723 -0.024634723
0.012681553 -0.014210101 0.076624095 0.07349289 0.013522818 0.02841664 0.016299697 0.014427377
0.042408593 -0.049804017 -0.011567142 0.017869743 0.061485022 -0.027611358 0.012909636 0.0058686133
0.009596738 0.12858482 -0.018982137 0.030305406 -0.020962983 0.04760741 0.008932527 0.025951564
0.06644014 0.03554742 0.043547943 0.03112471 -0.024497567 0.060060676 -0.056971148 0.0077295825
0.03765232 -0.06449836 0.04827508 0.0401577 0.07202446 -0.04079911 0.012743554 -0.028152518
0.05630766 -0.05442141 0.04287281 0.026894547 0.013729487 0.022427833 -0.06135339 0.03989655
0.008500842 0.103266485 -0.015531942 0.07667271 -0.0097483685 0.050291132 0.04610624 -0.0046681645
0.057884227 -0.05319724 -0.00966399 0.035298616 0.034578167 -0.019139962 0.017964778 0.101397075
00000000: c6a1 a1bc fff7 ec3c b81e 78bc fba3 e43c
00000010: 5f75 663b be54 eb3b 206f 01bb 8143 cebc
00000020: 59cf a5bc 090b c0ba e88d a23c 7fa6 45bd
00000030: 890f 8dbd 8ddb c1bc ef73 843d 237d a03c
00000040: bde7 cdbc 17f4 233a 771c 4e3d 40ec 63bd
00000050: 4145 56bc 344b 773d acf7 b83c 42bb 683d
00000060: 36b8 27bd fc38 5d3d 97f5 233d 03cd ffbc
00000070: 3795 85bd 6941 ba3c d40f 88bd 44e6 423d
00000080: b4cf 3bb9 0043 823d 9ee3 363d 5750 6b3d
00000090: 82ec 2e3c c174 083d e3bf e43b 17ab 9ebc
000000a0: 8c6a 763c a189 743d f84d 503d 4f50 d93c
000000b0: 2eff 8b3d ef28 d5bc 53d4 04bc 5dba 44bd
000000c0: 039e d0bb 4f22 1dbd 6c4c 32bc d817 413d
000000d0: 3bd2 40bd 6266 8c3d 5f8a 35bd 92a6 763c
000000e0: 5d77 493d a489 a2bc 34e4 9fbc 5a7a 0cbd
000000f0: d40f dd3c 9acf ffbb 8d66 05bd 8505 b7bb
00000100: c556 98bc 5580 9ebc 4c4c 5e3d 7310 5fbd
00000110: 0dcf 5dbc e4a9 93bc cfd1 b7bc 597d 073b
00000120: b775 cf39 f586 ebbb 96eb 873d 473b 14bd
00000130: 713e 403d 5a6e 8c3d 98ed 85bd 551d 16bd
00000140: 4ac0 4ebd 98b4 203d fc5e 8dbc 0df9 913c
00000150: f242 9d3d 5ead 7d3d a337 4abc 495e 59bd
00000160: d8d0 6f3d 18d2 873d 76f6 abbd 9024 653d
00000170: 5232 0dbc 3cb7 bebc 3b66 eabb 9baa 7ebd
00000180: e742 4d3d 8b6c a73d 60b3 7c3d f6db 4e3d
00000190: 302a 80bc f7b9 b0bc dd85 4bbc ca39 c53c
000001a0: 1f41 723d c6a3 cc3c cbeb 91bd cc12 903d
000001b0: f591 903d 4776 953b 35d0 7e3d ae9f 033d
000001c0: e8d9 ab3c fbba 9f3c 88d8 27bc 691a 4e3d
000001d0: 080c cc3b 2c12 293c 9dc3 f23c 2d6d d1bb
000001e0: e707 863d 6796 773d 83a4 98bc 77a6 babd
000001f0: 4347 903c a8ac 46bd 7163 223c 7f96 c43d
00000200: 607e 773d fe60 97bd ec51 f83c ac68 03bd
00000210: 38ea 87bd 3bcb 803d b8ef 1bbd be94 d13c
00000220: a6ef 06bc bb95 a13c 4532 84bd 18d4 943d
00000230: d978 6b3d f247 283d 113a 033d 7bbc 583d
00000240: 583e b43c bb1a 773d ac25 283d e7f5 813c
00000250: bd38 64bd caa7 96bd bfc3 14bd 8b0a 2c3d
00000260: 2305 283d 7417 363d d6ab f2bc 390d 303b
00000270: 5779 6abd 3834 4f3d 5b5c 983c 62f6 5cbd
00000280: f256 503a 4d0b 28bc f8ea 2a3d c9de 8d3d
00000290: d66f 27bd dbfc fa3c f479 02bd 7a00 88bd
000002a0: 7e5f 5b3c adf6 0fbb 3ceb dfbd ff5d b3bc
000002b0: e302 2d3d c392 59bd 7b40 fbbb a35d 05bd
000002c0: b20b adbd 3e54 a7bd f9ef 1c3b 198f 63bd
000002d0: 63dd 4bbd 8433 a33d 2e18 b23d 6780 39bd
000002e0: 03e5 4fbb ef15 bdbc 030c 883d 1766 e23b
000002f0: f8d5 ac3d e206 73ba 2d09 01bc c2ce c9bc
00000300: 4ac6 4f3c 7cd1 68bc 18ed 9c3d 7183 963d
00000310: cf8e 5d3c 03ca e83c f186 853c ce60 6c3c
00000320: a2b4 2d3d 4cff 4bbd 1c84 3dbc 9163 923c
00000330: b8d7 7b3d 3731 e2bc f082 533c 7f4d c03b
00000340: a33b 1d3c bdab 033e 6d80 9bbc 0b43 f83c
00000350: 90ba abbc fdff 423d bc59 123c 6098 d43c
00000360: c511 883d 2c9a 113d 545f 323d 3ff9 fe3c
00000370: 1faf c8bc 2f02 763d 945a 69bd 7048 fd3b
00000380: 5239 1a3d b717 84bd 17bc 453d 677c 243d
00000390: 8f81 933d f81c 27bd 57ca 503c 1ca0 e6bc
000003a0: dca2 663d fce8 5ebd 669b 2f3d f451 dc3c
000003b0: a4f1 603c 93ba b73c b14d 7bbd 916a 233d
000003c0: 1e47 0b3c 617d d33d b079 7ebc 9506 9d3d
000003d0: 9fb7 1fbc 13fe 4d3d e6d9 3c3d 67f7 98bb
000003e0: 0318 6d3d 59e5 59bd b655 1ebc 4895 103d
000003f0: d6a1 0d3d 69cb 9cbc df2a 933c 45a9 cf3d

2.bias f4 [256]
-0.0062400308 -0.013698444 -0.038293928 -0.028685188 -0.0009056984 0.006073749 -0.023609465 -0.047336984
-0.039766785 0.03156731 0.0032757223 0.07482451 0.024545828 -0.055713885 0.048909843 0.07868446
0.011679691 0.06737449 -0.04829794 -0.043776833 -0.015926214 0.03802067 0.02096106 0.0155582065
-0.048844244 0.018749502 0.009305037 0.016391406 0.06061114 -0.0063167037 0.0023236922 -0.007863588
0.0061863456 0.046457104 0.03724262 -0.010680188 -0.036408637 0.04360411 0.059617173 0.05183601
-0.0547963 -0.062246025 0.029051349 0.05638743 -0.03886018 -0.00032051431 0.0034542647 0.03995401
0.0077807386 -0.048904248 -0.02945851 -0.023269659 7.455114e-05 -0.051053185 0.037757497 0.0707278
0.0355652 0.021591865 -0.04440694 0.012331792 -0.054778393 0.011480496 -0.01948021 -0.02161148
0.037614405 -0.04974147 -0.029733391 0.020578578 -0.0052748737 0.055385318 -0.05401904 0.053420812
-0.0131303165 0.012961541 0.016505644 0.074037366 -0.037070915 0.052246843 -0.05608445 -0.032442477
0.029231083 0.061936338 -0.04727576 -0.0090477625 -0.036086068 -0.029027931 -0.049430437 -0.0020200708
-0.023777239 -0.016298223 0.059268977 -0.010508292 0.032713152 -0.04283488 -0.0559424 0.048477218
0.02232492 -0.022630615 0.04638289 0.017561046 0.0010884728 0.0602942 -0.028795173 0.01509371
0.038520712 -0.032960348 0.068496324 0.011842461 0.06345435 -0.03528326 0.0071200794 0.07120036
0.0044944314 -0.035212297 -0.013905252 0.020375907 0.038678028 -0.04140972 0.01318433 0.018991185
-0.021127993 -0.04273894 0.01880784 -0.0016060492 -0.013654416 0.027498377 -0.01529496 0.016230742
0.036740206 0.01594464 -0.005883681 -0.03984558 0.0626234 0.025695456 0.023642754 -0.03741079
-0.011307169 -0.044518143 0.015498884 0.025737582 0.012510717 -0.037998162 0.031049917 -0.016005697
0.05176156 0.044290923 0.008136645 0.007092213 -0.055782553 0.042970628 0.004390791 0.016041104
0.06080699 -0.048597403 -0.050986078 0.019789834 -0.050507575 -0.03322366 0.0027046145 0.0077913166
0.015896833 -0.038084265 -0.04101505 -0.056853723 0.03262495 0.0304524 -0.009707051 0.05960478
-0.0028668446 0.03790519 0.0008008189 0.023776174 0.009291766 0.01758251 -0.053753108 -0.020334255
0.07438991 0.042900592 0.058957174 -0.023694456 0.0034274347 -0.003197649 -0.025050243 -0.06361084
-0.002623717 0.0106026465 0.0031275952 0.040094893 0.021085622 -0.039401513 -0.06681452 0.002099725
0.018617505 -0.012537847 0.04877698 -0.024613589 -0.019081041 -0.017262517 -0.028048605 0.056976493
0.04879293 -0.024399519 0.013337871 -0.016756251 0.014381711 -0.03808036 0.09160123 0.062118717
0.004409434 0.04223302 -0.023236165 -0.05047796 0.04859809 0.058635443 0.03555763 -0.015074113
0.06642634 -0.027189953 0.012515428 -0.014297646 -0.033576004 0.068796 0.031745296 0.0068395217
0.021938857 0.022014923 0.055582378 0.0090641845 -0.025998302 0.006121228 0.003563357 0.07864865
-0.028353108 0.020762691 -0.02159927 0.025110343 -0.0020372064 0.04245187 -0.015176889 -0.006718728
0.0050053964 0.015070465 0.053268526 -0.041811246 -0.01932016 -0.033404905 0.037095536 -0.018648641
-0.022571633 -0.022556597 -0.026870418 0.051612455 0.02519236 -0.0056616315 -0.013356155 -0.015163859
00000000: 2c79 ccbb 706f 60bc 18da 1cbd 33fd eabc
00000010: 646c 6dba 4d06 c73b a368 c1bc 6de4 41bd
00000020: 7fe2 22bd b94c 013d 80ad 563b 983d 993d
00000030: 5514 c93c 3e34 64bd b055 483d 5125 a13d
00000040: 2d5c 3f3c a3fb 893d 10d4 45bd 564f 33bd
00000050: b177 82bc 90bb 1b3d 87b6 ab3c d9e7 7e3c
00000060: e710 48bd 8e98 993c 2774 183c 4547 863c
00000070: 6343 783d 5afc cebb 1649 183b 47d6 00bc
00000080: d4b6 ca3b ce49 3e3d b88b 183d f5fb 2ebc
00000090: 3921 15bd 399a 323d 2331 743d ff51 543d
000000a0: 1672 60bd b0f5 7ebd 18fd ed3c 81f6 663d
000000b0: da2b 1fbd b40a a8b9 f260 623b d1a6 233d
000000c0: 91f5 fe3b d24f 48bd f952 f1bc 03a0 bebc
000000d0: 5758 9c38 251d 51bd 9ba7 1a3d bdd9 903d
000000e0: d1ac 113d 6ce1 b03c 0de4 35bd 490b 4a3c
000000f0: 4f5f 60bd b118 3c3c f694 9fbc 8f0a b1bc
00000100: 9011 1a3d b6bd 4bbd 7193 f3bc 6894 a83c
00000110: d9d8 acbb b7db 623d 1243 5dbd c8cf 5a3d
00000120: 8a20 57bc a55c 543c d836 873c e7a0 973d
00000130: acd7 17bd c900 563d cfb8 65bd 67e2 04bd
00000140: 0676 ef3c f5b0 7d3d 3aa4 41bd 113d 14bc
00000150: fcce 13bd fccb edbc 9277 4abd 2a63 04bb
00000160: 7cc8 c2bc da83 85bc 07c4 723d f92a 2cbc
00000170: 3afe 053d a173 2fbd dc23 65bd 0c90 463d
00000180: c0e2 b63c d763 b9bc fcfb 3d3d 2fdc 8f3c
00000190: 16ab 8e3a 0df7 763d dbe3 ebbc 9c4b 773c
000001a0: e5c7 1d3d 6e01 07bd cd47 8c3d e206 423c
000001b0: 5bf4 813d 2e85 10bd 8e4f e93b 7fd1 913d
000001c0: 0646 933b c53a 10bd dbd2 63bc 60eb a63c
000001d0: da6c 1e3d 3d9d 29bd 1703 583c 6793 9b3c
000001e0: 9d14 adbc 070f 2fbd e612 9a3c 1282 d2ba
000001f0: c6b6 5fbc 4744 e13c b697 7abc 55f6 843c
00000200: e67c 163d 559e 823c e5cb c0bb 1e35 23bd
00000210: b240 803d 477f d23c 73ae c13c 0e3c 19bd
00000220: b441 39bc a858 36bd 08ef 7d3c 9fd7 d23c
00000230: c0f9 4c3c f6a3 1bbd 655c fe3c 611e 83bc
00000240: ee03 543d 666a 353d 904f 053c cb65 e83b
00000250: 3f7c 64bd f801 303d a0e0 8f3b a268 833c
00000260: c010 793d 120e 47bd c7d6 50bd 4a1e a23c
00000270: 08e1 4ebd 8815 08bd e73f 313b 4d4e ff3b
00000280: 133a 823c 3ffe 1bbd 66ff 27bd 73df 68bd
00000290: bda1 053d 5077 f93c 530a 1fbc 2424 743d
000002a0: ace1 3bbb 7942 1b3d 0cee 513a 40c6 c23c
000002b0: 7e3c 183c 3209 903c 382c 5cbd 0694 a6bc
000002c0: bd59 983d 88b8 2f3d 147d 713d e01a c2bc
000002d0: d09e 603b a68f 51bb 2b36 cdbc 6646 82bd
000002e0: abf2 2bbb b9b6 2d3c 57f8 4c3b 8b3a 243d
000002f0: c1bb ac3c 7b63 21bd 0dd6 88bd 8a9b 093b
00000300: bd83 983c 8b6b 4dbc 5fca 473d 70a2 c9bc
00000310: d84f 9cbc 1f6a 8dbc 30c6 e5bc 2f60 693d
00000320: 18db 473d 80e1 c7bc 1687 5a3c 6844 89bc
00000330: 45a1 6b3c 27fa 1bbd 6d99 bb3d 3270 7e3d
00000340: 037d 903b 88fc 2c3d c559 bebc fac1 4ebd
00000350: ca0e 473d b82b 703d e1a4 113d 6af9 76bc
00000360: 880a 883d 77bd debc 820d 4d3c ac40 6abc
00000370: fe86 09bd ebe4 8c3d 5b07 023d 111e e03b
00000380: 1eb9 b33c a458 b43c 59aa 633d f281 143c
00000390: 64fa d4bc 9594 c83b 3687 693b 8b12 a13d
000003a0: c744 e8bc 8516 aa3c f4f0 b0bc 35b4 cd3c
000003b0: a782 05bb 03e2 2d3d 7ca8 78bc c728 dcbb
000003c0: 4f04 a43b 1dea 763c 1930 5a3d 4542 2bbd
000003d0: 5045 9ebc 95d3 08bd 7df1 173d 09c5 98bc
000003e0: 25e8 b8bc 9dc8 b8bc 5a1f dcbc 9567 533d
000003f0: 3560 ce3c 3585 b9bb c6d3 5abc d671 78bc

4.weight f4 [128, 256]
-0.017239552 -0.07043305 0.01817048 0.06939284 0.01593318 -0.04005716 0.027829483 0.002795661
-0.01854389 -0.037012577 0.018548874 -0.052557547 -0.0520572 0.036184005 0.041137498 0.041464627
-0.0031480337 -0.028791938 0.027229842 -0.03211389 0.062322713 0.0039316635 0.0144735295 -0.08971983
0.025272114 -0.011000215 0.08492708 0.0032966922 0.0043733343 0.041642297 0.030871816 -0.030909296
-0.01214941 0.002462241 0.071907975 0.015206274 -0.038734708 0.050063893 0.029439313 -0.046736643
0.060432095 -0.04031374 0.04265698 0.04013507 0.057844125 0.036825456 -0.012023469 0.048169192
0.012934655 -0.0131409345 0.036052905 -0.045365445 -0.021244915 0.06885438 -0.006815439 -0.073879056
0.032509785 0.004510523 -0.02779094 0.062345933 -0.08208606 -0.020020163 -0.033754636 -0.048997797
-0.012798794 0.08396789 0.03195654 0.046791025 -0.0017375136 0.08214616 -0.024789292 0.01428128
0.05780285 0.03190001 -0.03556691 0.039879244 -0.039504472 0.07158673 0.062432904 0.034598336
0.019048471 0.020336995 0.03592698 -0.051787797 -0.050010476 -0.043694578 0.024235377 0.06915968
0.023675442 0.03808185 0.047678027 -0.016817931 0.05221349 -0.061499152 -0.05940275 -0.051131744
0.031466335 0.007417976 -0.04393003 -0.03844882 0.05717129 0.0014979782 -0.072249204 0.08168046
0.065013275 0.0144459475 0.053834166 -0.060946524 0.013116027 0.07596726 0.028470768 -0.07535369
-0.0509521 -0.014964276 -0.007862908 0.06966954 0.053740248 -0.035455927 0.008220662 0.030798122
-0.041364197 -0.0037497557 -0.027600199 0.038016945 -0.040889747 -0.019710137 0.020243905 -0.04791972
0.022675816 -0.02312398 -0.0072018956 0.019793399 0.012625298 -0.0007452071 -0.014953375 0.046520844
0.051067766 0.07789877 -0.05540678 0.04229112 0.018509222 -0.043666292 0.030160837 0.02505928
-0.016816802 -0.0026002554 -0.022878308 0.02123792 0.027986323 -0.0013633661 0.044089053 -0.059486527
0.061611667 -0.034380723 0.032623477 -0.022948291 -0.048181087 -0.038275935 0.04767869 0.06947656
0.054644197 -0.0069907187 0.09162636 0.06250211 0.034652818 -0.047384538 0.028631248 0.018157046
0.006946118 -0.0114365015 0.02395576 0.024847519 -0.048166268 0.06471104 0.024042277 0.05829925
-0.035892308 0.015266316 -0.01980407 -0.011008513 -0.018076912 0.032620955 0.0423646 0.02396192
-0.055418953 -0.033336964 -0.0073799044 0.06952463 0.044650465 0.06782621 -0.021324297 0.059931774
0.033921435 -0.032050844 -0.007523045 0.08822957 -0.0695432 0.010860441 -0.008419307 -0.064291015
0.052638564 -0.05006367 -0.02205505 -0.010424875 -0.026440786 0.045386452 0.008912539 0.047835704
0.064888984 0.04821771 0.031970974 -0.06636695 -0.008706038 0.06274916 0.042478524 -0.014318113
0.052762464 0.00083443994 0.006291234 -0.0792563 -0.014945101 -0.046476584 0.069745205 0.003659954
0.052928686 0.038404476 -0.01003354 -0.05771233 0.029604405 -0.05019277 0.036881782 0.0004822
0.044402737 -0.02846174 0.03662026 -0.046090964 0.0036491381 0.044645354 0.04845655 -0.021680573
-0.0048114546 0.02817684 -0.06085243 0.084270105 0.092404224 0.017193649 0.055824444 -0.03520477
0.0197351 0.011752501 0.014549716 -0.062288206 0.06961826 0.10422577 0.039984636 0.082957305
00000000: f639 8dbc 343f 90bd 42da 943c d51d 8e3d
00000010: 4d86 823c fa12 24bd a8fa e33c 6937 373b
00000020: 5be9 97bc 809a 17bd cff3 973c 9546 57bd
00000030: ee39 55bd ae35 143d cb7f 283d d0d6 293d
00000040: 3e4f 4ebb 12dd ebbc 1e11 df3c db89 03bd
00000050: 1a46 7f3d 2fd5 803b 6222 6d3c 08bf b7bd
00000060: 7707 cf3c 3f3a 34bc 40ee ad3d 510d 583b
00000070: 304e 8f3b 1d91 2a3d e4e6 fc3c 7e35 fdbc
00000080: 520e 47bc 8d5d 213b 7d44 933d bc23 793c
00000090: 49a8 1ebd cc0f 4d3d b72a f13c ec6e 3fbd
000000a0: a587 773d 0520 25bd 16b9 2e3d ac64 243d
000000b0: f6ed 6c3d 4ad6 163d 16fe 44bc 0f4d 453d
000000c0: e0eb 533c 134d 57bc 36ac 133d 1ed1 39bd
000000d0: d109 aebc 8603 8d3d 0c54 dfbb e74d 97bd
000000e0: fb28 053d 02cd 933b d3a9 e3bc 735e 7f3d
000000f0: bc1c a8bd 5301 a4bc 4d42 0abd eab1 48bd
00000100: 08b2 51bc 5bf7 ab3d dce4 023d f2a7 3f3d
00000110: 48bd e3ba 3f3c a83d ea12 cbbc 08fc 693c
00000120: aec2 6c3d 96a9 023d 9cae 11bd 6b58 233d
00000130: 71cf 21bd 109c 923d a5b9 7f3d fcb6 0d3d
00000140: 8a0b 9c3c c599 a63c 2b28 133d 711f 54bd
00000150: c9d7 4cbd 16f9 32bd 4589 c63c 97a3 8d3d
00000160: 00f3 c13c b7fb 1b3d 094a 433d c2c5 89bc
00000170: d0dd 553d 89e6 7bbd 4c50 73bd 856f 51bd
00000180: d8e2 003d 7e12 f33b faef 33bd 837c 1dbd
00000190: 712c 6a3d cf57 c43a 64f7 93bd 1648 a73d
000001a0: ae25 853d b2ae 6c3c 3781 5c3d 10a3 79bd
000001b0: 9be4 563c b994 9b3d 873b e93c 0953 9abd
000001c0: 26b3 50bd b92c 75bc 6dd3 00bc e7ae 8e3d
000001d0: bc1e 5c3d 3c3a 11bd f5af 063c 584c fc3c
000001e0: 816d 29bd 76be 75bb d019 e2bc a8b7 1b3d
000001f0: 027c 27bd 2777 a1bc 8cd6 a53c 7847 44bd
00000200: a2c2 b93c 806e bdbc e1fd ebbb c425 a23c
00000210: 57da 4e3c 005a 43ba 00ff 74bc a48c 3e3d
00000220: 6f2c 513d 6489 9f3d 38f2 62bd 7439 2d3d
00000230: a7a0 973c 6ddb 32bd dc13 f73c 1f49 cd3c
00000240: 64c3 89bc 0c69 2abb 4a6b bbbc 25fb ad3c
00000250: 9343 e53c fab2 b2ba b996 343d 25a8 73bd
00000260: 845c 7c3d cdd2 0cbd 32a0 053d 0efe bbbc
00000270: 8859 45bd 3ac7 1cbd bb4a 433d ba49 8e3d
00000280: 98d2 5f3d 6612 e5bb 9aa6 bb3d 1b01 803d
00000290: 1df0 0d3d 4a16 42bd 148c ea3c 16be 943c
000002a0: 439c e33b 2a60 3bbc df3e c43c 068d cb3c
000002b0: fe49 45bd 3987 843d 4ff4 c43c 32cb 6e3d
000002c0: d003 13bd 921f 7a3c 253c a2bc 0d5d 34bc
000002d0: 0816 94bc 8d9d 053d 8186 2d3d ca4b c43c
000002e0: fcfe 62bd 578c 08bd 20d3 f1bb ee62 8e3d
000002f0: 68e3 363d 78e8 8a3d 4bb0 aebc 057b 753d
00000300: 34f1 0a3d bf47 03bd e083 f6bb b4b1 b43d
00000310: aa6c 8ebd feef 313c 22f1 09bc 02ab 83bd
00000320: 899b 573d 900f 4dbd cbac b4bc 18cd 2abc
00000330: 599a d8bc 25e7 393d e605 123c 5fef 433d
00000340: 84e4 843d ef7f 453d fff3 023d 65eb 87bd
00000350: c5a3 0ebc a282 803d f6fd 2d3d 8596 6abc
00000360: 741d 583d 51be 5a3a b226 ce3b 2151 a2bd
00000370: 4cdc 74bc 3b5e 3ebd 93d6 8e3d d7db 6f3b
00000380: c0cb 583d 034e 1d3d b863 24bc c463 6cbd
00000390: f084 f23c ef96 4dbd 5a11 173d cacf fc39
000003a0: a5df 353d 9828 e9bc 20ff 153d e1c9 3cbd
000003b0: 6126 6f3b 0cde 363d 607a 463d 759b b1bc
000003c0: 68a9 9dbb 1ed3 e63c 6640 79bd ce95 ac3d
000003d0: 6d3e bd3d b2d9 8c3c 2ca8 643d e032 10bd
000003e0: 81ab a13c 908d 403c ef61 6e3c eb21 7fbd
000003f0: 0594 8e3d 5274 d53d eec6 233d 85e5 a93d

4.bias f4 [128]
0.0533304 0.017080557 0.06273777 0.006323641 0.05285201 0.01875865 0.05348573 0.0483116
0.046440613 -0.04802461 0.012902003 -0.04402296 0.032147642 0.042983644 -0.02076917 0.0008041858
-0.032202866 0.06193542 0.055651322 -0.03450036 0.057606 0.020005737 0.02208323 -0.01486208
0.0051621497 -0.03580233 0.0016794427 0.0042011426 -0.04565067 0.03419029 -0.04346062 -0.036868256
-0.035066567 -0.019109376 -0.03705593 -0.019402286 0.048875857 -0.054968193 -0.019172769 0.055702318
-0.03723312 0.06451373 -0.008293443 -0.062695965 0.054356094 0.020845829 -0.03815886 -0.037352685
0.0030111095 -0.036569666 0.06237764 0.02850075 0.04622774 -0.053740736 0.05810592 0.014940649
-0.03834165 0.03424142 0.028248355 -0.007585228 0.04706673 -0.0349349 -0.04548435 -0.041214526
0.043718632 0.049589485 -0.024430018 -0.06572759 0.045672666 -0.00414542 0.01982754 0.0023091997
-0.052987948 0.0027387866 -0.020511383 -0.028409142 0.047785297 0.03860345 -0.041426808 -0.0047080196
0.047979314 -0.023593407 -0.023435542 -0.011970993 -0.061213452 -0.040798943 0.069966905 0.059225272
-0.019033387 0.065571204 0.00036548346 -0.04065919 0.049021907 0.06275411 0.0556719 0.0045144437
-0.053666588 0.0019567115 -0.06365587 0.0033588575 -0.0077723833 -0.042052317 0.05710814 0.033486053
0.0018582257 0.052319147 0.03909918 0.019897908 -0.018766297 0.03178186 0.031707957 -0.04746958
0.015590793 -0.0076900637 0.0041565592 0.047107887 -0.034308624 -0.030780585 0.034522764 -0.002187021
-0.04026717 -0.009475219 0.0051221233 0.0042473 -0.028023891 0.058741324 -0.035342265 0.004519324
00000000: fa70 5a3d 86ec 8b3c a97c 803d 8c36 cf3b
00000010: 597b 583d beab 993c da13 5b3d 62e2 453d
00000020: 8338 3e3d 74b5 44bd ec62 533c 6b51 34bd
00000030: 3fad 033d 9e0f 303d 1b24 aabc ffcf 523a
00000040: 27e7 03bd ffaf 7d3d a4f2 633d 4050 0dbd
00000050: 45f4 6b3d 12e3 a33c e4e7 b43c 1580 73bc
00000060: 4027 a93b 77a5 12bd bf20 dc3a bda9 893b
00000070: 32fc 3abd 1e0b 0c3d c303 32bd 2b03 17bd
00000080: f6a1 0fbd 448b 9cbc f5c7 17bd 8bf1 9ebc
00000090: 0d32 483d 5426 61bd 3610 9dbc 1d28 643d
000000a0: c281 18bd c61f 843d 39e1 07bc be66 80bd
000000b0: 7fa4 5e3d dfc4 aa3c 774c 1cbd 21ff 18bd
000000c0: 0956 453b 13ca 15bd b27f 7f3d 687a e93c
000000d0: 4c59 3d3d 3f1f 5cbd 7900 6e3d a0c9 743c
000000e0: 220c 1dbd bb40 0c3d 1869 e73c 818d f8bb
000000f0: 0bc9 403d e617 0fbd cc4d 3abd 90d0 28bd
00000100: 4f12 333d 581e 4b3d 7621 c8bc 309c 86bd
00000110: 4313 3b3d 4ed6 87bb 5d6d a23c f155 173b
00000120: e409 59bd 377d 333b 7d07 a8bc 4aba e8bc
00000130: 84ba 433d a71e 1e3d 28af 29bd bb45 9abb
00000140: f585 443d f646 c1bc e5fb bfbc fc21 44bc
00000150: f5ba 7abd cb1c 27bd cf4a 8f3d 3396 723d
00000160: e8eb 9bbc 324a 863d 5c9e bf39 408a 26bd
00000170: 32cb 483d 3a85 803d 3808 643d e6ed 933b
00000180: 7fd1 5bbd 2c3c 003b 025e 82bd 4720 5c3b
00000190: 7aaf febb 0d3f 2cbd 3aea 693d ac28 093d
000001a0: b58f f33a 9a4c 563d 7626 203d f000 a33c
000001b0: c7bb 99bc b22d 023d 34e0 013d 766f 42bd
000001c0: 8770 7f3c eefc fbbb bf33 883b 33f4 403d
000001d0: 3387 0cbd 9127 fcbc be67 0d3d 2054 0fbb
000001e0: 30ef 24bd f33d 1bbc 7cd7 a73b ef2c 8b3b
000001f0: 5c92 e5bc be9a 703d 0dc3 10bd d616 943b

6.weight f4 [128, 128]
-0.05369178 0.063576676 -0.006096476 0.04378312 -0.00094964594 -0.059531532 0.05995502 0.06700868
0.062534966 0.06737562 -0.08181169 0.01356862 0.01652531 0.05963881 -0.08070292 -0.0056747715
0.055655263 0.023755526 -0.06292261 -0.031235978 -0.038332094 0.015789684 0.03007346 -0.029605178
-0.011483058 0.035873663 -0.0594958 -0.014653876 -0.016668878 -0.0188889 0.05781337 0.06443339
0.055314593 -0.09075485 0.063603915 0.04484988 -0.045971397 0.020976655 -0.021264872 -0.030273462
0.063322805 0.08399893 0.0016329363 -0.037545003 -0.042588703 -0.06833467 0.040769957 -0.04772631
-0.014718719 -0.05895423 -0.048995756 -0.016962133 0.080527134 0.0035961191 -0.012896814 0.052472435
0.015651941 0.011023712 0.027888715 -0.06647415 -0.05609403 -0.012252696 0.048577197 -0.08104288
0.03144243 0.06969557 0.042791676 0.0034932203 0.017942958 -0.06741913 0.06653282 0.03288405
-0.0814433 -0.08858031 -0.040806446 -0.069179356 -0.02024776 -0.010108114 -0.057023697 0.018924959
-0.054830883 -0.038831122 0.04804426 -0.08184387 -0.044485796 -0.013097671 0.034811433 0.05551124
-0.0020896748 -0.070406705 0.052879807 -0.07083034 0.01617945 -0.0050029093 -0.0118665695 -0.058611926
-0.03226007 -0.06312234 -0.0026270554 0.007922493 0.025922947 -0.004168771 0.041347574 0.032123916
-0.081942655 -0.052730963 -0.051623806 -0.032672726 0.06877613 0.07363587 -0.051151887 -0.076581895
-0.048274595 0.003998977 -0.08652037 0.014645858 0.05224355 -0.04149648 -0.062803 -0.052730005
-0.01599691 0.029096065 -0.042248227 -0.013381681 -0.05795922 0.0046236957 0.03870123 0.004930742
0.081804805 0.043545466 -0.066279046 0.013602329 -0.011508034 -0.05804731 0.028129837 0.02900584
-0.004004321 -0.08565881 0.062274925 -0.032777198 0.07401693 0.058574095 0.03006026 -0.0049562845
-0.022319237 -0.03270023 0.046654068 -0.07819813 -0.0232763 -0.08730545 0.021125525 -0.052815393
-0.0075785853 -0.023348665 -0.09678896 -0.07184757 -0.0049152896 -0.05114749 -0.07174994 0.08310444
0.020131815 -0.029885538 0.027353134 -0.024442546 0.035201922 0.06765544 -0.021806344 -0.05149059
0.07398447 0.04549903 0.08453467 0.014701723 0.0511809 -0.056743678 0.068880826 -0.035116386
0.03544984 0.01265578 0.07108952 -0.07766289 0.072883114 0.08052781 0.078618616 0.007876463
0.011890292 -0.07208302 0.063214146 -0.011383311 -0.04826028 0.034587294 -0.013851561 -0.049601853
-0.053065464 0.058325052 0.075233385 -0.010286189 -0.025290579 -0.082901485 0.01995336 -0.023940545
-0.0802164 -0.07225821 0.07409184 -0.051543657 0.011013131 -0.039272286 0.020279607 0.021473393
0.081363834 -0.019758418 -0.06810917 -0.00034247932 -0.028598733 0.055336665 -0.0363017 -0.06807675
0.07184655 -0.051898174 -0.05195027 0.004979714 -0.09743722 0.024714652 -0.07717622 -0.087528385
0.06649204 -0.03157303 0.038188167 -0.019780468 0.018832857 -0.028375132 0.047059394 0.014354038
-0.0043315794 -0.0051774243 -0.02415991 0.06401383 0.07730371 0.07524635 0.01020256 -0.05621724
0.060105674 0.072128646 0.083024874 -0.003290583 0.045557417 -0.094496585 -0.07532147 0.057064243
0.0049010813 -0.05388493 0.0024674726 -0.050447874 0.028387222 -0.09245376 -0.06758943 0.073919944
00000000: e9eb 5bbd 7d34 823d f3c4 c7bb ee55 333d
00000010: a9f1 78ba 56d7 73bd 6593 753d d93b 893d
00000020: 5512 803d 3bfc 893d e38c a7bd eb4e 5e3c
00000030: 1660 873c d347 743d 9347 a5bd 6ff3 b9bb
00000040: c6f6 633d f39a c23c 92dd 80bd 98e2 ffbc
00000050: 1d02 1dbd 5e59 813c 9e5c f63c 8f86 f2bc
00000060: 7023 3cbc 43f0 123d deb1 73bd d016 70bc
00000070: 2c8d 88bc e5bc 9abc b6cd 6c3d a7f5 833d
00000080: 8e91 623d aedd b9bd c542 823d 82b4 373d
00000090: 814c 3cbd 3cd7 ab3c ab33 aebc 0d00 f8bc
000000a0: 63af 813d a207 ac3d 4008 d63a cac8 19bd
000000b0: 7e71 2ebd 0cf3 8bbd 66fe 263d aa7c 43bd
000000c0: c826 71bc fe79 71bd c6af 48bd 2cf4 8abc
000000d0: 69eb a43d deac 6b3b 294d 53bc 56ed 563d
000000e0: 8038 803c cd9c 343c e076 e43c 9923 88bd
000000f0: dbc2 65bd 88bf 48bc e2f8 463d cff9 a5bd
00000100: c7c9 003d 8dbc 8e3d 5346 2f3d 83ee 643b
00000110: 1cfd 923c 0a13 8abd 5c42 883d 6db1 063d
00000120: bfcb a6bd 9869 b5bd a924 27bd e8ad 8dbd
00000130: a1de a5bc 819c 25bc ae91 69bd 8408 9b3c
00000140: 5996 60bd 620d 1fbd 0fca 443d c29d a7bd
00000150: bd36 36bd 9d97 56bc 6f96 0e3d c15f 633d
00000160: edf2 08bb 6431 90bd 7f98 583d 7f0f 91bd
00000170: c48a 843c 72ef a3bb 006c 42bc 0f13 70bd
00000180: 2323 04bd 4946 81bd ad2a 2cbb 58cd 013c
00000190: 5c5c d43c 309a 88bb 135c 293d 5e94 033d
000001a0: 8dd1 a7bd 6cfc 57bd 7c73 53bd d6d3 05bd
000001b0: 80da 8c3d 67ce 963d a484 51bd f8d6 9cbd
000001c0: 95bb 45bd da09 833b 9731 b1bd 2ef5 6f3c
000001d0: 55fd 553d 37f8 29bd dc9e 80bd 6bfb 57bd
000001e0: f40b 83bc df5a ee3c 7a0c 2dbd d73e 5bbc
000001f0: a666 6dbd 5f82 973b 2e85 1e3d 1092 a13b
00000200: 4789 a73d bb5c 323d 4fbd 87bd 4edc 5e3c
00000210: 318c 3cbc 04c3 6dbd 8b70 e63c a89d ed3c
00000220: ae36 83bb e36d afbd fe13 7f3d 6241 06bd
00000230: 3096 973d 64eb 6f3d ef40 f63c 5468 a2bb
00000240: d5d6 b6bc adf0 05bd 5618 3f3d 5726 a0bd
00000250: f0ad bebc 33cd b2bd 700f ad3c f454 58bd
00000260: c855 f8bb b345 bfbc 4a39 c6bd d224 93bd
00000270: 7010 a1bb 0880 51bd a2f1 92bd a932 aa3d
00000280: 7aeb a43c 84d2 f4bc ae13 e03c bc3b c8bc
00000290: e42f 103d ef8e 8a3d 38a3 b2bc cce7 52bd
000002a0: 2b85 973d 315d 3a3d 8320 ad3d 7fdf 703c
000002b0: 10a3 513d 0f6c 68bd 6411 8d3d 33d6 0fbd
000002c0: da33 113d 305a 4f3c 6297 913d b90d 9fbd
000002d0: be43 953d c4eb a43d cc02 a13d 480c 013c
000002e0: 80cf 423c 43a0 93bd 6b76 813d 1181 3abc
000002f0: 92ac 45bd 68ab 0d3d a8f1 62bc 502b 4bbd
00000300: 2c5b 59bd 40e6 6e3d f613 9a3d 6787 28bc
00000310: 302e cfbc 41c8 a9bd 3b75 a33c f61e c4bc
00000320: 7f48 a4bd 1dfc 93bd 76bd 973d 711f 53bd
00000330: 6b70 343c fadb 20bd 6b21 a63c f8e8 af3c
00000340: 15a2 a63d 68dc a1bc d27c 8bbd cc8e b3b9
00000350: e447 eabc b3a8 623d 17b1 14bd d36b 8bbd
00000360: 4924 933d 2e93 54bd cec9 54bd de2c a33b
00000370: 2a8d c7bd 6276 ca3c 910e 9ebd 1542 b3bd
00000380: fb2c 883d b952 01bd 326b 1c3d a60a a2bc
00000390: 5d47 9a3c f772 e8bc 5ac1 403d 332d 6b3c
000003a0: ecef 8dbb 62a7 a9bb 01eb c5bc af19 833d
000003b0: 6851 9e3d c21a 9a3d a328 273c 0c44 66bd
000003c0: 5e31 763d 2fb8 933d f208 aa3d d2a6 57bb
000003d0: 6a9a 3a3d 6d87 c1bd 2542 9abd 32bc 693d
000003e0: 4099 a03b 72b6 5cbd 52b5 213b 6ea2 4ebd
000003f0: 528c e83c 6658 bdbd 546c 8abd 5763 973d

6.bias f4 [128]
-0.082963355 0.02441919 -0.07007946 0.03757949 -0.07928393 0.08100438 0.031180741 -0.035544366
-0.04236591 0.033349257 -0.00394123 0.029657621 0.02040714 -0.05392248 0.071422234 -0.05630896
-0.003571769 -0.04535028 0.0479 0.078873076 0.047807273 -0.057838224 0.053249326 -0.06747198
-0.072301365 0.011473538 -0.05236242 -0.1019976 -0.068850845 -0.043939106 -0.0732722 0.037807584
-0.018040635 -0.036996752 0.029332252 0.09464758 0.00356727 0.009972741 -0.060877964 -0.01603295
-0.046188716 0.024461616 0.034387965 0.039563034 0.08342209 0.07942957 -0.013149061 0.01956787
0.08730975 0.08392452 -0.08230406 -0.0006827168 0.085759744 0.07940884 -0.06883196 -0.013947714
0.025817212 -0.021204881 0.04148321 0.08557809 -0.039117865 0.06765679 0.042489845 0.08546168
-0.023965191 0.09330292 0.07413761 0.0153346285 0.052387767 -0.07114426 -0.049657524 0.022502922
0.0311266 -0.014316416 0.0050543738 0.013282683 0.027332239 -0.03667272 -0.042072784 0.008459449
0.005597869 -0.043297432 -0.05695118 -0.047232218 -0.032821912 -0.025783516 0.045104858 0.05112914
0.017118417 -0.038001895 0.09124791 -0.047473047 -0.0797273 0.032255497 0.06443026 -0.032291356
0.044153497 0.05026445 0.08318488 0.03746008 0.06375335 0.02032876 0.05298564 0.07796716
-0.04994115 -0.07356956 -0.044721805 0.06306721 -0.07795349 -0.020804308 -0.013319575 0.087335154
-0.06891696 -0.009426634 -0.09080405 0.07540058 -0.01679604 -0.040456392 -0.005728656 -0.041318208
0.01023104 0.015282487 0.0711254 -0.06299108 0.064951755 0.05138072 -0.07994169 0.009046256
00000000: b1e8 a9bd c10a c83c d285 8fbd f4ec 193d
00000010: 9d5f a2bd a0e5 a53d c16e ff3c f896 11bd
00000020: e087 2dbd 3b99 083d 6f25 81bb 8af4 f23c
00000030: e02c a73c d2dd 5cbd d245 923d 39a4 66bd
00000040: 5714 6abb 37c1 39bd ca32 443d 3588 a13d
00000050: 8fd1 433d c6e7 6cbd f71b 5a3d c02e 8abd
00000060: bd12 94bd 82fb 3b3c fa79 56bd 1ee4 d0bd
00000070: ac01 8dbd 7ef9 33bd bc0f 96bd 20dc 1a3d
00000080: f4c9 93bc e889 17bd 314a f03c 97d6 c13d
00000090: dcc8 693b b564 233c 2c5b 79bd 8857 83bc
000000a0: 6130 3dbd ba63 c83c 65da 0c3d d90c 223d
000000b0: 33d9 aa3d f8ab a23d 296f 57bc cc4c a03c
000000c0: 74cf b23d 9ee0 ab3d 088f a8bd 59f8 32ba
000000d0: cea2 af3d 1aa1 a23d c5f7 8cbd f484 64bc
000000e0: 9e7e d33c dcb5 adbc 4cea 293d 9143 af3d
000000f0: 0e3a 20bd a58f 8a3d d509 2e3d 8906 af3d
00000100: a652 c4bc 9a15 bf3d 76d5 973d 183e 7b3c
00000110: 8e94 563d 15b4 91bd b065 4bbd 0c58 b83c
00000120: 36fd fe3c 678f 6abc 299f a53b 9c9f 593c
00000130: dce7 df3c 2236 16bd 8354 2cbd 8099 0a3c
00000140: 546e b73b a658 31bd a445 69bd 9276 41bd
00000150: 4570 06bd f437 d3bc dfbf 383d ca6c 513d
00000160: ec3b 8c3c e0a7 1bbd 2fe0 ba3d 1973 42bd
00000170: 1148 a3bd 571e 043d 03f4 833d f143 04bd
00000180: 4cda 343d 19e2 4d3d d65c aa3d be6f 193d
00000190: 1e91 823d 8088 a63c 7807 593d 3fad 9f3d
000001a0: 178f 4cbd a3ab 96bd 362e 37bd 6229 813d
000001b0: 14a6 9fbd cc6d aabc 593a 5abc c6dc b23d
000001c0: 5624 8dbd 2b72 1abc 79f7 b9bd 9f6b 9a3d
000001d0: d997 89bc 9ab5 25bd 73b7 bbbb 483d 29bd
000001e0: 18a0 273c 6563 7a3c 32aa 913d 7801 81bd
000001f0: 6d05 853d 9774 523d 78b8 a3bd bf36 143c
