models_adam/checkpoint18.pth.tar (torch_old, 6892 bytes, 8 tensors)

0.weight f4 [16, 10]
00000000: a14e 91be 803a a83d 2460 6abe f0b3 683e
00000010: 5f45 f6bd 899e 4d3f ea7e 41bc 3f6a 2c3e
00000020: a957 043e bdd7 88bc bb38 fc3c 26c1 453e
00000030: e68b 73bd 25bb 36bd bfb0 843e 293a 993e
00000040: 4371 463f b9bd 5f3e c1e0 54be b35b 6dbe
00000050: 6e34 263e 5d7f 98be 6a7b 57be 78b1 2fbe
00000060: d810 71bd 8459 91bd 092e 05be 2036 76be
00000070: c7ee 8ebe 0f1b 0ebe 7ef3 913d cf76 cabd
00000080: a964 4d3e 7127 363e 10b5 a7be 7e1c a13e
00000090: aa1d 393e edc3 ce3e 78f7 f83e 9484 3dbe
000000a0: fafc 9a3d 5ac5 b23e 1a6d 9f3e 4418 2f3f
000000b0: 700d c03d b0ee 353c e19e e83e 4ba6 89be
000000c0: b5d1 c43e dcbf 9bbd 6104 fa3e c235 f5bd
000000d0: 746e 1abe a890 1bbf 0fd5 303e 3cb3 4f3e
000000e0: e377 c73e 4030 65be 63b6 de3e 6496 63bd
000000f0: 35b6 753c 03bf 4f3d 7e2f 6e3d a586 903d
00000100: 4ed1 d3bf af9a 183e b6a9 3e3e a1c1 9c3d
00000110: f5bc 533e ed4a 923d c92e 4cbd c44f ad3d
00000120: 0e9f ab3d 1a73 0e3e 5c4c 2d3d 3f2c f9be
00000130: 4fb3 d2bc bf88 623f 593f 363d c87b 64bd
00000140: e5c7 1abe 7078 b2bb 9321 203f 5ff9 383d
00000150: 8af6 df3d 630b 293e db66 f33d a45c c93e
00000160: 1f34 393b 05c8 243a 35b0 643e aaa5 b53e
00000170: 34a2 93bf 57ba af3d f37b 293e 9137 c33d
00000180: 2df7 d23e ad01 e13e 6002 ad3e 32f3 3cbe
00000190: 4332 223f 63c7 e5bc 0bc4 bd3d fa8f ff3e
000001a0: f1ec 0cbe 22db 103e 9ca1 583e 5989 eb3d
000001b0: 7655 1abe 422a c0bc fd69 3f3e aa56 f1bf
000001c0: e9fd c53d 207e 323e 6112 ca3d c5c7 b23e
000001d0: 58d4 673e 3a5b ec3d 7191 443e 9977 57bc
000001e0: fc7b e53e f602 9c3e 84f7 b43e 8823 243d
000001f0: 46c3 3c3e 9dd8 d23e 47be dbbe c3b3 e13c
00000200: 42cc 203f 947a 84be 5998 e73e 2d86 4a3e
00000210: 98bc 853e 3e01 6b3e 9f14 833e 8f5a 743e
00000220: c0fc 3ebd 76b8 d13d f2a3 03bf ed7c c2bd
00000230: 4636 a53e 00e8 943d 1fc5 c93d 2b67 a53e
00000240: 94f6 9abe f743 583e 5a9d 9e3e 1003 323d
00000250: 4970 b03e 020c 37bf 1cab 4b3e 4440 4fbe
00000260: 6664 9ebe 624b 153f 6c91 ab3e 97fe d7bc
00000270: 0f92 4bbe 0907 88be 9d99 1b3e 8ef8 563d
-0.28380302 0.08214283 -0.22888237 0.2272489 -0.1202495 0.8032003 -0.011810044 0.16837405
0.12924065 -0.016704435 0.03078877 0.19311962 -0.05945959 -0.04461207 0.25916097 0.29927185
0.77516574 0.21849717 -0.20788862 -0.23179512 0.16230938 -0.2978467 -0.21043172 -0.17157543
-0.058853954 -0.07097152 -0.13005842 -0.24044085 -0.27916548 -0.1387751 0.071265206 -0.09885942
0.2005793 0.17788483 -0.32755327 0.3146705 0.18077722 0.40383855 0.48626304 -0.18507606
0.07567783 0.34916192 0.31137925 0.683964 0.09377563 0.011104271 0.45433715 -0.26884684
0.38441244 -0.07604954 0.48831466 -0.11973144 -0.15081197 -0.607676 0.17268775 0.20283216
0.38958654 -0.22381687 0.43498525 -0.055563346 0.014997055 0.050719272 0.05815076 0.070569314
-1.654825 0.14902757 0.18619427 0.07654119 0.2067755 0.07143197 -0.049849305 0.0846248
0.08379947 0.13911095 0.04230915 -0.4866657 -0.025720267 0.8848991 0.044494007 -0.05578211
-0.15115316 -0.005446486 0.6255123 0.045159694 0.109356955 0.1650825 0.118848525 0.39328492
0.0028259826 0.0006285909 0.22332843 0.35477954 -1.1533875 0.085804634 0.16551189 0.09532083
0.41204205 0.4394659 0.33790874 -0.18452147 0.63357943 -0.028049177 0.09265908 0.49914533
-0.13762261 0.14146093 0.21155399 0.11500806 -0.15071663 -0.02345765 0.18692775 -1.8854573
0.0966757 0.17430925 0.09866787 0.34918037 0.22639596 0.115408376 0.19196106 -0.013151073
0.44821155 0.3047101 0.3534509 0.040072948 0.18433866 0.41180888 -0.42918608 0.027551537
0.6281167 -0.2587477 0.4523342 0.19777746 0.26120448 0.22949693 0.2560167 0.2386267
-0.04662776 0.10240261 -0.51422036 -0.09496484 0.3226797 0.07270813 0.09852051 0.32305273
-0.3026625 0.21119677 0.30979425 0.043459952 0.34460667 -0.715027 0.19889492 -0.20239359
-0.30935973 0.5831815 0.33509386 -0.026366515 -0.19879936 -0.26567867 0.15195318 0.052483134

0.bias f4 [16]
00000000: 23b4 903e 7b0a 11be 925d 7cbe 3f7b 23bf
00000010: 2289 9abe 79e3 7ebe 070b b83e 03a8 313e
00000020: c9f7 9abe a0e9 0cbf f176 09be ffe0 b43d
00000030: aa01 78be e12a 1abe 6967 38bf d903 d33e
0.28262433 -0.14164154 -0.24645069 -0.63859934 -0.3018275 -0.24891461 0.35945913 0.17349248
-0.3026717 -0.55043983 -0.13424279 0.08831977 -0.24219385 -0.1505542 -0.7203279 0.41213873

2.weight f4 [32, 16]
00000000: e62d cbbc e5d5 b9be 3074 6dbd f6e3 7cbe
00000010: e24f 72bc 4988 c23c 9c25 c53d 5c35 3b3d
00000020: a669 30be 5d70 bb3d ec36 ca3d 02f5 06bd
00000030: 39e6 e43e f076 ee3e 86aa 323e 16f0 843e
00000040: 14fe 613e 4547 c8bd 50bb 6abd 23c9 b7bc
00000050: d2e5 8a3e b5e6 b3be af16 233f 85ad d53d
00000060: 2215 37be bf06 353e 2086 853e 0c86 3ebf
00000070: 2df7 10be b387 11be b02b 8e3e ffb4 d9be
00000080: 16b4 543e 6170 c7bd c25e 173e de9d 0f3f
00000090: 04a0 48bf 38a4 febd 8eb8 45be 53ba 123f
000000a0: dbda 7c3e 16bf 653e abde b73d d61f 953e
000000b0: ffbf 7b3e 2798 4dbe 760c 153d 8da0 0cbe
000000c0: bbcb 993e ee2d 823e fc34 863d 1cfc b63d
000000d0: 496f 143f acd0 083e 513b 2ebe e269 1e3e
000000e0: 782e 863d cf94 6a3e ec80 73be 7653 a0bf
000000f0: da54 dd3e 796c 013e b565 f23e 7d80 02be
00000100: c2a9 3f3e a624 823e e83b 8a3d 1e65 363e
00000110: 4a14 e4bd e21e 6abe 5159 9d3d 79b1 c6be
00000120: 3ec6 2b3e f5ae 573e c5c9 223e e723 d9be
00000130: 43ec 98bd 27d1 03be c3f3 d93d 9258 bdbe
00000140: d3b0 30be e997 933e be84 143e bc71 e23e
00000150: c1c1 92be 735c 213e cdf6 d83e b9d4 493e
00000160: fb48 303e f3ab e03e 1f10 99be eacf 76be
00000170: a6f2 dbbe ae5a 70be 085a 94be c85e eebe
00000180: f215 0bbf 0767 c13e 365e 563e 37f4 af3c
00000190: 09e5 173e dd60 da3e 04a7 083e 97e7 163f
000001a0: cf8e 0d3e 5e54 b4be 0ff8 a53e a931 44be
000001b0: 39b1 a13e 4c5b a83e 73da 9a3e 63cd b6be
000001c0: d0aa cd3e 3696 cc3d 0679 283e ee3e 7e3d
000001d0: 8d4c 7b3e a808 3d3e 58d8 2bbd b135 1abf
000001e0: 9c98 b53e ad16 4a3c d6cd fdbc e072 91be
000001f0: e0b4 553e 3a0c 01bd a5d9 573e d98c 6dbe
00000200: 3364 173e 240b 173e 00b7 673b 0c1f 77bd
00000210: c7d8 673e 02f6 06be 804f 95be 9e3b b73e
00000220: ee9c 38be e258 513f ffe6 40be af34 163e
00000230: 5cec aabe e7df 00bf d944 0e3e dac1 ef3e
00000240: 5343 443e 9caa 6bbd c8da 4abe 5c45 953e
00000250: 35a4 16be 7f50 5a3e b9b5 9cbe 8435 69be
00000260: c2c2 3ebe 74d7 0f3c 07f9 813d e008 24bf
00000270: 2bb3 d43e e58b 07bb a7a7 093f 3324 f3be
00000280: d292 00be d995 5f3e fc19 fbbd f8f5 24bd
00000290: 42cf afbd c772 d3bd ca59 52bf a266 d5be
000002a0: 5d63 81bb d429 babe c780 e5bc 140c c5be
000002b0: 7091 973e e1fc 9d3e bdd7 4fbd c147 9d3d
000002c0: 86fc 273e 51a7 053e 6aaa 103e 8a84 763e
000002d0: 2382 6e3e 69b0 17bf 4aa9 65be b8e2 f63d
000002e0: ae93 dd3d 8fd3 03bf 3078 c93e e096 a53d
000002f0: c766 00be cb1e e23e 99c8 d9bd 85cb 393c
00000300: c2ec 60be 2841 4b3e 60ee 223e 7575 5dbe
00000310: c913 88be cd8b d93e 825d 49bf e08a 913e
00000320: c6db c43e 67cb 47be 2859 8abe 014c 363e
00000330: 606e a7bd 3ba6 87bd 8879 34be a783 9abd
00000340: 8bce 163d 43b0 263e 8432 093e fda2 ec3e
00000350: d4d3 ee3e 0300 57be cc01 0fbe 4d30 e63d
00000360: 5845 143f 387e dabe 3e06 c9be 41c7 973e
00000370: c657 8f3e 6bc6 a5be 3550 533e 8225 b23d
00000380: 09f9 eebe fe91 81be 34a4 873d 5020 7a3e
00000390: bcc3 e03d f25c 423e 21c2 2bbf 0a96 82be
000003a0: 18cf c23e 42d9 a2be 49eb 693e 7866 183f
000003b0: 5805 bd3e 488e ab3e d923 123e e8f7 15bd
000003c0: b874 f83d d68a 0f3d 28c2 1a3e 38b3 ee3e
000003d0: 1355 a1bd 4ad5 323f f62d 5e3e f778 3bbd
000003e0: 96e2 3dbd 4fe5 403e 3ff7 67be 28fa ae3e
000003f0: b038 e03e 8fe7 a0be 37e3 a73e cb38 dcbd
-0.02480216 -0.36296 -0.057972133 -0.24696335 -0.014789553 0.023746626 0.09626314 0.045705184
-0.17227802 0.09152291 0.09873757 -0.0329485 0.44706896 0.46575117 0.17447862 0.2596442
0.2206958 -0.097792186 -0.05730754 -0.022434777 0.27128464 -0.35136953 0.6370649 0.10433487
-0.17879155 0.17678355 0.26078892 -0.7442329 -0.1415679 -0.14211921 0.27767706 -0.42520902
0.20771822 -0.097382315 0.14782241 0.5610026 -0.78369164 -0.12433666 -0.19308683 0.5731556
0.24692862 0.22436175 0.089780174 0.2912585 0.2458496 -0.20077573 0.036388837 -0.1373312
0.30038247 0.25425667 0.06553075 0.08934805 0.5798231 0.13360852 -0.17014815 0.15470079
0.06551832 0.22908328 -0.23779649 -1.252547 0.432288 0.12639035 0.4734322 -0.12744327
0.18717101 0.25418586 0.067497075 0.1781201 -0.11136682 -0.22863343 0.076830514 -0.38807276
0.16774842 0.21062835 0.15897281 -0.42410204 -0.07466938 -0.12872754 0.10642197 -0.36981636
-0.17254953 0.28826836 0.14503762 0.44227397 -0.28663447 0.15757923 0.42375794 0.19710054
0.1721534 0.43881187 -0.29895112 -0.2410275 -0.42958564 -0.23472092 -0.28974938 -0.46556687
-0.5433036 0.37773916 0.20934376 0.021478755 0.14833464 0.42652026 0.13344961 0.5894713
0.13824008 -0.35220617 0.32415816 -0.19159569 0.31580523 0.32882154 0.3024479 -0.35703573
0.40169382 0.09989588 0.16452417 0.062071733 0.2454092 0.18460333 -0.04195437 -0.60238177
0.35467994 0.012334508 -0.03098194 -0.28407955 0.2086978 -0.0315058 0.21079119 -0.2319826
0.14784317 0.14750344 0.003535688 -0.060332343 0.22641288 -0.13179782 -0.29162216 0.35787672
-0.18028614 0.8177625 -0.18838118 0.14668535 -0.33383453 -0.5034165 0.13893451 0.46827585
0.19166307 -0.057535753 -0.19810021 0.2915448 -0.14711078 0.2131977 -0.30607393 -0.22774321
-0.18628982 0.008779395 0.06346326 -0.6407604 0.41542944 -0.002068275 0.5377144 -0.47488555
-0.12556008 0.21834506 -0.122608155 -0.040273637 -0.08584453 -0.103246264 -0.8216826 -0.41679865
-0.0039486126 -0.36360037 -0.028015507 -0.38485777 0.29603148 0.30856994 -0.050742853 0.076797016
0.16404924 0.13052107 0.14127508 0.24073997 0.2329183 -0.59253556 -0.2242786 0.12054962
0.10819183 -0.5149469 0.39349508 0.08085418 -0.12539206 0.44164118 -0.10633964 0.011340027
-0.21965316 0.19849074 0.15911245 -0.21626838 -0.26577595 0.42489472 -0.78658307 0.28426266
0.38448924 -0.19511186 -0.27021146 0.1780243 -0.08175349 -0.06623503 -0.17624485 -0.07544642
0.03681807 0.16278176 0.13398176 0.462181 0.46645987 -0.20996098 -0.13965529 0.112396814
0.5791831 -0.42674422 -0.39262575 0.29644206 0.27996653 -0.32377943 0.20636065 0.0869856
-0.46674374 -0.25306696 0.06623116 0.24426389 0.10974833 0.18980768 -0.6709309 -0.25505096
0.38048625 -0.3180638 0.2284366 0.59531355 0.3691814 0.3350699 0.14271487 -0.036613375
0.12131637 0.035044514 0.15113127 0.46621108 -0.07877555 0.69856703 0.2169722 -0.045769658
-0.046358667 0.18837474 -0.2265291 0.3417523 0.4379325 -0.31426665 0.3279054 -0.1075302

2.bias f4 [32]
00000000: e929 a6bb 3fd0 3fbe 7f56 bcbe 8531 c3be
00000010: 2284 eabe 2001 003e e194 11be 8c03 c23d
00000020: 8e27 543e fc77 3bbf 71ee cdbe 85ba 3fbe
00000030: 70ff a7bd c2b3 36be 95ff 55be bec0 073e
00000040: 5aca 8abe 9454 36bb 4d34 8ebe 7a73 47bd
00000050: 1bd7 09bf a44d d13d 9150 7f3d 633e e6bd
00000060: 2316 27bf bee8 01bf cb3e 1ebf 38db 36bf
00000070: 3fa6 0fbd f4b6 81be 0926 33be 3754 2ebc
-0.005070914 -0.18731783 -0.3678474 -0.38123718 -0.45803934 0.12500429 -0.14216949 0.09473333
0.20718214 -0.73229957 -0.4022098 -0.18723495 -0.08203018 -0.1784201 -0.20898278 0.13257119
-0.27107507 -0.0027821409 -0.27774277 -0.04869411 -0.5384385 0.10219887 0.062332693 -0.11242368
-0.6526815 -0.5074576 -0.61814564 -0.7142825 -0.035070654 -0.25334895 -0.17494978 -0.010640196

4.weight f4 [16, 32]
00000000: 169e babd c3b0 e83d 2d36 dcbd d943 dd3e
00000010: eb8f 223e d836 b33d 6a58 2e3f 0714 07be
00000020: f576 b6be 2e6c 273e 92a3 003e a73d 40bc
00000030: 94cb 23bd ad2c a3be c207 503d 05ab dcbc
00000040: 005f a13c d051 72be f705 fc3d 0fc1 1e3d
00000050: 35d7 053e 4476 ff3c 07db a73d 3259 b03e
00000060: 82b5 b93e bd38 a73e 5adc 2bbe 758f 103f
00000070: 0902 0ebf 78bc 023f 5044 3dbd fe37 193b
00000080: c9fd 293e 54ac c73e c1c8 12be 1ebf 233f
00000090: 037d 423e f4d9 17bd 9aa2 493e af05 673e
000000a0: 80b5 b4be 6b07 2b3f afb4 cd3e f422 463e
000000b0: cd38 4bbc a613 3abe 5951 28be f310 3ebe
000000c0: 10d6 8d3d 86b0 413e 693d 293e 9c2e 063f
000000d0: c18c febc a90c 9abd 5641 b63e cf94 d8bd
000000e0: 507f aebd eebd 11bc c19d 943e 99cf 8fbe
000000f0: e443 8b3d 3221 0e3d 48ab 9abe 7628 c83d
00000100: 62fb 88be 064f 8fbd 7022 eabc 20ac 32be
00000110: 674a 82bc 1d5e ca3d f888 1cbe a2f8 98be
00000120: a4c1 183d f6fa 85be ccf0 0fbe 29f4 acbe
00000130: e663 6b3e f4a2 64bd 3581 09be dd44 b0be
00000140: 11f7 32be 776a 96be 2b73 ebbd 8d70 aabe
00000150: 389c f2bd cc6d 423d 6f7e aebe 25a1 3abe
00000160: fa79 b4bc 9277 dbbd 7d8c c1bc eee7 553c
00000170: 3398 7dbd eacb 973c 45df 4f3d f278 7ebd
00000180: 99e9 a33d 5c49 723d 6716 863f 8956 32be
00000190: 1243 fe3c 459e 313e e471 033e 6429 94be
000001a0: b4cd 9b3c f518 bf3e f57f 623e 9f00 743e
000001b0: 5173 243e d9b2 3cbd d16c c0bc 3434 64be
000001c0: fc99 3a3e d238 133d 4520 c3bd c2b9 a13e
000001d0: 7642 27be 7f7d 9d3e 0ab6 28be 0409 fa3d
000001e0: e4e9 57be e773 21be 6d10 a33e 4c5f 413e
000001f0: 9024 b3bd 88b2 b03d 84f6 81bd 59ec c63d
00000200: 77d7 c9bd 1b79 eb3e 06c6 bdbe aeba 393f
00000210: ca4f c53e 2e80 9c3d fad6 3b3e 7afd 403e
00000220: c937 ae3d 5167 2d3e 9950 343e e97a 07bd
00000230: ac68 26be 1117 cf3d 7ac2 13bf 48d6 81be
00000240: ab84 73be dd74 69be a82f 8f3d a6a0 e73e
00000250: 76dd 24bd a6d8 3f3d 5e49 45be f0d2 5fbe
00000260: 7ba5 093d 2d26 d33b ad79 333e c345 a9bd
00000270: ecc3 1b3e 3829 c43e 266d 013e 3283 f13d
00000280: 1e7b a9be 6489 e33d 38e2 21be 1594 9c3e
00000290: 8e9a 243d 59a0 c4bd 1e77 e33e 03ab 203e
000002a0: ee30 12bf d54c 503d 1f3d f03d 1aad ad3e
000002b0: b438 6e3e ba78 383f b06b 003f 8573 23bd
000002c0: 46a0 88bd af3a 2b3f a796 a2bd 3d9e d8bd
000002d0: 92d3 7b3d 9f27 5dbd 211f b7be 89a2 d1be
000002e0: 396e c5be a2cc 1d3f 8ac1 aa3e 0cfb d13c
000002f0: 5389 15be 9ab2 c13d 7768 95bd 7847 aabb
00000300: 7bc9 8c3e bd9b b83e bfaa fe3d 5186 0a3e
00000310: dcca 803e 5a95 08bf ccad b5be 8835 103d
00000320: f188 a53e 361f 61bd 4fee f83d d6fa 453f
00000330: eb8d 12bf 2d6c d73e 7a97 f2ba ff6e 1abf
00000340: 29fb 33bd 3863 1ebe 5d6b 3c3e 2a4b 83be
00000350: 7d9f 053f 47ff de3e dc2e 70be 12d6 32be
00000360: 1547 de3e 5c1c dd3e dc52 543f 20c9 343e
00000370: 0da1 c8be d9b7 333e b05d f5bd 529e 913d
00000380: a030 f03e ecc1 b2bc 026c 353e 9803 6d3e
00000390: 3274 e4bc d123 69be 22a2 813e a402 9bbd
000003a0: 6453 76be bedf 043f f28b 633e c8c6 59be
000003b0: a94e 69be e45b 11bd 14f2 643e 3cc5 893e
000003c0: f72e 313e dbee a6bb 75bc 883e 7ec1 efbd
000003d0: 7da6 943e ee31 2b3a 59a5 d2bd 5429 06bd
000003e0: 1b89 e63e c02c e13c 5b56 ad3e f471 813d
000003f0: 369d 2f3e 28f7 d7bd 6c7b 11be 2fad e13d
-0.09112184 0.113618396 -0.10752521 0.43215826 0.15875213 0.08750695 0.6810366 -0.13191234
-0.35637632 0.16349861 0.12562397 -0.011733449 -0.03998907 -0.31870022 0.05078865 -0.026937017
0.01969862 -0.23664021 0.12305825 0.038758334 0.13070376 0.031184323 0.08196073 0.3444305
0.36271292 0.32660475 -0.16783276 0.564689 -0.55471855 0.5106883 -0.046207726 0.0023379321
0.16600718 0.38998663 -0.14334394 0.63963497 0.18993 -0.03707309 0.19690934 0.22560762
-0.35294724 0.66808194 0.40176913 0.19349271 -0.012403679 -0.18171558 -0.16437282 -0.18561153
0.06925595 0.18914995 0.16527332 0.5241487 -0.031072976 -0.07521946 0.35596722 -0.10575258
-0.08520377 -0.00889538 0.29026607 -0.28088072 0.068000585 0.034699626 -0.30208802 0.09773342
-0.2675429 -0.069974944 -0.028580874 -0.17448473 -0.015904618 0.09881232 -0.15286624 -0.29877192
0.037294045 -0.2616803 -0.140567 -0.3378003 0.22987327 -0.055819467 -0.13428195 -0.3442754
-0.17477061 -0.293781 -0.11496576 -0.33288994 -0.118462026 0.04746799 -0.34080836 -0.18225534
-0.02203082 -0.107161656 -0.02362656 0.013055785 -0.061912727 0.018529851 0.050750036 -0.06212706
0.080035396 0.059151992 1.0475587 -0.17415823 0.031037841 0.17345531 0.12836415 -0.2893783
0.019018985 0.37323728 0.22119124 0.23828362 0.16059615 -0.046069 -0.023489388 -0.22285539
0.18222803 0.03594286 -0.09527639 0.31587034 -0.16333947 0.30759808 -0.16475692 0.12208751
-0.21085316 -0.1576687 0.3184847 0.18884009 -0.08747208 0.08627802 -0.06345847 0.097130485
-0.0985555 0.45990834 -0.37065142 0.72550476 0.38537437 0.07641636 0.18343726 0.18846694
0.08506734 0.16933943 0.1760887 -0.0330762 -0.16250867 0.101118214 -0.5771862 -0.25358796
-0.23781078 -0.22798486 0.069915116 0.45239753 -0.040250264 0.04683747 -0.19266269 -0.2185781
0.03360508 0.00644376 0.17526884 -0.08265259 0.15211457 0.38312697 0.12639293 0.11792602
-0.33101743 0.111101896 -0.15808952 0.30581728 0.040186457 -0.096008964 0.44426817 0.15690236
-0.5710591 0.050854523 0.11730408 0.3392113 0.23263818 0.72059214 0.5016432 -0.03990509
-0.06671195 0.6688642 -0.07938891 -0.105770566 0.061481066 -0.053992864 -0.35765937 -0.40944317
-0.38560656 0.6164037 0.33350784 0.025632404 -0.14603166 0.09457894 -0.07295316 -0.005196508
0.27497467 0.3605632 0.12434911 0.135278 0.2515477 -0.5335289 -0.3548416 0.0352073
0.3233104 -0.054961406 0.12154829 0.7733587 -0.572478 0.4207472 -0.0018508278 -0.60325617
-0.043940697 -0.15467536 0.18400331 -0.25643283 0.52196485 0.43554136 -0.23455375 -0.17464474
0.43413606 0.431857 0.82938933 0.17654848 -0.39185372 0.17550601 -0.1198076 0.07110275
0.46912098 -0.021820985 0.17716983 0.23145902 -0.027887437 -0.22767569 0.2531901 -0.07568863
-0.24055248 0.51903903 0.22221354 -0.21267235 -0.22783913 -0.035488024 0.2235797 0.2690829
0.17303072 -0.0050943918 0.2670628 -0.117068276 0.2903327 0.00065305724 -0.10285444 -0.032754257
0.45026478 0.027487159 0.33854946 0.06320563 0.17149815 -0.10545188 -0.14207238 0.1101936

4.bias f4 [16]
00000000: 4a1b 64be 42e7 14bd ad1b 97bd fe11 abbe
00000010: fbe4 3fbd 3d36 f5bd a3c9 10bf 3079 bbbd
00000020: dd11 15bb 0b0b 08be 63a6 203d 6232 bbbe
00000030: f276 d7bd 84c1 07be 50d2 e9be dbd5 1d3d
-0.22276035 -0.036353357 -0.073783256 -0.33412164 -0.046849232 -0.11973236 -0.56557673 -0.09153974
-0.0022746243 -0.13285463 0.03922118 -0.36561877 -0.10520734 -0.13257414 -0.45668268 0.038534027

6.weight f4 [9, 16]
00000000: 2d48 01bf ec1a e1bd ceaf c3bd e6af afbc
00000010: 1e7a 913e 2634 9a3e 1520 ab3d 0e9b 07bf
00000020: 6f7a 18be 723b 9b3e 2ebb 113e 62a2 aa3e
00000030: 242f 6dbe 5128 afbd 5637 d73d 63f8 e7bd
00000040: 40fb 9a3d dbf0 73bf f3b9 c0be c9e4 023e
00000050: aaec 9cbf c6e6 803e bfb1 c03d 387d af3d
00000060: cfc9 60be f6f1 803e 8239 b53c 42b9 a5bc
00000070: c042 623e 28cb 233e 469e 0d3e 3a51 c83c
00000080: a00b 163e 47dd d53d 007a 80be 9573 773d
00000090: 6977 b43d ba9b e3bf 63f8 863e d152 e23d
000000a0: a91f 13bd cd9d 6a3e 16dc fc3d f223 413e
000000b0: dab5 32bc 5a4d 613d da2c 383e 9c54 93be
000000c0: a31a 583e e109 9d3c 463d 893e e861 cc3c
000000d0: 2ba3 7cbd a1d2 5b3e 8bc1 13c0 dc4e ca3c
000000e0: fd5d 213e 78d0 d03d f0f8 5b3e 3061 313e
000000f0: 74ef bdbd a5dc eabc 0729 4f3d 8770 60be
00000100: 8dbb 7d3e 1464 a83d ad8c eb3d 2097 813d
00000110: 1e49 283d 6357 7e3e 2bf5 853e ad7f 5abd
00000120: 60ac 3bbe cd0b 413e 0f79 30c0 0c99 053e
00000130: 2ebd 833d cc5e 7ebd 20ba ccbe 91d3 44be
00000140: cd46 823e bb2b 2abe 9041 9b3e ed7c b73c
00000150: d058 3c3e 80bb 7e3e 6c43 623e 766a e5bc
00000160: dbd2 15be 56bd 873e 2002 bf3c 33e6 69bf
00000170: b763 39bf bb1c 4ebe 4d45 033e 5ce6 4d3d
00000180: 8c6c f7be ab9c 9d3e 1e58 7abe 3325 1b3e
00000190: d7e5 64be ccfb 873d eef9 063e 7bb6 e93e
000001a0: f601 25bd f36b fabd 7fbc 443d 8414 353b
000001b0: 87e2 a3bc d457 1c3e ccde 81be e7c8 97bb
000001c0: 3ab3 9b3e 020b e9bd 9e1e ce3d 8eef 6bbf
000001d0: 448a aa3d 9f49 09be 1533 7d3d 8fe3 923d
000001e0: dcc0 83be 737d e93c efeb bcbd 3dd3 0d3e
000001f0: f553 bdbd 5fa8 99be 18f0 a93e 677a 533e
00000200: e850 7d3e c523 d63d 1c22 d23d 9610 de3e
00000210: 2c21 df3c cd31 24be 1559 393d 6af7 e1be
00000220: 54b6 8dbd 6a7d 48bf a232 353e 8031 3abe
00000230: 8b83 853e 9d68 1bbd 1d5c 97be 9e25 923e
-0.50500757 -0.10991463 -0.095550165 -0.02144618 0.2841348 0.3011791 0.083557285 -0.5297097
-0.14890455 0.3031879 0.1423156 0.33327013 -0.23162514 -0.085526116 0.10508601 -0.11326673
0.075674534 -0.9528939 -0.37641868 0.12782587 -1.2259724 0.25176066 0.094089024 0.085688055
-0.21951984 0.25184602 0.022122148 -0.02022994 0.22095776 0.15995467 0.13829908 0.024452794
0.14652872 0.10442596 -0.2509308 0.060412962 0.08811838 -1.7781899 0.2636138 0.11050952
-0.035918865 0.22911759 0.123466656 0.18861368 -0.010907615 0.05500541 0.1798586 -0.2877549
0.21103911 0.01916975 0.2680456 0.02494903 -0.061679047 0.21467067 -2.308688 0.024695806
0.1575851 0.10196012 0.21481681 0.1732223 -0.09274188 -0.028669665 0.050576236 -0.21917926
0.24778576 0.082222134 0.11501441 0.06327653 0.041085355 0.24838023 0.2616361 -0.053344417
-0.18327475 0.18852158 -2.7573888 0.13046664 0.064325675 -0.062102124 -0.39985752 -0.19221331
0.25444642 -0.16618244 0.30323458 0.022398436 0.18393254 0.24876213 0.22096032 -0.028004866
-0.14631216 0.2651164 0.023316443 -0.9136688 -0.7241778 -0.20128147 0.12819405 0.050268516
-0.48325002 0.3078359 -0.24447677 0.15150909 -0.22353302 0.06639823 0.13181278 0.45647034
-0.040285073 -0.12227621 0.048031326 0.0027630636 -0.020005478 0.15267879 -0.25365293 -0.0046321037
0.30410177 -0.11379053 0.100644335 -0.92162406 0.08327153 -0.1340699 0.061816294 0.071723096
-0.25733078 0.028502202 -0.09224688 0.13850112 -0.09244529 -0.3001127 0.3319099 0.20652162
0.24737895 0.10456041 0.10260412 0.4337203 0.027237497 -0.16034622 0.04525097 -0.44134074
-0.06919542 -0.78316367 0.17695096 -0.18182945 0.26076922 -0.037941564 -0.29562464 0.28544325

6.bias f4 [9]
00000000: fe2c ca3c fc33 a5bd be72 093d 20a4 b7bc
00000010: 695f f8bc 412e b8bc c77d 243c 3005 35bd
00000020: c63a 073e
0.024679657 -0.08066556 0.033556692 -0.022417128 -0.030318933 -0.022482993 0.010039753 -0.0441944
0.13206014
