models_adam/checkpoint0.pth.tar (torch_old, 6892 bytes, 8 tensors)

0.weight f4 [16, 10]
0	0xbe6b783c	-0.22995085
1	0x3e44b8c8	0.19211113
2	0xbd7c2723	-0.06156076
3	0x3e4d6029	0.20056213
4	0xbe3e9f7f	-0.1861553
5	0x3f11327c	0.5671766
6	0xbdaa25a5	-0.083079614
7	0x3e3ba373	0.1832407
8	0x3d3aae8f	0.04557663
9	0xbd4db892	-0.050224848
10	0xbce27cff	-0.027647493
11	0x3db32838	0.087479055
12	0x3c93c932	0.018040273
13	0xbbae21e2	-0.0053140977
14	0x3e8ebbc2	0.27877623
15	0x3e7b5cbe	0.24547097
16	0x3f173e85	0.5907977
17	0x3d8858d4	0.066575676
18	0xbe75687e	-0.23965642
19	0xbdd3129c	-0.10306284
20	0x3e26346e	0.16230938
21	0xbe987f5d	-0.2978467
22	0xbe577b6a	-0.21043172
23	0xbe2fb178	-0.17157543
24	0xbd7110d8	-0.058853954
25	0xbd915984	-0.07097152
26	0xbe052e09	-0.13005842
27	0xbe763620	-0.24044085
28	0xbe8eeec7	-0.27916548
29	0xbe0e1b0f	-0.1387751
30	0x3c89992b	0.016796669
31	0xbe7ff413	-0.2499545
32	0x3ea43756	0.32073468
33	0x3d4172f9	0.047228787
34	0xbeb70369	-0.3574479
35	0xbd6e165d	-0.058126796
36	0x3dca5c27	0.09880858
37	0x3ec46029	0.38354614
38	0x3eba868c	0.36430776
39	0xbd1f7e1e	-0.038938634
40	0xbd50bb6d	-0.050959993
41	0x3ded76fe	0.115949616
42	0x3e942e4b	0.2894157
43	0x3efef86b	0.49798903
44	0xbddad8a2	-0.10685851
45	0xbe3acdb0	-0.18242526
46	0x3ed05424	0.40689194
47	0xbe73cc0d	-0.23808308
48	0x3e5bfe41	0.21483709
49	0x3dd5319c	0.10409853
50	0x3e7f70c4	0.2494536
51	0xbe9174d7	-0.28409454
52	0xbd4d5b2e	-0.050135784
53	0xbe328f17	-0.17437397
54	0x3e9207a8	0.28521466
55	0x3e46517b	0.1936702
56	0x3ee85697	0.45378563
57	0xbe44628d	-0.19178219
58	0x3ed71043	0.42004594
59	0x3ddfbe01	0.10924912
60	0x3e0320fa	0.12805548
61	0x3e85df2d	0.26146832
62	0xbe2fcb7a	-0.17167464
63	0x3e018f5e	0.12652346
64	0xbed467e9	-0.41485527
65	0x3e448cbb	0.1919431
66	0xbe3873fe	-0.18012998
67	0xbddec8b3	-0.10878124
68	0x3e58fde7	0.21190606
69	0xbd98ef1f	-0.07467484
70	0xbd8e2d7f	-0.069422714
71	0xbd9400c9	-0.07226712
72	0x3e616ba2	0.22013715
73	0xbe9efde5	-0.3105308
74	0xbe4d29fa	-0.20035544
75	0xbe5e7723	-0.21725135
76	0xbeb0cb31	-0.34530023
77	0x3ef11477	0.47085926
78	0xbe8f2481	-0.27957538
79	0xbe0d85a5	-0.13820513
80	0xbe0caece	-0.13738558
81	0xbd4863ad	-0.048923183
82	0x3efc5248	0.49281526
83	0xbc539cf7	-0.012915841
84	0x3de3d7dd	0.11125157
85	0xbe40fbfc	-0.18846124
86	0x3e746e1e	0.23870131
87	0x3e92f004	0.28698742
88	0xbe115e07	-0.14196025
89	0x3e169087	0.1470357
90	0xbda86b3f	-0.082235806
91	0xbea37a86	-0.31929415
92	0xbe3d9ec2	-0.18517593
93	0x3e1822d0	0.1485703
94	0x3e225a50	0.15854764
95	0x3d68ee54	0.056867912
96	0x3e83597e	0.25654215
97	0x3e84ab41	0.25911906
98	0x3e20dd0a	0.1570932
99	0xbe91b1a5	-0.28455845
100	0x3ed579a0	0.41694355
101	0xb92e53e8	-0.0001662519
102	0xbd1478a6	-0.03624787
103	0x3ed300df	0.41211602
104	0xbe9bd643	-0.30436906
105	0x3e297ebe	0.16552255
106	0x3e9330f4	0.28748286
107	0xbd843b3a	-0.06456609
108	0xbea2abb9	-0.3177164
109	0x3dfebe26	0.12438612
110	0xbbf0cfb5	-0.0073489794
111	0xbe4834bf	-0.19551371
112	0xbe2b8ea9	-0.1675364
113	0xbeb67f4d	-0.35643998
114	0xbe883b59	-0.2660778
115	0x3e442623	0.19155173
116	0xbe60e046	-0.21960554
117	0x3cc3be64	0.023894496
118	0x3defbfb4	0.11706486
119	0xbea14768	-0.3149979
120	0x3e216b99	0.15763701
121	0x3e95f489	0.29288128
122	0x3eaeb964	0.34125817
123	0x3cddc18b	0.027069828
124	0x3e7b23ad	0.24525328
125	0x3e8c67e5	0.27423015
126	0xbea3b1de	-0.3197164
127	0xbeb07794	-0.3446623
128	0x3eacd3d9	0.33755377
129	0xbe71fcb2	-0.23631552
130	0x3e3c9c26	0.18418941
131	0x3eae33d2	0.3402391
132	0x3ea5eef3	0.32408866
133	0x3e5c2818	0.2149967
134	0x3e8dda7f	0.27705762
135	0x3e205dcb	0.15660779
136	0xbe9c6ade	-0.30550283
137	0xbdae236e	-0.085028514
138	0xbe8908c2	-0.26764494
139	0xbbe034ed	-0.0068422467
140	0x3e3ca1a7	0.1842104
141	0x3d573e24	0.052549496
142	0x3e05e58e	0.1307585
143	0x3ec4cb73	0.3843647
144	0xbe770f1c	-0.24126858
145	0x3d896dd5	0.06710402
146	0x3eb5c011	0.35498098
147	0xbe162818	-0.14663732
148	0x3e5d8909	0.21634306
149	0xbc3aef60	-0.0114096105
150	0x3e16cdc8	0.14726937
151	0xbc9aff76	-0.018920641
152	0xbe84f604	-0.25968945
153	0x3ec5bbf7	0.38619968
154	0x3ef8111e	0.4845056
155	0x3cd24d89	0.025671737
156	0xbe833997	-0.25629875
157	0xbe8382e7	-0.25685808
158	0x3dfa52d6	0.12222831
159	0x3eaf975a	0.3429516

0.bias f4 [16]
0	0x3ec06e72	0.37584263
1	0x3e8f636e	0.28005546
2	0xbe7c5d92	-0.24645069
3	0xbdefce7a	-0.11709304
4	0xbe52f651	-0.20601775
5	0x3d267b5b	0.040644985
6	0x3e923ef0	0.28563643
7	0x3e12edf9	0.14348592
8	0x3d9c52b8	0.07632965
9	0xbe806531	-0.25077203
10	0x3dec7851	0.11546386
11	0xbd331f0f	-0.04373079
12	0x3db343dc	0.087531775
13	0xbd6dfdb9	-0.058103297
14	0x3e0f56be	0.13997933
15	0x3e67f2f9	0.2265128

2.weight f4 [32, 16]
0	0xbdc12f45	-0.09432844
1	0xbe740d25	-0.23833139
2	0xbd6d7430	-0.057972133
3	0xbe94e809	-0.2908328
4	0xbdc6779a	-0.09690781
5	0x3dbb7d6e	0.09154783
6	0x3e1a6b18	0.15079916
7	0x3ab760b8	0.0013990616
8	0xbda8777e	-0.08225916
9	0x3cf00880	0.029300928
10	0xbb7b8dbb	-0.0038384038
11	0x3e54511f	0.2073407
12	0x3e8f1a3b	0.279497
13	0x3ea9ae77	0.3314092
14	0x3e1c8a07	0.15287028
15	0x3deb2a4f	0.11482679
16	0xbd328f1a	-0.043593504
17	0xbcf2df36	-0.02964745
18	0xbd6abb50	-0.05730754
19	0xbe383a5e	-0.17991015
20	0x3e8efa0a	0.2792514
21	0xbe01a0d8	-0.12659013
22	0x3e0483d7	0.12940918
23	0x3df9191a	0.12162991
24	0x3d2f2674	0.04276128
25	0x3dd6d096	0.10489003
26	0x3ea2c0f1	0.31787828
27	0xbe71c277	-0.23609339
28	0xbcd7ce69	-0.026343541
29	0xbde7d041	-0.11319018
30	0x3e8fdbb7	0.28097317
31	0xbe3a9001	-0.18218996
32	0xbeb72e09	-0.3577731
33	0xbe3e8610	-0.18605828
34	0x3e175ec2	0.14782241
35	0x3d6a2d27	0.057171967
36	0xbe38843f	-0.18019198
37	0xbe6420e3	-0.2227817
38	0x3d9a6ef5	0.075406946
39	0x3d9cdfba	0.0765986
40	0x3e42393a	0.18967143
41	0xbdbed301	-0.093175896
42	0xbdfcd791	-0.123458035
43	0x3d437f66	0.04772892
44	0x3cf69f5f	0.030105291
45	0xbe939e93	-0.2883192
46	0xbe2ff36b	-0.171827
47	0x3df8a315	0.121404804
48	0xbdade176	-0.08490269
49	0x3e363ba4	0.17796189
50	0x3d8634fc	0.06553075
51	0x3d983d65	0.07433585
52	0x3ee320bc	0.44360912
53	0x3d3959d0	0.045251667
54	0x3d3118ae	0.043236427
55	0xbdc23907	-0.09483533
56	0x3d44dd6a	0.04806272
57	0x3e3f750d	0.18696995
58	0xbe66f466	-0.22554168
59	0xbeac3ce4	-0.33640206
60	0x3e259251	0.16169097
61	0x3baea53c	0.005329756
62	0x3e9be2b6	0.30446404
63	0xbe4b3dc3	-0.19847779
64	0x3e90c336	0.28273934
65	0x3e7889a1	0.24271251
66	0x3d8a3be8	0.067497075
67	0xbe0b7590	-0.13619065
68	0xb9c36900	-0.0003727153
69	0xbe46c4e7	-0.1941105
70	0x3e59a98a	0.2125608
71	0xbe9ca9f3	-0.3059841
72	0x3ddc55c5	0.10758547
73	0xbd403149	-0.046922002
74	0x3e83fb7d	0.25777808
75	0xbd9d54ab	-0.07682165
76	0xbda11493	-0.07865252
77	0xbd0af2b8	-0.03392288
78	0x3e096ca1	0.13420345
79	0xbe50b694	-0.20382148
80	0xbe865c10	-0.26242113
81	0xbe575ddf	-0.21031903
82	0x3e1484be	0.14503762
83	0x3de0e463	0.10981061
84	0xbe0fd9b4	-0.14047891
85	0x3d5f1149	0.054459844
86	0x3e430c17	0.1904758
87	0x3dd2781e	0.10276817
88	0xbe070a6c	-0.1318757
89	0x3e304673	0.17214374
90	0x3da296d9	0.07938928
91	0xbe60928c	-0.21930903
92	0xbe850ab3	-0.25984725
93	0xbe16038d	-0.14649792
94	0xbe425707	-0.18978511
95	0xbe5558e8	-0.20834696
96	0xbebf71dc	-0.37391555
97	0x3e6aba60	0.22922659
98	0x3e565e36	0.20934376
99	0xbda4cbeb	-0.08046707
100	0x3e604719	0.21902122
101	0x3e38e493	0.18055944
102	0x3da346fa	0.07972522
103	0x3dee888a	0.116471365
104	0x3d35800e	0.044311576
105	0xbe7a05c1	-0.24416257
106	0x3dcf5de8	0.10125333
107	0xbd2facd4	-0.04288943
108	0x3eb401fc	0.35157764
109	0x3e5f6325	0.21815164
110	0x3db1e3fb	0.08686062
111	0xbea9f77d	-0.3319663
112	0x3eb1135f	0.3458509
113	0x3de4060e	0.11133967
114	0x3e287906	0.16452417
115	0x3e07dedf	0.13268612
116	0x3d99159a	0.07474823
117	0x3d8296f7	0.063764505
118	0x3d991de5	0.07476405
119	0xbeae99cc	-0.34101713
120	0x3e7f4350	0.24928021
121	0x3e08985e	0.13339373
122	0xbe2543d9	-0.16139163
123	0x3dd28bb9	0.10280556
124	0x3cf4356e	0.029810634
125	0xbe6a1683	-0.2286015
126	0x3c70a021	0.014686615
127	0xbe94efef	-0.29089305
128	0xbcce3b96	-0.025174897
129	0x3d10270d	0.03519349
130	0x3b67b700	0.003535688
131	0xbe206b5a	-0.15665951
132	0x3db47a48	0.08812386
133	0x3dcd4d10	0.10024464
134	0xbd8203a4	-0.06348351
135	0x3dfda93b	0.12385794
136	0xbd9ab5f6	-0.075542375
137	0x3e21fab8	0.15818298
138	0xbd0b66d0	-0.034033597
139	0xbdce4330	-0.10071409
140	0xbe7b7cf4	-0.24559385
141	0xbeaa1825	-0.33221546
142	0x3e495433	0.19661026
143	0x3ef8815e	0.485362
144	0x3e7e1db2	0.24816015
145	0x3d365cbd	0.044522036
146	0xbe4adac8	-0.19810021
147	0x3c6feccf	0.014643862
148	0x3dec0580	0.115244865
149	0x3e66ea12	0.22550228
150	0xbdeec052	-0.11657776
151	0xbe288bee	-0.16459629
152	0xbdae9765	-0.0852497
153	0xbdc488b0	-0.095963836
154	0xbdb60a48	-0.0888868
155	0xbb5bfff1	-0.00335693
156	0x3e6395d1	0.22225119
157	0x3dab8955	0.083758034
158	0x3e8becbe	0.27329057
159	0xbe8672bd	-0.26259413
160	0x3d2706b0	0.040777862
161	0x3e78662a	0.24257722
162	0xbdfb19fc	-0.122608155
163	0xbe32525c	-0.1741423
164	0x3d93ba8f	0.072133176
165	0xbeb6c17b	-0.3569449
166	0xbe92622d	-0.28590527
167	0xbebbc19d	-0.36671153
168	0x3e4742f2	0.19459131
169	0xbdce31b6	-0.10068075
170	0x3c1b2580	0.00946939
171	0xbe9e0932	-0.3086639
172	0x3e26397c	0.16232866
173	0x3ea63199	0.32459715
174	0xbd9d5664	-0.07682493
175	0xbb8f1be8	-0.0043673404
176	0xbd4abf26	-0.0494987
177	0x3da5ad59	0.08089704
178	0x3e10aa6a	0.14127508
179	0xbdda3030	-0.10653722
180	0x3e110c4c	0.14164847
181	0xbec61cd2	-0.38693863
182	0xbdb83a95	-0.08995549
183	0x3df596f2	0.11991681
184	0x3b3ad13a	0.0028506056
185	0xbea0a702	-0.31377417
186	0x3e6d0d2d	0.23149557
187	0xbe014302	-0.12623218
188	0xbdb2e485	-0.08734993
189	0x3ea9610b	0.3308185
190	0xbe1029f1	-0.140785
191	0xbcc70dc6	-0.02429856
192	0xbdaca819	-0.084304996
193	0x3e56ed7c	0.2098903
194	0x3e22ee60	0.15911245
195	0xbd9c844b	-0.076424204
196	0xbe244207	-0.16040812
197	0x3ee272e9	0.44228294
198	0xbe955186	-0.2916376
199	0x3e65b60a	0.22432724
200	0x3e89d8ca	0.2692321
201	0x3e8a2237	0.2697923
202	0xbd8edb7d	-0.06975458
203	0x3e382514	0.17982894
204	0xbd61ea64	-0.055155173
205	0xbe206323	-0.15662818
206	0x3cbb3b63	0.022855466
207	0xbcb52085	-0.022110233
208	0xbe51f313	-0.20502882
209	0x3e500789	0.20315374
210	0x3e093284	0.13398176
211	0x3e6c22dc	0.23060173
212	0x3eab1b30	0.3341918
213	0xbe2525bb	-0.16127674
214	0x3d4d6081	0.05014086
215	0xbe76a654	-0.24086887
216	0x3ed909ac	0.42390192
217	0xbe411ab1	-0.18857838
218	0xbebaad7b	-0.3646048
219	0x3e3372de	0.17524287
220	0x3d9f4630	0.07777059
221	0xbe0dcc04	-0.13847357
222	0x3e094db5	0.13408549
223	0x3e714e58	0.23565042
224	0xbea9aac0	-0.33138084
225	0xbe5a3de3	-0.2131267
226	0x3d87a434	0.06623116
227	0x3de323a3	0.110907815
228	0x3c62bf52	0.01383956
229	0x3d9c1b53	0.07622399
230	0xbeb41b9a	-0.35177308
231	0xbe3124d9	-0.17299213
232	0x3ea10d6e	0.3145556
233	0x3da2c0ab	0.07946905
234	0x3e30065e	0.17189929
235	0x3e503710	0.20333505
236	0x3e647fc2	0.2231436
237	0x3e928255	0.2861506
238	0xbd63c39b	-0.055606466
239	0xbd89ba76	-0.06725018
240	0xbd9eabc2	-0.07747604
241	0x3d826607	0.063671164
242	0x3e1ac228	0.15113127
243	0x3ec7a253	0.3899103
244	0xbdb6453c	-0.08899924
245	0x3eb830f4	0.35974848
246	0x3e828d02	0.25498205
247	0xbda6e88f	-0.08149826
248	0xbd150ed3	-0.03639109
249	0x3d8f8658	0.07008046
250	0xbe0d1518	-0.13777578
251	0x3e8c0dff	0.27354428
252	0x3e146c4f	0.14494441
253	0xbe61c028	-0.22045958
254	0x3e754aa4	0.23954254
255	0xbd362bcf	-0.044475373

2.bias f4 [32]
0	0xbdb93cb8	-0.09044784
1	0x3deaa3b4	0.11457005
2	0x3d418a79	0.0472512
3	0xbdef0601	-0.11671067
4	0xbdc4807e	-0.095948204
5	0x3e12da25	0.14341028
6	0x3d74aa51	0.05973274
7	0x3e21f1cb	0.15814893
8	0x3e53baa7	0.20676671
9	0xbdf68aa9	-0.12038166
10	0xbe0bcb99	-0.13651885
11	0x3e4a8b52	0.19779709
12	0xbb96251d	-0.004582061
13	0x3d7f3816	0.062309347
14	0x3dcc8ef0	0.09988201
15	0x3e9c29dc	0.30500686
16	0xbe7f7326	-0.2494627
17	0x3e69d64f	0.22835658
18	0x3da2b602	0.079448715
19	0x3ddbb9cb	0.107287966
20	0xbdd75f2a	-0.10516198
21	0x3e231b8c	0.15928477
22	0x3dca7f2a	0.09887536
23	0x3dc7bd3c	0.097528905
24	0xbde82798	-0.11335677
25	0xbe17efe0	-0.14837599
26	0xbddfeae3	-0.10933473
27	0x3d6a10a7	0.057144787
28	0xbe1cb01e	-0.15301558
29	0x3dcb885f	0.0993812
30	0xbdc45de7	-0.09588223
31	0xbbbab886	-0.0056982664

4.weight f4 [16, 32]
0	0xbd9b894a	-0.07594545
1	0x3e524e57	0.20537697
2	0xbce63026	-0.02809913
3	0x3e5e5553	0.21712236
4	0x3e057b7f	0.13035391
5	0x3b6066a3	0.0034240864
6	0x3edd54d7	0.4322879
7	0xbdf3869e	-0.118909106
8	0xbe98c385	-0.2983667
9	0x3e3280e1	0.17431976
10	0x3e6fb2df	0.23408078
11	0xbcddecbe	-0.027090427
12	0x3d74e086	0.059784435
13	0xbe3bcf2f	-0.18340753
14	0xbd9838c1	-0.074327
15	0xbe17d9bc	-0.14829153
16	0x3c858ab1	0.016301485
17	0xbe26a9a0	-0.16275644
18	0x3d30ed62	0.043195136
19	0xbdc3e40a	-0.095649794
20	0xbdb3a967	-0.08772545
21	0xbd0f85dc	-0.035039768
22	0x3da3b91c	0.07994291
23	0x3eb54bf6	0.35409516
24	0x3e51b907	0.20480739
25	0x3e39efb3	0.18157844
26	0xbe5524ae	-0.20814773
27	0x3e804413	0.25051937
28	0xbe20cb58	-0.1570257
29	0x3e86c306	0.26320666
30	0xbc990eb0	-0.018683761
31	0x3c040598	0.008057974
32	0x3dfd4621	0.12366892
33	0x3e3fc870	0.18728805
34	0xbd9bcd64	-0.076075345
35	0x3e809494	0.25113356
36	0x3d85ea09	0.06538779
37	0xbd1e6bfb	-0.038677197
38	0x3dbb18d4	0.09135595
39	0x3e07155a	0.13191739
40	0xbe9261c1	-0.28590205
41	0x3eab0e3c	0.33409297
42	0x3e88f37e	0.2674827
43	0x3e800536	0.25003976
44	0xbdef192f	-0.11674725
45	0xbe2a5c83	-0.16636853
46	0x3d1fcb59	0.039012287
47	0xbdd4a496	-0.10382955
48	0x3d974cf8	0.073877275
49	0x3ded7470	0.11594474
50	0x3e80bfc7	0.25146315
51	0x3e842dae	0.258161
52	0xb9e83dca	-0.00044296525
53	0xbdc87bdc	-0.09789249
54	0x3e587724	0.21139199
55	0xbdddb03f	-0.10824632
56	0xbcf3a468	-0.029741481
57	0xbcd22bfb	-0.025655737
58	0x3e7e72ae	0.24848434
59	0xbe01cb38	-0.12675178
60	0xbda7d371	-0.08194626
61	0x3d5a0552	0.05322773
62	0xbe0b3b30	-0.13596797
63	0x3bf43d60	0.0074536055
64	0xbd60c586	-0.054875873
65	0xbe146b0a	-0.14493957
66	0x3e274150	0.16333508
67	0xbe102eac	-0.14080304
68	0x3d8126a8	0.06306201
69	0x3dfedde8	0.12444669
70	0xbe2ec18a	-0.17066017
71	0xbe014e72	-0.12627581
72	0x3c70d2c0	0.014698684
73	0xbca46b3f	-0.02007067
74	0xbe414085	-0.18872268
75	0xbe20798b	-0.15671365
76	0x3db78126	0.0896018
77	0xbd902bee	-0.07039629
78	0xbd9df3c9	-0.07712514
79	0xb9b36fff	-0.00034224984
80	0xbe32f711	-0.17477061
81	0xbdac8266	-0.08423309
82	0xbca0eaf8	-0.019643292
83	0xbe416a5e	-0.18888232
84	0xbd2a38ee	-0.0415582
85	0x3e03bf69	0.12865986
86	0xbda57703	-0.0807934
87	0xbe6c5a2a	-0.2308127
88	0xbdbb3f52	-0.09142937
89	0xbe278ddd	-0.1636271
90	0xbe7b1407	-0.24519359
91	0xbdc7d93d	-0.09758232
92	0xbcf0e390	-0.029405385
93	0xbd826eb2	-0.0636877
94	0x3d376698	0.044775575
95	0xbd7e7542	-0.062123545
96	0xbd50c3b2	-0.05096788
97	0xbd089aa0	-0.033350587
98	0x3dd38e83	0.10329916
99	0xbda4cbf8	-0.080467165
100	0x3e48fbfc	0.19627374
101	0xbdf81a4b	-0.1211439
102	0x3e0c950c	0.13728732
103	0xbbf0a659	-0.007344049
104	0xbdb5875e	-0.0886371
105	0x3d166c7e	0.03672456
106	0x3e775e0a	0.24156967
107	0x3e905665	0.28190914
108	0x3e40d6b0	0.18831897
109	0x3ddfb76d	0.109236576
110	0x3d8296ec	0.06376442
111	0xbe0b3cde	-0.13597438
112	0x3e37ea02	0.1796036
113	0xbd00166c	-0.031271383
114	0xbdeb760a	-0.114971235
115	0x3e94973d	0.29021636
116	0xbe2180da	-0.15771809
117	0xbd3b3098	-0.04570064
118	0x3d80fb83	0.06297972
119	0x3e928b9c	0.28622139
120	0xbd4e41a8	-0.050355583
121	0xbda9a62a	-0.082836464
122	0x3e4be20e	0.19910452
123	0x3e2705d7	0.16310821
124	0x3d7d13a4	0.06178631
125	0x3e8f693d	0.28009978
126	0x3d0890ba	0.033341147
127	0x3dc48da6	0.0959733
128	0xbe309a0e	-0.17246267
129	0x3e69ee93	0.22844915
130	0xbe23ab54	-0.15983325
131	0x3e5eed48	0.21770203
132	0x3eaece90	0.3414197
133	0xbdc81053	-0.097687386
134	0xbdb709e8	-0.08937436
135	0x3e477a37	0.19480215
136	0x3bb6c682	0.005577863
137	0x3c4749c5	0.012163584
138	0x3e023ce4	0.1271854
139	0x3cfd4376	0.030915957
140	0xbdf55838	-0.11979717
141	0x3e5b60d3	0.21423654
142	0xbeba2eea	-0.36363918
143	0xbe128d84	-0.14311796
144	0xbe7013f4	-0.23445112
145	0xba2307d4	-0.0006219123
146	0x3de4ad1e	0.11165832
147	0x3e225f4e	0.15856668
148	0x3e21529e	0.15754172
149	0x3dff92bc	0.12479159
150	0xbd641f5c	-0.05569397
151	0xbe3cf810	-0.18454003
152	0xbd43fd3d	-0.04784893
153	0x3e5ca014	0.2154544
154	0x3dddab41	0.1082368
155	0x3b6a0984	0.0035711238
156	0xbdba1935	-0.09086839
157	0x3ded8b64	0.11598852
158	0x3dc9677f	0.098341934
159	0x3df28440	0.11841631
160	0xbd9377be	-0.072005734
161	0x3dfd93da	0.12381716
162	0xbda5c969	-0.080950566
163	0x3e37a552	0.17934158
164	0xbe51f099	-0.20501937
165	0x3e0f6467	0.14003144
166	0x3e80a7c1	0.25127986
167	0x3c9befbe	0.019035216
168	0xbea56a1a	-0.32307512
169	0x3db6b9af	0.08922135
170	0x3d9c0a81	0.07619191
171	0xbd4c7a07	-0.04992106
172	0x3d8db160	0.06918597
173	0x3ed2abf8	0.41146827
174	0x3de0eb34	0.109823614
175	0x3e423b4f	0.18967937
176	0xbd7e62c8	-0.062105924
177	0x3eac2482	0.33621603
178	0xbd90d0de	-0.07071088
179	0x3c8b7c05	0.01702691
180	0x3cd4d41a	0.025980044
181	0xbe129451	-0.1431439
182	0xbe27b63c	-0.1637811
183	0xbe5f7a2c	-0.21823949
184	0xbe76c949	-0.24100222
185	0x3ed1d340	0.40981483
186	0x3dd42d98	0.10360259
187	0x38ef3030	0.00011405384
188	0xbd88f68d	-0.06687651
189	0x3cdba4ac	0.02681192
190	0x3d19e684	0.037573352
191	0xbbaa2957	-0.0051929164
192	0x3ddb0c5e	0.10695718
193	0x3e911ad0	0.2834077
194	0xbd95849b	-0.07300683
195	0x3e27b471	0.16377427
196	0xbd42122f	-0.047380622
197	0x3db607ed	0.088882305
198	0xbd64e945	-0.055886526
199	0x39a3f240	0.00031270273
200	0x3d813213	0.06308379
201	0xbd14f2c5	-0.036364336
202	0xbe24cc78	-0.16093624
203	0x3de2c94a	0.11073549
204	0xbe6904c4	-0.22755724
205	0x3c839ede	0.016066965
206	0xbe50e98a	-0.20401588
207	0xbe4a4870	-0.19754195
208	0xbd446009	-0.04794315
209	0xbe788714	-0.24270278
210	0x3d72de2a	0.059293903
211	0xbd5fb7c2	-0.054618604
212	0x3daaccf7	0.08339875
213	0x3d92a24c	0.07159862
214	0xbdee3787	-0.11631685
215	0x3d448a23	0.0479833
216	0x3eac34cd	0.33634034
217	0x3e7623fd	0.24037166
218	0x3e06efad	0.13177367
219	0x3decf9c7	0.11571079
220	0xbe29da40	-0.16587162
221	0x3c73f8a4	0.0148908235
222	0xbe1b70bf	-0.15179728
223	0x3d91a139	0.07110829
224	0x3ea701ce	0.32618564
225	0xbc8c265a	-0.017108131
226	0x3e2065ee	0.15663883
227	0x3e8cebf0	0.27523756
228	0xbe624997	-0.22098385
229	0xbdbfa4da	-0.09357615
230	0x3e280695	0.16408761
231	0xbd91b18e	-0.07113944
232	0xbe651c10	-0.22373986
233	0x3eb0f9b9	0.34565523
234	0x3dee9318	0.1164915
235	0xbe25d4b5	-0.16194423
236	0xbe862d71	-0.26206544
237	0xbba80020	-0.005126968
238	0xbb2f8513	-0.00267822
239	0x3e731cb0	0.23741412
240	0x3e373f39	0.17895211
241	0x3dc97fcf	0.09838831
242	0x3e63593a	0.22202006
243	0xbddb0d0e	-0.10695849
244	0x3e235ed7	0.15954147
245	0xbd859bad	-0.065238334
246	0xbe67d6c2	-0.22640517
247	0xbe2e3ec2	-0.17016128
248	0x3e150aea	0.14554945
249	0xbd69b05d	-0.05705296
250	0x3eac4db9	0.33653048
251	0x3d5ee76c	0.05441992
252	0xbe2a9494	-0.1665824
253	0xbd22cfb3	-0.03974886
254	0xbd8adc39	-0.067802854
255	0x3de1af60	0.11019778

4.bias f4 [16]
0	0xbdc6eeab	-0.09713491
1	0xbe17cb4e	-0.14823648
2	0x3dad22b6	0.08453886
3	0x3d918690	0.07105744
4	0xbd241957	-0.04006323
5	0x3e73fc6e	0.23826763
6	0x3da1c7d9	0.07899446
7	0x3d57fcd7	0.05273136
8	0x3dac1a9a	0.08403511
9	0x3c93558e	0.017985132
10	0xbbdc13da	-0.0067162337
11	0xbd982aa2	-0.074300066
12	0xbcd140fc	-0.025543682
13	0xbd5a75ea	-0.053335108
14	0xbda488f3	-0.080339335
15	0xbd24e356	-0.040255867

6.weight f4 [9, 16]
0	0xbe6973a8	-0.22798026
1	0xbcfe5fe3	-0.031051582
2	0xbd7c0b12	-0.061533995
3	0xbc42a42e	-0.011879964
4	0x3e2a6853	0.16641359
5	0x3c795052	0.015216904
6	0x3c657c3c	0.014006671
7	0xbe69fe73	-0.22850971
8	0xbe6cd918	-0.2312969
9	0x3d11faf2	0.03563971
10	0x3e659862	0.2242141
11	0x3ec5c64e	0.38627857
12	0xbe5c69c2	-0.21524718
13	0xbbe58d40	-0.0070053637
14	0x3da03028	0.07821685
15	0x3d139089	0.03602651
16	0x3d873144	0.066011935
17	0xbec2ad3c	-0.38022792
18	0x3e29140a	0.1651155
19	0xbe2acd50	-0.16679883
20	0xbe999836	-0.2999894
21	0x3db80a38	0.08986324
22	0xbc1a3c37	-0.00941377
23	0xbc317a7a	-0.010832423
24	0xbe52309c	-0.20526356
25	0x3e31b382	0.17353633
26	0xbe3097fa	-0.17245474
27	0x3d8d696c	0.06904873
28	0x3e129d08	0.14317715
29	0x3e702448	0.2345134
30	0x3e3add1f	0.18248414
31	0xbd8857bf	-0.06657361
32	0x3e0224b1	0.12709309
33	0xbdd640d1	-0.104615815
34	0xbe6fb5aa	-0.23409143
35	0xbc437913	-0.011930722
36	0x3d2e88c2	0.04261089
37	0xbec890f0	-0.3917308
38	0x3e3fb90b	0.18722932
39	0xbdb8edc1	-0.09029723
40	0x3c25c8a0	0.0101186335
41	0x3dd59f16	0.10430734
42	0x3dd19ea5	0.10235337
43	0xbd5d53e5	-0.054035086
44	0x3d8ab716	0.06773202
45	0xbcc44c30	-0.02396211
46	0x3e734645	0.23757274
47	0xbef22c62	-0.47299486
48	0x3e176b1a	0.1478695
49	0xbc6f6fb4	-0.014614034
50	0xb99e9a16	-0.0003025091
51	0x3e460ee6	0.19341621
52	0xbe7e5379	-0.2483653
53	0x3e26f2d8	0.16303575
54	0xbe89bfda	-0.26904184
55	0xbdea811a	-0.114504054
56	0x3e67ccfc	0.22636789
57	0xbd833159	-0.06405897
58	0x3de7d94a	0.113207415
59	0x3e9d867e	0.30766672
60	0xbe3da3c6	-0.18519506
61	0xbddc81a4	-0.107669145
62	0x3d95ac99	0.07308311
63	0xbeae0994	-0.33991683
64	0x3d31c8a1	0.043404225
65	0xbd4a19f9	-0.049341176
66	0x3e88a581	0.2668877
67	0xbeaf6bbe	-0.34261888
68	0x3ea32c2c	0.31869638
69	0x3e4642b7	0.19361387
70	0x3dbc4589	0.0919295
71	0x3bcc1640	0.0062282383
72	0xbddc860c	-0.10767755
73	0x3eba39ab	0.36372122
74	0xbe8f7ad8	-0.2802341
75	0x3e333c08	0.17503369
76	0x3e7608ff	0.24026869
77	0x3c87ebf0	0.016591996
78	0xbe866cf1	-0.2625499
79	0xbeb43f57	-0.35204574
80	0x3e038c38	0.12846458
81	0xbe856fe8	-0.2606194
82	0x3dd79ada	0.105275825
83	0xbd349d25	-0.044095177
84	0xbc1573e5	-0.00912187
85	0x3ebcdd79	0.3688772
86	0x3dbc2e53	0.09188523
87	0xbd9b451d	-0.07581542
88	0xbdf3111c	-0.11868498
89	0x3dee6d86	0.11641984
90	0xbd811af3	-0.06303968
91	0xbe94e8d4	-0.29083884
92	0xbeaf497b	-0.3423575
93	0xbe2fa046	-0.17150983
94	0xbc77510b	-0.015095006
95	0x3e61846f	0.22023176
96	0xbeb21960	-0.34784985
97	0x3e82448c	0.25442922
98	0xbda4d378	-0.08048147
99	0xba636e96	-0.00086758414
100	0xbe62c6ff	-0.22146223
101	0x3c85916f	0.0163047
102	0x3db1ce80	0.08681965
103	0x3ec5a636	0.3860337
104	0xbc4bd680	-0.0124412775
105	0xbd071f34	-0.032988742
106	0xbca2e5c5	-0.019884953
107	0xbe702f0d	-0.23455448
108	0xbe766047	-0.24060164
109	0x3e54e82c	0.20791692
110	0xbe92e5dc	-0.28690994
111	0x3d6ed47b	0.058308106
112	0x3e6109ad	0.21976347
113	0x3d9c5d17	0.07634943
114	0xbe266e0a	-0.16252914
115	0xbe201a5d	-0.15635057
116	0xbe3430c7	-0.17596732
117	0xbe1a328e	-0.15058348
118	0x3e589434	0.21150285
119	0x3e8f8398	0.28030086
120	0xbe3b9eca	-0.18322292
121	0x3dc18d59	0.09450788
122	0xbe090d2f	-0.13383935
123	0xbe94ee8c	-0.29088247
124	0xbe326375	-0.17420752
125	0xbe6888ee	-0.22708485
126	0x3e8386bc	0.25688732
127	0x3daf7d9f	0.08568882
128	0x3ebf3969	0.37348488
129	0x3cabdd93	0.020979678
130	0xbdd67ea2	-0.10473372
131	0x3eccf9f8	0.4003446
132	0x3d88ce0c	0.06679925
133	0xbe7bad33	-0.24577789
134	0x3c8e22fe	0.01735067
135	0xbefa963f	-0.48942754
136	0xbd5bc2e0	-0.053652644
137	0xbe38b703	-0.18038563
138	0xbca4b235	-0.020104507
139	0xbd688a11	-0.056772295
140	0x3d9fa5b6	0.07795279
141	0x3d245168	0.040116698
142	0xbe8b5692	-0.27214485
143	0x3e9cafbb	0.30602822

6.bias f4 [9]
0	0xbdb52a9c	-0.08846018
1	0xbdf2c081	-0.118531235
2	0x3db138d4	0.08653417
3	0x3df783e2	0.120857015
4	0xbe288c33	-0.16459732
5	0x3d036c12	0.032085486
6	0x3e859a2a	0.2609418
7	0xbe066be3	-0.13127093
8	0xbd808721	-0.06275774
