models_adam/checkpoint12.pth.tar (torch_old, 6892 bytes, 8 tensors)

0.weight f4 [16, 10]
-0.3262718 0.1230806 -0.11142495 0.19253959 -0.124798276 0.8308477 0.035294153 0.270811
0.064158745 -0.059753265 -0.024353527 0.22937723 -0.02057614 0.024802249 0.32276425 0.33260334
0.7601802 0.16863856 -0.16288997 -0.20079449 0.16230938 -0.2978467 -0.21043172 -0.17157543
-0.058853954 -0.07097152 -0.13005842 -0.24044085 -0.27916548 -0.1387751 0.040688775 -0.23280038
0.22705398 0.17963132 -0.1277737 0.28904977 0.15645628 0.40609282 0.54411095 -0.11945067
-0.033844847 0.35821018 0.30357796 0.63877463 0.17085852 -0.101127654 0.47069693 -0.30596134
0.3619241 0.015398692 0.48471373 -0.0036548292 -0.04677584 -0.5077473 0.22455534 0.19156337
0.43515912 -0.13514033 0.50895804 0.09385256 0.21691136 0.11289174 -0.09595742 0.091664225
-1.4076885 0.15835227 0.10791363 0.06476567 0.1443653 -0.055689093 0.089414 0.14766346
-0.04248237 0.13148981 0.0051810015 -0.53635734 0.002796685 0.72252756 0.108430795 -0.042664796
-0.24238501 0.032401416 0.6960236 0.12198567 0.19646724 0.045944408 0.123366125 0.3475248
0.068180405 -0.10018038 0.22659267 0.33364496 -1.0228277 0.22228272 0.13452506 0.0932912
0.28769588 0.5406101 0.29278702 -0.27819005 0.62066066 -0.08285673 0.06550352 0.5619124
-0.2136592 0.116245784 0.22806802 0.10194737 -0.13508333 0.00582424 0.26237446 -1.5089338
0.017077154 0.103851065 0.09710421 0.4211921 0.19314827 0.08190625 0.15546791 -0.05059752
0.5308181 0.21877407 0.285593 0.07068328 0.24005422 0.35410178 -0.43507445 0.054001678
0.6255904 -0.31293115 0.5075588 0.20196506 0.30765346 0.248594 0.24137117 0.29514232
-0.12586956 0.0477943 -0.46925938 -0.14473712 0.26113027 0.11381559 -0.051258344 0.42811134
-0.3215398 0.2552002 0.18125704 0.072142236 0.3652124 -0.48125765 0.06942544 -0.16805863
-0.3489795 0.5832029 0.4109836 -0.026407534 -0.27169424 -0.24637204 0.24839266 0.109245546
00000000: 190d a7be ae11 fc3d c432 e4bd 1929 453e
00000010: 3d96 ffbd 6fb2 543f 9a90 103d bda7 8a3e
00000020: a965 833d d7bf 74bd 0c81 c7bc dde1 6a3e
00000030: 4b8f a8bc 162e cb3c 5b41 a53e fc4a aa3e
00000040: 2b9b 423f 96af 2c3e a1cc 26be 129d 4dbe
00000050: 6e34 263e 5d7f 98be 6a7b 57be 78b1 2fbe
00000060: d810 71bd 8459 91bd 092e 05be 2036 76be
00000070: c7ee 8ebe 0f1b 0ebe 46a9 263d 3963 6ebe
00000080: d780 683e 46f1 373e 1cd7 02be 55fe 933e
00000090: 1336 203e 66eb cf3e db4a 0b3f 8ea2 f4bd
000000a0: e5a0 0abd 5367 b73e 926e 9b3e bc86 233f
000000b0: 89f5 2e3e 041c cfbd 30ff f03e f7a6 9cbe
000000c0: 1e4e b93e cc4a 7c3c 662c f83e dc85 6fbb
000000d0: 0698 3fbd bafb 01bf d6f1 653e 3029 443e
000000e0: 2dcd de3e 3a62 0abe 134b 023f c535 c03d
000000f0: 031e 5e3e c933 e73d 5385 c4bd 74ba bb3d
00000100: 232f b4bf 1927 223e d201 dd3d dda3 843d
00000110: 7fd4 133e 3f1a 64bd b01e b73d 1735 173e
00000120: fe01 2ebd 44a5 063e 64c5 a93b b74e 09bf
00000130: 9748 373b 91f7 383f f710 de3d 48c1 2ebd
00000140: c733 78be 59b7 043d 9a2e 323f 9fd3 f93d
00000150: b52e 493e 3430 3c3d 61a7 fc3d c5ee b13e
00000160: 2ba2 8b3d 5f2b cdbd e907 683e 83d3 aa3e
00000170: 05ec 82bf 159e 633e f0c0 093e 750f bf3d
00000180: e04c 933e 6c65 0a3f 2ee8 953e ed6e 8ebe
00000190: 9ee3 1e3f cab0 a9bd b626 863d 7ed9 0f3f
000001a0: 7ac9 5abe 4512 ee3d aa8a 693e c8c9 d03d
000001b0: 4953 0abe 44d9 be3b f255 863e be24 c1bf
000001c0: 63e5 8b3c deaf d43d 92de c63d 7ea6 d73e
000001d0: a9c8 453e 77be a73d fb32 1f3e 583f 4fbd
000001e0: b2e3 073f 4f06 603e 3f39 923e 65c2 903d
000001f0: c6d0 753e d44c b53e 14c2 debe dd30 5d3d
00000200: b126 203f 8338 a0be 60ef 013f eecf 4e3e
00000210: c184 9d3e 6d8f 7e3e 012a 773e e51c 973e
00000220: f3e3 00be f5c3 433d c442 f0be f835 14be
00000230: deb2 853e 2618 e93d 45f4 51bd 6931 db3e
00000240: dda0 a4be 9aa9 823e 729b 393e 4fbf 933d
00000250: 1ffd ba3e 6767 f6be ed2e 8e3d 9017 2cbe
00000260: 71ad b2be c94c 153f 716c d23e 9d54 d8bc
00000270: 821b 8bbe f448 7cbe a55a 7e3e 21bc df3d

0.bias f4 [16]
0.2871362 -0.052468274 -0.24645069 -0.4289527 -0.20086491 -0.12423028 0.29806957 0.1839044
-0.25412494 -0.4908924 -0.04629086 0.096407935 -0.195412 -0.14725222 -0.49254316 0.35110253
00000000: 8403 933e f9e8 56bd 925d 7cbe b09f dbbe
00000010: 88af 4dbe 726c febd 939c 983e 6f51 3c3e
00000020: aa1c 82be 4056 fbbe 7c9b 3dbd 8671 c53d
00000030: 151a 48be 49c9 16be 9e2e fcbe b6c3 b33e

2.weight f4 [32, 16]
0.04651175 -0.31916815 -0.057972133 -0.21401154 -0.042291444 0.07859074 0.2284694 -0.079069555
-0.25519258 -0.00078227464 0.03302687 0.0056335535 0.453735 0.40357655 0.27307257 0.26663762
0.08364891 -0.14642012 -0.05730754 -0.07468586 0.21249229 -0.38129637 0.5215795 0.29161826
-0.14694552 0.19416018 0.27632585 -0.6521525 -0.14956436 -0.1504648 0.3126554 -0.4098868
0.09630482 0.010258916 0.14782241 0.4602241 -0.5323823 0.0424318 -0.32536802 0.455913
0.16042101 0.40124527 0.14671846 0.41630125 0.36569995 -0.12349484 -0.08841406 0.088788025
0.08005614 0.26401642 0.06553075 0.036348067 0.5816996 0.19178441 -0.20203386 0.10641928
-0.019157205 0.17766874 -0.26473132 -1.0012307 0.422632 0.04008754 0.37641606 -0.13997586
0.20338443 0.30046815 0.067497075 0.16536242 -0.081705905 -0.26991585 0.14322913 -0.31092995
0.21768574 0.33835173 0.17968239 -0.33693066 -0.0994198 -0.10089083 0.14275773 -0.3820558
-0.18915054 0.15421101 0.14503762 0.45579508 -0.30161017 0.07021851 0.16713426 0.29045635
0.24908501 0.390011 -0.37294754 -0.53840566 -0.2678766 -0.31915152 -0.3041316 -0.40038133
-0.5673254 0.33151415 0.20934376 0.008044082 0.1887102 0.4637503 0.09072832 0.5110661
-0.027736913 -0.30604815 0.26265296 -0.31383905 0.43511844 0.235561 0.21652697 -0.3974097
0.40361112 0.035635557 0.16452417 0.023365168 0.2412686 0.003064411 -0.015691502 -0.5687328
0.46093592 0.04613171 -0.11692734 -0.281714 0.13917957 -0.088773295 0.18435493 -0.25163594
0.1463335 0.14209834 0.003535688 -0.2104788 0.19196236 -0.041492816 -0.2072149 0.43614498
-0.14912026 0.7272749 -0.18847843 0.08317193 -0.27818918 -0.47102857 0.09374714 0.5141499
0.37970746 0.10211753 -0.19810021 0.3004259 -0.026985874 0.22563456 -0.18663247 -0.092191845
-0.10140707 0.12762487 0.14911398 -0.4386704 0.33975995 0.082973935 0.4671461 -0.42689973
0.013907343 0.24557334 -0.122608155 -0.011291219 -0.08685588 -0.17374304 -0.8007343 -0.26242965
0.15475702 -0.34381264 -0.017022695 -0.1915602 0.38928512 0.39839816 -0.078543805 0.096921235
0.09856767 0.11437124 0.14127508 0.21584024 0.31500334 -0.544729 -0.24322867 0.022508519
0.15426663 -0.44429114 0.35217297 0.24299045 -0.117481604 0.3917652 -0.023135673 -0.034082577
-0.12690908 0.2307054 0.15911245 -0.12461652 -0.13556308 0.3908032 -0.67180717 0.305094
0.4364076 0.09868686 -0.18900678 0.045604795 -0.010854152 -0.08945386 -0.08117591 -0.08833239
-0.037648033 0.21714318 0.13398176 0.29395276 0.542243 -0.14595461 -0.11280895 -0.06452067
0.5129665 -0.42282584 -0.41745844 0.2786103 0.23674954 -0.23202269 0.14815712 0.1830142
-0.5584408 -0.3386622 0.06623116 0.25584096 0.05920363 0.21107225 -0.57722986 -0.15236834
0.33100256 -0.1526264 0.17196529 0.443214 0.3921185 0.28651193 0.0764211 0.013597839
0.03403199 0.028575135 0.15113127 0.44572496 -0.20121887 0.58722085 0.16311732 -0.041805085
-0.06503667 0.037079643 -0.18888438 0.33713925 0.37004972 -0.26331654 0.25558862 -0.15551853
00000000: 1b83 3e3d 026a a3be 3074 6dbd d725 5bbe
00000010: cb39 2dbd 2ff4 a03d e2f3 693e 38ef a1bd
00000020: 9aa8 82be 9011 4dba 2f47 073d ac99 b83b
00000030: f44f e83e 96a1 ce3e 2bd0 8b3e ba84 883e
00000040: 1f50 ab3d 28ef 15be 50bb 6abd e6f4 98bd
00000050: 9497 593e 4739 c3be 3c86 053f fd4e 953e
00000060: e378 16be edd1 463e 957a 8d3e 77f3 26bf
00000070: 6627 19be 7213 1abe 5e14 a03e afdc d1be
00000080: 763b c53d 0315 283c c25e 173e 7ea2 eb3e
00000090: 354a 08bf f8cc 2d3d a396 a6be 6e6d e93e
000000a0: 6845 243e 0570 cd3e 5d3d 163e 7025 d53e
000000b0: 063d bb3e ddea fcbd 6e12 b5bd 7fd6 b53d
000000c0: 79f4 a33d 292d 873e fc34 863d b6e1 143d
000000d0: 44ea 143f 2263 443e f7e1 4ebe 5af2 d93d
000000e0: 92ef 9cbc cbee 353e dd8a 87be 5428 80bf
000000f0: 3963 d83e d532 243d 9bb9 c03e d555 0fbe
00000100: 0244 503e f6d6 993e e83b 8a3d c454 293e
00000110: 6d55 a7bd 6932 8abe a8aa 123e 3632 9fbe
00000120: 03e9 5e3e 703c ad3e a9fe 373e 2d82 acbe
00000130: 9c9c cbbd da9f cebd 152f 123e d19c c3be
00000140: aeb0 41be 7ee9 1d3e be84 143e f95d e93e
00000150: a66c 9abe b9ce 8f3d 3e25 2b3e b2b6 943e
00000160: 2410 7f3e 86af c73e fbf2 bebe f4d4 09bf
00000170: 1f27 89be d467 a3be 23b7 9bbe c8fe ccbe
00000180: 3d3c 11bf 39bc a93e 365e 563e 53cb 033c
00000190: 3f3d 413e ae70 ed3e c5cf b93d 3ad5 023f
000001a0: 8638 e3bc 58b2 9cbe 737a 863e 83af a0be
000001b0: d8c7 de3e e736 713e 3fb9 5d3e 4979 cbbe
000001c0: 1ea6 ce3e 97f6 113d 0679 283e 4f68 bf3c
000001d0: 1e0f 773e 49d4 483b 778b 80bc 7998 11bf
000001e0: cbff eb3e 9bf4 3c3d 9a77 efbd d13c 90be
000001f0: 1785 0e3e c6ce b5bd 8ac7 3c3e 6dd6 80be
00000200: 73d8 153e 3a82 113e 00b7 673b c187 57be
00000210: c891 443e 5ff4 29bd 2530 54be 654e df3e
00000220: fbb2 18be b02e 3a3f 7d00 41be 0b56 aa3d
00000230: d06e 8ebe a82a f1be 80fe bf3d 549f 033f
00000240: 0469 c23e ff22 d13d c8da 4abe 6cd1 993e
00000250: 7b11 ddbc bf0c 673e 951c 3fbe 14cf bcbd
00000260: 83ae cfbd 18b0 023e 56b1 183e 6899 e0be
00000270: 04f5 ad3e 3dee a93d c62d ef3e 9a92 dabe
00000280: a0db 633c 9477 7b3e fc19 fbbd cefe 38bc
00000290: 7fe1 b1bd b2e9 31be ecfc 4cbf 2e5d 86be
000002a0: a078 1e3e 3608 b0be 2e73 8bbc 5b28 44be
000002b0: 6150 c73e d8fa cb3e 93db a0bd a47e c63d
000002c0: d9dd c93d 783b ea3d 6aaa 103e 3905 5d3e
000002d0: 1e48 a13e 5c73 0bbf f010 79be c963 b83c
000002e0: 12f8 1d3e 217a e3be 0450 b43e 7dd2 783e
000002f0: 329a f0bd 7395 c83e 0687 bdbc 2c9a 0bbd
00000300: 74f4 01be 093e 6c3e 60ee 223e f236 ffbd
00000310: 0cd1 0abe 5b17 c83e 8efb 2bbf 4835 9c3e
00000320: d170 df3e 561c ca3d fe8a 41be 18cc 3a3d
00000330: 9dd5 31bc 9633 b7bd 8e3f a6bd 9de7 b4bd
00000340: d334 1abd c85a 5e3e 8432 093e fa80 963e
00000350: 70d0 0a3f 2075 15be 6108 e7bd 6a23 84bd
00000360: c651 033f a17c d8be 1dbd d5be 02a6 8e3e
00000370: 796e 723e 5b97 6dbe 80b6 173e 1368 3b3e
00000380: faf5 0ebf 2265 adbe 34a4 873d 96fd 823e
00000390: 817f 723d 5323 583e 56c5 13bf 7206 1cbe
000003a0: 2b79 a93e 184a 1cbe ab17 303e f2ec e23e
000003b0: c2c3 c83e b1b1 923e aa82 9c3d 78c9 5e3c
000003c0: 2165 0b3d 6716 ea3c 28c2 1a3e 1036 e43e
000003d0: 520c 4ebe 1b54 163f 3a08 273e cf3b 2bbd
000003e0: f231 85bd d3e0 173d e86a 41be 849d ac3e
000003f0: 2877 bd3e 6dd1 86be 83dc 823e 4040 1fbe

2.bias f4 [32]
-0.023862878 -0.17037334 -0.25069714 -0.36512706 -0.38844967 0.049370047 -0.13361318 0.09326957
0.23400779 -0.5675937 -0.3247404 -0.08272942 -0.1608289 -0.10768487 -0.19280545 0.09720878
-0.27107507 0.068017274 -0.20300777 -0.08504572 -0.41028798 0.14110509 0.05161017 -0.13193549
-0.4793093 -0.29765463 -0.52730024 -0.44591337 0.022200797 -0.16594464 -0.17494978 -0.010640196
00000000: 157c c3bc 5976 2ebe 605b 80be eff1 babe
00000010: e0e2 c6be 3f38 4a3d e5d1 08be 1e04 bf3d
00000020: bd9f 6f3e d24d 11bf 6044 a6be 0b6e a9bd
00000030: 55b0 24be e389 dcbd cb6e 45be 6615 c73d
00000040: 5aca 8abe a44c 8b3d 45e1 4fbe 732c aebd
00000050: 4411 d2be da7d 103e 3065 533d 191a 07be
00000060: 0768 f5be 3066 98be 26fd 06bf c24e e4be
00000070: 72de b53c 64ed 29be 0926 33be 3754 2ebc

4.weight f4 [16, 32]
-0.0048848465 0.16237482 -0.17488045 0.44082558 0.07531848 -0.059557486 0.6528763 -0.20137599
-0.40808448 0.28539443 0.20900895 0.008908143 -0.09813613 -0.2655812 -0.057961892 0.03773196
0.01969862 -0.25713286 0.13699254 -0.036583252 0.12683806 -0.0010311485 0.12158464 0.37131312
0.40568143 0.20318575 -0.29063442 0.4412292 -0.3599845 0.42740306 -0.046207726 0.0023379321
0.07723759 0.4056158 -0.06348933 0.47476465 0.24774702 -0.00028911344 0.19836058 0.19788237
-0.27422193 0.66618556 0.360174 0.1669306 -0.023691362 -0.26343292 -0.1321901 -0.17048141
0.06925595 0.23024559 0.15925008 0.5094699 -0.056227453 0.020254526 0.33749175 -0.12953492
-0.077428326 0.024173478 0.3136371 -0.20857337 0.15961891 0.14193115 -0.30208802 0.09773342
-0.26636797 -0.06657732 0.014603441 -0.17448473 -0.015904618 0.12102209 -0.14997593 -0.29877192
0.07545938 -0.2616803 -0.140567 -0.27123973 0.24281187 -0.03436994 -0.13428195 -0.34185937
-0.17477061 -0.29378116 -0.11496576 -0.3242574 -0.118462026 0.07560285 -0.34043455 -0.16923065
-0.00834616 -0.107161656 -0.020266496 0.025281617 -0.06191263 0.018529851 0.050750036 -0.06212706
0.05136539 0.116118 0.7110297 -0.06932526 0.21557881 0.10744781 0.13876517 -0.102238804
0.018399071 0.1962707 0.309297 0.24962018 0.186164 -0.022144346 0.028790204 -0.040170085
0.18222803 0.10356043 -0.18365897 0.41266814 -0.12507759 0.17122488 -0.016719261 0.25201055
-0.14236192 -0.16149054 0.27160496 0.16444768 0.15798019 0.17772247 -0.06345847 0.097130485
-0.14042078 0.33136454 -0.35627347 0.44906616 0.35352296 0.02755627 0.015372455 0.15878098
0.032012053 0.122920856 0.22482482 0.0358978 -0.13576916 0.18210605 -0.61192036 -0.27954754
-0.23781078 -0.24244902 0.07109 0.44264492 0.028535202 0.020944554 -0.08975018 -0.11154945
-0.052073065 0.032466322 0.07310578 -0.0033982801 0.31183925 0.31759635 0.12639293 0.11792602
-0.35253826 0.19493131 -0.100293525 0.26504773 0.024854632 -0.15269274 0.4072393 0.048385527
-0.54679155 0.052647013 0.06927664 0.26238167 0.10136737 0.6078839 0.4963734 0.042787854
-0.06671195 0.6361948 -0.059013467 -0.13299257 0.10646315 -0.03386493 -0.36509022 -0.3468719
-0.34060413 0.596053 0.36537537 0.07261945 -0.41655126 0.04000404 -0.07295316 -0.005196508
0.058543425 0.30723184 0.100551866 0.12603219 0.2112314 -0.5891288 -0.3876423 0.0349684
0.25129488 -0.07334354 0.03580911 0.6758747 -0.61541605 0.34299543 -0.056382425 -0.43791625
-0.043940697 -0.15564199 0.16143212 -0.31278053 0.6582505 0.3923028 -0.27405134 -0.121227466
0.45897794 0.44899926 0.7742505 0.21704362 -0.17785461 0.019512307 -0.1198076 0.07110275
0.46581802 -0.10484766 0.22370778 0.24262218 -0.10666939 -0.53071904 0.28380156 -0.065525986
-0.18585762 0.48115438 0.15051617 -0.26497766 -0.2041851 -0.065044165 0.18448545 0.32841575
0.17303072 -0.025620041 0.26974663 -0.15773359 0.31019443 -0.070139 -0.06648904 -0.065820254
0.3461844 0.050768252 0.39918414 0.093804635 -0.07549863 -0.10279888 -0.14207238 0.1101936
00000000: 1011 a0bb 9645 263e dc13 33be e4b3 e13e
00000010: 9340 9a3d 8df2 73bd e722 273f 8235 4ebe
00000020: 73f0 d0be 381f 923e 7106 563e 76f3 113c
00000030: 98fb c8bd 42fa 87be 7369 6dbd d48c 1a3d
00000040: 005f a13c eba6 83be c647 0c3e 52d8 15bd
00000050: d6e1 013e 9a27 87ba 5e01 f93d c11c be3e
00000060: 7ab5 cf3e ed0f 503e 09ce 94be cbe8 e13e
00000070: e34f b8be 93d4 da3e 5044 3dbd fe37 193b
00000080: be2e 9e3d e0ac cf3e b206 82bd 5a14 f33e
00000090: 65b1 7d3e 2694 97b9 091f 4b3e ada1 4a3e
000000a0: d166 8cbe 238b 2a3f ba68 b83e dbef 2a3e
000000b0: 6314 c2bc aee0 86be d75c 07be ae92 2ebe
000000c0: 10d6 8d3d 80c5 6b3e 7412 233e 9f6c 023f
000000d0: c24e 66bd d2ec a53c b8cb ac3e cda4 04be
000000e0: be92 9ebd 7507 c63c 0b95 a03e 4294 55be
000000f0: 2473 233e 6656 113e 48ab 9abe 7628 c83d
00000100: 6261 88be b159 88bd 4543 6f3c 20ac 32be
00000110: 674a 82bc 6eda f73d 4a93 19be a2f8 98be
00000120: 738a 9a3d f6fa 85be ccf0 0fbe efdf 8abe
00000130: ada3 783e 7fc7 0cbd 3581 09be 3108 afbe
00000140: 11f7 32be 7c6a 96be 2b73 ebbd 1105 a6be
00000150: 389c f2bd abd5 9a3d 704d aebe cd4a 2dbe
00000160: 55be 08bc 9277 dbbd ec05 a6bc 651b cf3c
00000170: 1998 7dbd eacb 973c 45df 4f3d f278 7ebd
00000180: 8464 523d 46cf ed3d 0b06 363f 67fa 8dbd
00000190: b1c0 5c3e 990d dc3d 7518 0e3e 9462 d1bd
000001a0: a6b9 963c 30fb 483e 2d5c 9e3e 6f9c 7f3e
000001b0: c7a1 3e3e 0f68 b5bc 6fd9 eb3c 6389 24bd
000001c0: fc99 3a3e 7e17 d43d 1911 3cbe 3d49 d33e
000001d0: 5714 00be 9355 2f3e d5f6 88bc 8707 813e
000001e0: 53c7 11be c75d 25be ce0f 8b3e f964 283e
000001f0: 8fc5 213e e1fc 353e 84f6 81bd 59ec c63d
00000200: 77ca 0fbe 9da8 a93e 7a69 b6be 00ec e53e
00000210: f600 b53e b0bd e13c c0dc 7b3c 7b97 223e
00000220: 121f 033d eebd fb3d 7a38 663e 9209 133d
00000230: 1207 0bbe 027a 3a3e d0a6 1cbf db20 8fbe
00000240: ab84 73be 8e44 78be a297 913d 5ba2 e23e
00000250: a8c2 e93c ea93 ab3c f1ce b7bd 0a74 e4bd
00000260: 914a 55bd 68fb 043d 7cb8 953d aeb5 5ebb
00000270: 65a9 9f3e fd9b a23e 266d 013e 3283 f13d
00000280: e57f b4be 139c 473e b166 cdbd 56b4 873e
00000290: f19b cb3c 7c5b 1cbe ab81 d03e e72f 463d
000002a0: 88fa 0bbf 65a4 573d e9e0 8d3d e456 863e
000002b0: b299 cf3d 479e 1b3f a724 fe3e 5142 2f3d
000002c0: 46a0 88bd aadd 223f 1bb8 71bd 342f 08be
000002d0: 5a09 da3d f4b5 0abd 1bed babe 3299 b1be
000002e0: aa63 aebe ee96 183f 7b12 bb3e 82b9 943d
000002f0: 3546 d5be 47db 233d 7768 95bd 7847 aabb
00000300: 3bcb 6f3d 7e4d 9d3e 23ee cd3d 950e 013e
00000310: 0b4d 583e 25d1 16bf 0d79 c6be 063b 0f3d
00000320: b9a9 803e 2335 96bd 93ac 123d 2006 2d3f
00000330: e88b 1dbf 199d af3e 42f1 66bd 8f36 e0be
00000340: 29fb 33bd 9d60 1fbe 764e 253e c524 a0be
00000350: 1b83 283f eadb c83e 7550 8cbe 1b46 f8bd
00000360: 28ff ea3e 3be3 e53e 4835 463f af40 5e3e
00000370: 851f 36be 46d8 9f3c b05d f5bd 529e 913d
00000380: b37f ee3e 5fba d6bd a713 653e f371 783e
00000390: 7b75 dabd 34dd 07bf 704e 913e 7d32 86bd
000003a0: 7651 3ebe de59 f63e e920 1a3e 27ab 87be
000003b0: e615 51be e035 85bd c1e9 3c3e 1c26 a83e
000003c0: f72e 313e 1fe1 d1bc 3b1c 8a3e ea84 21be
000003d0: ced1 9e3e 09a5 8fbd 682b 88bd c5cc 86bd
000003e0: 153f b13e 5ff2 4f3d dd61 cc3e a51c c03d
000003f0: 079f 9abd 3888 d2bd 6c7b 11be 2fad e13d

4.bias f4 [16]
-0.15793912 -0.08782657 -0.042868733 -0.16937687 -0.058807246 -0.10582471 -0.45790908 -0.029534718
-0.0022746243 -0.09554852 -0.19133766 -0.31408516 0.023564376 -0.13257414 -0.33741906 0.01767596
00000000: cbba 21be 6bde b3bd 2097 2fbd 2171 2dbe
00000010: dedf 70bd a0ba d8bd 0f73 eabe cbf2 f1bc
00000020: dd11 15bb f1ae c3bd 05ee 43be c5cf a0be
00000030: 140a c13c 84c1 07be 31c2 acbe 2dcd 903c

6.weight f4 [9, 16]
-0.47045013 -0.09429762 -0.09683668 -0.029081203 0.2910979 0.20054232 0.172562 -0.47447327
-0.14890455 0.24011573 0.14244325 0.4155682 -0.18793744 -0.085526116 0.055819456 0.0029923415
-0.068456605 -0.7698378 -0.37598106 0.10027942 -0.7699915 0.1789894 0.045679037 0.035503555
-0.21951984 0.17420465 0.005594916 -0.04897944 0.30491054 0.15995467 0.15270717 0.08844639
0.1538042 -0.004925645 -0.25194633 0.035358395 0.0769828 -1.317081 0.23614779 -0.0050443667
-0.035918865 0.115212135 0.09541612 0.09566692 -0.0394167 0.05500541 0.21936186 -0.3643355
0.2636657 0.050662287 0.26760507 0.07974141 -0.08119563 0.19243313 -1.7414582 0.0581109
0.1575851 0.21026479 0.1278685 0.19060364 -0.15728256 -0.028669665 0.12352211 -0.31306583
0.1927947 0.04113851 0.115345806 -0.1508117 0.09308819 0.24166054 0.19492659 -0.036415007
-0.18327475 0.27776057 -1.8483822 0.07350153 0.1350778 -0.062102124 -0.44448486 -0.30385283
0.28013712 -0.294113 0.3051972 0.048753675 -0.039340843 0.36958355 0.287418 -0.0029983327
-0.14631216 0.2756426 0.12995628 -0.65586984 -0.6607953 -0.20128147 0.185878 0.015202255
-0.46346244 0.29085928 -0.24457163 0.17034627 -0.1495634 0.108022206 0.13806647 0.49352702
-0.040285073 -0.19565643 0.13129537 -0.11939248 -0.18458231 0.15267879 -0.27091902 -0.01592685
0.30905923 0.02796904 0.100928225 -0.62588304 -0.03213458 -0.12819572 0.036794826 0.13534676
-0.25733078 -0.16132046 -0.10839985 0.16344568 -0.04867749 -0.3001127 0.26238903 0.29069495
0.29312494 0.106563136 0.10299987 0.36563438 0.0931948 -0.23755434 0.02422752 -0.5318415
-0.06919542 -0.47139204 0.0005475603 -0.14934078 0.1729713 -0.037941564 -0.3379573 0.23519027
00000000: d7de f0be 1c1f c1bd 4f52 c6bd b43b eebc
00000010: c90a 953e f75a 4d3e 18b4 303e 29ee f2be
00000020: 6f7a 18be e6e0 753e a5dc 113e 5bc5 d43e
00000030: ac72 40be 5128 afbd f1a2 643d 291b 443b
00000040: fa32 8cbd 1714 45bf 9780 c0be 4c5f cd3d
00000050: 2a1e 45bf ff48 373e f119 3b3d 2d6c 113d
00000060: cfc9 60be b462 323e 8f55 b73b aa9e 48bd
00000070: 3c1d 9c3e 28cb 233e 455f 1c3e 6223 b53d
00000080: d97e 1d3e 4e67 a1bb 1cff 80be f7d3 103d
00000090: 29a9 9d3d 1c96 a8bf bad0 713e 374b a5bb
000000a0: a91f 13bd 57f4 eb3d 8769 c33d 05ed c33d
000000b0: 6873 21bd 5a4d 613d 65a0 603e 2f8a babe
000000c0: 31ff 863e 4283 4f3d 8803 893e 774f a33d
000000d0: e549 a6bd 310d 453e 1ae8 debf b205 6e3d
000000e0: fd5d 213e a74f 573e f6ef 023e 9a2d 433e
000000f0: ae0e 21be a5dc eabc 29f9 fc3d 2a4a a0be
00000100: f96b 453e db80 283d 6c3a ec3d 626e 1abe
00000110: 05a5 be3d dc75 773e d69a 473e e727 15bd
00000120: 60ac 3bbe a236 8e3e ca97 ecbf f887 963d
00000130: d651 0a3e cc5e 7ebd 8593 e3be 9992 9bbe
00000140: 226e 8f3e fb95 96be cf42 9c3e efb1 473d
00000150: dd23 21bd 0e3a bd3e 7428 933e ad7f 44bb
00000160: dbd2 15be 0721 8d3e 4213 053e 16e7 27bf
00000170: e129 29bf bb1c 4ebe cd56 3e3e e112 793c
00000180: f34a edbe 82eb 943e fc70 7abe 416f 2e3e
00000190: 2627 19be bf3a dd3d 4c61 0d3e 93af fc3e
000001a0: f601 25bd 295a 48be 4b72 063e 0b84 f4bd
000001b0: 2503 3dbe d457 1c3e e6b5 8abe 0679 82bc
000001c0: 033d 9e3e 541f e53c 75b3 ce3d df39 20bf
000001d0: 8d9f 03bd bd45 03be 2cb6 163d 5798 0a3e
000001e0: dcc0 83be 3131 25be be00 debd 4e5e 273e
000001f0: 0c62 47bd 5fa8 99be db57 863e f8d5 943e
00000200: 7914 963e c63d da3d 99f1 d23d 6e34 bb3e
00000210: eadc be3d 7241 73be cb78 c63c c426 08bf
00000220: 54b6 8dbd 4c5a f1be 268a 0f3a caec 18be
00000230: 631f 313e 9d68 1bbd bd08 adbe b8d5 703e

6.bias f4 [9]
-0.01948882 -0.0065977043 -0.04997036 -0.03588766 -0.04899628 0.0012436348 0.05642845 0.060734868
0.039531834
00000000: 05a7 9fbc 8e31 d8bb b8ad 4cbd f0fe 12bd
00000010: 53b0 48bd 7601 a33a 8521 673d 20c5 783d
00000020: 22ec 213d
