models_4nomix/checkpoint0.pth.tar (torch_old, 489035 bytes, 10 tensors)

0.weight f4 [256, 17]
00000000: 69ba 5ebd 90c1 53be 0ca7 e13d 200c 943d
00000010: 0379 653e 2b9b 3e3e 50e1 f53c f06d 213e
00000020: 04d3 edbd 536b 243e fdae 44be 44bb dbbd
00000030: 667e cc3c 356f 413d 276a 3f3e 99c6 c8bd
00000040: d4e1 113d c40b 3a3e 9030 553d 702e a13d
00000050: bdcd 2bbe bb7b 153e 35a2 763e 39ef 24be
00000060: 5c64 3e3e 587d 77be 1f03 15be 425d c5bd
00000070: 2ee0 df3d 4024 983d 1552 36be 91d7 233e
00000080: cb2c 28be 59b5 3ebe 5161 f3bb f0e5 68be
00000090: 00cf babc 5f9d 093e 5f9a 413d 12de 1cbe
000000a0: 10c2 cbbd 797d 58be a43d 313e 8679 683d
000000b0: fe40 033c 548e 363e ed95 08be 350d 463e
000000c0: 0040 cabc 8311 5abd b49b 5cbd f943 bdbd
000000d0: a99d f0bd 229a 2abe 6fa6 6c3e 52cb 203e
000000e0: e293 4ebd 5032 503e a040 8abc cf2b 90bd
000000f0: 5946 2fbe 3f39 27be 5cd1 253d 4e38 a23c
00000100: 0020 c93c 07da 733e 7d25 18bd 2d33 893b
00000110: 0d57 83bc 02a0 3dbe 507a 4a3e ec19 89bd
00000120: e623 023e 0338 ba3c 20ad 96bb daa4 40be
00000130: bbc9 083e 1e20 ec3d 99f6 733e de45 a53d
00000140: 6b55 603e 2d10 133e 166e 333d 2679 4a3e
00000150: dca1 313e a0c2 ba3d 28f1 0dbe fcc7 24bd
00000160: 8403 2abe 669d 96bd 06a2 a0bd 6839 20bd
00000170: 181c ae3d 0826 33bd 2c44 4a3e 6eac 55bd
00000180: 77a7 1ebd a8e2 3bbd 9cc4 4e3e 4715 3b3e
00000190: 773c f6bd 3f6a f73c d292 29be 4e8e afbd
000001a0: e0bd de3d 0071 b73b 7bd2 50be 75bb 56be
000001b0: 0068 423c 0ee1 03be 0048 a0ba 2cc8 cd3d
000001c0: c003 c33b 3ea7 3dbe bc13 fa3d 080b e63d
000001d0: 7cd7 40bd 905b 1a3d fbaf 52be 68df d93d
000001e0: 3803 713e 8c62 893d f67e 39be 003e dd3c
000001f0: ea13 a4bd 4160 65be ac50 aabd e895 263d
00000200: 4ed2 81bd ae46 6abe c306 41be c40d 6fbd
00000210: 5a57 663d d7d8 33be 3658 353e 35f0 17bd
00000220: 9604 063e bcb7 db3d 70db 30bc 58fe 2e3e
00000230: 0e97 823d 1eaf 6abd 893f 33be 76d2 33be
00000240: 2cdc 5dbe 2bc1 98bc 9514 62bd dc95 033d
00000250: bc52 5e3e 6bf8 14be 5075 893d bb10 4fbe
00000260: 7568 31be fd18 053d 3771 61be cc8f 9a3d
00000270: d85f 5abe ac7a c9b9 51b5 583e 06f0 673e
00000280: 8008 00be e885 4bbd 0cf0 503e 68f7 3e3d
00000290: e5a1 fd3d a0d7 d4bd 91ef d3bc d020 d8bd
000002a0: 1845 6f3e e423 483e ba2e e83b 3bac b6bd
000002b0: d408 2dbd 865d a63c 174e 0fbe a1db 003e
000002c0: fafe 3abe 0831 d13d 8fb4 113d 0ade 26be
000002d0: 73f0 72be 7df6 853d c0bf 28be c80a 26be
000002e0: 5638 393d efb7 1c3d 167b 723e 12d8 4bbe
000002f0: a046 ff3d d0f9 0cbd 3232 3fbe 7054 67bc
00000300: b8fe 493d 60dd 72bd 6cf1 3bbd 369b bdbd
00000310: d457 213e 3ca3 58be 80ad 433d 6aae 1b3e
00000320: 9a92 0f3e 7e63 783d 0e0f 30be edf2 66be
00000330: a81c 0ebe 0e19 00be 4e12 143e 569c 25be
00000340: 4b3e 6fbe d820 df3d 28b2 c0bd a21a 49be
00000350: 08d1 c1bd b7b7 0fbe c07f 1abc a02a c03c
00000360: 2cff a4bd 0c7f 41bd 70ac 53bd eaec 88bd
00000370: ea83 6dbe e784 48be f15b 713e f7e8 38be
00000380: 3cb5 793d fd28 b0bd a65e 4b3e 4637 80bd
00000390: fe77 6c3e e1aa c6bd e024 1fbe 2e37 963d
000003a0: 2d04 583e b76e 1d3e a779 23be ddbb d93d
000003b0: 9ff5 4e3e 443c 4dbd 36d0 463e 11ef 55bb
000003c0: e763 2abe 6293 da3d 9ec3 173e 8207 5d3d
000003d0: da18 6bbe e019 643d 53f9 76bb 9c98 b13d
000003e0: a165 a43c 63d3 213e edd8 6cbe 58c6 adbd
000003f0: bd11 b23d 4807 c93c 8930 05be f9dd 2abc
-0.054376993 -0.20679307 0.1101819 0.07228875 0.22409444 0.1861388 0.030014664 0.15764594
-0.11612514 0.16056566 -0.19207378 -0.107290775 0.024962615 0.047225196 0.18692838 -0.098035045
0.035615757 0.1816855 0.052048266 0.078701854 -0.16777702 0.1459798 0.24085315 -0.16106881
0.18592972 -0.24168909 -0.14551972 -0.09636928 0.10931431 0.07428789 -0.1780475 0.16000201
-0.16423337 -0.18623866 -0.0074273725 -0.22743964 -0.022803783 0.13438939 0.04726636 -0.15319088
-0.09949124 -0.21141614 0.1730867 0.05675652 0.008011101 0.17827731 -0.13338442 0.19340976
-0.02468872 -0.053239357 -0.053859428 -0.092414804 -0.11748821 -0.1666036 0.23110364 0.1570256
-0.050434 0.20331693 -0.016876519 -0.07039606 -0.17116679 -0.16330431 0.040482864 0.019802239
0.024551392 0.2381364 -0.037145127 0.004187009 -0.01603272 -0.1851807 0.19773221 -0.06694397
0.12709007 0.022731787 -0.004598275 -0.18812886 0.13358204 0.11529563 0.23824538 0.08069967
0.21907584 0.1436164 0.043806158 0.19772777 0.173469 0.09119153 -0.13861525 -0.040229782
-0.16602904 -0.0735424 -0.078434035 -0.039117247 0.08501452 -0.04373744 0.19752568 -0.052166395
-0.038733926 -0.045870453 0.20192188 0.18269835 -0.120232515 0.03020203 -0.16559914 -0.08572064
0.108760595 0.0055981874 -0.20392792 -0.20969947 0.011865616 -0.1287882 -0.0012228489 0.100479454
0.005951375 -0.18520829 0.12210795 0.11232573 -0.047080502 0.037684977 -0.20574944 0.106383145
0.23536384 0.067082494 -0.18114838 0.027007103 -0.08011611 -0.22399999 -0.08316168 0.040670305
-0.063389406 -0.22878525 -0.18850236 -0.058362737 0.05623565 -0.17563187 0.17709431 -0.037094314
0.13087687 0.10728404 -0.0107945055 0.17089212 0.06376468 -0.05729591 -0.17504705 -0.17560753
-0.2166602 -0.018646797 -0.05519541 0.03212534 0.21711248 -0.14547889 0.06711829 -0.20221226
-0.17325003 0.032494534 -0.22015844 0.07546958 -0.21325624 -0.00038429105 0.21162917 0.22650155
-0.12503242 -0.04968825 0.2040407 0.046622664 0.123843946 -0.1039269 -0.02587107 -0.105531335
0.23366201 0.19544941 0.0070856484 -0.08919569 -0.042244747 0.020308267 -0.13994633 0.12583782
-0.18261328 0.1021443 0.035572585 -0.16295639 -0.23724537 0.065411545 -0.16479397 -0.1621505
0.04521974 0.03826135 0.23679766 -0.19906643 0.124646425 -0.034417927 -0.18671492 -0.014119253
0.049315184 -0.05929315 -0.045884535 -0.0925812 0.1575616 -0.21156019 0.047772884 0.15203252
0.14020768 0.06064176 -0.17193243 -0.22553606 -0.13878119 -0.12509558 0.14460108 -0.16172919
-0.23363607 0.10894936 -0.094089806 -0.19639066 -0.09463698 -0.14034925 -0.009429872 0.023457825
-0.08056483 -0.047240302 -0.05167812 -0.06685813 -0.23194852 -0.19581948 0.23570229 -0.18057619
0.060963854 -0.08601568 0.19860324 -0.062605426 0.23092648 -0.09700561 -0.1554141 0.073347434
0.21095343 0.15374266 -0.15964375 0.10631535 0.20210885 -0.050106302 0.19415364 -0.0032643715
-0.16639672 0.10672642 0.14820716 0.053962238 -0.22958699 0.05568874 -0.003768523 0.08671686
0.020067992 0.15803294 -0.23129626 -0.08485097 0.086947896 0.024539605 -0.13006796 -0.010428899

0.bias f4 [256]
00000000: 4ad9 593e 715a 17be a31d 64bd 5bae 463e
00000010: fc30 32be 78ca 30be 1a47 efbd 15f3 043e
00000020: 48c8 d9bd f6db 75ba 260c 253e 6f4e 9fbc
00000030: 1a00 013e 6239 b03c 5047 193d aef7 0d3e
00000040: 3a05 6bbe 1b28 203e b1d8 653e 7264 6bbe
00000050: 9fb0 22bd 120a 0c3c 1a30 d0bd 89a4 5c3e
00000060: 3af6 653e 7ca9 813d b671 f53c 3e62 e5bd
00000070: 08be 9f3d e631 4abd 0456 2fbb d852 393e
00000080: 2a21 afbc bc37 67bc d0ff 3c3d 18b4 7ebd
00000090: e6c0 103e b759 4ebe 5045 9d3d 5f86 a3bd
000000a0: 681f 063e b32b 2a3d 6d90 463e 73fe 4dbe
000000b0: 8c79 333e 12e9 bb3d 8b8c 2fbe 6407 6d3e
000000c0: 9e1c 1fbe d7d4 9d3d 9764 7dbc 1ee2 1b3d
000000d0: a6d7 68be 2c89 cbbd 79d6 cfbb 1041 083e
000000e0: 6809 683e f8d3 38bc 65ae 26be 944e 4e3e
000000f0: 5c75 513e f1d8 673e f3e7 dfbd 8455 b9bd
00000100: 6bb1 713e 0b13 263e 1cbc 723e 6148 22bd
00000110: 3a81 4a3e 7c8b c5bd 9357 063e 9a55 fdbd
00000120: b67a 8d3d cb17 973d e4a3 cd3c 64a1 87bd
00000130: 633a 91bd 474b 143e 0b07 6dbe 1a75 78bc
00000140: bfa2 05be 5844 11bd d72e 043e 8832 163e
00000150: 0373 70be e94e 35be d0c5 db3c 6dbb 583e
00000160: e1dc 83bc 924d 2dbe 9fa1 0d3d 602a 373e
00000170: 5998 6d3e 9e15 013e 0ce1 96bd 5fac 81bd
00000180: 9e9f 40be f5b9 ffbd 618c aebd e6c0 38be
00000190: b0c4 4d3e bb58 4bbc cfe8 40be b4db e9bd
000001a0: 4843 73be 2eba 283d a192 553e 8f06 583e
000001b0: 2db1 24be 6953 49be 9c40 f43d cb5e 5bbe
000001c0: 952f 533e 1076 c03c 481b 82bd fdad df3d
000001d0: 3495 42be 5388 5dbe 9961 78bd 666c 5e3e
000001e0: e31c 65be 458e 573e 44aa 483d 87aa 253d
000001f0: 99e8 eb3c f978 593e c569 4dbe 36c3 11bd
00000200: b1fe f33d d050 5dbd ca86 683e fd73 143e
00000210: a707 773e 2bf3 2bbe 7e9b 6b3e 8b61 4dbe
00000220: 6a04 ecbc 81a9 a13d b0b9 4ebe 0e10 0d3e
00000230: eb8a 60be af7e e13c b89c eb3d b4da 5cbd
00000240: 74a3 b6bd 3725 4f3d c263 5a3e 3b22 3abe
00000250: 6a49 a33d 7ba4 69be 579c 3d3e 7193 df3d
00000260: dc6b 573e 78ba b53d 02c2 c53d a09d 3a3d
00000270: e04a c5bd 351d 4abe 7dab f0bd 34f8 0a3e
00000280: a712 7a3d 6789 b93d 8899 44bd 9ec7 373e
00000290: 80fb d3bd 2092 48be 2e46 483e 2e92 713c
000002a0: ebaa 10be 7153 6ebe 298b 01be 9245 6ebd
000002b0: 375f 683d dad7 89bd 3564 30be 4bf3 88bd
000002c0: f302 bc3d b744 37be fef3 08bd 2c04 023e
000002d0: fc73 0ebe ee03 28be 5b3c 19be 290c 8cbc
000002e0: 4d35 ac3d ba8e 443e 6cca 0fbe a6c5 afbd
000002f0: 2d03 333e 91c2 85bd cfcc 553e 6462 233e
00000300: c735 1bbe 0e2f 1dbe a2a2 08be 702e 6ebe
00000310: 83c9 d43d 921e afbc 638d 693e e91a cb3d
00000320: c288 fcbd 244a 8a3c 2e90 653e 9aea b0bd
00000330: 12a8 5cbc 2496 62be c876 bebd 0cf9 10bc
00000340: 90e9 3c3e 9265 38be 9539 fe3d 34d4 433e
00000350: ffe2 3bbe 4426 01be 8d7d cfbd a036 7abd
00000360: a07b 9b3c 342a f73d 6b2b cb3b f0bb 07be
00000370: d8e1 00be 34a0 273e 219a 8b3c 0f85 043e
00000380: bbd5 0bbd eb73 cabd af23 103d 4002 8f3d
00000390: 552f 4dbe 5b48 29be 06e6 0c3e 17c5 123e
000003a0: e673 74be 4b75 20bd 6ddb 1ebe d465 47bd
000003b0: 4b77 1abe 20f9 b43b f19c a5bd 56b1 1dbe
000003c0: 11ae 4f3e dd89 a03d f688 183e 9c6d e33d
000003d0: 1840 e5bd 3875 3a3d 5f57 533e 90ea ffbd
000003e0: 7aaf 71be 2e20 503c 7465 03bd dc6d 0f3d
000003f0: ab4f eb3d 696f 5dbe fe38 beba 7aae d7bd
0.21274295 -0.14780594 -0.055692326 0.19402449 -0.17401499 -0.17264736 -0.116834834 0.12983353
-0.10633904 -0.0009378785 0.16117916 -0.01944658 0.12597695 0.021511737 0.037421525 0.13864014
-0.22951213 0.15640299 0.22445942 -0.22987536 -0.03971922 0.008547323 -0.10165425 0.2154714
0.22457209 0.06331155 0.029961448 -0.11200379 0.077999175 -0.049363993 -0.002675415 0.18098009
-0.021378119 -0.014112409 0.0461424 -0.06218347 0.14136085 -0.20151411 0.07679236 -0.079846136
0.13097918 0.04154558 0.19391032 -0.20116596 0.17526835 0.09175314 -0.17143457 0.2314735
-0.1553826 0.077066116 -0.015465877 0.03805744 -0.22738513 -0.09938273 -0.006342706 0.1330607
0.22659838 -0.011281006 -0.16277464 0.20147163 0.20454925 0.2264135 -0.10932913 -0.09049514
0.23602836 0.16218202 0.2370457 -0.039619807 0.19775859 -0.09645745 0.13119344 -0.12369843
0.06908171 0.07377585 0.025102563 -0.0662258 -0.070912145 0.14481841 -0.23147218 -0.015164638
-0.13050364 -0.03546557 0.12908493 0.14667714 -0.23481373 -0.17705883 0.026827723 0.21165247
-0.016096534 -0.16924122 0.034577962 0.17887259 0.23202647 0.12605903 -0.07367143 -0.06331705
-0.18810889 -0.1248664 -0.08522869 -0.18042335 0.20094562 -0.012411292 -0.1883881 -0.11418858
-0.23756135 0.04119318 0.20856716 0.21096252 -0.16083212 -0.19660725 0.11926386 -0.2142288
0.2062362 0.023493797 -0.0635286 0.109218575 -0.19002229 -0.21634035 -0.06063995 0.21721038
-0.223743 0.21050365 0.048990503 0.04044583 0.028797435 0.21237554 -0.20059879 -0.03558656
0.11913813 -0.054032147 0.22707668 0.14497371 0.24124013 -0.1679198 0.23008534 -0.20056741
-0.028810699 0.078936584 -0.20188022 0.13775656 -0.21927993 0.027526228 0.11504501 -0.05391951
-0.08917895 0.0505726 0.21327117 -0.1817712 0.07972987 -0.2281665 0.1851667 0.10916794
0.21037239 0.08873457 0.09656145 0.04556048 -0.09633422 -0.19737704 -0.11751459 0.13571244
0.061052945 0.090594105 -0.04799798 0.17947242 -0.10350704 -0.19586992 0.19558021 0.014744325
-0.141277 -0.23274018 -0.12650742 -0.058171816 0.05673143 -0.067306235 -0.17225726 -0.066870295
0.0918025 -0.17897306 -0.033435814 0.12696904 -0.13911432 -0.16407749 -0.1496443 -0.017095642
0.08408604 0.19195071 -0.14042062 -0.0858262 0.1748168 -0.06531251 0.2087891 0.15955502
-0.15157233 -0.15349981 -0.1334329 -0.23259902 0.10389998 -0.021376882 0.22807841 0.09917242
-0.12330772 0.016881056 0.22418281 -0.08638497 -0.013467805 -0.22127587 -0.092999995 -0.00884844
0.18448472 -0.18007496 0.12413327 0.19123918 -0.18348311 -0.12612253 -0.10131369 -0.06108725
0.018979847 0.120685965 0.006200244 -0.13255286 -0.12586153 0.16369706 0.017041268 0.12941383
-0.034139376 -0.09885391 0.03519028 0.06982851 -0.20037587 -0.16531508 0.13759622 0.14332996
-0.23872337 -0.03917436 -0.15513392 -0.048681095 -0.15084569 0.005522862 -0.08086575 -0.1539968
0.20281245 0.07838795 0.14895996 0.11104891 -0.111938655 0.045521945 0.20638798 -0.12495911
-0.23602095 0.012702985 -0.032079175 0.03501688 0.11489805 -0.21624531 -0.0014512835 -0.10531326

2.weight f4 [256, 256]
00000000: 72bb 3d3d ef3e 59bd 585f 2f3d 9aa7 143a
00000010: d370 aabc bff8 28bd 58fd f1bc a4be 6c3d
00000020: 5a83 1bbd f188 003d d784 773d 05d9 783d
00000030: 2a69 473d e116 49bd ee96 b8bc e0ce 123d
00000040: e081 c63a b316 9b3c 3930 1a3d 6d50 6f3c
00000050: a443 2dbd ba3d a7bc 17ba 89bc 8a93 073c
00000060: ba99 6e3c 43ee e5bc a1aa c53b b0ff afbb
00000070: 5816 b6bb 8419 db3c e294 3ebd 3cfa f83c
00000080: 2176 f9bc 2173 74bc b883 02bc 8434 57bd
00000090: 349e d43c 0fad 1bbd b716 b43c 473e 3a3c
000000a0: 7f72 81bc 2fc2 45bd 0dcd a63a 045a e1bc
000000b0: 1e44 c3bc 1a75 223d 0f5f 1f3c 2728 0c3d
000000c0: 068b 2f3d 6505 c13c 9f53 5cbc cbd4 59bc
000000d0: 8ad9 68bc 455b 75bd 37b1 7ebd 37f2 26bd
000000e0: 3ebf bd3c ef1b 7bbd 524d bc3c 5c2b 243d
000000f0: 917d 7b3d 05a1 c93c dafb 57bd 915c d3bc
00000100: 96ae a43c 2e23 503d 7838 7ebd a04a 42bd
00000110: 0b5d b93c 783a 743c 7177 153d 80de 69bd
00000120: 82a0 423b 8b86 5b3d 2296 023d 9836 7b3c
00000130: 4e07 a8bb 19e5 783d 480d 15bc 5923 bdbc
00000140: 83fa 15bd b4b5 50bd 6b4a 063c 8641 943c
00000150: 5788 76bd 3097 4fbd 807e 6c3b 4bf1 a7bc
00000160: 0813 5fbd 4881 bb3c e513 06bc e3b9 05bd
00000170: 71d3 783c eb24 a2bc 302b 503b 0c35 26bd
00000180: 6669 0abd 3243 66bd 3941 ac3c 9d5c a23c
00000190: e05c 093c d8a6 dfbc ee8c 4abd d422 f1bc
000001a0: caf8 003d 4793 b13c 25d1 083d e1c1 52bd
000001b0: 0742 023d a411 f23c 96b8 64bd e456 663d
000001c0: 784a 4e3d f05f 623d 30ce 90bb f4b5 58bd
000001d0: 9c66 513d c13a 4d3b 33a7 27bc 4571 95bb
000001e0: 582d 13bd dde0 533d 1221 66bb a07d 893c
000001f0: 961b 7bbd 98e0 8dbc 0c75 74bd c8e9 3abc
00000200: 4d29 0dbc f11a 62bd 150d 07bc 66d0 36bd
00000210: e223 b8ba 89b3 3b3d c392 603d df03 ebbb
00000220: 04cd 343c cf01 f63c 286b 0e3d 757e 583d
00000230: 6812 b73c a00e 42bc 9673 c43c 820a d63c
00000240: aefd 21bc 53b9 6d3d 76d7 67bd 80c3 eb3c
00000250: cc32 34bd c211 353d 3e16 4c3d 843a 1dbd
00000260: 1023 76bd 0ccd 7f3d 0afb 7abd 8e4a 01bd
00000270: d041 1cbd c69b 083c 4882 12bd c4ae 09bd
00000280: 507e 383d 451e 32bd 9ae4 3d3d 9640 453d
00000290: aeda 4d3d e8f6 8bbc 5110 5abd 2e27 133d
000002a0: 915c bf3c a866 20bd 94b1 aebc 1caa 37bb
000002b0: 0694 34bd 1a16 6cbd d119 533d 5766 9abc
000002c0: f60d 55bd b973 163d 3925 76bd a456 4abd
000002d0: 5c7e ec3c 14d3 533c 9219 77bd c9bf 3bbd
000002e0: 0649 ad3c 705f 00bb 2396 1d3d 886b a7bc
000002f0: c371 3b3c d9bb 10bd 5d84 4fbd 9fba 523d
00000300: efd5 1e3d ab7e 0dbd 163a 243c 4f78 dc3c
00000310: 44e2 2abc c867 18bd cb9e 65bd a3e6 75bc
00000320: e409 80b9 556d 143d c07f 7bbd ead8 67bd
00000330: 339d 51bd 47c9 d13c 982d 62bc 92c2 783d
00000340: 87d8 dd3b bc20 5fbd e8ed 39bd a3c3 673d
00000350: a174 bcbb 43c3 6dbd e645 4cbc 5064 21bd
00000360: 37e4 8a3c 7099 a73b 4d22 6b3d 5d72 17bd
00000370: bbfa db3c 6d24 e33c 7c0e 923b 0131 d6bc
00000380: 97cb 4b3d 08c1 c5bc 47d5 dfbc 182b 683d
00000390: 3486 5abc 6607 6bbd 38e5 11bc 0d4d debc
000003a0: dee6 a0bb 4dc9 3f3d d371 713c 0096 1c3a
000003b0: 76cc c6bb 9ad1 c33c d084 c83c 2676 2dbd
000003c0: d769 d7bc 90a4 563d 8059 c13b 5fe5 973c
000003d0: f5ac 433d 5c69 e2bb 1ffe 343d 773c 27bd
000003e0: a8b0 39bd 886a 08bd c689 e23c 0477 913c
000003f0: 4a16 80bc 2ee6 c3bc 23ec 6ebd 8c10 f8bc
0.04632134 -0.053038534 0.042815536 0.00056707265 -0.020805752 -0.041252848 -0.029539749 0.057798997
-0.037967063 0.031380598 0.06042942 0.06075384 0.048684277 -0.049094085 -0.022532906 0.035841823
0.0015144907 0.018931722 0.037643645 0.014606577 -0.042300835 -0.020415176 -0.016812367 0.008274922
0.014563018 -0.028067714 0.0060323034 -0.0053710565 -0.005556863 0.026745565 -0.046528704 0.030392759
-0.030451836 -0.014920027 -0.0079659745 -0.052540317 0.025954343 -0.03800684 0.021983488 0.011367387
-0.015801666 -0.04828089 0.0012725905 -0.027508743 -0.023836192 0.039662458 0.009727254 0.03421798
0.042857192 0.023562143 -0.013447671 -0.013295363 -0.014212022 -0.059901495 -0.062180724 -0.040758338
0.02316248 -0.061305936 0.022986088 0.040080413 0.061399046 0.024612913 -0.05273042 -0.025800975
0.02010278 0.0508148 -0.06206557 -0.04743445 0.022627374 0.014906518 0.03649086 -0.05709696
0.002969772 0.053595107 0.03188146 0.01533284 -0.005127824 0.06076536 -0.009097405 -0.023088144
-0.03661586 -0.050954536 0.008196454 0.01809765 -0.060188618 -0.050681293 0.0036086142 -0.0205008
-0.05446151 0.022888795 -0.008183454 -0.03264798 0.01518713 -0.019792994 0.0031764023 -0.040577933
-0.033791922 -0.056216426 0.021027194 0.019819552 0.0083839595 -0.027301237 -0.049450807 -0.029435553
0.031487264 0.021676673 0.03340258 -0.05145443 0.03180125 0.029549427 -0.055840097 0.05623521
0.050363988 0.055267274 -0.0044191107 -0.0529079 0.051123247 0.0031315538 -0.0102327345 -0.004560622
-0.035931915 0.05172812 -0.0035114926 0.016783535 -0.061305605 -0.017319009 -0.059681937 -0.011408277
-0.008615804 -0.055201475 -0.008242865 -0.044632338 -0.001404878 0.045825515 0.054827463 -0.0071720923
0.011035208 0.03003016 0.03477016 0.052854974 0.022347644 -0.011844307 0.023980897 0.026128057
-0.009887142 0.058038067 -0.056601964 0.028779745 -0.043993756 0.04420639 0.0498259 -0.038385883
-0.060092032 0.062451407 -0.061274566 -0.03156524 -0.0381487 0.0083379205 -0.035768777 -0.033613935
0.045042336 -0.0434859 0.04636059 0.048157297 0.050257377 -0.017085508 -0.053238217 0.035926037
0.023359569 -0.0391604 -0.02132491 -0.0028024977 -0.04408648 -0.057638265 0.051538292 -0.018847628
-0.052015267 0.036731455 -0.060094092 -0.049399033 0.028868847 0.012928743 -0.06032712 -0.045837197
0.021152984 -0.0019588135 0.03847326 -0.020437017 0.011440697 -0.035335395 -0.05066334 0.051447507
0.03877824 -0.034544628 0.010023614 0.026912836 -0.0104299225 -0.03720835 -0.05605964 -0.015008601
-0.00024421432 0.03623708 -0.06140113 -0.05660335 -0.051175307 0.025608672 -0.013804816 0.06073243
0.006770197 -0.054474577 -0.0453929 0.056583058 -0.005751208 -0.058047544 -0.012467837 -0.039402306
0.016954524 0.0051147267 0.05740576 -0.0369743 0.026852956 0.02772733 0.004457293 -0.026146414
0.049754705 -0.024139896 -0.027323378 0.056681722 -0.013337661 -0.057380103 -0.008904748 -0.02713635
-0.004910334 0.046822835 0.01473661 0.00059732795 -0.006066854 0.023903657 0.024477392 -0.042349003
-0.026295586 0.052403033 0.005900562 0.01854199 0.047772367 -0.0069095325 0.04418766 -0.04082915
-0.04533449 -0.03330472 0.027653586 0.017756946 -0.015635628 -0.02391347 -0.058330666 -0.030281328

2.bias f4 [256]
00000000: e33d 353d d179 5f3d 7789 633c 2692 4abd
00000010: 122d 6fbd 25a1 993b 0023 00bd 5c4e f73c
00000020: 4640 373d 8b9f a7bc 9c1f c2bc 3ed4 fa3c
00000030: c1de 81bd a694 82bc 9b1b 16bd bc01 5c3d
00000040: bc0e 453d 1a98 373b 40f4 0b39 8071 7fbd
00000050: 40f1 883c 808f 04bc a46a 1a3d 94aa 59bd
00000060: 9298 823b 6128 0b3d 4ce5 8abb 4946 793c
00000070: aed8 30bb f98a c8bc eb60 b53c 0088 623c
00000080: 33a7 223c f05f f63b b39e 663d 84ab c0bc
00000090: 074b a5bc 7c43 3dbd 3608 17bd d53e 4bbd
000000a0: f583 4cbd 5c62 893c b581 4b3d da19 443c
000000b0: 406d c43b 96ce 73bd a87c ddba 2613 5e3d
000000c0: bc70 38bd 8823 033c 5228 15bd e623 ef3c
000000d0: 968e 5ebd 5e83 0dbd 7197 0a3c fdb5 2e3d
000000e0: 04df 01bc 51b8 80bd 6ca4 a13c 92fa 5cbd
000000f0: d21f 0e3d 05a5 a23c 1e65 d43c 7c9e ed3c
00000100: c8b5 0f3d 513b e8bc c997 76bd c0ed b53c
00000110: 34f7 8c3c 2658 b43c 46ed 523d 9f24 bcbc
00000120: 89e4 28bd 161c 82bc a4c2 fd3b e051 06bc
00000130: 7769 91bc e50c 21bd dfa8 febc 845f 65bd
00000140: 69c4 b13c fdc3 413d 2233 49ba 6a8d a53c
00000150: 1664 debc df3a 1a3c 8651 67bd 6b39 aa3c
00000160: be2b 683c 1513 14bd c0c5 4c3d 7819 fab9
00000170: cbce 863c c358 663d 3726 0e3d e594 29bd
00000180: c70a c0bc 3d84 9a3c 8132 d83a 524a be3b
00000190: 15f8 3abc 6ae0 04bd 1c64 d33c bc47 b3bb
000001a0: f43a 58bd d01b 1ebd 807e 413c 300e a33b
000001b0: 0093 40ba 2969 52bd fb11 783d f2e3 23bc
000001c0: 5adb 11bc b307 78bd 300c bcbc a871 453d
000001d0: a938 56bd 3cbc 10bd 34b0 5e3d 9c9d 053c
000001e0: 501b a8bc b84c 173d 3862 3bbc 0a5d 1fbd
000001f0: 649d 173d 2f24 bb3c a0fc 283d 2e3b 43bd
00000200: a6be 6cbd b266 46bd f755 753d b49f f8bc
00000210: 8cc8 423d 8c4c 4a3d c375 0cbc 32d0 edbc
00000220: 66f9 d63b 3d1a 2bbd e084 19bd b251 15bd
00000230: 1980 bf3c f46d f93c 1383 1a3d f091 fcbb
00000240: 34c5 1b3c de2d 183b e788 7d3d df7e 823c
00000250: 2e6e 00bb 4aa6 be3c 1cd8 78bd 5c23 fcbc
00000260: 0025 3b3d 7f07 8b3c f0f9 d83c 3f51 0d3d
00000270: fa7b 33bd a651 08bc c16c 4abd 0bd1 143d
00000280: 2fdc 7bbd 78bd 6abd a7b4 583d 7705 273d
00000290: 64cc 60bd e24e 593d 557a 443d d5a3 2ebd
000002a0: fa64 483d 5820 83bc f451 d2bc 0807 00bc
000002b0: acb0 5abc 9063 403c 5d1d 173d 1783 0dbd
000002c0: 8047 dd3c b8fd 153c ed09 663d 1e67 53bd
000002d0: 3ada 533d 5d83 62bd 2858 d53c 1bd1 4cbc
000002e0: a83b 413c e93a 59bd 0a27 a7bc 3581 15bd
000002f0: 0ecc e4ba 440c 743c de0f 8e3c 1bd9 d73b
00000300: 6097 05bb beb7 1d3d ae06 5cbd 71b4 4a3d
00000310: c69a 9fbc c717 613b 2e7d 40bd 02ae 873c
00000320: a765 a0bb f002 923c 216b 2e3d 7840 5ebd
00000330: c0b1 2d3d 074b df3c 388c 46bd ab5b 8ebb
00000340: a58c 9cbc 003f fe3b c1fd eabb 4012 02bd
00000350: 2382 543d 05e8 0dbd 9fcc dbbc 7820 6b3d
00000360: e45c 473d 60e4 f63c 57b5 59bd cc55 efbc
00000370: fb43 32bd 8bf1 babc a7e0 53bd ba72 013d
00000380: d8e1 56bc 8fc6 9cbc 12ef 29bb 22cc 513d
00000390: 357a 59bd 35de dabc 0395 a53b a154 553d
000003a0: 2398 97bb b692 bf3c f85e 573d 4234 d23c
000003b0: 7015 2c3c ff86 0ebd 16f5 74bd b0d3 75bc
000003c0: de01 033c ee04 213d 8380 373d 08f9 6c3d
000003d0: c181 31bd 9200 aebc df70 75bd a660 583d
000003e0: 9c76 5d3d 680d 0ebc 524d 53bd 2bed 593d
000003f0: 887b 6fbc cf65 763d 5087 1ebd e1ae 12bd
0.044248473 0.054559533 0.013887755 -0.049455784 -0.05839259 0.0046883994 -0.03128338 0.030188732
0.04473903 -0.020461818 -0.023696713 0.030618783 -0.06341315 -0.015940022 -0.03664742 0.05371259
0.048109755 0.0028014244 0.00013347063 -0.0623641 0.0167166 -0.008090854 0.037699357 -0.05314119
0.003985473 0.033974055 -0.00423876 0.015214511 -0.002698462 -0.02448033 0.02214094 0.01382637
0.009927559 0.007518761 0.05630369 -0.023519285 -0.020177377 -0.046206936 -0.036873065 -0.04962047
-0.04993053 0.016770534 0.049684245 0.011969054 0.005994469 -0.059523188 -0.0016898112 0.05421748
-0.045029387 0.008004077 -0.036415406 0.029191922 -0.0543352 -0.03454911 0.008458958 0.042654026
-0.007926706 -0.062851556 0.019731723 -0.0539499 0.034698315 0.019854078 0.025927123 0.029006235
0.03508547 -0.028348597 -0.060203347 0.022208095 0.01720772 0.022014689 0.051495813 -0.022966681
-0.041233573 -0.015882533 0.0077441502 -0.008198231 -0.017750485 -0.039318938 -0.031086383 -0.055999294
0.021700101 0.04730605 -0.0007675161 0.020209033 -0.027147334 0.00941345 -0.05647423 0.020779332
0.014170585 -0.03615101 0.049993277 -0.00047702692 0.016456028 0.056236994 0.034704413 -0.041401763
-0.023442639 0.018861884 0.0016494544 0.0058071995 -0.011411686 -0.03244058 0.025804572 -0.005471198
-0.052790597 -0.038600743 0.011809945 0.0049760565 -0.00073461235 -0.05136982 0.060564023 -0.010003077
-0.008902395 -0.060554218 -0.02295503 0.048204094 -0.05230013 -0.035335764 0.05436726 0.008155253
-0.020520836 0.0369384 -0.011436991 -0.03890709 0.037015334 0.022844402 0.041256547 -0.04766386
-0.057799004 -0.04843778 0.059896436 -0.03034959 0.047554538 0.049389407 -0.008572998 -0.02902994
0.0065604923 -0.04177307 -0.037480235 -0.036454864 0.023376511 0.030447938 0.03772266 -0.007707827
0.009507466 0.0023220698 0.06189814 0.015929637 -0.0019596922 0.023272652 -0.060752973 -0.03077858
0.045689583 0.016971348 0.026486367 0.03450131 -0.043819405 -0.008320248 -0.049420122 0.03633217
-0.06148928 -0.057309598 0.05290666 0.040776696 -0.054882422 0.053053744 0.047968227 -0.04263671
0.048924424 -0.016006634 -0.025673844 -0.007814176 -0.013347786 0.011742488 0.036893237 -0.034548845
0.027011633 0.00915473 0.05616181 -0.051612012 0.05172179 -0.05530106 0.026043013 -0.0125010265
0.011794008 -0.053034697 -0.020404357 -0.036500175 -0.0017455833 0.0148955025 0.01734155 0.0065871603
-0.0020384416 0.03850531 -0.053717308 0.04948849 -0.019482981 0.0034346448 -0.04699438 0.016562466
-0.0048949304 0.017823666 0.042582635 -0.0542607 0.042405844 0.027257456 -0.048473567 -0.004344424
-0.019110033 0.007758975 -0.007171363 -0.031755686 0.05188192 -0.0346451 -0.02683097 0.05740401
0.04867257 0.030138195 -0.053151455 -0.029215716 -0.043521862 -0.022820255 -0.051727917 0.031603552
-0.013115369 -0.019137649 -0.002592985 0.051220067 -0.05309506 -0.026717285 0.005053164 0.05208266
-0.0046262904 0.023385387 0.052580804 0.025659684 0.010503158 -0.03479671 -0.059804045 -0.0150040835
0.007996051 0.039311342 0.044800293 0.057854682 -0.043336634 -0.021240506 -0.059922095 0.052826546
0.054068193 -0.0086701885 -0.05158741 0.053204697 -0.0146168545 0.060155686 -0.038703263 -0.03581131

4.weight f4 [128, 256]
00000000: e2f8 8bbb 96b1 18ba 51e9 a3bb 920e 6bbd
00000010: 5cc2 40bd 8750 14bd 308c c9bc 9090 39bd
00000020: 679c 083d 00de d6b9 5c10 dbbc e420 cebc
00000030: 941b 6fbd e538 61bd 9fef 283d 8084 443b
00000040: 5cfb 29bd 3264 2abd 392c 6abd 05d4 073d
00000050: 1c13 15bd 136f 653c c9c7 ef3c b128 21bd
00000060: c8ef c3bb 1518 65bd fca3 f0bc 1d05 cc3c
00000070: 26dc 80bd bdb4 3cbd 7984 1a3d 6813 7cbd
00000080: cf09 143c c623 23bd c66d efbc 501e 5c3d
00000090: 692a 963b 576a 303d f6e0 6dbd 575e bd3c
000000a0: b87c 1d3d dc10 b13c ba5e 293d 0a47 6e3d
000000b0: e24b 253d f2b3 623d 5bc3 853c 9411 33bc
000000c0: c088 a9ba 7ff2 513d b0e0 3f3c 5d57 c3bb
000000d0: 882f 28bb 2d6d 74bd cead 75bd 10ff 253d
000000e0: 57d1 d3bc f0be 03bd acfc 813c fea3 4fbd
000000f0: fb73 b03b 516b 14bd 9e04 6c3d 1cfc 323d
00000100: 60c9 febc 4152 873c 2a64 793d 904a 063d
00000110: 587c 4fbd 1f72 0d3d 682a bc3b 7e97 9e3b
00000120: 18a2 073d fe7b 7fbd df94 39bd 9025 4fbc
00000130: 9640 9c3c 8896 013d f1aa aebc 110b 293d
00000140: 5a5a 453d 7304 44bd feb1 e1bc 0212 533d
00000150: e6ce 70bd fab8 54bd 2c04 53bc 517b 7bbc
00000160: d989 f83b 7222 a5bc 5847 cb3c 3924 70bd
00000170: f4e2 55bd b73a 81bd 7bbe 0bbd 72fa fd3c
00000180: f3fd 973c 8a9a 9a3c a96f 093d 464e 36bc
00000190: 690c 7b3d 6430 21bd 1074 26bc 0e90 063d
000001a0: dcb0 343d c449 4a3d de68 fdbb ba79 723d
000001b0: 64fc f0bc 52cc b3bc 7f6f 92bc b5ba 473d
000001c0: d96a 533c 1529 4d3d 94e7 d8bc 7c6c 563d
000001d0: 22b5 2e3d 36b2 583d 183c d93c 835c ac3c
000001e0: 8c40 023d 922a 0e3d 3085 483c af03 06bd
000001f0: 458c 9ebc 035b 13bd 805c fa3b d431 553d
00000200: 20f5 babc 1645 5d3c 93da e4bc 0ae3 4abd
00000210: 92ec 7dbd cd11 883b 5b59 c7bc 0a8e b0bc
00000220: 7931 7d3d be00 623d 3047 313d c06f 273d
00000230: eb0a 1e3d 0aee febb d483 ffbc d085 30bc
00000240: 3fe3 d83c 5f13 263d 480f 19bd b8a6 733d
00000250: 300d d23c 3c1f 66bd 583a d4bc 38d2 393c
00000260: edcd 8dbc e0dd 24bc 06d2 15bd 594d 28bd
00000270: 5d7f 47bd c985 283d e843 04bd 43d5 29bd
00000280: e5f8 43bc f316 c43c b9c0 6b3d ec69 6f3d
00000290: 7ed4 753d e60f 93bc 7e7b 173d cf1b 03bd
000002a0: 1f80 373d 8825 173d ea4f 5abd ed2c 1dbd
000002b0: 6a09 9ebc 8a93 c23c 6e5a 2cbc 76ee 42bc
000002c0: f014 e43c bcc9 d7bc c051 64bd a4fd e13c
000002d0: f110 afbc 879a 0a3c 64ad 8f3c 2ac6 1dbc
000002e0: 9c8d 5c3d 41aa 503d cc2f c2bc 1f3d efbb
000002f0: 0503 01bd fb28 0c3d 4a9b 76bc 7801 cebc
00000300: 3241 22bd f51f 5abd 91d2 aebc 54fd 3a3d
00000310: 77f6 ef3c df0a 273d 5a9f 6bbd be38 3ebd
00000320: ae44 033d b857 3abc c210 1cbc 10ec ffbb
00000330: c42a 73bd 60a9 503b 686b da3c dc02 353c
00000340: c1e5 30bd 38c9 723d 46e2 883c 42d2 523d
00000350: 0bda 3ebd aa4f 83bc 000f c43c b412 ce3c
00000360: 2093 473d eb06 99bc 8e26 3c3d 78c7 ce3c
00000370: 2f54 423d f44a 663c 5f45 253d d13b 1a3c
00000380: f457 acbc cddc e9bc c93a 0ebc 9a0b bbbc
00000390: c703 673d 3d3b 1a3d 98f7 1e3c 0d68 1a3c
000003a0: dc62 2fbd d10a 603d 0ef5 39bb b9f4 5dbd
000003b0: 0c4c 483c 45a2 3dbd f249 28bd 60fb 57bd
000003c0: 450b fe3b 6e91 403c 426b 5a3b 7089 26bc
000003d0: 5352 14bd 2aab cb3c bc28 cebc 12e8 b43b
000003e0: 78b5 46bd 74c9 44bd b414 1bbd 3578 4b3d
000003f0: 58f5 093c 24b2 85bc 84e1 80bd fe6c d0bb
-0.0042716125 -0.0005824802 -0.0050021787 -0.057386942 -0.047060356 -0.03620961 -0.02460298 -0.04530388
0.033352282 -0.00040982664 -0.0267412 -0.025162168 -0.05837591 -0.0549859 0.041244145 0.0029986203
-0.04149948 -0.04159946 -0.05717108 0.033161182 -0.036395177 0.014003533 0.02927007 -0.039345447
-0.005979512 -0.05593117 -0.029375069 0.024904782 -0.0629199 -0.046070803 0.037723992 -0.061541945
0.009035542 -0.039829038 -0.029227149 0.053739846 0.0045826924 0.043070164 -0.058075868 0.023116274
0.03844902 0.021614484 0.041350104 0.058173217 0.04035557 0.05534739 0.016328504 -0.010929484
-0.0012934431 0.051256653 0.0117112845 -0.0059613422 -0.0025663096 -0.05967443 -0.059980206 0.04052645
-0.025856657 -0.032164514 0.015867554 -0.050693505 0.0053849197 -0.036235157 0.05762159 0.04369746
-0.031101882 0.016518714 0.06088654 0.032785952 -0.050655693 0.034532662 0.00574236 0.0048398366
0.03311357 -0.062374108 -0.04530799 -0.012643233 0.019073766 0.0316377 -0.021321746 0.04127032
0.04818187 -0.047855806 -0.027550694 0.051530845 -0.058791064 -0.05193422 -0.012879413 -0.015349225
0.007584792 -0.020158026 0.024814293 -0.058628295 -0.052218392 -0.06310027 -0.034117203 0.03100321
0.01855371 0.018872518 0.033553753 -0.01112706 0.061291132 -0.03935279 -0.010159507 0.032852225
0.04411398 0.049386755 -0.0077334484 0.05919812 -0.029417224 -0.021948013 -0.017875431 0.048762042
0.012903892 0.050088007 -0.026477613 0.052349553 0.04265321 0.05290433 0.026517913 0.021040207
0.031799838 0.034708567 0.012238786 -0.032718357 -0.019353995 -0.035975467 0.0076404214 0.052049473
-0.022821963 0.013505241 -0.027936256 -0.049532928 -0.06199319 0.0041525126 -0.0243346 -0.021552105
0.06181476 0.05517649 0.04328078 0.040878057 0.03858463 -0.0077798413 -0.03119079 -0.010774091
0.026475547 0.040545817 -0.03736809 0.059485167 0.025641054 -0.05618213 -0.025906727 0.011341624
-0.017310107 -0.010062665 -0.036577247 -0.04108939 -0.048705447 0.041143212 -0.032291323 -0.041463148
-0.011961197 0.023936724 0.05755684 0.058450624 0.0600171 -0.017951917 0.036983006 -0.032008942
0.04479992 0.036901027 -0.05329887 -0.038372923 -0.019291598 0.023751993 -0.010519607 -0.011897674
0.027842015 -0.026341312 -0.055742025 0.027586766 -0.021370383 0.008459694 0.017538734 -0.0096297655
0.053845987 0.050943617 -0.023704432 -0.0073009874 -0.03149702 0.03421877 -0.015051672 -0.025147185
-0.039612956 -0.053253133 -0.02134064 0.04565175 0.029292328 0.04078185 -0.057525016 -0.046440832
0.03204792 -0.011373453 -0.00952548 -0.0078101233 -0.059366956 0.0031839237 0.026662543 0.011048045
-0.04318786 0.05927393 0.016709458 0.05147005 -0.04659466 -0.016029198 0.023932934 0.025155403
0.048724294 -0.018680057 0.045935206 0.025241598 0.047443565 0.014055956 0.04034936 0.009413675
-0.021038033 -0.028547669 -0.008681008 -0.02283268 0.056400087 0.03765415 0.009702586 0.009424222
-0.04281889 0.054697815 -0.0028374824 -0.054188464 0.012225162 -0.04629733 -0.041086145 -0.052729964
0.0077528083 0.011753423 0.003332809 -0.010164604 -0.036211323 0.02486189 -0.025165908 0.005520829
-0.048512906 -0.048043683 -0.03786154 0.049675185 0.008420311 -0.016320296 -0.06293014 -0.006360649

4.bias f4 [128]
00000000: 982e 183c 9dc3 043d 551e 1e3d f4c5 983c
00000010: be64 aa3c 3793 643d 48fb 84b9 e8a7 443c
00000020: 07ad 2d3d b7ee 26bd 24e7 22bd c8f6 1cbc
00000030: ba1b 633d ffbc 3fbd f5f5 47bd c34e d4bc
00000040: 0384 123d f02e 3b3d bf2f 243d 42b1 193d
00000050: 607f 0c3c 0595 5e3d 6f22 c5bc 20bf df3c
00000060: c4ac 3abd 8806 66bd 4263 813d fbaf 6d3c
00000070: 5010 76bd 9c5b f2bb 100f 063c 4575 fb3c
00000080: 5425 953c 2be3 4a3d ad4c ee3c 7a03 0e3d
00000090: d870 b83c b039 f2bb 9209 5d3d da60 493d
000000a0: f29e 5d3d f72b 893c 4617 1dbd 6ec0 b43b
000000b0: 80fa 943b af63 253d f4da 40bd 4506 0cbd
000000c0: 31cb 033d 8c6d e6bc 0013 e8b9 dceb 07bc
000000d0: d2d6 90bc 2c6b b93c 0d6b d73c e720 d1bb
000000e0: e958 ea3c 96c3 5cbd 349b 62bd f8ee 37bd
000000f0: 2c1c e9bc 580a ddbc 2140 313d 7710 57bd
00000100: 5769 6b3d 273c 8dbc cabf 2c3d d2ae b03c
00000110: 4f71 7abd 814b 013c bede 453d c9d1 2c3d
00000120: a4c8 ba3a 0729 5f3d c77e f9bc a245 7abd
00000130: d2dc 713d 3656 61bb 6279 1dbd 676b 743d
00000140: 0a92 163d 60c5 c8bc 4eca 05bd 6c9f 3fbd
00000150: e07a 543b e54b 3abd 9418 443a 3770 f13c
00000160: 56b1 d2bb 7e01 4ebd 0c3e 353d d030 ffbc
00000170: e805 33bd ce30 2cbd 2568 523d 42b5 bebb
00000180: 537c 0cbd a8fa 313c c820 30bd 9c91 b4bb
00000190: d2de 423d 20df 5ebd 6322 953c 81e2 253d
000001a0: cd30 abbc 1271 d2bb 8f5c 14bd 6044 bbbc
000001b0: 4809 53bd 4c67 a739 6ca4 103d 0998 d2bc
000001c0: 353e 6d3d 64f1 bbbc e7e0 9a3c 8418 84bc
000001d0: 1c50 5fbd f7e2 7a3d 9275 e0bc 9ac2 5a3c
000001e0: 958a bd3b c8a8 5cbd a6bf 713c 946e 66bd
000001f0: ee7f fa3c 884d ba3c 8e14 7f3d af15 4abc
0.009288453 0.032413114 0.038603146 0.018649079 0.02079999 0.055804458 -0.0002536422 0.012002923
0.04240134 -0.040755 -0.039771214 -0.009580322 0.055446364 -0.0468111 -0.048818547 -0.025916463
0.035770427 0.04569906 0.040084597 0.03752256 0.00857529 0.054341335 -0.02406427 0.027312815
-0.04557492 -0.056158572 0.0631776 0.014507289 -0.06007415 -0.0073961746 0.008182302 0.030695567
0.018206276 0.04953305 0.029089296 0.034671284 0.022514746 -0.007392131 0.053964205 0.04916463
0.05410666 0.016744597 -0.038352273 0.0055161035 0.0045464635 0.04037827 -0.04708381 -0.034185667
0.0321762 -0.028128408 -0.00044264644 -0.008295979 -0.01768056 0.022634111 0.026296163 -0.006382096
0.028606849 -0.053897463 -0.055323794 -0.044905633 -0.028455816 -0.026982471 0.04327405 -0.052505936
0.057473507 -0.017240597 0.04217509 0.021567736 -0.061143216 0.007891537 0.048308127 0.042192254
0.0014250469 0.054482486 -0.03045596 -0.061101563 0.05904848 -0.003438366 -0.038445838 0.05967274
0.036760367 -0.024508178 -0.032663636 -0.046782896 0.0032421872 -0.045482535 0.0007480469 0.029472454
-0.0064298315 -0.05029439 0.044248626 -0.031151205 -0.043706805 -0.04203873 0.05136885 -0.0058199475
-0.034298252 0.010862984 -0.043000013 -0.005510522 0.04757578 -0.054412007 0.018204873 0.040499214
-0.020897293 -0.0064221704 -0.036221083 -0.022859752 -0.051522523 0.00031929684 0.035313055 -0.025707262
0.057920653 -0.022942252 0.01890607 -0.016124971 -0.054519758 0.061251607 -0.027399812 0.013352061
0.0057843425 -0.0538719 0.014755165 -0.0562578 0.03057858 0.022742048 0.06227546 -0.012334271

6.weight f4 [128, 128]
00000000: 4c25 73bd a682 013d 82cd 7bbd bff1 9b3d
00000010: 9cb5 6fbd 48b5 22bc eecc 553d 3f33 88bd
00000020: ab6c 08bd b0f0 d63b d082 52bc 0068 333c
00000030: 8eeb 4e3d 67f8 853d dc1f 8f3c f479 cf3c
00000040: 90ea 07bc 649e aebc e8ee 22bc 88d9 ab3c
00000050: dab0 713d cae6 653d 863c 413d 9032 d63c
00000060: 1c8b c33c 050b 87bd ccee 0cbd d4a1 c73c
00000070: f78d b33d a55d 893d 1ab3 89bd 50d6 b5bb
00000080: ee7b 233d 7015 d1bb 58ff c73c 8dc9 84bd
00000090: b44a 38bd e0f1 13bd 8c22 81bd 9339 b1bd
000000a0: 7ce0 dc3c 0036 7e3a f476 9cbd 0a94 633d
000000b0: 023e 743d 005f dc3a e4ab 74bd 9cbc 803c
000000c0: bed6 493d 7430 c3bc b433 23bd 79b8 ad3d
000000d0: d246 5bbd 6563 aabd c038 14bc 5177 a13d
000000e0: f46a 58bd 22a6 80bd 1d15 39bd f422 a83c
000000f0: 9f15 70bd caeb 9cbd 5fad 873d b8f4 bf3c
00000100: de2f 7a3d a6c6 433d f519 9a3d 2044 313c
00000110: 8ab5 533d c8b9 303c 6c1c cc3c 0846 60bc
00000120: a27b 50bd 2c7d d1bc 97ea 03bd 72bd 763d
00000130: 50aa 1bbc c77d 973d 9078 6f3c b08a d4bb
00000140: a260 00bd 00c9 873b 8e2b 173d 6282 a3bd
00000150: 4cd1 cf3c aaa9 353d 501a 73bc e09e fa3b
00000160: eab7 2e3d 907b 6fbc b57a 2cbd 2a45 b3bd
00000170: 660d 573d ea03 4a3d 7fa4 b1bd a016 d9bb
00000180: cd4f 983d c833 023c ef6c aabd 3ad7 773d
00000190: 6288 573d 36f3 5c3d 92df 6c3d bff3 a2bd
000001a0: 4c3f 153d c1e2 b3bd fcb6 a9bc 76fe 3bbd
000001b0: 854e 66bd 100e 1c3c 9e80 93bd c7e1 823d
000001c0: 4c53 a53c 464a 183d 26b3 2d3d eab2 fdbc
000001d0: e8f8 3bbc 629a 7d3d dc2e 00bd 30cf 4d3c
000001e0: da19 0d3d 637b 83bd 444d 69bd 5c83 a73c
000001f0: 78d1 70bc 95a6 acbd b0a3 a8bd 00fe 62bd
00000200: 9390 06bd 7a11 4abd da29 213d 8d9f 85bd
00000210: 38ae 6abc 315e 28bd f991 a0bd dad1 a4bd
00000220: 76f6 283d 9250 f3bc 00f1 8eb9 fb0a aa3d
00000230: f1e7 923d ccc6 c5bc 8088 f6ba 664a 92bd
00000240: 4005 573b 7432 c63c aaae 4a3d bc3c 9ebd
00000250: f616 7b3d 22b5 103d 2453 89bc 5c83 ccbc
00000260: b3d6 8e3d c991 803d 38c6 38bc 43cd 8c3d
00000270: 3e58 783d 74f5 2bbd e02b a73b cc8e ac3c
00000280: a04b 11bb bef0 1a3d c7c2 08bd 104e 89bd
00000290: 2912 a13d d4ff d63c b6bf 27bd 70ac 343c
000002a0: 4267 8dbd 15f4 863d 53f8 03bd c1c1 af3d
000002b0: aed1 263d 057b 73bd ee7e 49bd 79f6 803d
000002c0: ea0a e8bc 3a44 f6bc e082 acbb e88f fa3c
000002d0: 1eeb a0bd ecbe b0bc e204 643d a4da eebc
000002e0: a307 943d 2893 133c a2c4 513d 21fb 9c3d
000002f0: b515 31bd ea1d 023d 6005 5ebc fea9 57bd
00000300: a348 923d 05cc 9cbd 4868 bbbc 6724 ae3d
00000310: 4a6a 86bd c65d 19bd a819 c93c 10f8 debb
00000320: 72c3 473d 0006 c939 adb4 ab3d 8e28 6e3d
00000330: bc16 983c fb7e 1abd 5073 133c 3553 39bd
00000340: de69 7c3d d3a2 a73d 0e24 543d b0cb a6bc
00000350: 8873 e53c 77b1 a83d 264e d8bc 4787 b0bd
00000360: 4d4e 74bd 80a9 f3bb 0006 6039 c366 a4bd
00000370: b190 863d 86fd dfbc 1b12 62bd 009a 343c
00000380: b16f 85bd cc63 b33c 82bb e9bc 8e13 233d
00000390: 5c0b d13c 6371 40bd 61b2 63bd 75a1 6fbd
000003a0: 5612 293d a42a d4bc fc34 49bd 52a7 76bd
000003b0: fd93 a73d 225f 573d c01b eeba 0f4c 54bd
000003c0: 359a 30bd 998d 5dbd f7cb 8f3d 7e0b 293d
000003d0: 84c0 aa3c 9ea5 323d e695 a8bd f4f6 d43c
000003e0: 08de 1bbc e0a0 313c 42f2 f3bc 6b55 ad3d
000003f0: 2de7 ac3d 1c46 043d ce65 32bd 08a4 b3bc
-0.05936174 0.031618737 -0.061475284 0.07614469 -0.058522806 -0.009930916 0.05219739 -0.066503994
-0.03330676 0.006559454 -0.012848571 0.0109500885 0.05051761 0.065415196 0.017471246 0.025326706
-0.00829567 -0.02131576 -0.009944655 0.02097775 0.05900655 0.0561283 0.04717686 0.026147157
0.023870043 -0.06593899 -0.034407422 0.024369158 0.08767312 0.067073144 -0.06723614 -0.0055492297
0.03991311 -0.0063807294 0.02441375 -0.06483755 -0.044993117 -0.03611934 -0.063054174 -0.086535595
0.026962511 0.00096973777 -0.07639876 0.055561103 0.059629448 0.001681298 -0.05973424 0.015714936
0.04927706 -0.023826815 -0.03984423 0.08482451 -0.053534336 -0.08319739 -0.009046733 0.07884086
-0.052836373 -0.06281687 -0.04518615 0.02052448 -0.05861437 -0.07662161 0.06624865 0.02343212
0.061080806 0.047796868 0.07524482 0.010819465 0.0516868 0.010786481 0.024915896 -0.013688572
-0.050899155 -0.025572382 -0.032206144 0.060239263 -0.009501055 0.07397037 0.014616147 -0.0064862594
-0.031342156 0.004143834 0.03690677 -0.07983853 0.025368355 0.044351257 -0.014837816 0.007648334
0.042655863 -0.014616862 -0.04210921 -0.087534264 0.052503012 0.04932014 -0.08673953 -0.0066250116
0.07437096 0.007946916 -0.08321559 0.06050799 0.0526203 0.05394288 0.0578304 -0.07956647
0.036437318 -0.08783484 -0.020717137 -0.04589697 -0.056227226 0.009524837 -0.07202266 0.0639072
0.02018132 0.037180208 0.042407177 -0.030969102 -0.011472918 0.06191481 -0.03129469 0.012561604
0.034448482 -0.064200185 -0.056958452 0.02044838 -0.014698379 -0.084302105 -0.08234346 -0.055418015
-0.03285272 -0.049333073 0.039346553 -0.065245725 -0.014323764 -0.041105453 -0.07840342 -0.080478385
0.04125067 -0.029701505 -0.0002726391 0.083028756 0.071731456 -0.024142645 -0.0018808991 -0.071430966
0.0032809526 0.02419398 0.04948298 -0.07726428 0.061301194 0.03532899 -0.016763277 -0.02496498
0.069745444 0.06277806 -0.011277728 0.06875088 0.06063103 -0.04198213 0.005101666 0.021064185
-0.002217032 0.037827246 -0.03338888 -0.06704342 0.07864792 0.026245035 -0.040954314 0.01102744
-0.069044605 0.06589524 -0.032219242 0.085818775 0.04072731 -0.059443492 -0.049193315 0.06297011
-0.028325517 -0.03006183 -0.005264625 0.030586198 -0.07857345 -0.021575414 0.05566872 -0.02915699
0.07228019 0.009007253 0.051212914 0.076650865 -0.043233592 0.03176681 -0.013551086 -0.05265235
0.071427606 -0.07656101 -0.022876874 0.08503037 -0.06563242 -0.037442945 0.024548367 -0.0068044737
0.048770376 0.00038342178 0.083840705 0.058144145 0.018565528 -0.037718754 0.008999661 -0.045245368
0.0616244 0.08185353 0.051792197 -0.020360798 0.028009191 0.08236974 -0.026404452 -0.08619552
-0.059644986 -0.0074359775 0.0002136454 -0.08027413 0.065705664 -0.02734257 -0.055193048 0.011023045
-0.06515444 0.021898173 -0.028531794 0.03981357 0.025518112 -0.046983134 -0.055590037 -0.058503587
0.041277252 -0.025899239 -0.049122795 -0.060218163 0.081825234 0.05258096 -0.0018166229 -0.051830348
-0.043115813 -0.054090116 0.07021325 0.041270725 0.020843752 0.043614976 -0.08231716 0.025996663
-0.009513386 0.010841578 -0.029778603 0.08463558 0.08442531 0.032293424 -0.04355412 -0.021928802

6.bias f4 [128]
00000000: 08f8 70bc 01c9 33bd 8e2c 993d 551a 933b
00000010: e3da 0d3d 96f6 90bd 42ae 1c3d 1ea2 593c
00000020: dead f4bb bcc5 68bd db1f f7bb 3506 523d
00000030: 1cde 853c ddb2 9dbd 105a 65bc 260f 7b3d
00000040: 15fd 703d 3593 9abd bf76 92bd cf8f b0bb
00000050: e299 5bbc fc99 ffbb 0a55 c13c 6727 00bd
00000060: d14c 0e3d d8be 89bc 7abe 8e3d 1c2f e4bc
00000070: 2755 7cbd 72cd 843c f430 ddbc 3812 953c
00000080: 38d3 cc3c 9571 293d 8017 943c 1b0a 5bbd
00000090: f802 043d 8464 d33c 47f1 8ebd f262 92bd
000000a0: 00d3 a33c 1b2f 60bd 60e9 1fbb 1794 803d
000000b0: a983 75bd 30cb a4bd aaa8 5c3d 41bf 143c
000000c0: a0ad c53a f471 4c3c 41c5 c43c 6640 53bc
000000d0: 6a5b 98bd 4840 69bd 758f a83d 94e7 6a3d
000000e0: 7e28 cbbc bc1c 2dbd 4cce a03c 3826 78bc
000000f0: c019 bc3b 54cf a83c 396d afbd f649 ae3b
00000100: 0db4 bb3c e05a 8dbb c428 b23c 9df5 903d
00000110: dcfc e1bb 987c 9cbd 4f73 9c3d 9e54 40bd
00000120: 90c3 75bc 44eb 85bd 2461 13bd d218 873d
00000130: 0b8a 103d 9079 6fbd 474f a03d 646c 38bd
00000140: b50d 20bd 6540 b1bd a976 bbbc 298e 11bd
00000150: 977a 8dbd 30e7 31bd 8725 8d3b 77d6 67bc
00000160: b5d2 8ebd 0d71 123d 7a97 9e3d eb31 433d
00000170: 7cf2 853d 182a dfbc 77a0 99bd a3a0 94bd
00000180: 9e5b 7e3c 0995 e03c dfdc 8c3d c63a 18bd
00000190: 1bad 03bd a36f 5cbc fe05 abbd ac2f bc3b
000001a0: 1ef3 8f3d 7f16 ab3d 48a6 83bc 56c8 b83b
000001b0: 4ee5 0ebc f047 83bd 18bd c739 e929 4a3d
000001c0: b051 bfbb 205c 67bd 9f66 fb3c 48fc 1abd
000001d0: c635 13bd 7022 b2bd 743d 13bc c094 aebd
000001e0: f5f6 993d 2d19 da3b 2795 88bd 01cb a93d
000001f0: b6ed 2d3d 39a0 9b3d fa3f a5bd 0a81 81bd
-0.014707573 -0.043892864 0.07479201 0.004489223 0.034632575 -0.070782825 0.038252123 0.013283281
-0.0074670156 -0.0568292 -0.0075416393 0.05127545 0.016341262 -0.07700131 -0.013998523 0.061293744
0.058835108 -0.07547609 -0.07151555 -0.005388237 -0.013403388 -0.007800339 0.02360012 -0.031287577
0.034741227 -0.016814634 0.06969924 -0.027854495 -0.061604645 0.016211245 -0.027000882 0.018197164
0.02500306 0.041368086 0.018077612 -0.053476434 0.032229394 0.025804766 -0.06979614 -0.071477786
0.019998074 -0.054732423 -0.0024400577 0.06278246 -0.059940014 -0.080465674 0.053871788 0.009078802
0.0015081652 0.01247834 0.02401984 -0.012893772 -0.07439311 -0.05694607 0.08230487 0.057349756
-0.024799582 -0.04226373 0.01962962 -0.015145831 0.0057403743 0.020606674 -0.085657544 0.0053188754
0.022913003 -0.0043138117 0.021747954 0.07078097 -0.0068965983 -0.07640952 0.07639181 -0.046955697
-0.015000239 -0.06539014 -0.035981312 0.06596531 0.035287898 -0.05846554 0.07827621 -0.045025244
-0.039075572 -0.086548604 -0.02288373 -0.035535965 -0.06908148 -0.04343337 0.004307452 -0.0141502535
-0.06973783 0.035752345 0.077437356 0.047655027 0.06540391 -0.027241752 -0.07501309 -0.072572015
0.015524773 0.027414816 0.06878065 -0.037165426 -0.032147508 -0.013454351 -0.08350752 0.0057429876
0.07028793 0.083539 -0.0160705 0.0056391163 -0.008721663 -0.06410205 0.00038097124 0.049356375
-0.0058385953 -0.05648434 0.030688582 -0.03783825 -0.035939954 -0.08697975 -0.00898682 -0.085244656
0.075178064 0.006655833 -0.066690736 0.08290673 0.042463027 0.075989194 -0.08068843 -0.063234404
