models_4nomix/checkpoint66.pth.tar (torch_old, 7818 bytes, 8 tensors)

0.weight f4 [16, 17]
0	0xbd4863ab	-0.048923176
1	0xbe275663	-0.16341548
2	0xbe38607f	-0.1800556
3	0xbc95b72a	-0.018275816
4	0xbd52e2fc	-0.051486
5	0x3ca04888	0.019565836
6	0x3d83b9c5	0.06431917
7	0xbe48e95a	-0.19620267
8	0xbd797d7e	-0.060910694
9	0x3e4533ac	0.19257993
10	0x3e54eb53	0.20792894
11	0xbc44e57c	-0.012017604
12	0xbd514b1d	-0.051097024
13	0xbdb1ebf5	-0.08687583
14	0xbd25d171	-0.040482942
15	0xbdb151c6	-0.08658175
16	0xbe854efe	-0.2603683
17	0xbd9e7d46	-0.07738738
18	0xbdefa69a	-0.117016986
19	0xbe40da2b	-0.18833224
20	0x3d8b55a6	0.068034455
21	0x3e7a3886	0.24435624
22	0x3e2092b4	0.15680963
23	0x3e181140	0.1485033
24	0x3df2abd0	0.11849177
25	0x3d8c7a27	0.06859236
26	0x3e32aa98	0.17447889
27	0xbce30b7e	-0.02771544
28	0xbd1cdc7e	-0.038296215
29	0xbc3c58ab	-0.0114957495
30	0x3e5c900c	0.21539325
31	0xbe667c27	-0.22508298
32	0xbe6cea55	-0.23136266
33	0x3e33ebf8	0.17570484
34	0xbd2fc6e2	-0.04291428
35	0xbbdcc5c4	-0.0067374427
36	0x3df72c13	0.12068953
37	0x3dd1332c	0.102148384
38	0xbe0af3f1	-0.13569619
39	0x3bc623f7	0.006046768
40	0x3e1e88b2	0.15481833
41	0xba88fa5e	-0.0010450592
42	0xbdfa6673	-0.12226572
43	0x3df6bfb4	0.12048283
44	0xbd06e3a1	-0.032931928
45	0xbe09511a	-0.13409844
46	0xbe47eefb	-0.19524758
47	0x3e08fcf7	0.13377748
48	0x3d10ba0b	0.035333674
49	0x3e35d9b0	0.17758822
50	0xbbaab8ed	-0.005210033
51	0xbe7929cf	-0.24332355
52	0xbe6d304a	-0.23162952
53	0xbd663f8f	-0.056212958
54	0x3e0a9855	0.13534673
55	0x3e1e987d	0.15487857
56	0x3d960c9d	0.073266245
57	0x3d188f1c	0.037245855
58	0x3e1a1c2c	0.15049809
59	0x3dab3a25	0.083606996
60	0xbe0344d2	-0.12819222
61	0x3c43a690	0.011941567
62	0x3de8b2be	0.11362217
63	0x3cd62352	0.026139889
64	0xbdd91658	-0.10599965
65	0xbe6f4a1a	-0.23368111
66	0x3d47c36b	0.04877035
67	0xbe02644c	-0.12733573
68	0x3de71fb3	0.11285343
69	0x3e0a54a7	0.13508855
70	0x3dd7561c	0.10514471
71	0x3d2a3801	0.041557316
72	0xbd912d87	-0.07088762
73	0xbdc320ad	-0.09527717
74	0x3e449ded	0.19200869
75	0xbdd1f638	-0.102520406
76	0xbd8f349a	-0.06992455
77	0xbdbd49f3	-0.0924262
78	0x3e53688f	0.20645355
79	0x3daa350a	0.08310898
80	0xbc94c51b	-0.018160393
81	0x3d844315	0.064581074
82	0x3db8769a	0.090069965
83	0xbe196bd6	-0.14982542
84	0xbe5e9047	-0.21734725
85	0xbe6e690b	-0.23282258
86	0x3d2b8f8a	0.041884936
87	0x3d05fd41	0.032712225
88	0x3cd0866f	0.025454728
89	0x3e4f66e8	0.202541
90	0x3e45b6fc	0.19308084
91	0xbe3c1dd9	-0.18370761
92	0xbe15c903	-0.14627461
93	0x3e11a74d	0.14223976
94	0x3e0a1f96	0.13488612
95	0xbe256952	-0.16153458
96	0x3dd5fd0c	0.104486555
97	0x3dcaebc8	0.09908253
98	0xbd9ed1ba	-0.07754846
99	0x3d34945b	0.044086795
100	0x3d70c508	0.058781654
101	0x3e2aa7fa	0.1666564
102	0x3c37b8b1	0.011213467
103	0xbe04631b	-0.1292843
104	0xbe4899fb	-0.19589989
105	0xbd9eb2ef	-0.077489726
106	0xbd89cc76	-0.06728451
107	0xbdf4663c	-0.11933562
108	0xbe3083ce	-0.1723778
109	0x3d9c4460	0.07630229
110	0xbce7c8b3	-0.028293943
111	0x3e0a04d7	0.13478409
112	0x3dd1eea3	0.102505945
113	0x3e55f54d	0.20894356
114	0xbe757e50	-0.23973966
115	0xbd198405	-0.03747942
116	0xbd2f81bd	-0.042848337
117	0xbdd5f1e7	-0.1044653
118	0x3ac57330	0.0015064236
119	0x3e464de6	0.19365653
120	0xbe3ab4e5	-0.18233068
121	0xbc924d31	-0.017859073
122	0xbdfbadea	-0.12289031
123	0x3d97312d	0.073824264
124	0x3e2e46fb	0.17019264
125	0xbe2dc91f	-0.16971253
126	0xbdf203bf	-0.11817121
127	0x3e43c913	0.19119672
128	0x3d9fea63	0.078083776
129	0xbd65df7e	-0.056121342
130	0x3e5070e7	0.20355569
131	0x3d4641dc	0.048402652
132	0xbc10c253	-0.008835393
133	0x3e7622d8	0.2403673
134	0x3e7c36ee	0.24630329
135	0xbdb0c775	-0.086317934
136	0xbe69f7b1	-0.22848393
137	0x3dd979a2	0.10618903
138	0xbe67a562	-0.22621682
139	0x3d27ec3e	0.040996782
140	0x3d59f113	0.053208422
141	0x3e1d5671	0.15365006
142	0xbe56bff9	-0.2097167
143	0x3e23c788	0.15994084
144	0x3e650d08	0.22368252
145	0x3d8d0b20	0.068868876
146	0xbd8f0e9b	-0.06985208
147	0x3d8f703c	0.07003829
148	0xbd85a63d	-0.06525848
149	0x3da2180b	0.07914742
150	0x3d8b2576	0.067942545
151	0xbe06fa30	-0.13181376
152	0xbc82984f	-0.015941767
153	0x3da2f47b	0.07956787
154	0xbda0a985	-0.07844833
155	0x3e70a816	0.2350162
156	0x3cc78e54	0.02435986
157	0xbe07fc50	-0.13279843
158	0xbe25d72c	-0.16195363
159	0x3da66cf3	0.08126249
160	0xbcaf3bf2	-0.021390889
161	0x3e6211ca	0.22077098
162	0xbd5c6bf3	-0.053813886
163	0xbdd347c7	-0.10316425
164	0x3e3cba04	0.18430334
165	0xbcb92266	-0.02259941
166	0x3de1f6b7	0.11033385
167	0x3d42f0a7	0.047592785
168	0xbe58ce4a	-0.21172443
169	0x3e81fd3f	0.25388524
170	0x3e0cb1b4	0.13739663
171	0xbe7a6e52	-0.24456146
172	0x3e44bda4	0.19212967
173	0x3e5718cd	0.21005554
174	0xbc305eea	-0.010764817
175	0x3b8f42b7	0.0043719667
176	0xbe2973bc	-0.16548055
177	0x3db8313c	0.08993766
178	0x3e439d6d	0.19103022
179	0x3e2c09b6	0.1680058
180	0x3e7103b6	0.23536572
181	0x3e5c6a94	0.21525031
182	0xbdd5a843	-0.10432484
183	0x3e3c8963	0.18411784
184	0x3bcd5361	0.006266043
185	0x3e3789ba	0.17923632
186	0x3c7115e5	0.014714693
187	0x3b1bd0d6	0.00237756
188	0xbce6e940	-0.028187394
189	0x3dbacb7e	0.09120844
190	0xbdf7a5b1	-0.1209215
191	0x3d5a2ab3	0.053263377
192	0x3cb17b96	0.021665376
193	0x3cd1eadf	0.02562469
194	0x3df4fee4	0.11962679
195	0xbe2cd080	-0.16876411
196	0x3e1c5b02	0.15269092
197	0xbdc5d6c5	-0.09660105
198	0x3d6e1ed5	0.058134872
199	0x3e1d2746	0.15347013
200	0xbe4ba84b	-0.19888417
201	0xbe816f10	-0.25280046
202	0x3dd962cb	0.106145464
203	0xbbf4b2fe	-0.0074676266
204	0xbe0f0108	-0.13965237
205	0x3e457ed8	0.19286668
206	0x3e3837d0	0.17990041
207	0xbd94ad7a	-0.072596505
208	0x3ddf6ac4	0.10909036
209	0xbd5eb6c8	-0.054373533
210	0x3e663a03	0.22483067
211	0x3975f940	0.00023457874
212	0xbcbc0efc	-0.022956364
213	0xbdef70f9	-0.1169147
214	0xbdcd6219	-0.10028476
215	0xbe42ab82	-0.19010738
216	0x3e40b9cb	0.18820874
217	0xbdf30854	-0.11866823
218	0xbdd01328	-0.10159904
219	0x3e8b96b5	0.27263418
220	0xbbf1e547	-0.0073820683
221	0x3e4bb5ec	0.19893616
222	0x3e2249d1	0.15848471
223	0x3e6b2013	0.22961454
224	0xbe4e50d6	-0.20148024
225	0xbe536590	-0.20644212
226	0x3de3bce3	0.11120012
227	0x3cee2013	0.029068029
228	0x3db3c647	0.08778053
229	0xbe20abc3	-0.15690522
230	0xbde5aa6f	-0.11214148
231	0xbe279be8	-0.16368067
232	0xbc1726a9	-0.009225526
233	0xbde60c02	-0.11232759
234	0x3dcd0b34	0.100119025
235	0x3e89f598	0.26945186
236	0xbc16c598	-0.009202383
237	0x3dd320d0	0.10308993
238	0x3c0ba1c7	0.008522457
239	0x3d290441	0.041263822
240	0x3d03d265	0.03218307
241	0xbd9fbec0	-0.078000546
242	0x3e81a9c3	0.2532483
243	0xbe3ef7e6	-0.18649253
244	0x3d0d3229	0.034471665
245	0x3d95e998	0.07319945
246	0x3e439455	0.19099553
247	0xbe22fbfc	-0.15916437
248	0x3db2dc74	0.08733454
249	0xbe173524	-0.14766365
250	0xbdd514e6	-0.10404377
251	0xbe1318ee	-0.14364979
252	0x3e51a7b0	0.20474124
253	0xbe0967b0	-0.1341846
254	0x3d0fb658	0.035086006
255	0xbe4d0f93	-0.20025472

0.bias f4 [16]
0	0xbd1774e5	-0.036976714
1	0x3e587477	0.21138178
2	0x3e2d4505	0.1692086
3	0x3e3983b3	0.18116646
4	0xbd04897c	-0.032357678
5	0xbdd3e71f	-0.10346817
6	0xbc9959da	-0.018719602
7	0xbd61208b	-0.054962676
8	0x3dfb9a93	0.12285342
9	0x3e1f5198	0.1555847
10	0xbc691c79	-0.01422798
11	0xbcaae580	-0.020861387
12	0xbd409755	-0.04701932
13	0x3e19ea2e	0.15030739
14	0x3dace717	0.084425144
15	0xbdaad4b3	-0.083413504

2.weight f4 [32, 16]
0	0xbd4bb7c0	-0.049735785
1	0xbdd4f30c	-0.1039792
2	0xbe3f65e8	-0.18691218
3	0x3e113258	0.14179361
4	0x3cbdfd40	0.023192048
5	0xbe1c6e4c	-0.1527645
6	0xbe3fd946	-0.18735227
7	0xbcf738f0	-0.030178517
8	0x3e7455de	0.2386088
9	0xbdce41d8	-0.100711524
10	0xbe46ae1c	-0.19402355
11	0x3def363c	0.11680266
12	0x3cc6aa20	0.024251044
13	0x3e346d62	0.17619851
14	0xbddacb74	-0.10683337
15	0x3d829364	0.06375769
16	0x3df011cc	0.117221445
17	0xbd83ce08	-0.06435782
18	0xbe22d1b2	-0.15900305
19	0x3d0dd39b	0.03462563
20	0x3e5bfabe	0.2148237
21	0xbe3f4cba	-0.18681613
22	0xbe51d133	-0.2048996
23	0x3e1eb220	0.15497637
24	0x3db45e4d	0.08807049
25	0xbd9faf35	-0.0779709
26	0xbe23f459	-0.1601118
27	0xbe515e43	-0.20446114
28	0x3e38846d	0.18019266
29	0xbdb58d14	-0.08864799
30	0xbd85a295	-0.06525151
31	0xbdbf8cb9	-0.093530126
32	0xbe467dd0	-0.19383931
33	0xbd931ac7	-0.07182842
34	0x3d3f4da4	0.046704903
35	0xbe82d6ce	-0.25554508
36	0xbe43b017	-0.19110142
37	0x3e0dfdca	0.13866344
38	0xbcc9c74c	-0.024631165
39	0x3e85b65c	0.26115692
40	0xbcf6049d	-0.030031497
41	0x3cec0893	0.028812682
42	0xbd87f0e3	-0.06637742
43	0x3df2a365	0.11847571
44	0x3be382c1	0.0069430773
45	0x3e32a17d	0.17444415
46	0xbe48f015	-0.19622834
47	0x3e81580e	0.25262493
48	0xbe45c1dc	-0.19312233
49	0x3e26036d	0.16212244
50	0x3e7ff6ed	0.24996538
51	0x3e1605bc	0.14650625
52	0x3dc16ccd	0.0944458
53	0xbdfb5b34	-0.12273255
54	0x3d7a11b3	0.061052036
55	0x3e83a729	0.2571347
56	0x3e080551	0.13283278
57	0xbe1fa704	-0.15591055
58	0x3e1224c0	0.14271832
59	0x3e38f7a7	0.18063222
60	0xbe1055e2	-0.14095262
61	0xbde18c80	-0.110131264
62	0x3e090a66	0.13382873
63	0xbe42d285	-0.1902562
64	0x3e291521	0.16511966
65	0x3e55ec1e	0.20890853
66	0x3c20db5d	0.009817925
67	0x3e050e00	0.12993622
68	0x3e21983c	0.15780729
69	0x3e2e5ec0	0.17028332
70	0xbe020526	-0.12697276
71	0xbe42f966	-0.1904045
72	0xbdd48ab2	-0.103780165
73	0xbe6adfd6	-0.22936949
74	0x3deccbc6	0.11562304
75	0xbb40212e	-0.0029316652
76	0x3d49d2a6	0.049273156
77	0xbdcaab01	-0.09895898
78	0xbd41ec31	-0.04734439
79	0x3e503fe6	0.20336875
80	0xbe562620	-0.20912981
81	0xbe68f0d8	-0.22748125
82	0x3e2ad8f4	0.16684324
83	0x3e63a9ce	0.22232744
84	0xbe576508	-0.21034634
85	0x3dc718b4	0.097215086
86	0x3d872c08	0.06600195
87	0xbe21a9c6	-0.1578742
88	0xbe3375e8	-0.17525446
89	0xbe5156d4	-0.20443279
90	0xbe04bc5a	-0.12962475
91	0xbc932ce0	-0.017965734
92	0xbda9d6e8	-0.08292943
93	0xbd71c2b8	-0.05902359
94	0x3d8122e0	0.0630548
95	0xbe3ac4f0	-0.18239188
96	0x3e7eceed	0.24883623
97	0x3d6fe0b0	0.058563888
98	0xbd53f3fd	-0.051746357
99	0xbd764162	-0.060120948
100	0x3e104b3b	0.14091198
101	0xbe6c4dca	-0.23076549
102	0xbe393f43	-0.18090539
103	0x3e35967c	0.17733186
104	0xbccbd3a5	-0.024881193
105	0x3e3422ab	0.1759135
106	0xbe02331a	-0.12714806
107	0x3d35ad57	0.044354763
108	0xbdfb5bd1	-0.12273372
109	0x3dac3d88	0.08410174
110	0xbe7fda5a	-0.24985638
111	0xbcc92ef7	-0.024558527
112	0xbe42f30c	-0.19038028
113	0x3e6dc828	0.23220885
114	0xbd119c9b	-0.03554974
115	0xbe01714f	-0.1264088
116	0xbdf0c800	-0.11756897
117	0xbd4c16a1	-0.049826268
118	0x3e1184d6	0.14210829
119	0xbc5e7df7	-0.013579837
120	0x3ca8b151	0.020592364
121	0x3c0eeb68	0.008723117
122	0xbe34ff8a	-0.17675605
123	0x3e476898	0.19473493
124	0x3cf3f976	0.029782038
125	0xbe49bc20	-0.1970067
126	0xbe4d7250	-0.20063138
127	0xbca0b0d3	-0.019615566
128	0x3e3ab5e2	0.18233445
129	0x3e0c7c8f	0.1371939
130	0xbda6eef3	-0.08151045
131	0x3c390064	0.011291597
132	0x3e191df8	0.14952838
133	0xbba785ff	-0.005112409
134	0xbd7991ec	-0.060930178
135	0x3e203aef	0.15647481
136	0x3e395fa2	0.18102887
137	0x3e85e40e	0.26150554
138	0xbd710716	-0.05884465
139	0x3e4c4269	0.19947208
140	0xbe277306	-0.16352472
141	0x3e65251f	0.22377442
142	0xbe55bf3c	-0.20873731
143	0xbdd44ea6	-0.103665635
144	0x3d58b0ee	0.05290311
145	0x3e13973e	0.14413163
146	0xbe8b166e	-0.2716555
147	0x3e3f2511	0.18666483
148	0x3cd90fb4	0.026496746
149	0x3d1b7020	0.037948728
150	0xbdc63270	-0.09677589
151	0xbd9e01ef	-0.077152126
152	0xbe66cb7c	-0.2253856
153	0x3e623d5a	0.22093716
154	0x3e5c9a08	0.21543133
155	0xbe09f413	-0.13472013
156	0x3e85a903	0.26105508
157	0xbdb7011f	-0.08935761
158	0x3db0866b	0.08619388
159	0xbe84dcdc	-0.25949752
160	0xbe8853e8	-0.26626515
161	0x3d831764	0.06400946
162	0x3e83a3d7	0.25710937
163	0x3defd443	0.117104076
164	0x3d01edf5	0.031721074
165	0xbd34b00a	-0.044113196
166	0xbb9514a7	-0.004549581
167	0xbdffd19a	-0.1249115
168	0xbe48c730	-0.19607234
169	0x3e207698	0.1567024
170	0x3c8e5444	0.017374165
171	0x3e798bde	0.24369761
172	0xbe50e08a	-0.20398155
173	0x3dd894c5	0.105752505
174	0x3e2fadce	0.17156145
175	0xbe2f6a71	-0.17130448
176	0xbc098230	-0.0083928555
177	0x3e3f2b31	0.1866882
178	0x3d986170	0.0744046
179	0x3e5ecf24	0.21758705
180	0xbd280928	-0.041024357
181	0xbe5929cc	-0.2120735
182	0xbb33b4ed	-0.0027421073
183	0xbe3bb39f	-0.18330239
184	0x3e69897c	0.22806352
185	0x3e6b7e53	0.22997408
186	0x3e1a23bb	0.15052693
187	0xbe6b23f0	-0.22962928
188	0xbdc1b587	-0.09458452
189	0x3e61460c	0.21999377
190	0x3e7a5f3c	0.24450392
191	0xbe1eb209	-0.15497603
192	0x3e37ada9	0.1793734
193	0x3db13b2b	0.086538635
194	0x3e3f3a36	0.1867455
195	0xbe893c32	-0.26803738
196	0x3db03cf1	0.08605374
197	0x3d7a0324	0.06103815
198	0xbe54824e	-0.20752832
199	0x3e369c91	0.17833163
200	0xbdb95839	-0.0905003
201	0xbd79fce2	-0.061032183
202	0xbe3f0488	-0.18654072
203	0xbe5e6923	-0.21719794
204	0xbcfa06aa	-0.030520756
205	0xbe4bc409	-0.19899
206	0xbd6a0105	-0.05712988
207	0x3bac2da1	0.005254463
208	0x3df09f98	0.1174919
209	0xbcfd4dc3	-0.030920869
210	0x3d003e10	0.031309187
211	0x3dfc4972	0.12318696
212	0xbcee66ff	-0.029101847
213	0xbe868b37	-0.26278087
214	0x3da5c493	0.08094134
215	0xbe632e23	-0.22185569
216	0xbdfea07f	-0.12432956
217	0x3e2d811b	0.16943781
218	0xbe40cd3c	-0.1882829
219	0xbd4366da	-0.04770551
220	0x3d93a581	0.07209302
221	0xbcd77c8e	-0.02630451
222	0xbe7ae7f7	-0.2450255
223	0xbe203468	-0.15644991
224	0x3e61868d	0.22023983
225	0x3e314402	0.17311099
226	0x3dc7c5d6	0.09754531
227	0xbd54aaba	-0.05192063
228	0xbcf1976a	-0.029491145
229	0xbe12719e	-0.14301154
230	0x3d2aa3e0	0.04166019
231	0x3e074d49	0.13213076
232	0x3d5b16e5	0.05348863
233	0xbe533e0a	-0.20629135
234	0x3e01b146	0.1266528
235	0x3e442fc0	0.1915884
236	0xbe0e7ba4	-0.13914353
237	0x3e101a00	0.14072418
238	0x3d628476	0.055302106
239	0x3e537d78	0.20653331
240	0x3d94b0d4	0.0726029
241	0xbc9f8716	-0.019473594
242	0xbdd4d097	-0.10391348
243	0xbcc74bba	-0.024328101
244	0xbd412834	-0.04715748
245	0xbd39bd06	-0.045346282
246	0x3d1e6795	0.038673002
247	0xbcfc4142	-0.030792836
248	0x3e48e5ba	0.19618884
249	0x3e13cf6a	0.14434591
250	0x3dbd9f7f	0.09258937
251	0xbe21ae6c	-0.15789193
252	0x3bd4f298	0.006498646
253	0xbe1b824d	-0.15186425
254	0x3d116e72	0.03550572
255	0xbe5c86b4	-0.2153576

2.bias f4 [32]
0	0xbe5b65c8	-0.21425545
1	0x3e85bbc2	0.2611981
2	0xbdea6ec7	-0.1144691
3	0xbe23bce1	-0.1599002
4	0x3e36a8c8	0.17837822
5	0xbd773438	-0.060352534
6	0xbdea6aaf	-0.114461295
7	0x3e6a5080	0.22882271
8	0x3cd8e43f	0.026476024
9	0xbcad1aa2	-0.021130864
10	0xbd94603f	-0.0724492
11	0x3e78ae77	0.24285303
12	0x3e2a30e1	0.16620208
13	0x3d715953	0.058923077
14	0x3e1d675e	0.15371463
15	0xbd919d4b	-0.071100794
16	0xbd8b5015	-0.06802384
17	0xbaf76524	-0.0018874747
18	0x39edec54	0.0004538024
19	0x3dc081d5	0.093997635
20	0x3e4b0d24	0.19829232
21	0x3e173204	0.14765173
22	0xbcf99d33	-0.030470466
23	0xbe48ab5f	-0.19596623
24	0xbd9c37c9	-0.07627828
25	0x3c7ab8c1	0.015302838
26	0xbe26fb7b	-0.1630687
27	0xbd8ad556	-0.06778972
28	0x3e1b63f2	0.15174845
29	0xbdc24980	-0.09486675
30	0xbdf865b4	-0.12128773
31	0xbd0d7ead	-0.034544636

4.weight f4 [16, 32]
0	0x3d9367ac	0.07197508
1	0x3de40fff	0.111358635
2	0x3e3afa8c	0.18259639
3	0xbd72f0cd	-0.059311677
4	0xbb2beaca	-0.0026232474
5	0x3d47c750	0.048774064
6	0xbde88b5d	-0.113547064
7	0xbe0ca0af	-0.13733171
8	0xbdb67292	-0.08908571
9	0x3def307e	0.11679171
10	0x3d490cdb	0.049084526
11	0x3ce01ee2	0.027358476
12	0xbd906dde	-0.070522055
13	0x3da3adda	0.07992144
14	0xbdb4d73b	-0.088301145
15	0xbe340e7f	-0.17583655
16	0x3d68178d	0.056663085
17	0xbe19eeaa	-0.1503245
18	0x3e3fc2ca	0.1872665
19	0x3cf3076b	0.029666623
20	0x3cc65f81	0.024215462
21	0x3dec1ab8	0.11528534
22	0xbce57f13	-0.028014695
23	0xbdbd17ad	-0.092330314
24	0x3e35b849	0.1774608
25	0xbe35f1ab	-0.1776797
26	0x3e2dc1ce	0.16968462
27	0xbd0ddcad	-0.03463428
28	0xbd17641b	-0.036960702
29	0xbdd85c76	-0.105645105
30	0x3df21fc6	0.118224666
31	0xbd762e5e	-0.060102813
32	0x3d87b9ca	0.06627233
33	0x3e14bc47	0.14524947
34	0x3e045851	0.12924315
35	0xbe0dc266	-0.13843688
36	0x3e07c828	0.13259947
37	0x3dc3f236	0.095676824
38	0x3caafdab	0.020872911
39	0xbe44e632	-0.19228438
40	0xbe201c1d	-0.15635724
41	0x3df6a8b3	0.120438956
42	0x3e2ad6ee	0.16683552
43	0xbe53f5cf	-0.20699237
44	0x3d39d0b6	0.045365058
45	0xbbdc500d	-0.00672341
46	0x3de078ba	0.10960527
47	0xbd5fe887	-0.054665115
48	0x3ce876a3	0.028376883
49	0x3df91765	0.12162665
50	0xbd8dd2a0	-0.06924939
51	0xbe36e3a8	-0.17860281
52	0xbe15f31e	-0.14643523
53	0xbe03055b	-0.12795012
54	0x3dbd1785	0.092330016
55	0xbcc90753	-0.024539625
56	0xbaac0fb7	-0.0013127242
57	0x3dffc60f	0.124889486
58	0xbdabb9af	-0.08385026
59	0x3d5798c9	0.05263594
60	0x3e0d121f	0.13776444
61	0xbdaec9ee	-0.08534609
62	0x3dbc4712	0.09193243
63	0xbd22e4cd	-0.039768983
64	0x3deaf43e	0.11472367
65	0x3e0509a9	0.12991966
66	0xbdbd15c7	-0.09232669
67	0x3db045a6	0.086070344
68	0x3d1c165c	0.03810726
69	0x3d1c3854	0.038139656
70	0xbdf0fdc6	-0.117671534
71	0xbe3166cb	-0.17324369
72	0x3c8145f8	0.015780434
73	0xbe010aa6	-0.12601718
74	0x3d882e6c	0.06649479
75	0x3c93cc48	0.018041745
76	0x3e03a375	0.12855323
77	0x3cfa8e38	0.030585393
78	0xbbd10780	-0.006379068
79	0x3d80401a	0.062622264
80	0x3e2dd0c9	0.16974176
81	0x3a44cf00	0.0007507652
82	0xbdb07e41	-0.08617831
83	0x3d616fe4	0.055038348
84	0x3d4eee88	0.05052045
85	0x3d89a30a	0.0672055
86	0x3dd43fde	0.10363744
87	0x3e228b8d	0.15873547
88	0xbdbeabef	-0.093101375
89	0xbd4077a8	-0.046989113
90	0xbd8a8e85	-0.06765465
91	0x3d801d06	0.06255536
92	0x3d214ee8	0.03938189
93	0xbde4ebd4	-0.11177793
94	0xbe3060dc	-0.17224449
95	0xbe28f202	-0.16498569
96	0xbcdc5360	-0.026895225
97	0xbe442234	-0.19153672
98	0x3d280ef6	0.041029893
99	0x3dd8fa6b	0.105946384
100	0xbe04532e	-0.12922356
101	0x3e24d1e1	0.16095687
102	0x3d972ed7	0.07381981
103	0xbd438293	-0.047731947
104	0x3d935ffe	0.071960434
105	0x3e043f35	0.12914737
106	0xbe4b962d	-0.19881506
107	0x3d8a949a	0.06766625
108	0xbcac7f7a	-0.02105688
109	0x3d7ee474	0.06222959
110	0xbe1bb284	-0.15204817
111	0xbdf0b950	-0.117540956
112	0xbc070d1a	-0.00824287
113	0xbe4d84db	-0.20070212
114	0xbcdde5d0	-0.027087122
115	0xbde694d3	-0.11258855
116	0xbe45afa8	-0.19305289
117	0xbd9878c7	-0.074449115
118	0x3c2ee015	0.0106735425
119	0x3cc520de	0.024063524
120	0x3d27c439	0.040958617
121	0x3c664477	0.014054409
122	0xbc41aa43	-0.011820379
123	0xbe3d6f2c	-0.1849944
124	0xbcd1cdb6	-0.025610786
125	0xbe2c7ec1	-0.16845228
126	0xbdf340e7	-0.118776135
127	0x3dd672f8	0.10471147
128	0x3d33f3b8	0.0439336
129	0xbd39e30b	-0.04538254
130	0x3d03a8cd	0.032143403
131	0x3c4a0453	0.012330133
132	0xbd34e1cb	-0.044160645
133	0x3d81e18a	0.06341846
134	0xbd3e479e	-0.04645502
135	0x3cb2b15c	0.021813087
136	0x3e2dce1b	0.16973154
137	0x3deb3e72	0.1148652
138	0xbdd2c17b	-0.1029081
139	0xbcaf053b	-0.021364799
140	0xbb425ffb	-0.002965926
141	0x3db8e8a8	0.09028751
142	0x3ca46e13	0.020072019
143	0xbd7817eb	-0.060569685
144	0xbd89be0c	-0.06725702
145	0x3e07b7ed	0.13253756
146	0xbe26e826	-0.16299495
147	0xbdc90068	-0.098145306
148	0xbde90f0b	-0.11379822
149	0x3e24330c	0.16035098
150	0x3d05c3f6	0.032657586
151	0xbccc6c94	-0.024954118
152	0xbc714fe1	-0.014728517
153	0x3d812b3d	0.06307075
154	0xbd96ab7e	-0.07356928
155	0xbdd5cdce	-0.10439645
156	0xbe2bd51a	-0.1678051
157	0x3d5bbf80	0.053649426
158	0xbe646df6	-0.22307572
159	0xbe0591e5	-0.13043936
160	0xbc66e7d0	-0.014093354
161	0xbe0c18fe	-0.13681409
162	0xbe002e4c	-0.12517661
163	0xbd138b54	-0.036021546
164	0x3ce92d63	0.028464025
165	0xbcc39540	-0.023874879
166	0x3e1a6a8b	0.15079705
167	0x3d29bdeb	0.041440886
168	0xbe23518f	-0.15949081
169	0xbdf96cc3	-0.12178948
170	0xbd223a7b	-0.039606553
171	0xbd8158b9	-0.06315751
172	0x3d171bbd	0.036891688
173	0xbe18a837	-0.14907919
174	0x3e04242c	0.12904423
175	0xbe47d087	-0.1951314
176	0x3d71804a	0.058960237
177	0xbd3ba5ce	-0.04581242
178	0xbe113d23	-0.14183478
179	0xbd57f81a	-0.052726842
180	0xbd31f2f4	-0.04344459
181	0xbd7476f1	-0.059683744
182	0xbd657a22	-0.056024678
183	0xbd09395c	-0.033501968
184	0x3d33271a	0.043738462
185	0xbe14b6da	-0.14522877
186	0x3dc3897d	0.09547708
187	0x3d159812	0.03652198
188	0xbc94aa11	-0.0181475
189	0x3db22256	0.08697955
190	0xbc0caaf3	-0.008585679
191	0xbe44deb0	-0.19225574
192	0xbdc7d850	-0.09758055
193	0xbd189ca7	-0.03725877
194	0x3d76995c	0.06020485
195	0x3d0e9101	0.034806255
196	0x3ce1ecf5	0.02757881
197	0x3c007e10	0.007842556
198	0xbdd923c9	-0.106025286
199	0x3e128db3	0.14311866
200	0x3d13b409	0.036060367
201	0xbe291eca	-0.16515651
202	0x3e170569	0.14748158
203	0x3e0ff98f	0.14060043
204	0x3d55abd4	0.05216582
205	0xbe1c7df6	-0.15282425
206	0x3de31076	0.11087124
207	0x3dfa02be	0.12207554
208	0x3dd39bb5	0.10332433
209	0xbd67ada4	-0.05656208
210	0xbc6c5fb2	-0.014427112
211	0xbe5c4f8c	-0.2151472
212	0x3e0823ac	0.13294858
213	0x3e23b19e	0.15985724
214	0x3d82b9a5	0.06383065
215	0xbcbd82f7	-0.023133738
216	0x3c8dde38	0.017317876
217	0xbcb5016b	-0.022095403
218	0x3e1ac1b2	0.15112951
219	0x3e2089fe	0.1567764
220	0x3e54cb23	0.20780616
221	0xbdd5a5ea	-0.10432036
222	0xbd961587	-0.07328325
223	0x3d0068e3	0.031350028
224	0x3db3c30e	0.08777438
225	0x3d35d775	0.04439493
226	0x3d2c0cd4	0.04200442
227	0x3e1e3091	0.15448214
228	0xbe1fe51f	-0.15614747
229	0x3c86a5c8	0.016436473
230	0xbe1b2a6b	-0.151529
231	0x3e239d04	0.15977865
232	0xbe050973	-0.12991886
233	0x3d0f4d56	0.034985863
234	0x3e04e172	0.12976626
235	0x3d34ec65	0.044170756
236	0xbe30c832	-0.17263868
237	0x3d1844e0	0.03717506
238	0x3db47f36	0.08813326
239	0x3d2ff90c	0.04296212
240	0xbde481a0	-0.111575365
241	0xbdeba1e7	-0.1150549
242	0xbdc72160	-0.09723163
243	0xbe017448	-0.12642014
244	0xbc69e836	-0.014276555
245	0x3cac15a2	0.02100641
246	0x3e2a7190	0.16644883
247	0xbd8ed85c	-0.06974861
248	0xbe059f49	-0.13049044
249	0x3c88232f	0.01661834
250	0x3d904736	0.070448324
251	0xbdcbc53b	-0.09949728
252	0xbe2cd2cc	-0.16877288
253	0x3dfef5d9	0.124492355
254	0x3de425fa	0.11140056
255	0xbd0785f9	-0.03308675

4.bias f4 [16]
0	0x3de7a5e0	0.11310935
1	0xbc860175	-0.016358117
2	0xbe093dbe	-0.13402459
3	0x3db18cb3	0.08669414
4	0x3df274e2	0.118387
5	0x3d54c831	0.05194873
6	0x3e07a664	0.13247067
7	0xbd2f1268	-0.042742163
8	0x3d98ba5a	0.07457419
9	0x3d807589	0.06272418
10	0x3e069b8d	0.13145275
11	0x3c95ef81	0.01830268
12	0x3d9e0d7e	0.07717417
13	0x3df052df	0.117345564
14	0x3d2a5e26	0.041593693
15	0x3e31e999	0.17374267

6.weight f4 [16, 16]
0	0x3e341418	0.1758579
1	0x3d1eead4	0.03879817
2	0xbe674f6c	-0.22588891
3	0x3e80bd55	0.2514445
4	0xbbdf4183	-0.0068132295
5	0x3de9b0e7	0.114106946
6	0xbdfce51f	-0.12348389
7	0xbe378136	-0.17920384
8	0x3e4b7539	0.19868936
9	0x3d1badc2	0.038007505
10	0xbb88c9ee	-0.0041744625
11	0xbe6622b9	-0.22474183
12	0x3e36215a	0.1778616
13	0xbe66afb5	-0.22527964
14	0xbe5e07e1	-0.21682693
15	0xbccae590	-0.024767667
16	0xbdd28e43	-0.102810405
17	0x3d5bccc8	0.05366209
18	0x3e76a6bc	0.24087042
19	0x3e11dd97	0.14244686
20	0xbdf486e0	-0.11939788
21	0xbdb72000	-0.089416504
22	0x3d8e9956	0.0696284
23	0xbdbaf966	-0.091296
24	0x3daf41a6	0.08557443
25	0x3e32883e	0.17434785
26	0xbe596528	-0.21229994
27	0x3d84e537	0.06489032
28	0xbde2bb66	-0.110709
29	0x3dab63e4	0.08368662
30	0x3e79f214	0.24408752
31	0x3d778060	0.060425162
32	0xbe34a728	-0.1764189
33	0xbe1976b2	-0.14986685
34	0xbd641ba0	-0.055690408
35	0x3dd760e5	0.10516528
36	0x3c9b5379	0.018960701
37	0xbdbab10c	-0.091158
38	0x3dda6494	0.10663715
39	0xbe4c4d9b	-0.19951479
40	0x3d814ce6	0.06313495
41	0x3e5331ef	0.20624517
42	0xbe59b424	-0.21260124
43	0x3e43a7e1	0.1910701
44	0xbd9f1e63	-0.07769468
45	0xbdd1237a	-0.10211845
46	0xbd8d4bc6	-0.06899218
47	0x3e57a743	0.21059899
48	0x3b94074a	0.0045174705
49	0x3e29bc83	0.16575818
50	0x3e46f370	0.19428802
51	0x3e5b7bd7	0.2143396
52	0xbe01aa15	-0.12662537
53	0xbe1e93e9	-0.15486111
54	0x3d2438b1	0.040093128
55	0xbc17bbfe	-0.009261129
56	0xbdacfb98	-0.08446425
57	0xbdcc9586	-0.09989457
58	0xbd8f1dbe	-0.06988095
59	0x3e5a88b1	0.21341206
60	0x3e2f2bf7	0.17106615
61	0xbe84aca2	-0.25912958
62	0x3e1cc509	0.15309538
63	0x3d11304f	0.03544646
64	0x3e8377c9	0.25677326
65	0xbdaba465	-0.08380965
66	0xbe0216aa	-0.12703958
67	0xbe1c79a7	-0.15280782
68	0x3e6d01f6	0.2314528
69	0x3e55aa6f	0.20865797
70	0x3e011cd0	0.12608647
71	0xbd5b43db	-0.05353151
72	0x3d8f6fdb	0.070037566
73	0x3ca0017e	0.019531962
74	0x3e4d8a7e	0.20072362
75	0x3e5b7beb	0.2143399
76	0x3ca760f3	0.020431971
77	0xbdeb57f1	-0.11491383
78	0x3e3b76c7	0.18307029
79	0xbd268fe0	-0.040664554
80	0x3d7318d0	0.059349835
81	0x3e74d0f1	0.2390783
82	0xbe0083a0	-0.12550211
83	0x3d6573e3	0.05601872
84	0xbd987de0	-0.07445884
85	0xbdec54cd	-0.11539612
86	0x3e0be38f	0.13661025
87	0x3e2cf62b	0.1689078
88	0xbd06bd21	-0.03289521
89	0x3dfc488a	0.12318523
90	0xbe1ee4a3	-0.15516905
91	0xbdbb2b98	-0.09139174
92	0x3e8f7616	0.2801978
93	0x3d709bce	0.058742337
94	0xbd601fa0	-0.05471766
95	0x3e521527	0.20515881
96	0x3e11d856	0.14242682
97	0xbe3d5fdd	-0.184936
98	0x3e31e332	0.17371824
99	0xbd34ad05	-0.044110317
100	0x3e3af184	0.18256193
101	0x3d66e2ac	0.056368515
102	0x3c241b81	0.010016323
103	0xbe751d72	-0.23937014
104	0xbe800937	-0.2500703
105	0xbe620ec0	-0.22075939
106	0x3e581cd3	0.21104746
107	0xbe52e848	-0.20596421
108	0x3e0a0353	0.1347783
109	0x3aaddb25	0.0013264163
110	0xbe5b9414	-0.21443206
111	0x3d222b40	0.039592028
112	0x3d2f938e	0.04286533
113	0x3e31d71f	0.17367218
114	0x3e5c487a	0.21512023
115	0xbcdeb1fc	-0.027184479
116	0xbd95f4a2	-0.07322051
117	0x3e047ccd	0.12938233
118	0xbdd7d91a	-0.10539456
119	0xbe1d55bf	-0.15364741
120	0xbd999ae9	-0.0750025
121	0xbd98630e	-0.07440768
122	0xbe5197a5	-0.20468004
123	0x3e190372	0.1494272
124	0x3da8bce7	0.08239155
125	0xbd800b3c	-0.06252143
126	0x3d283442	0.041065462
127	0xbdd8d67a	-0.10587783
128	0x3decf0a4	0.11569336
129	0x3d51de9b	0.051237684
130	0xbe6643c2	-0.22486785
131	0x3d8bd583	0.068278335
132	0xbe08aa05	-0.13346107
133	0xbe1f39be	-0.1554937
134	0xbda9ef56	-0.08297603
135	0x3d8953f5	0.06705467
136	0xbdb1c124	-0.08679417
137	0x3dae33cf	0.085059755
138	0x3d7daf3d	0.0619347
139	0xbe119d75	-0.14220221
140	0x3e013d18	0.12620962
141	0x3e033bcf	0.12815784
142	0x3db6844b	0.08911952
143	0xbe406a22	-0.18790486
144	0x3e16b62a	0.14717928
145	0x3e4ab0c4	0.19793993
146	0x3e752046	0.23938093
147	0xbe0eb875	-0.13937552
148	0x3dd5eac0	0.10445166
149	0xbd47cc8e	-0.048779063
150	0xbd68e4b3	-0.05685873
151	0xbe294d19	-0.16533317
152	0xbe8046df	-0.2505407
153	0x3e75c462	0.24000695
154	0x3e5f75d0	0.21822286
155	0xbdb18631	-0.08668173
156	0x3df5c7cf	0.12001001
157	0xbc04332e	-0.008068843
158	0x3d1978b3	0.037468623
159	0xbe44b3d7	-0.19209228
160	0x3d39cce9	0.045361433
161	0x3be40786	0.0069589047
162	0x3dbc57fc	0.09196469
163	0x3aaddd74	0.0013264851
164	0x3dbee886	0.09321694
165	0x3c8a4872	0.016880248
166	0xbe3ae988	-0.18253148
167	0xba0cb88a	-0.00053680746
168	0xbdd076e6	-0.10178928
169	0xbe687a4b	-0.22702901
170	0xbd11fc96	-0.035641275
171	0x3e2e11a0	0.16998911
172	0xbd3a89b2	-0.045541473
173	0xbe02bef2	-0.12768152
174	0x3dbe8b85	0.09303955
175	0xbd466b8a	-0.0484424
176	0x3d8cb967	0.068713
177	0x3d6b9df5	0.057523686
178	0x3e0104fe	0.1259956
179	0x3da3923c	0.07986876
180	0xbe6496ce	-0.22323152
181	0x3e091aa2	0.13389066
182	0x3de3af14	0.11117378
183	0x3d31bdd4	0.043393925
184	0x3d600dfa	0.05470083
185	0xbe0aab35	-0.13541873
186	0x3e27b4ff	0.16377638
187	0x3d6327ba	0.055457808
188	0xbe3a2a3c	-0.18180174
189	0x3e8f7374	0.2801777
190	0xbe24b525	-0.16084726
191	0x3ca57098	0.02019529
192	0xbe919524	-0.28434098
193	0xbc6ea1d4	-0.01456495
194	0x3df3f090	0.11911118
195	0x3e1a08c4	0.15042406
196	0xbc275c2a	-0.010214845
197	0x3e10a743	0.14126305
198	0x3dd17d20	0.10228944
199	0x3e5d98a7	0.21640263
200	0xbd83ffcd	-0.064452745
201	0x3df165a2	0.11786963
202	0x3e23236e	0.15931484
203	0xbdbefcd0	-0.09325564
204	0xbe3825e5	-0.17983206
205	0x3e1dbe18	0.15404546
206	0x3ae9a38b	0.0017825229
207	0x3cbaf753	0.022823012
208	0xbd7c7c40	-0.06164193
209	0xbd6f636c	-0.058444425
210	0xbe3c138c	-0.18366832
211	0x3df83eb7	0.12121337
212	0x3d947848	0.07249504
213	0xbdd7a803	-0.105300926
214	0xbe144539	-0.14479531
215	0x3df5e541	0.12006617
216	0x3dcd5742	0.10026409
217	0x3db13bef	0.086540096
218	0x3da5beec	0.08093056
219	0xbda7873f	-0.08180093
220	0xbdad28fc	-0.08455083
221	0x3dd32e8c	0.103116125
222	0xbcd754a2	-0.026285473
223	0xbd591003	-0.052993786
224	0x3cf64704	0.03006316
225	0x3e0da5b4	0.13832742
226	0xbe0b5c90	-0.13609529
227	0xbcd82e5c	-0.026389293
228	0xbe4beda2	-0.19914868
229	0x3e19fddd	0.15038247
230	0xba20f21a	-0.00061395916
231	0x3e4e7576	0.20161995
232	0x3cbd504a	0.023109574
233	0xbe211302	-0.15729907
234	0xbde06da9	-0.10958416
235	0xbe83f6be	-0.25774187
236	0xbe141433	-0.1446083
237	0xbe39e195	-0.18152459
238	0xbd7be285	-0.061495323
239	0xbe8799ff	-0.26484677
240	0xbe72fabc	-0.2372846
241	0xbe26c8ad	-0.16287489
242	0xbe70bf30	-0.23510432
243	0xbe4d1d07	-0.20030604
244	0x3da02048	0.07818657
245	0xbdd2f99c	-0.103015155
246	0xbe33f722	-0.17574742
247	0x3e7d5c17	0.2474216
248	0x3e1755bd	0.147788
249	0xbe2a93ff	-0.16658019
250	0xbe639e52	-0.22228363
251	0x3ce8b269	0.028405385
252	0xbd10ddcc	-0.035367772
253	0xbd852453	-0.06501069
254	0x3e589442	0.21150306
255	0x3d8f8666	0.07008056

6.bias f4 [16]
0	0x3e11eb2b	0.14249866
1	0x3daa5929	0.08317787
2	0xbe113314	-0.14179641
3	0x3e13a7ef	0.1441953
4	0xbe2d6110	-0.16931558
5	0xbe0b6411	-0.13612391
6	0x3da1a79e	0.078932986
7	0xbd6b74ce	-0.05748444
8	0x3e2d9d15	0.16954453
9	0xbc5e12ed	-0.013554317
10	0x3e2b257c	0.16713518
11	0xbdd4315e	-0.103609785
12	0x3e40ea1d	0.18839307
13	0x3d7cba58	0.06170115
14	0x3e4c2b99	0.19938506
15	0x3e24c47f	0.16090582
