models_4nomix/checkpoint532.pth.tar (torch_old, 489035 bytes, 10 tensors)

0.weight f4 [256, 17]
0	0xbdc07559	-0.09397382
1	0xbe7f96c4	-0.24959856
2	0x3e0502a3	0.12989287
3	0x3d35784b	0.044304173
4	0x3e8bde46	0.2731802
5	0x3e618ce5	0.22026403
6	0x3d646449	0.055759702
7	0x3e282118	0.16418874
8	0xbd917f5d	-0.07104371
9	0x3e2abc80	0.1667347
10	0xbe657661	-0.22408439
11	0xbe0e72a1	-0.13910915
12	0x3d9a0df5	0.07522193
13	0x3d69b2b2	0.057055183
14	0x3e450ab6	0.19242367
15	0xbe030adc	-0.12797111
16	0x3c89c746	0.016818654
17	0x3e68d621	0.22737934
18	0x3dda6ff6	0.10665886
19	0x3e27362b	0.16329257
20	0xbe160904	-0.14651877
21	0x3e4cb2a3	0.1999002
22	0x3e9ccf6e	0.30627006
23	0xbdff385f	-0.12461924
24	0x3e5f2648	0.21791947
25	0xbe5d386d	-0.21603556
26	0xbdcbbe31	-0.099483855
27	0xbcb0f496	-0.021601003
28	0x3e18a08b	0.14904992
29	0x3e1cdad3	0.1531785
30	0xbde601f2	-0.1123084
31	0x3e4d4133	0.20044403
32	0xbd94c2af	-0.072636954
33	0xbddb0b30	-0.10695493
34	0x3d5ac283	0.053408157
35	0xbe42b3dd	-0.19013925
36	0xb95c6bf2	-0.00021021048
37	0x3e3de670	0.18544936
38	0x3d8dafe0	0.06918311
39	0xbd9c9b24	-0.07646778
40	0xbd8c6dd8	-0.068568885
41	0xbe7d771d	-0.2475247
42	0x3e4fb507	0.202839
43	0x3db552d3	0.08853688
44	0x3d54b419	0.051929567
45	0x3e5fc96d	0.21854182
46	0xbd946081	-0.07244969
47	0x3e8839c8	0.26606584
48	0x3be92f30	0.007116221
49	0xbb8f624a	-0.0043757306
50	0xbca4c9f2	-0.020115826
51	0xbe29e1af	-0.16589998
52	0xbdd86b73	-0.10567369
53	0xbe330636	-0.17482838
54	0x3e885e09	0.26634243
55	0x3e4fab62	0.20280221
56	0xbb73a976	-0.0037179864
57	0x3e5a51cc	0.21320266
58	0xbd595495	-0.05305918
59	0xbda1c928	-0.07899696
60	0xbe52dd11	-0.20592143
61	0xbdf2d994	-0.11857906
62	0x3da389f4	0.07985297
63	0xbbf93806	-0.0076055555
64	0x3d92bba0	0.07164693
65	0x3e77e9de	0.24210307
66	0xbc8453a4	-0.016153164
67	0xbd0f7b67	-0.035029795
68	0x3ce8b581	0.02840686
69	0xbe62722d	-0.22113867
70	0x3e86ab07	0.26302359
71	0xbda3233f	-0.07965707
72	0x3e29e2e9	0.16590466
73	0x3cca0a27	0.024663044
74	0x3d93c3fe	0.07215117
75	0xbe393abc	-0.18088812
76	0x3e2a14e8	0.16609538
77	0x3e27c433	0.16383438
78	0x3e8e0dc9	0.27744892
79	0x3d6a85e6	0.0572566
80	0x3e85f544	0.26163685
81	0x3e0c979f	0.13729714
82	0x3d54bca6	0.05193772
83	0x3e64390a	0.22287384
84	0x3e2b5ff3	0.1673582
85	0x3df73415	0.12070481
86	0xbe028e27	-0.1274954
87	0xbca9b38b	-0.020715496
88	0xbe144728	-0.14480269
89	0xbdb5aaf1	-0.08870495
90	0xbd3c0a42	-0.04590822
91	0xbd0ad038	-0.03388998
92	0x3e3ab9ce	0.18234941
93	0xbcec2660	-0.028826892
94	0x3e71ca99	0.23612441
95	0xbd65156b	-0.05592863
96	0x3c995f14	0.018722095
97	0x3c1e292a	0.009653369
98	0x3e870a75	0.26375166
99	0x3e6fb884	0.23410231
100	0xbdd626a4	-0.10456589
101	0x3d2d46e4	0.042303935
102	0xbe1b0423	-0.15138297
103	0xbcbdb25b	-0.023156336
104	0x3e5bd686	0.21468553
105	0x3d020669	0.031744394
106	0xbe046e4a	-0.12932697
107	0xbe24919b	-0.16071169
108	0x3d58ef04	0.052962318
109	0xbc7ac982	-0.015306832
110	0x3cd4584d	0.025921011
111	0x3e452c02	0.19255069
112	0x3d70e213	0.05880935
113	0xbe348b8d	-0.1763136
114	0x3e3c1dec	0.1837079
115	0x3e07c8d5	0.13260205
116	0xbb8d3398	-0.004309129
117	0x3dbbc187	0.09167772
118	0xbe1c20cf	-0.1524689
119	0x3e3dfd80	0.18553734
120	0x3e9a27f7	0.30108616
121	0x3dd8fa3a	0.10594602
122	0xbe21e4a4	-0.15809876
123	0x3d4bb4ca	0.04973296
124	0xbbf23786	-0.007391873
125	0xbe7ed40b	-0.24885575
126	0xbd28e8db	-0.041237693
127	0x3dda5509	0.106607504
128	0xbc6375e2	-0.013883086
129	0xbe32f9a8	-0.17478049
130	0xbe08617f	-0.13318442
131	0x3c2c21b8	0.010506086
132	0x3e00dd10	0.12584329
133	0xbe38eec9	-0.1805984
134	0x3e6ff0c4	0.23431689
135	0x3c2435bf	0.01002258
136	0x3e354843	0.17703347
137	0x3e35097a	0.17679396
138	0x3dc089d2	0.09401287
139	0x3e58e0cb	0.21179502
140	0x3ddf4e3f	0.10903596
141	0x3c3cd21e	0.011524705
142	0xbe4c933f	-0.19978045
143	0xbe1ef246	-0.15522107
144	0xbe20fab3	-0.15720634
145	0x3d52dfef	0.05148309
146	0xbc969a14	-0.018384017
147	0x3d916bd2	0.07100643
148	0x3e967f97	0.29394218
149	0xbe088b43	-0.13334374
150	0x3ddf1ad1	0.10893787
151	0xbdbb5efd	-0.09148977
152	0xbdcd412f	-0.100221984
153	0x3da2a723	0.07942035
154	0xbe82801c	-0.25488365
155	0x3ded596b	0.11589321
156	0xbe6b0c93	-0.22954015
157	0xbc425464	-0.011860941
158	0x3e68c416	0.22731051
159	0x3e85e2bb	0.26149544
160	0xbe09ca24	-0.13456017
161	0xbcc7c91d	-0.02438789
162	0x3e7dcb98	0.24784696
163	0x3d266872	0.04062695
164	0x3e30704e	0.17230341
165	0xbdee1c28	-0.11626464
166	0xbb78b96d	-0.003795232
167	0xbd9848fe	-0.07435797
168	0x3e8199c5	0.2531263
169	0x3e4cbcb8	0.19993865
170	0x3da5d20a	0.080967024
171	0xbd93ea14	-0.07222381
172	0x3c5fcb83	0.013659361
173	0x3da8d45a	0.08243628
174	0xbdf3f442	-0.11911823
175	0x3e13533e	0.14387223
176	0xbe497f82	-0.19677547
177	0x3e302256	0.17200598
178	0x3dd3133d	0.10306404
179	0xbe220339	-0.15821542
180	0xbe42b96f	-0.1901605
181	0x3e177058	0.1478895
182	0xbdbef913	-0.09324851
183	0xbe0a38f6	-0.13498291
184	0x3e05e5da	0.13075963
185	0x3df78674	0.12086192
186	0x3e859710	0.26091814
187	0xbe4ff061	-0.20306541
188	0x3e263df4	0.1623457
189	0x3bd02500	0.006352067
190	0xbda18cd9	-0.07888193
191	0xbc5d5be7	-0.013510681
192	0x3ded31ef	0.1158179
193	0xbd3bdda7	-0.04586568
194	0x3cdbb176	0.026818018
195	0xbd8d6c18	-0.06905383
196	0x3e350070	0.17675948
197	0xbe563857	-0.2091993
198	0x3d9b4d37	0.07583087
199	0x3e68e3fb	0.22743218
200	0x3e32d5e7	0.1746441
201	0x3dafca67	0.08583527
202	0xbe1357cf	-0.14388965
203	0xbe398f8e	-0.18121168
204	0xbd2bca9b	-0.041941267
205	0xbe1df29b	-0.15424578
206	0x3e39ed5d	0.18156953
207	0xbdc14da9	-0.094386406
208	0xbe10c23a	-0.14136592
209	0x3e2e8cc5	0.17045887
210	0xbdc8023d	-0.09766052
211	0xbe42242a	-0.18959108
212	0xbd546a64	-0.051859275
213	0xbe7846af	-0.24245714
214	0x3cf8e9c7	0.030384911
215	0x3d98754b	0.07444247
216	0xbd278613	-0.040899348
217	0xbd5c921e	-0.053850286
218	0xbe696366	-0.22791824
219	0xbe15aeb8	-0.14617431
220	0xbe43f773	-0.19137363
221	0xbe664306	-0.22486505
222	0x3e7cd500	0.24690628
223	0xbe5d5117	-0.21612965
224	0x3dbf845d	0.09351418
225	0xbd8930c7	-0.06698757
226	0x3e796af2	0.24357203
227	0xbd5806a9	-0.052740727
228	0x3e8b9e3d	0.27269164
229	0xbd845297	-0.06461065
230	0xbe16141c	-0.14656109
231	0x3dd399cd	0.103320695
232	0x3e8292c3	0.25502595
233	0x3e40abec	0.18815583
234	0xbe091876	-0.13388237
235	0x3e0021c7	0.12512885
236	0x3e7bd82e	0.24594185
237	0xbd60352a	-0.0547382
238	0x3e6aef32	0.22942808
239	0xbb2e88ab	-0.0026631753
240	0xbdbeb0cb	-0.09311064
241	0x3ddf3cf1	0.109002955
242	0x3e42e72e	0.190335
243	0x3d6eb243	0.058275472
244	0xbe873b96	-0.26412648
245	0x3de1a976	0.1101865
246	0x3cb138c9	0.021633523
247	0x3dc4d00c	0.09609994
248	0x3d514830	0.051094234
249	0x3e22a50f	0.15883277
250	0xbe77aee7	-0.24187814
251	0xbdc51643	-0.09623387
252	0x3de08407	0.10962682
253	0x3d5a4011	0.053283755
254	0xbdfa683a	-0.12226911
255	0xbb816f2a	-0.0039500194

0.bias f4 [256]
0	0x3e3c8d68	0.18413317
1	0xbdd11b4b	-0.10210284
2	0xbc8466d1	-0.016162308
3	0x3e316525	0.1732374
4	0xbe53a3d5	-0.20667966
5	0xbe30bc7d	-0.17259403
6	0xbd648b3e	-0.055796854
7	0x3e30e5fb	0.1727523
8	0xbd5c3285	-0.053759117
9	0xbc150210	-0.00909473
10	0x3e61f038	0.22064292
11	0x3cdce75c	0.02696579
12	0x3e23301e	0.15936324
13	0x3b7eda70	0.0038887523
14	0x3d1f548e	0.038898997
15	0x3de92c0d	0.11385355
16	0xbe516428	-0.20448363
17	0x3e34bb57	0.1764959
18	0x3e8f61b2	0.28004223
19	0xbe666104	-0.22497946
20	0xbd9f7ae2	-0.0778711
21	0x3c1f6213	0.009727973
22	0xbdcf0339	-0.101080365
23	0x3e47cad5	0.19510968
24	0x3e856c46	0.2605917
25	0x3d286a0d	0.041116763
26	0x3b6c1ffe	0.003602981
27	0xbdb35934	-0.087572485
28	0x3dfee874	0.12446681
29	0xbd8453ea	-0.06461318
30	0xba789d64	-0.0009483902
31	0x3e7800df	0.24219082
32	0x3d40778f	0.04698902
33	0xbc034d17	-0.008013985
34	0x3de932b7	0.11386626
35	0xbdc4afa3	-0.096038125
36	0x3e2b493c	0.16727155
37	0xbe53734b	-0.2064945
38	0x3d8a5d09	0.06756026
39	0xbd164551	-0.0366872
40	0x3df1c287	0.11804681
41	0x3db079c3	0.08616974
42	0x3e28b566	0.16475448
43	0xbe5196c9	-0.20467676
44	0x3e85d67b	0.26140198
45	0x3e1634c5	0.14668567
46	0xbe2a5ef5	-0.16637786
47	0x3e5f695e	0.21817538
48	0xbddd0375	-0.10791675
49	0x3d3a3043	0.045456182
50	0x3d1fc0b8	0.03900215
51	0x3d168fce	0.036758237
52	0xbe2987de	-0.16555735
53	0xbdaee9da	-0.085406974
54	0x3b5b95f0	0.0033506118
55	0x3ddefa7b	0.10887619
56	0x3e6d015d	0.23145051
57	0xbc56cb8b	-0.013110052
58	0xbe2cc0d1	-0.16870429
59	0x3e2bae02	0.16765597
60	0x3e6d7227	0.23188077
61	0x3e64d16c	0.22345513
62	0xbdf2a4fc	-0.118478745
63	0xbe01dc1c	-0.12681621
64	0x3e8d726b	0.27626356
65	0x3e0331eb	0.12812011
66	0x3e9e076b	0.30865034
67	0xbd6a0a1b	-0.057138544
68	0x3e3bb6d1	0.18331458
69	0xbc3d948b	-0.01157106
70	0x3de02e56	0.10946338
71	0xbd893bee	-0.06700884
72	0x3e1573c1	0.14594938
73	0x3dcd8658	0.1003539
74	0x3db4a398	0.088202655
75	0xbda98836	-0.08277933
76	0xbd01b0b4	-0.031662658
77	0x3e0a125d	0.13483568
78	0xbe53049e	-0.2060723
79	0xbd2a103e	-0.041519396
80	0xbdc4067a	-0.09571548
81	0x3cf2b36b	0.029626569
82	0x3e222ae4	0.15836674
83	0x3e33f229	0.17572846
84	0xbe85c5ca	-0.26127464
85	0xbe2fc9c7	-0.17166816
86	0x3e01afd1	0.12664725
87	0x3e3ef5bd	0.18648429
88	0xbca68150	-0.020325333
89	0xbe0d020c	-0.13770312
90	0x3de61c60	0.11235881
91	0x3e5eba50	0.2175076
92	0x3e868a4b	0.26277384
93	0x3ddd5567	0.10807305
94	0x3cff4c96	0.031164449
95	0xbd2bf8c5	-0.041985292
96	0xbe71885a	-0.2358717
97	0xbdfb1b99	-0.12261123
98	0xbd80c1a7	-0.06286936
99	0xbe4aad57	-0.19792686
100	0x3e7a213a	0.24426737
101	0xbbec6914	-0.0072146747
102	0xbe27d1cc	-0.16388625
103	0xbdf4b757	-0.11949032
104	0xbe68636c	-0.22694176
105	0x3c7409cd	0.014894915
106	0x3e5529dc	0.2081675
107	0x3e4cb01f	0.1998906
108	0xbe2953c4	-0.1653586
109	0xbe2b8052	-0.16748169
110	0x3de1b954	0.11021677
111	0xbe580282	-0.21094707
112	0x3e61cb46	0.22050199
113	0x3d58aa2d	0.052896667
114	0xbcb30257	-0.021851702
115	0x3dd8dd01	0.10589028
116	0xbe154c00	-0.14579773
117	0xbe5934fb	-0.21211617
118	0xbdadab84	-0.0847998
119	0x3e49d678	0.1971072
120	0xbe492c4b	-0.19645803
121	0x3e826bc5	0.25472847
122	0x3d928e1d	0.07156012
123	0x3c903c5c	0.017606907
124	0x3d6a4661	0.057196025
125	0x3e6b7892	0.22995213
126	0xbdf43ee2	-0.119260564
127	0xbcf4f732	-0.029903028
128	0x3e10ac80	0.14128304
129	0xbcdd0728	-0.026980951
130	0x3e85a0c7	0.26099226
131	0x3dcf71cd	0.10129128
132	0x3e5427dd	0.20718332
133	0xbe1891a9	-0.14899315
134	0x3e5c67cf	0.21523975
135	0xbe281433	-0.16413955
136	0xbced9a3e	-0.029004212
137	0x3d652e94	0.055952623
138	0xbe2b5d1b	-0.16734736
139	0x3e2be260	0.16785574
140	0xbe459c1c	-0.19297832
141	0x3ca1b5da	0.019740034
142	0x3e3028c1	0.17203046
143	0xbd0f986f	-0.03505748
144	0xbd8807e1	-0.06642128
145	0x3b8e8933	0.0043498515
146	0x3eac0cb4	0.33603442
147	0xbdfdb995	-0.123889126
148	0x3d767cf6	0.060177766
149	0xbe516c5b	-0.2045149
150	0x3e1e96bc	0.15487188
151	0x3df6c92a	0.12050088
152	0x3e4abf54	0.19799548
153	0x3d31b757	0.043387737
154	0x3e13930d	0.14411564
155	0x3df1dd3f	0.118097775
156	0xbda4595f	-0.08024859
157	0xbe2ff148	-0.17181885
158	0xbdb1bdd4	-0.08678785
159	0x3e62f6bc	0.22164434
160	0x3dd1c70d	0.10243044
161	0x3dc2f302	0.09519006
162	0xbb73d473	-0.0037205487
163	0x3e5e0561	0.2168174
164	0xbcf18f3d	-0.029487247
165	0xbd97ec38	-0.07418102
166	0x3e2acd93	0.16679983
167	0x3d55a273	0.052156877
168	0xbe04db36	-0.12974247
169	0xbe3f4240	-0.18677616
170	0xbdf4166c	-0.11918339
171	0x3d5e6f48	0.054305345
172	0x3cd7a5f1	0.026324244
173	0xbdaa83ac	-0.08325896
174	0xbe06ea6f	-0.13175367
175	0xbd84b8f2	-0.06480588
176	0x3d882270	0.066471934
177	0xbe2af7ba	-0.16696063
178	0x3cd1cd6e	0.025610652
179	0x3e1c289b	0.15249865
180	0xbd825e5f	-0.06365656
181	0xbe584767	-0.21120988
182	0xbe027f94	-0.1274398
183	0xbc739705	-0.014867549
184	0x3dc8d1cd	0.09805641
185	0x3e50f1d3	0.20404749
186	0xbe11fc6b	-0.14256446
187	0xbd282d37	-0.041058745
188	0x3e47bb31	0.19505002
189	0xbda2977a	-0.07939048
190	0x3e83c942	0.25739485
191	0x3e0818e3	0.13290744
192	0xbdccd1f5	-0.100009836
193	0xbe1b4e6c	-0.15166634
194	0xbe0a248e	-0.13490507
195	0xbe898192	-0.26856667
196	0x3df6453c	0.12024924
197	0x3d5b8217	0.05359086
198	0x3e8cd8a8	0.27509046
199	0x3e447b41	0.19187643
200	0xbda85b99	-0.08220596
201	0x3cdb6619	0.026782082
202	0x3e542838	0.20718467
203	0xbd80caac	-0.062886566
204	0x3c99beb7	0.018767698
205	0xbe377c29	-0.17918457
206	0xbdaf7f09	-0.08569152
207	0x39ed7936	0.00045294472
208	0x3e327854	0.17428714
209	0xbe1104bb	-0.14161961
210	0x3dfd1d80	0.12359142
211	0x3e30ff40	0.1728487
212	0xbdab895b	-0.08375808
213	0xbdbe3807	-0.0928803
214	0xbc9db435	-0.019250968
215	0xbd6561f9	-0.056001637
216	0x3d24a578	0.040196866
217	0x3e27e9ee	0.16397831
218	0xbd1a766a	-0.037710585
219	0xbe06301a	-0.13104287
220	0xbe0ffc61	-0.14061119
221	0x3e57fd53	0.2109273
222	0x3c56a297	0.013100288
223	0x3e039fc7	0.12853919
224	0xbd7a335e	-0.061084144
225	0xbdc44b75	-0.09584705
226	0x3c0f9ac5	0.008764927
227	0x3d9f17d8	0.0776822
228	0xbe13019d	-0.14356084
229	0xbdba9be4	-0.09111765
230	0x3e4b182b	0.19833438
231	0x3e096048	0.13415635
232	0xbe63ffe6	-0.22265586
233	0xbcbb0403	-0.022829061
234	0xbddb9c4d	-0.107231714
235	0xbbd698d5	-0.0065489807
236	0xbe1f1f57	-0.15539299
237	0x3d2acda7	0.04170003
238	0xbddbc955	-0.107317604
239	0xbe1680d7	-0.14697586
240	0x3e4c2ca9	0.19938911
241	0x3db615cf	0.088908784
242	0x3e64cd96	0.2234405
243	0x3ddaa1f3	0.106754206
244	0xbe1c3cfb	-0.15257637
245	0x3d9df807	0.07713323
246	0x3e3ff991	0.18747546
247	0xbddf1af1	-0.108938105
248	0xbe59655f	-0.21230076
249	0x3c1cb102	0.009563686
250	0x3d098ce0	0.033581614
251	0x3bef82b4	0.007309282
252	0x3dc84aa5	0.09779862
253	0xbdf28b51	-0.11842979
254	0xb7e42e30	-2.7201226e-05
255	0xbc8b90e1	-0.017036857

2.weight f4 [256, 256]
0	0x3c502411	0.012703911
1	0xbc18a233	-0.009316015
2	0x3dbcd3ec	0.092201084
3	0xbc7e3a39	-0.015516811
4	0x3d01ca27	0.031686928
5	0x3af2bfa4	0.0018520248
6	0xbdeb051b	-0.11475583
7	0x3d2a57c6	0.041587614
8	0xbcfe9957	-0.031078978
9	0x3dcc995c	0.099901885
10	0x3cdb0b55	0.026738802
11	0x3c194695	0.009355207
12	0x3def32e1	0.11679626
13	0xbd624867	-0.05524483
14	0x3bce8bd6	0.006303291
15	0x3d5e9614	0.054342344
16	0x3d7a5268	0.061113745
17	0x3ce44150	0.027863175
18	0x3d17378c	0.036918208
19	0x3cdee3ca	0.027208228
20	0xbd7d4642	-0.06183458
21	0x3add8db6	0.0016903195
22	0xbcd61b2c	-0.026136003
23	0xbc8e52b6	-0.017373424
24	0xbcf85534	-0.030314066
25	0xbbdab33a	-0.0066741975
26	0x3c487b4d	0.012236428
27	0x3c604c97	0.013690135
28	0xbb8d548c	-0.0043130573
29	0x3bdec670	0.006798558
30	0xbca10b6e	-0.01965877
31	0x3d541984	0.051782146
32	0xbdcac2f2	-0.09900464
33	0xbd188234	-0.037233546
34	0x3b5f82f1	0.0034105147
35	0xbd92c2e0	-0.07166076
36	0xbd16a3f3	-0.036777448
37	0xbcee2b16	-0.02907328
38	0x3c85f4c9	0.016352074
39	0xbc97e703	-0.018542772
40	0x3c6877c6	0.014188712
41	0xbcddba47	-0.027066363
42	0x3c282c32	0.010264443
43	0xbd2dc423	-0.04242338
44	0xbcb262bc	-0.021775596
45	0x3d00f49a	0.03148327
46	0xbbc0c985	-0.005883398
47	0x3d84eac1	0.06490088
48	0x3cdf45e9	0.027255015
49	0x3d5f8eee	0.054579668
50	0xbd29e8fa	-0.04148195
51	0xbc4d0880	-0.012514234
52	0xbd15a07c	-0.036530003
53	0xbd7479e7	-0.059686568
54	0xbdf60356	-0.12012355
55	0xbbc87086	-0.0061169295
56	0x3b61d462	0.0034458865
57	0xbdb4f91d	-0.08836577
58	0xbaf8d11c	-0.0018983218
59	0x3d9affca	0.07568319
60	0x3ddf4ca9	0.10903294
61	0xbc63368d	-0.013867986
62	0xbc366c6f	-0.011134251
63	0x3d0be70a	0.034155883
64	0xbd048f0a	-0.032362975
65	0x3da6342a	0.08115418
66	0xbdc5a336	-0.09650271
67	0xbc953e3b	-0.01821815
68	0x3c2ff5cf	0.010739758
69	0xbc3852e7	-0.011250234
70	0x3d4d3e4d	0.050108243
71	0xbcb06f02	-0.021537308
72	0x3b649cba	0.0034883455
73	0x3dba2649	0.090893336
74	0xbb515ce1	-0.003194623
75	0x3d803404	0.06259921
76	0x3cd0e746	0.025500905
77	0x3d07007a	0.03295944
78	0xbd323bf9	-0.043514226
79	0x3d136840	0.035988092
80	0xbd762775	-0.060096223
81	0xbc9f7ce9	-0.019468741
82	0x3dad710d	0.08468828
83	0xbc082525	-0.008309637
84	0xbd3b28f7	-0.045693364
85	0xbcae12fd	-0.021249289
86	0xbca9e66e	-0.02073976
87	0xbd155862	-0.03646124
88	0xbb717595	-0.0036843766
89	0xbd4b4d45	-0.049634237
90	0xbd148925	-0.036263604
91	0xbdc2171d	-0.09477065
92	0xbc9b44c8	-0.018953696
93	0xbc26daf6	-0.01018404
94	0xbd968155	-0.07348887
95	0xbd498e55	-0.049208004
96	0xbd95f6ae	-0.07322441
97	0xbd8331da	-0.06405993
98	0x3dc25679	0.094891496
99	0x3d0e4ac3	0.034739267
100	0xbd3ac4b7	-0.04559776
101	0xbd485531	-0.04890937
102	0xbd275792	-0.040854998
103	0x3cd3beb6	0.025847774
104	0x3d90ecb8	0.070764005
105	0x3d291849	0.041282926
106	0x3ca0f608	0.019648567
107	0xbd9ed20e	-0.077549085
108	0x3cc9cb71	0.024633141
109	0xbced93bf	-0.029001115
110	0xbd335d9b	-0.04379044
111	0x3dc1a9d6	0.09456222
112	0x3d8bfa31	0.068348296
113	0x3d102935	0.035195548
114	0x3d15dc49	0.036587033
115	0xbdaf3b6a	-0.08556254
116	0x3da849e1	0.08217216
117	0x3d8092f8	0.06278032
118	0x3d331660	0.04372251
119	0xbd3126fb	-0.043250065
120	0xbd353352	-0.044238396
121	0x3da2f654	0.079571396
122	0xbd23565b	-0.039877277
123	0x3d036f6f	0.032088693
124	0xbdc4c09d	-0.096070506
125	0xbdb79fba	-0.08966012
126	0xbdf3c221	-0.119022615
127	0xbca53b67	-0.020169927
128	0x3d646fda	0.055770732
129	0xbd9dd12d	-0.07705913
130	0x3c627478	0.013821714
131	0xbd1d1b91	-0.038356367
132	0x3d3ff984	0.046868816
133	0x3d5d404f	0.054016408
134	0x3d0c75f8	0.03429219
135	0x3c1ec590	0.009690657
136	0x3d318375	0.043338258
137	0x3d890fd9	0.06692476
138	0x3d41029c	0.04712163
139	0x3da8fcf6	0.082513735
140	0x3da6a32a	0.0813659
141	0x3ce40260	0.027833164
142	0x3d88b34b	0.066748224
143	0xbafe2002	-0.0019388201
144	0x3bbb5c44	0.005717786
145	0x3d5edc85	0.054409523
146	0xbe075853	-0.13217287
147	0x3da083b5	0.07837621
148	0xbdda6374	-0.106635004
149	0x3dcba2f8	0.09943193
150	0x3d43a1f5	0.047761876
151	0xbd5687ee	-0.052375726
152	0xbd1ad026	-0.037796162
153	0x3da07df3	0.07836523
154	0xbceab13c	-0.028648965
155	0xbddfd651	-0.109295495
156	0xbc05c1c4	-0.008163873
157	0x3d4cdb31	0.050013725
158	0xbb6e95b0	-0.0036405139
159	0xbdcc0bfb	-0.099632226
160	0x3cd13559	0.025538133
161	0xbcbc3d26	-0.022978377
162	0x3d4e50d3	0.05037005
163	0x3ccc3108	0.024925724
164	0x3c25da24	0.01012281
165	0xbc8348fd	-0.016026014
166	0xbdb6cd5a	-0.089258865
167	0x3d3912f9	0.04518411
168	0x3d6c0f68	0.05763188
169	0x3c9eb68d	0.019374156
170	0xbbb8f6d7	-0.00564466
171	0xbbfb8d09	-0.007676725
172	0xbcb04899	-0.021518992
173	0xbdaa3158	-0.08310193
174	0x3d5641f1	0.05230898
175	0xbd88a2de	-0.066716895
176	0xbd4d0a7b	-0.050058823
177	0x3d58d84a	0.052940644
178	0xbdc06851	-0.09394897
179	0xbdac62f6	-0.08417313
180	0xbca8cf48	-0.020606652
181	0x3d20e7ab	0.039283436
182	0xbd60ec7f	-0.05491304
183	0xbbbfea84	-0.005856814
184	0xbd2cf0a0	-0.042221665
185	0xbb7400f0	-0.0037232004
186	0x3dbff22b	0.09372362
187	0xbd498695	-0.049200613
188	0x3d83c46f	0.06433951
189	0xbaf5a4ba	-0.0018741109
190	0xbd9cbffd	-0.07653806
191	0x3da017a1	0.07817007
192	0x3d172178	0.036897153
193	0x3c1bd22d	0.009510559
194	0x3d2ef43a	0.04271338
195	0x3d87f36f	0.06638228
196	0x3cb5581f	0.022136746
197	0xbdc9192e	-0.09819256
198	0xbdd70b3a	-0.10500188
199	0xbda06e3c	-0.078335255
200	0x3dac321c	0.08407995
201	0xbc83a280	-0.016068697
202	0xbd35455d	-0.044255603
203	0xbc5bfd01	-0.01342702
204	0xbcceaa6c	-0.025227748
205	0xbd141894	-0.036156252
206	0x3d87f664	0.06638792
207	0x3d75fc43	0.06005503
208	0x3d438998	0.04773864
209	0xbcd2e17f	-0.02574229
210	0x3cb870ba	0.02251469
211	0x3ce058e8	0.027386144
212	0xbd25f0e0	-0.04051292
213	0xbd896b13	-0.06709876
214	0xbd95c203	-0.073123954
215	0xbe002ab7	-0.12516294
216	0x3c3ae174	0.011406291
217	0x3cc62054	0.024185337
218	0x3db423b2	0.08795871
219	0xbdc1e146	-0.094667956
220	0x3da24add	0.07924435
221	0x3c067cfb	0.008208509
222	0xbd2391a2	-0.03993381
223	0x3bf76283	0.0075495853
224	0x3d279f75	0.040923554
225	0x3cbc3c99	0.022978114
226	0xbd732f85	-0.05937149
227	0x3d86deea	0.06585486
228	0xbd81e04e	-0.06341611
229	0xbd8b6fdb	-0.06808444
230	0x3d6fb251	0.058519665
231	0xbcc3645a	-0.023851562
232	0xbc41c808	-0.011827476
233	0x3d63a9ac	0.055581734
234	0x3c483eb6	0.012221983
235	0x3c258521	0.010102541
236	0xbc555fe1	-0.013023348
237	0x3d1e2707	0.038611438
238	0x3d1a34c8	0.037647992
239	0xbc172d0d	-0.00922705
240	0xbce03693	-0.027369773
241	0x3de95659	0.11393423
242	0xba098270	-0.0005245572
243	0x3d8c3f0e	0.06847964
244	0x3d8cd1af	0.068759315
245	0xbc68b540	-0.01420337
246	0x3d939e24	0.07207897
247	0xbd78d7b7	-0.060752597
248	0xbcab5f9e	-0.020919617
249	0xbcf9e536	-0.030504804
250	0x3d909381	0.07059384
251	0x3c88b7c1	0.016689183
252	0x3cace106	0.021103393
253	0xbe03cbf8	-0.12870777
254	0xbd270f6e	-0.0407862
255	0x3ba98331	0.00517311

2.bias f4 [256]
0	0x3cf5450b	0.029940149
1	0x3d4b6631	0.049658004
2	0x3c8f58f8	0.017498478
3	0xbd2dafbd	-0.042403925
4	0xbd31bcf9	-0.04339311
5	0xbb3ad40d	-0.002850774
6	0xbd303d16	-0.043027006
7	0x3cd48fdb	0.025947502
8	0x3c8ab4eb	0.016931972
9	0xbcb006f9	-0.0214877
10	0xbce7a3c9	-0.028276341
11	0x3c7f8bd2	0.015597301
12	0xbda7f484	-0.082009345
13	0xbc7c92d8	-0.01541587
14	0xbcf08098	-0.029358193
15	0x3d902d23	0.07039859
16	0x3d825b04	0.06365016
17	0x3c4bdd0e	0.01244284
18	0x3c0fcf2c	0.008777421
19	0xbd8bc540	-0.06824732
20	0x3c0897b8	0.008336954
21	0xbc8b71e6	-0.017022084
22	0x3d63cd0f	0.05561548
23	0xbd58aa99	-0.05289707
24	0xbc42e819	-0.011896157
25	0x3cc34e2d	0.023840988
26	0xbac7bf8e	-0.0015239583
27	0x3c749cba	0.014929945
28	0xbcb87139	-0.022514926
29	0xbd0c4d0e	-0.034253173
30	0x3cd61fcb	0.026138207
31	0x3c94dfbd	0.018173093
32	0x3a33d7ef	0.0006860485
33	0x3ce8a854	0.028400578
34	0x3d1cfa87	0.03832486
35	0xbcf3ae1d	-0.02974611
36	0xbd1a3956	-0.037652336
37	0xbd450233	-0.0480978
38	0xbd067f6e	-0.03283637
39	0xbd557b5d	-0.0521196
40	0xbd685f71	-0.056731645
41	0x3cdc2a65	0.026875684
42	0x3d2cca7e	0.0421853
43	0x3c6e30c0	0.01453799
44	0x3c54859c	0.012971308
45	0xbd840867	-0.06446915
46	0xbd10c644	-0.03534533
47	0x3d3e46d3	0.046454262
48	0xbd536983	-0.051614296
49	0xbae682f2	-0.0017586632
50	0xbd380d09	-0.044934306
51	0x3c133a2e	0.008986039
52	0xbd890d93	-0.06692042
53	0xbd0d7dfb	-0.034543972
54	0x3c6c9804	0.01444054
55	0x3d5e544b	0.054279607
56	0xbcfbe9d1	-0.03075114
57	0xbd81178b	-0.063033186
58	0x3bc1fee7	0.0059202793
59	0xbd1bc23d	-0.038027037
60	0x3ccc0090	0.024902612
61	0x3c2f83c3	0.010712567
62	0x3cc52bbe	0.02406871
63	0x3d022dc1	0.031781916
64	0x3d26be6d	0.040708948
65	0xbca8404e	-0.020538475
66	0xbd9920a5	-0.074769296
67	0x3ceedb44	0.029157288
68	0x3d2176e2	0.039420016
69	0x3c8ad2a3	0.016946143
70	0x3d4d7f3d	0.050170172
71	0xbc8ba20f	-0.017045049
72	0xbd8625f7	-0.0655021
73	0xbcc64e33	-0.02420721
74	0x3b2bdf62	0.0026225676
75	0xbc05e086	-0.008171206
76	0xbcd0be34	-0.02548132
77	0xbd494397	-0.049136724
78	0xbd292b06	-0.041300796
79	0xbd6f1dd9	-0.058378074
80	0x3ca76f16	0.020438712
81	0x3d503435	0.05083104
82	0x3c7c1bc0	0.0153874755
83	0x3cb4a51f	0.022051392
84	0xbb5cf250	-0.0033713765
85	0x3b78a476	0.0037939823
86	0xbd9f592c	-0.0778068
87	0x3cb4e27e	0.022080656
88	0x3b927861	0.0044699167
89	0xbcb2d5d3	-0.021830475
90	0x3cf82751	0.030292185
91	0xbaa689dc	-0.001270588
92	0x3b9bc6c9	0.0047539216
93	0x3d10e2f0	0.035372674
94	0x3c808924	0.015690394
95	0xbd478200	-0.048707962
96	0xbd04a8c5	-0.032387514
97	0x3c8b5116	0.017006438
98	0xbbec888c	-0.007218426
99	0x3c04b026	0.008098638
100	0xbc4c9a9d	-0.012488035
101	0xbd129b34	-0.035792544
102	0x3d08351d	0.033253778
103	0xbb98e522	-0.0046659866
104	0xbd6ca0cc	-0.057770535
105	0xbd149b69	-0.036281023
106	0x3ca507b3	0.020145273
107	0xba08accf	-0.0005213739
108	0xbc423b67	-0.011854983
109	0xbd86f4cc	-0.0658966
110	0x3d55d421	0.052204255
111	0xbc27dbea	-0.010245303
112	0xbcad7196	-0.021172326
113	0xbda2aacc	-0.07942733
114	0xbc009c5e	-0.007849781
115	0x3d24782a	0.04015366
116	0xbd867344	-0.06564954
117	0xbd2785ea	-0.040899195
118	0x3d311486	0.043232463
119	0x3988c537	0.00026086878
120	0xbc92cbfe	-0.017919537
121	0x3cc2a6f1	0.023761244
122	0xbcd35409	-0.025796907
123	0xbd2a76e6	-0.041617297
124	0x3d3eccbe	0.046581976
125	0x3c45ed78	0.012080543
126	0x3d147da8	0.036252648
127	0xbd78185d	-0.06057011
128	0xbd8b89cd	-0.06813393
129	0xbd560b94	-0.052257136
130	0x3d3aa392	0.04556615
131	0xbd15efa3	-0.03660549
132	0x3da503ea	0.08057387
133	0x3da2603c	0.079285115
134	0xbcaf0a32	-0.021367166
135	0xbd358960	-0.044320464
136	0x3cf743f7	0.030183775
137	0xbd82edad	-0.06392989
138	0xbd0fa4f9	-0.03506944
139	0xbcf54fa1	-0.029945197
140	0x3c373104	0.01118112
141	0x3c9b88e8	0.01898618
142	0x3cc4d03a	0.024025071
143	0xbc868421	-0.016420426
144	0x3c010fbf	0.007877289
145	0xbbc92a52	-0.006139078
146	0x3d6d6e1f	0.057966348
147	0xbc0fa431	-0.008767174
148	0xbceb5985	-0.02872921
149	0x3c62e51e	0.013848571
150	0xbd78d81c	-0.060752973
151	0xbb86d6cb	-0.004114961
152	0x3d3e8181	0.046510223
153	0x3c2bdea2	0.0104900915
154	0x3d288317	0.041140642
155	0x3d3f5445	0.046711225
156	0xbd5c966e	-0.0538544
157	0xbba73bf8	-0.0051035844
158	0xbd83a36e	-0.06427656
159	0x3c997341	0.018731715
160	0xbd5c85e8	-0.05383864
161	0xbd346adc	-0.04404722
162	0x3d81bfe0	0.063354254
163	0x3d130c0c	0.03590016
164	0xbd7511bf	-0.059831377
165	0x3d56cce2	0.052441485
166	0x3c96fe5b	0.018431833
167	0xbcd4982f	-0.025951473
168	0x3d2f15ec	0.042745516
169	0xbc129ccc	-0.008948516
170	0xbd14a5d8	-0.036290973
171	0xbccf9f17	-0.025344415
172	0xbc58535a	-0.013203466
173	0x3b94df9b	0.0045432574
174	0x3cee0bb9	0.029058324
175	0xbd154aa3	-0.036448132
176	0x3d3859c9	0.0450075
177	0x3ad428f0	0.0016186517
178	0x3d8fc609	0.07020194
179	0xbd525327	-0.05134883
180	0x3d634321	0.05548394
181	0xbd94fbb2	-0.072745696
182	0x3c96f46e	0.0184271
183	0xbc7c3f9f	-0.015396028
184	0xba7d9e52	-0.00096747756
185	0xbd471998	-0.048608392
186	0xbcb5037e	-0.022096392
187	0xbd3ef1c8	-0.0466173
188	0xbc15eddb	-0.009150947
189	0x3bdb9521	0.006701127
190	0x3cd7f554	0.026362099
191	0x3c3f8e2e	0.011691613
192	0xbc0b0ab7	-0.008486441
193	0x3d01bc1f	0.031673547
194	0xbd7210a5	-0.059097905
195	0x3d253618	0.04033479
196	0xbc21ce81	-0.0098758945
197	0xbb788648	-0.0037921835
198	0xbd681bdc	-0.056667194
199	0x3cf41829	0.029796677
200	0x3ac21913	0.0014808498
201	0x3c827638	0.015925512
202	0x3d22e2be	0.03976702
203	0xbd7b909f	-0.06141722
204	0x3d5856af	0.052817043
205	0x3bf6b444	0.0075288136
206	0xbd65dc00	-0.05611801
207	0xbcc58cdf	-0.024115024
208	0xbc1c846e	-0.009553058
209	0x3ce5dd23	0.028059548
210	0xbc5e20b1	-0.013557599
211	0xbd1c2d53	-0.038129162
212	0x3d259ff0	0.04043573
213	0xbd1d057a	-0.0383353
214	0xbca4437a	-0.020051707
215	0x3d746ad7	0.059672203
216	0x3d4f2fbc	0.050582632
217	0xbb46059d	-0.0030215748
218	0xbd649875	-0.055809457
219	0xbcd9df75	-0.02659581
220	0xbd230ec3	-0.039809
221	0xbd330ab2	-0.04371137
222	0xbd3f5333	-0.046710204
223	0x3d1ab74c	0.03777246
224	0xbc490b40	-0.012270749
225	0xbcb5386a	-0.022121627
226	0xbd0aabcf	-0.033855256
227	0x3d3a99b6	0.045556746
228	0xbd58cc4a	-0.0529292
229	0xbcdad460	-0.026712596
230	0x3a9cddce	0.0011967958
231	0x3d32a925	0.04361834
232	0x3b43d083	0.0029878921
233	0x3cb39ca3	0.021925276
234	0x3d95ad92	0.073084965
235	0x3c85d934	0.016338922
236	0x3a8cbcca	0.0010737416
237	0xbd31ccf7	-0.04340836
238	0xbd851815	-0.06498734
239	0xbd2c5552	-0.042073555
240	0x3be2965d	0.0069148974
241	0x3d5f6452	0.054539032
242	0x3ce5384d	0.027980948
243	0x3d6605c3	0.05615784
244	0xbd6d804a	-0.057983674
245	0xbc165b27	-0.009177006
246	0xbd6444dd	-0.055729736
247	0x3d234bf4	0.039867356
248	0x3d379063	0.044815432
249	0xbc46f567	-0.012143469
250	0xbd7ed10a	-0.062211074
251	0x3d280ce8	0.041027933
252	0xbcce7061	-0.02520007
253	0x3d099e07	0.033597972
254	0xbd381f6e	-0.04495185
255	0xbd4b634d	-0.049655247

4.weight f4 [128, 256]
0	0x3d2a787b	0.041618805
1	0xbba87e8a	-0.0051420378
2	0x3c9e1dcc	0.019301318
3	0xbd5b60b2	-0.053559013
4	0xbdb732bc	-0.08945224
5	0xbd391c40	-0.045192957
6	0xbd1272c5	-0.035753984
7	0xbd333098	-0.043747514
8	0x3d3b73e8	0.045764834
9	0xba8fa9be	-0.0010960621
10	0xbcdb2517	-0.026751084
11	0xbd5e988d	-0.054344703
12	0xbd7835b8	-0.060598105
13	0xbd6b81b9	-0.05749676
14	0x3d886d1f	0.06661438
15	0x3d7bdcec	0.061489984
16	0xbc8e11f0	-0.017342538
17	0xbd7919d1	-0.060815636
18	0xbdb29582	-0.087199226
19	0x3cd683ed	0.026185954
20	0xbcc5892e	-0.024113264
21	0x3c64763d	0.013944206
22	0x3d3e574a	0.046469964
23	0xbbc762bc	-0.006084768
24	0x3ccb5dd7	0.02482502
25	0xbda49ea5	-0.080380715
26	0x3b8d0a90	0.0043042377
27	0x3c97f608	0.018549934
28	0xbd665db9	-0.056241725
29	0xbd63a1c0	-0.05557418
30	0x3da69b95	0.08135144
31	0xbde0148b	-0.10941418
32	0x3c909643	0.017649775
33	0xbd87ddff	-0.06634139
34	0xbc804363	-0.015657132
35	0x3daf3921	0.08555818
36	0x3c485f74	0.012229789
37	0x3d815bd1	0.06316341
38	0xbd9c9dbe	-0.076472744
39	0x3d176c82	0.036968715
40	0x3db059cb	0.08610877
41	0x3d5fe3f9	0.05466077
42	0x3be1b467	0.0068879607
43	0x3d6790a9	0.056534443
44	0x3d8fb009	0.07015998
45	0x3d650242	0.055910356
46	0x3d192170	0.037385404
47	0x3c09633d	0.008385477
48	0xbaa988c0	-0.0012934431
49	0x3d333d01	0.04375935
50	0x3c0caafd	0.008585689
51	0xbb0d8e15	-0.002159958
52	0x3c217183	0.009853723
53	0xbd9236bd	-0.07139347
54	0xbd0f8d1f	-0.035046693
55	0x3d32f835	0.04369374
56	0xbb88dc5f	-0.004176661
57	0xbd557f53	-0.05212338
58	0x3d4934b5	0.04912253
59	0xbc9c7502	-0.019098762
60	0x3cd39ee1	0.025832595
61	0xbcd6bf38	-0.026214227
62	0x3def6c16	0.11690538
63	0x3d838e13	0.06423583
64	0xbcdb2b35	-0.026754001
65	0x3acb7924	0.0015523774
66	0x3d06ef9e	0.03294336
67	0x3d2f6bc6	0.04282739
68	0x38193b5e	3.6533333e-05
69	0x3d216b68	0.03940907
70	0x3d1dc1e6	0.038514994
71	0x3c8be631	0.017077537
72	0x3d546969	0.05185834
73	0xbd88de72	-0.06683053
74	0xbd960b67	-0.073263936
75	0xbd0a2e72	-0.0337357
76	0x3d771cf4	0.060330346
77	0x3d213b82	0.03936339
78	0xbc7d74e3	-0.0154697625
79	0x3d66ac24	0.05631651
80	0x3d5e5150	0.054276764
81	0xbc13e375	-0.009026398
82	0xbd629c3b	-0.055324774
83	0x3d4a8bdd	0.04944979
84	0xbda42337	-0.08014529
85	0xbdaf509d	-0.08560298
86	0xbc1461b7	-0.0090565
87	0xbd49fb76	-0.049312077
88	0x3bb2ba0a	0.0054543065
89	0x3cb300f0	0.021851033
90	0x3c46333c	0.012097176
91	0xbd59ef53	-0.053206753
92	0xbdc52ada	-0.09627314
93	0xbd9dea0c	-0.077106565
94	0xbd5f025b	-0.054445606
95	0x3ccb297b	0.024800053
96	0x3be6f3a3	0.0070480867
97	0x3c81a4be	0.015825626
98	0x3cea40d2	0.028595362
99	0x3af28945	0.0018504044
100	0x3da4aaf6	0.08040421
101	0x3b2ff203	0.002684713
102	0x3dcb0cd8	0.09914559
103	0x3d3e8124	0.046509877
104	0x3d29b411	0.04143149
105	0x3de819de	0.11333059
106	0x3b5ab9e3	0.0033374957
107	0x3d6d6e58	0.05796656
108	0xbd108669	-0.035284434
109	0xbe2b5307	-0.16730891
110	0xbd23cd28	-0.039990574
111	0x3d67af40	0.056563616
112	0x3c874489	0.016512172
113	0x3ddc2c19	0.107505985
114	0xbd5a1f60	-0.053252578
115	0x3d5fd361	0.054644946
116	0x3d255152	0.040360756
117	0x3d6b6781	0.057471756
118	0x3c2c1460	0.010502905
119	0x3d338614	0.04382904
120	0x3d1d7726	0.038443707
121	0x3d2fd450	0.042927086
122	0x3d944278	0.072392404
123	0xbbb82a7b	-0.0056202984
124	0x3c945c6e	0.01811048
125	0xbd593766	-0.053031348
126	0x3d10bda5	0.03533711
127	0x3d5b458b	0.05353312
128	0xbd23a3c4	-0.0399511
129	0x3c8cecc0	0.017202735
130	0xbc91deb4	-0.017806388
131	0xbd6d2320	-0.057894826
132	0xbcc18f26	-0.023627829
133	0xbc4c7bdb	-0.012480701
134	0xbd291ef8	-0.0412893
135	0x3c9f8735	0.019473651
136	0x3d676feb	0.056503218
137	0x3dab889a	0.08375664
138	0x3d8264d3	0.06366887
139	0x3d832898	0.06404227
140	0x3d4da4b9	0.05020592
141	0xbbf77232	-0.007551455
142	0x3c070e42	0.008243145
143	0xbc7a5efa	-0.015281433
144	0x3ced2d04	0.02895213
145	0x3d2735dc	0.04082285
146	0xbd342782	-0.04398299
147	0x3dbe7159	0.09298963
148	0x3cb78d8e	0.022406366
149	0xbd5119e4	-0.05105008
150	0xbcd43a58	-0.025906727
151	0x3b7635bc	0.003756865
152	0xbbe935fd	-0.0071170316
153	0xbd2777c2	-0.040885694
154	0xb92a09f7	-0.00016216176
155	0xbd5d32ff	-0.05400371
156	0xbd27a3c0	-0.04092765
157	0x3d8707ad	0.06593261
158	0x3c09c768	0.008409359
159	0xbd930dd5	-0.071803726
160	0xbcff0419	-0.031129884
161	0x3db05608	0.08610159
162	0x3de64220	0.11243081
163	0x3d6e059b	0.058110815
164	0x3d759538	0.05995676
165	0xbcb51b51	-0.022107752
166	0x3dbb785e	0.091538176
167	0x3c62e648	0.013848849
168	0x3d889bb6	0.066703245
169	0x3d41d240	0.04731965
170	0xbd3e5b14	-0.046473578
171	0xbd433b5b	-0.047664028
172	0xbd26955c	-0.040669784
173	0x3d75390b	0.059868854
174	0xbbcbbb25	-0.0062173777
175	0x3c30477c	0.010759231
176	0x3d9ff5bf	0.07810544
177	0x3bd9ea0a	0.006650214
178	0xbd337cd0	-0.043820202
179	0x3d1869e0	0.037210345
180	0x3d8bd460	0.06827617
181	0x3c0db26a	0.008648494
182	0x3ca79198	0.020455167
183	0xbd8d9013	-0.069122456
184	0x3d930843	0.0717931
185	0x3d97421c	0.07385656
186	0xbd0ce9e4	-0.034402743
187	0xbd316269	-0.043306742
188	0xbc076ce5	-0.008265709
189	0x3d244bd6	0.040111385
190	0x3d3235b0	0.04350823
191	0x3c9e6e08	0.019339576
192	0xbd2249b0	-0.039621055
193	0xbd7284ec	-0.059208795
194	0xbc85d39c	-0.016336255
195	0x3d428851	0.047493283
196	0x3d813031	0.0630802
197	0x3dcaec81	0.09908391
198	0xbd4ab26a	-0.049486555
199	0xbd34fb85	-0.04418518
200	0x3d91a809	0.07112128
201	0xbbe0fda5	-0.0068661743
202	0x3c71b54c	0.014752697
203	0xbb7e8f7d	-0.003884285
204	0xbd850b90	-0.06496346
205	0xbc806125	-0.015671322
206	0x3c9e53fd	0.019327158
207	0x3b38da8f	0.0028206443
208	0xbd6bf6ed	-0.057608534
209	0x3df41abb	0.11919161
210	0x3b45eece	0.0030202153
211	0x3da46d24	0.080286294
212	0xbc83106b	-0.01599904
213	0xbcededfe	-0.029044148
214	0x3d280372	0.04101891
215	0x3d42ac80	0.04752779
216	0x3dbd4f73	0.09243669
217	0xbd8186a1	-0.063245066
218	0x3d9d5835	0.0768284
219	0x3d23cee9	0.039992247
220	0x3d9dec91	0.07711137
221	0x3cf77528	0.030207232
222	0x3d95b73f	0.07310342
223	0x3d06173b	0.032736998
224	0xbcacc605	-0.021090517
225	0xbaf52c32	-0.0018705188
226	0x3d7a6a25	0.061136384
227	0xbc3bf06c	-0.011470895
228	0x3db1b659	0.08677358
229	0x3d917eb3	0.07104244
230	0xbbb2e23b	-0.0054590977
231	0x3b64ca34	0.0034910562
232	0xbb82727a	-0.003980932
233	0x3dd688a9	0.104752846
234	0x3c85eadc	0.016347341
235	0xbd57d8aa	-0.05269686
236	0x3bd943f5	0.0066304156
237	0xbd10de6e	-0.035368375
238	0xbd395ceb	-0.04525463
239	0xbcf64174	-0.030060507
240	0xbc99bfe5	-0.01876826
241	0x3d2cb0d2	0.042160816
242	0x3b8e935f	0.004351064
243	0xbca11dbd	-0.0196675
244	0xbc37ab1d	-0.01121023
245	0x3d937c2a	0.07201417
246	0xbd1ec23d	-0.03875946
247	0x3aacb790	0.0013177264
248	0xbd9951af	-0.07486283
249	0xbd17d57e	-0.037068836
250	0xbd5fd643	-0.054647695
251	0x3de8194c	0.1133295
252	0x3c6c5da1	0.01442662
253	0x3b837456	0.004011671
254	0xbcb17d3f	-0.021666167
255	0x3bce7f50	0.006301798

4.bias f4 [128]
0	0x3c54d0f9	0.012989276
1	0x3d1ab928	0.037774235
2	0x3aa14568	0.001230401
3	0x3cb40115	0.021973172
4	0x3ce678e0	0.02813381
5	0x3d65f296	0.05613955
6	0x3b376aad	0.0027987168
7	0xbb706124	-0.0036678994
8	0x3d3a2bb4	0.045451835
9	0xbd48baa7	-0.04900613
10	0xbd3e8a3f	-0.04651856
11	0x3cee9866	0.029125404
12	0x3d632c8a	0.055462398
13	0xbd2582a9	-0.04040781
14	0xbd6ae8eb	-0.057351034
15	0xbcf18269	-0.02948113
16	0x3d0cb08e	0.034348063
17	0x3d0b61f1	0.03402895
18	0x3cfcff57	0.030883474
19	0x3d381536	0.044942103
20	0xb91a3ae1	-0.00014708519
21	0x3d137223	0.03599752
22	0xbd1be60a	-0.03806118
23	0x3d2179a3	0.039422642
24	0xbd6347e9	-0.0554885
25	0xbd60f166	-0.054917715
26	0x3d853fcb	0.06506308
27	0x3c2b9514	0.010472555
28	0xbd9cc1b3	-0.07654133
29	0xbc3411c1	-0.010990561
30	0xbb99632c	-0.0046810117
31	0x3c8b87f3	0.0170326
32	0x3c952554	0.018206276
33	0x3d503af5	0.050837476
34	0x3caa82d5	0.020814339
35	0x3cf0a19c	0.029373936
36	0x3c39aa7e	0.011332152
37	0xbc83f1b1	-0.016106458
38	0x3d555cce	0.05209046
39	0x3d1f58f8	0.038903207
40	0x3d86a845	0.065750636
41	0x3c83407f	0.016021965
42	0xbd06a826	-0.032875203
43	0x3c9ac83b	0.018894305
44	0xba83b31b	-0.0010047884
45	0x3d122f70	0.03568977
46	0xbd29836a	-0.04138509
47	0xbcfa5f6b	-0.030563077
48	0x3cd1249b	0.02553015
49	0xbc9c1594	-0.019053258
50	0x3c6508ed	0.013979179
51	0x3aca542a	0.001543646
52	0xbcd61ee2	-0.026137773
53	0x3d066721	0.032813195
54	0x3bf7c3be	0.007561176
55	0x3c18e698	0.009332322
56	0x3cbe729c	0.02324801
57	0xbd143a2a	-0.036188282
58	0xbd83b46f	-0.06430899
59	0xbd97df06	-0.07415585
60	0xbc613236	-0.013744881
61	0xbd066099	-0.032806966
62	0x3d1f8d3c	0.03895305
63	0xbd479a69	-0.04873124
64	0x3d6d933a	0.058001734
65	0xbcce7486	-0.025202047
66	0x3d36aaef	0.04459661
67	0x3c9bb9ef	0.019009558
68	0xbd890793	-0.06690898
69	0x3b8d1a20	0.004306093
70	0x3d466b51	0.04844219
71	0x3d5856e9	0.05281726
72	0x3c1695e2	0.009191008
73	0x3d3049aa	0.043039
74	0xbcfa6183	-0.030564075
75	0xbd62ff38	-0.055419177
76	0x3d4f651e	0.050633542
77	0xbc2c9cba	-0.010535413
78	0xbd16d764	-0.036826506
79	0x3d071e61	0.032987956
80	0x3d2391bc	0.039933905
81	0xbd340a5e	-0.0439552
82	0xbd0464cb	-0.032322686
83	0xbd79b0ac	-0.060959503
84	0x3c04692a	0.008081714
85	0xbd5589ad	-0.05213325
86	0x3ba60517	0.0050665247
87	0x3d11bb4f	0.035579022
88	0xbc381a16	-0.011236688
89	0xbd5f50af	-0.054520305
90	0x3d1206d2	0.035651036
91	0xbccb2173	-0.024796223
92	0xbd3305e8	-0.043706805
93	0xbd1e5411	-0.03865439
94	0x3d1d8e80	0.038465977
95	0xbab1bf2f	-0.0013561005
96	0xbd255247	-0.04036167
97	0x3c8d566a	0.01725312
98	0xbd2cb320	-0.042163014
99	0xbc58d6ea	-0.013234833
100	0x3d47fc16	0.048824392
101	0xbd5b9f77	-0.053618874
102	0x3ccbb607	0.02486707
103	0x3d02fdec	0.03198044
104	0xbc96b957	-0.018398924
105	0xbb8744eb	-0.0041280887
106	0xbd36db13	-0.04464252
107	0xbb20753f	-0.0024483947
108	0xbcdc6ed3	-0.026908314
109	0xba07395e	-0.00051583897
110	0x3d6adc79	0.057339165
111	0xbd09360b	-0.033498805
112	0x3d404238	0.04693815
113	0xbcf74f41	-0.030189158
114	0x3c85f9ba	0.01635443
115	0xbcfeb75f	-0.031093298
116	0xbd81945e	-0.06327127
117	0x3cfc77ab	0.03081878
118	0xbc994384	-0.018708952
119	0xbca514d1	-0.020151528
120	0xbade2b18	-0.0016950099
121	0xbd946e46	-0.072475955
122	0x3b5bfc37	0.003356708
123	0xbd8d6ce1	-0.06905533
124	0x3cd684a3	0.026186293
125	0x3d9b1447	0.07572227
126	0x3d9a3620	0.07529855
127	0xbc8e7b5d	-0.017392809

6.weight f4 [128, 128]
0	0xbd88b13f	-0.06674432
1	0x3cee8045	0.029113898
2	0xbd006306	-0.031344436
3	0x3dfb30e2	0.12265183
4	0xbd92471a	-0.07142468
5	0x3d0c2021	0.034210328
6	0x3d6d3026	0.057907246
7	0xbcd7691a	-0.026295234
8	0xbd3eeefe	-0.04661464
9	0x3d4172cf	0.04722863
10	0xbc148b81	-0.009066463
11	0x3d1a44a7	0.03766313
12	0x3dbb00dc	0.09131023
13	0x3df0b7f2	0.11753835
14	0x3c8f1fdc	0.017471246
15	0x3cc08b95	0.023504058
16	0x3ccd3548	0.02504982
17	0xbbeb7a27	-0.0071861926
18	0xbb701568	-0.0036633853
19	0x3d028d1a	0.031872846
20	0x3d6f5a9c	0.05843602
21	0x3d5f16e8	0.054465204
22	0x3d9401fb	0.0722694
23	0x3d5ace4f	0.053419407
24	0x3ce6f513	0.028193032
25	0xbd3277d5	-0.043571312
26	0xbcdcfc59	-0.026975797
27	0x3d903da4	0.07043007
28	0x3d50f490	0.051014483
29	0x3d6f9e99	0.05850086
30	0x3c5dc69b	0.013536121
31	0xbcdb3bd0	-0.02676192
32	0x3d237bee	0.03991311
33	0x3d445835	0.047935683
34	0x3d8d443e	0.06897782
35	0xbd96e367	-0.07367592
36	0xbd58b269	-0.05290452
37	0xbd287256	-0.041124664
38	0xbd676b92	-0.05649907
39	0xbdb0f2a1	-0.08640028
40	0x3d9dbdbc	0.077022046
41	0xbcb8a44c	-0.02253928
42	0xbd8d8644	-0.06910375
43	0x3dc59428	0.09647399
44	0x3d743e02	0.059629448
45	0xbb24d647	-0.0025152133
46	0xbd9077da	-0.0705411
47	0x3ca0ecc5	0.01964415
48	0x3d9136f6	0.07090561
49	0x3cbb6e05	0.02287961
50	0xbc13825c	-0.009003248
51	0x3da809cc	0.082049936
52	0xbd7150f0	-0.05891508
53	0xbd243311	-0.040087763
54	0xbc99deb5	-0.018782953
55	0x3dd8bed5	0.10583273
56	0xbd67b8ec	-0.05657284
57	0xbd86d894	-0.06584278
58	0xbd39151d	-0.04518615
59	0xbc317c57	-0.010832868
60	0xbdac7886	-0.084214255
61	0xbda5fdfa	-0.08105083
62	0x3d99f366	0.07517128
63	0x3cf80daa	0.030279953
64	0x3dbbda38	0.09172481
65	0x3dcd70af	0.10031258
66	0x3e141a7c	0.14463228
67	0x3d20f7b3	0.039298724
68	0x3d3ebde7	0.046567824
69	0x3c7abec6	0.015304273
70	0x3d6681ed	0.05627625
71	0x3c95891c	0.018253855
72	0xbdb7d945	-0.08976988
73	0x3c1671c5	0.009182398
74	0xbd15c7d5	-0.036567528
75	0x3daf64c7	0.08564144
76	0xbc1baa50	-0.009501055
77	0x3d96a69b	0.07355996
78	0x3d54b08b	0.051926177
79	0xbd02cd36	-0.031933986
80	0xbca6393c	-0.020290963
81	0xbb79bcc6	-0.0038106903
82	0x3d63f2a6	0.05565133
83	0xbdc162dd	-0.09442685
84	0x3d85be02	0.06530382
85	0x3d35a9aa	0.044351257
86	0x3bdd588a	0.0067549394
87	0x3d301176	0.042985402
88	0x3d60f8c9	0.05492476
89	0xbad182c3	-0.0015984405
90	0xbd2ded86	-0.042462848
91	0xbd4ec563	-0.05048121
92	0x3d570d66	0.052503012
93	0x3d9c9512	0.076456204
94	0xbdbcca0b	-0.09218224
95	0xbb7880d8	-0.0037918594
96	0x3d984fcd	0.07437096
97	0x3d3d7072	0.046249814
98	0xbddf91fa	-0.10916515
99	0x3d8719a7	0.0659669
100	0x3d4ab60e	0.049490027
101	0x3dc9b70e	0.09849368
102	0x3de1859a	0.110118106
103	0xbdac708a	-0.084199026
104	0x3dd1ce3b	0.102444135
105	0xbd02d528	-0.031941563
106	0xbcac1d82	-0.021010164
107	0xbd5eb098	-0.05436763
108	0xbd97be37	-0.074093275
109	0x3d60ceca	0.05488471
110	0xbe047376	-0.1293467
111	0x3d82e1c7	0.0639072
112	0x3ccde2a5	0.025132487
113	0x3d7cd6d4	0.061728314
114	0x3d03b4bb	0.03215478
115	0xbcf37588	-0.02971913
116	0x3ccafbb7	0.02477823
117	0x3d6b863d	0.057501066
118	0xbd078733	-0.03308792
119	0x3abb2c2d	0.0014280133
120	0x3d0d19da	0.034448482
121	0xbd9e4877	-0.07728665
122	0xbd4b3fc7	-0.04962137
123	0xbaeac052	-0.0017910099
124	0xbd156a98	-0.03647861
125	0xbd8e3233	-0.069431685
126	0xbcf9cc44	-0.03049291
127	0xbd534977	-0.051583733
128	0xbd27b2ab	-0.040941875
129	0xbd106a05	-0.035257358
130	0x3d0a86b7	0.03381988
131	0xbda03863	-0.07823255
132	0xbd0e2225	-0.03470053
133	0xbd008279	-0.03137443
134	0xbda7849a	-0.081795886
135	0xbda2dffa	-0.079528764
136	0x3d4a74de	0.04942786
137	0xbbf17070	-0.00736814
138	0xb98593d9	-0.00025477892
139	0x3dd34c21	0.10317255
140	0x3da60211	0.08105863
141	0x3cd098be	0.025463458
142	0xbaf68880	-0.0018808991
143	0xbdc781ce	-0.09741555
144	0x3bc042c8	0.005867336
145	0x3d6134a0	0.054981828
146	0x3d4aaeaa	0.04948298
147	0xbd6b0011	-0.05737311
148	0x3d7b16f6	0.061301194
149	0x3ca5338e	0.020166185
150	0xbc9a7e28	-0.018858984
151	0xbcdae0ea	-0.026718576
152	0x3d97fbd0	0.07421076
153	0x3ded5b9c	0.11589739
154	0x3cdd7cce	0.02703705
155	0x3debc57a	0.11512275
156	0x3d4425c7	0.04788759
157	0x3c10a513	0.008828419
158	0x3ce8194b	0.028332373
159	0xbca58bbf	-0.020208238
160	0xbb114ba0	-0.002217032
161	0x3db03855	0.086044945
162	0x3c223115	0.009899397
163	0xbd48a12d	-0.048981834
164	0x3d94955f	0.07255053
165	0x3cd6800a	0.0261841
166	0xbd530387	-0.051517036
167	0x3c2f21d3	0.010689217
168	0xbd324a52	-0.04352791
169	0x3d2922fc	0.04129313
170	0x3cdeefda	0.02721398
171	0x3dcaada2	0.09896399
172	0x3d26d1ae	0.04072731
173	0xbd49cb19	-0.049265955
174	0xbd62f641	-0.055410627
175	0x3ddbd3b0	0.107337356
176	0x3b9087f5	0.0044107386
177	0x3bb4a892	0.005513259
178	0x3c932c3b	0.017965427
179	0x3d1f4948	0.038888246
180	0xbda0eb1e	-0.07857345
181	0xbb3ee6bd	-0.002912923
182	0x3d277030	0.040878475
183	0x3c02f8d4	0.007993896
184	0x3de2ecff	0.1108036
185	0x3c3b615b	0.011436786
186	0x3d51c4a2	0.051212914
187	0x3d17557f	0.03694677
188	0xbd332fad	-0.04374664
189	0x3d021dea	0.03176681
190	0xbc2b622e	-0.01046042
191	0xbd599067	-0.05311623
192	0x3d9b1ba6	0.07573633
193	0xbd1819ba	-0.03713391
194	0xbc33bded	-0.010970575
195	0x3de176e5	0.110090055
196	0xbd524e2b	-0.051344078
197	0xbd78634f	-0.060641583
198	0x3cd30cee	0.025763001
199	0xbc9d143d	-0.01917469
200	0xbcb43637	-0.021998508
201	0x3cff56fd	0.031169409
202	0x3daca2d9	0.08429498
203	0x3d93ce15	0.072170414
204	0x3c9816bc	0.018565528
205	0xbd1a798b	-0.03771357
206	0x3d2e1029	0.04249588
207	0xbc871592	-0.016489778
208	0x3c2c5fb9	0.010520869
209	0x3e387f59	0.1801733
210	0x3d3a643a	0.04550574
211	0x3c812066	0.01576252
212	0x3cf3b17b	0.029747715
213	0x3da8bb7a	0.08238883
214	0xbcc0d503	-0.023539072
215	0xbd3796a1	-0.044821385
216	0xbd744e4d	-0.059644986
217	0x3cf3e556	0.029772442
218	0x39891f19	0.00026153846
219	0xbd35b8c0	-0.044365644
220	0x3d8690b1	0.065705664
221	0xbd80cd99	-0.06289215
222	0xbcfd0855	-0.030887762
223	0x3cd8a26f	0.026444642
224	0xbd856fb1	-0.06515444
225	0x3ccedf45	0.025252948
226	0xbd208013	-0.03918464
227	0x3cad0b39	0.021123515
228	0x3d7be108	0.061493903
229	0xbd8a912a	-0.06765969
230	0xbb7ca330	-0.0038549416
231	0xbd6fa175	-0.058503587
232	0x3db0af25	0.08627156
233	0xbcfd807a	-0.030945051
234	0xbd4da8e6	-0.050209902
235	0xbcbb9efa	-0.022902954
236	0x3dc8d7db	0.09806796
237	0x3da6c2b8	0.081426084
238	0xbc66d452	-0.014088707
239	0xbd544c0f	-0.051830348
240	0xbd4b9ce0	-0.049710155
241	0xbc620443	-0.013794961
242	0x3d8bd75d	0.06828187
243	0x3d2a02c2	0.041506536
244	0x3d4d2e11	0.05009276
245	0x3d9472eb	0.07248481
246	0xbdca79b8	-0.09886497
247	0xbc9d71df	-0.019219337
248	0xbc1bde08	-0.009513386
249	0x3d9ecb40	0.077536106
250	0x3bb416fb	0.0054959035
251	0x3e031dbf	0.12804316
252	0x3e00746b	0.1254441
253	0xbc720a61	-0.014772982
254	0x3b41ecfb	0.0029590714
255	0xbd741baa	-0.059596695

6.bias f4 [128]
0	0x3ca5aad3	0.020223057
1	0xbd8ac34a	-0.0677553
2	0x3d97ed7f	0.07418346
3	0xbad87dfa	-0.0016517036
4	0x3cf09e53	0.02937237
5	0xbd936e11	-0.07198728
6	0x3cc6664f	0.024218706
7	0x3ba7cbb9	0.005120721
8	0xbbadd997	-0.0053054797
9	0xbdcc2530	-0.099680305
10	0xbbf1af95	-0.0073756673
11	0x3d474c2a	0.04865662
12	0x3c808ac9	0.015691178
13	0xbd8e3003	-0.06942751
14	0xbc6c41de	-0.014420001
15	0x3d6b812a	0.057496227
16	0x3d3396e9	0.04384509
17	0xbdb936df	-0.09043669
18	0xbda525b4	-0.08063832
19	0xbbef243c	-0.0072980206
20	0xbb780719	-0.0037846027
21	0x3ca3e99a	0.02000885
22	0xbc13a61c	-0.0090117715
23	0xbaf1d42a	-0.0018450071
24	0x3d0ece63	0.034864794
25	0xbcea978d	-0.028636718
26	0x3d81bb1b	0.06334516
27	0xbcef4082	-0.029205564
28	0xbdaac03e	-0.083374485
29	0x3cb97cfd	0.022642607
30	0xbcfc2566	-0.030779552
31	0x3ca7a7b3	0.020465707
32	0x3c3f67dc	0.011682477
33	0x3d5ba5fd	0.053625096
34	0x3c9d7462	0.019220535
35	0xbd602ec8	-0.054732114
36	0x3d0f7e16	0.035032354
37	0x3c13bfec	0.009017926
38	0xbd6f248e	-0.05838447
39	0xbd9002ac	-0.070317596
40	0x3c47eec1	0.012202919
41	0xbd7318e1	-0.0593499
42	0xbb666fd6	-0.0035161874
43	0x3d889e4e	0.06670819
44	0xbd92016d	-0.07129178
45	0xbdaa99b8	-0.08330101
46	0x3d18c737	0.03729936
47	0x3c4d7220	0.012539417
48	0x3babfd6e	0.005248717
49	0x3c7ec3cf	0.015549614
50	0x3d0e827a	0.0347924
51	0xbc8726bf	-0.016497968
52	0xbd926c6c	-0.07149586
53	0xbd8bdf26	-0.068296716
54	0x3db85b6d	0.09001813
55	0x3da0a13b	0.07843252
56	0xbc6c23a1	-0.0144127915
57	0xbd7d590d	-0.061852504
58	0x3ce07e36	0.027403932
59	0xbb942095	-0.0045204856
60	0x3b994a4b	0.004678046
61	0x3b905c68	0.004405547
62	0xbdd6f92f	-0.10496747
63	0x3cd076ad	0.025447214
64	0x3c62af8e	0.013835801
65	0x3c81d3b8	0.015848026
66	0x3d0c3e6b	0.034239214
67	0x3d8aef1d	0.067838885
68	0xbbd1edf6	-0.006406541
69	0xbd9aae84	-0.075528175
70	0x3d90b768	0.07066232
71	0xbd2d8655	-0.042364437
72	0xbc75c390	-0.015000239
73	0xbda2bfb5	-0.079467215
74	0xbd4e61c9	-0.050386224
75	0x3d87b898	0.06627005
76	0x3d0c3025	0.0342256
77	0xbd44d1f4	-0.04805179
78	0x3d4ea473	0.0504498
79	0xbd357c57	-0.044308033
80	0xbd02f4bd	-0.031971682
81	0xbdf270e6	-0.1183794
82	0xbcf028ed	-0.02931639
83	0xbd448c91	-0.047985617
84	0xbd88b9a2	-0.06676032
85	0xbd22b5dc	-0.039724216
86	0x3bbeaf9d	0.0058192746
87	0xbc322014	-0.010871906
88	0xbd740f55	-0.059584934
89	0x3d4025f7	0.046911206
90	0x3d9c1a53	0.076222084
91	0x3d0f2046	0.034942888
92	0x3d5f11ba	0.054460265
93	0xbc51d267	-0.0128065115
94	0xbd67deab	-0.056608837
95	0xbd94a0a3	-0.072572015
96	0x3c8b4f2c	0.017005526
97	0x3d1f04b1	0.038822833
98	0x3db9456d	0.09046445
99	0xbc7fed5e	-0.015620558
100	0xbd049462	-0.03236807
101	0xbc62b5c0	-0.013837278
102	0xbdce637f	-0.10077571
103	0x3bd96ec8	0.0066355206
104	0x3d9c974a	0.076460436
105	0x3daf43a8	0.08557826
106	0xbd33c564	-0.04388942
107	0x3c9bb90f	0.019009141
108	0xbc4db3f6	-0.012555113
109	0xbd9163db	-0.07099124
110	0xbb840096	-0.00402839
111	0x3d1ccec3	0.03828312
112	0xbc7e3cf8	-0.015517466
113	0xbd65c237	-0.05609342
114	0x3d581d6e	0.05276244
115	0xbbb4deef	-0.00551974
116	0xbd218c30	-0.039440334
117	0xbdc320e9	-0.095277615
118	0xbc88c875	-0.016697148
119	0xbdd82757	-0.105543785
120	0x3da802bb	0.08203646
121	0x3bf7e255	0.0075648227
122	0xbdb48d75	-0.08816043
123	0x3da3535d	0.07974885
124	0x3d167e79	0.036741707
125	0x3dcdbbbd	0.10045574
126	0xbdb52877	-0.08845609
127	0xbd860917	-0.065447025
