models_4nomix/checkpoint266.pth.tar (torch_old, 489035 bytes, 10 tensors)

0.weight f4 [256, 17]
-0.09115316 -0.2566147 0.13767251 0.049087532 0.2772634 0.22536814 0.040581916 0.16733225
-0.06636856 0.16649206 -0.20468827 -0.13369605 0.07171216 0.050880868 0.19352864 -0.1261392
0.014507932 0.2315128 0.12246887 0.1564108 -0.14433315 0.2033212 0.30724955 -0.12977137
0.22829777 -0.20194292 -0.09261943 -0.028526567 0.1502859 0.14887758 -0.10428473 0.19988038
-0.07333547 -0.107519664 0.048983533 -0.2001751 0.0033269557 0.18921752 0.06607063 -0.09206255
-0.05857549 -0.2534509 0.19411574 0.07898986 0.05272591 0.22767337 -0.08188602 0.26369312
0.0053072874 -0.012236005 -0.034524012 -0.13548861 -0.093436316 -0.15024535 0.26207256 0.20040815
0.019014547 0.2114934 -0.053651545 -0.06422555 -0.19868962 -0.09745761 0.08473187 0.013080294
0.07400132 0.25625682 -0.013599463 -0.0066103386 0.036388673 -0.21813601 0.26102868 -0.078531995
0.16940552 0.033941023 0.060172662 -0.17503709 0.17172343 0.17198119 0.28016472 0.06270379
0.25804558 0.139531 0.062325194 0.22662693 0.17077437 0.1322803 -0.13795906 -0.0024050488
-0.13746865 -0.07829484 -0.036523245 -0.019109534 0.17384073 -0.012266744 0.24193938 -0.05118739
0.030990716 0.005437655 0.25336805 0.23951401 -0.10054686 0.047301244 -0.1660789 -0.0080201635
0.2007061 0.03790235 -0.12367005 -0.14401163 0.045515947 -0.049371134 0.008934948 0.19024491
0.040067423 -0.19734204 0.1944177 0.13171893 -0.014768945 0.100240126 -0.1456407 0.1900237
0.2964206 0.12044483 -0.15260799 0.049651533 -0.0054890187 -0.2265999 -0.05477083 0.111865625
-0.022679638 -0.18440484 -0.13652132 0.009667303 0.13232677 -0.18461482 0.2222853 0.014834553
0.17828046 0.18919286 0.09386975 0.21169826 0.11908835 0.0052689714 -0.1996019 -0.14612673
-0.15674411 0.03484833 0.0023697652 0.07166802 0.29459697 -0.13530213 0.11502253 -0.094863065
-0.10505358 0.082210116 -0.24467671 0.1150991 -0.22672705 -0.011549455 0.22825158 0.25959015
-0.12893985 -0.020593224 0.24630313 0.049830623 0.173373 -0.114550404 0.004020117 -0.070433766
0.25350106 0.20139956 0.07599777 -0.07106679 0.00981912 0.0811057 -0.121676184 0.13633335
-0.19394124 0.16202895 0.09396359 -0.16801125 -0.1941012 0.14641328 -0.096118756 -0.14504977
0.1267368 0.12119529 0.25993082 -0.20011841 0.16539894 -0.0018917758 -0.057820708 -0.019628765
0.07993147 -0.04143639 0.005820881 -0.08771357 0.1784913 -0.20432337 0.07456359 0.2239136
0.17126198 0.09707771 -0.15366682 -0.1794593 0.03452819 -0.1559709 0.2377548 -0.092076674
-0.23845649 0.20186341 -0.08480893 -0.16829276 -0.031702355 -0.17049238 0.047213696 0.080564
-0.005128773 0.003148335 -0.14582758 -0.097272225 -0.12992977 -0.22172846 0.25815454 -0.20689712
0.09007035 -0.056867737 0.24229601 -0.049318053 0.27196154 -0.050678197 -0.14533135 0.120463446
0.26006195 0.19506827 -0.1349143 0.13297871 0.25215217 -0.046079762 0.2344237 0.0029967753
-0.1022533 0.11578636 0.1985341 0.06269721 -0.26448485 0.11348445 0.025986647 0.09953517
0.055352356 0.17342421 -0.20728214 -0.0889212 0.10909629 0.06346859 -0.12658753 0.008041045
00000000: 82ae babd 0163 83be 06fa 0c3e 0210 493d
00000010: 78f5 8d3e e8c6 663e 3939 263d 2559 2b3e
00000020: 3dec 87bd e57c 2a3e cd99 51be 9ee7 08be
00000030: d3dd 923d 7568 503d 5f2c 463e a22a 01be
00000040: adb2 6d3c b111 6d3e f5d0 fa3d 272a 203e
00000050: 12cc 13be 6f33 503e d04f 9d3e c9e2 04be
00000060: e4c6 693e 20ca 4ebe 41af bdbd 8cb0 e9bc
00000070: 8ce4 193e 5d73 183e 3c93 d5bd 71ad 4c3e
00000080: e830 96bd 4533 dcbd f5a2 483d b4fa 4cbe
00000090: 0e09 5a3b 3dc2 413e 0a50 873d 4a8b bcbd
000000a0: daec 6fbd 51c4 81be 47c6 463e 70c5 a13d
000000b0: 20f7 573d 3523 693e dcb3 a7bd c902 873e
000000c0: c1e8 ad3b 8679 48bc 0d69 0dbd 87bd 0abe
000000d0: 8a5b bfbd ebd9 19be 602e 863e cb37 4d3e
000000e0: 65c4 9b3c ba91 583e b9c1 5bbd af88 83bd
000000f0: 4b75 4bbe db97 c7bd e787 ad3d bb4e 563c
00000100: 018e 973d 1834 833e 48d0 5ebc 8a9b d8bb
00000110: 4a0c 153d 0c5f 5fbe 8da5 853e 62d5 a0bd
00000120: a478 2d3e be05 0b3d 9c77 763d ec3c 33be
00000130: 44d8 2f3e d61b 303e c071 8f3e d86a 803d
00000140: 8d1e 843e 37e1 0e3e b448 7f3d e410 683e
00000150: 7adf 2e3e 7d74 073e 2445 0dbe 069e 1dbb
00000160: 95c4 0cbe 0c59 a0bd 6699 15bd 998b 9cbc
00000170: 4e03 323e 74fa 48bc f5be 773e dea9 51bd
00000180: 3ee0 fd3c 5b2e b23b 75b9 813e 2943 753e
00000190: 83eb cdbd f3be 413d 9610 2abe 0167 03bc
000001a0: e685 4d3e 7f3f 1b3d b946 fdbd c977 13be
000001b0: ee6e 3a3d 6339 4abd e363 123c 90cf 423e
000001c0: bd1d 243d 0814 4abe 6f15 473e 54e1 063e
000001d0: 72f9 71bc b24a cd3d d622 15be 9395 423e
000001e0: 71c4 973e c7ab f63d 4545 1cbe 685f 4b3d
000001f0: 3add b3bb ce09 68be 6157 60bd ce19 e53d
00000200: a6ca b9bc 9fd4 3cbe 3fcc 0bbe 9c63 1e3c
00000210: ab80 073e ab0b 3dbe c29e 633e a00c 733c
00000220: 278f 363e c6bb 413e c93e c03d 6ec7 583e
00000230: 98e4 f33d 56a7 ac3b 7164 4cbe 3fa2 15be
00000240: 8781 20be 1fbd 0e3d 104e 1b3b afc6 923d
00000250: 6ad5 963e a48c 0abe ef90 eb3d 9147 c2bd
00000260: 5526 d7bd c75d a83d 888c 7abe 14b9 eb3d
00000270: 232b 68be ed39 3dbc c8ba 693e 00e9 843e
00000280: cf08 04be 1fb3 a8bc e336 7c3e 321b 4c3d
00000290: b188 313e 6799 eabd 30bb 833b 943f 90bd
000002a0: e4ca 813e b03b 4e3e b8a4 9b3d 778b 91bd
000002b0: 60e0 203c bf1a a63d 5d31 f9bd f89a 0b3e
000002c0: 8898 46be ebea 253e fc6f c03d 240b 2cbe
000002d0: 77c2 46be 5ded 153e e9d9 c4bd ed87 14be
000002e0: 4bc7 013e 3c35 f83d a715 853e d7eb 4cbe
000002f0: 575e 293e 76f5 f7ba 68d5 6cbd 81cc a0bc
00000300: 1cb3 a33d 34b9 29bd 17bd be3b 2ca3 b3bd
00000310: 6cc6 363e 253a 51be ccb4 983d 9b49 653e
00000320: 4d5f 2f3e aed0 c63d d65a 1dbe 2ec4 37be
00000330: 6e6d 0d3d d6b6 1fbe ff75 733e b292 bcbd
00000340: f02d 74be 48b5 4e3e 4eb0 adbd f054 2cbe
00000350: 54da 01bd 8e95 2ebe 2663 413d bdfe a43d
00000360: 440f a8bb 4c54 4e3b d353 15be a936 c7bd
00000370: 4f0c 05be c90c 63be d52c 843e d7dc 53be
00000380: ce76 b83d 25ee 68bd 721c 783e ba01 4abd
00000390: 8b3e 8b3e f193 4fbd bed1 14be 8ab5 f63d
000003a0: d726 853e fabf 473e f926 0abe 922b 083e
000003b0: 171a 813e 22be 3cbd c40c 703e 8c65 443b
000003c0: 2e6a d1bd 6621 ed3d 864c 4b3e 6567 803d
000003d0: 8f6a 87be 896a e83d f3e1 d43c 18d9 cb3d
000003e0: 27b9 623d 1e96 313e c541 54be 511c b6bd
000003f0: e06d df3d d2fb 813d 29a0 01be 96be 033c

0.bias f4 [256]
0.18197313 -0.097468965 -0.024528904 0.19340491 -0.19826941 -0.160143 -0.06162306 0.18423754
-0.057258584 -0.003793062 0.21551128 0.02509309 0.19491091 0.010496785 0.04293774 0.1217166
-0.2114117 0.16826066 0.27511263 -0.22991668 -0.06500782 0.009367758 -0.10203266 0.20383216
0.26281303 0.04132581 0.015104873 -0.058174938 0.12148425 -0.060499515 -0.001087749 0.23776901
0.044164028 -0.0060545937 0.11749976 -0.07712861 0.15997185 -0.21435955 0.07126117 -0.033297677
0.12661943 0.09269015 0.17376648 -0.20820397 0.25887552 0.15942757 -0.15826413 0.22203384
-0.12145469 0.053109434 0.017601263 0.038298175 -0.17617121 -0.082297236 0.0051502963 0.12650077
0.22880355 -0.012424514 -0.1658588 0.17668319 0.23292698 0.22347099 -0.11673554 -0.117168926
0.2904588 0.1333231 0.30285335 -0.05318182 0.18380916 -0.017157929 0.115399435 -0.07188851
0.14413153 0.100685485 0.08104861 -0.07893756 -0.028470341 0.13745424 -0.20110978 -0.040315792
-0.08954306 0.026432574 0.15445676 0.17434919 -0.2475147 -0.15974806 0.11506615 0.19065881
-0.00967657 -0.13243082 0.10192063 0.22414781 0.26932535 0.1179209 0.019995322 -0.030621424
-0.21676646 -0.12420429 -0.064774014 -0.19246224 0.24116799 -0.010115041 -0.15258925 -0.1071495
-0.22820151 0.011884457 0.2049939 0.20779656 -0.16102085 -0.15232867 0.10954015 -0.21406169
0.21677458 0.063639 -0.024013838 0.11032173 -0.1449503 -0.19844984 -0.06626845 0.20850495
-0.20104824 0.25198746 0.072060086 0.021828648 0.060207292 0.23489067 -0.13281763 -0.028722089
0.14221783 -0.027712647 0.26422408 0.10754907 0.21684578 -0.15026093 0.2186452 -0.16753046
-0.023809098 0.063560866 -0.15329055 0.16963752 -0.18568438 0.028538195 0.17132267 -0.034442328
-0.07272158 0.013431716 0.32417488 -0.1388882 0.06284847 -0.2018373 0.15713628 0.12468932
0.20703714 0.048378494 0.1436665 0.11883389 -0.083893746 -0.16345946 -0.0877238 0.21356328
0.087911434 0.09670325 -0.0034542263 0.22948174 -0.022462 -0.09302698 0.17025635 0.051283337
-0.1313129 -0.19271865 -0.12201927 0.03855879 0.036069967 -0.07598971 -0.13058966 -0.06472002
0.06923843 -0.16197778 0.015182231 0.14430374 -0.05756527 -0.19953346 -0.12687606 -0.016845176
0.09997313 0.20371707 -0.14171553 -0.07459225 0.19361281 -0.07217694 0.25726068 0.13941818
-0.10726218 -0.15077701 -0.12568012 -0.24670334 0.12436827 0.05652484 0.2718121 0.18643624
-0.08110939 0.03198409 0.21317165 -0.07289517 0.024157217 -0.18455124 -0.076637246 0.001548822
0.17222407 -0.14050671 0.12399742 0.17649865 -0.090527155 -0.08861819 -0.01890595 -0.050451297
0.06415316 0.18045293 -0.027256059 -0.13700813 -0.131086 0.208547 0.016678588 0.1301135
-0.051611006 -0.08645176 0.017020809 0.07681854 -0.14496818 -0.11782662 0.19712475 0.13725024
-0.21737185 -0.031850435 -0.10916563 0.009948671 -0.15246534 0.041925237 -0.10422531 -0.14329857
0.20896216 0.09426808 0.21988359 0.10974242 -0.1380024 0.0778126 0.19607891 -0.10828671
-0.21103014 0.004542026 0.025702419 0.01631719 0.09720701 -0.09706628 0.020173905 -0.018895509
00000000: 2a57 3a3e cf9d c7bd d7f0 c8bc f00b 463e
00000010: 2307 4bbe 87fc 23be 7668 7cbd c4a8 3c3e
00000020: fa87 6abd 0595 78bb fdae 5c3e 0690 cd3c
00000030: ba96 473e b5fa 2b3c 7cdf 2f3d 8e46 f93d
00000040: 4f7c 58be 864c 2c3e 90db 8c3e 476f 6bbe
00000050: d222 85bd 3a7b 193c 80f6 d0bd 61b9 503e
00000060: 6e8f 863e 4145 293d 6e7a 773c d848 6ebd
00000070: bccc f83d 57ce 77bd cd92 8eba b879 733e
00000080: 57e5 343d 9d65 c6bb b7a3 f03d 9bf5 9dbd
00000090: a9cf 233e 1281 5bbe 60f1 913d 2563 08bd
000000a0: 86a8 013e 55d4 bd3d d7ef 313e 6c33 55be
000000b0: 558b 843e fb40 233e fe0f 22be d75c 633e
000000c0: 3dbd f8bd 4789 593d 8630 903c 8cde 1c3d
000000d0: 3a66 34be 748b a8bd d1c3 a83b 6b89 013e
000000e0: 7a4b 6a3e 3090 4bbc e4d6 29be 70ec 343e
000000f0: 6984 6e3e 94d5 643e 0b13 efbd 43f6 efbd
00000100: 04b7 943e da85 083e 980f 9b3e 2ed5 59bd
00000110: 7838 3c3e c98e 8cbc 8a56 ec3d 483a 93bd
00000120: 3797 133e 3134 ce3d d0fc a53d 04aa a1bd
00000130: a23a e9bc cec0 0c3e b9ef 4dbe 2c22 25bd
00000140: 5a62 b7bd 2089 d83c ea29 1e3e 9888 323e
00000150: 7e74 7dbe ff94 23be cda7 eb3d 103c 433e
00000160: 7a8a 1ebc f29b 07be c3bb d03d 0187 653e
00000170: 03e5 893e 8380 f13d 3bcd a33c c8d9 fabc
00000180: 07f8 5dbe d25e febd 3da8 84bd d214 45be
00000190: bef4 763e 8fb9 25bc 5b40 1cbe 3271 dbbd
000001a0: a8ad 69be 07b7 423c ece9 513e 9fc8 543e
000001b0: a6e2 24be 0cfc 1bbe 9656 e03d fd32 5bbe
000001c0: 28fa 5d3e 2a55 823d abb8 c4bc 5cf0 e13d
000001d0: da6d 14be 6f36 4bbe c1b7 87bd 5282 553e
000001e0: 97df 4dbe 8004 813e 3d94 933d fed1 b23c
000001f0: ec9b 763d 2e87 703e 5801 08be 964a ebbc
00000200: 8da1 113e a205 e3bc 6148 873e b042 dc3d
00000210: d20c 5e3e 00de 19be 87e4 5f3e 1b8d 2bbe
00000220: 4c0b c3bc 332c 823d 33f8 1cbe 75b5 2d3e
00000230: 0c24 3ebe efc8 e93c 366f 2f3e 6613 0dbd
00000240: 0def 94bd b310 5c3c 40fa a53e b538 0ebe
00000250: b3b6 803d 70ae 4ebe 55e8 203e 1d5d ff3d
00000260: 8b01 543e 8728 463d 501d 133e 2f5f f33d
00000270: 7cd0 abbd eb61 27be 89a8 b3bd 55b0 5a3e
00000280: e90a b43d 5b0c c63d 4d60 62bb 43fd 6a3e
00000290: 3a02 b8bc ee84 bebd ae57 2e3e 7a0e 523d
000002a0: e476 06be 0a58 45be 3de5 f9bd d2ef 1d3d
000002b0: 1abe 133d 7ea0 9bbd 4cb9 05be ee8b 84bd
000002c0: e1cc 8d3d 81dd 25be e4be 783c 5cc4 133e
000002d0: 90c9 6bbd 8052 4cbe cceb 01be e5fe 89bc
000002e0: b6be cc3d 359b 503e e01d 11be d2c3 98bd
000002f0: 7042 463e 81d1 93bd acb7 833e a4c3 0e3e
00000300: 46ac dbbd 4a65 1abe 4ab2 00be cd9f 7cbe
00000310: cbb4 fe3d 9786 673d f52a 8b3e 24e9 3e3e
00000320: ae1c a6bd c001 033d ab49 5a3e 104a 95bd
00000330: 5be5 c53c 00fb 3cbe fdf3 9cbd d801 cb3a
00000340: 825b 303e fee0 0fbe 5cf2 fd3d 10bc 343e
00000350: 4d66 b9bd 747d b5bd a7e0 9abc 05a6 4ebd
00000360: bb62 833d a7c8 383e 1948 dfbc dc4b 0cbe
00000370: 693b 06be 588d 553e 89a1 883c 793c 053e
00000380: 1066 53bd 9f0d b1bd 396f 8b3c 0a53 9d3d
00000390: 8a72 14be 154f f1bd 12db 493e 548b 0c3e
000003a0: ba96 5ebe 9a75 02bd 3b92 dfbd c0ff 223c
000003b0: e01f 1cbe ccb9 2b3d 1474 d5bd dcbc 12be
000003c0: 2dfa 553e a00f c13d 2a29 613e a2c0 e03d
000003d0: 8050 0dbe 365c 9f3d e9c8 483e 6cc5 ddbd
000003e0: 4918 58be 47d5 943b e18d d23c a1ab 853c
000003f0: 7814 c73d b0ca c6bd bf43 a53c c1ca 9abc

2.weight f4 [256, 256]
0.02307823 -0.0007318121 0.09285945 -0.013441132 0.030458007 0.0012962248 -0.10475163 0.03858773
-0.03547455 0.0992423 0.023363056 -0.014360216 0.14997432 -0.061874032 0.008878282 0.053642057
0.0680302 0.03196518 0.036981534 0.026182653 -0.0578645 0.012743114 -0.011904877 -0.025910223
-0.024414424 -0.009338696 0.014853782 0.0119568 0.002531314 -0.008935823 -0.0059848237 0.0523463
-0.08972352 -0.036302224 0.0032606588 -0.017243637 -0.03909072 -0.024901124 0.02800037 -0.03389941
0.021552598 -0.028289173 0.01193201 -0.03973487 -0.024689538 0.032197077 -0.013992145 0.06827999
-0.023590162 0.049731873 -0.06377722 -0.017434139 -0.067931 -0.06530678 -0.12007802 -0.009105264
-0.0008286973 -0.08705645 -8.006665e-05 0.07460831 0.10948881 4.502053e-05 -0.0070811925 0.030844294
-0.022410013 0.07609046 -0.090873495 -0.01380439 0.007402981 -0.021560885 0.047676157 -0.012029561
-0.010091307 0.09311346 -0.0056680217 0.058166124 0.023784157 0.02619312 -0.04200829 0.030719947
-0.05277021 -0.022552947 0.083348215 -0.007992904 -0.05242261 -0.012223595 -0.020750275 -0.035459355
-0.0011399225 -0.039102107 -0.039620824 -0.093434624 -0.025804305 -0.0076037063 -0.079912476 -0.040757187
-0.07453704 -0.08072673 0.09117643 0.034856543 -0.043893088 -0.03711883 -0.037232608 0.025436034
0.057742197 0.038948774 0.023851449 -0.070217125 0.030591069 -0.02391989 -0.047426023 0.09525807
0.0661257 0.04810683 0.03359952 -0.08376145 0.08721046 0.07033808 0.04319024 -0.04464446
-0.055333104 0.08199717 -0.03791127 0.031389695 -0.096894436 -0.081156015 -0.13467743 -0.019583348
0.059189826 -0.08718182 0.014006697 -0.038894683 0.050617266 0.050535303 0.04238293 0.0122172795
0.037365947 0.07294581 0.030798906 0.07682203 0.08367859 0.023147188 0.069892034 0.00078134355
0.0039305035 0.057852022 -0.1415421 0.06800671 -0.10378689 0.098149665 0.045467462 -0.04509402
-0.04210708 0.077771716 -0.03527158 -0.114526875 -0.016733777 0.05011596 0.0049818433 -0.10186886
0.03467679 -0.025217338 0.05188533 0.023725253 -0.017277883 -0.050425548 -0.090313815 0.042841215
0.0627386 0.020532204 0.004305243 -0.011362467 -0.023989316 -0.07958799 0.051042024 -0.06789531
-0.05132055 0.048556015 -0.08448061 -0.09378025 -0.008996957 0.038532753 -0.0516908 -0.0030635486
-0.049382936 -0.0016134867 0.0984543 -0.015359528 0.063514985 0.00042000096 -0.07045915 0.08198192
0.036222003 0.0014886869 0.048117023 0.07157429 0.017322581 -0.07214482 -0.09482588 -0.07007113
0.07957774 -0.025104906 -0.041558784 -0.0137548065 -0.10403507 -0.04343106 0.05842779 0.06266099
0.04156298 -0.032791518 0.011490012 0.029814053 -0.042808175 -0.073124535 -0.06585582 -0.09613939
0.01651757 0.02445281 0.08860744 -0.09296127 0.07230204 -0.0018731031 -0.038312834 0.012095089
0.04541704 0.034666475 -0.05809186 0.057423286 -0.06294126 -0.04398507 0.06027521 -0.022192612
-0.006110028 0.049188647 0.016526073 0.0111723505 -0.009983278 0.034512497 0.038061295 -0.006341459
-0.028219102 0.10151429 -0.0031199849 0.07037243 0.0653681 0.00392898 0.0727698 -0.043282468
-0.02814636 -0.026304318 0.07428705 0.02215101 0.016740877 -0.1275567 -0.05057495 -0.004204603
00000000: 8e0e bd3c 14d7 3fba 182d be3d 3238 5cbc
00000010: 1283 f93c 16e6 a93a 0688 d6bd 2b0e 1e3d
00000020: c34d 11bd 8c3f cb3d e163 bf3c 1d47 6bbc
00000030: de92 193e a06f 7dbd 3776 113c c6b7 5b3d
00000040: 6b53 8b3d eced 023d f379 173d 017d d63c
00000050: 5303 6dbd 7ec8 503c ac0c 43bc ad41 d4bc
00000060: c200 c8bc 5401 19bc 475d 733c 74e6 433c
00000070: 67e4 253b 8f67 12bc 571c c4bb 1369 563d
00000080: f7c0 b7bd a4b1 14bd c7b0 553b 8742 8dbc
00000090: 971d 20bd 71fd cbbc 0861 e53c 1cda 0abd
000000a0: 138f b03c b2be e7bc 7a7e 433c 08c1 22bd
000000b0: b741 cabc 15e1 033d 4f3f 65bc 61d6 8b3d
000000c0: 2840 c1bc a6b3 4b3d a29d 82bd 0ad2 8ebc
000000d0: 681f 8bbd 90bf 85bd 77eb f5bd 3f2e 15bc
000000e0: ef3c 59ba a74a b2bd 75e9 a7b8 3ecc 983d
000000f0: ab3b e03d 6dd4 3c38 5909 e8bb 2cad fc3c
00000100: 3495 b7bc 51d5 9b3d e21b babd cf2b 62bc
00000110: b594 f23b 74a0 b0bc 1348 433d a317 45bc
00000120: 0256 25bc 45b2 be3d d0ba b9bb 9a3f 6e3d
00000130: fed6 c23c f492 d63c e210 2cbd 66a8 fb3c
00000140: 9325 58bd f5c0 b8bc 78b2 aa3d abf4 02bc
00000150: 17b9 56bd 7945 48bc 7bfc a9bc d43d 11bd
00000160: 7469 95ba 8829 20bd 7249 22bd a75a bfbd
00000170: 8d63 d3bc 8328 f9bb 27a9 a3bd 02f1 26bd
00000180: e0a6 98bd 0e54 a5bd b5ba ba3d bcc5 0e3d
00000190: 3dc9 33bd ea09 18bd 3881 18bd 3b5f d03c
000001a0: 1583 6c3d c088 1f3d 1d64 c33c ffcd 8fbd
000001b0: 1f9a fa3c a5f3 c3bc ca41 42bd aa16 c33d
000001c0: e96c 873d ab0b 453d a69f 093d 208b abbd
000001d0: 669b b23d 690d 903d 40e8 303d 1cdd 36bd
000001e0: f7a4 62bd 22ee a73d d948 1bbd 7b92 003d
000001f0: 9770 c6bd 2035 a6bd e1e8 09be 426d a0bc
00000200: 0871 723d 628c b2bd 587c 653c 0850 1fbd
00000210: 0d54 4f3d 1bfe 4e3d b999 2d3d fc2a 483c
00000220: 090d 193d 9d64 953d fd4d fc3c de54 9d3d
00000230: ae5f ab3d 2c9f bd3c 8e23 8f3d 14d3 4c3a
00000240: 74cb 803b 3ef6 6c3d 6af0 10be 1a47 8b3d
00000250: 398e d4bd b102 c93d 173c 3a3d 82b4 38bd
00000260: 7978 2cbd c746 9f3d ef78 10bd 118d eabd
00000270: 4615 89bc 6546 4d3d bb3e a33b 9fa0 d0bd
00000280: 4009 0e3d 9794 cebc b685 543d 765b c23c
00000290: 598a 8dbc 058b 4ebd 73f6 b8bd 457a 2f3d
000002a0: 187d 803d 2733 a83c ff12 8d3b a429 3abc
000002b0: 3e85 c4bc 07ff a2bd 7111 513d b20c 8bbd
000002c0: 7f35 52bd ace2 463d 2c04 adbd dc0f c0bd
000002d0: f967 13bc 85d4 1d3d bbb9 53bd d1c5 48bb
000002e0: c345 4abd a17b d3ba 68a2 c93d 88a6 7bbc
000002f0: 2514 823d 9333 dc39 e34c 90bd 23e6 a73d
00000300: 865d 143d 0b20 c33a 5b16 453d 8b95 923d
00000310: 16e8 8d3c aac0 93bd 1234 c2bd 7481 8fbd
00000320: a7f9 a23d cea8 cdbc 8b39 2abd d75b 61bc
00000330: 5710 d5bd c4e4 31bd fa51 6f3d 6854 803d
00000340: f13d 2a3d 6650 06bd 9a40 3c3c 9a3c f43c
00000350: a057 2fbd 51c2 95bd 6bdf 86bd bae4 c4bd
00000360: db4f 873c 4251 c83c d177 b53d 7a62 bebd
00000370: 1813 943d e982 f5ba ebed 1cbd 7b2a 463c
00000380: 3807 3a3d 6ffe 0d3d bbf1 6dbd ae34 6b3d
00000390: 59e7 80bd b029 34bd 23e3 763d 48cd b5bc
000003a0: a136 c8bb 097a 493d b061 873c 3c0c 373c
000003b0: e790 23bc fa5c 0d3d 29e6 1b3d 04cc cfbb
000003c0: bf2b e7bc b9e6 cf3d a978 4cbb 6c1f 903d
000003d0: b6df 853d acbe 803b 5508 953d f548 31bd
000003e0: 3293 e6bc 277c d7bc cf23 983d 0976 b53c
000003f0: 2a24 893c 399e 02be ae27 4fbd c4c6 89bb

2.bias f4 [256]
0.0300247 0.049658004 0.022193672 -0.037850052 -0.042398013 -0.002618675 -0.038931243 0.025947502
0.01835751 -0.028523393 -0.028276341 0.019764988 -0.07662131 -0.014609309 -0.029283065 0.06918095
0.05693602 0.01480003 0.005812439 -0.06824732 0.020557607 -0.018789105 0.049731657 -0.053271644
-0.008753387 0.025472362 0.0033806784 0.01782979 -0.02265017 -0.031457037 0.025823146 0.015787156
0.0006860601 0.028514326 0.037365176 -0.023319967 -0.038833655 -0.049289815 -0.028530216 -0.046762556
-0.0517787 0.027655885 0.052955326 0.014182353 0.016339118 -0.06446915 -0.025339011 0.047235485
-0.051614296 -0.0017586632 -0.044934306 0.005540026 -0.06920052 -0.031409647 0.015461237 0.05904575
-0.0229731 -0.05990474 0.010601183 -0.037351288 0.02631099 0.00406485 0.029895607 0.0367767
0.042460736 -0.026551925 -0.07021755 0.026970832 0.040341858 0.0135749895 0.04894882 -0.011025521
-0.054486644 -0.02420721 0.007168755 -0.0049889493 -0.020722983 -0.047913607 -0.041300796 -0.06524645
0.02372378 0.04986774 0.015216248 0.023625934 -0.0021718226 0.011675863 -0.066356555 0.019286247
0.0073175393 -0.016933149 0.032554507 0.00068186945 0.006537066 0.041373085 0.017795607 -0.048707962
-0.030285543 0.016285231 -0.007218426 0.009851126 -0.006214113 -0.03200626 0.033596553 -0.0057656737
-0.057770535 -0.043677304 0.024211861 -0.0005213739 -0.011854983 -0.060269654 0.0511749 -0.009473785
-0.022504775 -0.075654596 -0.009860195 0.040754866 -0.057543036 -0.040899195 0.04364521 0.0050828815
-0.019283166 0.025923021 -0.017898716 -0.03920029 0.051477473 0.014851837 0.042977665 -0.06846085
-0.07006535 -0.052257136 0.04556615 -0.029569317 0.08025603 0.07597898 -0.017206931 -0.050368078
0.025347969 -0.05098701 -0.032456826 -0.021964638 0.0075277705 0.027154583 0.026105251 -0.016420426
0.0127923805 -0.006139078 0.057497684 -0.002163637 -0.01676435 0.01710886 -0.060752973 -0.0082845045
0.04908246 0.013000631 0.039455976 0.052356612 -0.0538544 -0.008042698 -0.052317712 0.018920967
-0.060218055 -0.041407652 0.06503141 0.03909205 -0.059831377 0.05194876 0.025854088 -0.026142713
0.04901865 -0.0045946115 -0.036290973 -0.019652491 -0.016675742 0.011262088 0.029058324 -0.030229133
0.041895036 0.006122505 0.06595675 -0.045023784 0.06280591 -0.06736141 0.0184271 -0.011516642
-0.000530981 -0.045080192 -0.029530386 -0.04579629 -0.0020348884 0.0064346 0.03115722 0.010311824
-0.008486441 0.031185871 -0.059097905 0.04033479 -0.0050831567 -0.0027588964 -0.056667194 0.03133878
-0.0010962493 0.015925512 0.038010966 -0.06141722 0.055408116 0.009767668 -0.05611801 -0.015863702
-0.015482302 0.032162774 -0.014166277 -0.033112276 0.04781902 -0.048048396 -0.024471916 0.059966333
0.055431858 0.0042545386 -0.054355383 -0.025622157 -0.039838362 -0.032609638 -0.04643496 0.03412429
-0.012819233 -0.020266311 -0.030813035 0.04288522 -0.051270496 -0.029926328 -0.0014274275 0.04361834
0.002538463 0.028824735 0.078537025 0.01727522 0.0010737416 -0.03466111 -0.05917748 -0.039545033
0.0066521834 0.054219104 0.03404855 0.06440412 -0.051058363 -0.0162347 -0.053080525 0.039867356
0.035986774 -0.021744527 -0.061863046 0.03930312 -0.02520007 0.03231722 -0.04467707 -0.048445668
00000000: 5cf6 f53c 3166 4b3d 81cf b53c a808 1bbd
00000010: 8aa9 2dbd 139e 2bbb 5e76 1fbd db8f d43c
00000020: 7d62 963c e4a9 e9bc c9a3 e7bc 2fea a13c
00000030: a2eb 9cbd e25b 6fbc 0ae3 efbc beae 8d3d
00000040: be35 693d d37b 723c 4676 be3b 40c5 8bbd
00000050: 6d68 a83c 9ceb 99bc 6cb3 4b3d 5e33 5abd
00000060: 5e6a 0fbc 6aab d03c 5f8e 5d3b c80f 923c
00000070: d98c b9bc 18d9 00bd 108b d33c 1154 813c
00000080: b7d8 333a e096 e93c 3a0c 193d 8409 bfbc
00000090: 0a10 1fbd 1ee4 49bd 33b8 e9bc 188a 3fbd
000000a0: e715 54bd 988e e23c afe7 583d 1a5d 683c
000000b0: 9dd9 853c 6708 84bd c293 cfbc ff79 413d
000000c0: 8369 53bd f282 e6ba 090d 38bd 1b89 b53b
000000d0: 01b9 8dbd 67a7 00bd 2151 7d3c f5d9 713d
000000e0: 1532 bcbc ac5e 75bd 96b0 2d3c aafd 18bd
000000f0: 258a d73c 6f32 853b a2e7 f43c 2aa3 163d
00000100: 4feb 2d3d 6c83 d9bc 38ce 8fbd eff1 dc3c
00000110: 813d 253d a269 5e3c 8f7e 483d 63a4 34bc
00000120: 632d 5fbd 334e c6bc e0e7 ea3b 577a a3bb
00000130: 3fc3 a9bc 0f41 44bd 062b 29bd ee9f 85bd
00000140: 5f58 c23c 1e42 4c3d 924d 793c 2d8b c13c
00000150: 2355 0ebb 1e4c 3f3c f2e5 87bd 31fe 9d3c
00000160: f8c7 ef3b 63b7 8abc e057 053d 7cbf 323a
00000170: e234 d63b d376 293d 18c8 913c 0082 47bd
00000180: 6319 f8bc 9b68 853c 8c88 ecbb 9e66 213c
00000190: c29f cbbb ff18 03bd 8a9c 093d faed bcbb
000001a0: cca0 6cbd f9e6 32bd f457 c63c cfac 08ba
000001b0: 673b 42bc 50dd 76bd c69c 513d ef37 1bbc
000001c0: ef5b b8bc ccf0 9abd a88c 21bc 93ee 263d
000001d0: 3fb2 6bbd ea85 27bd 52c5 323d 4d8e a63b
000001e0: bbf7 9dbc 845c d43c 54a0 92bc 7c90 20bd
000001f0: 0bda 523d 1f55 733c 5909 303d 3435 8cbd
00000200: 6c7e 8fbd 940b 56bd 92a3 3a3d 5a3b f2bc
00000210: 465d a43d de9a 9b3d 8df5 8cbc c24e 4ebd
00000220: 8ba6 cf3c c1d7 50bd 73f1 04bd 2fef b3bc
00000230: 84ab f63b 4a73 de3c aeda d53c 2184 86bc
00000240: 2297 513c 522a c9bb b182 6b3d cecb 0dbb
00000250: 6455 89bc e127 8c3c 1cd8 78bd bbbb 07bc
00000260: b10a 493d 9900 553c 979c 213d e373 563d
00000270: 6e96 5cbd 85c5 03bc 194b 56bd 2500 9b3c
00000280: 35a7 76bd 129b 29bd 302f 853d fc1e 203d
00000290: bf11 75bd 39c8 543d f4cb d33c 3e29 d6bc
000002a0: c8c7 483d 658e 96bb d8a5 14bd 43fe a0bc
000002b0: 919b 88bc 9f84 383c b90b ee3c 16a3 f7bc
000002c0: 219a 2b3d 4b9f c83b 5514 873d dc6a 38bd
000002d0: 63a0 803d c7f4 89bd 6ef4 963c 4cb0 3cbc
000002e0: 8831 0bba 02a6 38bd b5e9 f1bc e494 3bbd
000002f0: c35b 05bb 56d9 d23b 6d3d ff3c edf2 283c
00000300: b70a 0bbc 8379 ff3c a510 72bd 1836 253d
00000310: 9c90 a6bb 9ace 34bb dc1b 68bd 185d 003d
00000320: 06b0 8fba 3876 823c 63b1 1b3d 9f90 7bbd
00000330: 9ff3 623d 9208 203c 00dc 65bd 98f4 81bc
00000340: 7ba9 7dbc 1dbd 033d ac19 68bc bda0 07bd
00000350: e0dd 433d 65ce 44bd 5479 c8bc 429f 753d
00000360: 840c 633d a869 8b3b c0a3 5ebd 8fe5 d1bc
00000370: 8d2d 23bd af91 05bd 9632 3ebd e9c5 0b3d
00000380: c307 52bc 8905 a6bc 9e6b fcbc 6aa8 2f3d
00000390: 0301 52bd 0f28 f5bc 8518 bbba 25a9 323d
000003a0: 585c 263b da21 ec3c 05d8 a03d c384 8d3c
000003b0: cabc 8c3a cff8 0dbd 1664 72bd f9f9 21bd
000003c0: 8ffa d93b da14 5e3d 7e76 0b3d 4fe6 833d
000003d0: 9322 51bd a2fe 84bc f76a 59bd f44b 233d
000003e0: de66 133d 9421 b2bc 1b64 7dbd 4ffc 203d
000003f0: 6170 cebc 105f 043d 4eff 36bd f76e 46bd

4.weight f4 [128, 256]
0.04860932 -0.0051420378 0.020351062 -0.054321542 -0.09040076 -0.037476055 -0.028262181 -0.043747514
0.05206283 0.0019707037 -0.026751084 -0.02279701 -0.070032895 -0.05314053 0.06950288 0.06079853
-0.02240034 -0.070888355 -0.08251486 0.026185954 -0.018227477 0.012921344 0.047058888 -0.004983634
0.019473448 -0.05434539 0.0038556736 0.018450603 -0.05794455 -0.054828208 0.08364435 -0.11499275
0.017649775 -0.0642656 -0.016217561 0.09734653 0.011554094 0.061130915 -0.07533069 0.03722364
0.0889738 0.057201993 0.006413124 0.05988624 0.069780916 0.055910356 0.04170436 0.010614605
-0.0012934431 0.04375935 0.008585689 0.0074695344 0.012294528 -0.06916224 -0.036562633 0.047156394
-0.0038218934 -0.04765874 0.06266971 -0.019541906 0.025871305 -0.025827214 0.11638353 0.066243246
-0.024023581 0.004959264 0.02996702 0.044066753 0.002284703 0.044121414 0.041520476 0.016537035
0.049941048 -0.06683053 -0.066032685 -0.037311256 0.060205452 0.039973754 -0.0154697625 0.07016767
0.055067085 -0.014876201 -0.05478821 0.049856316 -0.08341656 -0.08430641 -0.015331775 -0.045529023
0.005438213 0.01716589 0.012496887 -0.0496304 -0.095899895 -0.07937662 -0.036110826 0.024800053
0.008942834 0.027280284 0.028595362 0.003544738 0.07956231 -0.0002976737 -0.010676479 0.04691113
0.04143149 0.11457229 0.005799316 0.05796656 -0.035284434 -0.016186511 -0.035181284 0.057841636
0.018900549 0.10851288 -0.0663201 0.058678437 0.044073872 0.057471756 0.015576152 0.039908987
0.03717418 0.046496462 0.065849066 -0.0030739827 0.017057255 -0.05264284 0.031798698 0.05345696
-0.037808273 0.017202735 -0.017806388 -0.056396335 -0.026224734 -0.012283715 -0.041166533 -0.0024617342
0.05774488 0.07764918 0.0638145 0.06357122 0.05141144 -0.009881221 0.0034989552 -0.015281433
0.032892585 0.04082285 -0.043990873 0.08867153 0.015500668 -0.05164355 -0.025906727 0.007933699
-0.007925624 -0.03998457 -0.00089983176 -0.05907947 -0.04092765 0.06892901 0.01083507 -0.072417185
-0.03258264 0.07932912 0.111612126 0.056177326 0.05995676 -0.020329677 0.083621845 0.0065504224
0.07134416 0.049486063 -0.046473578 -0.047572725 -0.044023406 0.060153928 -0.0062173777 0.0064945244
0.07977738 0.008542172 -0.041130025 0.038272172 0.06770591 0.008480997 0.020455167 -0.068275996
0.07583856 0.07377918 -0.03804849 -0.04316661 -0.012632063 0.041143883 0.038431566 0.019711995
-0.039621055 -0.060080104 -0.016336255 0.047493283 0.06328019 0.09341233 -0.049486555 -0.04295753
0.06927339 -0.0068661743 0.015231087 -0.003884285 -0.06517285 -0.009896758 0.019327158 -0.003407151
-0.061365426 0.11867803 0.00090415706 0.082990885 -0.0145354755 -0.03257678 0.04619648 0.045223273
0.09678652 -0.057948153 0.07583968 0.042523 0.07748241 0.02885902 0.07903108 0.031892486
-0.02101302 0.00028093508 0.040024 -0.00918154 0.08829129 0.07468092 -0.0048091267 0.0034910562
-0.0013421344 0.101990946 0.010930443 -0.052329376 0.0066304156 -0.03476805 -0.047138426 -0.02455138
-0.024479982 0.042810813 0.012938829 -0.022665998 -0.012095373 0.07286978 -0.03603647 0.0013177264
-0.07317826 -0.044232875 -0.054806057 0.11058705 0.01442662 -0.008888934 -0.022034 0.0075868047
00000000: 911a 473d 8a7e a8bb 45b7 a63c 4480 5ebd
00000010: 0924 b9bd 7e80 19bd 1786 e7bc 9830 33bd
00000020: d63f 553d ec26 013b 1725 dbbc ccc0 babc
00000030: 686d 8fbd e2a9 59bd 8757 8e3d e107 793d
00000040: eb80 b7bc ea2d 91bd 8dfd a8bd ed83 d63c
00000050: ca51 95bc 0bb4 533c d2c0 403d c14d a3bb
00000060: c886 9f3c 4699 5ebd 78af 7c3b b825 973c
00000070: 4457 6dbd 8b93 60bd bb4d ab3d 5281 ebbd
00000080: 4396 903c af9d 83bd b1da 84bc 9e5d c73d
00000090: 624d 3d3c 6964 7a3d fa46 9abd d177 183d
000000a0: e537 b63d a34c 6a3d 2f25 d23b 464b 753d
000000b0: 4ce9 8e3d 4202 653d 31d2 2a3d e1e8 2d3c
000000c0: c088 a9ba 013d 333d fdaa 0c3c ffc2 f43b
000000d0: fd6e 493c efa4 8dbd b3c2 15bd 1027 413d
000000e0: bb78 7abb d035 43bd fa58 803d 5916 a0bc
000000f0: 0ff0 d33c 9893 d3bc 7d5a ee3d 8aaa 873d
00000100: 1acd c4bc 5281 a23b 657d f53c 577f 343d
00000110: f5ba 153b a8b8 343d 6011 2a3d ad78 873c
00000120: fc8e 4c3d 72de 88bd 253c 87bd b0d3 18bd
00000130: fe99 763d 85bb 233d e374 7dbc 11b4 8f3d
00000140: 068e 613d 4fbb 73bc 9a69 60bd 2336 4c3d
00000150: 4dd6 aabd d7a8 acbd 2032 7bbc a47c 3abd
00000160: 0933 b23b 7b9f 8c3c bebf 4c3c 3f49 4bbd
00000170: 2a67 c4bd 3690 a2bd f2e8 13bd 7b29 cb3c
00000180: f784 123c e77a df3c d240 ea3c d64e 683b
00000190: 90f1 a23d 1611 9cb9 66ec 2ebc e325 403d
000001a0: 11b4 293d e0a4 ea3d 3008 be3b 586e 6d3d
000001b0: 6986 10bd 9399 84bc 401a 10bd 5aeb 6c3d
000001c0: 53d5 9a3c 003c de3d d5d2 87bd cd58 703d
000001d0: ce86 343d 8167 6b3d 1e33 7f3c 9b77 233d
000001e0: f443 183d 1373 3e3d e0db 863d df74 49bb
000001f0: a8bb 8b3c 05a0 57bd 5a3f 023d aff5 5a3d
00000200: d9dc 1abd c0ec 8c3c b4de 91bc d8ff 66bd
00000210: 41d5 d6bc a341 49bc 3d9e 28bd 0c55 21bb
00000220: e585 6c3d 8906 9f3d 2db1 823d a131 823d
00000230: cd94 523d d8e4 21bc ba4e 653b fa5e 7abc
00000240: 60ba 063d dc35 273d c62f 34bd 6b99 b53d
00000250: 84f6 7d3c 3088 53bd 583a d4bc 58fc 013c
00000260: 7ada 01bc dcc6 23bd b0e2 6bba 50fd 71bd
00000270: c0a3 27bd a72a 8d3d 9485 313c 764f 94bd
00000280: 6075 05bd 4e77 a23d e694 e43d 321a 663d
00000290: 3895 753d 6c8a a6bc ee41 ab3d eda4 d63b
000002a0: e31c 923d e6b1 4a3d 145b 3ebd 9edb 42bd
000002b0: e351 34bd f763 763d 25bb cbbb 05d0 d43b
000002c0: 5362 a33d 77f4 0b3c f577 28bd 48c3 1c3d
000002d0: 65a9 8a3d e1f3 0a3c 9891 a73c 49d4 8bbd
000002e0: 3f51 9b3d 8a19 973d bcd8 1bbd 79cf 30bd
000002f0: b6f6 4ebc 7d86 283d 6b6a 1d3d 0d7b a13c
00000300: b049 22bd 8e16 76bd 9cd3 85bc 5188 423d
00000310: 0b99 813d f74e bf3d 6ab2 4abd 3cf4 2fbd
00000320: 35df 8d3d a5fd e0bb cf8b 793c 7d8f 7ebb
00000330: 5879 85bd 0326 22bc fd53 9e3c 824a 5fbb
00000340: 505a 7bbd 780d f33d f404 6d3a 20f7 a93d
00000350: 3426 6ebc 3b6f 05bd 8538 3d3d 0a3c 393d
00000360: 0338 c63d 0b5b 6dbd d651 9b3d 992c 2e3d
00000370: 19af 9e3d c069 ec3c 0cdb a13d b2a1 023d
00000380: 7f23 acbc 784a 9339 35f0 233d 2c6e 16bc
00000390: 10d2 b43d 4ff2 983d e195 9dbb 34ca 643b
000003a0: 8fea afba a1e0 d03d 9a15 333c 5457 56bd
000003b0: f543 d93b f168 0ebd 3914 41bd fa1f c9bc
000003c0: 3e8a c8bc 645a 2f3d 62fd 533c 0bae b9bc
000003d0: ac2b 46bc c03c 953d fa9a 13bd 90b7 ac3a
000003e0: 7cde 95bd 882d 35bd 517c 60bd 777b e23d
000003f0: a15d 6c3c e4a2 11bc a680 b4bc bb9a f83b

4.bias f4 [128]
0.014974565 0.03513678 0.003670424 0.011019967 0.027547933 0.054021925 -0.0030391272 0.006230853
0.042757247 -0.053775292 -0.046484698 0.02809296 0.0544914 -0.04562879 -0.057351034 -0.034486458
0.03381204 0.040781323 0.030883474 0.044217512 -0.00014708519 0.03511141 -0.040298782 0.03831834
-0.0554885 -0.05614396 0.069119565 0.011576077 -0.06639362 -0.010929732 -0.003933082 0.0170326
0.018206276 0.056596432 0.023175787 0.034666628 0.011332152 -0.016106458 0.05047887 0.039010294
0.066590175 0.018363439 -0.037637558 0.015414417 -0.0010047884 0.03758522 -0.04586919 -0.029890336
0.03113984 -0.018355738 0.014203809 -0.007856116 -0.026137773 0.03318431 0.011753635 0.0060030315
0.025378643 -0.03219851 -0.06430899 -0.047624934 -0.013159872 -0.030813515 0.040614937 -0.053427186
0.05095767 -0.022103177 0.040905416 0.01343777 -0.06582545 0.010280085 0.04698288 0.053598683
-0.0044664913 0.05029135 -0.023929542 -0.05964071 0.050633542 -0.010534483 -0.0329796 0.03466212
0.036566664 -0.040591422 -0.03184606 -0.059688773 0.004423103 -0.05213325 0.0021836138 0.03860903
-0.011236688 -0.05683452 0.03565697 -0.027047098 -0.043706805 -0.038432565 0.04518078 -0.0009443329
-0.04036167 0.018682502 -0.041401334 -0.014454702 0.04336423 -0.047825124 0.017079229 0.03198044
-0.017203402 0.0025013231 -0.044551086 -0.006631034 -0.031436253 9.493911e-05 0.051057916 -0.033498805
0.05261865 -0.028854234 0.020772863 -0.029981486 -0.06102218 0.040086947 -0.025584117 0.008774085
-0.0016950099 -0.05941895 0.009468225 -0.06780135 0.02348778 0.05559245 0.0725472 -0.015265574
00000000: e157 753c 96eb 0f3d 7f8b 703b 178d 343c
00000010: 34ac e13c 1846 5d3d 182c 47bb 2f2c cc3b
00000020: 3922 2f3d 7b43 5cbd bd66 3ebd 3523 e63c
00000030: 6032 5f3d 41e5 3abd ebe8 6abd ac41 0dbd
00000040: 7e7e 0a3d 510a 273d 57ff fc3c 6c1d 353d
00000050: e13a 1ab9 fbd0 0f3d 5610 25bd b1f3 1c3d
00000060: e947 63bd 36f7 65bd 8f8e 8d3d 96a9 3d3c
00000070: 61f9 87bd 9e12 33bc 15e1 80bb f387 8b3c
00000080: 5425 953c a9d1 673d 26db bd3c 98fe 0d3d
00000090: 7eaa 393c b1f1 83bc eec2 4e3d 42c9 1f3d
000000a0: 6e60 883d ec6e 963c d729 1abd c08c 7c3c
000000b0: 1bb3 83ba f6f2 193d 55e1 3bbd 94dc f4bc
000000c0: fa18 ff3c c65e 96bc 18b7 683c f0b6 00bc
000000d0: e21e d6bc 45ec 073d 5192 403c 14b5 c43b
000000e0: dfe6 cf3c 96e2 03bd 6fb4 83bd 5d12 43bd
000000f0: 819c 57bc a06c fcbc d95b 263d 77d6 5abd
00000100: fdb8 503d b911 b5bc 708c 273d 182a 5c3c
00000110: 7ecf 86bd cd6d 283c 1f71 403d 4b8a 5b3d
00000120: a55b 92bb 4dfe 4d3d e307 c4bc d149 74bd
00000130: 1e65 4f3d d398 2cbc 9e15 07bd def9 0d3d
00000140: edc6 153d 3143 26bd 0471 02bd 377c 74bd
00000150: adef 903b ad89 55bd f61a 0f3b 8124 1e3d
00000160: 161a 38bc 50cb 68bd 0b0d 123d e091 ddbc
00000170: e805 33bd 776b 1dbd 7b0f 393d 1c8d 77ba
00000180: 4752 25bd 0c0c 993c 7294 29bd 6ad3 6cbc
00000190: b19e 313d 47e4 43bd bde9 8b3c ecfd 023d
000001a0: 26ee 8cbc 3ded 233b 337b 36bd 2549 d9bb
000001b0: 4dc3 00bd 0c1a c738 1b22 513d 0b36 09bd
000001c0: a786 573d b75f ecbc da2b aa3c bc9b f5bc
000001d0: 65f2 79bd 3632 243d c895 d1bc 2ec1 0f3c
000001e0: 182b deba 4961 73bd 9d20 1b3c 6fdb 8abd
000001f0: 7269 c03c e9b4 633d a093 943d 751c 7abc

6.weight f4 [128, 128]
-0.06618105 0.030590003 -0.029839197 0.1212938 -0.075126305 0.033505656 0.059617564 -0.026849873
-0.04528934 0.04933756 -0.009065997 0.03861419 0.09344314 0.12036907 0.017471246 0.026534898
0.0038223686 -0.0074403705 -0.0036633853 0.029545529 0.05843602 0.054411195 0.07871476 0.05625661
0.028193032 -0.04200147 -0.024664313 0.068130784 0.088046834 0.0625702 0.013783926 -0.02676192
0.03991311 0.046928864 0.0704765 -0.076250225 -0.05290452 -0.041124664 -0.0584162 -0.08653838
0.0758127 -0.024151374 -0.0666872 0.09998459 0.059629448 0.0020080265 -0.07451125 0.022235332
0.072097674 0.022810223 -0.0071779354 0.07988381 -0.05891508 -0.042893864 -0.015483084 0.10569074
-0.055377733 -0.07160129 -0.04518615 0.02052448 -0.08080205 -0.08106391 0.07520662 0.029240891
0.1013879 0.10274272 0.14608903 0.039303847 0.047885597 0.014437739 0.060538225 0.019194473
-0.07550859 0.0072238855 -0.03854988 0.08882366 -0.009501055 0.07356256 0.05267234 -0.018222643
-0.019404031 -0.00525645 0.05175485 -0.093978755 0.06789119 0.044351257 0.009843459 0.042824984
0.05492476 -0.0022177456 -0.042462766 -0.050384 0.052503012 0.079199165 -0.08673953 -0.00048817135
0.07437096 0.04645621 -0.11058108 0.06501341 0.053605918 0.09870772 0.110699736 -0.084199026
0.10106994 -0.038417682 -0.02242416 -0.054564588 -0.07673159 0.05518769 -0.12838264 0.0639072
0.024231443 0.06388308 0.031831477 -0.029662006 0.025847249 0.050350476 -0.03332472 0.023017026
0.034448482 -0.089791164 -0.049408536 0.0029583871 -0.037401725 -0.08502753 -0.029718006 -0.050290897
-0.03958545 -0.033225536 0.03781584 -0.07522764 -0.036366966 -0.033559993 -0.079925224 -0.07709808
0.048899505 -0.00050482334 -0.0002726391 0.106925 0.08241758 0.026316015 -0.0018808991 -0.09716916
0.0065558446 0.052042805 0.04948298 -0.053605866 0.061301194 0.024996512 -0.017288791 -0.024319353
0.07421076 0.11355817 0.025986528 0.111899555 0.06063103 0.0068715885 0.028122187 -0.020208238
-0.002217032 0.08530866 0.0043527144 -0.049686212 0.07255053 0.0261841 -0.05595316 0.010742455
-0.041753806 0.038486224 0.025193503 0.09972688 0.04072731 -0.0468391 -0.05767748 0.10001618
0.009015897 0.013404243 0.018388407 0.03626201 -0.07857345 -0.0076876446 0.043718506 0.008799249
0.10811945 0.009455032 0.051212914 0.076650865 -0.044739384 0.03176681 -0.0067402716 -0.060540225
0.07786783 -0.033826206 -0.0092141535 0.10815321 -0.053305846 -0.06255676 0.030950978 -0.018963927
-0.023116803 0.030757003 0.08213603 0.06941022 0.018565528 -0.03771359 0.043946065 -0.017304182
0.016268525 0.17540619 0.040571444 0.014922768 0.03204719 0.08238883 -0.03035924 -0.04411009
-0.059644986 0.02921407 0.0002609086 -0.04863188 0.065705664 -0.058873042 -0.055193048 0.022242714
-0.06515444 0.025868835 -0.04126264 0.024186125 0.06273149 -0.06694191 -0.0032263258 -0.058503587
0.09153876 -0.030503107 -0.048293635 -0.025789633 0.09428402 0.08370535 -0.01577939 -0.051830348
-0.047204528 -0.010890239 0.070257336 0.041270725 0.052104834 0.0748158 -0.091493115 0.03842085
-0.009513386 0.043866456 0.004894152 0.12262792 0.122027405 -0.028718112 0.00085605396 -0.05662439
00000000: ee89 87bd e397 fa3c 5571 f4bc e268 f83d
00000010: d2db 99bd 3a3d 093d 8c31 743d 44f4 dbbc
00000020: 5181 39bd 2e16 4a3d 8c89 14bc ea29 1e3d
00000030: 1e5f bf3d 0f84 f63d dc1f 8f3c b75f d93c
00000040: b480 7a3b 5ace f3bb 6815 70bb 7709 f23c
00000050: 9c5a 6f3d 46de 5e3d 3435 a13d 556d 663d
00000060: 13f5 e63c bc09 2cbd d00c cabc 2788 8b3d
00000070: e651 b43d ce24 803d fad5 613c d03b dbbc
00000080: ee7b 233d 7b38 403d fc55 903d 1429 9cbd
00000090: 69b2 58bd 5672 28bd d345 6fbd 093b b1bd
000000a0: b043 9b3d 1ad9 c5bc 4c93 88bd b9c4 cc3d
000000b0: 023e 743d 1899 033b 5b99 98bd df26 b63c
000000c0: f2a7 933d 81dc ba3c e334 ebbb 1f9a a33d
000000d0: f050 71bd 7ab1 2fbd c3ac 7dbc 6374 d83d
000000e0: c3d3 62bd b2a3 92bd 1d15 39bd f422 a83c
000000f0: 8c7b a5bd d604 a6bd ee05 9a3d 988a ef3c
00000100: 76a4 cf3d c66a d23d 5d98 153e 12fd 203d
00000110: b023 443d 448c 6c3c eef6 773d ba3d 9d3c
00000120: 3fa4 9abd 58b6 ec3b 7be6 1dbd 2ee9 b53d
00000130: 50aa 1bbc f8a7 963d f4be 573d a747 95bc
00000140: 34f5 9ebc 4c3e acbb e5fc 533d ef77 c0bd
00000150: 890a 8b3d aaa9 353d 7646 213c 4069 2f3d
00000160: c9f8 603d 9957 11bb 70ed 2dbd 745f 4ebd
00000170: 660d 573d 2c33 a23d 7fa4 b1bd 40f1 ffb9
00000180: cd4f 983d de48 3e3d 5578 e2bd c025 853d
00000190: e191 5b3d 4627 ca3d 8bb6 e23d 8a70 acbd
000001a0: c2fd ce3d dc5b 1dbd dfb2 b7bc 1e7f 5fbd
000001b0: 7425 9dbd 7d0c 623d bd76 03be c7e1 823d
000001c0: 0581 c63c 22d5 823d b961 023d bcfd f2bc
000001d0: 9cbd d33c 4d3c 4e3d 807f 08bd 348e bc3c
000001e0: da19 0d3d 6ee4 b7bd 9b60 4abd 80e1 413b
000001f0: 8d32 19bd ea22 aebd 2d73 f3bc d4fd 4dbd
00000200: 5a24 22bd 8017 08bd c8e4 1a3d f310 9abd
00000210: 87f5 14bd 3476 09bd d6af a3bd 99e5 9dbd
00000220: d94a 483d 1f56 04ba 00f1 8eb9 7ffb da3d
00000230: 8cca a83d af94 d73c 8088 f6ba a000 c7bd
00000240: 69d2 d63b d62a 553d aaae 4a3d d391 5bbd
00000250: f616 7b3d 7cc5 cc3c 39a1 8dbc 6139 c7bc
00000260: d0fb 973d 3091 e83d b3e1 d43c 982b e53d
00000270: 3e58 783d 102b e13b 8060 e63c bf8b a5bc
00000280: a04b 11bb 4fb6 ae3d 37a1 8e3b c583 4bbd
00000290: 5f95 943d 0a80 d63c 242f 65bd 1f01 303c
000002a0: 0a06 2bbd bba3 1d3d 9b62 ce3c 9b3d cc3d
000002b0: aed1 263d 5bda 3fbd 393f 6cbd 48d5 cc3d
000002c0: 6ab7 133c 789d 5b3c 49a3 963c 7987 143d
000002d0: 1eeb a0bd a3e8 fbbb 2d12 333d ba2a 103c
000002e0: bb6d dd3d 47e9 1a3c a2c4 513d 21fb 9c3d
000002f0: a540 37bd ea1d 023d 7fdd dcbb 07f9 77bd
00000300: 2b79 9f3d 598d 0abd f6f6 16bc 6e7f dd3d
00000310: 3b57 5abd c21d 80bd e88c fd3c 3d5a 9bbc
00000320: 735f bdbc 1cf6 fb3c ef36 a83d f226 8e3d
00000330: bc16 983c 9179 1abd ca00 343d 80c1 8dbc
00000340: 9245 853c ae9d 333e 3e2e 263d a07e 743c
00000350: ea43 033d 7abb a83d f1b3 f8bc c8ac 34bd
00000360: 4d4e 74bd 5852 ef3c 8fca 8839 3932 47bd
00000370: b190 863d dc24 71bd 1b12 62bd 5a36 b63c
00000380: b16f 85bd e1ea d33c 0403 29bd fb21 c63c
00000390: 5e79 803d d718 89bd c470 53bb 75a1 6fbd
000003a0: ac78 bb3d a7e1 f9bc 8ccf 45bd c844 d3bc
000003b0: fb17 c13d b66d ab3d c843 81bc 0f4c 54bd
000003c0: 8959 41bd f96c 32bc 14e3 8f3d 7e0b 293d
000003d0: e16b 553d 0739 993d be60 bbbd 2e5f 1d3d
000003e0: 08de 1bbc 50ad 333d 1f5f a03b 5924 fb3d
000003f0: 81e9 f93d 3f42 ebbc cf68 603a faee 67bd

6.bias f4 [128]
0.012808681 -0.07211491 0.06893005 -0.0016517036 0.027039701 -0.07435024 0.04261928 0.004568222
-0.003991454 -0.08982968 -0.0061821253 0.04383807 0.018031944 -0.06664597 -0.011657331 0.058152027
0.04862978 -0.09974308 -0.0798718 -0.01191093 0.0017159738 0.016014358 -0.0007619832 -0.0012185784
0.030120444 -0.019405276 0.06190705 -0.029205564 -0.07755517 0.015750647 -0.026242197 0.021735646
0.010647553 0.053804077 0.014788684 -0.05292954 0.032495413 0.009929946 -0.0575432 -0.07240502
0.014207902 -0.05599332 -0.0051256223 0.059767105 -0.07129178 -0.08376678 0.046562556 0.012800815
0.004503691 0.012371168 0.033498958 -0.020113308 -0.06837634 -0.068296716 0.088987984 0.06273341
-0.018618818 -0.061851673 0.025390204 -0.011091142 0.0061693997 0.0047139605 -0.10496747 0.02023339
0.017043468 0.015134197 0.030781724 0.07029189 -0.004816913 -0.078819275 0.069501854 -0.036542688
-0.015000239 -0.07529221 -0.035981312 0.068648875 0.034910668 -0.051624715 0.05680533 -0.044069625
-0.03181538 -0.09755019 -0.027395746 -0.04646392 -0.07422786 -0.038313102 0.012378071 -0.011552295
-0.056886956 0.03928031 0.07043604 0.039693933 0.057538003 -0.012502455 -0.050643343 -0.072572015
0.017929716 0.035790794 0.08798405 -0.018619293 -0.028977804 -0.008270669 -0.09841972 0.0066311234
0.07695091 0.08728945 -0.04388942 0.023439992 -0.005827261 -0.07099124 -0.0071505746 0.03828312
-0.015517466 -0.063648544 0.049838107 -0.0077807806 -0.05036773 -0.095277615 -0.015743632 -0.09575087
0.0882905 0.0033746003 -0.08816043 0.0720228 0.038699593 0.10064307 -0.08845609 -0.06608241
00000000: 80db 513c fbb0 93bd 332b 8d3d fa7d d8ba
00000010: 5d82 dd3c f044 98bd 8e91 2e3d 06b1 953b
00000020: beca 82bb a0f8 b7bd 6d93 cabb 8c8f 333d
00000030: bab7 933c af7d 88bd 64fe 3ebc d230 6e3d
00000040: 0530 473d 1a46 ccbd d493 a3bd 1026 43bc
00000050: 87ea e03a 8b30 833c d4bf 47ba b5b8 9fba
00000060: 26bf f63c d0f7 9ebc 3f92 7d3d 8240 efbc
00000070: 3fd5 9ebd 8007 813c e0f9 d6bc f40e b23c
00000080: 1373 2e3c aa61 5c3d 3d4c 723c a5cc 58bd
00000090: e919 053d 36b1 223c 6bb2 6bbd 1549 94bd
000000a0: 43c8 683c 4059 65bd d6f4 a7bb 5ace 743d
000000b0: 6d01 92bd eb8d abbd 61b8 3e3d 82ba 513c
000000c0: b393 933b 70b0 4a3c 3436 093d aac4 a4bc
000000d0: e508 8cbd 26df 8bbd 553f b63d 607a 803d
000000e0: 7e86 98bc 2e58 7dbd 1eff cf3c 9fb7 35bc
000000f0: ad28 ca3b 9177 9a3b 2ff9 d6bd 7fc0 a53c
00000100: be9e 8b3c 6cf5 773c f429 fc3c 32f5 8f3d
00000110: 32d7 9dbb 006c a1bd fd56 8e3d c9ad 15bd
00000120: 90c3 75bc cd32 9abd 2461 13bd c897 8c3d
00000130: 7dfe 0e3d 7074 53bd b5ac 683d 5a82 34bd
00000140: d850 02bd 65c8 c7bd 0b6d e0bc f450 3ebd
00000150: c704 98bd 33ee 1cbd 65cd 4a3c d645 3dbc
00000160: 4c02 69bd 64e4 203d c540 903d 1b96 223d
00000170: f8ac 6b3d 19d7 4cbc 656f 4fbd a3a0 94bd
00000180: 57e1 923c 5e99 123d fb30 b43d 7d87 98bc
00000190: dc62 edbc b381 07bc 4790 c9bd e549 d93b
000001a0: 7098 9d3d d0c4 b23d 64c5 33bd 3a05 c03c
000001b0: 9cf2 bebb db63 91bd 5e4f eabb c3ce 1c3d
000001c0: f83c 7ebc 2b5a 82bd 0b23 4c3d ebf5 febb
000001d0: 654e 4ebd e920 c3bd caf8 80bc 0819 c4bd
000001e0: a6d1 b43d 6628 5d3b 758d b4bd b180 933d
000001f0: 7783 1e3d f41d ce3d 7728 b5bd 3756 87bd
