models/checkpoint500.pth.tar (torch_old, 355795 bytes, 16 tensors)

0.weight f4 [32, 26]
0	0xbd2345d8	-0.03986153
1	0x3d78eed5	0.060774643
2	0x3c8a4afc	0.016881458
3	0x3e4285bf	0.18996333
4	0x3cbcafe0	0.023033082
5	0x3ddb0a39	0.10695309
6	0x3e43fa1c	0.19138378
7	0x3e782c99	0.24235763
8	0x3c4a65db	0.012353386
9	0x3e6780c0	0.22607708
10	0x3e04945f	0.12947224
11	0x3cb88a25	0.02252681
12	0xbce5c434	-0.028047659
13	0x3d1d8b36	0.03846284
14	0xbd0f5a69	-0.03499833
15	0x3e257fbb	0.16162007
16	0xbe05a33f	-0.13050555
17	0x3e4c48e4	0.1994968
18	0xbdb15567	-0.08658867
19	0x3e8e40a7	0.277837
20	0xbe29602e	-0.16540596
21	0xbe344891	-0.17605807
22	0x3daead48	0.085291445
23	0x3dd4b2fc	0.10385701
24	0x3dbf1914	0.09330955
25	0x3e20896d	0.15677424
26	0xbdbc2588	-0.09186846
27	0x3e27f899	0.16403426
28	0xbe3a56d2	-0.18197182
29	0xbd72016d	-0.05908339
30	0xbe291002	-0.16510013
31	0xbe0d4b97	-0.13798366
32	0xbda109ba	-0.07863183
33	0xbe39c732	-0.18142393
34	0xbbddae7f	-0.0067651863
35	0x3e26c796	0.16287073
36	0x3d52bbaf	0.05144852
37	0xbddcdd0b	-0.10784348
38	0x3dec7b51	0.11546958
39	0x3de02501	0.10944558
40	0x3e0faced	0.1403081
41	0x3e6388e1	0.22220184
42	0x3e82e23c	0.25563228
43	0x3ccee489	0.025255458
44	0x3dc9bafc	0.098501176
45	0x3dfc71e6	0.12326412
46	0x3d4d7d18	0.050168127
47	0x3dc94629	0.09827835
48	0x3b70098c	0.0036626784
49	0xbd62dc93	-0.055386137
50	0x3e30552f	0.17219995
51	0xbe2cd31e	-0.1687741
52	0x3c9880fc	0.018616192
53	0xbc4e6d9b	-0.012599374
54	0xbe2535be	-0.16133782
55	0xbe6411b5	-0.2227238
56	0x3de1b588	0.110209525
57	0x3e46cb36	0.19413456
58	0x3e4b4946	0.1985217
59	0xbdfe8851	-0.12428344
60	0xbb8d3c96	-0.004310201
61	0xbde9cf86	-0.11416535
62	0x3e34ece5	0.17668493
63	0x3e0f86a4	0.14016205
64	0xbd9f16c1	-0.07768012
65	0x3da6c0f2	0.0814227
66	0x3e2c364f	0.16817592
67	0xbd9c950d	-0.07645617
68	0xbe2b515f	-0.1673026
69	0x3df10524	0.117685586
70	0x3c90e7f7	0.017688734
71	0x3e35cbda	0.17753544
72	0x3de9f33e	0.11423348
73	0xbd8cb59b	-0.06870576
74	0xbe15549c	-0.14583057
75	0xbddb98e3	-0.1072252
76	0x3dc4e65e	0.096142516
77	0xbe04bf53	-0.1296361
78	0x3e1cfd25	0.15330942
79	0x3d9466d6	0.07246177
80	0x3adc44dc	0.001680519
81	0x3df766ab	0.12080129
82	0xbd8da250	-0.06915724
83	0xbda5b237	-0.080906324
84	0xbe233c3f	-0.15940951
85	0x3e6172a4	0.22016388
86	0x3e201124	0.15631539
87	0xbc57eee8	-0.013179518
88	0xbca9d739	-0.020732509
89	0xbbb513c9	-0.00552604
90	0xbe357aeb	-0.1772267
91	0x3d6129be	0.05497145
92	0xbe2ff4d5	-0.1718324
93	0x3d7c7aa6	0.061640404
94	0xbda07088	-0.07833964
95	0xbdf9c90c	-0.1219655
96	0x3c9e1bfe	0.019300457
97	0x3e0148fa	0.12625495
98	0x3e6c65e4	0.23085743
99	0x3d5dc385	0.05414154
100	0xbcefcc36	-0.02927218
101	0x3e031395	0.12800439
102	0xbd774c5c	-0.060375556
103	0xbd549928	-0.051903874
104	0x3e4dc240	0.20093632
105	0xbb3d9372	-0.0028926996
106	0x3e42fe4e	0.19042322
107	0x3d032ac5	0.03202321
108	0x3d9a8323	0.075445436
109	0x3d5b601d	0.053558458
110	0x3d8675a4	0.06565407
111	0x3d8d5b66	0.069021985
112	0xbd745761	-0.059653644
113	0xbe5c462d	-0.21511145
114	0x3cd57702	0.026057724
115	0x3d2e2641	0.04251695
116	0xbd2f6a9a	-0.042826273
117	0xbcecfc6e	-0.028928962
118	0x3e2d9971	0.16953065
119	0xbe20e330	-0.15711665
120	0x3e71cc3e	0.23613068
121	0xbe38b974	-0.18039495
122	0xbdaba4b7	-0.08381026
123	0xbe42acb7	-0.19011198
124	0xbc1b4d09	-0.009478816
125	0xbd3b97e9	-0.04579917
126	0xbba7d28f	-0.005121536
127	0xbd75e0c4	-0.060028806
128	0x3df4942f	0.11942326
129	0x3dc259c8	0.09489781
130	0x3e08388e	0.13302824
131	0xbe0f6813	-0.14004545
132	0x3e484a40	0.19559574
133	0xbe64d897	-0.22348247
134	0x3c14987b	0.009069557
135	0x3d8fb555	0.07017008
136	0x3d403571	0.046925966
137	0xbd0a7762	-0.03380526
138	0xbd81473a	-0.063124135
139	0x3cb8142d	0.022470558
140	0x3e829e72	0.2551151
141	0xbdd30ffd	-0.10305784
142	0x3e24c801	0.1609192
143	0x3e119386	0.14216432
144	0xbd263337	-0.040576186
145	0x3caf090c	0.021366619
146	0xbda2cb7a	-0.07948966
147	0x3e8bdd77	0.27317402
148	0x3e39b9c9	0.18137278
149	0x3ca72d59	0.020407366
150	0x3dfc5033	0.12319984
151	0xbd69bd7c	-0.057065472
152	0xbe0b6570	-0.13612914
153	0x3c48c4d9	0.012253963
154	0xbdf7ac06	-0.12093358
155	0x3e16a2e3	0.14710574
156	0xbd9e6640	-0.077343464
157	0xbaa5ddbf	-0.0012654586
158	0xbd32ea7f	-0.043680664
159	0x3cd4629f	0.025925932
160	0x3e4dc810	0.20095849
161	0x3e17562a	0.14778963
162	0xbd4c6e40	-0.04990983
163	0xbe0eda54	-0.13950473
164	0x3d9963ce	0.07489739
165	0x3da144bd	0.07874439
166	0x3c976316	0.018479865
167	0x3e14aac0	0.14518261
168	0xbe0332c7	-0.12812339
169	0x3e70fd29	0.23534073
170	0x3e69b84f	0.22824214
171	0xbdb054cc	-0.08609924
172	0xbc0df538	-0.008664422
173	0xbdce4cd7	-0.1007325
174	0xbd4c8eff	-0.04994106
175	0x3d97c533	0.0741066
176	0x3d0dd614	0.03462799
177	0x3dee29d2	0.1162907
178	0x3e4f57db	0.20248358
179	0xbdc3e92d	-0.09565959
180	0xbe43355f	-0.19063328
181	0xbccdf999	-0.025143431
182	0x3dc23f81	0.09484769
183	0x3d2bfad5	0.04198726
184	0x3de1036c	0.10986981
185	0x3ddedf78	0.10882467
186	0x3e09732a	0.13422838
187	0x3d55d97b	0.05220936
188	0xbe108f2f	-0.1411712
189	0xbe181498	-0.14851606
190	0xba3c136e	-0.0007174526
191	0x3e37e35e	0.17957827
192	0x3e3788e0	0.17923307
193	0xbe1e7b6c	-0.15476769
194	0xbe1bd4ca	-0.15217891
195	0xbd418c9e	-0.047253244
196	0xbe25d7be	-0.1619558
197	0xbb66b147	-0.003520088
198	0x3e4adf22	0.19811681
199	0x3d049e8a	0.032377757
200	0x3c26738d	0.010159385
201	0x3e4bcdc2	0.19902709
202	0xbd9d3aa1	-0.07677198
203	0x3e0d1831	0.1377876
204	0xbd530449	-0.05151776
205	0xbe0f558d	-0.13997479
206	0xbe04ecf6	-0.12981018
207	0x3e158222	0.14600423
208	0xbdea4356	-0.114386246
209	0xbd8f7a92	-0.070058
210	0x3ccb0dca	0.024786849
211	0x3d8e69a1	0.06953741
212	0x3e275252	0.16339996
213	0xbde87a4e	-0.11351453
214	0xbe289fc0	-0.1646719
215	0xbddefdc4	-0.10888246
216	0xbe33374e	-0.17501566
217	0x3cfa866d	0.030581677
218	0x3d42dcdc	0.04757391
219	0xbd1ba171	-0.03799576
220	0x3c88aef6	0.01668499
221	0xbda6c01e	-0.08142112
222	0x3e07c258	0.1325773
223	0xbdb6da11	-0.089283116
224	0x3d6d2adb	0.0579022
225	0x3e1d20fb	0.15344612
226	0x3e3105a7	0.17287312
227	0x3d1c1a4d	0.03811102
228	0xbdf9e8a0	-0.12202573
229	0x3e06f2ad	0.13178511
230	0x3e5c16c0	0.21493053
231	0x3de71da1	0.11284948
232	0x3e589d72	0.2115381
233	0xbd24c1a6	-0.04022374
234	0xbe3db557	-0.18526207
235	0xbe342e04	-0.17595679
236	0xbda96334	-0.082708746
237	0xbdcf2044	-0.10113576
238	0x3e0d88da	0.13821736
239	0xbd43baeb	-0.04778568
240	0xbda3d4a4	-0.07999542
241	0xbd9fda87	-0.07805353
242	0x3cc29100	0.023750782
243	0x3cddbad6	0.02706663
244	0xbde90950	-0.11378729
245	0x3e0615a5	0.13094194
246	0x3d4acb9d	0.049510587
247	0x3dc72b43	0.097250484
248	0xbdd6f56a	-0.10496028
249	0x3e162836	0.14663777
250	0x3df5ee6c	0.12008366
251	0x3d572961	0.052529696
252	0x3e35b6c4	0.17745501
253	0x3d09cda6	0.033643387
254	0xbda628d2	-0.081132546
255	0x3d9b38b5	0.075791754

0.bias f4 [32]
0	0xbc1c35e0	-0.009534329
1	0x3d810e1e	0.06301521
2	0x3e1f0d69	0.1553246
3	0x3db9b0f4	0.09066954
4	0x3dbe07b4	0.09278813
5	0x3deeb0ba	0.11654802
6	0x3dacaa07	0.08430868
7	0xbdfe8488	-0.12427622
8	0xbe3fdd5d	-0.18736787
9	0xbdbb0f43	-0.0913377
10	0xbe6c2bf9	-0.23063649
11	0x3e30ffb2	0.1728504
12	0x3d2090d8	0.039200634
13	0xbd5af04b	-0.053451817
14	0xbdc2d58d	-0.09513388
15	0xbe2c7ed2	-0.16845253
16	0x3e4fac6b	0.20280616
17	0x3e41ebdf	0.18937634
18	0x3e0410be	0.12897012
19	0xbcef80ba	-0.029236186
20	0x3dda229e	0.10651134
21	0x3def777e	0.11692713
22	0x3e6108f4	0.21976072
23	0xbd6418b6	-0.05568763
24	0x3e160274	0.14649373
25	0x3c90888a	0.017643232
26	0x3e319734	0.17342836
27	0xbc9b349b	-0.018945983
28	0xbde1c918	-0.11024684
29	0xbca43c36	-0.020048242
30	0x3dda44bc	0.10657641
31	0x3d931a4f	0.07182752

2.weight f4 [64, 32]
0	0x3e3147b1	0.17312504
1	0x3e189f44	0.14904505
2	0xbe23b65d	-0.15987535
3	0xbdcc46ff	-0.09974479
4	0x3c94eb12	0.018178497
5	0xbdede178	-0.116152704
6	0xbd285932	-0.04110069
7	0xbd71664f	-0.05893546
8	0xbcd7cb36	-0.026342016
9	0x3dbdd784	0.09269622
10	0xbd8a3361	-0.06748081
11	0xbdc75ab5	-0.09734098
12	0xbc998ec9	-0.018744843
13	0xbe15826b	-0.14600532
14	0x3e15f4d1	0.14644171
15	0xbe0bfbcf	-0.13670276
16	0x3d856b49	0.06514604
17	0xbb920ce7	-0.0044571045
18	0x3d4f4645	0.050604124
19	0x3cfff1d1	0.031243237
20	0xbd500bfa	-0.05079267
21	0x3dbe88dc	0.093034476
22	0xbdfd62e1	-0.12372375
23	0x3d6b10e5	0.05738916
24	0xbd1bfaa4	-0.038080826
25	0x3d018b44	0.031626955
26	0x3cc0fcc4	0.023558028
27	0x3d1182f8	0.035525292
28	0x3d38b88f	0.045097884
29	0xbadaa91e	-0.0016682481
30	0x3e1bdda6	0.15221271
31	0x3dc6eede	0.09713529
32	0x3def9e47	0.11700111
33	0xbbf313ec	-0.0074181464
34	0xbdd7cc1c	-0.10536978
35	0x3e5b02f0	0.2138784
36	0x3dc82291	0.09772218
37	0xbd4bd318	-0.04976186
38	0xbdf66e6d	-0.12032781
39	0x3e07acbf	0.13249491
40	0x3c61d231	0.013783024
41	0xbdb809d6	-0.08986251
42	0xbd9d47b1	-0.0767969
43	0xbdfe92e4	-0.12430361
44	0xbe56df64	-0.20983654
45	0x3e1469da	0.14493504
46	0x3e4d20b4	0.20032007
47	0x3dc95ba5	0.09831933
48	0x3d0df828	0.03466049
49	0xbc46d679	-0.012136095
50	0xbd276ae0	-0.04087341
51	0x3e244c1c	0.16044658
52	0x3deb3877	0.11485379
53	0x3be930ef	0.007116429
54	0x3dac4960	0.08412433
55	0x3c517945	0.012785261
56	0x3d6fa5d3	0.05850775
57	0xbd85517e	-0.06509684
58	0x3d73f3cb	0.05955867
59	0xbdbf6222	-0.09344889
60	0xbcc52ec9	-0.02407016
61	0x3de9da81	0.114186294
62	0x3e294789	0.16531195
63	0xbde599bd	-0.11210964
64	0xbc25b3ce	-0.01011367
65	0x3d0d9a2b	0.034570854
66	0xbe352ea4	-0.17693573
67	0x3e51507d	0.2044086
68	0x3e006720	0.12539339
69	0x3cae2b55	0.021260897
70	0x3da12787	0.07868867
71	0x3e543da8	0.20726645
72	0xbd46944a	-0.048481263
73	0xbdcbad9e	-0.09945224
74	0xbdf14e47	-0.11782508
75	0xbd7a02af	-0.061037716
76	0xbd33e769	-0.04392186
77	0x3e1194e3	0.14216952
78	0x3be6f136	0.0070477976
79	0xbc0c349c	-0.008557465
80	0xbdc6cabd	-0.09706638
81	0xbdefe41a	-0.11713429
82	0xbda176a0	-0.07883954
83	0x3dc1d9a9	0.094653435
84	0xbd79a6c5	-0.06095006
85	0xbdf7b46c	-0.120949596
86	0xbd8ab4a6	-0.06772737
87	0x3e0550f0	0.13019156
88	0xbd19e8de	-0.037575595
89	0xbe083373	-0.13300876
90	0x3df17aee	0.11791025
91	0x3dc6c37c	0.097052544
92	0xbcc1bce8	-0.023649648
93	0xbd8ce071	-0.06878746
94	0xbe5b6816	-0.21426424
95	0x3ca79a3e	0.02045929
96	0x3c7b0e26	0.0153231975
97	0xbd55483c	-0.05207084
98	0x3c361ceb	0.011115293
99	0x3d9a8172	0.07544221
100	0xbe162711	-0.1466334
101	0x3e2d0c10	0.16899133
102	0x3c7a7f7d	0.015289185
103	0xbdecbd04	-0.11559489
104	0x3e149255	0.14508946
105	0xbda89cf0	-0.082330585
106	0xbe0c43a0	-0.13697672
107	0x3ccc9403	0.024972921
108	0x3d7ed42c	0.06221406
109	0xbd5f3447	-0.054493215
110	0x3dc72090	0.09723008
111	0xbdc89010	-0.09793103
112	0xbcecdaa5	-0.028912852
113	0x3e10e38d	0.14149304
114	0x3e534714	0.20632583
115	0xbd934f3f	-0.07192849
116	0xbcb030b4	-0.021507598
117	0xbc8ffc85	-0.017576465
118	0xbdc45130	-0.09585798
119	0xbcf4f46d	-0.029901708
120	0xbe2b35c4	-0.16719729
121	0xbdf04369	-0.117316075
122	0x3e6dfd56	0.23241171
123	0xbe1bb486	-0.15205583
124	0xbdb6bd04	-0.089227706
125	0x3e0d3975	0.1379145
126	0xbdd50352	-0.10401024
127	0x3e0b8d25	0.13628061
128	0xbdc85d03	-0.097833656
129	0x3d918f10	0.07107365
130	0x3e022872	0.12710741
131	0xbc3f19ec	-0.011663895
132	0x3e2e8fd0	0.17047048
133	0x3e4fb6e2	0.20284608
134	0x3dd4a7c6	0.10383563
135	0xbe22045d	-0.15821977
136	0x3d73dd8e	0.059537463
137	0x3dcbf72e	0.09959255
138	0xbe44dc3c	-0.19224638
139	0x3e3d22a9	0.18470253
140	0xbe3a1394	-0.18171531
141	0xbd34bbba	-0.044124343
142	0xbdb3d13d	-0.087801434
143	0xbc8df297	-0.01732759
144	0x3d42f8ff	0.047600742
145	0x3df4a112	0.11944784
146	0x3e26e256	0.16297278
147	0x3e7b28ae	0.24527237
148	0x3dab0959	0.08351392
149	0x3e21356c	0.15743035
150	0xbb1d5762	-0.0024008383
151	0x3e9af5b4	0.30265582
152	0x3c2c1bec	0.010504704
153	0xbcafa70d	-0.02144196
154	0x3d6187ac	0.055061027
155	0x3dbd68a6	0.09248476
156	0xbe015c07	-0.12632762
157	0xbd6be700	-0.057593346
158	0x3bd3a11b	0.0064584143
159	0xbdec2c3d	-0.11531875
160	0x3e2abf26	0.1667448
161	0xbde1e314	-0.1102964
162	0x3df2aa39	0.11848874
163	0x3df2ecc9	0.118615694
164	0x3cfe5a2e	0.03104886
165	0x3db668ad	0.08906684
166	0xbd83f68e	-0.06443511
167	0xbd16bf28	-0.036803395
168	0xbe1fca30	-0.15604472
169	0xbe395f54	-0.18102771
170	0x3df54120	0.11975312
171	0xbe129647	-0.14315139
172	0xbdbbd383	-0.09171202
173	0x3e297b89	0.16551031
174	0x3cac9d1e	0.021071013
175	0x3e39705c	0.18109268
176	0xbe28d5a5	-0.16487749
177	0xbda16984	-0.07881454
178	0xbdff0d8f	-0.12453758
179	0x3dbe09a0	0.092791796
180	0xbe4e2557	-0.20131432
181	0xbdf628e5	-0.12019519
182	0xbc9f740c	-0.019464515
183	0xbe296459	-0.16542186
184	0xbe57e8bc	-0.21084875
185	0xbe4c36e4	-0.19942814
186	0x3da8796c	0.082262844
187	0x3d3ce064	0.046112433
188	0x3dff71f6	0.12472908
189	0x3e575cbb	0.21031468
190	0xbdff4ed6	-0.12466209
191	0xbd36c63e	-0.044622652
192	0xbbaacf13	-0.0052126735
193	0x3e488b8b	0.19584481
194	0x3de92e80	0.11385822
195	0x3db9a2a4	0.09064224
196	0x3d4a232c	0.04934995
197	0x3bfe88ae	0.0077677583
198	0x3db34c1d	0.08754752
199	0x3d01ef38	0.031722277
200	0xbd08c785	-0.0333934
201	0xbdca0066	-0.09863357
202	0x3cb6fd2f	0.022337524
203	0xbdbb7fcd	-0.091552354
204	0xbe3f755b	-0.18697111
205	0xbddf311a	-0.10898037
206	0x3d0bdaac	0.03414409
207	0xbe253578	-0.16133678
208	0xbe94b42f	-0.2904372
209	0xbbaf9b6f	-0.0053591053
210	0xbe106f04	-0.14104849
211	0xbda33be6	-0.07970409
212	0x3d2161c8	0.039399892
213	0x3ded4dc2	0.11587097
214	0x3cda883f	0.026676295
215	0xbce1d4dd	-0.027567321
216	0xbe885c7d	-0.26633063
217	0x3b896d72	0.004193955
218	0x3c8b4330	0.016999811
219	0x3e2f6111	0.17126872
220	0x3e3c89d6	0.18411955
221	0xbe0a6c66	-0.13517913
222	0xbdfad5d6	-0.12247817
223	0x3e1e1add	0.15439935
224	0xbc4363ab	-0.011925618
225	0xbdd2383a	-0.102646306
226	0x3d505bef	0.050868925
227	0xbd9e1e1e	-0.07720588
228	0xbd3318af	-0.043724712
229	0xbe445376	-0.19172463
230	0x3d9ee800	0.07759094
231	0xbe3c2375	-0.18372901
232	0xbd90d764	-0.070723325
233	0x3c857e0f	0.016295461
234	0xbdd15f22	-0.10223223
235	0x3e08648e	0.13319609
236	0xbe2ca118	-0.16858327
237	0xbcd61c26	-0.02613647
238	0x3d74c2c4	0.059756055
239	0xbd6484ae	-0.055790596
240	0xbda53546	-0.08066802
241	0x3d0ee8a5	0.034889836
242	0xbde04a0c	-0.10951623
243	0xbe079f85	-0.13244446
244	0xbb35059e	-0.0027621756
245	0xbcd2f11f	-0.025749741
246	0xbe06dc39	-0.13169946
247	0xbd178849	-0.036995206
248	0x3dd71920	0.10502839
249	0xbe2fcebd	-0.17168708
250	0x3e10632b	0.1410033
251	0xbcdf81d8	-0.027283594
252	0x3e0e1e2c	0.13878697
253	0xbd69d51c	-0.057088003
254	0xbd9027e9	-0.07038862
255	0xbe33fe77	-0.1757754

2.bias f4 [64]
0	0xbe2cb35e	-0.16865298
1	0x3e0d34ae	0.13789627
2	0xbd87fce7	-0.06640034
3	0x3db97b69	0.09056742
4	0xbbb57eb7	-0.005538787
5	0xbe4a8200	-0.19776154
6	0xbde0851c	-0.109628886
7	0x3dbfbecd	0.09362564
8	0xbe3ae29e	-0.1825051
9	0x3dfa049b	0.1220791
10	0x3c051d38	0.008124642
11	0xbd522ede	-0.051314227
12	0xbe0a7656	-0.13521704
13	0xbd7eb0cd	-0.06218033
14	0xbd55d508	-0.052205116
15	0x3cb5035a	0.022096325
16	0x3df19f0d	0.11797915
17	0xbe6e25a1	-0.23256542
18	0xbe3b9945	-0.18320186
19	0xbd93c9e3	-0.07216241
20	0x3cb42a7b	0.021992913
21	0xbe2cb543	-0.16866021
22	0x3e1c7ecd	0.15282746
23	0xbdd90167	-0.105959706
24	0xbe081d9e	-0.13292548
25	0x3e225e31	0.15856244
26	0x3ccac83c	0.024753682
27	0x3dd4ab25	0.10384206
28	0x3d51aa55	0.051187832
29	0x3e085391	0.13313128
30	0xbdffc92f	-0.124895446
31	0xbdd1aa7d	-0.10237596
32	0x3e6a7a6f	0.22898267
33	0xbd43a48a	-0.04776434
34	0x3d08253f	0.033238646
35	0xbe360870	-0.17776656
36	0x3d4ff788	0.050773174
37	0xbdae1921	-0.08500887
38	0xbd68d5f4	-0.056844667
39	0x3dcf9863	0.10136487
40	0x3e1a4ae0	0.15067625
41	0xbe616085	-0.22009476
42	0x3e800715	0.25005403
43	0xbe339689	-0.17537893
44	0xbdf4cb75	-0.11952869
45	0xbc594092	-0.013260024
46	0x3ce980d1	0.028503807
47	0x3e4494e6	0.19197425
48	0x3e1b49f7	0.15164934
49	0x3e2bf5f1	0.16793038
50	0xbe0113ff	-0.12605284
51	0xbc09d1b1	-0.008411811
52	0x3dffdf58	0.12493771
53	0xbdd8f5f3	-0.10593786
54	0x3d5eeda1	0.05442584
55	0x3d9c2ce3	0.07625749
56	0x3e53f827	0.20700131
57	0xbdba5c5f	-0.0909965
58	0x3d912864	0.07087782
59	0xbd2bc591	-0.04193646
60	0xbe03ed26	-0.12883434
61	0x3dba20c4	0.09088281
62	0x3dbbbcc6	0.09166865
63	0xbdb472cd	-0.08810959

4.weight f4 [128, 64]
0	0x3db4b031	0.08822668
1	0x3d57c255	0.052675564
2	0xbe1215ab	-0.14266078
3	0xbdc8b7aa	-0.09800656
4	0xbdc94a25	-0.09828595
5	0x3e190f9f	0.14947365
6	0xbdf8b4b2	-0.1214384
7	0xbcb0ca82	-0.021580938
8	0x3dbac597	0.091197185
9	0x3dda00a3	0.10644653
10	0x3ceb6314	0.028733768
11	0x3cae9c7a	0.021314848
12	0x3e127c09	0.14305128
13	0xbc1918e5	-0.009344314
14	0xbde6007e	-0.112305626
15	0xbce7e332	-0.028306577
16	0x3c9b515d	0.018959695
17	0xbc4ac211	-0.012375371
18	0x3d9032a0	0.07040906
19	0x3d3f2048	0.046661645
20	0xbd60f4a6	-0.054920815
21	0xbd87cbc7	-0.06630664
22	0xbd2a40f9	-0.04156587
23	0x3b973965	0.0046149963
24	0xbd1ab0bb	-0.0377662
25	0x3d18bce1	0.037289504
26	0xbdbd79d2	-0.09251751
27	0x3c0f5c62	0.008750053
28	0xbcdd6375	-0.027024964
29	0x3ade0c1d	0.0016940866
30	0xbd51b208	-0.051195174
31	0x3ce99891	0.028515132
32	0xbbab0c88	-0.0052199997
33	0xbddd999a	-0.10820313
34	0x3c33ec7a	0.010981673
35	0xbdc7b9a6	-0.097522065
36	0x3b477186	0.0030432655
37	0xbe2858e9	-0.16440167
38	0x3cc2ae33	0.023764705
39	0xbc8d3d79	-0.017241227
40	0x3cc873b8	0.024469241
41	0x3dd5b4a8	0.10434848
42	0xbc9128f6	-0.017719727
43	0x3d265525	0.040608544
44	0x3cf96032	0.030441377
45	0xbcb4248c	-0.021990083
46	0x3e0c2550	0.13686109
47	0xbdc0da03	-0.094165824
48	0xbd893f4d	-0.06701527
49	0x3d41e7f1	0.047340337
50	0xbde794d9	-0.11307687
51	0xbdb229a0	-0.086993456
52	0xbe0099e6	-0.12558708
53	0xbd018980	-0.03162527
54	0xbcfdf377	-0.030999882
55	0x3d266172	0.040620275
56	0xbdf9c766	-0.12196235
57	0x3e154dc7	0.14580451
58	0x3d1026a2	0.035193093
59	0xbb466434	-0.0030272128
60	0x3df6aeb4	0.12045041
61	0x3dffcca3	0.12490203
62	0xbdf6f6ae	-0.12058769
63	0x3cf59fc0	0.029983401
64	0xbdc69c22	-0.09697749
65	0xbd84cf1a	-0.06484814
66	0x3c5fddce	0.013663722
67	0x3cd26004	0.02568055
68	0xbe0ffa28	-0.14060271
69	0xbc29a1c4	-0.010353509
70	0x3d1b0f67	0.037856486
71	0xbda6695e	-0.08125566
72	0xbd3f86a2	-0.046759255
73	0x3d5380ac	0.051636383
74	0xbda93f26	-0.08263998
75	0xbd8dd37b	-0.06925102
76	0x3e0902d6	0.13379988
77	0x3d08acb6	0.033367835
78	0xbca94a08	-0.020665184
79	0x3ca60c3b	0.020269504
80	0xbd9dd81f	-0.077072375
81	0xbd177eca	-0.03698615
82	0x3de451f9	0.111484475
83	0x3e2e8e76	0.17046532
84	0xbe110d17	-0.1416515
85	0xbe189358	-0.14899957
86	0xbdeb47c2	-0.11488296
87	0x3d2c72ac	0.042101547
88	0xbdc309c8	-0.0952335
89	0x3da7f0c6	0.08200221
90	0x3db9be0b	0.09069451
91	0xbde7e204	-0.11322406
92	0x3e3ff758	0.18746698
93	0x3a4b64d5	0.00077588606
94	0x3dce722f	0.100803725
95	0x3d516306	0.051119827
96	0xbcc70482	-0.024294142
97	0x3c3f77d2	0.011686282
98	0x3e0497ac	0.12948483
99	0x3c90d869	0.017681317
100	0xbd47f03d	-0.048813093
101	0x3e8b948c	0.2726177
102	0x3de42ea1	0.11141706
103	0xbd4e3554	-0.050343826
104	0xbcbc2706	-0.022967827
105	0x3da5d550	0.08097327
106	0xba1cfd22	-0.00059886475
107	0x3ca2ba7d	0.019864315
108	0xbd784fdc	-0.060623035
109	0xbe3d1889	-0.1846639
110	0xbdabcbd5	-0.08388487
111	0x3d2b998c	0.04189448
112	0xbdece386	-0.11566834
113	0x3dec3ac2	0.11534645
114	0xbda95a62	-0.08269192
115	0x3ddf713b	0.10910269
116	0xbdd9bd10	-0.10631764
117	0xbcb47234	-0.022027113
118	0x3de6dba4	0.11272362
119	0xbdca0f99	-0.09866256
120	0xb8a62c30	-7.9237274e-05
121	0x3ddbb580	0.10727978
122	0xbde97809	-0.11399848
123	0xbdfa9380	-0.12235165
124	0x3ba68352	0.0050815726
125	0x3d3d1046	0.046158098
126	0xbda0f3a0	-0.07858968
127	0xbcc454a0	-0.023966134
128	0xbd18c51f	-0.037297364
129	0xbd20f21c	-0.039293393
130	0xbbc1976c	-0.0059079435
131	0x3dec3dbb	0.11535212
132	0xbddf22cc	-0.10895309
133	0xbdafdf3d	-0.08587501
134	0x3cfbdc86	0.030744802
135	0xbdb2e5cf	-0.08735239
136	0x3d852a30	0.06502187
137	0x3d2e3789	0.04253343
138	0xbda25650	-0.07926619
139	0xbd44eebe	-0.048079245
140	0xbdaea2fb	-0.0852718
141	0x3db3ad5d	0.08773301
142	0xbdd6033e	-0.10449837
143	0xbd4e0216	-0.050294958
144	0xbb01f083	-0.0019827194
145	0xbe2842aa	-0.1643168
146	0xbdd39d8c	-0.10332784
147	0x3c64ace7	0.013957239
148	0xbd274e6a	-0.040846266
149	0xbd99368f	-0.07481109
150	0x3dfd2714	0.12360969
151	0x3dae4895	0.08509938
152	0x3db72e01	0.089443214
153	0x3e2c9fc4	0.16857821
154	0x3d79d539	0.06099436
155	0xbd914ad6	-0.07094352
156	0x3d8e07d5	0.069350876
157	0x3d7e707e	0.062119
158	0xbd32f2a6	-0.04368844
159	0x3d04b6ea	0.032401003
160	0x3e277660	0.1635375
161	0xbdc0d732	-0.09416045
162	0xbdc5b483	-0.096535705
163	0x3d92c1ef	0.07165896
164	0x3d1afe60	0.037840247
165	0xbd741ed5	-0.059599716
166	0x3d42b347	0.047534253
167	0x3e11af5f	0.14227055
168	0x3cf684a8	0.030092552
169	0x3dd5db49	0.10442216
170	0x3db3fbda	0.08788271
171	0xbd999efa	-0.075010255
172	0xbd2553c0	-0.040363073
173	0xbc9b2be8	-0.018941835
174	0xbcfc1985	-0.030773887
175	0x3e278c19	0.16362037
176	0x3ccca7fa	0.024982441
177	0x3deec2bc	0.116582364
178	0x3da3f3b1	0.08005465
179	0x3e142f96	0.14471278
180	0x3bf86a07	0.007580999
181	0x3d679862	0.056541808
182	0xbd2b1fa9	-0.04177824
183	0x3d6c9d62	0.05776728
184	0xbcd8b0f9	-0.026451575
185	0xbdeecb7d	-0.11659906
186	0xbdb469be	-0.08809231
187	0x3e038a27	0.1284567
188	0xbd4279e3	-0.04747952
189	0xbda9e59b	-0.08295747
190	0xbc50b178	-0.012737624
191	0x3d8d0a9a	0.06886788
192	0xbd3d9a08	-0.046289474
193	0x3e155c50	0.14585996
194	0x3e3b948c	0.18318385
195	0x3d5149a5	0.051095624
196	0xbdec8a5f	-0.1154983
197	0xbd92f00c	-0.071746916
198	0x3d91acd0	0.071130395
199	0xbdc5cb38	-0.096579015
200	0x3b0fbe37	0.0021933445
201	0xbd39131e	-0.045184247
202	0x3dc632d2	0.09677662
203	0x3ce20fb5	0.02759538
204	0x3df4a490	0.1194545
205	0x3b36bccd	0.002788353
206	0xbdddf5a1	-0.108378656
207	0xbdcc870d	-0.099866964
208	0x3d03cf8a	0.032180347
209	0x3dae26b2	0.08503474
210	0xbd915d11	-0.07097829
211	0x3b7b889e	0.003838099
212	0x3db93d5d	0.09044907
213	0x3dfc9b05	0.12334255
214	0x3cbdbc1c	0.023160987
215	0x3e2277f5	0.15866072
216	0x3da23c30	0.07921636
217	0x3dfea898	0.124345005
218	0x3db756a2	0.08952071
219	0xbe16f2d6	-0.14741072
220	0x3d98b668	0.07456666
221	0xbcabdd11	-0.020979436
222	0x3cc330ac	0.02382692
223	0xbe019afd	-0.1265678
224	0x3e13466c	0.14382333
225	0x3c24bd0e	0.01005484
226	0xbdd8c3b3	-0.10584202
227	0xbd17de72	-0.037077375
228	0x3dc2ad8c	0.09505758
229	0xbe1a9510	-0.15095925
230	0x3ccdf98a	0.025143404
231	0x3dba7ee2	0.09106232
232	0x3bf09073	0.0073414384
233	0x3d160c7b	0.036632996
234	0xbdc385af	-0.095469825
235	0x3dbc6244	0.0919843
236	0xbcd2b3ba	-0.025720466
237	0xbe36a07b	-0.17834656
238	0x3da37cb4	0.079827696
239	0xbdcbeae2	-0.0995691
240	0xbd593a60	-0.053034186
241	0x3d2d0d00	0.042248726
242	0xbdcce534	-0.100046545
243	0xbbb2e284	-0.0054591317
244	0x3e066f93	0.131285
245	0x3df8bb0d	0.12145052
246	0xbcc249e6	-0.023716878
247	0xbdbef33f	-0.09323739
248	0x3dc226a3	0.094800256
249	0x3e1e0946	0.15433225
250	0x3dc262ec	0.09491524
251	0x3ded8146	0.115969226
252	0x3d9d6a1a	0.07686253
253	0xbe0b2fb8	-0.13592422
254	0x3ca1cf90	0.019752294
255	0x3d1e766c	0.038687155

4.bias f4 [128]
0	0xbd381c38	-0.044948786
1	0x3d772e95	0.06034716
2	0x3de30d48	0.110865176
3	0xbd9e25dd	-0.077220656
4	0xbcd6abe1	-0.026205005
5	0x3dd0116e	0.101595744
6	0x3d9a04e7	0.07520466
7	0xbdc2e889	-0.09517009
8	0x3d5675c9	0.052358422
9	0x3caedc6d	0.021345342
10	0xbdd87c38	-0.10570568
11	0x3cae7556	0.021296185
12	0xbd526771	-0.05136818
13	0x3d794070	0.060852468
14	0xbcb9f8c9	-0.022701638
15	0xbb88fbfe	-0.0041804304
16	0xbd84fde6	-0.0649374
17	0xbddfc565	-0.10926322
18	0xbc151dd1	-0.009101347
19	0xbcbf3708	-0.02334167
20	0xbcb4a1f2	-0.022049878
21	0xbcfdf788	-0.031001821
22	0xbd9e56e9	-0.077314205
23	0x3baf2f90	0.005346246
24	0x3d4e16d9	0.050314758
25	0xbe0e2f83	-0.13885312
26	0x3d9f09b9	0.07765526
27	0xbdee9c75	-0.116509356
28	0x3dcc3277	0.09970563
29	0x3b80c9ca	0.003930305
30	0xbc313ed0	-0.010818198
31	0xbd06e41e	-0.032932393
32	0xbdc11a05	-0.09428791
33	0x3d98b9c4	0.07457307
34	0xbde1d62a	-0.11027177
35	0x3de8e731	0.11372221
36	0xbe08a791	-0.13345172
37	0x3d9de633	0.07709923
38	0xbdea36ef	-0.11436259
39	0xbc33378a	-0.0109385345
40	0xbcbb3226	-0.022851061
41	0x3d9b1bea	0.075736836
42	0xbd805b14	-0.06267372
43	0xbdb32464	-0.08747175
44	0x3d228404	0.03967668
45	0xbc092e34	-0.008372832
46	0x3e437120	0.19086123
47	0xbcbae0a6	-0.022812199
48	0xbdf59a8d	-0.11992369
49	0x3d963095	0.07333485
50	0x3da30da0	0.07961583
51	0xbcaab937	-0.02084027
52	0x3df5629b	0.11981698
53	0x3d87f3d6	0.06638305
54	0xbe20f3ea	-0.15718046
55	0xba837f2f	-0.001003241
56	0x3d477842	0.04869867
57	0x3db4a83e	0.08821152
58	0x3d7217ed	0.05910485
59	0xbc5a2527	-0.013314522
60	0xbd1c7ec9	-0.03820685
61	0x3deca8fa	0.11555667
62	0x3b268896	0.0025411001
63	0xbdfc7721	-0.123274095
64	0x3e1c5a3a	0.15268794
65	0xbe058dd7	-0.13042389
66	0xbd495b0e	-0.049159102
67	0xbd955d68	-0.072932065
68	0x3dd50477	0.10401242
69	0xbdc2c098	-0.095093906
70	0x3e0513ac	0.12995785
71	0x3dabf04f	0.083954446
72	0x3d8de1e9	0.069278546
73	0xbe294e92	-0.16533878
74	0xbd238608	-0.039922744
75	0xbd991ea6	-0.07476549
76	0x3d274aa8	0.040842682
77	0x3d8ba29e	0.06818126
78	0xbd071b04	-0.03298475
79	0xbd398971	-0.04529709
80	0x3d9129ad	0.07088027
81	0xbca9a9c9	-0.020710843
82	0x3d5ea033	0.054351997
83	0xbddd6ae7	-0.10811406
84	0xbcb48220	-0.022034705
85	0xbdbd82ba	-0.0925345
86	0xbdc32af7	-0.09529679
87	0xbc6b2daf	-0.014354154
88	0xbdbb4db4	-0.0914568
89	0xbd56ea42	-0.0524695
90	0xbdf2eb4a	-0.11861284
91	0xbd2c1154	-0.042008713
92	0x3ddde387	0.10834413
93	0xbd886cf5	-0.06661407
94	0x3de924f1	0.11383999
95	0xbe15365d	-0.14571519
96	0xbdd2bf17	-0.10290354
97	0xbe01045f	-0.12599324
98	0xbcab0f1b	-0.020881226
99	0xbdd5057b	-0.10401436
100	0xbc8eefb5	-0.017448286
101	0x3cc2f3de	0.023797926
102	0x3d78d3de	0.060748927
103	0xbd5cffcd	-0.053954888
104	0xbdd1a6a5	-0.10236863
105	0x3de460e6	0.111512944
106	0xbd669ed8	-0.05630383
107	0xbd08fa58	-0.03344187
108	0xbd8cef31	-0.0688156
109	0xbd3ed288	-0.046587497
110	0xbd3389fd	-0.043832768
111	0x3dced32a	0.1009887
112	0xbd2c0263	-0.041994464
113	0x3dd30c49	0.103050776
114	0xbdaea2f0	-0.085271716
115	0x3d6fc607	0.058538463
116	0x3d2cda3c	0.042200312
117	0xbd38ad0e	-0.045086913
118	0xbdac7c3f	-0.084221356
119	0x3d28b12e	0.041184597
120	0x3d392c5a	0.045208313
121	0x3d8c898b	0.06862172
122	0x3d102cf7	0.03519913
123	0xbd90e0a5	-0.070740975
124	0x3d69f811	0.05712134
125	0xbdd6708e	-0.10470687
126	0x3c500c73	0.012698281
127	0x3de6697f	0.112505905

6.weight f4 [256, 128]
0	0x3d610100	0.054932594
1	0xbdb30dcd	-0.08742867
2	0xbcd3c589	-0.025851028
3	0xbd74f20b	-0.059801143
4	0xbd4ff0ca	-0.050766744
5	0x3d1602c9	0.03662375
6	0x3dcc8fa3	0.09988334
7	0x3d69db0a	0.057093658
8	0x3c07bb72	0.008284437
9	0x3d80ecae	0.06295143
10	0x3c564e40	0.01308018
11	0xbd31073e	-0.043219797
12	0xbd87be46	-0.06628089
13	0xbd77bfec	-0.060485765
14	0xbd11f373	-0.035632562
15	0x3d2eae9d	0.042646993
16	0xbdbe0735	-0.092787184
17	0x3dff1881	0.124558456
18	0xbd120f29	-0.03565899
19	0x3d903d52	0.07042946
20	0x3d8cd423	0.06876399
21	0x3d5f3f71	0.05450386
22	0x3de00346	0.10938124
23	0x3ccf7b07	0.025327219
24	0x3d0efc45	0.03490855
25	0xbd1e8c8c	-0.038708255
26	0x3d8ce8c1	0.06880332
27	0x3d2c6296	0.042086206
28	0x3d09f249	0.033678327
29	0x3d907d4b	0.07055148
30	0x3d405354	0.046954468
31	0x3d2d8fb9	0.042373393
32	0xbd6f7cc8	-0.05846861
33	0xbd3031e2	-0.043016322
34	0x3d8ed82e	0.06974827
35	0x3ce10546	0.027468335
36	0x3d3f3a5d	0.04668652
37	0xbbdefbbe	-0.0068049124
38	0xbcbd5ee9	-0.023116546
39	0x3de748cd	0.112931825
40	0x3d19908b	0.037491363
41	0xbdc6d179	-0.097079225
42	0xbd60f7a9	-0.054923687
43	0x3de79f50	0.11309683
44	0x3d074e12	0.033033438
45	0xbde2b1b0	-0.110690475
46	0x3b98df22	0.0046652714
47	0xbc3717a5	-0.011175071
48	0xbc96a48f	-0.018389015
49	0xbdd5bc08	-0.10436255
50	0xbd7c848b	-0.06164984
51	0x3af7d91f	0.0018909312
52	0xbd2896a7	-0.0411593
53	0x3d8bc054	0.06823793
54	0x3dda78c2	0.10667564
55	0x3ce7267e	0.028216597
56	0x3c05642f	0.008141561
57	0x3d8a4fe6	0.06753521
58	0xbdcab5f1	-0.09897984
59	0x3c4e3291	0.012585298
60	0xbd2ab143	-0.041672956
61	0xbd855b60	-0.06511569
62	0x3de7ee9d	0.11324809
63	0x3e10b4c5	0.14131458
64	0xbdcdb623	-0.100445054
65	0x3de3f71b	0.11131116
66	0xbd26cf9f	-0.040725347
67	0x3e078142	0.13232902
68	0xbd3478ba	-0.044060446
69	0x3d90f459	0.070778556
70	0xbd28757a	-0.04112766
71	0x3cb7b882	0.022426847
72	0x3dbfdaa2	0.09367873
73	0x3d9c6391	0.07636178
74	0xbdc5fceb	-0.09667381
75	0x3e06fe82	0.13183025
76	0xbd46cb57	-0.048533764
77	0xbc5c000a	-0.013427744
78	0x3d883602	0.06650926
79	0xbdb20a45	-0.08693365
80	0xbda31fe2	-0.079650655
81	0x3db4c0a6	0.08825807
82	0xbc97af98	-0.018516347
83	0x3c97c73b	0.018527618
84	0xbd4d868c	-0.050177142
85	0x3c658ecd	0.014011097
86	0x3c88c2e7	0.0166945
87	0x3d649677	0.055807557
88	0x3dae6dee	0.08517061
89	0xba3c15e2	-0.00071748917
90	0x3d4d9d8d	0.05019908
91	0x3d6d212e	0.05789297
92	0xbc627ae6	-0.013823247
93	0xbd1fe430	-0.039035976
94	0xbd23d86a	-0.04000131
95	0x3d08b44a	0.033375062
96	0x3db917fb	0.09037777
97	0x3dad989b	0.08476373
98	0x3daadd2b	0.08342966
99	0x3d34f5c5	0.044179697
100	0x3de224de	0.11042188
101	0x3de63c40	0.112419605
102	0xbd2b58c1	-0.04183269
103	0x3cc45abc	0.023969047
104	0x3de27476	0.110573694
105	0xbe07b2ea	-0.13251844
106	0x3d0ac293	0.033876967
107	0x3d556011	0.05209357
108	0x3d5da176	0.05410906
109	0x3d068bf5	0.032848317
110	0xbda7988d	-0.081833936
111	0x3db26818	0.087112606
112	0xbd35af32	-0.044356532
113	0x3bccebad	0.0062536807
114	0x3d984bdf	0.07436346
115	0xbd1ad7ee	-0.037803583
116	0xbd9ecd87	-0.07754045
117	0xbd97459b	-0.07386323
118	0xbcf03ce5	-0.029325912
119	0xbd5fb41e	-0.054615133
120	0xbde07603	-0.10960009
121	0x3b9d7230	0.004804872
122	0x3cb1437c	0.021638624
123	0x3cb56108	0.022140995
124	0xbd2613e8	-0.040546328
125	0xba5b78a9	-0.0008372167
126	0x3ce965ab	0.028490862
127	0x3da22ff5	0.07919303
128	0x3df12d5c	0.1177623
129	0x3d06aa5a	0.032877304
130	0xbdfd568b	-0.123700224
131	0xbda704c0	-0.08155203
132	0xbd389fed	-0.045074392
133	0xbd1dfe1c	-0.038572416
134	0xbb609e4f	-0.0034274047
135	0xbd203d09	-0.039120708
136	0x3d684fc4	0.056716695
137	0x3d37bccc	0.044857785
138	0x3cf28b40	0.029607415
139	0x3e1918c8	0.1495086
140	0x3b9ac028	0.004722614
141	0x3dae9b0b	0.08525666
142	0xbd7c0524	-0.06152834
143	0x3d1c7e66	0.03820648
144	0x3df0fce2	0.117669836
145	0x3d895772	0.06706132
146	0x3e17fa0a	0.14841476
147	0x3dd73ba4	0.105094224
148	0x3e0fbc42	0.14036658
149	0x3c28baad	0.010298413
150	0xbd3ea13b	-0.04654048
151	0x3db869c8	0.09004551
152	0xbc634e83	-0.013873699
153	0xbbc1c640	-0.005913526
154	0x3df98f67	0.12185555
155	0x3bd07ebc	0.006362764
156	0xbd0ae241	-0.03390718
157	0x3e269bcd	0.16270371
158	0xbc0e1571	-0.008672104
159	0x3e110517	0.14162098
160	0x3e4a26c2	0.19741347
161	0x3cca8bac	0.024724804
162	0x3e3414df	0.17586087
163	0x3e04c346	0.12965116
164	0xbc362d95	-0.011119266
165	0x3d98cf9c	0.07461473
166	0x3c8ba47f	0.017046211
167	0xbd8fc2e1	-0.07019592
168	0x3b8f5d2d	0.004375121
169	0xbcbd96ef	-0.02314326
170	0x3df9616a	0.121767834
171	0x3c065a36	0.008200219
172	0x3d825d61	0.06365467
173	0xbd59e85d	-0.053200115
174	0xbd915bc7	-0.07097583
175	0x3dd1265a	0.10212393
176	0x3d95c210	0.07312405
177	0x3d43c0bc	0.047791228
178	0x3ce08859	0.027408766
179	0x3da28888	0.079361975
180	0x3d88f84b	0.06687983
181	0x3e08e8ca	0.13370052
182	0x3d51fba8	0.05126539
183	0x3e022a31	0.12711407
184	0x3d40ede9	0.04710189
185	0x3e00c648	0.12575638
186	0x3d9eec8b	0.07759961
187	0xbb52c628	-0.0032161567
188	0x3dc6f8bb	0.0971541
189	0xbd962a16	-0.07332246
190	0x3dd09284	0.10184196
191	0x3e5632d8	0.20917833
192	0xbccaa42b	-0.024736485
193	0xbcbcdd9a	-0.023054887
194	0x3ca41b9f	0.020032702
195	0x3cd56ce5	0.026052902
196	0x3dd17da1	0.1022904
197	0x3db71daa	0.08941205
198	0xbd8c908e	-0.06863509
199	0x3d6a685e	0.05722844
200	0xbde7e02c	-0.11322054
201	0x3cc30708	0.023807064
202	0xbd24efdd	-0.040267814
203	0xbd208362	-0.039187796
204	0xbdc01676	-0.09379284
205	0xbe214a2b	-0.15750949
206	0xbd64bc2a	-0.05584351
207	0x3e438129	0.1909224
208	0x3e1289f3	0.14310436
209	0xbdf906fa	-0.12159534
210	0xbd85eed7	-0.06539696
211	0xbd642d45	-0.055707235
212	0xbd84217b	-0.064516984
213	0x3d2965e1	0.041356925
214	0xbce96099	-0.028488444
215	0x3db0413f	0.08606195
216	0x3d1cb08c	0.038254306
217	0x3d520135	0.051270682
218	0xbb6b2599	-0.0035880564
219	0xbd5b3f95	-0.053527433
220	0x3d872a69	0.06599886
221	0xbcf93b7c	-0.030423872
222	0xbd9b0cf1	-0.07570828
223	0xbd3038e0	-0.04302299
224	0xbdba8a85	-0.09108452
225	0x3d0c44f5	0.03424545
226	0x3c39117f	0.011295675
227	0x3e245fc5	0.16052158
228	0xbc06ec97	-0.008235118
229	0x3e2e524a	0.17023578
230	0xbc6f1402	-0.014592173
231	0xbbd604c1	-0.0065313284
232	0x3d6d04ba	0.057865836
233	0x3d9c5abc	0.07634494
234	0x3e00f371	0.12592866
235	0xbd408aab	-0.047007244
236	0x3e0a890a	0.13528839
237	0xbd90fc10	-0.07079327
238	0x3c24819f	0.01004067
239	0xbd37d44d	-0.0448802
240	0xbd0b741c	-0.034046277
241	0xbde8e6f5	-0.113721766
242	0x3d99a46c	0.07502064
243	0xbe84533b	-0.2584475
244	0xbd72dedf	-0.059294578
245	0x3db57df5	0.08861915
246	0xbcf4a1c8	-0.0298623
247	0xbdb29e4e	-0.087216005
248	0xbd7031aa	-0.058641113
249	0xbd6c3d08	-0.05767539
250	0xbd9b2ff3	-0.07577505
251	0x3df42673	0.11921396
252	0xbe0572c8	-0.13032067
253	0x3cba0690	0.022708207
254	0x3c90ce95	0.017676631
255	0xbd29350b	-0.04131035

6.bias f4 [256]
0	0xbcd5ef35	-0.02611504
1	0xbd9e0d25	-0.07717351
2	0xbc667a47	-0.014067239
3	0xbdc7e309	-0.097601004
4	0xbcadd048	-0.02121748
5	0x3d13806a	0.036011137
6	0xbdc11194	-0.09427181
7	0xbd99c0e8	-0.07507497
8	0x3d9f2ee2	0.07772614
9	0x3d1c2d23	0.038128983
10	0xbd153fd8	-0.03643784
11	0xbd0299f7	-0.031885114
12	0xbd75984d	-0.0599597
13	0xbcf5657c	-0.029955618
14	0xbcee5ce0	-0.02909702
15	0xbd8c322a	-0.068455055
16	0xbc34995a	-0.01102289
17	0x3da364e2	0.07978226
18	0xbc8a7230	-0.016900152
19	0xbcb2cfc0	-0.021827579
20	0xbcbca42e	-0.023027506
21	0xbd11efbd	-0.035629023
22	0xbd777cd7	-0.06042179
23	0xbbf34369	-0.0074238074
24	0xbdca1089	-0.09866435
25	0x3caaf09b	0.020866683
26	0x3c525fb7	0.012840203
27	0xbd33a281	-0.043856148
28	0xbdd0bbec	-0.10192093
29	0xbdda7b98	-0.10668105
30	0xbd92ee72	-0.07174386
31	0x3da2f056	0.07955997
32	0xbbf7bc39	-0.0075602797
33	0xbcbf8361	-0.023378076
34	0x3dbf4a49	0.09340341
35	0xbd827b84	-0.06371215
36	0xbccae1ce	-0.024765875
37	0xbdb71f04	-0.08941463
38	0x3e14de3e	0.14537904
39	0xbdc38724	-0.095472604
40	0xbd28f9c3	-0.041253816
41	0x3c9078bc	0.017635696
42	0xbc46888a	-0.012117514
43	0xbd83f92e	-0.06444012
44	0xbcb728ef	-0.022358386
45	0x3b3485a7	0.0027545483
46	0x3b49f787	0.0030817704
47	0xbd32a5c5	-0.04361512
48	0xbdcbaeb7	-0.099454336
49	0x3d91b130	0.07113874
50	0xbd8d4b7a	-0.06899162
51	0xbd633841	-0.05547357
52	0xbcd03b89	-0.025419014
53	0xbd756648	-0.059911996
54	0x3d6c3dda	0.057676174
55	0xbd96caff	-0.07362937
56	0xbd7c45b6	-0.06158992
57	0xbd9ed5c3	-0.077556156
58	0xbda5fbb3	-0.081046484
59	0x3d29efbb	0.04148839
60	0xbddca879	-0.10774321
61	0xbd95d5ac	-0.07316145
62	0x3d7bcf6d	0.061477114
63	0xbdadffec	-0.08496079
64	0x3d693e6a	0.05694429
65	0x3c852e4b	0.016257426
66	0xbdfbdda4	-0.12298134
67	0x3d5e1fb8	0.054229468
68	0xbd955db8	-0.07293266
69	0xbd623b77	-0.05523249
70	0xbc76f4cc	-0.015073013
71	0xbd9250e3	-0.07144334
72	0xbd9d958a	-0.07694538
73	0xbd9b8533	-0.07593765
74	0x3deaa154	0.11456552
75	0xbda3dace	-0.08000718
76	0xbe01f57e	-0.12691304
77	0x3d24efef	0.04026788
78	0x3caa107c	0.020759813
79	0xbd60a425	-0.05484404
80	0x3def59cf	0.116870515
81	0xbde511cc	-0.11185035
82	0x3c89d28e	0.016824033
83	0x3dca29d9	0.09871263
84	0xbcd58903	-0.026066309
85	0x3dda6e3d	0.106655575
86	0xbda09b79	-0.07842154
87	0xbd916551	-0.07099403
88	0xbdb01cba	-0.08599229
89	0xbc5b37d3	-0.013380009
90	0x3ce2638f	0.027635364
91	0xbd24fa8e	-0.04027801
92	0xbd260a74	-0.040537313
93	0xbc855f2b	-0.016280731
94	0xbd97af59	-0.07406492
95	0xbd3756f7	-0.04476067
96	0xbccab360	-0.024743736
97	0x3d1f1486	0.038837932
98	0x3cda18c3	0.026623135
99	0xbd964e07	-0.07339101
100	0xbc9fb0b7	-0.019493444
101	0xbda5a6f5	-0.08088485
102	0xbc8d0c5f	-0.017217813
103	0xbcbe4762	-0.023227397
104	0x3ca9b700	0.020717144
105	0xbbed5d03	-0.007243754
106	0x3ac704b9	0.0015183903
107	0xbd2bb2c4	-0.04191853
108	0xbdd5da5c	-0.10442039
109	0x3d07735b	0.033068996
110	0xbde136ef	-0.10996806
111	0x3d7a6efa	0.06114099
112	0xbd87224d	-0.06598339
113	0xbdd5ae3c	-0.10433623
114	0x3d466030	0.048431575
115	0xbd11f050	-0.03562957
116	0xbdd608ac	-0.10450873
117	0xbd419842	-0.047264345
118	0xbd002082	-0.031281002
119	0x3d22e0db	0.03976522
120	0x3cf8af0a	0.030356903
121	0xbdb32b0d	-0.08748446
122	0x3c8487a4	0.01617796
123	0xbd10f403	-0.035388958
124	0x3cbc484a	0.022983689
125	0x3d159dca	0.036527433
126	0xbc015e94	-0.007896084
127	0xbd7fb706	-0.062430404
128	0x3d745e18	0.059660047
129	0xbc86b614	-0.016444243
130	0xbd235a99	-0.039881323
131	0xbd30fc18	-0.043209165
132	0x3c399e74	0.011329282
133	0x3d4b8ad0	0.04969293
134	0x3d89e654	0.06733385
135	0xbb943e2b	-0.0045240126
136	0xbd7b74ee	-0.06139081
137	0x3c213fc5	0.009841864
138	0xbd34580d	-0.044029284
139	0x3dac2ee1	0.08407379
140	0xbb07d349	-0.00207253
141	0xba615c1d	-0.0008596795
142	0xbdc3627a	-0.09540267
143	0xbdbe5ac3	-0.09294655
144	0xbd763086	-0.06010487
145	0xbd7ed77d	-0.062217224
146	0xbccf35ca	-0.025294203
147	0x3d5bdc61	0.053676967
148	0xbce7860a	-0.028262157
149	0xbdbf30d3	-0.09335484
150	0x3bcb2013	0.006198892
151	0x3c4f93d0	0.012669519
152	0xbd2c0315	-0.041995127
153	0xbc8c22da	-0.017106462
154	0x3d438e98	0.04774341
155	0x3c873134	0.016502954
156	0xbdd698f9	-0.10478396
157	0x3d026cb5	0.031841952
158	0xbd8be9a7	-0.06831675
159	0xbd624f2d	-0.05525129
160	0x3d80993c	0.06279227
161	0xbc50ff50	-0.012756184
162	0x3b38b95b	0.0028186652
163	0x3c9f8a29	0.01947506
164	0x3d996110	0.07489216
165	0x3d129fae	0.035796814
166	0x3c9b0d73	0.018927312
167	0xbda3e388	-0.080023825
168	0x3dacd4fe	0.084390625
169	0x3d41dcfd	0.04732989
170	0xbd917c3a	-0.071037725
171	0xbdccbd62	-0.099970594
172	0xbd967951	-0.07347358
173	0xbbf9cfcf	-0.0076236497
174	0x3c990b37	0.018682105
175	0x3c5e0ba3	0.013552579
176	0xbdc7791c	-0.09739897
177	0x3c60d77e	0.013723252
178	0x39c0ac6a	0.00036749552
179	0xbc2cd0d5	-0.010547836
180	0x3d3aabd4	0.045574024
181	0x3d1ef841	0.038810972
182	0xbd7d6fdd	-0.06187426
183	0x3d3d1141	0.046159033
184	0x3d7581f3	0.059938382
185	0xbd942616	-0.07233827
186	0x3d23730c	0.03990464
187	0xbc961745	-0.018321643
188	0x3d1e3377	0.0386233
189	0x3e00115c	0.12506622
190	0xbd4e9736	-0.050437175
191	0xbd85b28d	-0.065281965
192	0x3cc1234e	0.023576405
193	0xbe01e190	-0.12683702
194	0xbd37bcf2	-0.044857927
195	0xbdd3d627	-0.10343581
196	0xbcdd7ff2	-0.027038548
197	0x3d45b6d8	0.048270077
198	0xbd785c92	-0.060635157
199	0x3d442842	0.047889955
200	0xbc2dd1f9	-0.010609143
201	0x3d746921	0.05967057
202	0x3dcde500	0.10053444
203	0xbdb8aeff	-0.09017753
204	0xbd8d7eac	-0.06908926
205	0xbc9a781f	-0.018856106
206	0x3bb99596	0.005663584
207	0xbd014897	-0.031563368
208	0x3d4a89d9	0.049447868
209	0xbcc39c97	-0.023878379
210	0x3cbbedd4	0.022940554
211	0x3d5d501f	0.054031488
212	0x3c93b8c6	0.018032443
213	0xbdb31e5c	-0.08746025
214	0xbd9a2978	-0.07527441
215	0xbd0fd69a	-0.03511677
216	0xbd46776b	-0.04845373
217	0x3c04e16d	0.008110386
218	0xbd112cce	-0.03544312
219	0xbd16eaa8	-0.03684488
220	0x3daa38c3	0.08311608
221	0xbcf5f42c	-0.030023657
222	0xbd0f47e7	-0.03498068
223	0xbd35947c	-0.04433106
224	0xbd440c76	-0.047863446
225	0xbdcffbfb	-0.10155483
226	0xbd83a9c1	-0.06428862
227	0x3d7927a3	0.060828816
228	0xbdc1ee2b	-0.09469255
229	0x3c4d7d95	0.012542148
230	0x3cce760f	0.02520278
231	0x3d82610d	0.06366167
232	0xbcee2644	-0.02907098
233	0x3d7be77a	0.06150005
234	0xbd2697e8	-0.040672213
235	0x3d80a278	0.062809885
236	0xbcddaf4b	-0.027061125
237	0x3da33d66	0.07970695
238	0xbb5d6faf	-0.0033788492
239	0xbcad8929	-0.021183567
240	0xbd18db0a	-0.037318267
241	0xbcd57490	-0.026056558
242	0x3c17f82b	0.009275476
243	0xbd0c4c62	-0.03425253
244	0xbd3beaf9	-0.045878384
245	0xbc699d38	-0.014258675
246	0xbd288d76	-0.041150533
247	0x3d155c08	0.03646472
248	0x3d772fca	0.06034831
249	0xbd182487	-0.03714421
250	0x3cc8c060	0.024505794
251	0xbd1aefe2	-0.037826426
252	0x3b26146b	0.002534176
253	0x3d502e29	0.05082527
254	0xbcd86f4d	-0.02642026
255	0xbd04e4e3	-0.032444846

8.weight f4 [128, 256]
0	0x3c3cb611	0.011518017
1	0x3c11af27	0.008891857
2	0x3d2d8bd9	0.042369697
3	0xbcebb7a0	-0.028774083
4	0xbd159e47	-0.0365279
5	0xbc652c90	-0.013987675
6	0x3d385818	0.045005888
7	0xbd449e83	-0.04800273
8	0x3cfb966b	0.030711373
9	0xbd393fb3	-0.045226764
10	0xbd47533e	-0.04866337
11	0xbcf0b0d9	-0.029381203
12	0xbd37243c	-0.04471229
13	0xbc9e3963	-0.019314473
14	0x3cfa2e3c	0.030539624
15	0x3c84acd5	0.016195694
16	0x3d7b1d00	0.061306953
17	0xbcaaa28f	-0.020829467
18	0x3d906c83	0.07051947
19	0x3d447dda	0.047971584
20	0xbd67f3de	-0.056629054
21	0x3d87642a	0.06610902
22	0xbc88aae0	-0.016683042
23	0xbde0c2be	-0.10974644
24	0xbd711cf3	-0.0588655
25	0x3da8e20a	0.082462385
26	0xbda4a782	-0.08039762
27	0x3dcf1c47	0.10112815
28	0xbbe0c369	-0.006859232
29	0x3d0b04cc	0.03394012
30	0xbc3e0c74	-0.011599649
31	0x3d634701	0.055487636
32	0x3c0e70ef	0.008693918
33	0x3dae03b5	0.08496801
34	0xbe08967b	-0.13338654
35	0xbdc23a17	-0.09483736
36	0xbdda4bf4	-0.10659018
37	0x3c8adbb8	0.016950473
38	0x3cba56d8	0.022746488
39	0x3d152a9f	0.0364176
40	0x3d57526e	0.052568845
41	0x3cddf36c	0.027093612
42	0xbcf2c888	-0.029636636
43	0x3d98e21c	0.07465002
44	0x3d5f608f	0.054535445
45	0x3c917232	0.017754648
46	0x3e01716a	0.1264092
47	0xbce3378e	-0.027736451
48	0x3d52437a	0.051333882
49	0x3c00e042	0.007865967
50	0x3c8a90a0	0.016914666
51	0x3dfde9a1	0.12398077
52	0x3d49a4bc	0.04922937
53	0x3d5d6359	0.054049823
54	0x3d70770d	0.058707286
55	0xbcec1397	-0.028817935
56	0xbca7626b	-0.020432672
57	0x3d688678	0.056768864
58	0xbc22f624	-0.00994638
59	0xbc00034c	-0.007813286
60	0x3d14d0db	0.036331993
61	0x3d4d7c24	0.050167218
62	0xbd932a31	-0.07185782
63	0xbd11adeb	-0.03556625
64	0x3dc8a6a1	0.09797407
65	0x3d79fb2f	0.061030563
66	0x3d8a551a	0.06754513
67	0xbc527e22	-0.012847455
68	0x3cf37183	0.029717213
69	0xbcf45a3b	-0.029828181
70	0xbcd30e16	-0.025763553
71	0xbd15c08f	-0.03656059
72	0x3ce6e538	0.028185472
73	0x3cfebe7e	0.031096693
74	0xbc999212	-0.01874641
75	0x3b3814b2	0.0028088507
76	0x3d85587f	0.0651102
77	0x3cf3ce2b	0.029761394
78	0x3c282226	0.010262048
79	0x3dac4bcc	0.084128946
80	0xbd50a144	-0.050935045
81	0x3d6605ba	0.056157805
82	0x3d246b75	0.04014154
83	0x3dc37d95	0.09545437
84	0xba768910	-0.0009404579
85	0xbd6035f5	-0.054738957
86	0x3d426a9e	0.04746496
87	0x3ce03502	0.027369026
88	0xbcb9a5f3	-0.022662139
89	0x3bbce7c0	0.0057649314
90	0x3c85243f	0.016252635
91	0xbc82c4b1	-0.01596293
92	0x3c97be86	0.018523466
93	0x3d8ab7f5	0.06773368
94	0xbc65fcaa	-0.014037291
95	0xbda6e3ca	-0.08148916
96	0x3bfb87ed	0.0076761157
97	0x3d543201	0.0518055
98	0x3d800136	0.06250231
99	0xbb93e0a0	-0.0045128614
100	0xbd3c0cc4	-0.04591061
101	0x3db54cc8	0.088525355
102	0xbd596370	-0.053073347
103	0x3d7a1a14	0.061060026
104	0x3e059362	0.13044503
105	0x3c8573a2	0.01629049
106	0x3d8654ca	0.06559141
107	0x3cb1ce22	0.021704737
108	0xbd258f17	-0.040419664
109	0x3d2729ca	0.040811338
110	0xbd0fdd3e	-0.035123102
111	0x3e07b298	0.13251722
112	0x3d155e90	0.036467135
113	0x3de4e559	0.11176557
114	0x3d95ccdf	0.07314467
115	0xbc82b933	-0.01595745
116	0x3e0b8bba	0.1362752
117	0x3dc2f148	0.09518677
118	0x3c6e9706	0.014562374
119	0x3d142de3	0.036176573
120	0x3d076ece	0.033064656
121	0x3cebe175	0.02879403
122	0x3ba9c8b6	0.0051813973
123	0x3cd4e45a	0.025987793
124	0x3da9641b	0.08271047
125	0xbd995465	-0.074868
126	0xbd1a2ee3	-0.03764237
127	0x3d059cbd	0.03262018
128	0xbcc8afb4	-0.024497844
129	0x3c164323	0.00917128
130	0x3d8aee8a	0.06783779
131	0x3d5056a4	0.050863877
132	0x3d47a58f	0.048741873
133	0x3d15f7ae	0.03661316
134	0xbc72d14f	-0.014820411
135	0xbde58c50	-0.11208403
136	0x3ccd9644	0.025096066
137	0x3dcd65d1	0.100291856
138	0xbd954a82	-0.07289602
139	0xbd358603	-0.044317257
140	0x3d3d462e	0.046209507
141	0x3bb0f1cd	0.0053999186
142	0x3d193822	0.037407048
143	0xbc8d926d	-0.017281735
144	0x3d29ea6e	0.041483335
145	0xbd64e4fb	-0.055882435
146	0xbd8ed96e	-0.06975065
147	0x3d225bdc	0.039638385
148	0x3dd269d0	0.102740884
149	0xbcec18c4	-0.028820403
150	0x3d03b932	0.032159038
151	0x3c32c09e	0.010910181
152	0x3d7e65ef	0.06210893
153	0xbb8700a5	-0.00411995
154	0xbc9ee6b8	-0.019397125
155	0xbd0d3224	-0.034471646
156	0xbd07a0fd	-0.033112515
157	0x3d616277	0.055025544
158	0x3d0218da	0.03176198
159	0x3ce1af66	0.027549457
160	0x3d078695	0.03308733
161	0x3c16c250	0.009201601
162	0x3d6f134c	0.058368012
163	0x3dea448c	0.114388555
164	0xbddb0793	-0.10694804
165	0x3d2d46ab	0.042303722
166	0xbcb8d424	-0.022562094
167	0x3dc10eaa	0.09426625
168	0xbd602517	-0.05472287
169	0x3cf0f198	0.029412076
170	0x3d8bf302	0.068334594
171	0xbd007cba	-0.03136895
172	0x3c47c18c	0.012192141
173	0x3c167e2d	0.009185356
174	0xbc13cd99	-0.009021186
175	0xbd3a5a32	-0.045496173
176	0xbd6a4c53	-0.057201695
177	0x3ca389d3	0.01996318
178	0xbd8c5918	-0.06852931
179	0xbdc43e05	-0.09582142
180	0x3c237cfa	0.009978527
181	0x3d20e9eb	0.03928558
182	0x3c7249f0	0.014788136
183	0x3dac64f9	0.084176965
184	0xbc694a2a	-0.0142388735
185	0x3d939683	0.07206442
186	0x3c57adca	0.013163993
187	0x3d24f685	0.04027416
188	0x3c4fddb1	0.012687133
189	0x3c352b01	0.011057616
190	0x3cf0313e	0.029320356
191	0xbdf43bf1	-0.119254954
192	0x3dd4ccfc	0.1039066
193	0x3d3ad4a8	0.04561296
194	0xbd801438	-0.062538564
195	0xbd19a2e8	-0.037508875
196	0xbd1bf600	-0.0380764
197	0x3ce69ad4	0.02815
198	0x3dbf9312	0.09354223
199	0xbca873ec	-0.020563088
200	0x3d8382d4	0.06421438
201	0xbd9badb2	-0.07601489
202	0x3cebb5a9	0.028773146
203	0xbd30ae7e	-0.04313516
204	0x3ddaf0f9	0.10690493
205	0x3d8b664c	0.06806621
206	0x3d602f92	0.054732867
207	0xbbf695eb	-0.007525196
208	0x3bca12bd	0.0061667846
209	0xbd874e96	-0.06606786
210	0xbe1254bb	-0.14290135
211	0xbd28938c	-0.041156337
212	0xbc9f8757	-0.019473715
213	0xbc5c74c9	-0.013455578
214	0xbd064d56	-0.032788597
215	0xbd61ac08	-0.055095702
216	0x3d106b83	0.03525878
217	0x3dab269b	0.08356973
218	0x3d812539	0.06305928
219	0x3bc95e03	0.0061452403
220	0x3d032ee6	0.032027148
221	0x3cdf0592	0.027224336
222	0xbde7532a	-0.11295159
223	0x3c7d2e38	0.015452914
224	0x3d390889	0.045174155
225	0xbd12cc8c	-0.035839602
226	0x3c28865a	0.010285938
227	0x3ddce056	0.10784976
228	0xbd6ac1f8	-0.05731389
229	0x3d936a57	0.07198017
230	0xbd90d361	-0.07071567
231	0xbd6f7cb7	-0.058468547
232	0x3cc5c2bc	0.024140708
233	0xbd18ddf0	-0.03732103
234	0x3d1f0f18	0.038832754
235	0xbd8ab56f	-0.06772887
236	0x3cb18cd0	0.02167359
237	0xbd9c8eb7	-0.07644408
238	0x3d0ec25b	0.03485332
239	0x3d1e0a98	0.03858432
240	0x3c940609	0.018069284
241	0x3bd6ee92	0.0065592015
242	0xbd2a4cfc	-0.041577324
243	0xbc3e8b32	-0.011629866
244	0x3d7f4810	0.062324584
245	0xbd37f034	-0.04490681
246	0xbd64c43a	-0.0558512
247	0xbc4691b0	-0.012119696
248	0x3d2c740e	0.042102866
249	0x3db611c3	0.088901065
250	0x3d5c7535	0.053822715
251	0x3b29dab1	0.0025917704
252	0xbd199f8b	-0.037505668
253	0x3d50c72d	0.0509712
254	0x3c65af8b	0.0140189035
255	0x3cf06929	0.02934702

8.bias f4 [128]
0	0x3cd4f402	0.025995258
1	0xbdb7d6d8	-0.08976525
2	0xbbb737d1	-0.0055913706
3	0xbd15d3bd	-0.036578882
4	0xbd4cbebf	-0.049986597
5	0x3ccfe31b	0.025376847
6	0x3d191431	0.03737277
7	0x3d6e7978	0.05822131
8	0x3c3a87bb	0.0113849
9	0xbce59b9e	-0.028028306
10	0xbd72beae	-0.059263878
11	0xbd50682e	-0.050880603
12	0x3c3c397d	0.011488316
13	0xbd992707	-0.07478147
14	0x3cb60230	0.02221784
15	0x3ce470a7	0.027885748
16	0x3cb1de75	0.021712521
17	0x3c6f9b2b	0.014624397
18	0x3ca1cb4a	0.019750256
19	0x3cc5cf09	0.024146574
20	0xbd91aed9	-0.07113428
21	0xbd136d12	-0.03599269
22	0x3d240968	0.040048033
23	0xbc5b6c4f	-0.013392522
24	0x3d0f04dd	0.034916747
25	0xbd50400c	-0.05084233
26	0xbd85cf47	-0.06533676
27	0x3ce2642c	0.027635656
28	0x3c937b3a	0.018003095
29	0xbca37541	-0.019953372
30	0xbc842bc0	-0.016134143
31	0xbd8a7864	-0.06761244
32	0x3d5525bb	0.052037936
33	0x3c81e289	0.01585509
34	0x3d8f3272	0.069920436
35	0xbca4938a	-0.020089883
36	0x3a4ca248	0.0007806164
37	0x3cbc0f8e	0.022956636
38	0xbccd0804	-0.025028236
39	0xbd8cae57	-0.0686919
40	0xbc55b352	-0.013043242
41	0xbd35a8b7	-0.044350352
42	0xbd958029	-0.07299835
43	0xbc948f5a	-0.018134762
44	0xbd0e989b	-0.034813505
45	0x3bf13078	0.0073605143
46	0x3ce5706c	0.028007708
47	0x3d453147	0.048142698
48	0xbb1ba150	-0.0023747273
49	0x3d21ce20	0.039503217
50	0xbd55ae1f	-0.052168008
51	0x3c72ee0e	0.0148272645
52	0x3bbdc828	0.0057916827
53	0xbc8234eb	-0.015894374
54	0xbb8b2249	-0.0042460305
55	0x3c4c80ca	0.012481878
56	0xbd971769	-0.07377512
57	0x3d081d19	0.033230875
58	0x3cc29f9c	0.023757748
59	0x3ce3c107	0.027802004
60	0x3d740d34	0.059582904
61	0x3d2b86e5	0.041876692
62	0xbd097370	-0.033557355
63	0xbc9936f1	-0.018702956
64	0x3d64d407	0.055866268
65	0xbc12f9b1	-0.008970664
66	0x3cfad2a7	0.030618025
67	0xbc417679	-0.011808031
68	0xbcdea0f1	-0.027176352
69	0xbd54c575	-0.051946122
70	0xbd8508f6	-0.0649585
71	0xbd95500b	-0.072906576
72	0xbdcb800d	-0.09936533
73	0xbc0c8683	-0.008576992
74	0x3db3f087	0.08786111
75	0x3d7a30a4	0.061081544
76	0xbccf0f42	-0.02527583
77	0x3cebd66d	0.02878877
78	0xbd1c3056	-0.038132034
79	0xbdb530f2	-0.08847226
80	0x3bd12353	0.006382385
81	0xbb35f60a	-0.002776506
82	0xbcef068c	-0.029177926
83	0xbcd88e8d	-0.026435161
84	0x3bffdc52	0.0078082466
85	0xbc91d68b	-0.017802497
86	0xbd497401	-0.049182896
87	0x3c724efc	0.014789339
88	0x3cc22a2c	0.02370175
89	0xbcd7d7aa	-0.026347954
90	0xbdabc001	-0.08386231
91	0xbb80bcbc	-0.003928749
92	0xbc400c96	-0.011721751
93	0xbd2d8d5c	-0.04237114
94	0xbd63d40c	-0.055622146
95	0x3cb8806b	0.022522172
96	0xbd894368	-0.0670231
97	0xbd85f4fc	-0.06540868
98	0xbd12d5e2	-0.035848506
99	0xbcd8b308	-0.026452556
100	0xbd58b8ee	-0.052910738
101	0xbce7ffbc	-0.028320186
102	0x3cd3e03a	0.025863755
103	0x3ac46644	0.0014984091
104	0xbdac795e	-0.084215865
105	0x3d136fbd	0.035995234
106	0x3d192b3f	0.03739476
107	0x3d14256f	0.036168512
108	0xbdad57c1	-0.08464003
109	0xbc881a26	-0.016614031
110	0x39535c97	0.0002015702
111	0x3c0f8fe6	0.008762335
112	0x3d4b78db	0.049675804
113	0x3d28e161	0.041230563
114	0xbcc0c163	-0.023529714
115	0xbd9450da	-0.07241984
116	0xbd2665aa	-0.0406243
117	0x3bcf54b8	0.006327238
118	0xbcc2ff9b	-0.023803523
119	0x3d09d10c	0.03364663
120	0x3d3a8b95	0.045543272
121	0x3cf733ed	0.030176127
122	0xbda4c92a	-0.080461815
123	0xbca4ce28	-0.020117834
124	0x3d3b16bb	0.045675974
125	0x3ae36ae8	0.0017350586
126	0xbcbd0c2e	-0.023077097
127	0xbd662b1a	-0.05619345
