models/checkpoint375.pht.tar (torch_old, 355795 bytes, 16 tensors)

0.weight f4 [32, 26]
0	0xbd16a00f	-0.036773738
1	0x3d5e96ea	0.05434314
2	0x3bddbbf5	0.006766791
3	0x3e405482	0.18782237
4	0x3cec9766	0.028880786
5	0x3de9df9d	0.11419604
6	0x3e3f840a	0.18702713
7	0x3e7435c2	0.23848632
8	0x3c674ec0	0.014117897
9	0x3e5f9aff	0.2183647
10	0x3e0e1fcd	0.13879319
11	0x3c67bb84	0.014143828
12	0xbd1874b5	-0.037220675
13	0x3d163ca3	0.03667892
14	0xbcfa4e27	-0.030554844
15	0x3e2c458a	0.16823402
16	0xbe04c5fb	-0.12966149
17	0x3e3f62f1	0.18690087
18	0xbda00ab0	-0.078145385
19	0x3e8ca537	0.274698
20	0xbe250b8a	-0.16117683
21	0xbe455f72	-0.19274691
22	0x3da64081	0.08117772
23	0x3dd8037e	0.10547541
24	0x3dc3fd67	0.09569817
25	0x3e235cf2	0.15953425
26	0xbdbe5820	-0.09294152
27	0x3e2f23a2	0.17103437
28	0xbe35f9e1	-0.17771102
29	0xbd599d35	-0.05312844
30	0xbe248879	-0.16067685
31	0xbe114c0b	-0.14189164
32	0xbd95e3fc	-0.07318875
33	0xbe37d37b	-0.17951767
34	0xbbdafb68	-0.006682802
35	0x3e25a948	0.16177857
36	0x3d50541f	0.050861474
37	0xbde3a488	-0.11115366
38	0x3de00aed	0.10939584
39	0x3de988e4	0.11403063
40	0x3e0e1a82	0.138773
41	0x3e5aeb09	0.21378721
42	0x3e8183fc	0.2529601
43	0x3c94e210	0.018174201
44	0x3dc2dabc	0.095143765
45	0x3dfb0456	0.122566864
46	0x3d4db3f1	0.050220434
47	0x3dd4adfa	0.10384746
48	0xbbfb9306	-0.0076774387
49	0xbd48864d	-0.048956204
50	0x3e2d1792	0.16903523
51	0xbe3465d2	-0.17616966
52	0x3be6f8fc	0.007048724
53	0xbc52d059	-0.012867057
54	0xbe2d31b2	-0.16913489
55	0xbe64c86d	-0.22342081
56	0x3ddccb90	0.10781014
57	0x3e417adf	0.18894528
58	0x3e4191ae	0.18903229
59	0xbdeace95	-0.11465184
60	0xbba93247	-0.005163464
61	0xbdf5bf7d	-0.11999414
62	0x3e2c5ba0	0.16831827
63	0x3e12bb72	0.14329317
64	0xbd96ccf7	-0.07363313
65	0x3da507c5	0.080581225
66	0x3e345467	0.17610322
67	0xbdb4a23e	-0.08820008
68	0xbe231de1	-0.15929367
69	0x3de0d63a	0.109783605
70	0x3bb4d8d5	0.0055190125
71	0x3e353bf3	0.1769865
72	0x3dfd85f3	0.123790644
73	0xbda62f5e	-0.08114503
74	0xbe1afbb6	-0.15135083
75	0xbddeb8e2	-0.10875107
76	0x3dba2d01	0.09090615
77	0xbe0ae2f2	-0.13563135
78	0x3e1ba617	0.15200077
79	0x3d83ed7b	0.0644178
80	0x3b7c0566	0.0038455366
81	0x3dea3761	0.11436344
82	0xbd9ccacc	-0.07655868
83	0xbd9bf420	-0.076149225
84	0xbe28634a	-0.16444126
85	0x3e5e09bf	0.21683405
86	0x3e29508d	0.16534634
87	0xbd004ccc	-0.03132324
88	0xbca2d50a	-0.019876976
89	0xbc29fdcf	-0.010375454
90	0xbe3de439	-0.18544091
91	0x3d592951	0.053017918
92	0xbe2f4183	-0.17114834
93	0x3d8673c4	0.06565049
94	0xbda290b9	-0.0793776
95	0xbded4df6	-0.115871355
96	0x3ca042f2	0.019563172
97	0x3e029fa7	0.12756215
98	0x3e5fd43d	0.21858306
99	0x3d29d41b	0.041462045
100	0xbc88968b	-0.016673347
101	0x3e0103bd	0.12599082
102	0xbd80d02e	-0.06289707
103	0xbd5d2b80	-0.053996563
104	0x3e4d98e9	0.20077862
105	0xba33174e	-0.0006831781
106	0x3e532803	0.20620732
107	0x3d0494c3	0.032368433
108	0x3d9a070a	0.07520874
109	0x3d62b5fb	0.05534933
110	0x3d977210	0.073948026
111	0x3d863b26	0.065542504
112	0xbd8459c2	-0.064624324
113	0xbe653706	-0.22384271
114	0x3ca8e005	0.020614633
115	0x3d5f068b	0.0544496
116	0xbd27441c	-0.04083644
117	0xbca08d43	-0.019598609
118	0x3e2da453	0.16957216
119	0xbe18a243	-0.14905648
120	0x3e723ae3	0.23655276
121	0xbe27d345	-0.16389187
122	0xbdc5a94d	-0.09651432
123	0xbe430bf8	-0.19047534
124	0xbc8941a1	-0.016754927
125	0xbcf524b4	-0.029924728
126	0x3bbeabbb	0.0058188117
127	0xbd6d73f6	-0.057971917
128	0x3df38901	0.11891366
129	0x3dc8d6d7	0.098066024
130	0x3e0a07b7	0.13479505
131	0xbe0c9c3f	-0.13731478
132	0x3e475dc1	0.19469358
133	0xbe5bf172	-0.21478823
134	0x3c4af9b1	0.012388633
135	0x3d6477f1	0.055778448
136	0x3d3d960e	0.04628568
137	0xbd10d260	-0.03535688
138	0xbd8a22ce	-0.0674492
139	0x3c960f50	0.018317848
140	0x3e7bd9e2	0.24594834
141	0xbdbad464	-0.091225415
142	0x3e2396e8	0.15975535
143	0x3e123c16	0.14280733
144	0xbcf578ef	-0.029964892
145	0x3ce2ad50	0.027670532
146	0xbda0b424	-0.07846859
147	0x3e8bbffd	0.27294913
148	0x3e339d02	0.17540362
149	0x3cc6c4d5	0.024263779
150	0x3dfb047a	0.12256713
151	0xbd87393b	-0.06602713
152	0xbe168eba	-0.14702883
153	0x3bf285f1	0.007401221
154	0xbdf62f8d	-0.12020788
155	0x3e21e117	0.15808521
156	0xbdb1c438	-0.08680004
157	0x3b6fa3c1	0.003656611
158	0xbd3ed26d	-0.046587396
159	0x3cdd1f81	0.026992561
160	0x3e47fc55	0.19529851
161	0x3e1eaf08	0.15496457
162	0xbd67f1a8	-0.056626946
163	0xbe04eb94	-0.12980491
164	0x3d840c37	0.06447642
165	0x3db69b21	0.08916307
166	0x3ca43e8c	0.020049356
167	0x3e0782ca	0.13233486
168	0xbdf52baf	-0.119712226
169	0x3e71e2ab	0.23621623
170	0x3e68818a	0.22705665
171	0xbdcc0bce	-0.09963189
172	0x3b369852	0.0027861786
173	0xbdce9e94	-0.1008884
174	0xbd66ed3a	-0.05637858
175	0x3da159d0	0.078784585
176	0x3d3ba0c7	0.045807626
177	0x3df35b84	0.118826896
178	0x3e526896	0.20547709
179	0xbdb44946	-0.08803038
180	0xbe43aa56	-0.19107947
181	0xbcdbce61	-0.026831808
182	0x3dbd9d97	0.092585735
183	0x3d0dc91a	0.034615614
184	0x3de88e0c	0.11355218
185	0x3dd6b5eb	0.10483917
186	0x3e0bd538	0.13655555
187	0x3d2c002c	0.04199235
188	0xbe1041f1	-0.14087655
189	0xbe2708ab	-0.163119
190	0x3af5a46e	0.001874102
191	0x3e326dff	0.17424773
192	0x3e30801f	0.17236374
193	0xbe0f95cb	-0.14021985
194	0xbe112b16	-0.14176592
195	0xbd5417ed	-0.05178063
196	0xbe22b87b	-0.15890686
197	0x3b5aaa99	0.0033365844
198	0x3e44a7db	0.19204657
199	0x3d3b6daf	0.0457589
200	0x3bd9b0aa	0.0066433745
201	0x3e47a7a3	0.19497542
202	0xbd9b0aef	-0.07570445
203	0x3e18b10e	0.14911291
204	0xbd2de145	-0.042451162
205	0xbe10c320	-0.14136934
206	0xbe0c13fa	-0.13679495
207	0x3e14bef5	0.1452597
208	0xbdfaf8c9	-0.12254483
209	0xbd69a09a	-0.057037927
210	0x3c7ad638	0.015309863
211	0x3d9f2e90	0.07772553
212	0x3e34e332	0.17664793
213	0xbe031a0f	-0.1280291
214	0xbe21674e	-0.15762064
215	0xbdcb0b79	-0.099142976
216	0xbe3d62d9	-0.18494739
217	0x3cf75807	0.030193342
218	0x3d65ad2d	0.056073356
219	0xbcf0f31b	-0.029412797
220	0x3ca06aa8	0.019582108
221	0xbda6a62f	-0.08137166
222	0x3e06adc2	0.13152221
223	0xbd9d597d	-0.07683084
224	0x3d046361	0.032321338
225	0x3e234567	0.15944444
226	0x3e346f1c	0.1762051
227	0x3cc30109	0.023804205
228	0xbdf89315	-0.12137429
229	0x3e0bbd1c	0.13646358
230	0x3e4879ab	0.19577663
231	0x3e01f991	0.12692858
232	0x3e45b2ac	0.19306439
233	0xbd31bd97	-0.043393698
234	0xbe376901	-0.1791115
235	0xbe207253	-0.15668611
236	0xbd906c9c	-0.070519656
237	0xbdcddb3f	-0.100515835
238	0x3e188b9c	0.14897007
239	0xbd3c9950	-0.046044648
240	0xbdbc0395	-0.09180371
241	0xbd96d107	-0.073640876
242	0x3d1ab6a8	0.03777185
243	0x3d17ca50	0.037058175
244	0xbdc8fdea	-0.09814055
245	0x3df9403a	0.12170453
246	0x3d64b595	0.055837233
247	0x3dcc57c9	0.09977681
248	0xbddab3ce	-0.10678826
249	0x3e189a24	0.1490255
250	0x3dde060a	0.108409956
251	0x3d83d8dc	0.06437847
252	0x3e263cbb	0.16234104
253	0x3d3cf2f4	0.046130136
254	0xbdc599fe	-0.09648512
255	0x3db386ef	0.08765971

0.bias f4 [32]
0	0x3ac0dd18	0.0014714329
1	0x3d7ccb94	0.061717585
2	0x3e1e82a8	0.15479529
3	0x3dbf5e78	0.0934419
4	0x3dbcc813	0.09217849
5	0x3df5c8f7	0.120012216
6	0x3db95de9	0.09051115
7	0xbe0565fa	-0.13027182
8	0xbe42a66b	-0.19008796
9	0xbdc15e3b	-0.09441801
10	0xbe653793	-0.22384481
11	0x3e27b0ac	0.16375989
12	0x3ce17b1a	0.02752452
13	0xbd704b31	-0.058665458
14	0xbdc3cc26	-0.095604226
15	0xbe2bf6b9	-0.16793336
16	0x3e3fd0be	0.18731973
17	0x3e3a45c2	0.18190673
18	0x3e03f882	0.12887767
19	0xbd01c2f9	-0.03168008
20	0x3dadca5d	0.08485863
21	0x3ddb928d	0.10721312
22	0x3e603b9c	0.21897739
23	0xbd9553f9	-0.07291407
24	0x3e054ca1	0.13017513
25	0x3c37c997	0.011217496
26	0x3e322b73	0.17399387
27	0xbc71eafc	-0.014765497
28	0xbdc32495	-0.09528462
29	0xbc6b1de9	-0.014350393
30	0x3ddbf3a2	0.10739829
31	0x3dac43f3	0.08411398

2.weight f4 [64, 32]
0	0x3e344c73	0.17607288
1	0x3e151f79	0.14562787
2	0xbe1e3fd1	-0.15454032
3	0xbdb7ce49	-0.08974893
4	0x3cb0722e	0.02153882
5	0xbdeacdfc	-0.1146507
6	0xbd2b8036	-0.04187032
7	0xbd5e1e30	-0.054228008
8	0xbcff50a2	-0.031166378
9	0x3dd1f163	0.10251119
10	0xbd86bae4	-0.06578615
11	0xbdcc1509	-0.0996495
12	0xbc13ac8c	-0.009013306
13	0xbe28143f	-0.16413973
14	0x3e1912ce	0.1494858
15	0xbe0ac5b8	-0.13551986
16	0x3d74c0fb	0.059754353
17	0x3af79e5c	0.0018891799
18	0x3d50dfb5	0.050994594
19	0x3d00643f	0.031345602
20	0xbd42757e	-0.04747533
21	0x3db3832b	0.08765253
22	0xbe06233a	-0.13099375
23	0x3d87c289	0.066289015
24	0xbcc15690	-0.023600847
25	0x3d1c5a75	0.038172204
26	0x3c6f6035	0.01461034
27	0x3d2af56f	0.04173797
28	0x3d37304a	0.044723786
29	0xbb788b35	-0.003792477
30	0x3e196c9f	0.14982842
31	0x3dc5ec56	0.09664218
32	0x3df24115	0.1182882
33	0xbbf34ba0	-0.0074247867
34	0xbdb684dd	-0.089120604
35	0x3e5d6d25	0.21623667
36	0x3dc37fda	0.0954587
37	0xbd23ea9d	-0.040018667
38	0xbdedbf90	-0.11608803
39	0x3e1066e4	0.1410175
40	0x3c40f2dc	0.011776652
41	0xbd8d67eb	-0.069045864
42	0xbd9450e9	-0.07241995
43	0xbe107fdd	-0.14111276
44	0xbe553e3d	-0.20824523
45	0x3e186f5a	0.14886227
46	0x3e53d24e	0.20685694
47	0x3dc585e5	0.09644679
48	0x3c9b1ced	0.018934691
49	0xbc19d416	-0.009388944
50	0xbd15cd6e	-0.036572866
51	0x3e1ffcc9	0.15623774
52	0x3def70c5	0.11691431
53	0x3c8ecc14	0.017431296
54	0x3db803fd	0.08985136
55	0x3cf50e61	0.029914083
56	0x3da4f35d	0.0805423
57	0xbd83c3c0	-0.06433821
58	0x3d9417d2	0.07231106
59	0xbdb3b0b4	-0.08773938
60	0xbca21f7f	-0.01979041
61	0x3dff0173	0.12451448
62	0x3e2e6f56	0.17034659
63	0xbdd55d9c	-0.10418245
64	0xbc00e035	-0.007865955
65	0x3cf46e36	0.029837709
66	0xbe25dd65	-0.16197737
67	0x3e45a853	0.19302492
68	0x3de0e7ad	0.10981689
69	0x3d0b02ad	0.0339381
70	0x3d9e28a6	0.07722597
71	0x3e56b7d5	0.20968564
72	0xbd28a493	-0.041172575
73	0xbe010249	-0.12598528
74	0xbdfe015c	-0.12402603
75	0xbd616c57	-0.05503496
76	0xbc7cc99d	-0.015428928
77	0x3e13c122	0.14429143
78	0xb7f2acdc	-2.8929142e-05
79	0xbc42721b	-0.011868025
80	0xbdf5c5df	-0.120006315
81	0xbdda0fc7	-0.106475405
82	0xbdb101a5	-0.08642892
83	0x3de2283f	0.110428326
84	0xbdaec377	-0.08533376
85	0xbde07aad	-0.109608985
86	0xbd94be76	-0.0726289
87	0x3da4d23d	0.08047912
88	0xbde8f216	-0.11374299
89	0xbe1039a6	-0.14084491
90	0x3dfcee7c	0.12350175
91	0x3da1b50f	0.07895862
92	0xbceedc41	-0.02915776
93	0xbd25582d	-0.040367294
94	0xbe4902a8	-0.1962992
95	0x3c4e7f3f	0.01260358
96	0x3c952bae	0.018209305
97	0xbd68633b	-0.05673526
98	0x3cb004c3	0.021486646
99	0x3d99a805	0.0750275
100	0xbe0ec331	-0.13941647
101	0x3e2ebd9f	0.17064522
102	0x3cafde68	0.021468356
103	0xbde8339c	-0.11337969
104	0x3e081d9e	0.13292548
105	0xbd8821f2	-0.066470996
106	0xbe0366ae	-0.12832138
107	0x3c9903b8	0.018678531
108	0x3d7aa2ae	0.0611903
109	0xbd60cbed	-0.05488198
110	0x3dedbe81	0.11608601
111	0xbda81ed2	-0.082090035
112	0xbcde5e22	-0.027144495
113	0x3e05766b	0.13033454
114	0x3e5193b3	0.20466499
115	0xbd90e8e3	-0.070756696
116	0xbcc30474	-0.023805834
117	0xbae154e0	-0.0017191432
118	0xbdb9b70a	-0.09068115
119	0xbc6526b0	-0.013986275
120	0xbe313193	-0.17304067
121	0xbdff9772	-0.12480058
122	0x3e776486	0.2415944
123	0xbe1abe5c	-0.15111679
124	0xbdbecfb7	-0.09316962
125	0x3e18961d	0.14901014
126	0xbdbeb3d8	-0.09311646
127	0x3e0f90a8	0.14020026
128	0xbdc331c9	-0.0953098
129	0x3d18f675	0.037344415
130	0x3d9bea18	0.07613009
131	0xbc9e5314	-0.019326724
132	0x3d80df9a	0.062926486
133	0x3e49225e	0.19642016
134	0x3d9df2a3	0.07712295
135	0xbe164153	-0.14673357
136	0x3bfeb261	0.0077727293
137	0x3dcff7cf	0.101546876
138	0xbe55fff3	-0.20898418
139	0x3e0a54cf	0.13508914
140	0xbe01262c	-0.12612218
141	0xbd650777	-0.055915322
142	0xbdfe231b	-0.124090396
143	0x3cd49f0a	0.025954742
144	0x3df44774	0.11927691
145	0x3e0c881e	0.137238
146	0x3e3308a6	0.17483768
147	0x3e613110	0.21991372
148	0x3bdb2bf2	0.0066885883
149	0x3dbd1cbd	0.09233997
150	0xbcf8f79a	-0.030391503
151	0x3e46ac0d	0.1940157
152	0x3c6d8287	0.014496452
153	0xbaab9d41	-0.001309313
154	0x3da20c75	0.07912532
155	0x3db05423	0.08609798
156	0xbe08553f	-0.13313769
157	0xbd7d2627	-0.061803963
158	0xbce2842b	-0.027650913
159	0xbde36682	-0.11103536
160	0x3e28546f	0.16438459
161	0xbde25904	-0.11052135
162	0x3e0aff86	0.13574037
163	0x3df67d66	0.120356366
164	0x3d2742a3	0.040835034
165	0x3db289db	0.087177
166	0xbd80a09f	-0.06280636
167	0xbd06038d	-0.03271823
168	0xbe1ec6e2	-0.15505555
169	0xbe11128a	-0.14167228
170	0x3df1da1f	0.118091814
171	0xbe0fc463	-0.1403976
172	0xbdab7419	-0.08371753
173	0x3e224c5e	0.15849444
174	0x3c8c9bf1	0.017164202
175	0x3e2fcfaf	0.17169069
176	0xbe38d44b	-0.18049733
177	0xbda029a0	-0.07820439
178	0xbe032fb1	-0.12811162
179	0x3dc3999d	0.09550784
180	0xbe5b0dd5	-0.21391995
181	0xbdd13d2c	-0.10216746
182	0xbcd08323	-0.025453156
183	0xbe215c63	-0.15757899
184	0xbe299609	-0.1656114
185	0xbe50a9df	-0.203773
186	0x3d9d2d3d	0.07674644
187	0x3d367940	0.044549227
188	0x3df9edc2	0.12203552
189	0x3e53849a	0.20656052
190	0xbdfa4501	-0.12220193
191	0xbd3d3b44	-0.0461991
192	0xbb510aff	-0.0031897423
193	0x3e46dfc8	0.19421303
194	0x3dd84ff0	0.10562122
195	0x3dba63c9	0.09101064
196	0x3d84fd30	0.06493604
197	0x39b6442c	0.00034764537
198	0x3db45668	0.08805543
199	0x3ce52084	0.027969606
200	0xbd0a657c	-0.03378819
201	0xbdcb4108	-0.09924513
202	0x3cab715e	0.020928081
203	0xbda27cb6	-0.07933943
204	0xbe3842a7	-0.17994176
205	0xbdfa304d	-0.12216244
206	0x3d0e5229	0.034746323
207	0xbe255b75	-0.1614817
208	0xbe8f7539	-0.2801912
209	0xbc097c62	-0.008391472
210	0xbe12c107	-0.14331447
211	0xbd9d1178	-0.076693475
212	0x3d54e15c	0.051972732
213	0x3df6d49d	0.120522715
214	0x3cba507a	0.022743452
215	0xbc60ba60	-0.01371631
216	0xbe868e97	-0.26280662
217	0x3b35e114	0.0027752565
218	0x3a5b449e	0.0008364412
219	0x3e2de0f9	0.16980352
220	0x3e38ddf8	0.18053424
221	0xbe0f93e7	-0.14021264
222	0xbdf6ff28	-0.12060386
223	0x3e1bb15b	0.15204374
224	0xbc435ff6	-0.011924734
225	0xbdd237c8	-0.10264546
226	0x3d505c4f	0.050869282
227	0xbd9e1ce8	-0.07720357
228	0xbd331828	-0.04372421
229	0xbe44533a	-0.19172373
230	0x3d9ee862	0.07759167
231	0xbe3c235d	-0.18372865
232	0xbd90d764	-0.070723325
233	0x3c857e0f	0.016295461
234	0xbdd15ea9	-0.10223133
235	0x3e08652e	0.13319847
236	0xbe2ca0f7	-0.16858278
237	0xbcd61c26	-0.02613647
238	0x3d74c2c4	0.059756055
239	0xbd6482db	-0.055788856
240	0xbda5351b	-0.0806677
241	0x3d0ee8cb	0.034889977
242	0xbde04995	-0.10951535
243	0xbe079f85	-0.13244446
244	0xbb35059e	-0.0027621756
245	0xbcd2ecec	-0.025747739
246	0xbe06dc39	-0.13169946
247	0xbd178849	-0.036995206
248	0x3dd71920	0.10502839
249	0xbe2fcebd	-0.17168708
250	0x3e1063ad	0.14100523
251	0xbcdf7ef4	-0.027282216
252	0x3e0e1e70	0.13878798
253	0xbd69d2ca	-0.05708579
254	0xbd902776	-0.070387766
255	0xbe33fe34	-0.1757744

2.bias f4 [64]
0	0xbe248d66	-0.16069564
1	0x3e10493f	0.14090441
2	0xbd9190bd	-0.07107685
3	0x3dc27730	0.094953895
4	0xbd5a7d08	-0.053341895
5	0xbe3ff504	-0.1874581
6	0xbdcde098	-0.100526035
7	0x3dbfbf63	0.09362676
8	0xbe2be1cd	-0.16785355
9	0x3df27c0b	0.118400656
10	0x3be8f3a9	0.0071091247
11	0xbd258d69	-0.040418062
12	0xbe0256b8	-0.12728393
13	0xbd3e781a	-0.046501257
14	0xbd9d4b57	-0.076803856
15	0x3ca8e96a	0.020619113
16	0x3daeb24b	0.085301004
17	0xbe67e464	-0.22645718
18	0xbe3b9945	-0.18320186
19	0xbd6d0e6b	-0.05787508
20	0x3cae5db6	0.02128492
21	0xbe2684c4	-0.16261584
22	0x3e155c2e	0.14585945
23	0xbdc54168	-0.09631616
24	0xbe04d1ca	-0.12970653
25	0x3e24f736	0.16109928
26	0x3cff939e	0.031198319
27	0x3ddc2b9f	0.107505076
28	0x3d5dc59b	0.05414353
29	0x3e089206	0.13336954
30	0xbdffc8ea	-0.12489493
31	0xbdc21c38	-0.094780385
32	0x3e655d9b	0.22398989
33	0xbd1bad55	-0.0380071
34	0x3d29807d	0.0413823
35	0xbe2c1707	-0.16805659
36	0x3d203a79	0.039118264
37	0xbdac368b	-0.08408841
38	0xbd3af1d3	-0.045640778
39	0x3dcd137e	0.100134835
40	0x3e1d5721	0.15365268
41	0xbe56ebaf	-0.20988344
42	0x3e76b6e9	0.24093212
43	0xbe38e2de	-0.18055293
44	0xbde82e06	-0.11336903
45	0xbd43b66a	-0.047781385
46	0x3cf4c3a5	0.029878447
47	0x3e3f177c	0.18661302
48	0x3e1da2b8	0.15394104
49	0x3e268b49	0.1626407
50	0xbdf3e626	-0.11909132
51	0xba4cc150	-0.0007810788
52	0x3de68fee	0.11257921
53	0xbdcd5348	-0.1002565
54	0x3d8c0ce0	0.06838393
55	0x3d9bd8fd	0.076097466
56	0x3e3f883a	0.1870431
57	0xbdad0f6c	-0.08450207
58	0x3da019ca	0.07817419
59	0xbcf91521	-0.030405583
60	0xbdebd793	-0.11515727
61	0x3dd6577b	0.10465904
62	0x3da2f09c	0.07956049
63	0xbdb472cd	-0.08810959

4.weight f4 [128, 64]
0	0x3db8818b	0.09009083
1	0x3d3b6acf	0.045756157
2	0xbdeb272e	-0.11482082
3	0xbdb7b77a	-0.08970542
4	0xbd5f9237	-0.0545828
5	0x3e17f4a1	0.14839412
6	0xbde86bfe	-0.11348723
7	0xbcb0ca82	-0.021580938
8	0x3db3fdde	0.08788656
9	0x3dc15e76	0.09441845
10	0x3d0ff6e4	0.035147563
11	0x3cb68784	0.022281416
12	0x3e0f9c7c	0.14024538
13	0xbb3cb370	-0.0028793477
14	0xbdbaaade	-0.091146216
15	0xbcd88856	-0.026432198
16	0x3c9b515d	0.018959695
17	0xbcb792c4	-0.02240885
18	0x3d9032a0	0.07040906
19	0x3d2ac46c	0.04169123
20	0xbd50c3ce	-0.050967984
21	0xbd7944af	-0.060856517
22	0xbd39f42a	-0.04539887
23	0x3bafa18d	0.0053598345
24	0xbcf9d35a	-0.030496288
25	0x3d382fbe	0.044967405
26	0xbdad69a2	-0.084674135
27	0x3b8a9dc2	0.004230232
28	0xbcc9266a	-0.02455445
29	0x3bf0e640	0.0073516667
30	0xbd51b208	-0.051195174
31	0x3d07e13a	0.033173777
32	0x3bff3824	0.007788675
33	0xbdc933a6	-0.09824304
34	0x3c579fba	0.01316064
35	0xbdb8b7b9	-0.09019417
36	0x3c2842da	0.010269845
37	0xbe304288	-0.1721288
38	0x3c9d2255	0.01918141
39	0xbc6fc299	-0.014633798
40	0x3ccfc84e	0.025364067
41	0x3ddb6da7	0.10714274
42	0xbb10639a	-0.0022032023
43	0x3d6b272e	0.05741041
44	0x3d259a2e	0.04043024
45	0xbd841ff1	-0.06451405
46	0x3e0ec81b	0.13943522
47	0xbdac2f5f	-0.08407473
48	0xbd95564d	-0.07291851
49	0x3d382beb	0.04496376
50	0xbdc07375	-0.09397022
51	0xbdb7008c	-0.08935651
52	0xbdee867d	-0.11646745
53	0xbce843aa	-0.028352577
54	0xbd04dc25	-0.03243651
55	0x3d6077a8	0.054801613
56	0xbdd53606	-0.10410695
57	0x3e090ded	0.13384219
58	0x3d13ef59	0.03611693
59	0x3c87e04f	0.01658645
60	0x3db703b0	0.0893625
61	0x3e031f23	0.12804846
62	0xbdd7cdfe	-0.10537337
63	0x3cf59fc0	0.029983401
64	0xbd9bbd4b	-0.07604464
65	0xbcf0004c	-0.029297017
66	0xbd239ece	-0.03994637
67	0x3b0273d3	0.0019905462
68	0xbde1f0b9	-0.11032242
69	0xbd0e5aae	-0.034754448
70	0x3cd7597d	0.026287789
71	0xbda6695e	-0.08125566
72	0xbd401147	-0.046891477
73	0x3d232845	0.039833326
74	0xbd8a5252	-0.067539826
75	0xbda8b8df	-0.08238386
76	0x3e007231	0.1254356
77	0x3cf4609b	0.029831221
78	0xbcd4dc1a	-0.025983859
79	0xbc1b5f6b	-0.009483199
80	0xbd90f59a	-0.07078095
81	0xbcfa4d03	-0.0305543
82	0x3de451f9	0.111484475
83	0x3e080350	0.13282514
84	0xbdf3c011	-0.11901868
85	0xbe000f4c	-0.12505835
86	0xbe12baa3	-0.14329009
87	0x3d2c326a	0.042040266
88	0xbdaa9473	-0.08329096
89	0x3d6fafcf	0.058517274
90	0x3dbfea7a	0.09370895
91	0xbdcb83b9	-0.099372335
92	0x3dfc9d49	0.12334687
93	0x3c9f4e30	0.019446462
94	0x3dce722f	0.100803725
95	0x3d6d2115	0.057892878
96	0xbcfebef7	-0.031096919
97	0xbc2356b7	-0.009969405
98	0x3dd0d148	0.10196167
99	0x3cae9a0f	0.021313695
100	0x3b927a80	0.0044701695
101	0x3e448ce6	0.19194373
102	0x3dbb915c	0.091585845
103	0xbcc5e67a	-0.024157751
104	0xbcfaddb1	-0.030623289
105	0x3d81cfab	0.06338438
106	0xbc8fbfba	-0.017547477
107	0xbd10adf0	-0.03532213
108	0xbdc1163d	-0.0942807
109	0xbd36d251	-0.044634167
110	0xbdae5b3c	-0.08513495
111	0x3d102e8b	0.035200637
112	0xbde1180e	-0.10990916
113	0x3d9f5f6b	0.077818714
114	0xbdccdb1b	-0.100027286
115	0x3dc09a5b	0.09404441
116	0xbd755fe8	-0.059905916
117	0xbd8e2431	-0.06940497
118	0x3dd0ad74	0.101893336
119	0xbda4a91b	-0.08040067
120	0x3d0712f6	0.032977067
121	0x3dc9b5cc	0.09849128
122	0xbdf1325f	-0.11777186
123	0xbd5ac67e	-0.053411953
124	0x3bd4d28d	0.006494826
125	0x3cd3c83c	0.025852315
126	0xbca4311a	-0.020042945
127	0xbcc454a0	-0.023966134
128	0xbcd89864	-0.026439853
129	0xbcaddd65	-0.021223733
130	0xbd3b0ed8	-0.045668453
131	0x3de87524	0.11350468
132	0xbdf6fd62	-0.12060048
133	0xbdac6af1	-0.08418835
134	0x3cd849a4	0.026402302
135	0xbdb2e5cf	-0.08735239
136	0x3d96a94e	0.07356511
137	0x3d743224	0.05961813
138	0xbd829a98	-0.06377143
139	0xbd2dbfa3	-0.042419087
140	0xbda863d5	-0.082221664
141	0x3d96543a	0.07340284
142	0xbdb9db1d	-0.09074996
143	0xbd41ada4	-0.047284737
144	0xbc429757	-0.011876903
145	0xbe1800d8	-0.14844072
146	0xbdd39d8c	-0.10332784
147	0x3c60921a	0.013706708
148	0xbd189c44	-0.0372584
149	0xbdaf43a1	-0.08557821
150	0x3e068a71	0.13138749
151	0x3db5ed44	0.088831455
152	0x3db6ec04	0.08931735
153	0x3e1dde57	0.15416847
154	0x3d69ade5	0.057050604
155	0xbd90262f	-0.07038533
156	0x3d81ec4b	0.063438974
157	0x3d8ceb93	0.0688087
158	0xbd32f2ac	-0.04368846
159	0x3d48bdd2	0.04900915
160	0x3e26909b	0.162661
161	0xbdc3502d	-0.09536777
162	0xbdb504f7	-0.088388376
163	0x3d898397	0.06714552
164	0x3d848bc7	0.06471973
165	0xbd79b679	-0.060965035
166	0x3d1f19a2	0.038842805
167	0x3e2111b6	0.15729412
168	0x3cf674ca	0.030084986
169	0x3dd1a6a2	0.10236861
170	0x3dbec1e0	0.093143225
171	0xbddc642a	-0.10761292
172	0xbd621b22	-0.055201657
173	0x3d95aa2f	0.073078506
174	0xbcd824bb	-0.026384702
175	0x3e214f05	0.157528
176	0x3d26b599	0.04070053
177	0x3dda741e	0.10666679
178	0x3d8f730c	0.07004365
179	0x3e19de47	0.15026198
180	0x3d003941	0.0313046
181	0x3d47854e	0.048711114
182	0xbd0cddf8	-0.034391373
183	0x3d6f8407	0.05847552
184	0xbc9172c5	-0.017754922
185	0xbdd2dee5	-0.1029642
186	0xbdaac67a	-0.08338638
187	0x3e16fe9d	0.14745565
188	0xbd1b68ee	-0.037941866
189	0xbdab3612	-0.083599225
190	0xbcd32d8f	-0.02577856
191	0x3d8d0a9a	0.06886788
192	0xbd43ca19	-0.047800157
193	0x3e11bdb5	0.14232524
194	0x3e1e1fd3	0.15441827
195	0x3d7fcade	0.06244933
196	0xbda50ca8	-0.080590546
197	0xbd88e336	-0.06683962
198	0x3d9b2eaf	0.075772636
199	0xbdc5cb0a	-0.09657867
200	0x3b50427a	0.0031777904
201	0xbd40fb71	-0.047114793
202	0x3dc01323	0.0937865
203	0x3d0ccc96	0.034374796
204	0x3deba679	0.115063615
205	0x3b7e6640	0.003881827
206	0xbe15d99a	-0.1463379
207	0xbdbb3a33	-0.0914196
208	0x3d1b3f1d	0.037901986
209	0x3dac8820	0.08424401
210	0xbd915d11	-0.07097829
211	0x3c256d7c	0.010096904
212	0x3db07d81	0.08617688
213	0x3dec643b	0.11542555
214	0x3cfdfa32	0.031003091
215	0x3e22a3cb	0.15882795
216	0x3da05e99	0.07830543
217	0x3e0216ca	0.12704006
218	0x3daef0b7	0.085420065
219	0xbe18a4ef	-0.14906667
220	0x3dc4718e	0.09591971
221	0xbcbaa4e1	-0.022783699
222	0x3cc330ac	0.02382692
223	0xbdee9c6c	-0.11650929
224	0x3e148312	0.14503124
225	0x3c294cf6	0.01033329
226	0xbdc4c620	-0.09608102
227	0xbd06a8cf	-0.032875832
228	0x3dbd5890	0.092454076
229	0xbe05e56c	-0.13075799
230	0x3cd83bf5	0.026395777
231	0x3dc3c40e	0.09558879
232	0x3c8fe59b	0.01756554
233	0x3d242e6c	0.040083334
234	0xbdc81b82	-0.09770872
235	0x3d9de499	0.07709617
236	0xbcbd27f1	-0.023090335
237	0xbe3969c1	-0.18106748
238	0x3da74733	0.08167877
239	0xbdcd36cb	-0.100202166
240	0xbd32e657	-0.0436767
241	0x3d334878	0.043770283
242	0xbdd5d99e	-0.10441898
243	0xbb862930	-0.0040942654
244	0x3e01ced6	0.12676558
245	0x3e00805b	0.12548964
246	0xbcb9f3f3	-0.022699332
247	0xbda44d26	-0.080225274
248	0x3dbec977	0.0931577
249	0x3e155476	0.14583
250	0x3dbdb571	0.09263123
251	0x3df6ccae	0.12050758
252	0x3dbb91d3	0.09158673
253	0xbe061323	-0.13093238
254	0xbaa63152	-0.0012679494
255	0x3d1e766c	0.038687155

4.bias f4 [128]
0	0xbd1753c8	-0.036945134
1	0x3d98302b	0.07431062
2	0x3de5eb03	0.112264656
3	0xbd9c1107	-0.07620435
4	0xbcbac5ab	-0.022799334
5	0x3ddee137	0.108828
6	0x3daa22a0	0.083073854
7	0xbdae896e	-0.085223064
8	0x3d88c72f	0.06678616
9	0x3d11588e	0.035484843
10	0xbdd87c38	-0.10570568
11	0x3ce29ac0	0.027661681
12	0xbd798f2c	-0.060927555
13	0x3d80130f	0.06253635
14	0xbc965fe6	-0.018356275
15	0x3baa2a85	0.005193057
16	0xbd868d2b	-0.065698944
17	0xbdd2e87f	-0.10298251
18	0x39169ca7	0.00014363472
19	0xbc96f3f3	-0.01842687
20	0xbcfeeccd	-0.031118775
21	0xbd0e5cce	-0.034756474
22	0xbd6bd29c	-0.0575739
23	0x3c95cf62	0.018287364
24	0x3d7a39f7	0.061090436
25	0xbe0e2f83	-0.13885312
26	0x3dab63f7	0.08368676
27	0xbdf14c08	-0.1178208
28	0x3dc70205	0.09717182
29	0x3b8794f8	0.0041376315
30	0xbba7fb2e	-0.0051263785
31	0xbd1774a3	-0.036976468
32	0xbdb5fed6	-0.08886497
33	0x3d9e9f1f	0.07745194
34	0xbdc8f138	-0.09811634
35	0x3ddcb502	0.10776712
36	0xbe05f761	-0.13082649
37	0x3db5c1fd	0.08874891
38	0xbddb0343	-0.106939815
39	0xbb31af10	-0.0027112402
40	0xbca01c87	-0.019544853
41	0x3da9be95	0.08288304
42	0xbd64965b	-0.055807453
43	0xbda30c82	-0.0796137
44	0x3d2e1d28	0.042508274
45	0xbba0e31d	-0.0049098865
46	0x3e3f6d77	0.18694101
47	0xbc836672	-0.01604006
48	0xbddcc6b5	-0.10780088
49	0x3d9f093c	0.07765433
50	0x3db596be	0.088666424
51	0xbcbe2116	-0.023209136
52	0x3dff794b	0.12474307
53	0x3dadad4a	0.08480318
54	0xbe12368b	-0.14278619
55	0x3ca0b21c	0.01961618
56	0x3d63ec3f	0.055645224
57	0x3da490dd	0.08035443
58	0x3d7cac92	0.061688013
59	0xbc92ae20	-0.017905295
60	0xbd0779d9	-0.033075187
61	0x3dfb23ed	0.12262712
62	0x3c8dac57	0.017294092
63	0xbdecf867	-0.115708165
64	0x3e16e1cb	0.1473457
65	0xbdf73715	-0.12071053
66	0xbd2881f5	-0.04113956
67	0xbd496e9c	-0.04917775
68	0x3dd5606b	0.10418781
69	0xbda3781d	-0.07981894
70	0x3e05d2d6	0.13068709
71	0x3dabf04f	0.083954446
72	0x3d90e7d1	0.070754655
73	0xbe1f80ac	-0.15576428
74	0xbd387290	-0.04503113
75	0xbd826475	-0.06366817
76	0x3d4673e2	0.04845036
77	0x3d7c534e	0.061602883
78	0xbcd0c1e0	-0.025483072
79	0xbd2d3844	-0.042289987
80	0x3d8a7a39	0.06761593
81	0xbc2af441	-0.010434211
82	0x3d877da0	0.06615758
83	0xbde33d7b	-0.11095711
84	0xbcb4767e	-0.022029158
85	0xbdb2436a	-0.087042645
86	0xbdb52a06	-0.08845906
87	0xbc897840	-0.016780972
88	0xbdaa4d41	-0.08315516
89	0xbd4ea045	-0.050445814
90	0xbde9760a	-0.11399467
91	0xbd2c1154	-0.042008713
92	0x3ddc9844	0.1077123
93	0xbd6deb92	-0.058085985
94	0x3de7ff15	0.1132795
95	0xbe0a8324	-0.13526589
96	0xbdc8a841	-0.09797717
97	0xbdf1e212	-0.118106976
98	0xbc8ae3d3	-0.016954338
99	0xbdc8fe12	-0.09814085
100	0xbb98648a	-0.004650657
101	0x3d012734	0.031531528
102	0x3d7b19d9	0.061303947
103	0xbd3f1599	-0.046651457
104	0xbdbc35d9	-0.09189958
105	0x3dcba49e	0.099435076
106	0xbd4b28c0	-0.04959941
107	0xbd12a3bc	-0.03580068
108	0xbd8e2b2a	-0.06941827
109	0xbd377e29	-0.04479805
110	0xbd4d91d4	-0.0501879
111	0x3ddd0864	0.10792616
112	0xbd2c0263	-0.041994464
113	0x3db350a1	0.08755613
114	0xbda2fbe9	-0.07958204
115	0x3d2b7846	0.04186275
116	0x3d5b12cc	0.053484723
117	0xbd1909f8	-0.037363023
118	0xbda0cef7	-0.078519754
119	0x3d355ebf	0.04427981
120	0x3d3dc559	0.046330784
121	0x3d9d4776	0.07679646
122	0x3d0a39cd	0.03374653
123	0xbd2131ee	-0.039354257
124	0x3d79355d	0.060841907
125	0xbdc4dcc9	-0.09612424
126	0x3ce60cbb	0.028082242
127	0x3df3d0b0	0.11905038

6.weight f4 [256, 128]
0	0x3d5d01f0	0.053956926
1	0xbdc6753c	-0.096903294
2	0xbcee0552	-0.029055271
3	0xbd60396e	-0.05474227
4	0xbd4ce89b	-0.050026517
5	0x3d2231a8	0.039598137
6	0x3dd4a6f7	0.103834085
7	0x3d877752	0.066145554
8	0x3be24b8d	0.006905979
9	0x3d8a3cbc	0.067498654
10	0x3c564e40	0.01308018
11	0xbd2938df	-0.041314002
12	0xbd6bfa8a	-0.05761198
13	0xbd7e39d5	-0.06206687
14	0xbcff79ec	-0.031186067
15	0x3d2426cc	0.040076062
16	0xbdb8536c	-0.090002865
17	0x3df1723f	0.11789369
18	0xbd24e685	-0.040258903
19	0x3d8d623a	0.06903501
20	0x3d89c559	0.06727094
21	0x3d62dd2d	0.05538671
22	0x3de29e74	0.11065379
23	0x3ccb9978	0.024853453
24	0x3d26d302	0.040728576
25	0xbd1e8c8c	-0.038708255
26	0x3d8b6dc2	0.06808044
27	0x3d31e5aa	0.043431915
28	0x3d16b398	0.036792368
29	0x3d8f3c71	0.0699395
30	0x3d76f2d9	0.06029019
31	0x3d54eab4	0.051981643
32	0xbd945d1d	-0.072443224
33	0xbd1709a6	-0.036874436
34	0x3d9e024f	0.07715284
35	0x3cdee0e8	0.027206853
36	0x3d4b0e7c	0.04957436
37	0xbbdc0d9e	-0.0067154905
38	0xbcf5732b	-0.029962143
39	0x3de9b242	0.11410953
40	0x3d1d430b	0.038394015
41	0xbdb44482	-0.08802129
42	0xbd59cfd5	-0.05317672
43	0x3ddef4fe	0.10886572
44	0x3d096b96	0.033549868
45	0xbdd76d47	-0.1051889
46	0x3c4b2e26	0.012401139
47	0xbc296f0c	-0.010341417
48	0xbca36b56	-0.019948643
49	0xbdd0c992	-0.101946965
50	0xbd7522b6	-0.059847556
51	0xbc9cc1fc	-0.019135468
52	0xbd1bfbd5	-0.038081963
53	0x3d8aa3f7	0.06769555
54	0x3dcdedfc	0.100551575
55	0x3ce9fc09	0.028562563
56	0x3c2d6951	0.010584191
57	0x3d9cd2e0	0.07657409
58	0xbdc2b084	-0.09506324
59	0x3c00efc8	0.007869668
60	0xbd3a4d82	-0.045484073
61	0xbd763dd0	-0.060117543
62	0x3de29853	0.1106421
63	0x3e096412	0.1341708
64	0xbdb5345e	-0.08847879
65	0x3de24cdb	0.11049815
66	0xbd376912	-0.044777937
67	0x3dfad3f3	0.12247457
68	0xbd2a9fdf	-0.04165637
69	0x3d852ab3	0.06502285
70	0xbd24f45b	-0.040272098
71	0x3cb7b882	0.022426847
72	0x3dc485cf	0.095958345
73	0x3d8a3309	0.067480154
74	0xbda1588a	-0.078782156
75	0x3e069a18	0.1314472
76	0xbd3c6cfb	-0.04600237
77	0xbc05de9f	-0.008170753
78	0x3d8a42f9	0.06751055
79	0xbdb85df3	-0.090022944
80	0xbd9aac1a	-0.07552357
81	0x3db499ad	0.08818374
82	0xbc65409f	-0.013992458
83	0x3ccc3033	0.024925327
84	0xbd4d868c	-0.050177142
85	0x3c3721de	0.011177508
86	0x3c880559	0.016604112
87	0x3d888fd7	0.0666806
88	0x3db09ca3	0.08623626
89	0x3c04c841	0.008104385
90	0x3d287024	0.04112257
91	0x3d6d212e	0.05789297
92	0xbbef177a	-0.0072965
93	0xbd2011b0	-0.039079368
94	0xbd252708	-0.040320426
95	0x3cefc71c	0.029269747
96	0x3dbe3c05	0.092887916
97	0x3dafa6f9	0.085767694
98	0x3dae56c9	0.08512647
99	0x3d2882ad	0.041140247
100	0x3df28297	0.11841314
101	0x3df399f5	0.11894599
102	0xbd418a7e	-0.047251217
103	0x3cb81590	0.02247122
104	0x3dceb567	0.100931935
105	0xbe0260cb	-0.12732236
106	0x3d156eaa	0.03648249
107	0x3d7a2a4a	0.061075486
108	0x3d4c3f72	0.049865194
109	0x3d064160	0.03277719
110	0xbd8b491d	-0.068010546
111	0x3db4a963	0.088213705
112	0xbd35af32	-0.044356532
113	0x3cc11cb1	0.023573251
114	0x3d965fa9	0.073424645
115	0xbcd25362	-0.025674526
116	0xbd952248	-0.07281929
117	0xbd91ea62	-0.07124783
118	0xbcf20d81	-0.029547455
119	0xbd5318df	-0.05153739
120	0xbddd1bc1	-0.10796309
121	0x3c0a796b	0.0084518
122	0x3cd2642b	0.02568253
123	0x3c781e01	0.015143872
124	0xbd1c986c	-0.0382313
125	0xbb90e3d1	-0.004421689
126	0x3cca74c1	0.024713876
127	0x3dac6c64	0.08419111
128	0x3dda1400	0.10648346
129	0xbceffd46	-0.029295575
130	0xbe009097	-0.12555157
131	0xbd87ac25	-0.06624631
132	0xbd228ad6	-0.039683186
133	0xbd1894b5	-0.037251193
134	0x3a3e093e	0.0007249302
135	0xbd0655e3	-0.03279675
136	0x3d3342d3	0.0437649
137	0x3d25b881	0.04045916
138	0x3cf28b40	0.029607415
139	0x3e0e0707	0.13869868
140	0xbb823e80	-0.0039747357
141	0x3da3e019	0.080017276
142	0xbd7059b9	-0.058679316
143	0x3d16eb99	0.036845777
144	0x3dda9c5c	0.106743544
145	0x3d853d5b	0.06505843
146	0x3e10477a	0.14089766
147	0x3dc8b46c	0.09800038
148	0x3e0b3471	0.13594224
149	0xbae231c0	-0.0017257258
150	0xbd56d31d	-0.052447427
151	0x3db7b9e4	0.08971003
152	0xb8b458f7	-8.59964e-05
153	0xbbc1c640	-0.005913526
154	0x3de9b4c3	0.11411431
155	0xbbc4a6e0	-0.0060013384
156	0xbd09d1f2	-0.033647485
157	0x3e1e3af1	0.15452172
158	0xbcb712d0	-0.022347838
159	0x3e0b481c	0.13601726
160	0x3e45bb00	0.19309616
161	0x3cb0af95	0.021568099
162	0x3e11d777	0.1424235
163	0x3df41e9b	0.119199
164	0xbbc12460	-0.005894229
165	0x3d6d98ad	0.05800693
166	0x3c59d6e1	0.01329586
167	0xbd986d1d	-0.07442687
168	0x3b0a6efd	0.0021123283
169	0xbcc32fa5	-0.02382643
170	0x3e01bc89	0.12669577
171	0x39f15c3a	0.00046035816
172	0x3d847406	0.06467442
173	0xbd797900	-0.06090641
174	0xbd9126ee	-0.070875034
175	0x3dbf0f02	0.093290344
176	0x3d9111a1	0.070834406
177	0x3d2973fb	0.041370373
178	0x3cd43e0d	0.025908494
179	0x3d2a54dd	0.04158484
180	0x3d5efbe8	0.054439455
181	0x3e022bfa	0.12712088
182	0x3d419457	0.04726061
183	0x3dea724d	0.114475824
184	0x3d5cdb9d	0.053920377
185	0x3e0a8f82	0.13531306
186	0x3d756df2	0.059919305
187	0x3b036a11	0.0020052234
188	0x3dc42584	0.09577468
189	0xbdac2e0d	-0.08407221
190	0x3dc7a367	0.097479634
191	0x3e4cde70	0.20006728
192	0xbceba8cd	-0.028767014
193	0xbca00230	-0.019532293
194	0x3bebfe52	0.007201948
195	0x3c73d3fd	0.014882085
196	0x3dcdc4e2	0.10047318
197	0x3dc74ff3	0.09732046
198	0xbd85d719	-0.06535167
199	0x3d6a685e	0.05722844
200	0xbdf03c94	-0.11730304
201	0x3c8739f0	0.016507119
202	0xbd1b7986	-0.03795769
203	0xbd338b05	-0.04383375
204	0xbdb6b2c1	-0.08920813
205	0xbe186769	-0.14883198
206	0xbd85fcca	-0.06542356
207	0x3e32e0a0	0.174685
208	0x3e0f8757	0.14016472
209	0xbdb266af	-0.087109916
210	0xbda28846	-0.07936148
211	0xbda378b6	-0.07982008
212	0xbd84203c	-0.06451461
213	0x3d0697a2	0.032859452
214	0xbcf201da	-0.029541899
215	0x3da18ba5	0.07887963
216	0x3d095372	0.033526845
217	0x3d711350	0.05885631
218	0xbc53da14	-0.012930412
219	0xbd5b3f95	-0.053527433
220	0x3d747356	0.059680305
221	0xbd17fe58	-0.037107795
222	0xbd9e4772	-0.07728471
223	0xbd3d2bbc	-0.046184286
224	0xbdabf69a	-0.08396645
225	0x3cc4b6e2	0.024012987
226	0xbb01c4de	-0.001980118
227	0x3e102e57	0.14080177
228	0xbbeb6fdc	-0.0071849655
229	0x3e1b69b8	0.15177047
230	0xbcf3ae71	-0.029746266
231	0xbb8153bb	-0.003946749
232	0x3d366a7a	0.044535138
233	0x3da60546	0.081064746
234	0x3df6fb1c	0.12059614
235	0xbd8844b8	-0.06653732
236	0x3e08b447	0.1335002
237	0xbd927e6d	-0.0715302
238	0x3c91bac1	0.017789247
239	0xbd2de165	-0.04245128
240	0xbd0b741c	-0.034046277
241	0xbdc9b8e4	-0.09849718
242	0x3d820bd6	0.06349914
243	0xbe70ce84	-0.2351628
244	0xbd8000ec	-0.06250176
245	0x3da78d1d	0.08181212
246	0xbceb5641	-0.028727653
247	0xbdbb7457	-0.091530494
248	0xbd80b577	-0.06284612
249	0xbd7237be	-0.05913519
250	0xbda34813	-0.079727314
251	0x3da44ee9	0.080228634
252	0xbe04074b	-0.12893407
253	0x3cb33a0a	0.021878261
254	0x3bdfd086	0.006830278
255	0xbd32f33c	-0.043688998

6.bias f4 [256]
0	0xbc833933	-0.016018486
1	0xbd90c3db	-0.070686065
2	0xbc10ffe4	-0.008850072
3	0xbdc15d4a	-0.094416216
4	0xbc620c14	-0.013796825
5	0x3d5a8d8a	0.05335764
6	0xbdb9019e	-0.090335116
7	0xbd764176	-0.060121022
8	0x3d8d59d8	0.06901902
9	0x3d523277	0.05131766
10	0xbd153fd8	-0.03643784
11	0xbcb3f611	-0.02196792
12	0xbd4a8f34	-0.049452975
13	0xbcde7e96	-0.02715997
14	0xbbcad08f	-0.006189413
15	0xbd8c31bb	-0.06845423
16	0xba35c6f7	-0.000693425
17	0x3daf9a89	0.08574397
18	0xbc4ffcc6	-0.012694543
19	0xbc5d6865	-0.013513659
20	0xbcbc0ba0	-0.022954762
21	0xbcd26016	-0.025680583
22	0xbd777cd7	-0.06042179
23	0x3b5a4039	0.003330244
24	0xbd8ed7ba	-0.0697474
25	0x3cf00347	0.029298438
26	0x3c5672b1	0.013088868
27	0xbd19dfb1	-0.037566844
28	0xbdaa836c	-0.08325848
29	0xbd885e13	-0.06658568
30	0xbd7c759a	-0.06163559
31	0x3db4a64b	0.0882078
32	0xbc9fc652	-0.019503746
33	0xbcbde3a0	-0.02317983
34	0x3db62a92	0.088948384
35	0xbd67c4dd	-0.056584228
36	0xbcbf95bd	-0.02338683
37	0xbdb2ed19	-0.08736629
38	0x3db89c50	0.09014189
39	0xbdb840ee	-0.08996759
40	0xbce6bb3b	-0.02816545
41	0x3d090885	0.03345539
42	0xbb508bb5	-0.0031821553
43	0xbd6ccfb8	-0.057815284
44	0xbbc319c1	-0.005953998
45	0x3c3c524b	0.01149423
46	0x3c67dad0	0.01415129
47	0xbd00ef67	-0.031478312
48	0xbdc6e3e4	-0.097114354
49	0x3d870678	0.06593031
50	0xbd8d4b7a	-0.06899162
51	0xbd598318	-0.053103536
52	0xbc6032a8	-0.013683952
53	0xbd3e2e00	-0.046430588
54	0x3d832442	0.064034
55	0xbd8595d1	-0.06522716
56	0xbd7de768	-0.061988264
57	0xbd9e7b99	-0.07738418
58	0xbda5fbb3	-0.081046484
59	0x3d61e81b	0.055152994
60	0xbd83d491	-0.06437028
61	0xbd870158	-0.06592053
62	0x3d876018	0.06610125
63	0xbd9adf5f	-0.07562136
64	0x3d7909f8	0.060800523
65	0x3ce5a896	0.02803449
66	0xbde6bdfa	-0.11266704
67	0x3d989032	0.07449378
68	0xbd89f2ab	-0.06735738
69	0xbd623b77	-0.05523249
70	0xbc6cde63	-0.014457318
71	0xbd509cc0	-0.05093074
72	0xbd82ece8	-0.063928425
73	0xbd96753d	-0.0734658
74	0x3dfba3e3	0.12287118
75	0xbd956d04	-0.07296184
76	0xbdecd9f2	-0.11565007
77	0x3d71882a	0.058967747
78	0x3d1ad834	0.037803844
79	0xbd631c76	-0.055447064
80	0x3ddcb1bd	0.107760884
81	0xbdc8ff5a	-0.098143294
82	0x3cac656c	0.021044455
83	0x3dc550f5	0.09634582
84	0xbcd58903	-0.026066309
85	0x3dd96672	0.10615243
86	0xbda08c0c	-0.07839212
87	0xbd6a8f86	-0.05726578
88	0xbdb01cba	-0.08599229
89	0xbb8f642d	-0.0043759556
90	0x3ce4f22d	0.02794751
91	0xbcfdabd0	-0.030965716
92	0xbd14c95d	-0.036324847
93	0x3ba60e99	0.005067658
94	0xbd8bee37	-0.06832545
95	0xbd15e2a4	-0.036593094
96	0xbb9e5604	-0.004832031
97	0x3d6ec507	0.05829337
98	0x3d0abac4	0.03386952
99	0xbd6ca886	-0.057777904
100	0xbd02fe49	-0.031980786
101	0xbd9e2180	-0.07721233
102	0xbc8d0c5f	-0.017217813
103	0xbcf38725	-0.029727528
104	0x3cfd8216	0.030945819
105	0xbac7d772	-0.0015246703
106	0x3bfeeb00	0.007779479
107	0xbd2bb2c4	-0.04191853
108	0xbdc44106	-0.09582715
109	0x3d4971dd	0.049180854
110	0xbdc5de38	-0.096615255
111	0x3d880209	0.06641013
112	0xbd49697c	-0.049172863
113	0xbdbe6b4a	-0.092978075
114	0x3d850ad4	0.06496206
115	0xbcb648e6	-0.022251558
116	0xbdc0e0c0	-0.09417868
117	0xbd0a8c8c	-0.033825442
118	0xbc8c1209	-0.017098444
119	0x3d623859	0.05522952
120	0x3cecb0f4	0.028892972
121	0xbdb6df06	-0.08929257
122	0x3c718e14	0.014743347
123	0xbcf95b08	-0.030438915
124	0x3cfb2369	0.030656533
125	0x3d259a5d	0.040430415
126	0xbb3f846c	-0.0029223217
127	0xbd8455c9	-0.06461675
128	0x3d8d19d8	0.06889695
129	0xbc40b3fd	-0.011761663
130	0xbce438ac	-0.027859055
131	0xbcfac22f	-0.030610172
132	0x3c399e85	0.011329298
133	0x3d41bf0d	0.04730134
134	0x3d808abe	0.06276463
135	0x3b2161c3	0.002462492
136	0xbd63b8a7	-0.05559602
137	0x3c673aa3	0.014113101
138	0xbd3311f6	-0.0437183
139	0x3daf8ce9	0.08571798
140	0x3c88e825	0.016712258
141	0x3bf08bc2	0.007340879
142	0xbdbcfa57	-0.09227436
143	0xbdb7c7c6	-0.08973651
144	0xbd63b202	-0.055589683
145	0xbd68bc34	-0.05682011
146	0xbcce7196	-0.025200646
147	0x3d544369	0.0518221
148	0xbce212b9	-0.027596818
149	0xbdbee093	-0.09320178
150	0x3c1fdc5e	0.0097571295
151	0x3d0c8e9e	0.034315698
152	0xbcf2c592	-0.029635224
153	0xbc90595c	-0.017620735
154	0x3d75ec5f	0.060039874
155	0x3c873134	0.016502954
156	0xbdcb3363	-0.099219106
157	0x3d064bd0	0.032787144
158	0xbd6d6190	-0.05795437
159	0xbd65b1e5	-0.056077857
160	0x3d87133f	0.06595468
161	0xbc50ff50	-0.012756184
162	0x3ba3948e	0.0049920743
163	0x3cbfedc9	0.023428814
164	0x3d93ee95	0.0722324
165	0x3d2e790f	0.04259592
166	0x3cdecc4f	0.027197031
167	0xbda6de80	-0.08147907
168	0x3dbc058d	0.09180746
169	0x3d50e84a	0.051002778
170	0xbd81a6a2	-0.06330611
171	0xbdc6ffd3	-0.09716763
172	0xbd7de639	-0.061987136
173	0xbc9a304a	-0.018821854
174	0x3d0af883	0.033928405
175	0x3c903405	0.01760293
176	0xbdb630de	-0.088960394
177	0x3ca8f4d6	0.02062456
178	0x3ab02c26	0.0013440892
179	0xbbffcbe8	-0.00780629
180	0x3d5039fe	0.050836556
181	0x3d1ef841	0.038810972
182	0xbd7d6030	-0.06185931
183	0x3d46c88b	0.048531096
184	0x3d562b5c	0.052287444
185	0xbd82916b	-0.063753925
186	0x3d301605	0.04298975
187	0xbc2ca13a	-0.010536486
188	0x3d587085	0.052841682
189	0x3d93a499	0.07209129
190	0xbd3aa5a3	-0.04556812
191	0xbd87d49b	-0.06632348
192	0x3cf63383	0.03005386
193	0xbdf357ff	-0.11882018
194	0xbd236de9	-0.03989974
195	0xbdc20a33	-0.094746016
196	0xb9b74d2b	-0.00034961975
197	0x3d558a96	0.05213412
198	0xbd77b067	-0.060470965
199	0x3d610f3d	0.054946173
200	0x3bba90eb	0.005693545
201	0x3d86e6af	0.06586968
202	0x3dce0ff1	0.10061634
203	0xbdb419a7	-0.08793955
204	0xbd857382	-0.06516172
205	0xbc36df72	-0.011161672
206	0x3bb9a261	0.005665109
207	0xbcf43d78	-0.029814467
208	0x3d6192db	0.055071693
209	0xbcf881c8	-0.030335322
210	0x3cdd11a3	0.026985949
211	0x3d86e66a	0.06586917
212	0x3cffab0b	0.03120949
213	0xbd98994f	-0.07451116
214	0xbd9a2978	-0.07527441
215	0xbd0d50bd	-0.034500826
216	0xbd27b410	-0.040943205
217	0x3c12343d	0.008923587
218	0xbc79e470	-0.015252218
219	0xbd16eaa8	-0.03684488
220	0x3dc24813	0.09486403
221	0xbcb1466f	-0.02164003
222	0xbd0241fb	-0.031801205
223	0xbd252695	-0.040319998
224	0xbd3e4ed3	-0.04646189
225	0xbdbe2123	-0.09283664
226	0xbd83a33c	-0.06427619
227	0x3d94d615	0.072673954
228	0xbdbb67af	-0.091506355
229	0x3c8dc8cd	0.017307663
230	0x3cfd8047	0.030944956
231	0x3d84b639	0.06480069
232	0xbc9017de	-0.017589506
233	0x3d89b117	0.0672323
234	0xbd159794	-0.03652151
235	0x3d81ae19	0.063320346
236	0xbc6038d5	-0.013685425
237	0x3d9ec85c	0.07753059
238	0x3d097c99	0.03356609
239	0xbc5db25c	-0.013531294
240	0xbcdf7674	-0.027278163
241	0xbb2658c9	-0.002538251
242	0x3c8bfd83	0.017088657
243	0xbd0c4845	-0.03424861
244	0xbd3b77ec	-0.045768663
245	0xbc669435	-0.014073421
246	0xbd20b574	-0.039235547
247	0x3d1056b2	0.03523893
248	0x3d598d4b	0.053113263
249	0xbcd3e777	-0.025867207
250	0x3d0ecf31	0.034865562
251	0xbd0bd109	-0.0341349
252	0xbcbba638	-0.022906408
253	0x3d53161e	0.051534764
254	0xbc4e19e2	-0.012579413
255	0xbcaec797	-0.021335406

8.weight f4 [128, 256]
0	0x3c0fb4db	0.008771147
1	0x3bdd1000	0.006746292
2	0x3cf7902e	0.030220117
3	0xbcee25ec	-0.029070817
4	0xbd333fca	-0.043762006
5	0xbca3ebf0	-0.020009965
6	0x3d24632c	0.04013364
7	0xbd142d4a	-0.036176004
8	0x3cd02295	0.025407115
9	0xbd7679e9	-0.060174856
10	0xbd47533e	-0.04866337
11	0xbd1e3af3	-0.038630437
12	0xbd6091e7	-0.054826643
13	0xbc34b5dc	-0.011029687
14	0x3cad0811	0.02112201
15	0x3c84ac8e	0.016195562
16	0x3d439bab	0.04775588
17	0xbcd771ab	-0.026299318
18	0x3d8acfe4	0.06777933
19	0x3d392f69	0.04521123
20	0xbd6d2fef	-0.05790704
21	0x3d756ac6	0.05991628
22	0xbc88aae0	-0.016683042
23	0xbde16411	-0.11005414
24	0xbd82878c	-0.0637351
25	0x3dab24af	0.08356606
26	0xbdb128c2	-0.08650352
27	0x3dc65fca	0.09686239
28	0xbc735b78	-0.014853351
29	0x3cd598da	0.026073862
30	0xbc8b740d	-0.01702311
31	0x3d4eca53	0.05048592
32	0x3bdc4f06	0.0067232875
33	0x3da90c87	0.082543425
34	0xbe098d65	-0.13432844
35	0xbdc75454	-0.09732881
36	0xbddd3ad1	-0.10802234
37	0x3c89e8cd	0.01683464
38	0x3b939246	0.004503521
39	0x3d166d1e	0.036725156
40	0x3d3a8ed7	0.04554638
41	0x3cd030ff	0.025413988
42	0xbd0c9169	-0.03431836
43	0x3d7aa8cc	0.061196133
44	0x3d38208d	0.044952918
45	0x3c3939cd	0.011305285
46	0x3df56868	0.119828045
47	0xbcafeedc	-0.021476202
48	0x3d4a5840	0.049400568
49	0xba538653	-0.0008069027
50	0x3c8a90a0	0.016914666
51	0x3df8a9b5	0.12141744
52	0x3d3a362b	0.045461815
53	0x3d4fb1fd	0.050706852
54	0x3d637702	0.055533417
55	0xbce6a195	-0.02815322
56	0xbca75823	-0.020427769
57	0x3d688678	0.056768864
58	0xbc22f624	-0.00994638
59	0xbc70d4f7	-0.014699212
60	0x3d0c0058	0.034180015
61	0x3d3b94f0	0.045796335
62	0xbda1198c	-0.07866201
63	0xbd3fc350	-0.046817124
64	0x3dc1db1b	0.09465619
65	0x3d6dc70a	0.058051147
66	0x3d80f887	0.06297403
67	0xbcc388d8	-0.023868963
68	0x3caf136f	0.021371571
69	0xbcf45a3b	-0.029828181
70	0xbce91f8c	-0.028457426
71	0xbd215105	-0.039383907
72	0x3cc416e7	0.023936702
73	0x3cee3269	0.029076772
74	0xbcc98a31	-0.024602028
75	0xbc142234	-0.009041358
76	0x3d5cfd19	0.05395231
77	0x3cb61a8e	0.02222946
78	0x3be21376	0.0068992926
79	0x3d1cb7c2	0.038261183
80	0xbd63d0ed	-0.05561917
81	0x3d4435ca	0.04790286
82	0x3d11adba	0.03556607
83	0x3db78339	0.089605756
84	0xba768910	-0.0009404579
85	0xbd687128	-0.05674854
86	0x3d14ce42	0.036329515
87	0x3c6705ab	0.014100472
88	0xbcb9a5f3	-0.022662139
89	0x3b2cf791	0.0026392678
90	0x3c6f7f6b	0.014617781
91	0xbc9d4608	-0.019198433
92	0x3c883c17	0.016630216
93	0x3d6d7db6	0.057981215
94	0xbc8a0ab5	-0.016850809
95	0xbdb46297	-0.08807867
96	0xbc7a7341	-0.015286268
97	0x3d239016	0.039932333
98	0x3d71fa67	0.059076693
99	0xbd244dfc	-0.040113434
100	0xbcb680ba	-0.022278178
101	0x3daf9a94	0.08574405
102	0xbd596370	-0.053073347
103	0x3d6b9e98	0.057524294
104	0x3dfb55b6	0.122722074
105	0x3bf03086	0.007330003
106	0x3d77f357	0.0605348
107	0x3cb1ce22	0.021704737
108	0xbd258f17	-0.040419664
109	0x3d03cca6	0.03217759
110	0xbd263efd	-0.040587414
111	0x3e02c639	0.12770928
112	0x3d105bb2	0.035243697
113	0x3dde8851	0.10865844
114	0x3d8e6028	0.06951934
115	0xbc575d9f	-0.01314488
116	0x3e04151f	0.12898682
117	0x3dc246fa	0.09486194
118	0x3c242d86	0.010020619
119	0x3cff1a2e	0.031140413
120	0x3cdfb91e	0.02730995
121	0xbb4c0025	-0.0031128016
122	0x3b933b76	0.0044931723
123	0x3ce268f2	0.027637932
124	0x3da315ee	0.07963167
125	0xbd9c92e1	-0.076452024
126	0xbd13e761	-0.036109332
127	0x3cf9d86b	0.030498704
128	0xbcf2451f	-0.029573975
129	0x3c2eb8f7	0.010664216
130	0x3d85d0b4	0.065339476
131	0x3d3267a4	0.04355587
132	0x3d47a58f	0.048741873
133	0x3cf15ba2	0.02946264
134	0xbc9b9b41	-0.01899493
135	0xbdec5237	-0.11539119
136	0x3ca0b373	0.019616818
137	0x3dc55e3a	0.09637113
138	0xbda204f6	-0.079111025
139	0xbd448c0e	-0.04798513
140	0x3d256899	0.040382955
141	0x3c35569d	0.0110680135
142	0x3d002e18	0.03129396
143	0xbc9ae6b9	-0.018908845
144	0x3d16cc5c	0.036815986
145	0xbd6806c2	-0.05664707
146	0xbd914794	-0.070937306
147	0x3d13177e	0.035911076
148	0x3dcb68a6	0.099320695
149	0xbd068877	-0.032844987
150	0x3cd3b23f	0.02584183
151	0x3a3bbbad	0.000716145
152	0x3d53993a	0.0516598
153	0xbb4a6953	-0.0030885532
154	0xbcd9c4de	-0.026583131
155	0xbd0d3224	-0.034471646
156	0xbd126500	-0.035740852
157	0x3d4b6ff5	0.049667317
158	0x3ceaccc7	0.028662099
159	0x3cacc90b	0.021091959
160	0x3cd11375	0.025521973
161	0x3c16c250	0.009201601
162	0x3d759459	0.05995593
163	0x3debbfc7	0.11511188
164	0xbddf3694	-0.10899082
165	0x3d1601b2	0.03662271
166	0xbce361c0	-0.027756572
167	0x3dbe77b9	0.09300179
168	0xbd7756c1	-0.06038547
169	0x3cfe2fe6	0.0310287
170	0x3d5e6e72	0.054304548
171	0xbd00735a	-0.031360008
172	0x3b9fcc1d	0.004876627
173	0x3c4d9d74	0.012549747
174	0xbbada418	-0.0052991025
175	0xbd41630f	-0.04721361
176	0xbd6fc4c5	-0.058537263
177	0x3c733b7e	0.014845727
178	0xbd8f1fd7	-0.06988495
179	0xbdc908f9	-0.098161645
180	0x3c18e3d7	0.009331665
181	0x3d20e9eb	0.03928558
182	0x3c724a4a	0.01478822
183	0x3d9dfe84	0.07714561
184	0xbc859541	-0.016306521
185	0x3d94bd24	0.07262638
186	0x3c6a38f5	0.014295806
187	0x3d2f67b9	0.042823527
188	0x3b32bd14	0.0027273344
189	0x3b2538ea	0.0025210925
190	0x3cf00910	0.029301196
191	0xbdef0586	-0.116709754
192	0x3dc35d5a	0.0953929
193	0x3d19f4e5	0.037587065
194	0xbd854447	-0.065071635
195	0xbd72b3bf	-0.05925345
196	0xbd6309b2	-0.055429168
197	0x3ce12c3c	0.027486913
198	0x3dbc94be	0.09208058
199	0xbcbd69b5	-0.023121694
200	0x3d6b84d2	0.057499714
201	0xbd9def5c	-0.0771167
202	0x3ca3b744	0.019984849
203	0xbd362955	-0.04447301
204	0x3dcf4bc0	0.1012187
205	0x3d8173e1	0.0632093
206	0x3d602fc5	0.054733057
207	0xbc96e809	-0.01842119
208	0x3af31ad4	0.0018547424
209	0xbd8890de	-0.06668256
210	0xbe17baeb	-0.14817397
211	0xbd35119b	-0.044206243
212	0xbcec2b0d	-0.028829122
213	0xb895d7d1	-7.1450726e-05
214	0xbd064d56	-0.032788597
215	0xbd761fc7	-0.0600889
216	0x3cedc476	0.029024344
217	0x3da94237	0.082645826
218	0x3d5d7c3f	0.05407357
219	0x3bc95e03	0.0061452403
220	0x3d00d3be	0.031451933
221	0x3cbec31e	0.023286399
222	0xbdda8420	-0.10669732
223	0x3ae0780c	0.001712562
224	0x3d3593dc	0.044330463
225	0xbd177c05	-0.03698351
226	0x3c288647	0.01028592
227	0x3dd807d7	0.1054837
228	0xbd83fa8c	-0.064442724
229	0x3d8f9f08	0.07012755
230	0xbd93d599	-0.07218475
231	0xbd80b8fc	-0.06285283
232	0x3cc4ccc8	0.024023429
233	0xbd3c9567	-0.04604092
234	0x3d1abe85	0.03777935
235	0xbd9099de	-0.07060598
236	0x3c5cdd82	0.013480546
237	0xbda7ded5	-0.08196799
238	0xbb508d26	-0.0031822412
239	0x3d0c3bd1	0.034236733
240	0x3c8b97a1	0.017040076
241	0x3acdde4a	0.0015706506
242	0xbd406b81	-0.046977524
243	0xbc3eb05e	-0.011638729
244	0x3d7f4810	0.062324584
245	0xbd522568	-0.051305205
246	0xbd768d3b	-0.06019328
247	0xbc427435	-0.011868526
248	0x3d33372f	0.0437538
249	0x3da5f064	0.081024915
250	0x3d49a466	0.04922905
251	0xbbb8032e	-0.0056156134
252	0xbd144fcb	-0.03620891
253	0x3d3c6ddd	0.04600321
254	0x3b030f42	0.0019998108
255	0x3cabf7ab	0.02099212

8.bias f4 [128]
0	0x3cccbc87	0.02499224
1	0xbd9fc3ad	-0.07800994
2	0xbbb737d1	-0.0055913706
3	0xbd4046be	-0.046942465
4	0xbd2b7e4f	-0.041868504
5	0x3ce51bc2	0.027967338
6	0x3d1ea5a7	0.038732197
7	0x3da763f3	0.08173361
8	0x3c6c23fb	0.014412875
9	0xbcb40f02	-0.021979813
10	0xbd3b3d3f	-0.045712706
11	0xbd4b6a94	-0.049662188
12	0xbb094ddf	-0.0020950956
13	0xbd8c6e35	-0.06856958
14	0x3cbc9a35	0.02302275
15	0x3d0f8294	0.03503664
16	0x3bdb9a92	0.006701776
17	0x3c2947d7	0.010332069
18	0x3cdd7883	0.027035004
19	0x3cdc4eb5	0.026893
20	0xbd91aeaa	-0.07113393
21	0xbd137c4c	-0.03600721
22	0x3d125ab1	0.03573102
23	0xbc3661b0	-0.011131689
24	0x3d0f04dd	0.034916747
25	0xbd50400c	-0.05084233
26	0xbd5bc20c	-0.053651854
27	0x3ce2642c	0.027635656
28	0x3cbf823a	0.023377527
29	0xbca37541	-0.019953372
30	0xbce84660	-0.02835387
31	0xbd84c477	-0.06482785
32	0x3d518657	0.051153507
33	0x3cedda80	0.029034853
34	0x3d91bb09	0.07115752
35	0xbc8e956b	-0.017405232
36	0x3b6de1a6	0.0036297827
37	0x3d105830	0.035240352
38	0xbccd0804	-0.025028236
39	0xbd66cc46	-0.056347154
40	0xbc51084f	-0.012758329
41	0xbd354e6c	-0.044264242
42	0xbd86d0bf	-0.06582784
43	0xbc5a5704	-0.01332641
44	0xbcf036e4	-0.029323049
45	0x3bd2c140	0.0064317286
46	0x3d0e3c15	0.034725267
47	0x3d534cbc	0.05158685
48	0xbb1ba150	-0.0023747273
49	0x3d224656	0.03961786
50	0xbd692a87	-0.056925323
51	0x3c73a095	0.014869829
52	0x3b9fe189	0.004879181
53	0xbc47b680	-0.0121895075
54	0x3ca374d4	0.019953169
55	0xbc0887ba	-0.008333141
56	0xbd89741c	-0.06711599
57	0x3cc80b4a	0.024419446
58	0x3cc29f9c	0.023757748
59	0x3d33d974	0.04390855
60	0x3d876edf	0.06612944
61	0x3d363dfc	0.044492707
62	0xbd37b75b	-0.044852596
63	0xbc9936f1	-0.018702956
64	0x3d46a76d	0.048499513
65	0xbbf54642	-0.007485182
66	0x3d024953	0.03180821
67	0xbbc0e94b	-0.0058871857
68	0xbcdea0f1	-0.027176352
69	0xbd0ed236	-0.03486844
70	0xbd75824e	-0.05993872
71	0xbd818932	-0.06324996
72	0xbda2ad2e	-0.07943188
73	0xbb4beb4b	-0.0031115587
74	0x3d605281	0.05476618
75	0x3d604d98	0.0547615
76	0xbcc2eb7c	-0.023793928
77	0x3ce0a51b	0.027422478
78	0xbd043347	-0.032275464
79	0xbd44d0c5	-0.04805066
80	0xbbdc492f	-0.0067225914
81	0x3c526239	0.012840801
82	0xbcef068c	-0.029177926
83	0xbc1da8de	-0.009622781
84	0x3cd89c88	0.026441827
85	0xbc680c0e	-0.01416303
86	0xbcc386de	-0.02386802
87	0x3cf493c6	0.02985562
88	0x3cfd7397	0.030938907
89	0xbcfad5ff	-0.03061962
90	0xbda88466	-0.08228378
91	0x3b25dd1e	0.0025308798
92	0xbb9f64d7	-0.004864316
93	0xbd384a79	-0.044992898
94	0xbd63d40c	-0.055622146
95	0x3c92fa05	0.017941484
96	0xbd89326d	-0.06699071
97	0xbc9f759e	-0.019465264
98	0xbd12d5e2	-0.035848506
99	0xbcd8b308	-0.026452556
100	0xbd58b8ee	-0.052910738
101	0xbce7ffbc	-0.028320186
102	0x3d0d1210	0.034441054
103	0x3b10c935	0.0022092585
104	0xbd9d91a0	-0.076937914
105	0x3d17322c	0.036913082
106	0x3d2c2eda	0.04203687
107	0x3d14a118	0.036286443
108	0xbd412c33	-0.047161292
109	0xbc387762	-0.011258932
110	0x3b02e49a	0.0019972683
111	0x3c6fca23	0.0146355955
112	0x3d58fcf1	0.0529756
113	0x3d726d3b	0.0591862
114	0xbcb99149	-0.022652285
115	0xbd8afa3e	-0.06786011
116	0xbd047b26	-0.032344006
117	0x3bd1ec84	0.0064063687
118	0xbcae292b	-0.021259865
119	0x3d54e038	0.051971644
120	0x3d1d0f7d	0.03834485
121	0x3cf733ed	0.030176127
122	0xbda4c833	-0.080459975
123	0x3cdec33f	0.02719271
124	0x3d3ca8ff	0.046059605
125	0x3ae36bae	0.0017350817
126	0xbc90cf65	-0.017677018
127	0xbd5fc192	-0.054627962
