models/checkpoint125.pth.tar (torch_old, 355795 bytes, 16 tensors)

0.weight f4 [32, 26]
00000000: 3011 53bd b22e 163d b4d8 8abc 7ccf 433e
00000010: fb14 433d 2baa f73d 8e9b 5c3e f523 5e3e
00000020: a2c5 9a3c a24c 463e ef51 1f3e d890 fdbc
00000030: 2070 e6bc 1efb 5f3c 5a78 9cbc 1287 243e
00000040: 2363 17be cf09 343e e313 77bd 0340 7b3e
00000050: 152f 16be 5a34 34be 95b7 bb3d da13 b93d
00000060: c15a c93d 3462 2f3e 6f4a d4bd 47e4 1d3e
00000070: c2fc 1cbe 1ab3 a6bd d80c 09be f586 e8bd
00000080: 9dfa b7bd 3938 2abe dd06 2abd 96ba 153e
00000090: da67 833d d0b0 dcbd 205d d93d 56c4 e63d
000000a0: 86bc f53d b802 4e3e 71c6 6f3e da34 6f3c
000000b0: 11c3 a93d 116b 043e 59cf eb3c 5218 c93d
000000c0: c1d4 4abd a25e 32bd 3b0e 3e3e 9a9d 4dbe
000000d0: 5379 cd3b de60 003c f2fb 3ebe 33b1 48be
000000e0: 1c24 023e c99b 4b3e 13d0 4c3e d6f1 92bd
000000f0: f5bb ab3b 15e1 d5bd 8701 373e 9d5d 2b3e
00000100: 2709 61bd 4ce1 a43d f52a 3f3e 8786 86bd
00000110: 431d f2bd f0b3 db3d 7feb 1b3c 8aaf 353e
00000120: 54ec 373e f42b c4bd ed43 09be e447 aabd
00000130: e84c bc3d bce2 e1bd 5f27 0b3e fc4b 853d
00000140: defa 58bc 9fa8 fc3d adcc a1bd 843e d3bd
00000150: 7ec8 1cbe ac74 453e 63d6 3e3e 17cc 54bd
00000160: d296 bbbc f5e5 64bd d68e 30be f4aa 123d
00000170: 5841 0dbe c109 783d e1a6 cbbd 9b7b d7bd
00000180: 1760 2d3d a53a dd3d f678 5c3e 4a8e 3c3d
00000190: cb36 09bb f0a4 e53d 6a83 82bd 48cf 51bd
000001a0: 3798 573e 9c24 1c3c fb05 483e 8856 393d
000001b0: 5546 863d c432 0a3d 7f38 963d 64b8 933d
000001c0: 9d8a 90bd f848 5dbe d0d0 cb3c ceb0 a73d
000001d0: 224b 8fbd 2c8f 6dbb 2390 353e de9b 07be
000001e0: cb0e 7d3e 80a4 23be e82d e9bd 835e 28be
000001f0: 8e02 fabc a292 f8bc eee2 2d3d da55 7bbd
00000200: b12b ed3d 6dfc f53d baa9 0c3e 44e7 fabd
00000210: 26e8 f73d 5c65 46be fba8 543c 2868 6b3c
00000220: 860b df3c 3694 15bd a866 66bd 9d8b 273d
00000230: c131 583e 3996 a7bd 8912 153e a783 123e
00000240: b4c6 cdbb a1ea 233d 68e2 8bbd 6e9f 753e
00000250: 6110 193e b46a 1f3d 8a09 1d3e c00f dbbd
00000260: 1d4d 07be 022c 533c 4d7e 04be 102c 513e
00000270: daf9 d2bd 409f 2dbb 6613 e5bc 608f 433c
00000280: e6a8 4f3e 69ff 323e 38f0 4bbd e110 cebd
00000290: 00d0 5b3d f501 b73d e7f3 f03c f493 f93d
000002a0: 6bb9 cdbd 1ada 6c3e b527 5a3e d2c1 babd
000002b0: 0bb0 d23c 0a02 d7bd 36af 63bd d472 923d
000002c0: da2f 883d 0c27 e83d 3c0b 383e 72e9 98bd
000002d0: 42bd 3bbe 8b1f 29bd d0ab 703d b095 133d
000002e0: b78c bb3d f884 d93d 5389 1a3e a596 ab3c
000002f0: 6e93 1bbe 9ac8 33be b6f0 e039 6fca 413e
00000300: 093e 1a3e 1d9d 21be 7d51 f6bd be89 39bd
00000310: af9e 0abe 4bb2 b13c 8519 393e 068c 423d
00000320: 35f8 f3ba 6763 2d3e 6488 6abd 5924 1a3e
00000330: 6601 67bd 0a23 12be 1659 18be 5869 183e
00000340: 8424 16be a2d2 09bd f434 02ba 84bb d13d
00000350: a396 4c3e 73bb 17be bbb2 13be d4af 3fbd
00000360: 7690 32be e25f 1f3d 02f7 6d3d d561 9b3b
00000370: 2ac5 a93c 4b56 99bd 9d23 fb3d 1668 7abc
00000380: e4eb 4e3d eed3 133e 477a 2c3e f678 dd3c
00000390: f88f bebd dd64 ec3d d8d6 3b3e 2eca 2b3e
000003a0: 9e26 4a3e 060d a5bc a509 40be 9ade 01be
000003b0: 84d0 8cbd d566 e2bd 47d6 013e 866c 94bd
000003c0: 8a30 0dbe 6dee b6bd e93b 1b3d a966 2f3d
000003d0: 5c4b e6bd c3e3 fa3d 8df4 903d f6ab a13d
000003e0: ba70 01be 9540 ef3d 746b 9e3d 9c4b 963d
000003f0: 69c3 223e 63f8 4c3d fef0 0dbe 9480 863d
-0.051530063 0.036665626 -0.016949035 0.19122118 0.04762743 0.12093004 0.21543714 0.21693404
0.018893067 0.1936517 0.15558599 -0.030952856 -0.028129637 0.013670711 -0.019100357 0.1606715
-0.14783911 0.17581867 -0.0603217 0.24536137 -0.14666398 -0.17598096 0.09165875 0.090369895
0.09831763 0.17127305 -0.103657596 0.15419112 -0.15330794 -0.0813963 -0.13383806 -0.11353866
-0.089833476 -0.1662301 -0.04151045 0.14621958 0.064162925 -0.10775912 0.10613465 0.11267917
0.119988486 0.20118225 0.23415543 0.014600003 0.08289159 0.12931468 0.028785395 0.09819092
-0.049519304 -0.04354728 0.18560116 -0.20079651 0.0062705665 0.007835595 -0.18650797 -0.19598846
0.12709087 0.19883646 0.20001249 -0.07175033 0.005240912 -0.104433216 0.17871676 0.1673493
-0.05494037 0.080507845 0.1866873 -0.06568628 -0.118219875 0.1072768 0.009516596 0.17742744
0.17961246 -0.09578696 -0.13404818 -0.08314493 0.09194356 -0.11029574 0.13589238 0.065086335
-0.013243405 0.123368494 -0.07900367 -0.10314658 -0.15310857 0.19282788 0.1863647 -0.051952448
-0.022899065 -0.055883367 -0.17241988 0.035807565 -0.13794458 0.060556177 -0.09943939 -0.10521623
0.042327967 0.10802201 0.21530518 0.046034135 -0.00209372 0.112131 -0.063727215 -0.05122307
0.21054159 0.009530213 0.19533531 0.04524854 0.065563835 0.03373982 0.073349945 0.07212904
-0.070576884 -0.21609867 0.024879843 0.0818802 -0.06996752 -0.0036248667 0.17730765 -0.13243052
0.24712674 -0.1598072 -0.11385709 -0.16442303 -0.030518796 -0.030343357 0.042452745 -0.06136117
0.11580599 0.12011037 0.1373662 -0.12251142 0.12104826 -0.19374603 0.012979741 0.0143680945
0.027227174 -0.036518298 -0.056250244 0.04090463 0.2111273 -0.081829496 0.14557852 0.14308034
-0.006279791 0.04001868 -0.06830293 0.23986599 0.14947654 0.03892012 0.1533567 -0.106963634
-0.1321301 0.01288891 -0.12938805 0.20426965 -0.10301562 -0.0026492625 -0.027963351 0.011936039
0.20279273 0.17480244 -0.049789637 -0.10061813 0.05366516 0.0893592 0.029413177 0.12186423
-0.10045131 0.23130074 0.2130421 -0.091189995 0.02571871 -0.10498436 -0.055587016 0.07150808
0.06649752 0.113355726 0.17973036 -0.07466401 -0.18333915 -0.041289847 0.058757603 0.036031425
0.091576986 0.10621065 0.15091448 0.020945856 -0.15192959 -0.17556992 0.00042903953 0.18924879
0.15062727 -0.1578259 -0.120272614 -0.045297377 -0.13537095 0.021691462 0.18076141 0.047496818
-0.00186134 0.1693245 -0.05725898 0.15052928 -0.056397818 -0.14271179 -0.14877734 0.14883935
-0.14662367 -0.03364814 -0.0004966997 0.10240844 0.19979338 -0.148176 -0.14423649 -0.046798542
-0.1743792 0.0389098 0.058096893 0.004741887 0.020723898 -0.07487162 0.12262652 -0.015283605
0.05051793 0.14436314 0.1684352 0.027035218 -0.093048036 0.11542676 0.18343675 0.16776344
0.19741294 -0.020147812 -0.18753679 -0.12682572 -0.06875709 -0.1105477 0.12679397 -0.07247262
-0.13788047 -0.08932195 0.03789893 0.042822514 -0.112448424 0.12250473 0.07077894 0.07894127
-0.12640658 0.1168224 0.07735339 0.0733864 0.15894856 0.050041568 -0.13861462 0.06567493

0.bias f4 [32]
00000000: 1507 113d 144f 703d 92ff 373e cecc df3d
00000010: 720e c33d 0713 023e 1bf4 c93d 1f68 12be
00000020: ac23 2dbe 80e9 e2bd fd30 48be c208 253d
00000030: f64c 1fbc 1b4c bbbd 4ecc c0bd 1ff5 25be
00000040: 026b 043e dd1c 2f3e 8831 f13d 92fd eebc
00000050: 57a5 5a3d f912 de3d 5b38 553e 4fa2 9cbd
00000060: 7e51 253d a066 94bb 180d 383e 2901 8bbb
00000070: e0b5 81bd 3290 e0bc 17e5 fb3d 1cdc d13d
0.035407145 0.058669165 0.17968586 0.10927735 0.095242396 0.12702571 0.098610125 -0.14297532
-0.16908139 -0.11079693 -0.19549938 0.040291555 -0.009722939 -0.09145375 -0.09413968 -0.16206788
0.12931445 0.17100854 0.117770255 -0.029173646 0.053380337 0.108434625 0.20822279 -0.076481454
0.04036092 -0.0045288354 0.17973745 -0.0042420817 -0.06333518 -0.027412508 0.12299555 0.10247061

2.weight f4 [64, 32]
00000000: cb3a 343e 9f92 023e 5310 0cbe fcde bcbd
00000010: 24d6 143d f402 e6bd e409 39bd eaa9 13bd
00000020: 2daa a1bc 501e ad3d 92e7 83bd ec82 943c
00000030: 74ba 6a3c efd3 38be 01c0 183e fe46 16be
00000040: 4dab b43d 5a79 c33b d646 6d3d 1ab9 b23c
00000050: 70ef f3bb 98f1 923d 58f6 f9bd 9bec 7f3d
00000060: 9516 4b3d e160 5c3d 7b4d 233c 2d96 473d
00000070: 2faf 273d d291 273c bbb7 143e c63c c73d
00000080: fc40 e93d bbb1 933b 87f6 babd b978 633e
00000090: 2baf bd3d cdf6 0ebd 5cb2 cbbd 6d3b 193e
000000a0: f4be 983c 94fe 48bd 5748 8dbd 5f42 1bbe
000000b0: e3ec 10be e2e7 143e ba0d 5a3e bd42 d53d
000000c0: efa5 203d 5f47 a1bb cf40 cbbc bb87 203e
000000d0: a43e 193e 9958 a73c 3b94 813d 668b a13d
000000e0: 699f bf3d b7d2 5fbd 23f9 a63d 3afe 91bd
000000f0: 922a 16bc 2b4f 053e 79f5 413e 5530 cabd
00000100: 8a88 603a 6f47 6c3d 09c0 debd b266 2d3e
00000110: 7ccf ea3d d53d 9f3d 6632 b53d ad2f 2f3e
00000120: 445a 03bd 5083 aebd 87c9 e5bd 202e 75bd
00000130: 1c7c e1b9 6048 193e db58 773c af9c fabc
00000140: 873b 20be 9f71 a1bd b646 b9bd da3d 053e
00000150: 9cb3 17be f726 8dbd b7bf 68bd 6fa7 0d3d
00000160: 5d38 11be 1c2a 12be ab91 063e 7ab9 9b3d
00000170: 1fa8 a6bc 3a62 a33c abeb 28be b275 933c
00000180: 7c0e 5e3c 1bb4 a0bd b239 6a3c 1ef9 8e3d
00000190: b243 febd ee3d 203e adaa a33c 338a 0cbe
000001a0: a5cd f03d 3132 dbbc 917e d8bd 8c6b cbbc
000001b0: b2f6 ae3d f326 c7bd 2f6d 223e 743d 45bd
000001c0: 2cab 83bd 4552 d43d 20fb 3d3e 7206 95bd
000001d0: f884 21bd 870b 103c 81b0 f8bd 501f 8d3d
000001e0: 7758 32be 3b97 f0bd 66e5 5c3e b635 16be
000001f0: 13ed d4bd 1456 0d3e b482 a1bd 0d49 093e
00000200: fb1c c4bd 28e8 aebc 2ed4 723d a428 8cbc
00000210: e0c5 0f3d 0314 2c3e e3b5 213c 78dc 2bbe
00000220: 41f9 7f3b 623e 8e3d 1146 33be f9b1 063e
00000230: 4841 25be 5d65 c4bd 57c7 d2bd 640b d8bb
00000240: a8cd d43d f057 a73d 49d2 0c3e a1dd 213e
00000250: 4157 00bd 80c1 043d 32f8 2fbd b302 003e
00000260: 9ae6 16bc 49c4 ddbc f2f0 2d3c 7e67 b43d
00000270: c80a 1cbe 3092 e2bd 63c4 babd 06d3 03be
00000280: 381a 243e 8254 ccbd 4bb0 143e 3973 ef3d
00000290: 2695 123d 2ffe b43d 6c57 70bd 6871 09bd
000002a0: 59b2 0abe 160c 20be 38af e13d 6609 8fbd
000002b0: e0f2 bebc e171 353e fd68 5f3c 133a 2a3e
000002c0: beff 0ebe 08f7 68bd d838 edbd 0306 f83d
000002d0: f5bb 14be 50f3 d8bd c201 c2bc ced2 1dbe
000002e0: 6ed6 07be 6101 30be 46ed b13d d028 723d
000002f0: 837c 033e faeb 4a3e d0c1 febd d9b6 31bd
00000300: 9186 213c 1a61 443e 665f 013e eb81 9e3d
00000310: bf5a ac3d 23ec 953b 0c77 ba3d f796 0e3d
00000320: 7871 a6bc d6f3 09be 0363 ba3c 4054 e43c
00000330: 7c6a 41be 911e c3bd d0c3 133d 2407 2ebe
00000340: 4fbb 58be 2419 753b 4586 0cbe bfbc 44bd
00000350: 6518 cc3d b368 053e 69c2 8d3d e57b f0bc
00000360: 44ae 34be e357 733c dc2f d1b9 f92d 2c3e
00000370: f2e7 363e c328 0bbe 84e0 02be e391 203e
00000380: 15bd d5bb f838 c8bd ecbd 5a3d 65cd 83bd
00000390: 663e 26bd c7f2 3ebe 1407 a83d 47c7 39be
000003a0: f8e7 8fbd e27d 853c c52d c6bd 0533 163e
000003b0: 6e9b 29be da02 d5bc 688b 743d 52ae 3abd
000003c0: e6ff a0bd 49df 123d 492b d5bd f04d 07be
000003d0: 9094 31bb fc6c 6dbc 0474 06be a183 17bd
000003e0: e547 d43d 28ed 2fbe b888 1b3e cc69 a2bc
000003f0: 4853 143e 4f1e 37bd 9000 86bd 5115 2ebe
0.17600553 0.12751244 -0.13678102 -0.092222184 0.036337033 -0.11231032 -0.045175448 -0.036050715
-0.019734466 0.08453047 -0.06440653 0.018128835 0.01432668 -0.18049596 0.14916994 -0.14675519
0.088217355 0.005965394 0.057928883 0.021816779 -0.0074443147 0.071749866 -0.122051895 0.062481504
0.049582083 0.05380333 0.009967203 0.048727203 0.040938552 0.010227637 0.14523213 0.097283885
0.11389348 0.004507271 -0.091290526 0.22214021 0.09261926 -0.034903336 -0.09946129 0.14964075
0.018645741 -0.04907091 -0.06898563 -0.15162037 -0.14152865 0.14541581 0.21294299 0.1041312
0.039220747 -0.004921838 -0.024811177 0.15676777 0.14965302 0.020427989 0.06327101 0.07887916
0.09356577 -0.054644313 0.08152988 -0.07128568 -0.009165423 0.13018481 0.18941297 -0.098725
0.0008565268 0.057685312 -0.108764715 0.16933706 0.11465356 0.077754654 0.08847503 0.1710803
-0.032068506 -0.085211396 -0.11220079 -0.05985844 -0.00043007813 0.14969015 0.015096868 -0.03059229
-0.15647708 -0.07883 -0.0904669 0.13011876 -0.1481461 -0.068921976 -0.05682346 0.034583505
-0.14181657 -0.14273876 0.13141505 0.07603736 -0.020343838 0.019944299 -0.1649615 0.018000457
0.013553258 -0.078468524 0.014295982 0.06981109 -0.124152556 0.15648624 0.019978845 -0.13724594
0.117579736 -0.026757332 -0.105710156 -0.024831556 0.08543147 -0.09724226 0.15861963 -0.04815431
-0.06429133 0.10367254 0.18552828 -0.0727662 -0.03943345 0.008791811 -0.121430404 0.06890738
-0.17416559 -0.11747595 0.21571884 -0.14668927 -0.10396781 0.13802367 -0.07886258 0.13406773
-0.0957584 -0.021350935 0.05928438 -0.017109223 0.035100818 0.16804509 0.009870025 -0.16783321
0.003905848 0.06945492 -0.17507197 0.13153829 -0.16138184 -0.09589646 -0.10291927 -0.0065931547
0.10390788 0.081710696 0.13752092 0.15807201 -0.03133321 0.0324111 -0.042961307 0.1250103
-0.009210253 -0.027071135 0.010616528 0.08808802 -0.15238488 -0.11063039 -0.09119489 -0.12873468
0.16025627 -0.09977056 0.14520375 0.11691899 0.03578677 0.08837544 -0.058677122 -0.03355542
-0.13544597 -0.1562961 0.110197484 -0.069842145 -0.023309171 0.17719223 0.013635871 0.16623716
-0.13964745 -0.056876212 -0.11583108 0.12110522 -0.14524825 -0.10593283 -0.023682479 -0.15412447
-0.13265392 -0.17188026 0.086878344 0.059120953 0.12840466 0.1981658 -0.124393106 -0.043387268
0.009858743 0.19177666 0.12634048 0.07739624 0.08415746 0.004575269 0.09104738 0.03481194
-0.020317778 -0.13471922 0.02275229 0.027872205 -0.18888277 -0.095273145 0.036075413 -0.16994911
-0.21165203 0.0037399018 -0.13723095 -0.048031565 0.099655904 0.13028221 0.069218464 -0.029355953
-0.17644602 0.014852497 -0.00039899244 0.16814412 0.17861918 -0.13589768 -0.12780958 0.15680651
-0.0065227845 -0.09776491 0.05340378 -0.0643566 -0.04058685 -0.186473 0.08204475 -0.18142425
-0.070266664 0.016295377 -0.096766986 0.146679 -0.16563198 -0.026002336 0.05970326 -0.0455764
-0.07861309 0.035857473 -0.104086466 -0.13213325 -0.0027096607 -0.014491316 -0.13130194 -0.036990765
0.10365275 -0.17180312 0.15188873 -0.019825839 0.14484894 -0.04470664 -0.06543076 -0.17000319

2.bias f4 [64]
00000000: dc58 0abe bd2d 1c3e b0c2 83bd dff3 bb3d
00000010: 1f64 edbd 0415 24be a94a 9ebd 2d15 cd3d
00000020: 816e 0cbe e3f1 ab3d 63fd c53b 8aa8 953b
00000030: 755a f3bd 940e 56bc 5cb8 acbd 6166 af3c
00000040: b51c 9c3d a855 36be f3c1 2cbe 8c76 82bd
00000050: db79 dc3c de81 1bbe 388b f23d 5138 99bd
00000060: a83d 01be d98c 1f3e a781 493d 76a3 bd3d
00000070: 0454 3c3d bce8 053e e080 e5bd b143 95bd
00000080: 69c0 513e c90a b1bb e88d 763d ab01 19be
00000090: 3224 093d a294 9dbd fe6d 0abd 80a0 ca3d
000000a0: 5608 1a3e 4627 40be 07a5 5a3e be2a 2ebe
000000b0: 9064 c5bd 23c9 cdbd 5caf dd3c 4000 1c3e
000000c0: f658 173e ec47 263e c498 00be a6c9 0b3c
000000d0: ec84 af3d 7863 96bd 550c d03d 3bf1 733d
000000e0: 0afb 2a3e 5325 8fbd e732 c53d 2fcb 0bbd
000000f0: 4ae4 0bbe 8a5b 013e 7f8b 853d cd72 b4bd
-0.1351046 0.15251823 -0.06433618 0.09177374 -0.11591362 -0.16023642 -0.07729084 0.100138046
-0.13714029 0.083957456 0.006042169 0.0045672106 -0.11882488 -0.013064999 -0.08433601 0.021411123
0.07622663 -0.17806113 -0.16870861 -0.06370267 0.026913574 -0.15186259 0.1184296 -0.074814446
-0.12621176 0.15581073 0.04919591 0.09259693 0.04597856 0.13077062 -0.112062216 -0.07288302
0.20483555 -0.005402897 0.060193926 -0.14942043 0.033481784 -0.07694365 -0.033796303 0.09893894
0.15042242 -0.18764982 0.21352015 -0.17008492 -0.096383214 -0.100481294 0.027061157 0.1523447
0.1478003 0.16238374 -0.12558275 0.008531963 0.08570275 -0.07343191 0.10158602 0.059556227
0.16697326 -0.06989541 0.096288495 -0.034129318 -0.13661304 0.12632576 0.065207474 -0.08810959

4.weight f4 [128, 64]
00000000: 4dd3 8c3d d323 363d b44b 55bd e123 bdbd
00000010: 366d ecbc c50b 123e dd01 e1bd 9582 b0bc
00000020: e8f9 993d 7204 a03d 0aee ab3b f3e4 ae3c
00000030: 6197 fb3d 0a45 bd39 b9e6 d0bd cda3 e7bc
00000040: 982b 9b3c 1ee3 4dbd de93 8d3d 7a37 213d
00000050: d192 86bd c87a 88bd 736f 70bd 3f51 833c
00000060: e3d1 cebc 05d8 543d da0f a6bd 7d5c 283c
00000070: 2869 00bb 987a f53c 08b2 51bd 4044 f63c
00000080: e9d1 b23c f734 c6bd d2a8 10b9 a8b4 abbd
00000090: 8eda 91bb c66f 04be 47df ce3c 9734 21bc
000000a0: b420 d93c 92f4 b93d ffb6 1bb9 51c6 993d
000000b0: 1801 133d bef4 c4bd a354 ef3d f994 5dbd
000000c0: 495b a9bd 035d 2f3d da58 48bd 7708 c0bd
000000d0: 9bfb 75bd 5f59 0ebd d137 30bd 86a0 223d
000000e0: 68db 07be df2b ef3d 0e54 d33c 35e4 383d
000000f0: cacd 153d 0ad5 fb3d 848b 66bd c09f f53c
00000100: a817 89bd f7c6 cdbc 6eb8 45bd 28c2 1bbd
00000110: ee48 c4bd 9256 a4bc 9278 de3c 5e69 a6bd
00000120: 8e95 03bd 4dd4 8f3d 7427 b8bd d0e5 b4bd
00000130: 02d9 073e 35d5 4b3d 5e1c 89bb bd92 94bc
00000140: b4ee 96bd 647e d2bc 1193 e33d f81e 063e
00000150: a2df acbd e331 b7bd c94d 1abe 6c1d be3c
00000160: ac1d 9bbd 5013 553d 7c16 c93d 57df a1bd
00000170: a801 3c3d 9432 69bc 2f72 ce3d 14d7 473d
00000180: a928 83bd d926 bdbc d73a cc3d b330 fa3c
00000190: fa51 f3bb 91c2 113e 0e32 b43d 5295 febc
000001a0: 93a3 3dbd afb0 973d 8fa7 edbc a455 02bd
000001b0: f30a b5bd 4d67 78bd 85ed 81bd b750 d23c
000001c0: 0dc2 f2bd 7d23 8d3d de12 efbd 8840 b23d
000001d0: 8d7c 8abd a27b 96bd 756a d53d 4b1f 36bd
000001e0: 6cd2 f73c 1171 e13d 37ed d5bd 6faa 56bd
000001f0: 35ed 5c3d 123e df3c 8570 50bd a054 c4bc
00000200: 87df 82bb 4133 4dbc 4757 b4bd d81f a63d
00000210: e7b7 b3bd 8075 a1bd 7e04 493c 5592 b2bd
00000220: 11ca ac3d 58d3 943d 0dbe 2dbd 03df 35bd
00000230: 3a3f 9cbd 7bbb 683d 5f10 3cbd 4a6c 86bd
00000240: 5e28 e1bb 3ffa ecbd 57f5 d4bd b127 53bc
00000250: 1ed4 c8bc e167 c2bd f096 da3d 3f4b b43d
00000260: 1361 913d fc86 e93d 485a 243d 76e9 bfbd
00000270: 5483 81bc 14a1 213d a8be 36bd 57d4 693d
00000280: e096 fe3d 9bf2 c6bd 3873 adbd f846 463d
00000290: 5959 833d 27e4 dcbd 0129 9a3c 8d87 183e
000002a0: ba9a 073c d7fc ea3d 15f7 8f3d 4758 fbbd
000002b0: 8a3d 8cbd b371 c23d ed31 d7bc c46e dc3d
000002c0: ed9e e13c 2216 bb3d 54ad 873c 585d 0d3e
000002d0: 3aba 933a 4635 2e3d f12e 04bd ef54 7b3d
000002e0: 09c7 9c3a 356a c0bd a1a2 9ebd 72a3 e23d
000002f0: e9e6 a03c 7672 bcbd ecee 7abd 9a0a 8d3d
00000300: 52ad 55bd 4d6c 103e 9183 c83d a6bb 833d
00000310: 0e54 cbbd 6b79 a0bd b83c a43d f462 c1bd
00000320: 348e dd39 d3fc 3fbc 4593 a63d d16e 063d
00000330: 2f61 cf3d 0839 3e3b 7795 02be 06e9 b4bd
00000340: 83bc c03c fa69 9e3d 0ecf 98bd b184 d53c
00000350: 726f b93d 90a4 e93d d237 563d 67e2 153e
00000360: 95e8 a73d 70fd 023e b38b 933d f9d1 f7bd
00000370: 6865 d43d eab3 a9bc 2c31 c33c 3cd4 e1bd
00000380: 7ca9 103e c66d 023c 2507 a5bd 62ba f5bc
00000390: 8b10 a03d 976d bcbd 1e11 193d 346c bf3d
000003a0: 4adf c13c 220c 2a3d bd14 c7bd a1c2 9b3d
000003b0: 8d8f e8bc d474 e5bd 7938 ad3d 6ac8 9bbd
000003c0: dd26 ddbc 6da1 3e3d e97f c5bd f563 22bc
000003d0: 7e8f 073e c84f f53d c538 aebc e7aa 81bd
000003e0: dce0 9b3d 7cf8 073e 0ff8 c53d 984b 8b3d
000003f0: 1e34 f53d 1a98 ffbd 1a41 113c 6c76 1e3d
0.0687624 0.04446776 -0.05207415 -0.09235359 -0.02886067 0.14262302 -0.109866835 -0.021546641
0.07518369 0.07813348 0.0052468823 0.021349406 0.122847326 0.00036100327 -0.10200257 -0.028276348
0.018941686 -0.050265424 0.06912969 0.039359547 -0.06570972 -0.06664044 -0.058700036 0.016029952
-0.025246566 0.051963825 -0.08108492 0.010275957 -0.0019593928 0.029965684 -0.051195174 0.030061841
0.021828609 -0.09678071 -0.000137958 -0.08384067 -0.0044511026 -0.12933263 0.025252951 -0.009839199
0.026504852 0.09079851 -0.00014850123 0.07508529 0.035889715 -0.09616993 0.11686065 -0.05409715
-0.082693644 0.042813312 -0.04891286 -0.093766145 -0.060054403 -0.0347532 -0.04302198 0.03970387
-0.1326729 0.116782896 0.025796916 0.04513951 0.03657321 0.12296493 -0.056285396 0.029983401
-0.06693965 -0.025119288 -0.04827159 -0.03802696 -0.09584223 -0.020060811 0.027157102 -0.08125566
-0.03212505 0.07022915 -0.089919 -0.08832896 0.13266376 0.049763877 -0.00418429 -0.018136377
-0.07369748 -0.025695033 0.11112035 0.13097751 -0.08441092 -0.08945062 -0.15068735 0.023207389
-0.07574019 0.05202037 0.09818742 -0.07903927 0.045900017 -0.01423325 0.100803725 0.0487891
-0.0640424 -0.023089813 0.0997216 0.0305408 -0.007425544 0.14234377 0.0879861 -0.03107706
-0.046298575 0.074067466 -0.029010562 -0.031819955 -0.08839979 -0.06064539 -0.063441314 0.025673253
-0.118534185 0.068915345 -0.116735205 0.087037146 -0.067620374 -0.073478 0.10420696 -0.044463437
0.030251704 0.11007894 -0.10445636 -0.052408632 0.053937156 0.027251277 -0.050888557 -0.023966134
-0.0039939317 -0.012524427 -0.08805709 0.081115425 -0.08775311 -0.078837395 0.012269137 -0.08719317
0.084369786 0.07266873 -0.042417575 -0.044402134 -0.07629247 0.05681942 -0.04591405 -0.06563623
-0.006871267 -0.11571168 -0.10398357 -0.012887881 -0.024515208 -0.094924696 0.1067332 0.088034146
0.070985936 0.11402699 0.04012516 -0.09370701 -0.015809692 0.039460257 -0.044615418 0.05708727
0.12431121 -0.09714242 -0.08469242 0.048407525 0.06413526 -0.10785704 0.01881838 0.14895459
0.008276636 0.114740066 0.07029549 -0.12272697 -0.06847675 0.09494343 -0.026268924 0.10763314
0.027541602 0.09135081 0.016562141 0.13805139 0.001127071 0.042531274 -0.03227133 0.061360296
0.0011961173 -0.093952574 -0.07745863 0.11066331 0.019641357 -0.09201519 -0.06126301 0.06886788
-0.052167244 0.14103813 0.09790719 0.064322755 -0.099281415 -0.07835659 0.08019394 -0.09442702
0.00042258354 -0.011717993 0.08133558 0.032820527 0.10125958 0.0029025692 -0.12752329 -0.08833508
0.02352739 0.07735057 -0.074613675 0.026064249 0.0905446 0.11408341 0.05229933 0.14637147
0.081986584 0.12791991 0.0720438 -0.12100596 0.10370904 -0.020715673 0.023827158 -0.110268086
0.14127153 0.007960742 -0.08058003 -0.0299961 0.07815655 -0.0920059 0.03736984 0.0934681
0.023666043 0.041515477 -0.097207524 0.07605482 -0.028388763 -0.11203924 0.08458037 -0.07606585
-0.02699607 0.046540666 -0.096435376 -0.009911527 0.13238332 0.11978108 -0.021267304 -0.06331425
0.07611248 0.13278383 0.09666454 0.06801528 0.11972831 -0.12480183 0.008865619 0.038687155

4.bias f4 [128]
00000000: 884e c7bc 3816 903d 7944 af3d 86e5 87bd
00000010: 6d5b 00bb 14f6 ff3d c3af b23d 7a91 ecbd
00000020: 160f a43d 18e0 683d 387c d8bd 62b7 283d
00000030: 903f 40bd c2b8 823d 9514 44bb 7131 603d
00000040: 49cb 68bd 9f58 afbd d539 833c bf3d 40bc
00000050: a1a0 eebc 8058 39bd 8e22 0cbd aee2 ad3d
00000060: c442 af3d 2726 0ebe 165a ba3d e6ee d6bd
00000070: bc6d c73d 0098 283b 8fda 103b 7b32 87bc
00000080: 76b1 9ebd 1245 bb3d a850 cabd 7c01 d13d
00000090: 3c84 dbbd 6528 e53d ab0d aebd 86e6 7c3c
000000a0: f1fb 8dbc 78c2 ca3d 1537 16bd d4eb 8abd
000000b0: 7fa4 823d fbfa 5bbd f4b4 273e 0504 e6bb
000000c0: 6710 8bbd fb02 a63d b0c2 e03d 07e3 71bd
000000d0: 8aae 013e 748a e33d 65bd febd 8684 1d3d
000000e0: f23b b03d 8447 ba3d 5bca 953d d0f4 aabc
000000f0: bc8c f7bc b76a ff3d a389 293d 4658 e4bd
00000100: 0d44 0a3e c075 d1bd ea9a f2bc fa2d bdbc
00000110: a351 ca3d 776b 61bd 99f2 003e c8f1 ab3d
00000120: 07b4 933d 08e1 ffbd 7841 96bd 722c 04bd
00000130: 063e 9c3d f690 5e3d 5590 99bc c111 dcbc
00000140: ff44 7c3d d23d 3c3c 826d 913d 41ce 03be
00000150: 6fd5 68bc ab4c 7bbd 8e7a a2bd 66a4 c2bc
00000160: 3130 90bd ef9a 21bd f1dd dbbd 5411 2cbd
00000170: f5d7 cb3d 30d7 5bbd 3f6c e43d 8e79 eabd
00000180: e353 9ebd 0a80 d3bd be50 41bc bdfa acbd
00000190: 95e3 23bc 24ce a13b 78fd a93d bc3f 89bc
000001a0: 5432 9abd 4d9f d83d 6f66 0dbd 15de dbbc
000001b0: 17f5 5abd 28d6 17bd 9f3d 40bd 3907 de3d
000001c0: 5902 2cbd a0ce 563d 6020 81bd d162 bbbc
000001d0: 08f1 223d 75f7 bbbc 2cb4 81bd 0020 013d
000001e0: e0d1 5b3d 3b4b 9d3d 9a48 493d ba8e 11bd
000001f0: ecc7 763d c5e0 a2bd cff2 b33d 8a71 ea3d
-0.024329439 0.07035488 0.08557982 -0.06635575 -0.0019585744 0.124981076 0.0872493 -0.11551185
0.0801069 0.056854337 -0.10570568 0.041190512 -0.046935618 0.06382896 -0.0029919494 0.05473465
-0.056834493 -0.08561825 0.016018787 -0.011733471 -0.029129328 -0.045250416 -0.03421264 0.08490501
0.085576564 -0.13881741 0.09099214 -0.10494785 0.09737727 0.0025725365 0.0022102927 -0.016503563
-0.07748692 0.091440335 -0.09878665 0.10205361 -0.10718581 0.11189345 -0.08498701 0.01543582
-0.01733205 0.09900373 -0.036673624 -0.06783262 0.063790314 -0.05370615 0.16377622 -0.007019522
-0.06790238 0.08106037 0.10974634 -0.0590544 0.12664238 0.11110392 -0.12438468 0.038456462
0.08605184 0.09095672 0.07313987 -0.020868689 -0.030218475 0.12471526 0.041391026 -0.11149649
0.13502522 -0.10227537 -0.029614884 -0.023093212 0.09878852 -0.055034127 0.12592544 0.083957255
0.07212072 -0.12494093 -0.07336706 -0.03226895 0.076290175 0.054337464 -0.01874558 -0.026863934
0.061589237 0.0114893485 0.07100965 -0.12871648 -0.014211043 -0.061352413 -0.07933532 -0.023760032
-0.07040442 -0.039454397 -0.10735691 -0.042008713 0.099533 -0.053672016 0.11153459 -0.11448966
-0.07730844 -0.10327156 -0.011799036 -0.08446262 -0.01000299 0.004937904 0.083002985 -0.016754024
-0.075291306 0.10577259 -0.034521516 -0.026839295 -0.053456392 -0.03706947 -0.046933766 0.10841221
-0.041994426 0.052443147 -0.06305003 -0.022874268 0.039780647 -0.022945145 -0.06333193 0.03152466
0.05366695 0.07680365 0.049141504 -0.035536505 0.060249254 -0.07953028 0.087865464 0.11447437

6.weight f4 [256, 128]
00000000: 835f 463d df2e d3bd 68e6 89bd bee4 5dbd
00000010: b69e 71bd 8e30 193d cbf4 d23d 6e05 9a3d
00000020: 3a3d 40bb 3956 853d 404e 563c e2c8 5cbd
00000030: 3c44 68bd 9f5a 87bd 881e c8bc 638c 193d
00000040: 05a3 b2bd f59a c73d 716b 5abd 84ac 103d
00000050: 3279 8b3d bd9d 483d 7817 d33d 8f07 c73c
00000060: 8214 393d a095 1ebd 92d5 1c3d 815a 213d
00000070: dcdc 183d 65cb 1d3d e6dd 763d 27e3 293d
00000080: 3605 bfbd aa39 5abd b919 a63d 5e15 033d
00000090: 25a1 473d 27bd 84bc fe51 17bd 01a0 d73d
000000a0: 2d21 f53c c5f1 b8bd f7c2 49bd c809 aa3d
000000b0: 1a6c e13c 504e b7bd 10b7 793c 3143 6dbc
000000c0: f8c7 e5bc 221e edbd 3365 7cbd a4d6 f6bc
000000d0: 6935 34bd 6d7d 783d ff0e 9b3d 7b22 883c
000000e0: 70a3 4b3c 99cc a33d 2cf0 bcbd 4deb 92bc
000000f0: 1504 c3bd cc1e 8bbd 71e1 c13d dc73 ae3d
00000100: d4a3 aabd 8e66 d63d 1bde 7fbd d5eb a73d
00000110: e0b2 50bd ff62 303d 4f62 69bd bbb8 b73c
00000120: e712 cb3d 48cf 713d 32f4 a3bd b057 fa3d
00000130: 6cde 54bd cb0d 0b3d 1a85 863d e23a b5bd
00000140: 206c 8bbd 8101 b73d a82a dfbb 2a5e c23c
00000150: 3563 63bd 89f5 7f3b 4f60 fd3b 5ae1 5d3d
00000160: 8274 8a3d 5463 05bd db9f 133c 2e21 6d3d
00000170: e347 03bd 86f8 2bbd fe6c 4dbd 9a58 563c
00000180: 6573 ba3d f302 943d ea5d af3d 38ac 423d
00000190: b925 d63d df84 813d d979 4ebd 9560 673c
000001a0: f7be 9f3d 1938 c2bd 858a cc3c f75b 933d
000001b0: 14cf d13c 1432 143d 3187 3abd fb54 9b3d
000001c0: 32af 35bd 1cfd 233d b424 883d 8385 523d
000001d0: 6481 afbd 5e7a 91bd 3259 09bd 5373 70bd
000001e0: 3842 d4bd 1096 12bc 5fce 0f3d 6280 6fba
000001f0: f14e 11bd c249 2ebd 3dad 793c edcf a63d
00000200: 4138 aa3c 3626 37ba e185 c1bd b4d6 44bc
00000210: 4684 98bd 2263 a5bd 165a 2cbd befa 433d
00000220: 6811 fa3c 4462 61bc 408b f23c 9f94 9b3d
00000230: 9844 0ebc 3da7 743d 6072 5f3b 07b0 b13c
00000240: 67aa 043d 8903 af3d 8def 5d3c b692 b13d
00000250: 383b 72bd fa5f d23c e2e5 7bbd 91eb 793d
00000260: 3bb4 f7bb 40c6 c1bb cf63 823d f258 653d
00000270: 3ef5 8cbd c442 a13d a14d 7e3c cdf2 a73d
00000280: ad0b 983d d0e1 90bd 6dd2 ae3d ff3d 893d
00000290: 8286 783c 27e3 c3bc 3b8d c2bc 53dc 54bd
000002a0: 9c8c 823c 661f aebc 86ee 603d ebd1 73bd
000002b0: 6d26 a43c 24b8 f83c 0cb4 f0bc 0d30 723c
000002c0: 4a2e ab3c 9efb 963b 2d7c f3bb 7e30 3a3d
000002d0: ad82 81bb 2343 753d 192b 0a3d 6aec 9c3d
000002e0: e67a 2d3d 36cd 803d eeff e93c 51bc 8dbc
000002f0: 8f75 543d 2622 7fbd 1c87 c4bc 568c 883d
00000300: d567 80bd c27c df3c 95ac 3a3c 1714 89bd
00000310: 9bd2 7d3d c294 b03d b2ff 98bd 5e68 6a3d
00000320: 8083 bbbd 79f0 5bbd f37a 83bd e015 68bd
00000330: 2421 9bbd 5dfb 45bd a396 acbd f778 9c3d
00000340: 6a10 843d d3c3 273b 135f 99bd 9cd0 a9bd
00000350: c05d 80bd 409b 603b cd5c bfbc b0f8 5d3c
00000360: 3d19 7c3c a32a 5b3d c8b4 2ebd 953f 5bbd
00000370: 5c7f e83c 4fa5 9cbc 1428 78bd 81d9 a2bd
00000380: 1728 b3bd 6035 e23b d998 be3c 97e4 ab3c
00000390: 00ad b4bc 9a3e 993d 1655 a0bd ee2b b03b
000003a0: b2ef fabb bf95 6b3d f14c 583d 2179 5ebd
000003b0: edc5 703c 6452 afbd 51cc 53bd a534 d1bc
000003c0: 1c74 0bbd 8ed0 093d 4e8a 2a3d ae92 9fbd
000003d0: fe2f ecbc 9991 6c3c 16df 1fbd 3730 52bd
000003e0: bfa4 84bd eccf a1bc 8a88 36bd 39f5 3e3c
000003f0: af22 a0bd 087a 95bd 9053 6ebd 3454 2bbd
0.04843093 -0.10311674 -0.067334 -0.054173224 -0.05898925 0.03739982 0.10300597 0.07520567
-0.002933337 0.06510586 0.01308018 -0.053902514 -0.0567057 -0.066090815 -0.024428621 0.0374874
-0.087225 0.097463526 -0.05332512 0.035320774 0.068102255 0.048978556 0.10307211 0.024295596
0.045185573 -0.038716912 0.038289614 0.039392952 0.037320003 0.03852405 0.060270213 0.041476395
-0.09327166 -0.05327765 0.08110375 0.0320028 0.048737664 -0.016203476 -0.03694343 0.10528565
0.029923046 -0.09030489 -0.0492582 0.08302647 0.027517367 -0.08950484 0.015241399 -0.014481352
-0.028049454 -0.11578013 -0.06161995 -0.030131646 -0.04399625 0.06066649 0.0757122 0.016618004
0.012429103 0.07998008 -0.09225497 -0.017934466 -0.09522263 -0.067929834 0.09466828 0.08518192
-0.08332029 0.104687795 -0.062467676 0.08199278 -0.05095184 0.04306316 -0.05697852 0.022426954
0.09915715 0.05903557 -0.08005561 0.12223756 -0.05196993 0.0339487 0.06568356 -0.08849122
-0.068077326 0.08935834 -0.006810505 0.023726542 -0.055514533 0.0039056262 0.007732428 0.05416999
0.06760503 -0.03256543 0.0090102805 0.05789297 -0.03205098 -0.041985057 -0.05015277 0.013082648
0.09104041 0.07227125 0.085628346 0.04752752 0.10456414 0.06324171 -0.05040917 0.014122148
0.078000955 -0.09483356 0.024968395 0.07195275 0.025611438 0.03618057 -0.045539085 0.07584568
-0.044356532 0.040036306 0.066476256 0.051396858 -0.08569601 -0.07103418 -0.03353233 -0.05870373
-0.10364193 -0.0089469105 0.03510892 -0.0009136257 -0.035475675 -0.04255081 0.015239057 0.081451274
0.020778777 -0.000698659 -0.094493635 -0.01201408 -0.07447104 -0.08075549 -0.0420781 0.04784655
0.030525878 -0.0137563385 0.029607415 0.075967066 -0.008683346 0.059729803 0.0034095272 0.021690382
0.03238907 0.08545596 0.013545883 0.08670561 -0.059138507 0.02568053 -0.06149853 0.06101567
-0.007559327 -0.005913526 0.06366693 0.055993028 -0.06882714 0.07874063 0.015521438 0.082006074
0.07424102 -0.0707432 0.08536229 0.06701278 0.015168788 -0.023912026 -0.023748985 -0.05196793
0.015936188 -0.021255206 0.054914974 -0.059526365 0.020037854 0.030361243 -0.029382728 0.014781964
0.020896096 0.004607632 -0.0074305744 0.045456402 -0.0039523453 0.05987848 0.033732507 0.0766228
0.042353533 0.06289141 0.02856442 -0.01730171 0.051869925 -0.062288426 -0.023990206 0.06667392
-0.062698044 0.027281169 0.011393686 -0.06693285 0.061968427 0.08622123 -0.07470645 0.05722844
-0.09155941 -0.05369613 -0.06419935 -0.056661487 -0.075746804 -0.04833542 -0.08427169 0.0764026
0.06448443 0.0025598898 -0.07488837 -0.08291742 -0.062678814 0.0034272224 -0.02335968 0.013548061
0.015386877 0.05350746 -0.042652875 -0.053527433 0.028381042 -0.019121794 -0.060585096 -0.07951642
-0.08747881 0.0069033355 0.023266243 0.020983024 -0.02205515 0.074826434 -0.07828729 0.0053763306
-0.0076579684 0.057515856 0.052807752 -0.054314736 0.014695627 -0.08560637 -0.051708523 -0.025537798
-0.034046277 0.03364616 0.041635804 -0.07791649 -0.028831478 0.01443901 -0.03903111 -0.051315513
-0.06476735 -0.019752465 -0.044563808 0.011655145 -0.07819115 -0.07298666 -0.05818516 -0.04182835

6.bias f4 [256]
00000000: 9166 5bbc 50db 85bd ec68 88bd e821 b7bd
00000010: b2ab 14bc b568 6a3d 54cc abbd 2540 76bd
00000020: 6911 7d3d 31a0 433d d23f 15bd 2557 c73c
00000030: 3f68 1dbd c526 80bc 464b c3bb 5b47 72bd
00000040: a108 323c 2991 b43d 8f79 beba 6733 a8bb
00000050: 0b5d fc3b 3910 b2bc 6382 6cbd abef 543c
00000060: d2f7 95bd e3de 083d 5df2 2d3d 31ff c7bc
00000070: 3cc1 d5bc ee64 a9bd 0232 22bd 60ea b53d
00000080: 8402 013d 7e8e 86bc baff b93d ca69 1abd
00000090: 1070 99bc 42c7 9dbd 284d b53c 5cb9 8dbd
000000a0: e786 d9bc f347 4a3d 1f75 f8ba 9f70 3dbd
000000b0: de21 b33b b641 5e3c 5450 a13c 057c 97bc
000000c0: 8149 afbd 195e 933d 7a4b 8dbd 1d93 48bd
000000d0: 6d99 46bb b3dd 32bd 8490 a13d a56f 5dbd
000000e0: e80d 30bd f73e 8cbd b3fb a5bd f16d 733d
000000f0: e15b 83bd 44c4 59bd da1a 813d 6ff5 2ebd
00000100: a3eb 763d 8841 873d 9af1 d1bd f6b3 ad3d
00000110: befc 82bd 6a3b 62bd 401d c1bb 583c 60bd
00000120: 0527 65bd 1f31 90bd 92e8 ce3d 7ede 56bd
00000130: bf64 a4bd b0ca ab3c e36b ab3c 177b 59bd
00000140: aca6 9e3d d5da 92bd d46c 943c a603 c53d
00000150: e573 47bc 8d8f e73d 67e4 94bd b6a5 90bd
00000160: 2028 98bd e4b2 433c 9a38 a33d fe9a 8dbc
00000170: ded6 08bd 902d e8bc 676f 6bbd 312e cfbc
00000180: 83cb 49bb 5be3 763d bd20 333d 86a8 6cbd
00000190: e922 83bd 1503 86bd 4cd3 72bc fd9e 72bc
000001a0: 9ed1 303d a61c 873c 7785 193d a6b1 24bd
000001b0: d9e2 c3bd bcc6 4b3d 10c4 a8bd faef 9b3d
000001c0: 8edd 3ebd 8eec bfbd f821 9f3d 8468 063c
000001d0: 50fa acbd bbbb b1bc 53cf 473c 4177 693d
000001e0: 7380 253d f3d2 b6bd dbcf 8b3c 5243 dfbc
000001f0: bfa1 1e3d 0a49 613d e07c 6b3b 2be0 3cbd
00000200: 8d7b 973d 9eb2 64bb 3011 9abc 1a8a 81bc
00000210: 0666 903c 5b63 893d 7452 963d 590d 8a3c
00000220: e330 44bd 63f6 683c 9dc6 08bd 4df6 c63d
00000230: 614c c2bc 544c 823c d365 91bd 2a4a 85bd
00000240: 5bed 75bd cbf5 36bd f70f e4bb 2bb4 8c3d
00000250: aaf2 d9ba c73c 86bd efe1 313c 7354 ef3c
00000260: 409a a4bb e601 d8ba a613 b13d 3431 873c
00000270: 45f2 abbd 3ed6 123d 0225 2ebd 8036 10bd
00000280: 4299 923d 50ff 50bc 38e5 753c 279a 183d
00000290: 6fe6 a33d 1e9f 3c3d 30da 293d e7a4 96bd
000002a0: c615 be3d be1d 7b3d 4e1b 85bd 0f2a babd
000002b0: 75a8 0abd 98ba 46bc 27e1 183d c4c2 8b3c
000002c0: 5be0 a1bd ea33 773c 3591 803c 4800 fc3b
000002d0: e2f3 803d 4a6b 493d 73a0 43bd 7a74 5c3d
000002e0: b9d8 7a3d dd46 63bd 9997 6b3d 843d d73b
000002f0: 0276 b53c 541c 443d a3a5 3abd 3634 45bd
00000300: 5171 4a3d 21f2 c8bd 9996 c2bc 151c afbd
00000310: df3a 6fbb 6727 873d 13fe 42bd 118d 6a3d
00000320: 108b 963c 8b36 923d 9710 9a3d 6d3f 95bd
00000330: c5e6 70bd 7655 a639 2040 513c f938 f4bc
00000340: 732c 533d b7e0 31bd 299c d93c 5cd7 803d
00000350: 3a73 f13c 186d 71bd 7829 9abd b39c b2bc
00000360: e79c c4bc 2576 aa3c 70cb a23c 9fea 16bd
00000370: 293f 773d 35a5 0dbc c339 75bc 2789 a0bc
00000380: f960 e7bc 5a10 a3bd 8a41 7fbd fe3e 9b3d
00000390: 6eb2 93bd 245b d63c b624 223d 9107 963d
000003a0: d60b a4b9 aeca 593d ddc8 0bbd c223 833d
000003b0: 0af0 96bb e9c3 913d 5d43 3b3d b0f5 f33b
000003c0: 38c0 6bbc 1327 3b3a 9b1e f73c 11bf 05bd
000003d0: 9924 1ebd 9ba1 47bc e54f 1cbd cbbc 5e3d
000003e0: a8fd 423d 5caf 89bc a4f9 0a3d f5da 8ebc
000003f0: 9e32 a0bc 3671 773d 81f4 8abb b23c 4f3c
-0.013391153 -0.06535971 -0.06660637 -0.08942014 -0.0090741385 0.057228763 -0.08388582 -0.060119767
0.06178418 0.047760192 -0.036437817 0.024333546 -0.038429495 -0.015643487 -0.005959901 -0.05915008
0.010866315 0.088167496 -0.0014532077 -0.0051330808 0.0077015213 -0.021736251 -0.057741534 0.012996594
-0.073226586 0.033415686 0.042467464 -0.024413677 -0.026093118 -0.08271204 -0.039598472 0.08882594
0.03149654 -0.016425367 0.09081979 -0.037698545 -0.018730193 -0.07704021 0.022131518 -0.0692012
-0.026553584 0.049385022 -0.0018955803 -0.046249982 0.005466684 0.013565471 0.019691624 -0.018491754
-0.08558942 0.07195682 -0.06899162 -0.048968423 -0.0030303851 -0.04366846 0.07888892 -0.05406155
-0.042982012 -0.06847947 -0.081046484 0.05943102 -0.06414009 -0.05316569 0.0630395 -0.042714532
0.060283314 0.06604296 -0.1025116 0.084815904 -0.06395863 -0.055232443 -0.0058933794 -0.05474505
-0.055945415 -0.07040619 0.10102953 -0.05245828 -0.08027028 0.020970672 0.020925468 -0.053095903
0.07746634 -0.07170645 0.0181183 0.096198365 -0.0121736275 0.11306677 -0.07270127 -0.07062857
-0.07429528 0.011944506 0.0796978 -0.01728582 -0.03340804 -0.028342038 -0.05747929 -0.02529058
-0.0030791468 0.060275417 0.043732394 -0.057777904 -0.06403143 -0.065435566 -0.014820885 -0.014808414
0.043168657 0.016493153 0.037480798 -0.04020848 -0.09564752 0.049750075 -0.08240521 0.07614131
-0.04659801 -0.09371291 0.07770151 0.008203629 -0.08446181 -0.021695962 0.012195426 0.056998495
0.0404057 -0.08926954 0.017066887 -0.02725378 0.03872847 0.055001296 0.0035932586 -0.04611222
0.07396612 -0.0034896503 -0.018807024 -0.015812922 0.017626774 0.06708404 0.073399454 0.016852068
-0.047898185 0.014218899 -0.033392537 0.09714947 -0.02371806 0.015905537 -0.070994996 -0.06508286
-0.060040813 -0.044668 -0.006959911 0.06870302 -0.0016628106 -0.06554561 0.010857089 0.029215073
-0.005023271 -0.0016480058 0.08646326 0.016502954 -0.083958186 0.03584885 -0.042515762 -0.035208225
0.07158138 -0.012756184 0.015008263 0.037256386 0.08002936 0.046050183 0.041467845 -0.073556714
0.09281497 0.06130766 -0.064993486 -0.09090053 -0.03385206 -0.012129448 0.037324097 0.017060645
-0.079041205 0.015088061 0.01569424 0.007690463 0.06296517 0.049174584 -0.04776044 0.05382202
0.06124184 -0.055487502 0.05751762 0.0065686125 0.022150997 0.04787858 -0.04556812 -0.048145495
0.049424473 -0.098118074 -0.023753451 -0.08550278 -0.0036503596 0.06599312 -0.047605585 0.057263438
0.018376857 0.071393095 0.075226955 -0.07287488 -0.05881383 0.0003172566 0.012771636 -0.029812323
0.051556062 -0.043427195 0.02656372 0.062910765 0.02947389 -0.05894193 -0.07527441 -0.021803236
-0.024000598 0.020808289 0.019872397 -0.036844846 0.06036297 -0.008645345 -0.014967385 -0.01959665
-0.028244482 -0.07962103 -0.062318362 0.07580374 -0.07211767 0.026166506 0.03958579 0.07325662
-0.00031289336 0.053171806 -0.034127105 0.06403305 -0.0046062516 0.07117445 0.04571854 0.0074450597
-0.01438909 0.00071393064 0.030165961 -0.03265292 -0.03860912 -0.012184526 -0.03816213 0.054379266
0.047605187 -0.01680725 0.033929482 -0.017438391 -0.019555386 0.0604107 -0.004240573 0.012648748

8.weight f4 [128, 256]
00000000: 90d4 01bc 5732 333d 08a0 383d 71dd c6bc
00000010: 8309 39bd 0e88 e3bb 475d e13c 4a2d 14bd
00000020: a2d4 d93c 4d23 79bd 3553 47bd f3f5 21bd
00000030: c20c 03bd 2d74 b33c 86f8 b438 50c7 9a3c
00000040: 6566 be3c f5a0 70bc 1765 803d 8837 163d
00000050: 1956 58bd b066 313d 99ee 91bc 91df b6bd
00000060: 3c0a 71bd a08b 7f3d c8ed 3cbd dc04 ad3d
00000070: 033c 72bc 0d8b 2c3b c95a cc3c 62ef 203d
00000080: c38b b43c df8c 913d 4af2 dcbd 857c 9dbd
00000090: 722b 9ebd fda2 a73c 1b0e 9a3c 430e 463d
000000a0: 8e86 5c3d 87c1 463c c9ff e5bc d24f 9b3d
000000b0: a48c f73c 13e0 8a3a d6df e43d a80f bbbc
000000c0: c6ef 493d 5395 333c a090 8a3c 319c af3d
000000d0: 0b41 083d 278c 193d 9709 243d 6d56 08bd
000000e0: 1214 6a3c 4685 683d 24f6 22bc eebc bfbc
000000f0: 901b df3c 9da3 ee3c c716 5fbd 030b a8bc
00000100: 1ddd 903d c01a 5a3d c0d9 473d 832a a3bc
00000110: 16e4 093d 345a f4bc 3706 24bd 1a08 ba3a
00000120: 000e 1c3d 3f28 8b3c 0f65 aebc 671e c13c
00000130: 5127 473d e0fa f23b 2a2d d83b dd80 473d
00000140: 629b bdbc f1ce 203d 8d6a 023d d50d a83d
00000150: 9c1d 9dba 12a7 4dbd 21ae 4d3d 5ce9 0e3d
00000160: d006 0cbd 7d55 4dbc 5818 bc3c a67d bebc
00000170: 9371 c53c 2298 f33c 3a66 00bd e2dc 8abd
00000180: 81a5 71bc be8f bb3c 52e0 6c3d fc4d 24bd
00000190: 9470 0ebd edda 793d 7063 59bd 35b6 8a3d
000001a0: d913 bf3d 5ce3 d73a 2c41 4b3d 12ce b13c
000001b0: 0f8f 25bd 7b16 9c3c 35de ebbc 76a0 de3d
000001c0: 7843 de3c 2099 883d 77d5 843d 0854 51bc
000001d0: bb4d cb3d 85e0 993d c7a3 e23c afc6 bd3c
000001e0: eb06 3e3d 1b04 4cbb a557 aa3b 1b58 e53c
000001f0: c792 673d c20a 89bd 16e6 13bd 6a7f 163d
00000200: c410 a3bc 6f86 323c d39c 673d 9bfd 0c3d
00000210: d9cc 473d 2445 123d a2d8 483c df5b bdbd
00000220: 9a77 3a3c 23c3 a13d 90a3 69bd 57ba 06bd
00000230: e71e 923c f86a 373c ca8a d33c d0b6 aa3b
00000240: 6e19 063d 9822 61bd 7ce3 7cbd 674d 423d
00000250: ff92 cb3d 7c7d a7bb c5ec 083d d719 823c
00000260: 2ceb 203d d649 9dbb 5db1 56bc 2432 0dbd
00000270: f06e 2fbd 60f3 273d 0cb2 7d3c a9b4 843c
00000280: ac80 263d 50c2 163c aea1 123d b0f3 bf3d
00000290: 6eae 9dbd 257c 103d 1662 24bd e9d6 883d
000002a0: 011d 2cbd c8a8 2f3d 467e 5c3d 3599 e4bc
000002b0: e0b7 6abb a4c2 4b3d 3171 4fbc 09bf 2fbd
000002c0: 7e45 68bd 849e ffbb 3b31 84bd c7b1 a3bd
000002d0: 1b0d 233d e991 3e3d d8eb 993c 541e 6e3d
000002e0: 9375 03bd b6ff 7b3d fa5d 703b 3215 c53c
000002f0: ff62 853c 041e ea3c 1009 f03c 0276 b4bd
00000300: 93dc 853d 0ff8 f13c 1e12 71bd 8ad3 70bd
00000310: 9aaa 69bd 3ad9 843c a4d3 ab3d cc67 9bbc
00000320: a494 853d ce5f 9fbd 0207 c73c f101 2dbd
00000330: f126 913d 50eb 873d f882 553d 08e8 96bc
00000340: a410 30bb da08 5abc a388 00be 8c6f 31bd
00000350: bb1a bbbc 18d6 16ba 564d 06bd da16 6cbc
00000360: 6a15 703c 9562 8e3d 86b0 2a3d ee5d c93b
00000370: 6316 403d 411d 7d3c 5fe5 a9bd e51f 673b
00000380: c82c f23c 0b8f 1bbd 3b05 af3b 0080 a43d
00000390: d2c4 50bd 7830 7c3d 61c3 5fbd 09a9 7fbd
000003a0: 59db cd3c 3b97 30bd bed5 013d ed0e 2dbd
000003b0: b42f 3d3c 080c 8fbd 36aa 3f3c 4132 063d
000003c0: 2bc8 1a3c ab4f 13bc 0eb8 e2bc 4972 64bc
000003d0: 3748 7f3d 2db5 8a3b 79fa 0ebd 6227 bcbb
000003e0: 9a75 3f3d 2180 823d 3a36 593d 1345 883a
000003f0: 0996 c93c 54f0 7c3d 9e6f 45bb eaba 583c
-0.007924214 0.04374918 0.045074493 -0.024275513 -0.045175087 -0.006943709 0.027510298 -0.036176004
0.026590649 -0.06082468 -0.048663337 -0.039541196 -0.03199459 0.021905983 8.62936e-05 0.018893868
0.023242185 -0.014686813 0.06269281 0.036674052 -0.052816484 0.04331082 -0.017813968 -0.08929361
-0.05884765 0.062389016 -0.046125203 0.084481925 -0.014784816 0.0026327998 0.024945633 0.039290793
0.0220393 0.07106947 -0.107884005 -0.07689766 -0.0772313 0.020463461 0.018805554 0.048353445
0.05383926 0.012131101 -0.02807607 0.07583584 0.03021843 0.0010595344 0.11175506 -0.022834614
0.04930093 0.010960895 0.016914666 0.08574713 0.033265155 0.037487175 0.040048208 -0.033285547
0.014287012 0.056767724 -0.00994638 -0.023405518 0.027234823 0.029130751 -0.05446508 -0.020513063
0.07073424 0.053248167 0.048791647 -0.019917732 0.033664785 -0.029828168 -0.04004499 0.0014193088
0.03809929 0.016986964 -0.021288423 0.023574067 0.04862148 0.0074151605 0.006597181 0.048706878
-0.023145381 0.039259855 0.031839896 0.08205763 -0.0011986974 -0.05020816 0.05021489 0.034890518
-0.034186184 -0.012532589 0.022960827 -0.023253273 0.024102008 0.029735629 -0.03134749 -0.06780411
-0.014748932 0.02289569 0.057831116 -0.040113434 -0.03477533 0.0609998 -0.053073347 0.067730345
0.093299575 0.0016470957 0.0496227 0.021704707 -0.040419634 0.019053688 -0.02879248 0.10870449
0.027131781 0.06669831 0.06486028 -0.012776382 0.09926935 0.07513527 0.027665986 0.023166029
0.046393316 -0.0031130377 0.0051984363 0.027996114 0.056536462 -0.06691505 -0.0361081 0.036742605
-0.019905455 0.010896309 0.056546044 0.034421545 0.048779342 0.03571047 0.012258681 -0.09246039
0.011381054 0.078985475 -0.05704075 -0.03289255 0.017837001 0.011194937 0.025823016 0.005209781
0.032739095 -0.05496463 -0.061740384 0.047437098 0.09940147 -0.0051113945 0.033428926 0.015881462
0.039286777 -0.0048000617 -0.01310381 -0.034471646 -0.042830408 0.041003585 0.015484344 0.016199427
0.040650055 0.009201601 0.03579872 0.093726516 -0.076992854 0.035274643 -0.040132605 0.06681616
-0.042019848 0.04288557 0.05383136 -0.027905086 -0.0035815164 0.04974617 -0.012661264 -0.042906795
-0.056706898 -0.007800879 -0.064547025 -0.07992893 0.03980742 0.04652587 0.018789217 0.058134392
-0.03209455 0.06152316 0.0036677108 0.024057958 0.016282557 0.028578766 0.029301196 -0.08811571
0.06536212 0.029537229 -0.05885517 -0.05879549 -0.057047464 0.016216863 0.083899766 -0.018970393
0.065224916 -0.07781945 0.024295334 -0.04223818 0.070875056 0.06636679 0.052126855 -0.018421188
-0.0026865387 -0.013307774 -0.12552123 -0.04331927 -0.022839895 -0.00057539484 -0.032788597 -0.014409745
0.014653543 0.06952397 0.041672252 0.0061452305 0.04689635 0.015448869 -0.08295702 0.0035266813
0.029562369 -0.037978213 0.0053411997 0.080322266 -0.050968952 0.06156966 -0.054629687 -0.062417064
0.025129007 -0.043112975 0.03169798 -0.042250562 0.011547018 -0.06984717 0.011698296 0.03276277
0.009447138 -0.008991162 -0.027675655 -0.013943263 0.06232473 0.0042330236 -0.034906838 -0.0057419995
0.046743013 0.06372095 0.05303023 0.0010396562 0.024607675 0.061752632 -0.0030126343 0.013228158

8.bias f4 [128]
00000000: 7659 043d 9442 87bd 9037 b7bb f64b 10bd
00000010: fbd9 08bd 5048 263d 329b 4a3d b332 863d
00000020: 5508 ec3c a6f7 8ebc 38bd 7abd 94b8 08bd
00000030: 21c7 473b 4274 75bd f80e c03c 3b6d 693d
00000040: 0d95 9c3c b289 2a3c d697 293d 9987 d43c
00000050: 09c8 84bd 7bac e8bc e45c 6b3d 117c 843b
00000060: 9245 0f3d d83f 50bd 716c 4bbd 30a8 e83c
00000070: a2a9 1d3d 3675 a3bc 3309 91bb 1ece 79bd
00000080: ef6c 573d 993e 9c3a 229b a33d d215 9abc
00000090: aa1f ac3b 438b 483d d58d a1bc 82e1 3fbd
000000a0: a29e 4b3b 9d24 34bd c188 77bd ce7e ce3b
000000b0: b138 8dbc e33d 693c f9e9 193d 6580 533d
000000c0: baa0 1bbb c411 2a3d bea8 12bd 4871 8c3c
000000d0: dceb 053c 78f4 46bc a457 eb3c 52db 05bc
000000e0: 0202 15bd 0ae7 d23c e369 d23c 14cb 1e3d
000000f0: 6d51 863d a47c 263d 0014 1bbd e736 99bc
00000100: b1c8 773d 88e2 bd3a bc71 033d 878c 103c
00000110: 5a7e d8bc e4ae 9dbc 3aa2 48bd 6c98 19bd
00000120: 1718 49bd 0f20 0d3d 774a 433d 00e5 563d
00000130: 9150 bbbc 6523 903c 7580 d1bc f78e 52bd
00000140: 63d9 61bc 4c36 cc3c fac8 edbc 171e ac3c
00000150: 889c d83c 54db 7b3c 489c 35bb 898a 153d
00000160: 9b6e c03c 9460 ccbc c3e8 66bd a45d c73c
00000170: 4640 803c a0fa 96bc 76d3 63bd 8872 87bc
00000180: 2d00 64bd 245e 33bd 9bc0 12bd 7072 d8bc
00000190: eeb8 58bd 495a a8bc 1912 0d3d dbf1 293b
000001a0: 0c32 66bd ad5b 173d 971e 2e3d 9d5c 153d
000001b0: 2610 4dbd b969 38bc 72a4 8e3c 5d3a ac3c
000001c0: f68e 733d 9340 4a3d c4fb a2bb 4050 3dbd
000001d0: 9e13 a6bc 4af3 d13b 805d dabc 92a2 fa3c
000001e0: 44b7 3d3d c64c 013d 75da 8cbd a030 c53c
000001f0: 5ed6 3c3d c625 093b b6f7 b3bc 2007 09bd
0.03231188 -0.06604496 -0.0055913404 -0.035228692 -0.033411007 0.040596306 0.049464412 0.06552639
0.028812567 -0.017452072 -0.06121561 -0.033379152 0.003048368 -0.059925325 0.023444638 0.056988936
0.019114042 0.010408806 0.041404568 0.025943564 -0.06483466 -0.028402558 0.057461634 0.00404311
0.034978457 -0.050842136 -0.049663965 0.02840051 0.038491853 -0.019953351 -0.0044261455 -0.060987584
0.05259412 0.0011920511 0.079885736 -0.018809233 0.005252798 0.048960935 -0.019720951 -0.04684592
0.0031069894 -0.04398023 -0.060433153 0.0063017374 -0.017238947 0.014235946 0.03757665 0.05163612
-0.0023746924 0.04152085 -0.035805456 0.01714386 0.008173909 -0.012143247 0.028728314 -0.008169966
-0.036378868 0.025744934 0.025685256 0.03876789 0.065584995 0.04064621 -0.03786087 -0.018702937
0.06049413 0.0014487067 0.032090887 0.008822567 -0.026427437 -0.019248433 -0.048982836 -0.037498876
-0.04909524 0.0344544 0.047678437 0.052464485 -0.022865565 0.017595002 -0.025573948 -0.051405873
-0.013784739 0.024928235 -0.029026497 0.021010442 0.026441827 0.015372116 -0.002771156 0.03650907
0.02349024 -0.024948396 -0.056374323 0.024336644 0.015655648 -0.018430054 -0.055621587 -0.016534105
-0.05566423 -0.04379095 -0.035828214 -0.026421756 -0.052910738 -0.020550864 0.034441087 0.002593151
-0.056200072 0.036952663 0.04250964 0.036465276 -0.05006423 -0.011255675 0.017412398 0.021023924
0.05946251 0.04937799 -0.0049738605 -0.04621911 -0.020273026 0.006407176 -0.026655912 0.030595098
0.046317354 0.031567357 -0.06877605 0.024071038 0.046102874 0.0020927056 -0.021968704 -0.03345406
