models/checkpoint0.pht.tar (torch_old, 355795 bytes, 16 tensors)

0.weight f4 [32, 26]
000000 1c 4e e3 bd 88 24 12 3d 58 17 a1 bc 41 71 21 3e
       -0.110988826 0.03567937 -0.019664451 0.15765859
000010 80 3b 2f bb d2 ac ba 3d 95 9e 43 3e 27 6b 14 3e
       -0.0026738346 0.09114994 0.19103463 0.14494
000020 a0 2c 23 3c df fa 02 3e 76 09 f4 3d 5c 7f 3e bd
       0.00995937 0.12791012 0.11915867 -0.046508178
000030 80 1d dc bb 0c c7 51 bd a4 5a 2a bd 12 b7 e3 3d
       -0.006717384 -0.051215217 -0.041590348 0.11118902
000040 8d 89 32 be d2 be fb 3d a0 5d bf bc 49 9d 36 3e
       -0.17435284 0.122922555 -0.023360074 0.17833437
000050 f9 9f 1f be 69 cc 44 be 40 bc 36 3d 40 e2 fb 3b
       -0.15588368 -0.19218601 0.044613123 0.007686883
000060 82 3d de 3d 6d c4 47 3e b7 87 fd bd b1 4c 0f 3e
       0.108515754 0.19508524 -0.12379401 0.13994099
000070 95 66 09 be 9b 7d b5 bd 48 83 01 be 5b 3e 11 be
       -0.13418038 -0.08861848 -0.12647736 -0.14183943
000080 09 9e e5 bd c2 12 48 be 60 c3 70 bd b7 0b 19 3e
       -0.112117834 -0.19538406 -0.058780074 0.14945875
000090 ac 80 69 3d 01 ad a7 bd ba 07 e7 3d f2 53 a0 3d
       0.057007477 -0.08187295 0.112807706 0.07828511
0000a0 36 c5 cc 3d f5 43 45 3e 55 34 45 3e 88 1d bf bc
       0.099985525 0.19264205 0.19258244 -0.023329511
0000b0 32 83 88 3d 02 c3 f0 3d 58 bc 52 3d ba 74 a9 3d
       0.066656485 0.11755945 0.05144915 0.08274217
0000c0 40 3c b8 bd 10 14 8f bd ff 5d 29 3e d3 96 47 be
       -0.08995867 -0.069862485 0.16539763 -0.19491129
0000d0 a0 f4 8c bc b0 0e 87 3c 57 54 46 be dd a1 3f be
       -0.01720649 0.016486496 -0.1936811 -0.1871409
0000e0 5a c2 98 3d ef b3 20 3e 2f 27 45 3e e6 40 e6 bd
       0.074589446 0.15693639 0.19253229 -0.11242847
0000f0 c0 b7 f6 3b fb c6 0d be 11 14 10 3e e9 d0 42 3e
       0.007529229 -0.13845436 0.14070155 0.19025005
000100 40 eb 60 bd 48 7c d2 3c f5 63 20 3e 64 f9 ba bd
       -0.054911852 0.025694028 0.1566313 -0.09129599
000110 a8 f3 03 be e4 34 6c 3d f0 df 36 bc c5 33 24 3e
       -0.12885916 0.057667628 -0.011161789 0.16035374
000120 d5 9d 23 3e 97 a6 0d be f5 d2 2e be ac c7 00 be
       0.15978177 -0.1383308 -0.17072661 -0.12576169
000130 12 f5 b4 3d 6d 23 fd bd 7a 53 e4 3d f0 ed 22 3d
       0.08835806 -0.123602726 0.111487344 0.039777696
000140 fc 3c 7c bd ba cc d1 3d 4e 53 bf bd 2d e6 e1 bd
       -0.061581597 0.102441266 -0.09342061 -0.11030231
000150 14 ce 1a be cd 2f 37 3e af e6 36 3e 62 c6 df bd
       -0.15117675 0.17889328 0.17861436 -0.109265104
000160 1c 68 06 bd ff 1e f5 bd a9 72 3e be 88 11 d3 3c
       -0.03281413 -0.11968803 -0.18598427 0.025765195
000170 7f 3f f8 bd c8 06 27 3d e3 6d cf bd 4e 98 af bd
       -0.12121486 0.04077795 -0.10128381 -0.08573972
000180 16 fc 8b 3d 0e c3 8b 3d 13 dd 3f 3e a0 45 d2 3c
       0.06835191 0.06824313 0.18736677 0.025667965
000190 80 48 99 ba 12 e9 bc 3d 3e 95 88 bd 70 61 87 bd
       -0.001169458 0.09224142 -0.06669091 -0.066103816
0001a0 07 1b 3b 3e b0 84 06 bd c3 2d 15 3e 5c f9 30 3d
       0.18272029 -0.032841384 0.14568238 0.043206558
0001b0 92 1d d4 3d e8 b4 01 3d 90 0e 5f bc 18 b1 3c 3d
       0.103572026 0.031666666 -0.013614312 0.046067327
0001c0 34 64 fa bd 17 77 41 be 60 a1 2e bc 4e f3 89 3d
       -0.122261435 -0.18893085 -0.010658592 0.0673586
0001d0 b3 6b e8 bd 10 a3 e4 bc bd ba 24 3e be 56 2b be
       -0.11348667 -0.027909786 0.1608686 -0.16732308
0001e0 61 1a 3d 3e 86 45 31 be 76 dc 44 be c6 40 27 be
       0.18467094 -0.17311677 -0.19224724 -0.16333303
0001f0 18 3f 3a bd 24 fd 59 bd 20 b4 de bc 99 b2 da bd
       -0.045470327 -0.05321993 -0.0271855 -0.10678596
000200 00 7c 55 3d e6 e0 a1 3d 6e 23 bf 3d 04 a5 f7 bd
       0.05212021 0.07904224 0.093329296 -0.12092021
000210 a2 01 98 3d ee 81 29 be e4 18 3d bd 00 82 e6 3a
       0.074221864 -0.1655347 -0.046166316 0.001758635
000220 38 05 d8 bc 58 c0 72 bd e4 40 32 bd cc 53 1f 3d
       -0.026369676 -0.059265465 -0.043518916 0.038898274
000230 23 cb 20 3e 56 d6 a0 bd ce d2 ce 3d f6 a2 cb 3d
       0.1570249 -0.07853381 0.100988016 0.09943192
000240 60 3e cf bc b0 81 3b 3c 8f 48 a5 bd 3b 2c 3e 3e
       -0.025298297 0.011444494 -0.0807048 0.1857156
000250 e6 a8 b4 3d 80 50 7a bb 46 f0 bf 3d f1 e1 24 be
       0.08821277 -0.0038194954 0.093720004 -0.16101815
000260 98 9a f4 bd 00 1f 94 bb 2c 4b 0c be 9b cc 36 3e
       -0.11943549 -0.004520297 -0.13700551 0.17851488
000270 9d e7 b7 bd b4 06 22 3d 00 40 a9 3b 00 c5 dc 3c
       -0.089797236 0.039557174 0.0051651 0.026949406
000280 c3 05 27 3e bf a9 29 3e 04 2e 20 bd ce 47 f3 bd
       0.16310792 0.16568659 -0.039106384 -0.1187893
000290 2e 31 a0 3d 66 00 8d 3d 60 34 6b 3c a3 10 20 3e
       0.0782188 0.068848416 0.014355749 0.15631346
0002a0 9c 89 6e bd 09 3a 42 3e 85 89 40 3e 7d 50 c4 bd
       -0.058236703 0.18967451 0.1880246 -0.095856644
0002b0 d4 94 37 3d 23 8c 0e be c4 ca 40 bd 06 f1 9c 3d
       0.044819668 -0.13920645 -0.047068372 0.07663159
0002c0 6e cd 8f 3d 76 d1 dd 3d 73 a0 24 3e 9a 59 be bd
       0.070216045 0.10830967 0.16076832 -0.09294434
0002d0 e8 6e 25 be 68 fa 9f bc f4 88 62 3d f0 ca 39 3d
       -0.16155589 -0.019528583 0.05530639 0.045359552
0002e0 5a 77 8b 3d 1a 4e b5 3d 6e c5 c3 3d e4 05 09 3d
       0.06809874 0.08852787 0.09559141 0.033452883
0002f0 7c 41 0d be 48 e1 3f be 20 48 56 3c 7d 35 1e 3e
       -0.13794512 -0.18738282 0.013078719 0.15450092
000300 fa 8f f5 3d 03 08 44 be f0 c4 e9 bd b8 5a 55 bd
       0.11990352 -0.19143681 -0.11414516 -0.05208847
000310 7a b7 1d be 00 6b 1f bb f1 d1 48 3e 30 09 3b 3d
       -0.15402022 -0.0024325252 0.19611336 0.04566306
000320 c0 47 99 bb 81 28 13 3e bf 5b ec bd 0d 1b 21 3e
       -0.0046777427 0.1437092 -0.11540937 0.15732975
000330 f0 64 3e bd bb 59 13 be 56 05 fb bd 6f 49 00 3e
       -0.04648298 -0.14389698 -0.12256877 0.12528013
000340 20 e3 3a be 94 46 4e bd 40 9f 44 3c 36 a3 e9 3d
       -0.18250704 -0.050360277 0.012000859 0.11408083
000350 a7 72 41 3e 62 e8 47 be 3b d7 1c be c5 b9 af bd
       0.18891393 -0.19522241 -0.15316479 -0.085803546
000360 3c 32 3a be 00 e3 02 3d f4 0d 20 3d 32 5d 82 3d
       -0.18183225 0.031954765 0.039075807 0.06365432
000370 f0 11 e6 3c 68 fe f2 bd 4e fa b5 3d a8 26 13 bd
       0.028084725 -0.118649304 0.088856325 -0.035925537
000380 e0 8f 96 bb ee b6 c5 3d d3 f8 1d 3e 00 87 d8 3b
       -0.004594788 0.09654032 0.1542695 0.00660789
000390 6c 4f c4 bd 22 ca c8 3d a5 df 13 3e f5 5e 12 3e
       -0.09585461 0.09804179 0.14440782 0.14294036
0003a0 91 51 2d 3e 90 97 d1 bc 08 95 0e be 37 3e b6 bd
       0.16925646 -0.025584966 -0.13924038 -0.08898585
0003b0 3e cf d3 bd 4d d2 c8 bd 2a b5 c5 3d bc 58 0b bd
       -0.10342263 -0.09805737 0.09653695 -0.03402017
0003c0 f6 d3 bb bd 74 f1 46 bd 04 18 56 3d e8 de 41 3d
       -0.09171288 -0.04857011 0.052268997 0.04733172
0003d0 a2 a3 8b bd af b1 10 3e ea dd 94 3d 0e e5 d0 3d
       -0.0681832 0.14130281 0.07268889 0.10199939
0003e0 7b e3 f7 bd ee 15 fe 3d 6e af fc 3d de 26 da 3d
       -0.12103935 0.124065265 0.12338148 0.106519446
0003f0 63 27 2b 3e a8 6f 31 3d e1 8f 12 be 5a ff a9 3d
       0.16714244 0.043319374 -0.14312698 0.083006576

0.bias f4 [32]
000000 7c fc 7a 3d 1e 01 85 3d 33 2c 32 3e ea 58 c1 3d
       0.061275944 0.06494354 0.17399673 0.09440787
000010 50 a6 45 3d 3a be bc 3d 9b 6a 02 3e 83 c4 28 be
       0.04825431 0.0921597 0.1273598 -0.16481213
000020 9d 0f 30 be 55 1b f0 bd e6 b9 3f be 82 a7 a4 3d
       -0.17193456 -0.11723963 -0.18723258 0.08039762
000030 74 99 2d bd ea 66 e0 bd d8 c9 fb bd f6 6a 24 be
       -0.042382672 -0.10957129 -0.12294358 -0.16056427
000040 7b a6 02 3e 93 99 22 3e 3a cc ca 3d 58 16 bc bc
       0.1275882 0.15878896 0.099022344 -0.022959873
000050 04 63 44 3d a6 3a d2 3d 37 e1 41 3e 20 9e cb bd
       0.04794599 0.102650926 0.18933569 -0.09942269
000060 40 18 1d 3c d8 3b 07 bd ad ed 32 3e 10 f4 92 bc
       0.009588301 -0.033016056 0.17473479 -0.017938644
000070 14 64 69 bd 8c 2b 60 bd ce 15 ea 3d d6 4d ce 3d
       -0.056980208 -0.05472903 0.1142994 0.1007344

2.weight f4 [64, 32]
000000 87 bb 10 3e c6 4d d1 3d 70 55 a6 bd 16 f9 04 be
       0.14134036 0.10219912 -0.08121765 -0.12985644
000010 c0 a4 63 bc c8 58 6d bd c0 ce be bc 78 d1 b4 bc
       -0.01389426 -0.057945997 -0.023291945 -0.022072539
000020 20 b6 a7 3b 15 67 15 3e ac 13 9f bd 66 28 8a 3d
       0.0051181465 0.14590104 -0.07767424 0.06745987
000030 1d 14 00 3e da c7 de bd c6 3b f3 3d e5 62 0e be
       0.12507673 -0.108779624 0.11876635 -0.13904913
000040 57 29 0c 3e 30 d2 d1 3c 04 6c 51 3d 9a 99 a8 3d
       0.13687645 0.02561292 0.051128402 0.08232422
000050 64 f0 28 3d 2c f9 0f 3d a5 f5 1a be 50 60 03 3c
       0.04124488 0.03514974 -0.15132768 0.008018568
000060 86 56 c8 3d a2 f1 a9 3d b0 fc 45 3d 00 c5 d9 3a
       0.09782128 0.08298041 0.048336685 0.0016614497
000070 80 bc c4 3a 64 7c 70 3d 69 9b 1c 3e 70 10 75 3d
       0.0015009791 0.05871238 0.1529366 0.05983013
000080 6e 56 b8 3d c0 21 c4 bb 4b 82 be bd bb f5 2e 3e
       0.0900086 -0.0059854686 -0.09302195 0.17085926
000090 20 66 66 3d e0 c4 36 bd 0c c7 e6 bd 63 c6 04 3e
       0.056249738 -0.04462135 -0.11268434 0.12966304
0000a0 00 fa 55 3c 0c c9 6f bd 7e 43 af bd f9 bb 30 be
       0.013060093 -0.058541343 -0.08557795 -0.17259206
0000b0 2d 92 29 be df 3a 09 3e 31 af 1b 3e 74 fc 94 3d
       -0.16559668 0.13401364 0.15203549 0.07274714
0000c0 80 b5 16 3b 90 4a 50 bc bc 0a 4f bd cb 99 20 3e
       0.0022996366 -0.01271309 -0.050547346 0.15683667
0000d0 05 4d 01 3e 00 8e 64 3a a0 c1 51 3c e0 08 74 3c
       0.12627037 0.00087186694 0.012802511 0.014894694
0000e0 e2 e6 e0 3d b8 52 17 bd d8 34 f1 3c 50 91 a6 bd
       0.109815374 -0.03694412 0.029444143 -0.08133185
0000f0 80 77 8b bc 76 b8 9f 3d 93 7a 29 3e 64 94 00 be
       -0.017024755 0.07798855 0.16550665 -0.12556607
000100 80 0b 12 3c 8c ce 2c 3d 83 12 f3 bd 23 81 21 3e
       0.008913875 0.042189166 -0.11868765 0.15771918
000110 b2 60 d2 3d da e8 aa 3d 66 91 a8 3d df 86 1d 3e
       0.102723494 0.08345194 0.082308576 0.1538348
000120 9c c0 50 bd e1 1c 9e bd 20 16 03 be 39 62 8d bd
       -0.050964937 -0.07720352 -0.12801409 -0.069035
000130 c0 8d 39 bb 0e 82 f4 3d 18 de ea 3c 2c 48 49 bd
       -0.002831325 0.119388685 0.028670356 -0.049141094
000140 e2 9a 1e be a0 41 c6 bd d1 3b d7 bd 16 67 d1 3d
       -0.1548877 -0.09680486 -0.10509456 0.1022474
000150 c0 a3 14 be a3 22 a6 bd 74 17 40 bd 80 50 29 3d
       -0.1451559 -0.08112075 -0.046897367 0.041336536
000160 44 7b 14 be 21 f0 1e be 36 38 f8 3d e8 e5 8f 3d
       -0.14500147 -0.1552129 0.121200964 0.07026273
000170 60 31 fd bc 38 d6 05 3d 13 18 21 be 90 56 4b 3c
       -0.030907333 0.032674998 -0.1573184 0.012410775
000180 40 83 02 bb 8a 1b be bd 90 1a 27 3c 18 5d 0c 3d
       -0.0019914657 -0.092825964 0.010199204 0.03426847
000190 00 45 ef bd ef 2d 27 3e 58 f0 ae 3c ca fb 31 be
       -0.116830826 0.16326116 0.02135484 -0.17381206
0001a0 f9 fd 00 3e 52 9b 87 bd d3 95 dc bd 44 73 13 bd
       0.12596883 -0.06621422 -0.10770764 -0.035998598
0001b0 04 35 4c 3d 5f 1d c1 bd fb ba 04 3e a1 81 a5 bd
       0.049855247 -0.0942943 0.12961952 -0.080813654
0001c0 51 85 e0 bd ee 5f c6 3d db 0f 22 3e 4e 57 87 bd
       -0.10962928 0.09686266 0.15826361 -0.06608449
0001d0 41 81 81 bd 80 1a fe bb 6c 2b 05 be 30 1f 25 3c
       -0.06323481 -0.007754624 -0.13004845 0.010078236
0001e0 14 93 15 be 8a ea e1 bd 69 91 2c 3e b5 7a 14 be
       -0.14606887 -0.11031063 0.16852345 -0.14499934
0001f0 0a bc dc bd aa 0a ce 3d 77 a8 c0 bd 5e 51 ef 3d
       -0.10778053 0.10060628 -0.09407132 0.116854414
000200 e7 51 db bd f0 41 8d bc 72 2c 9b 3d e0 cb a5 bc
       -0.10708981 -0.017243356 0.07576837 -0.020238817
000210 08 25 45 3d 79 80 32 3e f0 41 a7 3c 11 70 2a be
       0.04813102 0.17431821 0.020417184 -0.16644312
000220 60 d2 cf 3b 6a 26 8d 3d 67 e0 29 be f9 b1 06 3e
       0.0063422173 0.068920925 -0.16589509 0.13153829
000230 4a 2b 25 be 08 81 be bd fa 5a d2 bd 40 ac f9 bb
       -0.16129795 -0.093019545 -0.10271259 -0.0076194108
000240 26 f0 bd 3d 9e 4f b0 3d 07 0c 07 3e a1 1f 24 3e
       0.0927432 0.08608936 0.13188182 0.1602769
000250 24 4e 01 bd 58 0f 1f 3d 00 78 2b bd 82 78 fe 3d
       -0.03156866 0.038832992 -0.041862488 0.12425329
000260 a0 4f 09 bc fc 42 0d bd 60 4d 1e 3c 3e fa c1 3d
       -0.0083808005 -0.03448771 0.009662002 0.09471558
000270 1e 7e 0e be a9 a3 c6 bd 4f 32 b6 bd 0e d4 f6 bd
       -0.13915297 -0.096991844 -0.08896314 -0.12052165
000280 17 ba 02 3e e5 56 c0 bd 5d 57 0c 3e 22 b4 9f 3d
       0.127663 -0.09391574 0.13705201 0.077980295
000290 e0 61 1f 3d e0 5c 53 3d e8 a5 ac bd 14 28 68 bd
       0.0389117 0.051602244 -0.084300816 -0.056678846
0002a0 03 f7 24 be f7 91 16 be 9e ba a0 3d d5 51 a3 bd
       -0.16109852 -0.14704119 0.078480944 -0.079745926
0002b0 50 1b df 3c e2 dd ee 3d 70 75 b3 bc 5d 40 02 3e
       0.027234703 0.116634145 -0.021906585 0.12719865
0002c0 3f 77 d7 bd a5 77 a0 bd b4 a6 07 be 8a bc bf 3d
       -0.10520791 -0.078353204 -0.13247186 0.09362133
0002d0 c8 e7 21 be 3b c3 01 be a0 cc 86 3c 4c 29 14 be
       -0.15811074 -0.12672131 0.016454995 -0.14468879
0002e0 67 c3 dd bd 6e 23 2a be 70 d2 3d 3d 6c 17 1d 3d
       -0.10828286 -0.16615078 0.046343267 0.038352415
0002f0 6e 16 df 3d 11 74 2f 3e b8 d4 22 be 9d 11 8f bd
       0.1089295 0.1713412 -0.15901458 -0.06985781
000300 20 09 a3 bb 65 24 2c 3e 8e 70 f5 3d 0a 3b e4 3d
       -0.004975453 0.16810758 0.11984359 0.11144073
000310 5a ec ac 3d 80 6f 66 bb 7a 50 b0 3d ac c8 55 3d
       0.08443518 -0.0035161674 0.086091 0.05219333
000320 40 58 df bc 41 94 f1 bd 40 15 3e bb b8 3a 8e 3d
       -0.02726376 -0.11795855 -0.0029004365 0.069447935
000330 f2 77 e1 bd c1 d7 a9 bd d4 bf 91 3d 45 d1 1e be
       -0.11009206 -0.08293105 0.071166664 -0.15509517
000340 30 7a 24 be 00 3c ca b9 1f 71 f7 bd 94 b2 40 bd
       -0.16062236 -0.00038573146 -0.12082123 -0.047045305
000350 7b 9b 07 3e 36 31 e2 3d 86 35 f2 3d c0 8b 7c 3b
       0.13242905 0.110445425 0.11826615 0.0038535446
000360 65 92 25 be 40 a5 34 bb 70 50 5f 3d 8f f9 06 3e
       -0.16169126 -0.0027564317 0.05452007 0.13181137
000370 5f 52 14 3e 63 80 aa bd 26 39 01 be 31 d3 0f 3e
       0.14484547 -0.08325269 -0.12619457 0.14045407
000380 80 5e df 3a cb c4 d5 bd 68 a4 92 3d a0 68 5b bd
       0.0017041713 -0.10437926 0.07160264 -0.053566575
000390 b0 75 ee bc fa e5 34 be 4e 13 be 3d bf e5 32 be
       -0.029108852 -0.17665854 0.09281026 -0.17470454
0003a0 fa fc 76 bd c0 ad 05 3c 91 2a ba bd 05 33 16 3e
       -0.06029985 0.008159101 -0.0909015 0.146679
0003b0 7b 8b 2c be 70 ca 1b bc 2e 76 9b 3d 80 13 33 bd
       -0.16850083 -0.009508714 0.075909 -0.04371977
0003c0 c9 29 8f bd 64 ac 44 3d bf 9b b6 bd f2 de f5 bd
       -0.06990392 0.048015967 -0.08916425 -0.12005414
0003d0 08 ad b0 3c b0 b8 50 bc ea d6 01 be b8 e1 e0 bc
       0.021566883 -0.012739345 -0.1267964 -0.027451381
0003e0 32 67 d1 3d a3 08 2e be a7 ee 23 3e 80 73 0b bc
       0.10224761 -0.16995482 0.16009007 -0.008511424
0003f0 03 be 1f 3e 78 d0 22 bd 4c 37 72 bd f0 69 24 be
       0.15599827 -0.039749593 -0.059134766 -0.16056037

2.bias f4 [64]
000000 1a 22 f9 bd e2 55 fb 3d e2 75 8e bd d6 5a 96 3d
       -0.121647075 0.1227224 -0.06956078 0.07341544
000010 ca 0a e6 bd 31 95 32 be ff 49 8a bd 52 c0 e9 3d
       -0.112325266 -0.17439725 -0.06752395 0.11413635
000020 90 fc e9 bd 90 58 85 3d c4 9d 31 bd 00 62 c7 3a
       -0.114251256 0.065110326 -0.043363348 0.0015211701
000030 1e cd 0f be 10 15 50 bc 4a 75 f4 bd 18 60 93 3c
       -0.1404309 -0.012700334 -0.119364336 0.017990157
000040 ca a4 a4 3d 7c ca 2d be ce d0 1b be 74 54 9e bd
       0.080392435 -0.16971773 -0.15216371 -0.07730952
000050 00 ed 5c 3d 00 f0 16 be 30 43 03 3d 7d 7d b7 bd
       0.05393696 -0.1473999 0.032046497 -0.08959482
000060 02 43 02 be e7 86 13 3e 00 ad 03 3d a0 25 93 3d
       -0.12720874 0.1440693 0.032147408 0.07184911
000070 80 8a e7 3c a6 5c f8 3d a6 e4 c8 bd e8 29 43 bd
       0.028264284 0.12127046 -0.09809236 -0.047647387
000080 61 dd 2a 3e 40 6a 82 3b 88 c9 7b 3d 7a ae 2a be
       0.16686012 0.003979951 0.061471492 -0.1666812
000090 a0 c9 85 3b 44 d5 f7 bd 4c 8a 36 bd 9a 61 8f 3d
       0.0040828735 -0.12101224 -0.044565484 0.07001038
0000a0 fa b2 d8 3d ae c6 31 be b7 41 29 3e d5 6d 23 be
       0.10581012 -0.17360947 0.16528974 -0.15959866
0000b0 74 65 c7 bd f5 d0 ad bd 50 43 ef bc e2 22 cf 3d
       -0.097361475 -0.08487121 -0.029206902 0.10114075
0000c0 5d 2e 0e 3e ab 08 11 3e f3 fc 04 be 00 fc e3 bb
       0.13884874 0.14163463 -0.12987117 -0.006957531
0000d0 da a7 8a 3d 54 a8 9b bd 11 b3 02 3e 98 20 c4 3c
       0.067702964 -0.076004654 0.12763621 0.023941323
0000e0 13 11 04 3e 8a 64 70 bd 96 87 f8 3d 7c 67 03 bd
       0.12897138 -0.05868963 0.12135236 -0.032081112
0000f0 de 7b fc bd 77 c6 07 3e 04 67 07 3d cd 72 b4 bd
       -0.12328313 0.13259302 0.033057228 -0.08810959

4.weight f4 [128, 64]
000000 00 36 6c 3d c8 b3 39 3d 84 20 44 bd 16 c6 eb bd
       0.057668686 0.04533747 -0.04788257 -0.11512391
000010 a0 63 f1 bc ce 41 fb 3d c6 86 e4 bd 80 77 ac bc
       -0.02946645 0.122684106 -0.111585185 -0.021053076
000020 0c fe 6c 3d 9c 54 bb 3d 40 ca e2 bb 60 d3 a4 3b
       0.057859465 0.09146997 -0.0069210827 0.0050300807
000030 d2 bf c6 3d 80 8e 2a bc cc 5e c6 bd a8 81 2a bd
       0.097045556 -0.010409951 -0.0968605 -0.041627556
000040 98 2b 9b 3c 3a ad a1 bd de 93 8d 3d 20 62 5a 3c
       0.018941686 -0.078943685 0.06912969 0.013329059
000050 b4 46 8b bd 88 06 8f bd bc bf 80 bd 28 3f 8b 3c
       -0.06800595 -0.069836676 -0.062865704 0.016997889
000060 f4 29 2f bd c8 21 44 3d 2e 05 a3 bd c4 ba 04 3d
       -0.04276462 0.04788378 -0.07959972 0.032404676
000070 70 56 0c bc 78 c5 0b 3d 08 b2 51 bd 00 90 d0 3b
       -0.00856553 0.034123868 -0.051195174 0.0063648224
000080 90 b0 3c 3c 04 6a dd bd 60 24 40 bc 42 c5 c6 bd
       0.011516705 -0.108112365 -0.0117274225 -0.09705593
000090 40 e3 90 bb fe 0d d0 bd 50 d6 c5 3c 50 25 da bc
       -0.0044216216 -0.10158919 0.024150044 -0.02662912
0000a0 38 58 c7 3c 6e 56 8d 3d e0 52 f8 bb aa 78 8a 3d
       0.024334058 0.06901251 -0.007578239 0.06761296
0000b0 20 53 a6 3c be f4 c4 bd 8e d6 e4 3d bc e0 49 bd
       0.020303309 -0.09616993 0.111737356 -0.04928659
0000c0 04 1f 98 bd 20 eb e7 3c 34 1e 57 bd 00 2a b5 bd
       -0.07427791 0.028310359 -0.05251904 -0.088459015
0000d0 38 85 ef bc e4 03 4f bd ac 8f 57 bd 52 20 9f 3d
       -0.029238328 -0.05054082 -0.05262725 0.077698365
0000e0 42 f0 bd bd 48 e4 dc 3d 38 d4 92 3c b4 4d 03 3d
       -0.09274341 0.10785729 0.01792346 0.032056525
0000f0 ec 0e 1a 3d 06 f2 ea 3d 58 fb 9c bc c0 9f f5 3c
       0.037611887 0.114719436 -0.019162819 0.029983401
000100 6a 78 ad bd 1c 2e 14 bd 18 75 39 bd 94 4e 8f bd
       -0.08470233 -0.036176786 -0.045277685 -0.069974095
000110 7e 21 c5 bd 08 37 4d bd 20 3e ea 3b 32 9f a6 bd
       -0.09625529 -0.05010131 0.007148519 -0.08135833
000120 74 4a 52 bd 7c 34 5d 3d 8e 89 ea bd 34 f8 d5 bd
       -0.051340535 0.05400513 -0.11452018 -0.104477316
000130 6e 53 f8 3d b8 fb ca 3c 10 8c 06 3d a8 52 b6 bc
       0.12125288 0.024778232 0.032848418 -0.02225621
000140 a6 3c 97 bd 98 d8 d3 bc ac 6e e4 3d ea 0b f3 3d
       -0.07384615 -0.025860116 0.111539215 0.11867507
000150 5e 82 c1 bd 62 54 e0 bd 58 db fd bd 40 3f e6 bb
       -0.09448694 -0.10953595 -0.12395352 -0.007026583
000160 96 f8 b3 bd d4 44 2f 3d ca f2 a3 3d 4c e9 aa bd
       -0.087876484 0.04279025 0.08005293 -0.08345279
000170 08 5f aa 3c a8 51 c5 bc be 75 cd 3d f0 aa b5 3c
       0.020797268 -0.024086788 0.10032223 0.022176236
000180 0c 8f 6a bd 68 39 eb bc 32 9e c0 3d c0 13 88 3b
       -0.057265326 -0.028713897 0.09405173 0.004152745
000190 d8 5e 92 3c fc 8d e7 3d 2c a0 8d 3d f4 df 28 bd
       0.01786749 0.11306378 0.06915316 -0.041229203
0001a0 3e 2f 9e bd d4 99 55 3d 98 d4 aa bc a0 24 e1 bc
       -0.077238545 0.052148655 -0.020853326 -0.027483284
0001b0 a0 d8 d7 bd 64 56 75 bd 94 e9 48 bd 30 3b c9 3c
       -0.10539365 -0.05989684 -0.049050882 0.024564356
0001c0 34 6a d5 bd 88 05 71 3d 14 9b fd bd 64 95 8d 3d
       -0.10420647 0.058843166 -0.123830944 0.069132596
0001d0 50 c4 9d bd 0c d9 a9 bd cc 06 cb 3d 98 93 ac bd
       -0.07703459 -0.082933515 0.09913406 -0.08426589
0001e0 58 07 a5 3d 20 ff d6 3d 20 de e8 bd 64 62 41 bd
       0.08058041 0.1049788 -0.11370492 -0.047212973
0001f0 48 e2 5d 3d 10 99 7e 3c b8 3b 85 bd a0 54 c4 bc
       0.054170877 0.015539423 -0.06505531 -0.023966134
000200 e0 74 af bc b4 78 39 bd f2 23 bf bd fa 06 8b 3d
       -0.021418035 -0.045281127 -0.09333028 0.0678844
000210 e4 e8 b2 bd 8a ec a8 bd a0 aa d1 bb c4 dd af bd
       -0.087358266 -0.08248241 -0.006398514 -0.0858722
000220 08 a1 76 3d dc cc 0e 3d 80 33 66 bd cc 55 68 bd
       0.060212165 0.034863338 -0.056201458 -0.056722447
000230 9a 15 c8 bd fc fb 32 3d 98 7d 4c bd ec c9 a6 bd
       -0.09769745 0.043697342 -0.049924463 -0.08143982
000240 e0 c6 dd bb e2 bd e2 bd 9c 0e d7 bd 80 7d 3f bd
       -0.0067680925 -0.110713735 -0.105008334 -0.046750546
000250 2c ac 71 bd 9e 12 e5 bd 1a fa bc 3d 2a 11 aa 3d
       -0.059002087 -0.111851916 0.092273906 0.08304055
000260 14 65 44 3d 2a a4 b5 3d 40 1a bf 3c d6 c6 e8 bd
       0.047947958 0.088692024 0.023327947 -0.1136605
000270 50 f3 1a bd 40 a4 8d 3c a8 be 36 bd 04 cc 15 3d
       -0.037829697 0.017290235 -0.044615418 0.036571518
000280 6c 6e f3 3d 96 2e cf bd 8e 19 ca bd a8 1b 90 3c
       0.11886296 -0.101163074 -0.098681554 0.017591313
000290 00 31 23 bb 30 b0 e9 bd 90 65 5c bc 7c 73 f7 3d
       -0.0024901032 -0.11410558 -0.013451949 0.12082574
0002a0 20 be c6 3b d2 10 c0 3d f8 2d 3c 3d 16 0e d9 bd
       0.006065145 0.09378208 0.045942277 -0.1059839
0002b0 6a f7 88 bd 8a 13 c7 3d 38 88 18 bd c0 53 a9 3d
       -0.066878155 0.09720524 -0.037239283 0.08267927
0002c0 90 a2 52 3c 76 83 a0 3d e0 0d 0c 3c 00 60 d6 3d
       0.012856141 0.07837574 0.00854823 0.10467529
0002d0 c0 9b 02 bc 10 2c 2b 3d 2c b3 5d bd 28 5c a1 3c
       -0.007971704 0.04179007 -0.05412595 0.019697264
0002e0 78 39 06 bd e2 4f e0 bd 40 48 da bd 82 0d e9 3d
       -0.03276965 -0.109527364 -0.10658312 0.113795295
0002f0 00 b1 9a 3c 9e 98 da bd 40 2b e8 bd 9a 0a 8d 3d
       0.018883228 -0.10673641 -0.11336374 0.06886788
000300 b4 4f 84 bd c8 01 bd 3d 4c b5 b3 3d 60 a1 d4 3c
       -0.06460515 0.09228855 0.08774814 0.025955856
000310 a0 c1 db bd 82 10 cf bd ae b0 c0 3d 00 00 ba bd
       -0.107302904 -0.101105705 0.09408699 -0.09082031
000320 d0 f0 78 bc 48 7c d8 bc 50 c8 a8 3c d0 ac fc 3c
       -0.015194133 -0.02642645 0.020603329 0.030844122
000330 1a d3 97 3d f0 ff 81 3c 7a 2a cc bd ba f5 a9 bd
       0.07413311 0.01586911 -0.09969039 -0.08298822
000340 98 f5 c1 3c 8a c6 8a 3d a2 05 99 bd 74 da 0b 3d
       0.023676679 0.067761496 -0.074717775 0.03414388
000350 da 04 8d 3d 40 72 fb 3d d0 d7 39 3d f8 05 f2 3d
       0.06885691 0.12277651 0.04537183 0.11817545
000360 92 af c8 3d c8 cc f4 3d 2c 49 73 3d 4a 79 c0 bd
       0.097991124 0.119531214 0.059395954 -0.09398134
000370 1c 44 9b 3d d8 61 2b bd f0 92 d7 3c b2 d0 f5 bd
       0.0758135 -0.041841358 0.026315182 -0.12002696
000380 f6 dd eb 3d 10 a0 95 3c 1a 5b 82 bd 78 d6 25 bd
       0.11516945 0.0182648 -0.063650325 -0.040487736
000390 c0 0b a2 3d c6 f5 97 bd e0 f4 84 3b cc 3e 92 3d
       0.079123974 -0.074199244 0.0040575117 0.07140884
0003a0 50 cf 8e 3c 1c ab 80 3d 70 c0 d8 bd 4c 40 d9 3d
       0.017432839 0.062826365 -0.105835795 0.10607967
0003b0 70 c4 5d bc aa 86 ed bd 60 98 aa 3d e4 29 0b bd
       -0.013535604 -0.11597951 0.083298445 -0.033975497
0003c0 50 20 a7 bc b8 95 97 3c 78 f7 a5 bd f4 f7 3a bd
       -0.02040115 0.018504009 -0.081038415 -0.045646623
0003d0 28 78 c4 3d 16 bd fa 3d bc f5 0c bd ae 37 89 bd
       0.095932305 0.122430965 -0.034414038 -0.06700073
0003e0 98 91 b2 3d 04 93 f8 3d bc cb ba 3d c8 41 c1 3c
       0.08719176 0.12137416 0.091208905 0.023590937
0003f0 cc 8d f6 3d 7c 89 ec bd e8 94 07 3d 6c 76 1e 3d
       0.12038764 -0.115496606 0.033100992 0.038687155

4.bias f4 [128]
000000 f0 84 8b bc e2 5b 88 3d 4c f5 71 3d e8 98 9d bd
       -0.017031163 0.0665815 0.059071824 -0.0769518
000010 a8 98 97 3c b8 40 d1 3d 36 2b b0 3d f8 3b d4 bd
       0.01850541 0.10217422 0.08601992 -0.10363001
000020 e8 cc 7f 3d 52 a8 86 3d 38 7c d8 bd 64 b6 18 3d
       0.062451273 0.06575073 -0.10570568 0.037283316
000030 70 b7 fa bc 84 ce 06 3d d0 3a ad 3c 24 ef a2 3d
       -0.030605048 0.032911792 0.021146208 0.07955769
000040 36 ad 94 bd 02 7c ae bd 20 4d 1b 3c 5c c5 10 bd
       -0.072596 -0.08519746 0.009478837 -0.035344467
000050 28 4f 93 bc 9a 30 80 bd 08 47 c8 bc 9c 80 eb 3d
       -0.01798208 -0.0625927 -0.024447933 0.1149914
000060 1c 70 d8 3d 60 40 ff bd bc 53 99 3d f8 bb eb bd
       0.10568258 -0.124634504 0.07486674 -0.115104616
000070 68 24 67 3d 34 a8 0c bd 40 12 09 3c 30 aa 1e bc
       0.056431204 -0.0343401 0.008366168 -0.009684131
000080 c6 87 b5 bd 28 51 cb 3d a8 50 ca bd 9e 5c ae 3d
       -0.08863787 0.09927589 -0.09878665 0.08513759
000090 9e d6 c4 bd 42 92 cc 3d 7c c4 b3 bd f8 6b 17 3d
       -0.096112475 0.09988834 -0.08777711 0.0369682
0000a0 a0 b7 68 bc fa 0b cb 3d f4 81 1f bd dc ae 75 bd
       -0.014203936 0.09914394 -0.038942292 -0.059981212
0000b0 a6 95 9a 3d 18 5d 86 bd 24 8d b0 3d 00 ee 3c bb
       0.075480744 -0.06560725 0.086206704 -0.0028828382
0000c0 94 a3 05 bd f8 44 72 3d f6 cc a2 3d 14 04 6f bd
       -0.032626703 0.059147805 0.079492494 -0.0583535
0000d0 34 0c f0 3d a4 79 e8 3d 20 fb e7 bd 10 24 71 3d
       0.117210776 0.11351326 -0.11327195 0.058872283
0000e0 3e ec ed 3d e2 17 c8 3d 34 6d 51 3d 18 98 33 bd
       0.11617325 0.0977018 0.051129535 -0.04384622
0000f0 04 e1 37 bd f4 d3 c6 3d 78 57 4b 3d 22 7f de bd
       -0.044892326 0.097083956 0.049643964 -0.108640924
000100 5e 1a e5 3d 2a b1 b9 bd 50 da bf bc d0 10 85 bc
       0.1118667 -0.090669945 -0.02341953 -0.016243368
000110 b4 fc 80 3d 40 91 7d bd 74 0d e9 3d 24 3b df 3d
       0.06298199 -0.0619061 0.11379519 0.10899952
000120 40 26 9f 3d 5c d6 ee bd 78 41 96 bd 9c 3b 01 bd
       0.077709675 -0.116619796 -0.07336706 -0.03155099
000130 76 ab e9 3d d0 3c ee 3c d8 c9 ac bc c8 4c 2e bd
       0.11409657 0.029081732 -0.02109234 -0.042553693
000140 dc 45 66 3d 54 a5 14 3d 68 05 91 3d 24 8b ee bd
       0.056218967 0.03629048 0.07081109 -0.11647633
000150 18 48 a4 bc 14 ec 2e bd 9e cb 8c bd 90 ef d6 bc
       -0.020053908 -0.04270561 -0.068747744 -0.02623728
000160 0e 68 9c bd a4 45 50 bd 32 41 e3 bd 54 11 2c bd
       -0.07637034 -0.050847664 -0.110964194 -0.042008713
000170 5c 89 84 3d 9c 66 aa bd ca 29 c6 3d 6e 61 ab bd
       0.06471512 -0.083203524 0.096759394 -0.083681926
000180 d2 c5 85 bd f6 a0 a9 bd 80 76 88 bc c8 d9 bd bd
       -0.06531872 -0.08282654 -0.016658068 -0.09270054
000190 00 1a 2f bc 98 7b 98 bc 9e a2 a0 3d 80 22 4c bd
       -0.010687351 -0.018613622 0.07843517 -0.04983759
0001a0 f0 44 77 bd bc 31 cd 3d e0 da fb bc a4 2c 1c bd
       -0.06036848 0.10019252 -0.030744016 -0.03812851
0001b0 98 4d 97 bd 68 ab a4 bc 74 fb 84 bd 5c 6b af 3d
       -0.07387847 -0.020101264 -0.064932734 0.08565399
0001c0 a0 2f 00 bd 00 08 97 38 f8 32 a0 bd 60 4d c8 bc
       -0.03129542 7.201731e-05 -0.078222215 -0.024450958
0001d0 e0 81 2f 3c 0c c8 1f bd c0 86 47 bd b0 d1 3c bc
       0.010712117 -0.03900914 -0.048712492 -0.011524603
0001e0 20 9d cc 3c 74 00 a3 3d 00 bd 71 3d 7c 1a 32 bd
       0.024977267 0.07959071 0.059018135 -0.04348229
0001f0 0c 52 3f 3d 72 ee e1 bd f2 38 c2 3d e0 a9 ce 3d
       0.046709105 -0.11031808 0.09483518 0.10090995

6.weight f4 [256, 128]
000000 ba e3 16 3d a7 3c ad bd 70 e5 06 bd 7f b3 17 bd
       0.03683827 -0.08458834 -0.032933652 -0.037036415
000010 7d 83 9e bd 64 f6 d5 3c 81 6b a2 3d b5 8c 9b 3d
       -0.07739923 0.026118465 0.07930661 0.07595197
000020 c0 82 49 3b 96 62 34 3d 40 4e 56 3c 41 e0 99 bd
       0.00307481 0.04403933 0.01308018 -0.07513476
000030 7b 53 68 bd 28 26 ed bc 03 b0 09 bd bc 28 a2 3c
       -0.05672024 -0.028948858 -0.033615123 0.019794814
000040 c2 39 8f bd c6 e7 6c 3d 38 e2 d3 bc 5a ed 18 3d
       -0.06993438 0.057838224 -0.025864705 0.03733573
000050 06 8c 7a 3d 66 d5 56 3d 8d 52 a0 3d 90 6f 05 3c
       0.061168693 0.052449606 0.07828245 0.008144274
000060 f6 48 07 3d da 21 48 bd 96 31 75 3d f6 fa 2e 3d
       0.033028565 -0.04886041 0.059861742 0.042719804
000070 a0 77 be 3c be 79 32 3d 0f 63 8c 3d 5e e8 70 3d
       0.023250401 0.043573134 0.068548314 0.058815353
000080 26 b8 aa bd 88 45 28 bd b9 19 a6 3d 5d 7c 82 3d
       -0.08335905 -0.041081935 0.08110375 0.06371377
000090 b2 4d 7c 3d 1e 6e ef bc b0 9e 37 bc 25 19 a5 3d
       0.061597534 -0.029227313 -0.011207268 0.080614366
0000a0 50 a1 72 bc 8f 81 98 bd a0 51 9e bd 0a b6 66 3d
       -0.014808968 -0.07446586 -0.077304125 0.05632595
0000b0 e0 42 42 3b cd 93 a1 bd 30 04 d4 3c f6 d6 3b bd
       0.0029641911 -0.07889519 0.025880903 -0.0458593
0000c0 8e 28 38 bd 67 dd a3 bd c1 ca 82 bd a4 d6 f6 bc
       -0.04496055 -0.080012135 -0.063863285 -0.030131646
0000d0 97 af 80 bd 86 c0 16 3d cc 5f 02 3d f0 17 e6 bb
       -0.06283491 0.0368047 0.03182964 -0.0070218965
0000e0 40 9d 3d 3c 8e de 66 3d e8 bd 8e bd 90 48 bf bc
       0.011573136 0.05636459 -0.069698155 -0.02335003
0000f0 1a bf aa bd 24 cc 16 bd c3 88 ad 3d 2d 78 8d 3d
       -0.08337231 -0.036815777 0.08473351 0.06907687
000100 4f f5 89 bd 07 86 92 3d 89 66 b4 bd 01 9e 91 3d
       -0.06736242 0.0715447 -0.088086195 0.07110215
000110 18 35 4e bc de 90 7e 3d 34 63 80 bd 30 9d d4 3c
       -0.012585901 0.062149875 -0.062689215 0.02595386
000120 db 6d 9a 3d 58 25 b8 3c 32 f4 a3 bd 4b 3b b3 3d
       0.075404845 0.022478744 -0.08005561 0.087515436
000130 2e b0 88 bd 85 7a 8a 3d e0 3e ff 3c 35 5d 97 bd
       -0.066742286 0.0676165 0.03115791 -0.07390825
000140 a2 c9 9c bd f5 6d 9f 3d 66 05 f2 bc 68 56 ca 3c
       -0.07655646 0.077846445 -0.02954359 0.024699405
000150 f3 ff 33 bd b8 c5 cc bc b4 03 dc bc 5a e1 5d 3d
       -0.043945264 -0.024996623 -0.026857235 0.05416999
000160 69 df 83 3d 68 42 eb bc ec 2e 0d bd 2e 21 6d 3d
       0.064390965 -0.028718188 -0.034468576 0.05789297
000170 b8 4d 71 bc 66 3e 4b bd 00 57 de bc 28 a9 81 bc
       -0.014728002 -0.049620055 -0.027141094 -0.01582773
000180 e6 0a 7c 3d 36 d5 54 3d ae 81 50 3d 4a 25 45 3d
       0.06153383 0.051961146 0.050904922 0.048131265
000190 73 ab b1 3d 83 04 a2 3d c1 17 09 bd 80 f0 1f 3b
       0.086752795 0.07911017 -0.03346992 0.0024404824
0001a0 92 7a 30 3d a4 61 9b bd a2 be 29 3d 25 6b ac 3d
       0.043085642 -0.07586983 0.041441567 0.08418874
0001b0 76 5a 4d 3d 5a dd 13 3d 48 ae 78 bc cd 5b 82 3d
       0.0501351 0.03609977 -0.015178271 0.06365166
0001c0 32 af 35 bd b2 f4 54 3d a8 14 f4 3c c6 df 48 3d
       -0.044356532 0.051991172 0.029795006 0.049041532
0001d0 16 e6 9d bd 25 e8 87 bd 6c ab 86 bd 7e 71 4a bd
       -0.07709901 -0.06636075 -0.06575665 -0.04942464
0001e0 f2 37 97 bd be e0 30 bd 84 26 a3 3c 10 a8 44 3c
       -0.073837176 -0.04318308 0.019915827 0.01200296
0001f0 d1 86 86 bd d4 e7 b9 bc 60 25 41 bb 6d 83 8e 3d
       -0.06568683 -0.022693552 -0.002947174 0.06958661
000200 20 13 4e 3c 20 11 7d 3b 9d d8 a9 bd 00 19 2a bc
       0.012577802 0.0038614944 -0.08293269 -0.010381937
000210 97 ef 91 bd 6d 74 a7 bd 73 dc 1a bd be fa 43 3d
       -0.07125776 -0.08176503 -0.037807893 0.04784655
000220 1e 52 24 3d 60 bc f5 bb 40 8b f2 3c a1 d7 ad 3d
       0.040117376 -0.0074992627 0.029607415 0.084883936
000230 98 44 0e bc 4e 6e 62 3d 00 10 8a b9 80 68 81 3c
       -0.008683346 0.055280976 -0.00026333332 0.0157969
000240 04 1f bc 3c 83 4e b0 3d e8 d5 7e 3c ed 10 a8 3d
       0.022964008 0.08608725 0.015553929 0.08206353
000250 e4 7a 77 bd 48 cc a5 3c b2 bc 75 bd ce c6 7b 3d
       -0.060419932 0.02023901 -0.059994407 0.06146889
000260 c0 c7 28 bb 40 c6 c1 bb 4b db 84 3d ea 6e 4c 3d
       -0.0025753826 -0.005913526 0.06487139 0.049910463
000270 ce 9a 6d bd d7 67 af 3d 40 f6 ed 3b c9 8b 9e 3d
       -0.05800896 0.08564728 0.0072620213 0.07741506
000280 2b 8b 83 3d 30 3a 71 bd 6d d2 ae 3d f7 f3 89 3d
       0.064230286 -0.058893383 0.08536229 0.06735986
000290 f8 3a 35 3c f0 cc 50 bc ec c6 d6 bc 2a 38 47 bd
       0.0110614225 -0.012744173 -0.0262179 -0.048637547
0002a0 9c 8c 82 3c 90 cd b1 bc 1a 65 7e 3d 0a b7 8c bd
       0.015936188 -0.021704465 0.062108137 -0.068708494
0002b0 90 54 b1 3c 44 2e ed 3c 06 2c 0e bd 60 ac 65 3c
       0.021646768 0.028952725 -0.034709953 0.014018148
0002c0 c2 f2 04 3d 98 02 0a 3c c0 72 bf bb 7e 30 3a 3d
       0.032458074 0.00842347 -0.0058425367 0.045456402
0002d0 50 a4 de 3b 6b 7d 90 3d 66 93 27 3d db a6 9e 3d
       0.00679449 0.070551716 0.040912054 0.07746669
0002e0 0e 91 5c 3d 67 de 8e 3d 18 b3 d0 3c 88 2f ba bc
       0.053849272 0.06976014 0.025476024 -0.022727743
0002f0 f2 1e 4e 3d b1 49 7f bd 76 ad e4 bc 07 10 86 3d
       0.05032248 -0.062326137 -0.027914744 0.06546026
000300 59 38 50 bd 74 20 e6 3c 38 4c 37 3c a6 8a 52 bd
       -0.050834987 0.028091647 0.011187606 -0.051401757
000310 ea 17 4f 3d 4f a4 aa 3d 61 bf 80 bd 5e 68 6a 3d
       0.050559916 0.083321206 -0.06286503 0.05722844
000320 92 db a6 bd b6 8d 69 bd f3 7a 83 bd ca e1 81 bd
       -0.081473485 -0.05701991 -0.06419935 -0.06341894
000330 6b 10 90 bd 50 46 87 bd df bf a9 bd 61 a0 87 3d
       -0.070343815 -0.06605208 -0.0828855 0.06622387
000340 fb 14 8d 3d 90 36 d2 3b 0a f8 98 bd 9c d0 a9 bd
       0.06888767 0.0064151958 -0.07469185 -0.08291742
000350 f8 6c 72 bd 40 7e 43 3b 74 52 c5 bc b0 f8 5d 3c
       -0.059185952 0.002982989 -0.024087168 0.013548061
000360 10 17 00 3d 1e 5f 5a 3d da a7 2e bd 95 3f 5b bd
       0.031271994 0.053313367 -0.042640544 -0.053527433
000370 08 30 c8 3c 18 0a 43 bc dc c0 79 bd 62 9e 8e bd
       0.024436966 -0.011904262 -0.06097494 -0.06963803
000380 f7 d5 a3 bd b0 a4 d4 3b 40 aa ab 3c c8 b9 fe 3c
       -0.07999795 0.006489359 0.020955205 0.031094447
000390 00 ad b4 bc c3 66 a7 3d 49 57 a7 bd a0 88 c6 bb
       -0.02205515 0.08173897 -0.08170945 -0.0060587674
0003a0 b0 d4 0a bc 02 06 2c 3d c6 ff 58 3d dd 69 92 bd
       -0.00847356 0.041997917 0.0529783 -0.07149098
0003b0 80 b8 34 3c 64 52 af bd 3a ac 15 bd 40 39 c7 bb
       0.011030316 -0.08560637 -0.0365412 -0.006079823
0003c0 1c 74 0b bd d8 1d f7 3c 02 e8 30 3d ae 92 9f bd
       -0.034046277 0.030165598 0.04319001 -0.07791649
0003d0 dc cb 87 bc b8 a5 c4 3c 1d 75 24 bd 68 a8 5c bd
       -0.0165767 0.024004802 -0.04015075 -0.053871542
0003e0 32 6a 7b bd 68 b3 8b bc 5a 35 5f bd 00 6e c2 3a
       -0.061380573 -0.017053321 -0.05449424 0.0014833808
0003f0 32 93 ac bd 91 c0 a4 bd 72 cd 70 bd f4 ea 10 bd
       -0.08426513 -0.080445416 -0.058789678 -0.03538032

6.bias f4 [256]
000000 80 8d 66 bc 69 ce 7c bd 18 d9 78 bd a3 a6 af bd
       -0.014071822 -0.061720286 -0.06075391 -0.08576705
000010 68 0e 22 bc 0c e8 08 3d 9b 25 55 bd 6e 0c 61 bd
       -0.00989113 0.033424422 -0.052037816 -0.054943494
000020 f5 b5 93 3d d6 75 64 3d 84 45 f8 bc 6a 64 3e 3d
       0.0721244 0.05577644 -0.030306585 0.04648248
000030 ea 28 04 bd e0 a3 57 bb 00 94 8b b9 36 79 48 bd
       -0.03226558 -0.0032904074 -0.00026622415 -0.04894372
000040 44 6d fc 3c a9 f5 84 3d 70 ee dd 3b 60 f3 80 3b
       0.03081382 0.064921685 0.0067728087 0.0039352626
000050 7c b5 90 3c 00 a5 ba 3a 63 ad 63 bd 30 a4 e0 bb
       0.017664663 0.0014239848 -0.055585276 -0.00685551
000060 1b 7f 88 bd ee 86 35 3d 01 31 80 3d 78 45 a1 bc
       -0.066648684 0.044318132 0.06259347 -0.019686446
000070 20 bf 75 bb 40 22 9d bd 4e a6 17 bd f6 33 77 3d
       -0.0037497953 -0.07672548 -0.037023835 0.06035229
000080 d2 b8 30 3d 30 67 d4 bb 07 ba 96 3d 87 f2 26 bd
       0.04314501 -0.0064820275 0.07359701 -0.040758636
000090 a2 f6 3c bd ef 3c ab bd 6a 38 06 3d 2d ee 81 bd
       -0.046133645 -0.083612315 0.032768644 -0.063442566
0000a0 a3 4e 43 bd a2 13 4e 3d c0 88 75 bc 68 3d 0f bd
       -0.047682416 0.050311692 -0.014986217 -0.03497067
0000b0 00 62 57 3a ec bc ee 3c 20 68 4d 3b 20 ff 52 bb
       0.0008216202 0.02914282 0.003134258 -0.0032195523
0000c0 67 ab a5 bd b7 b0 81 3d 7a 4b 8d bd c7 ae 39 bd
       -0.08089333 0.06332534 -0.06899162 -0.045332696
0000d0 f0 c4 10 3c 9a d5 2a bd ed b5 b0 3d 66 ab 30 bd
       0.008836016 -0.041707613 0.086284496 -0.04313221
0000e0 43 0d 56 bd f7 3e 8c bd 30 eb 97 bd 4e 0f 2e 3d
       -0.05225874 -0.06847947 -0.07417905 0.042495064
0000f0 31 b5 60 bd 76 d2 16 bd 64 dd de 3c 4a 15 f2 bc
       -0.054860298 -0.036821805 0.027205177 -0.029551167
000100 51 aa 93 3d 19 e2 82 3d 5b a0 ac bd 29 f6 8d 3d
       0.0721022 0.06390781 -0.08429023 0.06931717
000110 6f 54 a7 bd 80 59 2d bd e0 23 f0 bb e5 3f 2c bd
       -0.08170401 -0.042321682 -0.0073284954 -0.042053122
000120 e0 75 70 bd 7c e6 6d bd fe 3f 7d 3d 22 d8 39 bd
       -0.058706164 -0.058081135 0.061828606 -0.045372136
000130 70 6b 92 bd 88 46 5f 3c 50 e6 c3 3b 8d 2f 40 bd
       -0.07149398 0.013627656 0.005978383 -0.046920348
000140 a6 fb 65 3d e0 54 90 bd a4 20 f2 3c 3d d6 ad 3d
       0.056148194 -0.070474386 0.02955658 0.08488128
000150 80 fc 7c bb b3 51 9a 3d 5c e1 8e bd b6 a5 90 bd
       -0.003860265 0.07535114 -0.06976578 -0.07062857
000160 20 28 98 bd 40 46 58 3b 61 94 b4 3d 9f 0b 4a bd
       -0.07429528 0.0033000857 0.088173635 -0.04932749
000170 fe da 31 bd 21 00 99 bd af 8d 7f bd 9a c7 0f bd
       -0.043421738 -0.07470728 -0.06239098 -0.035102464
000180 c0 cb 3e 3c d1 f9 a5 3d c2 d6 1c 3d 86 a8 6c bd
       0.0116452575 0.08104289 0.038290747 -0.057777904
000190 e9 22 83 bd 43 41 82 bd 00 25 f6 bb 00 90 7c bc
       -0.06403143 -0.06360104 -0.007511735 -0.015415192
0001a0 e3 14 81 3d 18 4a 64 3c 3e 41 49 3d 9c 7c c8 bc
       0.06302812 0.013933681 0.049134485 -0.02447348
0001b0 17 62 aa bd 92 75 59 3d e5 f7 a1 bd 43 20 a3 3d
       -0.083194904 0.05309064 -0.0790861 0.07965138
0001c0 8e dd 3e bd a8 af ac bd 57 e1 8f 3d 48 32 ae 3c
       -0.04659801 -0.08431941 0.07025402 0.02126421
0001d0 9d 28 b0 bd 44 21 a3 bc e4 3c 90 3c 36 1e 43 3d
       -0.08601496 -0.019913323 0.01760716 0.047636233
0001e0 94 d7 02 3d 82 98 ae bd 50 c2 ab 3c c8 67 88 bc
       0.031943873 -0.08525182 0.020966679 -0.01665105
0001f0 20 06 f7 3c 30 35 03 3d e0 7c 6b 3b 9f 23 0b bd
       0.030154288 0.032033145 0.0035932586 -0.033969518
000200 06 61 39 3d 60 8a b7 3b b0 42 83 3b 80 60 49 bb
       0.045258544 0.0056012124 0.0040057525 -0.0030727684
000210 64 f3 b6 3c 79 65 91 3d 7e 4b 2f 3d a8 76 28 bc
       0.022332855 0.070994325 0.042796604 -0.010282196
000220 28 c5 2b bd 50 df 35 3c 6c 96 3c bd b1 77 b4 3d
       -0.04193607 0.011100605 -0.04604189 0.08811892
000230 98 8c 9e bc 54 4c 82 3c bf ce 95 bd 06 25 b4 bd
       -0.01935415 0.015905537 -0.07314824 -0.08796124
000240 06 e4 78 bd 5f 6c 1a bd 90 77 f1 3b 5e 9d 64 3d
       -0.060764335 -0.037701007 0.0073689893 0.05581414
000250 00 b1 e3 bb 68 11 71 bd 40 9a e6 3b 08 b8 74 3c
       -0.0069485903 -0.05885449 0.007037431 0.014936455
000260 20 47 a8 3b 70 5c c2 bb d7 95 b2 3d 34 31 87 3c
       0.005135432 -0.0059314296 0.08719986 0.016502954
000270 7d aa 96 bd 7c e8 0b 3d 5c 9c 0d bd 40 02 d7 bc
       -0.07356737 0.03415726 -0.034572944 -0.02624619
000280 b1 cd 89 3d 50 ff 50 bc a8 31 c4 3c 32 07 53 3d
       0.06728686 -0.012756184 0.02394946 0.051520534
000290 36 69 6f 3d a8 87 ec 3c 3e 0d 5e 3d d8 60 82 bd
       0.058449946 0.02887328 0.054211847 -0.06366128
0002a0 63 ef 89 3d 76 33 44 3d 9a ad 6a bd da b8 b1 bd
       0.067351125 0.04790064 -0.057294466 -0.08677836
0002b0 a5 10 0e bd 98 ba 46 bc f2 91 44 3d 70 e9 de 3b
       -0.034683842 -0.012129448 0.047990747 0.0068027303
0002c0 44 c7 a0 bd 54 ab 97 3c 88 6a c9 3c 98 6a b9 bc
       -0.07850507 0.018514313 0.02458693 -0.022633836
0002d0 ae 14 45 3d 26 ac 77 3d 73 a0 43 bd ef 8a 95 3d
       0.048115425 0.060466908 -0.04776044 0.0730189
0002e0 e1 01 97 3d 81 79 15 bd 63 0d 9e 3d 38 11 cd 3c
       0.07373405 -0.03649283 0.07717397 0.025032625
0002f0 78 df df 3c 72 82 51 3d a3 a5 3a bd d9 a3 6a bd
       0.027328238 0.051149793 -0.04556812 -0.057285164
000300 59 46 89 3d a3 9c ae bd 88 af e4 bc 13 66 a8 bd
       0.06702871 -0.0852597 -0.027915731 -0.08222594
000310 30 c7 b7 3b 0b 4c 8d 3d 9b 81 4b bd 70 05 e6 3c
       0.005608462 0.0689927 -0.04968415 0.028078765
000320 60 7c db 3b dd b0 92 3d ac 46 f3 3c cb 1b 66 bd
       0.0066981763 0.0716264 0.029696785 -0.05617885
000330 e8 ca 65 bd 84 6f ed bc 20 40 51 3c b0 a1 b5 bc
       -0.05610171 -0.028983839 0.012771636 -0.022171825
000340 6a 88 11 3d e9 8d 30 bd c0 a2 11 3b a2 ea 68 3d
       0.035530485 -0.043104086 0.002222225 0.05686439
000350 80 c7 9e 3b 1e c0 86 bd 78 29 9a bd 84 aa e9 bc
       0.0048455596 -0.06579612 -0.07527441 -0.028523691
000360 ec 66 a2 bc 80 14 d4 3c 4c 9f 11 3d fc 28 e9 bc
       -0.019824468 0.025888681 0.035552308 -0.028461926
000370 47 50 84 3d 80 76 0f 3a e8 d4 3c bc 40 dd 06 bb
       0.06460624 0.0005472675 -0.01152537 -0.0020578653
000380 14 6c a1 bc 1b 51 9f bd 07 3e 5d bd 63 76 8b 3d
       -0.019704856 -0.077791415 -0.054014232 0.0680969
000390 41 f4 86 bd 40 65 d9 3b 78 60 fa 3c 33 08 b4 3d
       -0.065895565 0.0066343844 0.030563578 0.087906264
0003a0 00 f8 ee 3a 10 07 fd 3c 18 98 50 bd 36 18 3e 3d
       0.0018231869 0.030887157 -0.050926298 0.046409808
0003b0 60 fe 37 bb 8e 67 45 3d 5a 36 59 3d ce 72 18 3d
       -0.0028075203 0.04819446 0.05303035 0.03721886
0003c0 e0 3f 05 3b d8 c8 66 3c f8 f9 d6 3c 6c 26 d0 bc
       0.0020332262 0.014085971 0.026242241 -0.025408946
0003d0 d7 76 0f bd 2f 26 0f bd c6 2d 76 bd c9 35 82 3d
       -0.035025444 -0.034948524 -0.060102247 0.06357915
0003e0 e4 a1 ab 3c 60 1b 80 bc 40 47 e2 3b 88 1e be bc
       0.020951219 -0.015638053 0.0069054663 -0.023207918
0003f0 e0 ce 2f bc 22 6c 66 3d 60 36 20 bb 98 1d d4 3c
       -0.010730475 0.056255467 -0.0024446473 0.025893018

8.weight f4 [128, 256]
000000 a8 8c 39 bc 74 64 53 3d ba 34 62 3d 88 92 d0 bc
       -0.011325039 0.05160947 0.055226065 -0.025460497
000010 0e 39 41 bd a0 34 d1 bc d4 6d b3 3c d0 34 14 bd
       -0.047173552 -0.025537789 0.021902956 -0.03618318
000020 4e 3e 0a 3d 86 ac 4f bd f2 d8 1f bd 82 c8 45 bd
       0.033750825 -0.05070164 -0.039025255 -0.048286922
000030 46 4c 4c bd 78 7f 3a 3d 60 e2 25 bc b8 ef 9b 3c
       -0.049877428 0.04553172 -0.010124773 0.019035205
000040 80 84 f6 ba e0 68 c0 bb b4 fd fc 3c 7e c5 77 3d
       -0.0018807799 -0.005871877 0.030882694 0.060491078
000050 ce 51 35 bd c2 7a 30 3d 80 6a dc bc 08 9b 25 bd
       -0.04426747 0.04308582 -0.026906252 -0.040431052
000060 e8 8b 70 bd 92 8e 26 3d 98 d6 f1 bc de 0e 79 3d
       -0.058727175 0.04066331 -0.029521272 0.060805194
000070 9e cb 03 bd 00 1c ff b9 c0 e1 9f 3a b0 13 89 bc
       -0.032176606 -0.00048658252 0.0012198016 -0.01673302
000080 b4 33 93 3c 5c 14 fa 3c 08 f4 3d bd f8 ea 60 bd
       0.01796899 0.030527286 -0.046375304 -0.054911584
000090 ce d3 49 bd b8 b0 39 3d d8 05 89 3c d4 3b 64 3d
       -0.04927426 0.045334548 0.01672642 0.05572112
0000a0 14 5a f2 3c a0 d4 78 bc 84 48 c9 bc 9e 1c 6f 3d
       0.029583968 -0.0151874125 -0.024570711 0.0583769
0000b0 0c df ce bc 20 dd 65 3b 0e 7b 56 3d 08 41 4d 3c
       -0.025252841 0.0035074428 0.052363448 0.012527712
0000c0 22 3e 11 3d 68 f8 b6 bc a0 90 8a 3c ce e4 59 3d
       0.035459645 -0.022335246 0.016914666 0.05319672
0000d0 2c 59 da 3c 82 e3 04 3d ee 9a 09 3d 4a 17 0c bd
       0.026653849 0.03244353 0.033595018 -0.034201898
0000e0 70 e5 5c 3c 46 85 68 3d a0 78 20 bc 4c af 69 bd
       0.013482437 0.056767724 -0.009794384 -0.05705194
0000f0 30 f3 e2 3c c8 0c c6 3c 1e 4e 15 bd 90 c0 48 bc
       0.027703851 0.024176016 -0.03645145 -0.012252942
000100 9c 69 2f 3d a6 58 2c 3d 84 03 e5 3c 48 7d 7b bc
       0.042825326 0.04207673 0.027955778 -0.015349694
000110 64 5b ba 3c bc 14 c2 bc f4 3d 5e bd 70 d8 a4 3b
       0.022748657 -0.023691528 -0.0542583 0.005030684
000120 c2 59 0f 3d c0 78 e7 3b a8 f4 c7 3c 04 b8 cd 3c
       0.03499771 0.007063955 0.024408653 0.02511216
000130 dc 54 f7 3c 80 e6 76 3a f8 64 9a 3c 3c b9 47 3d
       0.030191831 0.00094185024 0.018846974 0.048760638
000140 0c c4 1c 3d a0 42 68 3c c8 af b6 3c ec 47 9d 3c
       0.038272902 0.014176041 0.022300616 0.019199334
000150 c0 38 d5 ba b0 ba 06 bd 34 32 7f 3d 5c e9 0e 3d
       -0.0016267523 -0.032892883 0.062303737 0.034890518
000160 d0 06 0c bd ec b4 0e bd e8 d6 1c 3c 56 30 3a bd
       -0.034186184 -0.03484051 0.009572722 -0.045456253
000170 d0 e0 1b 3d 40 2f 1c 3d 66 0c 74 bd 16 b5 7a bd
       0.038056195 0.038131 -0.059582137 -0.061207853
000180 08 5d 65 bc 44 0e 9b bc e8 c1 5e 3d fc 4d 24 bd
       -0.013999231 -0.0189277 0.054384142 -0.040113434
000190 94 70 0e bd c4 99 f8 3c dc 4c 59 bd 84 ed 96 3c
       -0.03477533 0.030346759 -0.053051814 0.018423803
0001a0 d8 b8 fb 3c 3e 06 01 bd 50 b8 58 3c c8 76 74 3c
       0.030727789 -0.031500094 0.013227537 0.014920898
0001b0 d0 ca 20 bd 02 66 0a bd 50 8b c2 bc aa 4c 20 3d
       -0.039255917 -0.03378869 -0.02374807 0.039135613
0001c0 78 43 de 3c 0a b9 54 3d 7e 59 17 3d 80 01 72 bc
       0.027131781 0.05193428 0.03695058 -0.014770865
0001d0 fc 4c 19 3d be ba 7b 3d ec 85 03 3d b0 14 9c bc
       0.037426934 0.061457388 0.03211014 -0.019052833
0001e0 00 b8 80 3b 40 02 4f bb 10 d3 cd bb 40 4e 01 3d
       0.0039281845 -0.0031587034 -0.006281264 0.031568766
0001f0 64 55 b9 3c d4 36 29 bd 16 e6 13 bd 84 af c0 3c
       0.022623725 -0.041312054 -0.0361081 0.023521192
000200 c0 35 b0 bc 00 f1 37 3c 2c a0 76 3d 6c f4 9d bc
       -0.021510005 0.0112268925 0.060211346 -0.019281588
000210 32 d4 49 3d 8c fd 1c 3d 62 57 29 3d 9c 0b 71 bd
       0.04927463 0.03832774 0.0413431 -0.058848962
000220 80 e8 47 3c 40 ad 56 3d 32 39 46 bd 5a 47 4d bd
       0.012201428 0.052411318 -0.04839439 -0.050116874
000230 34 45 92 3c f8 6a 37 3c c0 5d 68 bc d0 ff 2d bc
       0.017855264 0.011194937 -0.014182508 -0.0106200725
000240 c8 a9 68 3c 58 3d 5f bd 14 8f fe bc ae 1b 2e 3d
       0.014200635 -0.05450186 -0.031074084 0.042506866
000250 8a 5e 3a 3d 3c ca 12 bd be 73 1f 3d 6a 95 49 3d
       0.045500316 -0.035837397 0.03892874 0.049214758
000260 28 d1 ae 3c b4 6a f3 bc 50 2e ae bb 24 32 0d bd
       0.021339968 -0.029713966 -0.0053155795 -0.034471646
000270 0e d9 3c bd 68 01 0e bc 00 57 8f bb 6c ec 8b 3c
       -0.046105437 -0.008667327 -0.004374385 0.017080508
000280 da 6a 10 3d 50 c2 16 3c 00 17 8e b9 1a b9 61 3d
       0.03525815 0.009201601 -0.00027101487 0.055108167
000290 c4 d7 36 bd 98 7f 4e bc 7c 09 40 bd 26 c2 15 3d
       -0.044639364 -0.012603663 -0.046884045 0.036562108
0002a0 74 7a 52 bd c4 b0 5e 3d d8 36 5d 3d c8 94 01 bd
       -0.05138631 0.054367796 0.05400738 -0.03163603
0002b0 7c 20 82 bc a4 c2 4b 3d d4 e3 bc bc 70 f8 59 bd
       -0.01588463 0.04974617 -0.023057856 -0.053215444
0002c0 ac fe 3c bd c4 8c d7 bc aa 7c 7b bd ce 37 58 bd
       -0.04614131 -0.02631224 -0.061398186 -0.052787594
0002d0 8e 25 64 3d 66 fd 34 3d d8 eb 99 3c b0 12 75 3d
       0.055699877 0.044186972 0.018789217 0.059832275
0002e0 72 b9 70 bd 96 58 72 3d 80 84 33 ba bc e6 df 3c
       -0.058770604 0.059166513 -0.0006848052 0.027331702
0002f0 58 f7 4d 3c 0c 0a e7 3c 10 09 f0 3c 0a 8f 72 bd
       0.012571178 0.028203033 0.029301196 -0.059218444
000300 06 dc 07 3d 40 e9 ed 3c 86 38 24 bd 8a d3 70 bd
       0.033168815 0.029041886 -0.040092967 -0.05879549
000310 74 1a 6e bd c0 22 84 bb 4a 63 79 3d c0 80 4f bc
       -0.058130696 -0.004032463 0.060885705 -0.012664974
000320 cc 9d 51 3d 12 c4 34 bd 0e 0d 7a 3d fc ec be bc
       0.051175877 -0.0441323 0.061047606 -0.023306362
000330 00 93 97 b9 e8 fe 1d 3c f8 82 55 3d 48 70 60 bc
       -0.00028910488 0.009643294 0.052126855 -0.013698645
000340 cc e4 79 bd 98 6e 1f bc 82 38 71 bd 94 62 97 bc
       -0.061009213 -0.009730957 -0.05889178 -0.018479623
000350 f6 d3 07 bd 90 01 38 3c 56 4d 06 bd 70 17 94 3c
       -0.033161126 0.011230841 -0.032788597 0.018077582
000360 48 2e 97 bc b8 33 60 3d c4 6b c9 3c 00 3a c0 3a
       -0.018454686 0.054736823 0.02458752 0.0014665723
000370 22 28 7b 3d 70 b6 da 3b 04 99 40 bd 70 77 d2 bb
       0.06131757 0.0066745803 -0.047020927 -0.0064229295
000380 84 93 bb 3c 94 62 48 bd 08 24 27 3c 68 1a 02 3d
       0.02289749 -0.048922136 0.010201462 0.031763464
000390 06 77 51 bd 88 9f 8d bc 34 58 64 bd 30 4c 40 bd
       -0.0511389 -0.017287984 -0.05574818 -0.046947658
0003a0 f8 85 83 3c 70 11 59 bc e0 5a f3 bb 08 a9 43 bc
       0.016055092 -0.013248786 -0.0074266046 -0.011942156
0003b0 50 58 23 bc f0 38 4e bc 40 24 1a 3c 40 1c 8f 3c
       -0.009969786 -0.012586817 0.009408057 0.017469525
0003c0 40 5a 36 3b 40 bd f2 ba 84 58 f6 bc d0 e8 28 bc
       0.002782479 -0.0018519536 -0.030071504 -0.010309413
0003d0 40 53 7f 3d 8c 81 d7 3c 1c 6e 9d bc 90 3c ee bb
       0.062335253 0.02630689 -0.019217543 -0.007270403
0003e0 1e f6 38 3d 52 ef 20 3d b8 e9 58 3d 8c 6d af bc
       0.04515659 0.039290734 0.052957267 -0.02141454
0003f0 40 8d c9 3c ec 8e 4c 3d 30 b4 ef bb 00 3e a7 ba
       0.024603486 0.04994099 -0.007315181 -0.0012759566
